spaceinvaders-v0-bottom-7fskip_latent32/model.34.tar (torch, 223035 bytes, 13 tensors)

conv1.weight f4 [32, 4, 3, 3]
-0.022309618 -0.11576514 -0.05283885 0.019347906 -0.30480546 0.020933162 0.098599374 0.08361603
-0.0052128285 -0.0710488 0.11542693 0.020533692 0.012459452 0.0124525055 -0.05007599 0.06286118
0.100591525 -0.016535135 0.04897705 0.068720415 -0.040069293 -0.06934844 -0.016281586 -0.06613834
0.08222181 0.00689687 0.11972641 0.1689282 -0.25974354 0.060040746 0.08571389 0.24668905
0.12768494 -0.28431284 -0.1453019 -0.17758793 0.00666502 -0.09748411 0.12269988 -0.06873507
0.10320643 0.009303657 0.1895052 -0.050529975 -0.12877306 -0.002083484 -0.10292475 -0.013809475
-0.038416807 0.028653555 -0.09369857 -0.030247247 0.09959579 0.023923004 0.036888357 0.1533572
-0.0056740954 -0.08791119 0.053746823 0.11085634 -0.040806428 0.028118042 0.035904266 0.3214415
-0.24067062 -0.1257332 0.039998006 -0.1196111 -0.05655647 -0.31626487 0.19205002 -0.048882116
0.11053895 -0.031525567 0.21422702 -0.0797124 0.06480075 0.1922568 -0.2209332 -0.057165787
-0.08002782 -0.12907153 0.039194483 0.0280596 -0.008059532 -0.122716434 -0.073323354 0.1052381
-0.10767827 0.17590454 0.07752596 -0.033799894 0.16207917 -0.005056092 -0.13089243 -0.018563516
0.1474338 0.04479411 -0.1236522 -0.047870155 0.14261115 -0.1168418 0.0678697 -0.05634275
-0.20592284 -0.069917485 0.28025967 0.025963234 0.17269114 0.10544625 0.003639034 0.13946454
0.25897947 -0.054196943 0.107044965 0.3298036 0.10661328 0.09500706 -0.17503612 -0.14198916
-0.13798688 -0.029100144 0.17029575 -0.06638944 0.057420373 -0.14359911 -0.062389344 -0.026418094
0.12096518 0.14475992 -0.1836874 0.053361427 0.124304816 0.09173443 0.07438669 0.093558006
0.03846915 0.14268874 -0.1786799 -0.48908958 -0.16680457 -0.0382788 -0.20969695 0.0011849703
-0.09208297 -0.12315333 0.20402926 0.05079842 0.06322028 -0.0010159502 -0.039351437 0.3110164
-0.09363855 -0.07962155 -0.18844318 -0.118359886 -0.12252327 -0.06312032 0.019724697 -0.040386807
-0.037195574 0.0066413363 -0.06071777 0.06711696 -0.086251624 -0.028590893 -0.12640454 -0.08231268
-0.074238345 -0.09520085 -0.117189154 0.180373 0.0817474 -0.071896166 0.15404765 0.20622861
0.2071531 0.024297591 -0.1820276 0.21449386 -0.11601882 -0.15323594 -0.22088128 -0.122611694
-0.3513065 -0.009843556 -0.25089127 -0.34642997 -0.1798618 -0.060950566 0.06066565 -0.055854756
-0.12493358 -0.055644732 0.049710743 -0.13341737 0.043021806 0.024387008 0.1896825 -0.06845147
0.099139616 -0.15876652 0.114745386 -0.08888353 0.123702474 0.046293747 -0.06798235 0.15356849
0.23425487 0.26525396 0.013771825 0.13252366 -0.058101043 0.20342849 0.30780867 0.25415608
0.26110435 0.015214751 0.033338442 0.21536633 -0.0065204725 0.20136398 -0.21771494 -0.30234164
0.055816177 -0.031488918 -0.035593025 0.21516457 0.11771979 0.08414349 0.018590638 -0.1488649
0.059756253 -0.07066395 0.005719582 0.010052092 0.011208169 0.13037983 0.02413057 -0.0473281
-0.15320964 -0.014430108 0.06378932 -0.108659446 -0.3057106 -0.07761159 -0.17921454 -0.2654656
-0.12759107 0.21401508 0.32208022 0.0357207 -0.07344413 -0.023703728 -0.08561825 -0.2714674
00000000: a9c2 b6bc 4616 edbd 8d6d 58bd 807f 9e3c
00000010: 760f 9cbe 067c ab3c 78ee c93d e23e ab3d
00000020: 60d0 aabb 0982 91bd f464 ec3d 4636 a83c
00000030: bb22 4c3c 9805 4c3c 7b1c 4dbd 5dbd 803d
00000040: ee02 ce3d b174 87bc 299c 483d 4abd 8c3d
00000050: b31f 24bd 8e06 8ebd f660 85bc 8a73 87bd
00000060: e963 a83d 24ff e13b 1f33 f53d 84fb 2c3e
00000070: 1bfd 84be 49ed 753d c48a af3d 0e9c 7c3e
00000080: d7bf 023e 7491 91be 05ca 14be 9cd9 35be
00000090: 3d66 da3b c0a5 c7bd 134a fb3d f9c4 8cbd
000000a0: e55d d33d 5e6e 183c a70d 423e 85f8 4ebd
000000b0: 16dd 03be 108b 08bb 36ca d2bd 2341 62bc
000000c0: f15a 1dbd dcba ea3c 09e5 bfbd 13c9 f7bc
000000d0: e1f8 cb3d 2dfa c33c 3f18 173d ab09 1d3e
000000e0: c3ed b9bb c80a b4bd a125 5c3d a608 e33d
000000f0: a424 27bd cf57 e63c 5a10 133d fb93 a43e
00000100: 5c72 76be 34c0 00be f3d4 233d aaf6 f4bd
00000110: c2a7 67bd 78ed a1be c3a8 443e 9d38 48bd
00000120: 3f62 e23d f420 01bd 545e 5b3e 4140 a3bd
00000130: 41b6 843d f7de 443e 503c 62be ac26 6abd
00000140: a0e5 a3bd 542b 04be 658a 203d 3fdd e53c
00000150: 210c 04bc c152 fbbd 8e2a 96bd 1387 d73d
00000160: 6d86 dcbd 5220 343e eec5 9e3d c271 0abd
00000170: 15f8 253e 93ad a5bb aa08 06be 8412 98bc
00000180: e3f8 163e 077a 373d 5d3d fdbd 7f13 44bd
00000190: a808 123e c14a efbd 45ff 8a3d a8c7 66bd
000001a0: 70dd 52be e630 8fbd 327e 8f3e d9b0 d43c
000001b0: f2d5 303e 34f4 d73d dc7c 6e3b cbcf 0e3e
000001c0: f598 843e 9dfd 5dbd 643a db3d 04dc a83e
000001d0: 1058 da3d 1093 c23d ab3c 33be 9b65 11be
000001e0: 6f4c 0dbe 6d63 eebc 0262 2e3e 30f7 87bd
000001f0: a031 6b3d a50b 13be f88b 7fbd c26a d8bc
00000200: 98bc f73d f23b 143e 8d18 3cbe 8391 5a3d
00000210: 8693 fe3d 43df bb3d 0d58 983d 579b bf3d
00000220: d491 1d3d ff1c 123e ddf7 36be f369 fabe
00000230: d1ce 2abe 3bca 1cbd ccba 56be 0151 9b3a
00000240: ff95 bcbd d037 fcbd 0ced 503e 0112 503d
00000250: a279 813d a229 85ba f92e 21bd 8b3d 9f3e
00000260: 91c5 bfbd a010 a3bd 40f7 40be ab66 f2bd
00000270: 7bed fabd 3a45 81bd b095 a13c a36c 25bd
00000280: 635a 18bd 919f d93b 32b3 78bd 9e74 893d
00000290: b1a4 b0bd 7337 eabc 3170 01be 8d93 a8bd
000002a0: 460a 98bd aaf8 c2bd de00 f0bd b3b3 383e
000002b0: 2e6b a73d 4c3e 93bd abbe 1d3e 982d 533e
000002c0: f11f 543e be0b c73c 7165 3abe 47a4 5b3e
000002d0: 469b edbd e2e9 1cbe b42e 62be d71b fbbd
000002e0: 72de b3be de46 21bc d274 80be 455f b1be
000002f0: b12d 38be 4da7 79bd 8b7c 783d f5c7 64bd
00000300: 2ddd ffbd bbeb 63bd 7e9d 4b3d 909e 08be
00000310: a237 303d 43c7 c73c 213c 423e 4930 8cbd
00000320: b609 cb3d b193 22be a1ff ea3d 9108 b6bd
00000330: b957 fd3d 839e 3d3d 553a 8bbd 0f41 1d3e
00000340: 82e0 6f3e 5ecf 873e 38a3 613c 48b4 073e
00000350: 5cfb 6dbd 8f4f 503e 1999 9d3e bf20 823e
00000360: 78af 853e 4a47 793c e48d 083d fe88 5c3e
00000370: b0a9 d5bb 5c32 4e3e aaf0 5ebe 86cc 9abe
00000380: 819f 643d 86fa 00bd fec9 11bd 1a54 5c3e
00000390: 1317 f13d 6c53 ac3d 654b 983c 0a70 18be
000003a0: f9c2 743d 43b8 90bd 556b bb3b 88b1 243c
000003b0: 78a2 373c 4a82 053e 79ad c53c 1cdb 41bd
000003c0: fde2 1cbe 426c 6cbc faa3 823d d888 debd
000003d0: 1a86 9cbe d3f2 9ebd 0484 37be 1beb 87be
000003e0: 3ca7 02be c526 5b3e b3e7 a43e de4f 123d
000003f0: e069 96bd 522e c2bc 9f58 afbd c6fd 8abe

conv1.bias f4 [32]
0.001787347 0.00049831346 -0.009436158 -0.011973892 0.0042209583 0.009578857 -0.00840029 -0.0021515244
0.0061162827 0.006496972 0.0071632667 -0.0084838215 0.0024782957 0.008858834 0.0016264637 0.08481208
-0.0027523993 -0.0023569698 0.05254996 0.00044243006 0.006677564 -0.005328794 0.0005500619 -0.008140196
0.0035646062 0.010867803 0.00158696 -0.0038604913 -0.007092866 -0.013371863 0.0041710483 0.0055480455
00000000: 6a45 ea3a 40a1 023a 1e9a 1abc 252e 44bc
00000010: f74f 8a3b a3f0 1c3c 5fa1 09bc 9700 0dbb
00000020: 196b c83b 8de4 d43b d6b9 ea3b baff 0abc
00000030: e76a 223b a524 113c 112f d53a f5b1 ad3d
00000040: 9961 34bb 6477 1abb a03e 573d f5f5 e739
00000050: 77cf da3b 2a9d aebb 0732 103a 755e 05bc
00000060: 2b9c 693b df0e 323c 8b01 d03a 4c00 7dbb
00000070: 466b e8bb a915 5bbc 4aad 883b 61cc b53b

conv2.weight f4 [32, 32, 3, 3]
-0.08971691 -0.034542345 0.082496025 0.24797632 0.30550697 -0.16353151 -0.08557006 -0.19548853
0.014538731 0.0407836 -0.20658039 0.006544335 0.110597916 0.14545469 0.037996292 0.11396218
-0.06855452 -0.06597171 0.041468687 -0.13925561 -0.11987659 -0.05850381 -0.0549892 0.12854767
0.024475383 0.027240392 -0.023311129 0.0031432253 -0.17917928 -0.04645844 -0.19367523 -0.26422328
0.046815608 -0.05254957 0.057639778 -0.037454523 -0.03514312 0.029196786 0.05808468 0.14533079
0.16716576 -0.004016953 -0.13720916 -0.28510964 -0.011954872 0.15876584 -0.02452202 -0.25290278
0.01355618 -0.10018971 -0.098319516 -0.016503796 0.04851432 0.067585535 0.109136835 0.0394837
-0.07592054 -0.17755726 0.0074947355 0.10003692 -0.012550901 -0.05840862 -0.16951177 -0.08619924
-0.03424849 -0.08496615 0.13473499 0.17702225 -0.14801611 0.003699159 -0.030832604 0.18914834
-0.08338333 0.2221297 0.11466874 0.12908274 0.09538757 -0.03934762 -0.1942151 -0.25698447
0.07035416 0.08695401 -0.026040468 -0.051200546 -0.00067843456 0.11264059 -0.06969105 -0.120612174
0.13461177 0.07168902 -0.06560966 0.00049636996 0.013481515 0.1858594 0.37789097 -0.1291567
0.0051450534 -0.049272954 -0.078420594 0.1532559 -0.033596043 0.02853596 0.081895515 -0.025468748
0.10423808 -0.08453759 -0.16263515 -0.19964978 -0.091189176 0.07055316 0.06720165 0.30555627
0.14508179 -0.07294728 -0.02504698 -0.28694955 0.041442037 -0.08423018 0.09415038 0.26756978
0.14127402 0.031667996 -0.008082865 0.13679548 -0.17080764 0.08280046 0.019934932 -0.06282618
-0.075178675 0.02395222 -0.040312048 0.073729835 -0.06864907 -0.049614683 -0.06428445 -0.0108685335
-0.07783946 -0.08351949 0.003734521 0.13185315 0.11257255 -0.003499732 -0.059261404 -0.09156146
-0.047487497 -0.07428054 -0.09920691 0.10667197 0.02509636 -0.0830562 0.14904001 0.048549432
0.11189764 -0.17327487 0.079797745 0.026274754 0.012129656 0.16878156 -0.015734203 0.06922279
-0.08541922 -0.05351655 0.008749467 -0.045493007 -0.04934515 0.0045121294 0.09659661 0.121310264
-0.072680175 -0.0763275 0.008249955 0.12018765 -0.018657114 0.062056046 0.03578225 -0.08140648
0.020225868 -0.10912265 -0.16926147 0.010808842 -0.013275868 -0.1055308 0.064601816 0.1314561
0.16986518 -0.023404991 0.07869635 -0.11136659 -0.09252965 0.13172217 0.02103063 0.004346623
-0.0803611 -0.13636476 0.023213657 0.07400581 0.019525535 -0.016725713 -0.050913494 0.025937628
0.060803488 0.037334904 0.0071332227 -0.040926334 -0.04378047 -0.043531507 0.06494004 -0.13185436
-0.03646237 0.15299733 -0.15166557 0.0009666429 -0.062994465 0.075226404 0.15403943 -0.06787376
0.04903923 0.068003476 0.041829422 -0.03288338 -0.12729034 -0.11295151 0.050687246 -0.15167566
-0.092326745 0.1111957 -0.019202933 -0.0039567617 0.03579436 -0.060766958 -0.085686475 -0.19384982
-0.054443855 0.059989337 0.027149431 -0.13155457 -0.03153521 0.0055948445 0.059459466 -0.21064869
-0.1798174 0.20128214 0.044945214 0.19341102 -0.246021 -0.12239082 -0.0810794 -0.23597032
-0.05181058 0.112681374 0.22246918 0.14742076 0.06312157 0.20495687 -0.060686577 -0.35833353
00000000: 80bd b7bd 467c 0dbd adf3 a83d 81ed 7d3e
00000010: 696b 9c3e ce74 27be 5b3f afbd 252e 48be
00000020: dc33 6e3c b40c 273d cf89 53be dc71 d63b
00000030: 2981 e23d 13f2 143e 00a2 1b3d 0165 e93d
00000040: 5066 8cbd 2d1c 87bd 12db 293d 0699 0ebe
00000050: dc81 f5bd b1a1 6fbd 5b3c 61bd 00a2 033e
00000060: 9980 c83c 3e27 df3c fbf6 bebc 92fe 4d3b
00000070: c67a 37be 354b 3ebd cd52 46be 4648 87be
00000080: b9c1 3f3d 383e 57bd b017 6c3d ea69 19bd
00000090: 3bf2 0fbd 192e ef3c 34ea 6d3d 98d1 143e
000000a0: 802d 2b3e a5a0 83bb 8f80 0cbe e4f9 91be
000000b0: 5ede 43bc 8393 223e 67e2 c8bc 797c 81be
000000c0: bd1a 5e3c 4330 cdbd be5b c9bd f832 87bc
000000d0: f4b6 463d 496a 8a3d 2283 df3d a9b9 213d
000000e0: 3a7c 9bbd 92d1 35be 6696 f53b 28e0 cc3d
000000f0: 4ba2 4dbc e13d 6fbd 7e94 2dbe 3a89 b0bd
00000100: 2548 0cbd bc02 aebd f8f7 093e 5245 353e
00000110: 8991 17be 976d 723b a894 fcbc 1ab0 413e
00000120: e1c4 aabd f875 633e 72d7 ea3d 442e 043e
00000130: 8f5a c33d f82a 21bd 53e0 46be 7893 83be
00000140: d815 903d f214 b23d d252 d5bc aab7 51bd
00000150: f9d8 31ba 1cb0 e63d 2eba 8ebd 8403 f7bd
00000160: abd7 093e b1d1 923d 5c5e 86bd d31e 023a
00000170: 93e1 5c3c ed51 3e3e ed7a c13e a741 04be
00000180: d697 a83b 70d2 49bd fa9a a0bd 1def 1c3e
00000190: 019c 09bd 3fc4 e93c d6b8 a73d d6a3 d0bc
000001a0: c67a d53d 0b22 adbd d489 26be fe70 4cbe
000001b0: 64c1 babd 2d7e 903d 05a1 893d df71 9c3e
000001c0: 5290 143e 6265 95bd 532f cdbc 0deb 92be
000001d0: 20bf 293d df80 acbd ead1 c03d e8fe 883e
000001e0: 23aa 103e 4db6 013d fe6d 04bc 1d14 0c3e
000001f0: 33e8 2ebe 4a93 a93d 954e a33c 03ab 80bd
00000200: 47f7 99bd 7237 c43c 3f1e 25bd abff 963d
00000210: e297 8cbd c438 4bbd 91a7 83bd ef11 32bc
00000220: 4b6a 9fbd 440c abbd debe 743b 8304 073e
00000230: 708c e63d c25b 65bb 16bc 72bd 9384 bbbd
00000240: 4082 42bd 6520 98bd fe2c cbbd d576 da3d
00000250: e296 cd3c 5e19 aabd f29d 183e c5db 463d
00000260: 972a e53d f86e 31be 006d a33d 273e d73c
00000270: 77bb 463c 13d5 2c3e 04e5 80bc aec4 8d3d
00000280: 46f0 aebd 2c34 5bbd ed59 0f3c e056 3abd
00000290: 241e 4abd 7cda 933b 72d4 c53d 8471 f83d
000002a0: 58d9 94bd 9851 9cbd d22a 073c f124 f63d
000002b0: ced6 98bc 7b2e 7e3d 6990 123d 71b8 a6bd
000002c0: b8b0 a53c b27b dfbd e152 2dbe 9217 313c
000002d0: 0783 59bc 8820 d8bd f54d 843d 6e9c 063e
000002e0: 23f1 2d3e d3bb bfbc 8d2b a13d 2b14 e4bd
000002f0: 2f80 bdbd 2de2 063e 6e48 ac3c 1e6e 8e3b
00000300: 5c94 a4bd 34a3 0bbe 912a be3c 5c90 973d
00000310: 04f4 9f3c 5d04 89bc ab8a 50bd 267b d43c
00000320: 140d 793d 7cec 183d cfbd e93b 5fa2 27bd
00000330: 2653 33bd 184e 32bd 49ff 843d d404 07be
00000340: 9159 15bd 55ab 1c3e 384e 1bbe 4f66 7d3a
00000350: 3e03 81bd 4d10 9a3d 83bc 1d3e 6601 8bbd
00000360: 5cdd 483d 6845 8b3d 5455 2b3d b9b0 06bd
00000370: 6658 02be 1f53 e7bd 6e9d 4f3d dd50 1bbe
00000380: ce15 bdbd 92ba e33d 784f 9dbc b9a7 81bb
00000390: 1b9d 123d c6e6 78bd 647c afbd 9180 46be
000003a0: 8500 5fbd 61b7 753d 7c68 de3c 3eb6 06be
000003b0: 102b 01bd f554 b73b c58b 733d 4ab4 57be
000003c0: 0d22 38be e81c 4e3e 7918 383d 8a0d 463e
000003d0: eeec 7bbe 0aa8 fabd f50c a6bd 34a2 71be
000003e0: 5537 54bd 7ec5 e63d f6ce 633e 78f5 163e
000003f0: e245 813d 37e0 513e 7d92 78bd 7e77 b7be

conv2.bias f4 [32]
-0.011934678 -0.0101656765 -0.0071280836 -0.010441359 -0.018576847 -0.0038224822 -0.010747496 -0.0073393113
0.0033901331 -0.017535137 -0.010365648 -0.012306953 0.0022379744 0.00064572063 -0.00019208092 -0.0017525447
-0.008915458 0.0034572857 0.012038607 0.00022411332 0.006075408 -0.002301592 -0.0019603209 0.006127911
0.0022500101 0.0071844603 -0.0044734245 -0.016368369 -0.0035385343 -0.00026090926 0.0018446812 -0.0009694061
00000000: ab89 43bc f08d 26bc b392 e9bb 3c12 2bbc
00000010: 792e 98bc 9c82 7abb 4416 30bc 9b7e f0bb
00000020: ff2c 5e3b d9a5 8fbc aed4 29bc 1aa3 49bc
00000030: fbaa 123b 9445 293a 5469 49b9 a4b5 e5ba
00000040: 2412 12bc a193 623b 943d 453c f6ff 6a39
00000050: 3714 c73b 4ed6 16bb ba78 00bb a5cc c83b
00000060: e874 133b 9f6b eb3b ce95 92bb f516 86bc
00000070: c1e6 67bb a6ca 88b9 3bc9 f13a be1f 7eba

conv3.weight f4 [32, 32, 3, 3]
-0.055796962 0.0020711294 -0.0067302524 0.16553368 0.08219386 0.1348864 -0.022022666 0.006969884
0.023864008 0.136831 -0.058958698 -0.06422913 -0.19780546 -0.07004361 0.10168202 0.15929355
-0.026849778 -0.010487987 -0.002433014 -0.117732026 0.03143073 -0.008957126 -0.053922895 -0.0125745265
0.11962347 0.039977495 0.011655029 0.035748858 -0.02113101 -0.057800103 -0.06248083 0.022709796
-0.1451831 0.10046529 0.0021732904 0.09438015 0.006779542 0.04835257 -0.15675148 0.08900872
0.043600198 -0.002877035 0.08724157 0.11762874 -0.07747859 -0.032800507 -0.06999672 -0.041557908
0.16060847 0.1010767 -0.02872507 -0.072001636 -0.05738593 0.08305811 -0.046399318 -0.06189549
-0.11417136 -0.019601224 0.008596689 0.0897246 -0.049730122 0.008377297 0.019399043 -0.059020143
-0.12549317 0.052968014 0.20405187 -0.10448301 -0.03116846 -0.0741334 -0.00910001 0.12680966
0.04070787 -0.071969144 0.001513869 -0.083804 -0.06876351 -0.00674827 0.05990911 0.085808575
-0.0881159 0.048635464 -0.009426635 -0.091837175 -0.11368622 0.05104641 -0.048600595 0.02547621
0.0030813718 0.011461191 0.016928624 -0.05588821 0.04780318 0.22559318 0.08579897 -0.05936849
-0.015820792 -0.12885675 -0.06764028 0.015166916 0.020536197 -0.009090522 0.111811705 0.0764029
0.0012156917 0.011027967 0.12250987 -0.0067592934 0.013364815 0.047042254 0.034464397 -0.10958285
-0.062896475 -0.069607705 -0.032204296 0.043180823 -0.042869568 0.008757504 -0.01978807 0.030632662
-0.033369545 0.027420016 -0.07606184 0.065973915 -0.07364433 0.15177077 0.109957516 0.09956684
-0.097186565 0.053030383 0.10409258 0.039063375 0.16266994 0.13580802 0.0815474 0.04923256
-0.050688706 -0.06289299 -0.10586199 -0.09135593 0.11362415 0.08741353 -0.03344125 -0.067699544
0.037042897 -0.03396045 0.030898714 -0.103355974 0.00010374108 -0.035665445 0.12209304 0.052997645
-0.114505805 -0.11609839 -0.068257704 0.08253055 0.0037164448 -0.02060846 0.051665466 -0.026016485
0.046272293 -0.05929801 -0.029452158 -0.057148844 0.045046728 0.06381047 -0.05858783 -0.0059745773
-0.05727451 -0.06101826 -0.08588231 -0.012545003 0.08679326 0.1380233 0.022198075 -0.06377088
-0.03661066 -0.17243701 -0.07345734 0.041505143 -0.045864683 -0.039996874 -0.121213034 0.025050495
0.06691515 0.004819077 -0.022511339 0.010426173 -0.044338793 -0.0057137706 -0.011998116 0.021200782
-0.098377824 -0.1455092 0.0050507183 0.0014642844 -0.033239007 0.06233039 -0.0038985596 -0.032324396
-0.10819411 0.028791636 0.021733437 0.06376842 -0.035727073 0.06793089 -0.013542147 -0.0074253553
0.02102655 -0.18059999 0.0996444 -0.10829868 -0.01761307 -0.037923064 -0.09718671 -0.03937915
-0.08120196 0.0799678 0.22088152 -0.004153011 -0.004317378 -0.04266285 -0.049160026 -0.059778284
0.16349463 0.032951176 -0.051006347 0.053301513 -0.11349548 -0.12007492 0.04675994 0.106895864
-0.00076895935 -0.13761441 -0.05974677 0.13196628 0.11450831 0.12828892 0.022803266 -0.024342015
0.022183154 -0.014081809 -0.06430138 -0.020413179 -0.06872952 0.05516489 0.11192084 -0.04031093
-0.10429376 -0.05593257 -0.13629222 0.011761088 -0.04238638 -0.06968363 0.25177997 -0.050145444
00000000: 5b8b 64bd c9bb 073b 7389 dcbb a981 293e
00000010: 4155 a83d a91f 0a3e e168 b4bc a063 e43b
00000020: 747e c33c 6d1d 0c3e ad7e 71bd 908a 83bd
00000030: 848d 4abe 0673 8fbd aa3e d03d d91d 233e
00000040: 11f4 dbbc ced5 2bbc 3473 1fbb 7d1d f1bd
00000050: 82bd 003d e9c0 12bc 41de 5cbd 6305 4ebc
00000060: 26fd f43d 71bf 233d bcf4 3e3c 656d 123d
00000070: f11a adbc cdbf 6cbd e6eb 7fbd e509 ba3c
00000080: e1aa 14be bfc0 cd3d c36d 0e3b 614a c13d
00000090: ec26 de3b 580d 463d 7683 20be 344a b63d
000000a0: 1f96 323d a38c 3cbb b5ab b23d 56e7 f03d
000000b0: 18ad 9ebd d359 06bd 715a 8fbd a038 2abd
000000c0: 8c76 243e 4d01 cf3d d750 ebbc 9875 93bd
000000d0: 820d 6bbd 5f1a aa3d 360d 3ebd 2086 7dbd
000000e0: add2 e9bd bf92 a0bc 21d9 0c3c 88c1 b73d
000000f0: d0b1 4bbd ee40 093c beea 9e3c 1bbf 71bd
00000100: 4881 00be fdf4 583d f9f2 503e 30fb d5bd
00000110: 0055 ffbc 41d3 97bd 3518 15bc 64da 013e
00000120: 4cbd 263d 8f64 93bd 046d c63a 6ea1 abbd
00000130: e2d3 8cbd 9720 ddbb 4163 753d 68bc af3d
00000140: 1c76 b4bd fb35 473d 2c72 1abc 2115 bcbd
00000150: 52d4 e8bd 0a16 513d 6b11 47bd 7cb3 d03c
00000160: d7f0 493b b8c7 3b3c e6ad 8a3c 09eb 64bd
00000170: 44cd 433d e601 673e 5fb7 af3d 602c 73bd
00000180: 9b9a 81bc 06f3 03be fd86 8abd a87e 783c
00000190: 873b a83c 6af0 14bc 89fd e43d 2079 9c3d
000001a0: d857 9f3a a5ae 343c 74e6 fa3d 107d ddbb
000001b0: 19f8 5a3c 61af 403d 8a2a 0d3d f96c e0bd
000001c0: decf 80bd 7c8e 8ebd a7e8 03bd 60de 303d
000001d0: 0098 2fbd a27b 0f3c 971a a2bc 59f1 fa3c
000001e0: 81ae 08bd f19f e03c 4fc6 9bbd 551d 873d
000001f0: d7d2 96bd cc69 1b3e 6831 e13d b3e9 cb3d
00000200: c009 c7bd 6336 593d 7e2e d53d eb00 203d
00000210: f392 263e 4211 0b3e 5302 a73d 15a8 493d
00000220: f69e 4fbd 0ace 80bd 2cce d8bd d118 bbbd
00000230: c7b3 e83d dd05 b33d b1f9 08bd 0fa6 8abd
00000240: 4bba 173d 1d1a 0bbd 4d1f fd3c 4cac d3bd
00000250: 918f d938 ee15 12bd ea0b fa3d 0f14 593d
00000260: 0582 eabd fec4 edbd b2ca 8bbd c705 a93d
00000270: 998f 733b 13d3 a8bc 2b9f 533d 8620 d5bc
00000280: 0488 3d3d 78e2 72bd a745 f1bc e814 6abd
00000290: eb82 383d 10af 823d cbf9 6fbd 63c6 c3bb
000002a0: ad98 6abd 48ee 79bd 11e3 afbd 8e89 4dbc
000002b0: aac0 b13d fb55 0d3e bdd8 b53c 4f9a 82bd
000002c0: 0ff5 15bd 5493 30be cd70 96bd 4c01 2a3d
000002d0: 9bdc 3bbd c3d3 23bd 8a3e f8bd b236 cd3c
000002e0: cf0a 893d 59e9 9d3b b369 b8bc 8ad2 2a3c
000002f0: 989c 35bd 953a bbbb bf93 44bc 43ad ad3c
00000300: 507a c9bd 5d00 15be 7f80 a53b 3bed bf3a
00000310: a025 08bd 274e 7f3d fa7e 7fbb 9666 04bd
00000320: e094 ddbd 70dc eb3c 520a b23c 0499 823d
00000330: 8d56 12bd 5a1f 8b3d e2df 5dbc 6550 f3bb
00000340: df3f ac3c 34ef 38be 5d12 cc3d b3cb ddbd
00000350: 4949 90bc 3755 1bbd d309 c7bd 084c 21bd
00000360: 374d a6bd 28c6 a33d c42e 623e fb15 88bb
00000370: cb78 8dbb 3ebf 2ebd 065c 49bd 13da 74bd
00000380: 236b 273e d0f7 063d 08ec 50bd b052 5a3d
00000390: 5170 e8bd d7e9 f5bd 5a87 3f3d 38ec da3d
000003a0: fd93 49ba cbea 0cbe 07b9 74bd 2b22 073e
000003b0: 5583 ea3d 2c5e 033e eacd ba3c e868 c7bc
000003c0: 72b9 b53c 63b7 66bc 71b0 83bd 8a39 a7bc
000003d0: 10c2 8cbd 94f4 613d c136 e53d 131d 25bd
000003e0: f897 d5bd 8d19 65bd 3090 0bbe 94b1 403c
000003f0: 579d 2dbd 4ab6 8ebd 4ee9 803e 4f65 4dbd

conv3.bias f4 [32]
0.040110055 -0.018069485 -0.033398207 0.018077351 0.0055787438 -0.15496995 -0.015157775 -0.15006778
-0.038069542 -0.0061760936 -0.03350425 -0.029360922 -0.011334851 -0.009275574 0.007852447 -0.0077408417
0.07595987 -0.014060798 -0.13143423 -0.01708878 -0.020099783 0.019388378 -0.012713669 -0.01786898
0.0036832385 -0.14577685 0.0071529704 0.01199515 -0.004305569 0.13044414 0.015616196 -0.019236121
00000000: 714a 243d 7506 94bc 8fcc 08bd f416 943c
00000010: e5cd b63b 71b0 1ebe 5158 78bc 5eab 19be
00000020: cfee 1bbd d460 cabb c13b 09bd 5186 f0bc
00000030: d0b5 39bc 94f8 17bc 8da7 003c e3a6 fdbb
00000040: d990 9b3d 435f 66bc b296 06be c5fd 8bbc
00000050: 4da8 a4bc 60d4 9e3c fe4c 50bc f861 92bc
00000060: 7d62 713b 8746 15be 7763 ea3b 4e87 443c
00000070: bb15 8dbb 2693 053e 13db 7f3c 1295 9dbc

conv4.weight f4 [32, 32, 3, 3]
0.0034055202 0.03797218 0.07438912 -0.01761201 -0.078230575 -0.10065301 0.006697375 0.06291765
-0.09806767 0.016547507 -0.06912729 0.017730331 0.019584104 0.003309021 -0.033333138 -0.08282893
0.07437174 -0.055570286 -0.09440496 0.026137114 0.17832561 0.07058954 -0.16404821 0.069410995
-0.0031979901 0.27978024 -0.004440742 0.17541611 -0.028023858 -0.11649132 0.021478679 0.008314466
-0.057402797 -0.033803083 0.029694015 0.14309928 -0.032276236 -0.008050439 0.09104435 0.0052814987
-0.008849245 -0.021784427 -0.05643974 -0.12406502 -0.082752325 0.07647688 0.113060415 -0.11974044
0.022442058 -0.20675395 -0.070156015 0.015769638 -0.13031556 -0.04526363 0.13419598 0.023517556
-0.050052322 -0.040271055 -0.09548012 -0.16615255 -0.1020308 0.078945056 0.05544996 -0.036050808
-0.048949305 0.05015118 0.049122088 0.22332303 0.05032973 -0.043809123 0.018585797 0.09291747
-0.010996018 -0.101335116 -0.08826804 0.079183444 0.027254056 0.0063739647 -0.036107823 -0.103216134
0.20318913 0.05046491 -0.07664662 0.022922471 0.012642586 0.0901788 -0.10766898 -0.042354196
0.000952358 0.06422879 0.03908251 -0.065372266 0.14974022 0.07333912 -0.006541854 -0.037133683
-0.03771729 -0.030985264 0.026824865 0.010551811 0.16308865 -0.026817087 -0.041221146 -0.013904349
-0.04207099 0.121896766 0.16026291 -0.08259454 -0.1245448 -0.1808017 0.054225896 0.10645577
-0.039216872 0.114942014 0.035276715 -0.070992984 -0.04581294 0.13887829 -0.04318822 -0.10282688
-0.06986709 -0.112303644 0.15099071 0.07531641 -0.061226342 -0.07719326 0.08116946 -0.018484145
-0.0250385 -0.093259364 -0.051583078 0.20036034 0.05231003 -0.08471614 -0.0750119 0.083832815
0.14415647 -0.058762763 -0.03732592 -0.12684304 -0.013389845 -0.04680652 0.050500587 -0.18789923
-0.048761666 0.13068818 0.039045975 0.0022050382 0.047344305 0.0064016795 -0.02567628 -0.12270237
0.0307872 -0.2361224 0.10460674 -0.063439175 -0.08481675 0.19474597 -0.024292557 -0.043019325
-0.045026775 0.16584773 -0.06551567 -0.09078663 -0.07019122 0.0909433 0.18644899 -0.059991915
-0.007937323 -0.12512389 0.015221435 0.019767368 -0.017993828 -0.063196726 0.08293796 -0.077461176
-0.027922496 -0.07997967 -0.073534064 0.07000544 0.029885793 -0.067242675 0.025653878 0.19342381
-0.06929789 -0.07429274 -0.119326435 0.012965859 0.017792672 -0.12739079 0.06357523 0.019927854
0.020649333 -0.035697296 0.0047544343 0.04409904 0.11148745 -0.11873041 -0.15950304 0.27156553
-0.09490673 0.029429942 0.09285077 0.08635453 0.062128596 -0.0331801 0.04516687 0.13674629
-0.038531337 -0.03688664 -0.13918035 0.09630724 -0.01683637 -0.059311386 0.012048859 0.08324304
0.007293316 -0.101908706 0.025968216 -0.1438239 0.081789024 0.13577363 -0.10672692 0.082794085
0.055780366 -0.06560237 -0.23289871 0.122116126 0.014635548 -0.04449729 0.04715588 0.05971601
0.248197 -0.25966555 -0.015049328 -0.04354496 0.023498585 -0.056608073 0.13478775 -0.006252179
0.02208291 -0.047421362 -0.015694873 0.034662496 -0.02227523 -0.022242941 -0.12053396 -0.043592352
0.1453604 -0.12383766 0.019900898 -0.020487137 0.03735216 -0.12743337 0.01939902 -0.043667316
00000000: 262f 5f3b b788 1b3d 5359 983d 1047 90bc
00000010: 5a37 a0bd 2a23 cebd a775 db3b f8da 803d
00000020: b4d7 c8bd a38e 873c 9c92 8dbd 333f 913c
00000030: d86e a03c 29dc 583b 5488 08bd 37a2 a9bd
00000040: 3650 983d ab9d 63bd 6357 c1bd 801d d63c
00000050: fd9a 363e 4091 903d 41fc 27be 5a27 8e3d
00000060: 5f95 51bb 5b3f 8f3e a583 91bb 48a0 333e
00000070: 4a92 e5bc 0093 eebd 0ef4 af3c 6639 083c
00000080: 321f 6bbd 1a75 0abd dd40 f33c 9e88 123e
00000090: 1634 04bd fde5 03bc 7675 ba3d 6c10 ad3b
000000a0: 6cfc 10bc 4175 b2bc 5b2d 67bd cd15 febd
000000b0: 0d7a a9bd e99f 9c3d 388c e73d 7a3a f5bd
000000c0: 68d8 b73c 4fb7 53be f5ad 8fbd 542f 813c
000000d0: 7171 05be 5b66 39bd ac6a 093e e4a7 c03c
000000e0: aa03 4dbd 43f3 24bd 158b c3bd e523 2abe
000000f0: 86f5 d0bd f2ad a13d 7f1f 633d 03aa 13bd
00000100: 117f 48bd 536b 4d3d 3e34 493d cbae 643e
00000110: 8c26 4e3d 3271 33bd 3e41 983c 844b be3d
00000120: a428 34bc c988 cfbd e0c5 b4bd ee2a a23d
00000130: e643 df3c b1dc d03b cce5 13bd fb62 d3bd
00000140: d010 503e 4bb4 4e3d e7f8 9cbd e8c7 bb3c
00000150: d922 4f3c aaaf b83d 8e81 dcbd 987b 2dbd
00000160: aaa7 793a 628a 833d fb14 203d e5e1 85bd
00000170: 8055 193e d232 963d 0c5d d6bb 7d19 18bd
00000180: 727d 1abd cfd4 fdbc d2bf db3c 81e1 2c3c
00000190: b600 273e 82af dbbc 81d7 28bd 11cf 63bc
000001a0: a152 2cbd 03a5 f93d f61b 243e 5427 a9bd
000001b0: 5811 ffbd 1524 39be f91b 5e3d 7c05 da3d
000001c0: dfa1 20bd b866 eb3d 517e 103d c564 91bd
000001d0: 59a6 3bbd 1c36 0e3e 22e6 30bd e696 d2bd
000001e0: 7a16 8fbd 74ff e5bd 4f9d 1a3e 7d3f 9a3d
000001f0: 79c8 7abd 8017 9ebd 2d3c a63d 106c 97bc
00000200: 8a1d cdbc c4fe bebd c748 53bd 432b 4d3e
00000210: 0b43 563d a87f adbd d79f 99bd 8ab0 ab3d
00000220: c19d 133e 39b1 70bd 10e3 18bd 24e3 01be
00000230: 1561 5bbc 32b8 3fbd b4d9 4e3d a868 40be
00000240: 50ba 47bd 1fd3 053e acee 1f3d 6782 103b
00000250: 1aec 413d 2ec5 d13b 1057 d2bc 614b fbbd
00000260: 7035 fc3c 12ca 71be 0f3c d63d 66ec 81bd
00000270: 67b4 adbd 7d6b 473e 2f01 c7bc 0835 30bd
00000280: ff6d 38bd fdd3 293e 142d 86bd 57ee b9bd
00000290: 6ac0 8fbd 7b40 ba3d 7cec 3e3e 15ba 75bd
000002a0: 8c0b 02bc 7a20 00be 5363 793c 2def a13c
000002b0: cb67 93bc 496d 81bd 61db a93d f7a3 9ebd
000002c0: b8bd e4bc 62cc a3bd 0799 96bd 035f 8f3d
000002d0: 0dd3 f43c 87b6 89bd 1528 d23c e410 463e
000002e0: 0dec 8dbd cb26 98bd 6b61 f4bd c16e 543c
000002f0: f0c1 913c bb72 02be bb33 823d bd3f a33c
00000300: ca28 a93c 5437 12bd 16cb 9b3b 32a1 343d
00000310: 8853 e43d ee28 f3bd c454 23be a30a 8b3e
00000320: 765e c2bd 1017 f13c 8b28 be3d a5da b03d
00000330: 8e7a 7e3d dbe7 07bd e500 393d 3807 0c3e
00000340: 09d3 1dbd 7216 17bd 4b85 0ebe bb3c c53d
00000350: 6dec 89bc 7ff0 72bd 9468 453c 547b aa3d
00000360: c5fc ee3b 83b5 d0bd 4cbb d43c 9346 13be
00000370: 0181 a73d 3e08 0b3e a593 dabd f28f a93d
00000380: f479 643d 895a 86bd 007d 6ebe 0518 fa3d
00000390: f0c9 6f3c ca42 36bd 8626 413d c698 743d
000003a0: 5b27 7e3e e2f2 84be 7591 76bc 335c 32bd
000003b0: 1b80 c03c dedd 67bd cd05 0a3e 14df ccbb
000003c0: 38e7 b43c e73c 42bd 8992 80bc 43fa 0d3d
000003d0: 8b7a b6bc d436 b6bc 82da f6bd e58d 32bd
000003e0: 5bd9 143e 999e fdbd 3507 a33c a4d4 a7bc
000003f0: 94fe 183d e57d 02be b2ea 9e3c 80dc 32bd

conv4.bias f4 [32]
-0.059532896 -0.014308184 -0.051730596 -0.007890624 -0.23378189 -0.07203785 -0.083812326 -0.024056777
-0.027079828 -0.05286937 -0.07046965 -0.073746555 -0.08214583 -0.037945464 -0.10327985 -0.084729694
-0.06253533 -0.0501821 -0.04329963 -0.04130671 -0.027686512 -0.012337584 0.036985446 -0.12465052
-0.039613858 -0.18093462 -0.10254025 -0.34284222 -0.009550505 -0.008299301 -0.022381235 -0.08793204
00000000: c4d8 73bd e06c 6abc 76e3 53bd ad47 01bc
00000010: 8564 6fbe 9588 93bd cca5 abbd b812 c5bc
00000020: 84d6 ddbc 8d8d 58bd 6452 90bd 6f08 97bd
00000030: 133c a8bd b46c 1bbd 6384 d3bd c386 adbd
00000040: 8612 80bd bf8b 4dbd f45a 31bd 3a31 29bd
00000050: d3ce e2bc 9423 4abc 0d7e 173d c648 ffbd
00000060: 2442 22bd ed46 39be 9f00 d2bd 0489 afbe
00000070: b979 1cbc cbf9 07bc da58 b7bc b715 b4bd

linear.weight f4 [32, 800]
0.04240659 0.100924365 -0.0047633694 -0.05539312 -0.010399004 -0.26402578 0.033524897 -0.03346177
-0.014327034 0.111800134 0.0028775777 -0.031646352 -0.039411608 -0.052773826 -0.022240391 0.12082022
0.079314046 -0.00064601155 0.007313604 -0.04688663 0.096268274 -0.029348975 -0.06273426 -0.042285267
-0.041152507 0.08622062 -0.05666433 0.07408867 0.0183301 0.029676266 -0.23650192 0.06848763
-0.03194959 -0.040115554 0.077263765 0.12190795 0.0028290423 -0.024925005 0.030612314 -0.0023284706
-0.018710136 -0.20502077 -0.028802127 -0.052027564 0.13344188 -0.057287008 -0.03531278 0.023990711
0.004738163 -0.008857742 -0.14096418 0.016603187 -0.029981049 0.012291634 -0.022609936 0.11267728
-0.05047912 -0.011838014 -0.0014674609 -0.0360699 -0.013628691 0.019013938 -0.010401949 0.0056961034
-0.021029571 -0.022934973 0.092476934 0.003340813 0.0068167523 -0.026649794 0.08657916 -0.03506751
-0.011010656 -0.04456425 -0.00033575064 0.110849954 -0.036260467 0.11399735 0.019628612 -0.075279035
-0.08335766 0.056950536 -0.034826748 -0.031607818 0.017497573 0.03735936 -0.035764586 0.026030919
0.029713558 0.0013412436 0.064391814 -0.06317673 0.030391533 0.025289588 0.04185343 -0.05651535
0.04247786 0.03473754 0.018503401 0.0057117958 -0.122916766 0.066009775 -0.08637292 -0.02432728
-0.0032448503 -0.10317419 0.15323532 0.076849684 0.06659918 0.024433909 -0.1374162 0.132561
0.083346404 0.018356698 0.07141549 -0.12485538 -0.104014084 -0.1134858 -0.13550673 -0.17383757
-0.14437026 -0.1819225 -0.14733902 -0.17433381 -0.19657469 0.044131488 -0.047724087 0.06621537
-0.025890263 0.02193419 0.021148875 0.14128368 0.036082067 -0.043651085 -0.009710048 0.003969422
-0.19233996 -0.0031092716 0.012785222 0.090818465 -0.050177436 -0.037340514 -0.04732849 -0.08310262
-0.12919532 -0.0571402 0.06383412 0.027656568 0.016345663 0.077035144 -0.14263703 0.06108829
-0.034503747 0.017366849 0.053354066 0.049538206 0.069128364 -0.08250225 -0.03116268 0.072235554
-0.17809439 0.057853367 -0.019800989 -0.038912296 -0.002264137 0.07823828 -0.03230674 -0.030804407
-0.034803543 0.023006322 0.15573126 -0.010797108 -0.011595869 -0.06390566 -0.042790145 0.16534458
-0.13965386 0.03607804 0.019995222 -0.076785676 -0.2352939 0.02193951 -0.011296956 -0.0067239976
0.050819285 0.06575576 -0.01613525 -0.013779968 -0.027018836 0.07079817 -0.021435566 0.027700061
0.014860114 0.023319 -0.11933548 -0.058329675 0.055838335 0.027592985 0.022181386 0.058270726
-0.048096806 0.044954807 -0.03198756 -0.018383909 0.023030752 0.11147212 -0.0127251595 0.025221532
-0.048067458 0.030756583 0.004412196 0.01914258 -0.011900858 -0.00959357 -0.027541077 -0.0020355913
-0.040380765 -0.019187508 0.015728066 -0.025705807 0.089412324 -0.034444984 -0.0018235336 -0.0388913
-0.005707074 0.07099904 0.05054995 -0.04698766 -0.07854228 0.06009727 -0.28968975 -0.011664152
-0.014831691 -0.034181945 -0.048565697 0.07510304 0.06218691 -0.022247188 0.05286912 -0.010404728
0.13727124 -0.14096892 -0.0615493 -0.016859366 -0.042893432 0.026222954 0.027793836 0.0077251843
0.051315065 0.030273354 -0.07606189 -0.028305313 0.015795924 0.010728099 0.040912833 -0.0258232
00000000: 88b2 2d3d 6fb1 ce3d 0a16 9cbb e5e3 62bd
00000010: 9660 2abc 632e 87be 6751 093d 350f 09bd
00000020: f0bb 6abc 78f7 e43d be95 3c3b 9b9f 01bd
00000030: 116e 21bd 5e29 58bd 7b31 b6bc 9770 f73d
00000040: 676f a23d 1a59 29ba f5a6 ef3b 320c 40bd
00000050: 4d28 c53d 436d f0bc d27a 80bd 5133 2dbd
00000060: 888f 28bd 7094 b03d db18 68bd cdbb 973d
00000070: 0229 963c a41b f33c 8f2d 72be 3e43 8c3d
00000080: 93dd 02bd 3550 24bd 773c 9e3d e0aa f93d
00000090: 7467 393b 862f ccbc adc6 fa3c 4199 18bb
000000a0: 0046 99bc f7f0 51be 70f2 ebbc db1a 55bd
000000b0: fda4 083e c8a5 6abd 22a4 10bd 2b88 c43c
000000c0: 9842 9b3b 1020 11bc ea58 10be 6803 883c
000000d0: d19a f5bc da62 493c 7938 b9bc 59c3 e63d
000000e0: 32c3 4ebd 3bf4 41bc d157 c0ba 08be 13bd
000000f0: e04a 5fbc 1ec3 9b3c f06c 2abc 61a6 ba3b
00000100: 3546 acbc 20e2 bbbc 8c64 bd3d 8bf1 5a3b
00000110: 105f df3b ab50 dabc 6a50 b13d f3a2 0fbd
00000120: 0a66 34bc 0189 36bd b007 b0b9 4d05 e33d
00000130: db85 14bd 7177 e93d 2fcc a03c e52b 9abd
00000140: 6cb7 aabd f744 693d 7ea6 0ebd 3377 01bd
00000150: 1257 8f3c 2106 193d e37d 12bd cb3e d53c
00000160: d969 f33c abcc af3a dbdf 833d cd62 81bd
00000170: aaf7 f83c 1c2c cf3c 816e 2b3d a47c 67bd
00000180: 44fd 2d3d f348 0e3d 7294 973c 042a bb3b
00000190: c9bb fbbd 2230 873d 49e4 b0bd 014a c7bc
000001a0: 8ea7 54bb fd4c d3bd b8e9 1c3e 5e63 9d3d
000001b0: 2765 883d 9f29 c83c d5b6 0cbe 12be 073e
000001c0: 85b1 aa3d c960 963c 4942 923d 2db4 ffbd
000001d0: 5605 d5bd 3e6b e8bd 47c2 0abe 7a02 32be
000001e0: ccd5 13be e449 3abe 0ae0 16be 9084 32be
000001f0: e04a 49be 38c3 343d 557a 43bd ed9b 873d
00000200: d117 d4bc 55af b33c 6840 ad3c abac 103e
00000210: caca 133d 7bcb 32bd e516 1fbc ed11 823b
00000220: c4f4 44be ecc4 4bbb 1c79 513c 08ff b93d
00000230: db86 4dbd 5ef2 18bd 85db 41bd b531 aabd
00000240: c74b 04be d80b 6abd 77bb 823d 0790 e23c
00000250: 57e7 853c 9ac4 9d3d 710f 12be b737 7a3d
00000260: cd53 0dbd ec44 8e3c cb89 5a3d 93e8 4a3d
00000270: 2c93 8d3d f1f6 a8bd e048 ffbc 3cf0 933d
00000280: 605e 36be a7f7 6c3d af35 a2bc 8062 1fbd
00000290: ea61 14bb 643b a03d 1254 04bd 8659 fcbc
000002a0: 298e 0ebd c177 bc3c 0478 1f3e 5ae6 30bc
000002b0: 9afc 3dbc f8e0 82bd b844 2fbd 1750 293e
000002c0: 6c01 0fbe 91c6 133d 05cd a33c cf41 9dbd
000002d0: e2f0 70be 7dba b33c de16 39bc fb54 dcbb
000002e0: e227 503d f5aa 863d 122e 84bc 60c5 61bc
000002f0: 9b56 ddbc a2fe 903d a499 afbc 3deb e23c
00000300: d677 733c 7d07 bf3c 2966 f4bd 19eb 6ebd
00000310: bdb6 643d af0a e23c bdb5 b53c 49ad 6e3d
00000320: 2801 45bd 8822 383d 6305 03bd da99 96bc
00000330: fdaa bc3c 7f4b e43d 307d 50bc 639d ce3c
00000340: 62e2 44bd 3bf5 fb3c 2f94 903b e6d0 9c3c
00000350: d1fb 42bc 592e 1dbc d39d e1bc 8e67 05bb
00000360: 4d66 25bd 1f2f 9dbc 25d8 803c fc94 d2bc
00000370: cf1d b73d 2f16 0dbd a203 efba 7c4c 1fbd
00000380: 6802 bbbb f267 913d 770d 4f3d 2276 40bd
00000390: c6da a0bd 8e28 763d 3752 94be 001b 3fbc
000003a0: 9f00 73bc 5e02 0cbd d3ec 46bd 9fcf 993d
000003b0: b4b7 7e3d bc3f b6bc 4a8d 583d 9878 2abc
000003c0: d590 0c3e 285a 10be 1e1b 7cbd a71c 8abc
000003d0: 06b1 2fbd 85d1 d63c e6af e33c 8b23 fd3b
000003e0: bf2f 523d d3ff f73c 56c6 9bbd 8be0 e7bc
000003f0: 7466 813c e9c4 2f3c 3794 273d 2d8b d3bc

linear.bias f4 [32]
0.31848684 -0.25748855 -0.25920454 -0.031946875 -0.013848413 0.096670605 -0.20359509 0.08603991
0.0060742325 -0.035750203 -0.011229538 -0.25619632 -0.026658969 0.17558782 -0.21976149 0.07358378
-0.063192755 0.21843526 0.06196834 -0.29944503 0.03336556 -0.012226021 0.017292585 -0.02514515
-0.06443536 0.0532263 0.023271278 0.2524289 0.029033037 0.03525676 -0.26830608 0.010951554
00000000: b510 a33e 8ad5 83be 75b6 84be bada 02bd
00000010: 74e4 62bc 3dfb c53d 3b7b 50be b135 b03d
00000020: 5b0a c73b ce6e 12bd 19fc 37bc 2a2c 83be
00000030: e963 dabc 4bcd 333e 2809 61be 18b3 963d
00000040: 346b 81bd 7ead 5f3e 84d2 7d3d dc50 99be
00000050: 53aa 083d a64f 48bc 2ea9 8d3c 34fd cdbc
00000060: b0f6 83bd d203 5a3d 68a3 be3c 5c3e 813e
00000070: b1d6 ed3c 6469 103d 6a5f 89be 266e 333c

critic_linear.weight f4 [1, 32]
0.1398794 -0.13801983 -0.16597533 -0.0034690846 -0.0026895877 0.0046189213 -0.029179184 0.0036938062
0.00017316536 0.0007014087 0.0006357465 -0.0706598 0.0026449347 0.022852115 -0.09548683 -0.0038960425
-0.0029314235 0.083751224 0.006225359 -0.16479214 -0.0023202235 -0.0047623334 0.0040338878 0.002783878
0.0017375719 -0.0012825483 0.0066114394 0.10495859 0.0035835917 0.0003164349 -0.07620663 0.001918419
00000000: 8c3c 0f3e 1255 0dbe 70f5 29be 9559 63bb
00000010: cb43 30bb 525a 973b 2f09 efbc c913 723b
00000020: b993 3539 bede 373a 3aa8 263a 16b6 90bd
00000030: a456 2d3b 5c34 bb3c 998e c3bd bf54 7fbb
00000040: 201d 40bb c385 ab3d 19fe cb3b 45bf 28be
00000050: e40e 18bb 590d 9cbb b42e 843b b971 363b
00000060: 3dbf e33a 2e1b a8ba c6a4 d83b 87f4 d63d
00000070: b1da 6a3b 2ce7 a539 3912 9cbd 7673 fb3a

actor_linear.weight f4 [6, 32]
0.1043203 -0.02454958 -0.22513208 0.025130145 0.004154137 0.11495092 -0.044065543 0.0541312
0.01850629 -0.026623912 0.0015182366 -0.055444967 0.06704533 0.26388657 -0.20413724 0.12770842
-0.09428948 0.027530806 0.066479884 -0.22836626 0.014978917 -0.03728654 -0.011340942 0.16605492
0.068255514 0.108435035 0.16189133 0.047851756 -0.005813376 -0.023246465 -0.04235326 0.0055927103
0.12940209 -0.12401068 -0.11018486 0.015208114 -0.018168284 0.090459816 -0.058367778 0.07997672
-0.0006320817 0.012901321 -0.005161752 -0.017761951 -0.0022209608 0.20183341 -0.25983974 0.12493591
-0.16493851 0.0376852 0.058961842 -0.16831681 0.01513646 0.0052992743 0.010547114 0.08409955
0.0039887168 0.06015645 0.124358006 0.19586706 0.047626734 -0.005547545 -0.16279957 -0.0068263505
0.09839579 -0.12256575 -0.29535288 0.0031424735 -0.03697789 0.109240435 -0.12586015 0.082720086
-0.032306492 -0.00963934 0.003946381 -0.07159611 -0.0124914525 0.111873426 -0.06479287 0.11807484
-0.120032914 0.1459708 0.061866194 -0.16637138 0.015780581 -0.037979208 -0.00029130082 -0.04851266
-0.033992946 0.07342273 -0.09402489 -0.07432861 0.00716466 -0.0109628495 -0.09837402 -0.01571049
0.13527374 -0.074369274 -0.19872116 0.059914816 0.00967349 0.12222445 0.046906948 0.055816527
0.022221021 -0.032204892 0.015911158 -0.07524092 0.09661321 0.19485293 -0.091896065 0.1312398
-0.14038868 0.0661396 0.08620874 -0.08300227 0.035910316 -0.025437223 0.0009577952 0.16922252
0.08636497 0.10169105 0.16629049 0.19177572 0.043849453 0.010211456 -0.067877375 -0.009294798
0.16699822 -0.09703404 -0.27086934 0.032764062 -0.0089157475 0.093471 -0.16939315 0.05256821
-0.022723787 -0.03505076 0.020215847 -0.18631326 -0.06106708 0.0536343 -0.1738196 0.100736946
-0.18952686 0.027682085 0.050265726 -0.17429653 0.021231748 -0.022542352 0.0011473125 -0.02795485
-0.09041241 0.056794677 -0.0015676417 -0.039386556 0.0025759677 -0.02758864 -0.12216015 -0.024833865
0.2190743 -0.07288372 -0.046047717 0.017913485 -0.03085048 0.07469055 -0.019488173 0.062184308
-0.016153585 -0.018053478 0.0048276694 -0.1234089 0.03147644 0.15423676 -0.050067045 0.11652132
-0.19211733 0.15357032 0.03119483 -0.19318378 0.03405879 -0.019910159 0.011332284 0.16119228
0.031238804 0.07910255 0.24389146 0.29102427 0.019106904 -0.026402779 -0.10051426 -0.019087825
00000000: e2a5 d53d 331c c9bc 0689 66be bcdd cd3c
00000010: 6d1f 883b 636b eb3d 127e 34bd adb8 5d3d
00000020: 819a 973c 641a dabc 91ff c63a 431a 63bd
00000030: 104f 893d 241c 873e 5a09 51be ffc5 023e
00000040: d81a c1bd 4988 e13c 9b26 883d d8d8 69be
00000050: 226a 753c c5b9 18bd 5ccf 39bc 4d0a 2a3e
00000060: 8cc9 8b3d 3013 de3d d7c6 253e 3400 443d
00000070: 227e bebb 5f6f bebc 9d7a 2dbd 0e43 b73b
00000080: fb81 043e 50f9 fdbd 9aa8 e1bd 742b 793c
00000090: a7d5 94bc ff42 b93d 0d13 6fbd d6ca a33d
000000a0: 49b2 25ba 1060 533c ea23 a9bb 8381 91bc
000000b0: 8a8d 11bb 6bad 4e3e b709 85be 66de ff3d
000000c0: a4e5 28be cc5b 1a3d f981 713d 3e5b 2cbe
000000d0: eafe 773c 89a5 ad3b cdcd 2c3c 633c ac3d
000000e0: c8b3 823b 9c66 763d 69af fe3d 6091 483e
000000f0: 4014 433d 2ec8 b5bb eeb4 26be 94af dfbb
00000100: bb83 c93d c003 fbbd 7e38 97be f5f1 4d3b
00000110: 2176 17bd 73b9 df3d 7ce1 00be 2669 a93d
00000120: d053 04bd 53ee 1dbc a550 813b fba0 92bd
00000130: f3a8 4cbc e51d e53d 20b2 84bd 39d1 f13d
00000140: d1d3 f5bd 5f79 153e 6867 7d3d 425d 2abe
00000150: 4746 813c 1690 1bbd bcb9 98b9 36b5 46bd
00000160: 303c 0bbd a85e 963d 1f90 c0bd 9939 98bd
00000170: 86c5 ea3b 869d 33bc 5178 c9bd 49b3 80bc
00000180: 3385 0a3e eb4e 98bd 8f7d 4bbe 3d69 753d
00000190: 8f7d 1e3c d050 fa3d 8021 403d df9f 643d
000001a0: dc08 b63c 47e9 03bd 1e58 823c e917 9abd
000001b0: 26dd c53d 8787 473e 0134 bcbd ba63 063e
000001c0: 0dc2 0fbe 3374 873d 358e b03d 18fd a9bd
000001d0: b216 133d b961 d0bc 8c14 7b3a ab48 2d3e
000001e0: 1ee0 b03d 6643 d03d 0e48 2a3e db60 443e
000001f0: 7c9b 333d f34d 273c 4b03 8bbd 3549 18bc
00000200: 9501 2b3e c8b9 c6bd 63af 8abe 9c33 063d
00000210: 5b13 12bc b96d bf3d 6675 2dbe c351 573d
00000220: 3c27 babc 6391 0fbd b49b a53c e7c8 3ebe
00000230: 7921 7abd a4af 5b3d c4fd 31be 2c4f ce3d
00000240: 5413 42be 8ac5 e23c 6fe3 4d3d ca7a 32be
00000250: 34ee ad3c bdaa b8bc 6b61 963a 9201 e5bc
00000260: 242a b9bd 89a1 683d 5479 cdba cc53 21bd
00000270: 91d1 283b 9201 e2bc 1a2f fabd 6470 cbbc
00000280: 0355 603e 0f44 95bd 889c 3cbd 4dbf 923c
00000290: 25ba fcbc 5cf7 983d a9a5 9fbc f9b4 7e3d
000002a0: 8654 84bc e3e4 93bc 6d31 9e3b cebd fcbd
000002b0: 71ed 003d 3ef0 1d3e 1a13 4dbd bba2 ee3d
000002c0: 68ba 44be 8a41 1d3e 4d8c ff3c f8d1 45be
000002d0: 3b81 0b3d a11a a3bc 0bab 393c 970f 253e
000002e0: 85e8 ff3c 8500 a23d afbe 793e 2201 953e
000002f0: 1586 9c3c a44a d8bc 6cda cdbd 125e 9cbc

actor_linear.bias f4 [6]
-0.03662039 0.08360571 0.22251096 0.09515805 0.035863668 0.14209156
00000000: 43ff 15bd 7839 ab3d ead9 633e 39e2 c23d
00000010: c8e5 123d 7380 113e
