spaceinvaders-v0-bottom-7fskip_latent32/model.120.tar (torch, 223035 bytes, 13 tensors)

conv1.weight f4 [32, 4, 3, 3]
000000 66 d3 59 3d 0c 20 84 3c 7a c3 2c 3a 28 d0 1e be
       0.05318012 0.016128562 0.00065904076 -0.15509093
000010 3a 7a 11 bf eb af be 3d 4c 81 34 3e 55 3b 37 3e
       -0.5682713 0.093108974 0.17627448 0.17893727
000020 4f 93 6c 3d a9 ea e1 3c c2 5a 2a 3e b6 10 7b 3c
       0.057757672 0.027577715 0.16636184 0.015323808
000030 e1 12 0e 3c 91 73 f3 bb 3e cf 88 bd 1e 2d 10 3e
       0.008671493 -0.007429548 -0.06680153 0.14079711
000040 27 41 dc 3d 25 5f b1 ba 36 f6 9d 3d 35 48 66 3e
       0.10754614 -0.0013532384 0.07712977 0.22488482
000050 29 65 54 bd b0 ad a8 bd e1 b7 f1 bd 8e 08 42 be
       -0.051854286 -0.08236253 -0.1180265 -0.18948576
000060 06 77 2b 3e b3 c2 e3 bc c3 84 33 3e 02 3b 2f 3d
       0.16744623 -0.0278028 0.17531113 0.042780884
000070 3c 24 ef be 89 85 e2 3b 36 c8 02 3e b6 47 1c 3f
       -0.46707332 0.0069128913 0.12771687 0.6104692
000080 e3 e0 90 3e e6 f6 ee be 12 16 2d be ad d2 ab be
       0.28296575 -0.46672744 -0.1690295 -0.3355917
000090 fd e1 10 bd 23 a6 67 bd 4c 7d 3a 3e b6 cb bb bd
       -0.03537177 -0.056554925 0.1821186 -0.09169714
0000a0 dd 67 02 3e 38 e6 10 3e e7 f6 4d 3e 7d 7b e4 bd
       0.12734933 0.14150321 0.20113717 -0.11156366
0000b0 b0 a0 31 be f9 7c 94 3d 23 b3 20 bd 39 69 2a bd
       -0.17346454 0.07250399 -0.039233338 -0.041604254
0000c0 e2 5a 05 3d 98 38 35 3d 46 21 b6 bd 8a b2 29 bc
       0.032557376 0.044243425 -0.08893065 -0.010357508
0000d0 21 d4 bc 3a 29 c7 97 3c f9 8a ef bd 85 e1 8e 3e
       0.0014406481 0.018527584 -0.11696429 0.27906433
0000e0 57 38 ca bd b7 08 09 be b8 31 1c 3e 72 c8 42 3d
       -0.09874027 -0.1338223 0.15253341 0.04755444
0000f0 9a 7f 97 3d e1 6e 0e bd 75 d8 8e 3d 95 ed d8 3e
       0.07397385 -0.03477371 0.0697488 0.4236876
000100 81 9d c1 be fc df f0 bd 2b 33 84 3d 7e 4a 91 be
       -0.37815478 -0.11761472 0.06455072 -0.28377146
000110 9a 22 6d bd 95 47 a3 be cd 77 db 3e 2d 4f d7 bd
       -0.057894327 -0.3189055 0.42864838 -0.105131485
000120 7f 40 16 3e d6 a0 16 be a6 d8 61 3e 59 64 34 3a
       0.14673041 -0.14709792 0.22055301 0.0006881408
000130 4a af af 3d 8b 83 21 3e 09 7b a4 be 63 6a 5e 3d
       0.085783556 0.15772836 -0.32125118 0.054300677
000140 98 bf 18 be 03 ef 74 be 49 aa 25 3d ed be 6a bc
       -0.14916837 -0.239193 0.0404456 -0.014327747
000150 f4 ac 65 3d 42 ca 2e be 04 90 2f be db 8c 62 3d
       0.056073144 -0.17069343 -0.17144781 0.05531011
000160 b5 ba 76 bd 52 a2 5e 3e d7 de b2 3d c0 45 a7 bd
       -0.06023665 0.21741608 0.087339096 -0.08167601
000170 aa 4e 88 3e 94 fe 18 3e 52 7a eb bd 8a ba 5d 3d
       0.26622516 0.14940864 -0.1149794 0.054132976
000180 2c 8f 0d 3e af a0 bd 3c 08 72 e4 bd 61 8e c4 bd
       0.13824147 0.023147909 -0.11154562 -0.09597469
000190 9a 90 63 3e 48 ff fa bd 6d 17 c8 3d 8b 7d 31 be
       0.2222313 -0.12255722 0.09770093 -0.17333047
0001a0 cd 5c 89 be 4d 4d c4 bd 69 a1 8e 3e a8 6b 4a 3d
       -0.26828614 -0.095850565 0.2785752 0.049419075
0001b0 b7 e7 8f 3e 92 5b 02 3e 9f d4 5b 3d 1a 57 21 3e
       0.28106472 0.12730244 0.05366957 0.15755883
0001c0 62 ea 52 3e 5c b5 72 3c 0c 08 0e 3e ca 5c 01 3f
       0.20597222 0.014813747 0.13870257 0.5053221
0001d0 3d 2b f2 3d e8 e8 00 3e f4 1e 71 be 7a 3e 08 be
       0.11824653 0.12588847 -0.23546964 -0.13305083
0001e0 2e 05 d7 bd 54 16 bf bd d6 5e d5 3d 8a 8e e7 ba
       -0.10499035 -0.093304306 0.10418479 -0.0017666381
0001f0 53 86 12 3e 48 e6 27 be 68 8c 22 bd bd 3c 1e be
       0.14309053 -0.16396439 -0.039684683 -0.15452857
000200 e2 db b0 3d 68 07 d6 3d 91 2d 8b be 41 b6 17 3d
       0.08635689 0.104506314 -0.27183202 0.037039045
000210 14 f5 50 3e af 7f 30 3e dc ff 35 3e 80 da 3c 3e
       0.2040599 0.17236207 0.17773384 0.18442726
000220 33 ee 1b 3d 0b f4 16 3e 1a fd 99 be a4 8f 5d bf
       0.03806896 0.14741533 -0.30075914 -0.86547303
000230 56 39 8f be 15 99 85 bd 6f d0 5a be dd ed 91 3c
       -0.2797343 -0.06523339 -0.21368574 0.017813617
000240 1a 94 f3 bd 75 33 fe bd d9 c6 80 3e ab 8a 31 3e
       -0.118934825 -0.124121584 0.2515171 0.17338054
000250 74 1a bf 3d cd 1d c8 3d 3c 12 75 bd af ca e0 3e
       0.093312174 0.09771309 -0.059831843 0.43904635
000260 45 eb 17 be c3 22 8a bd 80 07 4f be e4 4c 16 be
       -0.14835842 -0.067449115 -0.20217705 -0.14677769
000270 d1 38 0b be 0f 11 00 be 43 46 21 3c c5 99 f9 bd
       -0.13595892 -0.12506507 0.009843412 -0.12187532
000280 aa d3 c0 3b 7a ee 9d 3c fe 40 71 bd 76 ab b2 3d
       0.0058846073 0.019278754 -0.058899872 0.0872411
000290 10 ab e5 3b 4d bb bb bd 3d 6b 8f be cf b2 2f be
       0.0070089176 -0.09166584 -0.28011504 -0.17158054
0002a0 82 8e 1b be 36 37 49 be b3 82 66 be a9 11 86 3e
       -0.15191081 -0.19649968 -0.22510795 0.2618535
0002b0 09 67 9a 3c 4a 25 1c be 08 05 25 3e 50 6c d7 3e
       0.01884796 -0.152486 0.161152 0.42074823
0002c0 01 6b 98 3e ca 09 d0 bc f0 10 fc bd 63 37 c1 3e
       0.29769138 -0.025395293 -0.12307918 0.3773757
0002d0 04 0b 3c be fc fd 7b be 47 5a 50 be 90 59 90 be
       -0.18363577 -0.24608606 -0.20346938 -0.2819333
0002e0 0c 93 07 bf c0 6b 05 be 01 fd b0 be 94 b1 f0 be
       -0.5295875 -0.13029385 -0.34568027 -0.4701048
0002f0 81 8f 5d be 03 a3 61 bd 30 f2 86 bc 79 c1 a2 bd
       -0.21636774 -0.0550871 -0.016472906 -0.07947058
000300 52 07 5a be 0d 2e 05 be cd 97 51 bd c7 69 46 be
       -0.21291855 -0.13005848 -0.05117016 -0.19376288
000310 02 89 5d bb 1d 8c dd 3c 9c 75 7d 3e 0a e4 94 bc
       -0.0033803587 0.02704435 0.24751896 -0.018175144
000320 e8 7a ab 3d f6 0f 22 be 0c f7 35 3e 53 6d 26 be
       0.08373052 -0.15826401 0.17770022 -0.16252641
000330 1f 39 bf 3d da 10 ca 3d a3 b3 fe bd 05 d2 b1 3e
       0.09337067 0.098664954 -0.12436607 0.34730545
000340 73 c4 f5 3e 0a 03 d7 3e 30 89 65 3d 7c b0 82 3e
       0.4800144 0.41994506 0.056039035 0.25525272
000350 c7 91 e2 bd 4b 18 bb 3e 01 f6 e8 3e f3 11 a3 3e
       -0.11062961 0.36541972 0.45500186 0.31849632
000360 38 ba a8 3e 8a ac e7 bd 83 8b cd bc 92 bd ac 3e
       0.32954574 -0.11312206 -0.025090938 0.3373838
000370 22 f4 ad 3d a4 13 af 3e 00 f5 b5 be af a1 ea be
       0.0849383 0.34194672 -0.35538483 -0.4582648
000380 61 35 26 bd 86 00 f2 bc 42 dc c2 3c 90 dd 89 3e
       -0.04057825 -0.029541265 0.023786668 0.2692685
000390 66 cf 4d 3e d2 ff ec 3d 74 19 92 3d 85 45 1a be
       0.20098647 0.11572231 0.07133761 -0.15065582
0003a0 04 d3 a0 3c 38 56 d9 bd 95 88 2d 3d cf b4 d6 bd
       0.01963187 -0.10612148 0.042366583 -0.10483705
0003b0 07 6b 13 3d 09 c5 35 3e a0 e7 4d 3d 85 eb 8c bd
       0.03599074 0.17750944 0.050269723 -0.06880859
0003c0 44 f7 f6 bd 27 89 42 3d c1 d5 83 3d 91 e1 8c bd
       -0.12058881 0.04749408 0.06437255 -0.06878961
0003d0 73 e6 c3 be 6b fd a6 bd 53 dd 6f be 2f 8f d8 be
       -0.38261756 -0.081538044 -0.23424272 -0.4229674
0003e0 19 a1 2a be 48 d0 97 3e ef e1 ef 3e 3c 96 a7 3d
       -0.16663016 0.29651093 0.4685206 0.08182952
0003f0 2f db d4 3c 44 fd b2 bd e5 8a af bd 08 4b dd be
       0.025983421 -0.08739713 -0.08571414 -0.43221307

conv1.bias f4 [32]
000000 8a 61 00 bb 6e e4 ad 39 13 8a 8f ba bf 0e 05 bc
       -0.0019589388 0.00033167325 -0.0010951184 -0.0081211915
000010 f3 da db 3b 71 99 dd 3b 24 70 24 bb dc f7 2e 3b
       0.0067094504 0.0067626764 -0.0025091255 0.0026698029
000020 82 20 f8 3a d4 46 a3 3b 60 a8 2b 3b 4d 6c 5f bb
       0.0018930587 0.0049828086 0.0026192889 -0.0034091652
000030 66 27 57 3b 9d 11 e9 3b d9 51 11 3b 90 21 92 3d
       0.003282988 0.0071126954 0.002217403 0.07135308
000040 b0 45 1d bb 7e 54 2d ba 30 fa 46 3d 35 7b d1 bb
       -0.0023997836 -0.00066120166 0.04857844 -0.0063928613
000050 bf fe 09 ba 1e 64 d3 ba 6d 8d 33 bb 58 0b 42 bb
       -0.00052640954 -0.001612786 -0.0027397529 -0.0029608812
000060 ac 87 e6 3a ef 76 0b 3b 03 81 3e 3b 2d 70 87 bb
       0.0017588041 0.0021280607 0.0029068596 -0.0041332454
000070 8b 9c 78 3b 8e c8 b2 bb a3 33 2a bb db 76 5e bb
       0.0037935104 -0.005456037 -0.002597072 -0.0033945355

conv2.weight f4 [32, 32, 3, 3]
000000 84 47 ad be 42 dd 39 be 2f 6d 64 3e 22 7b 14 3e
       -0.33843625 -0.1815081 0.22307275 0.14500096
000010 29 88 64 3e 82 f0 05 be e4 6c d1 bd 32 6e 92 bc
       0.22317566 -0.13080028 -0.10225847 -0.01787481
000020 32 67 6d bb ac ed 92 bc b6 be 7b be 72 1a 97 3d
       -0.003622484 -0.017935596 -0.24584469 0.07378091
000030 cf 73 50 3e d5 f5 7e bc d1 ca 00 3e 95 1f 0a 3e
       0.20356677 -0.015561541 0.12577368 0.1348861
000040 36 0f 21 be fb b1 43 3e 2f 58 ca 3b 1d 38 85 bd
       -0.15728459 0.19110863 0.006175063 -0.065048434
000050 17 d0 8c be 74 b4 1d be ae d9 70 3d ac ac 29 3d
       -0.2750251 -0.15400869 0.058801346 0.04142444
000060 cf c6 2b 3d 1d c0 f5 3d 99 2a 0e bc 98 bc 57 be
       0.041937646 0.11999533 -0.008677148 -0.21068037
000070 94 61 4d be bc ca 05 be 61 e5 53 be c6 6a f1 be
       -0.20056754 -0.13065618 -0.2069297 -0.47151774
000080 68 b2 6f 3e 92 01 ed bc 5b e4 e5 3d 1b de 89 3e
       0.234079 -0.028931413 0.11225196 0.26927266
000090 8e 1c 47 3e f0 0a b7 3d 2a cd 82 3c 4f c2 10 3e
       0.19444486 0.08937633 0.01596697 0.14136623
0000a0 43 47 23 3e 50 80 5d be 91 82 f2 bc af a2 3f be
       0.15945153 -0.21630979 -0.029603275 -0.18714403
0000b0 4e bf e5 3d 29 98 f7 3d 45 63 1d be 42 01 be be
       0.11218129 0.12089569 -0.153699 -0.37110335
0000c0 03 78 77 3d 50 92 f7 3c 3f 82 08 bd 8c bb bd 3d
       0.060417186 0.030221134 -0.033327337 0.09264287
0000d0 1f 07 88 3e 63 07 3d 3e c2 75 a8 3e c4 f6 db 3d
       0.26567933 0.18459849 0.32902342 0.10740426
0000e0 0d 94 a4 be dc 84 21 bc 91 17 e3 3d a0 4c fe ba
       -0.32144204 -0.009858336 0.11088479 -0.0019401498
0000f0 4b 4b 06 bd 6b 25 89 3c db 26 91 be 06 6d 65 be
       -0.03278665 0.016741475 -0.28349957 -0.2240487
000100 36 f3 d7 bd 38 e8 4b 3d ca d6 a2 3e 93 d9 73 3d
       -0.10544436 0.049782008 0.31804496 0.059533667
000110 a7 c7 93 bd 88 2a d9 3c 64 10 a8 3c fa 25 18 3d
       -0.07215815 0.026509538 0.020515628 0.037145592
000120 19 33 68 bd 59 75 be 3d d5 e4 9f 3e 25 19 93 bd
       -0.056689356 0.09299726 0.31229272 -0.0718253
000130 4e e6 95 3d 99 79 e7 bc 63 e0 01 be 56 4a 63 be
       0.07319318 -0.028256224 -0.12683253 -0.22196326
000140 b6 07 05 be d5 97 42 3e 95 fc 2e be 3a 73 48 3d
       -0.12991223 0.19003232 -0.1708854 0.048938014
000150 33 82 7f 3c 0c 79 c4 3d 65 db 42 be 8a 62 3f 3c
       0.015595007 0.095934 -0.19029005 0.011681208
000160 7a c2 95 3e 8d 16 ba 3c ee e0 35 3d e9 37 3b bd
       0.29249936 0.022715831 0.044403963 -0.045707617
000170 1b df c9 bd eb 6d 52 3e a0 e1 e7 3e 71 97 ca be
       -0.09857007 0.20549743 0.45289326 -0.39568666
000180 ab fc da 3d 50 3e 16 3d cb 96 bd bd b7 83 6e 3e
       0.10692724 0.03668052 -0.09257277 0.23292433
000190 a8 43 b3 3c 2c d5 de 3c 63 4d 93 3e 0c da 9c 3c
       0.021882847 0.027201258 0.2876998 0.019146942
0001a0 6f 7b d1 bd b2 4c b8 bd 11 ca b1 bd 39 8f e4 bd
       -0.10228621 -0.089990035 -0.08681119 -0.1116013
0001b0 66 a2 d3 bd 0f 2c b1 bd 72 8a 83 3d 34 76 f6 3e
       -0.103337094 -0.08650982 0.06422891 0.48137057
0001c0 ab 14 55 3e a1 79 48 be aa 92 ed bd 4b af 8c be
       0.20808665 -0.19577648 -0.116002396 -0.27477488
0001d0 75 45 18 be 65 a3 20 be 86 a1 e0 3d 27 cc 20 3f
       -0.14870246 -0.1568733 0.10968308 0.6281151
0001e0 ef ca 70 3e 4d 36 42 bb 23 fc c3 3d 46 21 46 3d
       0.23514913 -0.0029634417 0.09569576 0.048371576
0001f0 22 39 d2 be a9 2e 09 bd 64 ab 11 3e f0 f7 cd 3d
       -0.41059214 -0.033491764 0.14225537 0.10057056
000200 48 80 7d 3d 60 d2 81 3e 61 49 09 be 3c 1e 31 3d
       0.061889917 0.25355816 -0.13406898 0.043241724
000210 2a 6c 31 3c e8 8a 57 be 58 ea 4c bc dd 89 03 be
       0.010829011 -0.21049082 -0.012507044 -0.1284556
000220 a3 74 ba bd 8d 20 ca bd 7b 8c cf ba 16 7b 1b 3e
       -0.09104278 -0.0986949 -0.0015834713 0.15183672
000230 f5 f2 b7 3e 90 97 db bd b2 5f c5 bd 37 44 33 bd
       0.3592755 -0.10722268 -0.09637393 -0.043766227
000240 1a cb 8d be 6b 4e 0a be 9a 11 44 be 30 db 14 3e
       -0.27694017 -0.13506477 -0.1914734 0.14536738
000250 57 a5 e7 3c 3a bd fe bd 54 51 2e 3d e4 19 00 3c
       0.028277082 -0.12438436 0.04255803 0.007818673
000260 81 02 89 3d f5 8a 87 bd 09 a9 43 3d 92 24 d6 bd
       0.06689931 -0.06618301 0.047768626 -0.10456194
000270 db 84 cb be 6d c5 4f 3e 2a 04 19 be 7f 75 23 3e
       -0.39749798 0.20290156 -0.14942995 0.1596279
000280 45 60 b3 bd 0f 88 50 3c 1e 4c a6 bd f0 09 c4 bd
       -0.08758596 0.012727751 -0.08119987 -0.09572208
000290 4c 96 58 bd 8b b5 2b 3d 3e 69 ed 3d 61 2a 82 3e
       -0.05287771 0.04192118 0.11592339 0.25422958
0002a0 dd 7e 15 be 08 44 0d be 55 ac 30 bd 5e 96 36 3e
       -0.14599176 -0.13795483 -0.0431331 0.17830798
0002b0 49 15 9d bc a9 10 b2 bd fc 0e 03 3e 67 b6 19 3d
       -0.019175189 -0.08694584 0.12798685 0.037527468
0002c0 70 44 82 3d c7 2a 9c be 7d 4b 55 bd 74 b8 bc bd
       0.0636071 -0.30501387 -0.052073944 -0.09214869
0002d0 4f 2a f6 3b c7 2b db bc 80 7c 19 3d 5f 97 8f bd
       0.007512368 -0.026754273 0.037472248 -0.070112936
0002e0 85 74 3f 3e c2 b6 ff bd a0 34 fe bd ea 79 19 3e
       0.18696792 -0.1248603 -0.12412381 0.14987913
0002f0 1b cf 91 3c 1f 83 5b 3e dc 51 71 be 0f b3 8b 3c
       0.01779895 0.21436737 -0.23566383 0.017053155
000300 ec c1 9b 35 3c 66 2e bd ca 63 a7 3c 6a c0 17 bd
       1.1604839e-06 -0.042577967 0.020433325 -0.037048735
000310 4d 30 ad bd 65 89 9c 3d f8 42 95 bd 06 ba 06 3e
       -0.08456478 0.076433934 -0.07288164 0.131569
000320 7c e1 c5 bc d9 ea cf 3e 90 03 18 3e 3d 28 a1 bd
       -0.02415537 0.40608862 0.14845109 -0.07869003
000330 c4 ed 15 be a0 4a a5 3c 9d df ba bc 9f 54 d4 bd
       -0.14641482 0.020177186 -0.022811705 -0.10367703
000340 08 0f 98 bd 3f 1e a7 3e 72 ff c5 be fc fb f0 bd
       -0.07424742 0.32640263 -0.38671452 -0.11766812
000350 9f 9e 8d bd da 92 ef 3d a9 48 0e 3e c2 3c dd bc
       -0.0691502 0.116979316 0.13894905 -0.02700651
000360 c1 60 d5 3d ec 1e 16 3d 74 85 1b 3e a8 c6 18 bd
       0.10418845 0.036650583 0.15187627 -0.03729883
000370 c7 4b 01 be fc 66 97 bc 48 36 9e 3d d1 f3 b3 be
       -0.12626563 -0.018481724 0.07725197 -0.35146955
000380 83 a4 ed bd ba be 9d 3e 39 50 ea 3b dc ac 49 3d
       -0.11603644 0.30809575 0.0071506766 0.049237117
000390 ec 87 30 3e de 45 74 3d 1f a2 4d be ef 66 66 be
       0.1723935 0.059636943 -0.20081376 -0.22500204
0003a0 81 66 13 3e 20 e7 97 3d ba 0e 9a 3d d8 67 48 bd
       0.14394571 0.074171305 0.0752234 -0.048927158
0003b0 74 03 f8 bd 96 77 11 3e f8 b1 ba 3d 0e 91 45 be
       -0.12110034 0.14205775 0.09115976 -0.19293615
0003c0 29 81 cc bd 10 c0 85 3e 3d 1c 62 bd 64 95 e7 3b
       -0.09985573 0.26123095 -0.05520271 0.0070673693
0003d0 c2 d3 42 be b8 b3 95 bd ef 6f 30 be e6 37 78 be
       -0.19026092 -0.07309669 -0.172302 -0.24240074
0003e0 57 bd 0c 3e 6d 15 e0 bc 5d dd 03 3e 5b 37 46 3e
       0.13744102 -0.027353967 0.12877412 0.19357054
0003f0 8e be cf 3e c6 35 90 3e 8a 39 92 be 3f c4 9d be
       0.4057507 0.28166026 -0.28559524 -0.30813786

conv2.bias f4 [32]
000000 19 6b 4d bc 54 f1 cb bb 50 4a b9 bb 73 74 9d bc
       -0.012537741 -0.006223837 -0.0056546107 -0.019220566
000010 f8 3b 57 bd d2 11 85 bc 54 93 ac bc 41 45 b8 3b
       -0.052547425 -0.016243849 -0.021066345 0.00562349
000020 32 d1 ea bb 17 f1 e1 bc 30 bc ec bc 7e 5e ae bc
       -0.0071660513 -0.02758078 -0.028898329 -0.021285292
000030 22 4c d8 3c b2 b8 61 bc 8b 43 23 bd 72 0f 35 bb
       0.02640349 -0.013776945 -0.039859336 -0.0027627614
000040 0f ba 46 3b d8 1e 0a 3c 6d dc 4b 3c 0d ee 38 3c
       0.0030323302 0.008430205 0.01244269 0.0112872245
000050 7e 04 11 bb 37 fe d1 bb a5 c0 8e bc 98 8b e3 ba
       -0.0022127922 -0.0064084786 -0.017425844 -0.0017360328
000060 0d 7e bf 3b a1 50 85 bc f7 a2 95 bb 47 db b2 bc
       0.005843884 -0.016273798 -0.004566546 -0.021833075
000070 11 75 9e 3c 5a 21 38 bc cb 48 cb bb 8c ab 06 bc
       0.019342931 -0.01123842 -0.006203746 -0.008219611

conv3.weight f4 [32, 32, 3, 3]
000000 c1 7a e6 bd 2e 6e 40 bd f9 23 30 be 64 b2 19 3d
       -0.11253882 -0.046980076 -0.17201222 0.037523642
000010 1a 91 c5 3d 89 05 16 3e 4e 5d f5 3d d6 6a 23 be
       0.096468166 0.14650549 0.11980687 -0.15958723
000020 71 78 90 bc 26 8c dd 3d bb b1 25 bd c5 0e 36 3e
       -0.017635556 0.10817747 -0.0404527 0.17779072
000030 95 5f 40 be a9 7b 35 be 6c 43 10 3e 17 f8 f6 3d
       -0.18786462 -0.17722954 0.1408822 0.12059038
000040 a2 2a d2 bd b2 31 5b be 98 ee 6a bd af f4 8f bc
       -0.10262038 -0.21405676 -0.057356447 -0.017572729
000050 37 ca 40 3e 53 ec 0a 3e 22 6e 00 3e 13 41 97 bd
       0.18827139 0.13566713 0.12542012 -0.07385459
000060 d4 ca 97 bc 4e c4 82 bd 68 be e8 3c 23 89 79 bd
       -0.018529333 -0.063850984 0.028411105 -0.0609218
000070 af 83 64 be 67 55 da be d8 cb a6 3c a2 8b fa bd
       -0.22315858 -0.42643282 0.020360872 -0.12233664
000080 04 69 78 be 55 14 c3 3e b2 54 c7 3c 03 81 b2 be
       -0.2425881 0.3810145 0.024332378 -0.34864053
000090 57 9d 18 3e a6 57 49 bd d1 77 97 be b0 29 cc bb
       0.1490377 -0.049155854 -0.295836 -0.0062305555
0000a0 24 15 3d be 4f 35 1f be 09 de 54 3e db f6 90 bd
       -0.18465096 -0.1554768 0.20787825 -0.07078334
0000b0 f0 71 e4 bc 91 38 e2 bd e8 a0 b1 ba a1 a9 c5 bc
       -0.02788636 -0.110459454 -0.0013551982 -0.024128737
0000c0 b4 33 22 3e 25 04 b5 3d b3 7c 52 be 10 e2 2d be
       0.15840036 0.08838681 -0.20555381 -0.16980767
0000d0 ec 33 a8 3c 00 18 15 3e 04 1b 9a 3d a0 59 26 3d
       0.02053257 0.14559937 0.07524684 0.040612817
0000e0 91 a9 97 bd a3 12 1c 3e f2 f9 da bd 33 18 08 3d
       -0.07405389 0.15241484 -0.106922045 0.033226203
0000f0 ab 59 a1 3b b0 9e 0f 3e bb 27 4d 3d 01 25 3f be
       0.0049240193 0.14025378 0.050086718 -0.1866646
000100 ad 7f 85 bd 17 94 89 bc 99 8c a2 3d c1 c6 3e be
       -0.06518493 -0.016794248 0.07936973 -0.18630506
000110 29 3d 12 be 49 bd 78 bd 3e 2a 69 3d ef 99 17 3d
       -0.14281143 -0.06072739 0.05692505 0.037012037
000120 e6 94 b4 3d 4b 5d 4b bd 7e f4 6a 3d eb 30 13 3e
       0.088174626 -0.049649518 0.057362072 0.1437413
000130 c8 db 67 bc 97 d8 ef 3d 08 ba 91 bd d9 6d 23 3e
       -0.014151521 0.11711233 -0.07115561 0.15959872
000140 18 a0 07 be 2e e2 f3 3d 8f b8 85 bd eb 94 9f bd
       -0.13244665 0.11908375 -0.065293424 -0.07792076
000150 10 45 12 3d 0a 8e d5 bd 50 c2 df bd b6 9d 8a bd
       0.035710394 -0.104274824 -0.10925734 -0.06768362
000160 52 65 ac be 48 89 a4 3e 63 00 78 be e3 5e bd 3b
       -0.3367105 0.32135987 -0.24218898 0.0057791336
000170 51 44 14 be 88 ee b9 3d 85 8d 4e 3e 6c 05 5a be
       -0.14479186 0.09078699 0.20171173 -0.21291131
000180 02 ab 1f be 0e 9e 31 be 7e 3c 3c 3e 19 34 62 3e
       -0.15592578 -0.1734545 0.18382451 0.22090186
000190 6e 26 be 3d c7 45 2a be 13 82 7c 3e 54 26 38 3e
       0.09284674 -0.1662818 0.24658994 0.17983371
0001a0 63 09 93 3d 52 d7 3a bc 99 65 27 3e 0b 9e 14 be
       0.07179525 -0.011403875 0.1634735 -0.14513414
0001b0 a2 e8 0c be 00 d3 46 3e b8 bf 8a 3d 4e a6 0d be
       -0.13760617 0.19416428 0.06774849 -0.13832971
0001c0 7a df 8f 3d 69 93 47 bd 26 36 8b 3d c4 73 46 3e
       0.07025047 -0.048724566 0.06797437 0.19380099
0001d0 78 9f 97 bd 74 4a 2e bd 03 36 8d 3d c5 c6 67 3e
       -0.07403463 -0.042551473 0.068950675 0.22634418
0001e0 a9 0f 72 3c 02 8f 7c bc cb b6 5d 3d 13 d7 19 bd
       0.0147742415 -0.015414955 0.054129403 -0.037558626
0001f0 fc 9e f7 3c c6 86 f1 3e 53 88 d4 3c 57 af 8a 3e
       0.030227177 0.47173136 0.02594391 0.270869
000200 40 19 1e bd df c1 05 bd e5 8a 99 3d a9 22 e6 bd
       -0.0385983 -0.032655593 0.07497195 -0.1123708
000210 16 10 21 bd ed 4f da 3d 94 d5 0e 3e 38 2e 33 3e
       -0.03932198 0.10659776 0.13948661 0.174981
000220 b8 41 c3 bc 6a 20 22 bd 6e 7b 24 be 3e 64 8e 3d
       -0.023835048 -0.039581694 -0.1606271 0.069527134
000230 21 e2 92 3e a9 cf 32 3d c7 e9 f2 bc 86 6c c4 be
       0.28688148 0.04365507 -0.02965249 -0.38364047
000240 1e 30 51 3d 33 42 3f bd 2c a1 4e 3e 4b b0 71 be
       0.05107128 -0.046693992 0.2017867 -0.23602407
000250 87 e0 27 3e 24 8a 16 be 8e fa 20 3d d7 c7 ab 3d
       0.16394244 -0.14701134 0.039301448 0.08387726
000260 9c 10 90 be 7d 53 b7 be db d5 1e be b1 9a 4f 3e
       -0.28137672 -0.35805884 -0.15511267 0.20273854
000270 dd 33 46 be ec 87 02 3e e1 61 ca 3d 23 ee ab 3a
       -0.19355722 0.12747163 0.0988195 0.0013117235
000280 c5 d3 96 3c 79 88 d3 3d 5f 1f ef 3c a9 a4 98 bd
       0.018411526 0.103287645 0.029189764 -0.074532814
000290 67 23 d9 bd 09 df cf 3d dc 49 3a bc 7a 4a f7 bd
       -0.106024556 0.101499625 -0.0113701485 -0.12074752
0002a0 40 0a e5 3c bf 75 11 3e e2 92 95 be 32 88 50 3d
       0.02795899 0.14205073 -0.29213625 0.050911136
0002b0 35 95 a9 3d 51 78 21 3d c9 df 5d be 6d 2c 2a be
       0.08280412 0.039421383 -0.21667399 -0.1661851
0002c0 4e 46 ef bd 80 09 15 be 6b 3b 18 be 4a 93 52 bd
       -0.116833314 -0.14554405 -0.14866416 -0.051409997
0002d0 78 3f 49 3d 35 c2 84 be 49 1a 99 be 88 b3 b5 bd
       0.049132794 -0.25929418 -0.29902866 -0.088721335
0002e0 b2 95 e9 3e 6b b2 94 bd 07 bb 55 bd a1 75 c2 bd
       0.4562202 -0.07260593 -0.052180316 -0.09495092
0002f0 9d 52 40 be b5 c2 b8 3d 78 f4 e9 3c ac 7d 60 be
       -0.18781514 0.090215124 0.028558955 -0.2192294
000300 9f ae 4a 3d 95 2d dc bd 8e 00 03 be 45 d1 aa 3d
       0.049482938 -0.107508816 -0.1279318 0.08340696
000310 f6 1f 6b 3e 57 d1 13 bc 55 9c 31 3e 95 3d 03 3d
       0.22961411 -0.0090220785 0.17344792 0.03204115
000320 5c fe b5 be 14 58 2f be 02 25 17 3d 66 3b 46 bd
       -0.35545623 -0.17123443 0.036900528 -0.04839649
000330 f3 4e 8a bc 8f 68 9d 3e d7 d0 12 bc 7d ac 54 3e
       -0.016883349 0.30743834 -0.008960924 0.20768924
000340 29 00 44 3e 18 99 b5 be 35 7d 88 3e a7 5e bc be
       0.19140686 -0.35468364 0.26658025 -0.36790964
000350 ec 39 e8 bc 80 97 38 ba 6e 2f 50 bd ad e7 aa bd
       -0.028347932 -0.0007041618 -0.050826482 -0.0834497
000360 76 7b 1e 3e 23 25 a2 bc 0f 2f 55 3e f5 51 04 be
       0.15476784 -0.019793099 0.20818733 -0.12921889
000370 e0 de 57 bd 3b a5 d8 3d 57 6c 4a be b8 c6 04 3d
       -0.052702785 0.1057839 -0.19767891 0.032416075
000380 ed d4 7b 3e 54 85 91 3c 6a e6 b0 bd 83 25 47 3e
       0.24592943 0.017763771 -0.08637698 0.19447903
000390 d4 81 8b bc 08 c9 cb bc 72 45 0b 3e a6 75 08 bd
       -0.01702968 -0.024876133 0.1360071 -0.033315323
0003a0 a2 98 18 3e 14 38 92 bd 51 f3 8f be b7 46 77 3e
       0.14901975 -0.07139602 -0.28115323 0.2414807
0003b0 03 c9 59 3e 8e 0f 8c bd 2d 61 c8 bd 39 41 0c bc
       0.21268086 -0.06838904 -0.0978416 -0.008560472
0003c0 10 d2 d3 3d e9 a7 0b bd 11 02 ef 3d bf f5 9e 3d
       0.103428006 -0.03409568 0.11670316 0.07761716
0003d0 af 22 18 3d 60 0d 79 3e 58 d5 c6 3d d1 2b 10 be
       0.03714245 0.24321508 0.09708661 -0.14079215
0003e0 ec 72 5e be 53 b5 23 3d a1 9e ad be 5e 21 e4 bc
       -0.21723527 0.039967846 -0.33910087 -0.027847942
0003f0 61 04 63 be ee 4d 41 3d 37 ce 48 3e 94 90 74 be
       -0.22169639 0.04719346 0.19609915 -0.23883277

conv3.bias f4 [32]
000000 f1 cf 9b bd 5b 02 03 be 9b 99 36 3a a7 0d a7 bd
       -0.07608021 -0.12793867 0.0006965638 -0.08156901
000010 fe 7e 3b bd 77 60 b8 be 40 88 d9 bd 7e 18 1d be
       -0.045775406 -0.36011097 -0.10621691 -0.15341374
000020 d6 db e9 bd 49 b2 37 bd fb 24 f0 bd 5e 56 e1 bd
       -0.114188835 -0.04484776 -0.117258035 -0.11002801
000030 09 e6 4e bc 35 a3 c9 bd 00 93 07 be 1b f9 4b bd
       -0.012628087 -0.098455824 -0.1323967 -0.049798112
000040 47 64 83 bd 06 f7 cf bb 5c 63 96 be de 50 c3 bd
       -0.06415611 -0.006346586 -0.2937268 -0.095369086
000050 82 ed 16 be 77 17 98 bc 31 a5 00 be a4 8e 60 be
       -0.1473904 -0.018565876 -0.12563016 -0.21929413
000060 85 b2 28 bd da 37 08 be 64 54 b1 3c 8a 2b 78 bd
       -0.041185874 -0.13302556 0.021646686 -0.060588397
000070 16 5b 5e bd 26 32 44 bd 84 51 e2 3c a9 4d 15 be
       -0.054286085 -0.047899388 0.02762676 -0.14580406

conv4.weight f4 [32, 32, 3, 3]
000000 57 1b b8 3e 8e 90 56 bd 70 51 a0 3d e4 e5 cf bd
       0.3595836 -0.05238395 0.07828033 -0.1015127
000010 c9 df dc 3c 10 5f a8 bd b3 5d 44 be 7e 83 35 be
       0.026962178 -0.08221257 -0.19176368 -0.17725942
000020 40 62 a0 be 8c 56 29 be 33 03 4d be 1a 8b 3f 3d
       -0.3132496 -0.16536921 -0.20020752 0.046763517
000030 20 95 a2 bd 9f ef 8a 3d e0 da 31 be dd 3f 68 bd
       -0.079385996 0.06783985 -0.1736865 -0.05670153
000040 d1 8d 9d 3d 85 e7 23 3d 03 07 08 be d1 a9 68 3e
       0.07693065 0.040015716 -0.13283925 0.2272103
000050 39 a6 b0 3d da 9b e9 bd 85 9b a6 bd 2a 04 0f 3e
       0.086254545 -0.114066795 -0.08135132 0.13966432
000060 a5 f1 fb 3d 8c d2 98 3d 52 4d d6 3c ad c1 33 3e
       0.123019494 0.07462034 0.026159916 0.1755435
000070 94 f6 5a 3d 32 55 a1 bb 66 9d 43 3e 89 1f 5b be
       0.05345781 -0.004923486 0.19103011 -0.21398748
000080 55 99 bf bd d8 91 bd bd 4c 0c 03 be 47 9d d7 3d
       -0.09355418 -0.09256333 -0.1279766 0.10528045
000090 cc 10 25 3e 1a c9 66 be 01 3a 04 be 81 4b 6b 3d
       0.16119689 -0.22537652 -0.12912752 0.057445053
0000a0 e5 98 41 be 21 18 1e 3e 7f 2c ad 3d 31 b4 be bd
       -0.18905981 0.15438892 0.084557526 -0.093117125
0000b0 8e 19 8b 3b ba 04 91 3e 6f 07 5f bc 42 02 e2 3b
       0.0042449897 0.2832392 -0.013612612 0.006897242
0000c0 4a 33 2e bd 95 7a b9 bb b7 45 c1 3d 9a 3b 01 be
       -0.04252938 -0.005660365 0.09437125 -0.12620392
0000d0 11 9b 16 bd a1 8f 56 3b 5e da 68 3e 03 9c 22 be
       -0.036768977 0.0032739418 0.2273955 -0.15879826
0000e0 69 31 ca bb 9b 7a de bc ad 2d e4 bc 5f 09 ae bd
       -0.006170441 -0.027158072 -0.027853811 -0.08497881
0000f0 4c 2b 70 bd 77 c3 7b 3e e4 68 4f 3c 11 63 80 3d
       -0.05863504 0.24586283 0.012659285 0.062688954
000100 1a 74 49 bd 2f b9 d7 3d 12 2f 09 3e 1e e0 87 3d
       -0.04918299 0.10533368 0.13396862 0.06634544
000110 f9 92 b4 3d a0 a4 9a bd 68 bf 8a 3d 72 37 52 3e
       0.08817095 -0.07550931 0.06774789 0.20528963
000120 b6 60 12 3d b1 92 9d 3c d1 9e d6 bd 55 69 e1 3c
       0.035736762 0.019234987 -0.104795106 0.027516047
000130 cc 98 7c 3e 0d cf 1d bd fd 1e a7 bd a8 6a 75 3d
       0.24667662 -0.038527537 -0.081602074 0.05991617
000140 e7 0c a9 bc ef ad 12 3e e9 b2 93 be 45 92 84 3d
       -0.020636035 0.14324163 -0.28847435 0.06473211
000150 11 40 13 be 69 ab 72 3e 3e f3 fb 3c 6d dd a9 bc
       -0.14379908 0.236982 0.030755635 -0.020735467
000160 ca d6 6e 3d d4 12 a9 3d 93 c0 19 3e b2 93 c8 3d
       0.058310308 0.08255544 0.15014867 0.09793796
000170 7c 6f 26 3e c6 8a 8b bd d3 5c 3f 3d 7c 99 77 be
       0.16253465 -0.06813578 0.046719383 -0.24179643
000180 19 f6 8a 3d b8 22 55 be bd e2 93 3e ca 1b 1a bd
       0.06785221 -0.20814025 0.28883925 -0.037624158
000190 85 42 43 3e a2 60 b7 3c a7 0e 86 3e bd 3d 93 be
       0.19068344 0.022384945 0.26183054 -0.2875804
0001a0 de c0 7f be 7b d9 d6 3d c9 16 b0 3c f2 bd d0 bc
       -0.24975917 0.104907 0.02149524 -0.025481198
0001b0 6d df 1e be f2 ab 40 3d d1 8c 97 3e 0e f1 7b 3d
       -0.15514918 0.04703898 0.29599622 0.061509185
0001c0 b9 ce 82 bd a3 6c e7 3d e1 71 84 bd bb ac 9a 3d
       -0.063870855 0.11300018 -0.06467033 0.07552477
0001d0 80 72 58 3c f5 e5 a9 3e 8e ee c9 be 76 01 bd 3c
       0.013210893 0.33183256 -0.39439815 0.023071986
0001e0 8e d1 9f 3c 80 46 a2 be e3 aa 36 3e 2c fa 8d bd
       0.019509103 -0.31694412 0.17838626 -0.06932482
0001f0 72 29 f9 bd f4 40 e6 bd 91 54 d7 3d 92 26 22 be
       -0.12166108 -0.112428576 0.10514177 -0.15835026
000200 3d f2 c0 bd 57 14 dd 3c 2d 2a 7c bd e4 76 23 3e
       -0.09421203 0.026987238 -0.06156366 0.15963322
000210 35 b3 66 bd e7 b8 2d 3e 80 e3 0e ba 7e 02 1f 3d
       -0.05632325 0.16965066 -0.000545077 0.038820736
000220 87 4f a8 bc 96 f6 51 3e 4e 8e 85 be ad 45 66 3e
       -0.020545734 0.20504221 -0.26085132 0.22487517
000230 3f b5 55 be b7 61 4c be 71 2a 0f 3e 01 89 dd bd
       -0.20869921 -0.1995915 0.13981034 -0.10817147
000240 a8 0d 00 be ed b8 f2 bd 71 1e 9e bd a1 33 6b bd
       -0.1250521 -0.11851678 -0.0772065 -0.057422284
000250 2d 36 87 3e b9 70 f5 3d 84 78 53 3e d9 01 97 be
       0.2640852 0.11984391 0.20651442 -0.29493597
000260 df f0 15 3d fd fa ea bd 3a 5f 44 3d 5f eb 09 bd
       0.036606666 -0.114736535 0.047942378 -0.033671733
000270 3c 96 83 bd c2 72 e2 bd 88 91 15 3e cb 6a 11 be
       -0.06425139 -0.110570446 0.14606297 -0.14200895
000280 58 7e 39 be 17 5c 0e 3d 99 c4 08 3e 7d 85 2b bd
       -0.18114603 0.034755792 0.13356246 -0.04187535
000290 dc 83 aa bd 26 4a de 3c c6 10 40 bd 75 5c 6d be
       -0.083259314 0.027134966 -0.046890996 -0.23179801
0002a0 1a 75 96 bd 48 2a 10 be db 9d 38 3e 64 ea 35 be
       -0.07346554 -0.14078629 0.18028967 -0.17765194
0002b0 0b b1 42 bd 1d 69 59 bd d0 7b 1f 3a ab bd 03 3e
       -0.047532123 -0.05307876 0.0006083818 0.12865321
0002c0 4e 19 9c bd 8b 5e 89 3e dc 40 8c be ca f7 2d bd
       -0.07622014 0.26829943 -0.27393234 -0.04247264
0002d0 ab f8 a9 bd 0d de 42 3e f4 5f 8d 3e c9 95 36 3e
       -0.08299383 0.19030018 0.2761227 0.17830576
0002e0 de df 91 bd 29 ff 8d be 37 83 c3 bd e2 2c d2 bd
       -0.071227774 -0.27733734 -0.095465116 -0.10262467
0002f0 ab df 49 bd e2 f5 ec bd bf 6a 5a be 5d c7 95 bd
       -0.049285572 -0.11570336 -0.21329783 -0.07313416
000300 4d b8 ed 3d 13 e2 4b bd 36 22 e4 3d c2 c7 98 3e
       0.11607418 -0.049776148 0.11139338 0.29839903
000310 72 60 6b 3e 02 3c 7e be de 8e b1 3d 66 f1 85 3e
       0.2298601 -0.24827579 0.08669828 0.26160735
000320 78 06 4c be 8f 5d 64 be 04 b9 0c 3f 20 28 96 bd
       -0.19924343 -0.22301315 0.5496981 -0.07331872
000330 44 83 4e 3d 7c 4a 8c be 3a f8 7b 3c 93 2a 55 bd
       0.050418153 -0.27400577 0.015379006 -0.052042555
000340 27 b8 6f be 69 a9 0f be 34 00 bc 3d 0b 6a a4 bd
       -0.23410092 -0.14029469 0.09179726 -0.080280386
000350 e9 11 68 bd a1 2a d2 bd 69 ef 72 bd d1 2e 29 3e
       -0.056657705 -0.10262037 -0.05931035 0.16521765
000360 4d be 2a 3d d9 9d f2 3d 7a 71 a4 3d 96 fe 96 be
       0.04168539 0.11846513 0.080294564 -0.2949111
000370 18 1c 81 bc 3f c1 2f 3e a5 b6 61 3b c1 6f dc 3d
       -0.015760466 0.17163561 0.003444114 0.10763503
000380 b6 8a 79 3d 76 b7 07 3e 13 1f 99 be 6c c0 85 3d
       0.0609233 0.13253579 -0.2990652 0.06530842
000390 da df ed bd 9a a5 9c bc 8a d8 1b 3e 3e 89 21 bd
       -0.11614962 -0.019121934 0.15219322 -0.039437525
0003a0 0c 19 d0 3e 01 b3 75 be f2 57 a4 bd e1 a0 02 be
       0.4064411 -0.23994066 -0.08024587 -0.12756683
0003b0 92 ac 47 3d 96 75 75 3e 9c 1a 83 3e 5d a3 61 bc
       0.04874856 0.23970637 0.2560624 -0.013771859
0003c0 57 15 21 be c1 db 0d be e7 93 7e 3e 65 fb dd 3d
       -0.15730797 -0.1385336 0.24861108 0.10838965
0003d0 49 8d 84 be 97 7d 3e 3e 33 b1 10 bd 65 e5 91 bd
       -0.25889042 0.18602596 -0.03532524 -0.07123832
0003e0 7c 00 6a 3e a8 3f 3f be c6 c6 f0 3d bf 9e 8f be
       0.22851747 -0.18676627 0.11756663 -0.280508
0003f0 ed 2c b1 3c 5d 59 34 bd ec 5f f5 3d 20 c5 74 be
       0.021627868 -0.044030536 0.11981186 -0.23903322

conv4.bias f4 [32]
000000 5c 1f e2 be b9 2c 97 be c4 c0 f7 bd f4 79 3b be
       -0.4416455 -0.29526308 -0.12097314 -0.1830824
000010 f2 95 08 bf e2 b1 a1 be 85 9d 79 be 24 4a 5c be
       -0.533538 -0.31581026 -0.24376495 -0.21512657
000020 86 c0 10 be 00 8f 91 be bf c1 32 be 8e 97 ac be
       -0.14135942 -0.28429413 -0.17456721 -0.33709377
000030 2c eb 9d be 33 2e 10 be 32 f7 a2 be a7 e7 d4 be
       -0.30843484 -0.14080124 -0.3182922 -0.41582987
000040 f7 cb a7 be f0 9c c0 be 9a 29 ac be 4a 6c 9f bd
       -0.327728 -0.37619734 -0.3362549 -0.077843264
000050 c8 3d d0 bd 03 2e 80 be 58 f2 9f be 8f c3 c7 be
       -0.10168034 -0.25035104 -0.3123958 -0.39016387
000060 48 98 de bd 71 3e 90 be b8 54 9c be aa 5b 13 bf
       -0.10868889 -0.2817264 -0.30533385 -0.57561743
000070 4f 64 14 be 46 66 fa bd 95 e0 79 be 1d 7f e9 be
       -0.1449139 -0.12226538 -0.24402077 -0.45604792

linear.weight f4 [32, 800]
000000 0b ca eb bc cf b5 e6 3d 72 0b 4e bd 4f 36 08 be
       -0.028782865 0.11265146 -0.050303884 -0.13301967
000010 89 9d b4 bc 97 aa 98 be ab f4 a7 3d 15 6e 20 bc
       -0.022047775 -0.2981765 0.082009636 -0.009791871
000020 fa b1 51 3c 79 36 45 3d 4e df 1d 3e 38 4a b0 bd
       0.012798781 0.048147652 0.15417215 -0.08607906
000030 9a 7c a0 bd da d8 74 bd 26 26 65 3e af 97 6a 3e
       -0.07836266 -0.05977712 0.22377834 0.22909425
000040 02 17 24 3e 58 a6 60 bd ec 59 82 bd 6e 46 fa bd
       0.16024402 -0.054846138 -0.063648075 -0.12220465
000050 68 75 bb bd c6 7e c1 bc 4b 7a 69 bd 62 b9 15 bd
       -0.09153253 -0.02362002 -0.057001393 -0.036553748
000060 28 0b 11 bd 5d 07 84 3e 3a 51 9c bd 4c e7 ad 3d
       -0.03541103 0.25786868 -0.0763268 0.08491382
000070 da 1c ad bd cc 59 e7 3c e4 2d c9 be 2d 3e 77 3d
       -0.084527686 0.02824106 -0.39292824 0.06036203
000080 4f e1 ae bd fb e3 ba bc 7a a1 5e 3e fe ce 50 3e
       -0.08539068 -0.022813788 0.21741286 0.20391461
000090 62 0e 20 3d 48 6c a5 bd 4e ec 83 bd 87 d6 b2 bc
       0.039076217 -0.08077294 -0.06441556 -0.02183081
0000a0 70 01 e6 3d 9b 29 bc be c5 04 60 bd 70 2e bb bd
       0.11230743 -0.36750492 -0.05469205 -0.091397166
0000b0 c2 58 f7 3d 08 a2 a4 bd a9 75 cb bc e5 2d 0d 3d
       0.12077476 -0.080387175 -0.024836378 0.034467597
0000c0 49 ea 76 3c 16 74 c1 3a f4 53 00 be 04 fe 56 bc
       0.015070506 0.0014759328 -0.12532026 -0.0131220855
0000d0 e2 75 4c 3d dc 09 c8 bd b4 38 53 3b 49 6f 92 3e
       0.04991711 -0.097675055 0.0032229843 0.2860053
0000e0 77 5b 37 3d 6e d1 03 bd cb a7 0c 3d 18 69 96 bc
       0.044764962 -0.03218215 0.034339707 -0.01836066
0000f0 af be 52 3d e8 15 4e 3d 63 03 ac 3c 4e 40 8a 3c
       0.05145138 0.05031386 0.020997709 0.016876366
000100 ae 3c 44 3c 6b c3 3e bd 72 3d a7 bc 12 ab ba 3c
       0.011977358 -0.046573084 -0.020415042 0.02278665
000110 d9 83 1a bc 7a 7b ae bd 06 4d b4 bd dd ed 20 bc
       -0.009430849 -0.08519645 -0.088037536 -0.009822336
000120 1f f9 69 3c a0 de 9d bc 14 70 cc 3c aa 9e 87 3e
       0.0142805865 -0.019271195 0.024955787 0.2648824
000130 ec 4c 87 bc 32 3e 0a 3e d4 7a 70 3d ec 79 5b be
       -0.016516171 0.13500288 0.058710888 -0.21433228
000140 91 59 68 be 6b 48 9a 3d f5 c6 95 bd bf 7c e7 bd
       -0.22690417 0.07533344 -0.07313339 -0.1130309
000150 62 9e c8 3d 7b e4 64 3d 73 fc f6 bc 1f ac 99 bc
       0.09795834 0.05588196 -0.030149674 -0.018758832
000160 d2 35 df 3d fb 54 f2 bd 72 9a de 3d dc 44 8e bd
       0.10898937 -0.11832615 0.10869302 -0.06946728
000170 83 14 0c 3e b1 f4 bc 3d 13 3d e1 3d b0 05 4d bb
       0.136797 0.09226359 0.10997977 -0.0031283908
000180 18 af ff bc 0e 8b 1f bd 26 09 62 bd 05 38 8b bd
       -0.03121142 -0.038950972 -0.055184506 -0.06797794
000190 10 a9 9e be e5 a5 8d 3e db 4f df bb 8d 0c cf 3d
       -0.3098836 0.2766563 -0.0068149394 0.10109816
0001a0 48 2f c5 3d 43 cf 8c be 82 ac af 3e 8f d1 19 3e
       0.09628159 -0.27501878 0.343113 0.15021347
0001b0 57 19 27 3e 93 84 0f 3e e3 6d 8f be 83 c0 05 3f
       0.1631826 0.14015417 -0.28013524 0.52246875
0001c0 7a c6 4f 3e c4 39 04 3e b8 24 92 3e bf 01 a3 be
       0.20290557 0.12912661 0.2854364 -0.3183727
0001d0 bd 8a 98 be d3 94 81 be 99 ba 75 be 1f 0a c1 be
       -0.2979335 -0.25308856 -0.23996963 -0.37703034
0001e0 e2 34 ae be c4 0d cd be d2 59 bb be 26 2b c9 be
       -0.3402472 -0.40049565 -0.36591965 -0.39290732
0001f0 c8 8e d4 be cc 7d 21 bd 0a 34 a7 3b 45 d4 91 3c
       -0.41515183 -0.03942661 0.005102639 0.017801413
000200 a9 81 65 bd 2a 33 ff 3d 6c eb 93 3d 95 56 83 3e
       -0.056031857 0.12460931 0.072226375 0.25651994
000210 d7 70 17 bc ef 38 a2 bd 3c f2 e5 3b e6 c9 4d bd
       -0.009243212 -0.079210155 0.007017402 -0.050241373
000220 61 94 e9 be 46 1a a1 3c 2a 5d 06 3d c6 30 82 3d
       -0.45621017 0.019665848 0.032803692 0.06356959
000230 e7 87 2e be bd 61 d8 bd 57 99 bf bd 3a 32 22 be
       -0.1704403 -0.10565517 -0.09355419 -0.15839472
000240 21 80 f8 bd af bb 15 bc 0f 13 c5 3d 1b f1 75 3d
       -0.12133814 -0.009138986 0.09622776 0.06004439
000250 fd 9f 47 3d de 1c e0 3d 6b 72 f0 bd a5 57 c4 3d
       0.04873656 0.10943006 -0.117405735 0.09587029
000260 37 be 12 be 4e 3c 46 bc 09 af 61 3e dc a2 90 3e
       -0.14330374 -0.012099339 0.22039427 0.28249252
000270 06 5a 7f 3e b1 a6 24 be e6 02 1a be 73 7b 31 3e
       0.24936685 -0.16079213 -0.15040168 0.17332248
000280 71 df 3e be 79 d4 e4 3d 25 75 a5 bd e8 de e8 bd
       -0.18639924 0.111733384 -0.08078984 -0.11370641
000290 2c c2 27 be fa 63 4f bc 4d 67 e1 3c 9d c4 5c bd
       -0.16382664 -0.012658114 0.027515078 -0.053898443
0002a0 4d 9e ff 3d 6c 65 7a bd 09 8f 1c 3e 4a d0 41 bc
       0.12481365 -0.06113188 0.15288939 -0.011829445
0002b0 64 e5 4e bc f1 fe 84 bd 10 7c 33 bd 74 77 a5 3e
       -0.012627933 -0.06493939 -0.043819487 0.32317698
0002c0 5a 5e 45 be 18 1d 43 3d 6d 75 25 bd f5 a2 90 bd
       -0.19274274 0.047635168 -0.04039519 -0.070623316
0002d0 90 9d 68 be f0 54 17 3e 52 df 69 3d 3a e5 50 ba
       -0.22716355 0.14778495 0.05709774 -0.0007968728
0002e0 1b 25 df 3d 77 ed 09 3d 42 2d 1b bd cf d9 a5 bd
       0.10895749 0.03367373 -0.037884958 -0.08098184
0002f0 a7 23 d0 bb 4e 05 25 3e 07 19 d5 bc a5 5a f0 3c
       -0.0063519063 0.16115305 -0.02601291 0.029340098
000300 1e 9e ec 3d ef a6 01 3d 4e ca 55 be 17 7e 90 3a
       0.11553596 0.03165334 -0.20877954 0.0011023906
000310 7e 83 15 3d 4a 43 07 3c 21 6c 3a 3b 5f 7b 1f 3d
       0.036502354 0.008255789 0.0028445798 0.038936015
000320 5a e2 bd bd d1 04 e0 bc c0 dd ca 3a cb 2a e3 3d
       -0.09271689 -0.027346047 0.0015477464 0.110921465
000330 1a 29 9c 3b 87 6d 90 3c 37 c0 a9 3d ab 76 71 bd
       0.004765642 0.017630352 0.08288615 -0.05895106
000340 f8 73 59 bd 1a 7d 38 3e 93 99 fa 3d 81 0a 1f 3c
       -0.053089112 0.18016472 0.12236323 0.009707094
000350 ad f2 3c bc 55 81 4e 3c e7 83 47 3e d4 3f 36 bd
       -0.011532468 0.012604077 0.1948391 -0.044494465
000360 9d 1b f2 bc be 2b 1d 3e 87 04 16 be 89 d1 3b be
       -0.029554183 0.15348718 -0.14650165 -0.1834165
000370 66 64 5d ba 2a b8 4d bd 27 36 90 bc ba ed 5f bd
       -0.00084454415 -0.05022446 -0.017603947 -0.054670073
000380 e9 ce b0 bc 8c dc d8 3d 6a 6c 44 3e a7 d1 b6 bd
       -0.021583037 0.10588941 0.19181982 -0.08926707
000390 2e b7 16 be d1 85 55 3d 81 33 54 be 86 0a f5 3c
       -0.14718315 0.05212957 -0.20722772 0.029912245
0003a0 c7 5e ea bb 66 51 34 be 44 e8 f6 3c 47 cd a5 3d
       -0.0071524116 -0.17609176 0.03014005 0.08095794
0003b0 e3 ad 7b 3e d4 89 33 bd ee 01 52 bd 43 ef 8d 3b
       0.24578051 -0.043832615 -0.05127137 0.0043315007
0003c0 86 e2 ec 3d cf 4f b7 bd 19 58 b5 3b be d9 66 bb
       0.115666434 -0.08950769 0.0055341837 -0.0035225
0003d0 d2 20 bf bc 33 35 4b 3d 0f 0c 9d bc 5a ba 20 bd
       -0.02333108 0.04961128 -0.019170789 -0.03924022
0003e0 22 a0 8e 3b 3c bc 88 bc 9c 81 aa bc 75 d8 9c bd
       0.0043525854 -0.01669132 -0.020813756 -0.076584734
0003f0 35 31 28 3d bb e4 2b 3c e5 3c 08 bc 9f 2e da 3d
       0.041062552 0.010491545 -0.0083153 0.106534235

linear.bias f4 [32]
000000 9e 2f 0e 3f 5c 62 98 be 33 66 c8 be 1e db 7e ba
       0.5554141 -0.29762542 -0.39140472 -0.0009721982
000010 0a 35 02 bd 08 5d b8 3d af 29 5e be 8b d6 ca 3d
       -0.031788863 0.09002119 -0.21695589 0.09904202
000020 5a bf 9f 3a 36 7c 2d bd f5 e5 a0 bb cd 71 81 be
       0.0012187765 -0.042354785 -0.0049102255 -0.25282136
000030 fe f1 57 bd 00 20 32 3e 3b e0 93 be 69 e4 94 3d
       -0.052721016 0.1739502 -0.28882012 0.07270128
000040 1d 09 88 bd 11 db 3d 3e 61 b5 7a 3d ef 1f 1b bf
       -0.06642363 0.18540598 0.061208133 -0.605956
000050 40 25 1d 3d a4 d5 8e 3c 35 56 51 3c 11 d8 b6 bd
       0.038365602 0.017435856 0.012776901 -0.0892793
000060 d8 cd d7 bd f6 5d 8d 3d f8 5e 32 3c d4 64 75 3e
       -0.105373085 0.06902687 0.0108869 0.23964244
000070 50 5e e5 3c 3e f5 2f 3d ca fc 75 be cf 4e 29 bc
       0.027999073 0.04295849 -0.24022213 -0.010333731

critic_linear.weight f4 [1, 32]
000000 fb 0b b6 3d 28 93 c4 bb 64 c5 0f bd 05 15 d5 3a
       0.08889004 -0.0059989877 -0.035100356 0.0016256875
000010 29 c8 64 ba 83 14 93 3b ad 68 a4 3a b9 f5 d9 3a
       -0.0008727336 0.004488529 0.0012543403 0.0016629017
000020 4b 99 87 3b af 1a b9 bb 05 e5 8f 3b 9c 5f d0 ba
       0.004138147 -0.005648933 0.004391315 -0.0015897634
000030 12 d8 77 3a fe 75 27 bb b9 91 12 bb 1d fb 9e 39
       0.0009454499 -0.0025552507 -0.002236469 0.00030323202
000040 c5 e4 47 ba cb 9f f0 3b 53 bb dc 3a 2c 0b 20 be
       -0.0007625337 0.0073432676 0.0016840495 -0.15629262
000050 0b 02 55 ba 7f 3d 7b bb 32 bd 29 3a 74 db a6 ba
       -0.00081256096 -0.0038336215 0.00064750307 -0.0012730197
000060 fd 35 82 ba d7 44 bd 3b ba cd 80 3b b9 df bf bb
       -0.0009934303 0.0057760286 0.0039307745 -0.0058555272
000070 d7 f5 a6 3a fc 46 3b b9 f3 99 9e bb 33 73 93 bb
       0.0012738061 -0.00017860153 -0.0048401295 -0.004499817

actor_linear.weight f4 [6, 32]
000000 4c 86 9a 3e 56 58 68 be f0 22 d4 be 7a 88 3d 3c
       0.30180585 -0.22689947 -0.41432905 0.011568183
000010 1a cb 93 3b 61 0a ee 3d 37 60 9b bd 35 86 05 3d
       0.0045102956 0.11623073 -0.07586711 0.032598693
000020 c9 e5 e8 3c e5 5a 9c bc b4 35 a7 3c c2 89 e2 bd
       0.028429883 -0.01908631 0.02041135 -0.110614315
000030 6e 94 66 3c 0c 87 26 3e b3 b1 9d be 4b e5 10 3e
       0.014073474 0.16262454 -0.30799636 0.14149968
000040 f4 ec 29 be ba a4 01 3e f1 44 73 3d e3 db e3 be
       -0.16594297 0.12660494 0.05939192 -0.44503698
000050 14 09 be 3c f6 b2 32 bc fa 9c 62 3c 2b 31 ec 3d
       0.023197688 -0.010906925 0.013831371 0.115328155
000060 5f 7a a7 3c d3 bd b3 3d 34 57 1b 3e b4 52 66 3e
       0.020444093 0.087764405 0.15169984 0.22492486
000070 7b 16 40 3c b2 95 10 bd 7f d2 1b be 92 df 7c bc
       0.01172411 -0.03529901 -0.15217017 -0.015434163
000080 b1 b2 b8 3e bc dc 85 be f7 17 c9 be 2c c9 8b 3c
       0.3607383 -0.2614497 -0.39276096 0.0170637
000090 c8 cf b4 bb 62 8d ab 3d 9c bc bb bd b0 d0 8e 3d
       -0.0055179335 0.08376576 -0.09166834 0.06973398
0000a0 47 98 29 bb cd 92 88 bc 6c 69 79 3c b2 f7 d2 bd
       -0.0025878118 -0.016671563 0.015222888 -0.103011504
0000b0 5b b7 95 3c df c2 48 3e e6 54 c2 be dd a3 0d 3e
       0.018275907 0.19605587 -0.37955397 0.1383204
0000c0 ef 0a 37 be eb 83 e5 3d 2d f7 8b 3d fe 6b e3 be
       -0.17875265 0.11206802 0.068342544 -0.4441833
0000d0 68 7e cb 3c 01 1c 11 bc d5 36 f5 3c 1d aa d6 3d
       0.024840549 -0.008856774 0.029933373 0.10481665
0000e0 34 27 8d bb 1c 3a cd 3d 6e b1 1b 3e be 02 90 3e
       -0.004307652 0.10020849 0.15204403 0.28127092
0000f0 63 76 42 3d f0 41 90 bc 9c ae 1d be d5 6c bb bc
       0.047476184 -0.017609566 -0.1539864 -0.022879044
000100 67 13 99 3e 29 5b 7c be 13 0d ff be db 88 45 3c
       0.29897615 -0.2464415 -0.49814662 0.012056555
000110 2f 92 28 3c 73 d0 90 3d 8f bb ec bd 14 06 26 3d
       0.010288759 0.070710085 -0.115592115 0.04053314
000120 6c bb 1b 3c 29 36 65 bc 73 a4 91 3c 59 57 bb bd
       0.009505134 -0.013989964 0.01777861 -0.091475196
000130 5e f3 fd 3c b2 80 40 3e a6 9d 94 be 86 8b 00 3e
       0.030999836 0.18799093 -0.29026526 0.12553224
000140 9a 6b 2c be d9 0f 02 3e b4 52 82 3d 17 33 d2 be
       -0.16837922 0.12701358 0.063634306 -0.41054603
000150 5f cd 4c 3d 2a 39 22 bb 0e 23 17 3d a3 7b 86 3d
       0.050000545 -0.002475331 0.036898665 0.065665506
000160 5a aa cf ba 09 fe dc 3d 5a 8f 27 3e f3 58 29 3e
       -0.0015843615 0.10790641 0.16363278 0.16537838
000170 53 7c 92 3d 68 79 14 bc 12 76 1c be ed f4 c3 bc
       0.07152619 -0.009062149 -0.15279415 -0.0239205
000180 1f fd d7 3e c2 d2 59 be cd 28 ee be f6 68 97 bb
       0.42185304 -0.21271804 -0.46515504 -0.0046206666
000190 ef d9 f6 bb 3f b4 a7 3d f5 3e a9 bd 2b 33 57 3d
       -0.007533304 0.08188676 -0.08263961 0.052539032
0001a0 80 e2 34 3c 9f 94 0a bd 21 a1 a8 bb fc 31 fb bd
       0.01104033 -0.033833142 -0.005146161 -0.12265393
0001b0 26 34 30 3c 24 7c 49 3e 83 18 61 be f2 9e 02 3e
       0.010754621 0.19676262 -0.21982007 0.12755945
0001c0 57 86 2b be 62 4a df 3d 3c c3 1a 3d 10 bd a7 be
       -0.16750465 0.10902859 0.037783846 -0.3276143
0001d0 95 bf a6 3c 6b 7c 10 bd fc 62 3d 3b 61 93 32 3e
       0.020355025 -0.035274904 0.002889811 0.17439033
0001e0 67 a8 e9 bb df 5a 6a 3d 89 28 0d 3e 9a e8 a6 3e
       -0.007130671 0.057215568 0.13784994 0.32599336
0001f0 55 64 f8 3c e6 00 2c bd 40 77 16 be 7e 9d 3f bc
       0.03032128 -0.041993044 -0.14693928 -0.011695264
000200 ce 6b d7 3e 86 97 5d be 65 90 e1 be 96 b9 01 3d
       0.42074436 -0.21639833 -0.44055477 0.03167113
000210 d4 d2 d6 bc b8 45 c2 3d 29 26 91 bd 02 3a 89 3d
       -0.026223578 0.09485954 -0.070873566 0.06700517
000220 fe d7 cb b9 71 0b 00 bd 4e 80 c1 bc 75 eb 15 be
       -0.00038880104 -0.03126091 -0.02362075 -0.14640601
000230 f6 0c 95 3c 2e 92 3b 3e a2 d9 a2 be c4 e6 0f 3e
       0.018194657 0.18317482 -0.31806666 0.14052874
000240 99 91 38 be 7e 2b ba 3d 0c 9e 19 3d 57 19 c6 be
       -0.18024291 0.09090327 0.03750424 -0.38691208
000250 12 f2 16 3d c8 5f 1c bd 1c 88 ca bc 0a 03 2a bc
       0.03685195 -0.03817728 -0.024723105 -0.010376701
000260 47 b3 ca bb 70 36 4e 3d 2b 6c 0c 3e d5 42 0c 3e
       -0.0061859223 0.050344884 0.13713138 0.1369737
000270 5a c1 a9 3c fd c7 a2 bb 0f ac 12 be ac 10 4d bb
       0.02072208 -0.004967688 -0.14323448 -0.0031290455
000280 20 51 de 3e ba 42 82 be 28 93 a5 be 22 23 16 3d
       0.43421268 -0.25441533 -0.32338834 0.0366546
000290 f1 43 be bb b4 73 b0 3d 35 28 a9 bd aa cc 9d 3d
       -0.005806439 0.086158186 -0.08259622 0.07705052
0002a0 2b 7e df 3c 4d fb 49 bd d2 4c e9 bc 18 08 08 be
       0.027281841 -0.049311925 -0.028479014 -0.13284338
0002b0 16 6b d2 3c 1d 38 37 3e 6b 30 7c be ae 60 fe 3d
       0.025685828 0.178925 -0.24627845 0.12420784
0002c0 58 bb 3a be b5 bb eb 3d d6 e2 fd 3c 97 e4 c7 be
       -0.18235528 0.11510412 0.030991953 -0.39041588
0002d0 8b 8d 7f 3d 3f ec 1c bd 36 1b c1 3b d2 da b0 3d
       0.062390845 -0.03831124 0.0058931364 0.08635487
0002e0 8a b6 bd bc c4 64 53 3d b5 f1 27 3e c1 7f b7 3e
       -0.02315833 0.05160977 0.16400798 0.35839656
0002f0 05 55 a8 3c 89 37 8c bb 98 44 2f be ee da c7 3c
       0.020548353 -0.0042790812 -0.1711601 0.024396386

actor_linear.bias f4 [6]
000000 fc 65 bd 3d 79 f0 ca 3e 8e 51 88 3e dc 5f 4f 3e
       0.092479676 0.3963659 0.2662472 0.20251411
000010 8c 5b 82 3e d1 74 88 3e
       0.2546047 0.26651624
