spaceinvaders-v0-bottom-7fskip_latent32/model.6.tar (torch, 223035 bytes, 13 tensors)

conv1.weight f4 [32, 4, 3, 3]
0.019730337 -0.11607514 -0.06623237 0.0562508 -0.19925085 0.024554435 0.04549191 0.05679712
0.0062310696 -0.07319019 0.020073818 -0.00821104 0.027093846 -0.08290633 -0.035173357 0.037791353
0.029959073 0.017646156 0.1278438 0.033552345 -0.050090708 -0.09443887 -0.03250787 -0.06064346
-0.0030207227 0.045143507 0.123724334 0.17334731 -0.23753372 0.12712418 0.09290198 0.16443713
0.188676 -0.19698386 -0.028709792 -0.044158258 0.08017126 -0.043472808 0.04591462 -0.12361037
0.15671277 -0.125444 0.12930803 -0.021079654 -0.14106606 0.044188805 -0.09973821 -0.00032594134
-0.09675018 -0.025781505 -0.16185999 -0.08109361 0.10848049 -0.042533346 0.15162873 0.11983713
-0.031692047 -0.15107852 0.09001158 0.06635675 -0.12422496 0.16912562 0.0920038 0.27861908
-0.17740396 -0.05251305 -0.013151453 0.0039534112 -0.018578332 -0.2594108 0.29149234 4.942747e-06
0.07182882 0.040793598 0.07773645 -0.016788783 0.08256572 0.13665825 -0.19942296 0.0814389
-0.054976445 -0.12796396 0.028682252 0.002840325 0.044579994 -0.10758033 -0.09565713 0.07987028
-0.038468283 0.15525639 0.06349105 -0.11244599 0.05459179 0.012573294 -0.12517968 -0.054657187
0.03652657 0.018834708 -0.04414795 -0.022029944 0.1282577 -0.091412775 0.1131445 0.04912158
-0.14399946 -0.12830877 0.21175289 0.014347747 0.1373516 0.052727252 0.054276597 0.15486045
0.19507173 -0.11707743 0.087210886 0.22067656 0.14078088 0.1044284 -0.14385562 -0.11286638
-0.100532465 -0.010982447 0.14199166 -0.07879897 0.10186545 -0.09274979 -0.14949039 -0.07177439
0.10886855 0.1432238 -0.17765933 0.006082341 0.12543927 0.072441675 0.085687675 0.09886024
0.00177312 0.095244214 -0.13514592 -0.322303 -0.11551566 -0.07524181 -0.21152914 -0.003929931
-0.017212227 -0.08520755 0.095216006 0.03564808 0.055737667 0.07153795 -0.04250705 0.15860511
-0.08112599 -0.062840834 -0.18348229 -0.12104497 -0.116673626 -0.08752816 0.0801039 -0.041663427
-0.11114232 0.026325872 0.021459935 0.093126036 -0.10285169 0.030886192 -0.07167469 -0.061238583
-0.116626754 -0.056808572 -0.07541764 0.13088036 0.025202172 -0.026563454 0.22426543 0.1764848
0.12015491 0.0430822 -0.1047072 0.18630049 -0.079164736 -0.080437616 -0.1850926 -0.095857725
-0.23112725 0.062154334 -0.1953968 -0.25641832 -0.10223607 -0.08420968 0.059273705 -0.053840358
-0.1077654 -0.04756559 0.08951142 -0.1347607 0.029305749 0.057511244 0.1840709 -0.0806696
0.0901919 -0.13739705 0.13097028 -0.049801875 0.09790792 0.010869388 -0.013864401 0.0626793
0.1149007 0.19090267 0.025421122 0.11017126 -0.057142124 0.11805053 0.23408382 0.23727103
0.16588059 -0.043735214 -0.017256588 0.18366277 -0.05487298 0.20521748 -0.14389874 -0.1365273
0.10053788 -0.08471928 -0.027028682 0.18111141 0.14946294 0.17728713 0.004115335 -0.1485146
0.14335364 -0.039251737 -0.06236465 0.0077602663 -0.072992995 0.12109426 0.10410662 -0.11125836
-0.14513803 -0.024930902 0.075206295 -0.060049303 -0.18780084 -0.04233938 -0.16727977 -0.114277504
-0.14572117 0.18359055 0.19577624 -0.024875164 -0.074823 0.013795856 -0.036482453 -0.17154127
00000000: 84a1 a13c ceb8 edbd d6a4 87bd 3d67 663d
00000010: 6a08 4cbe 6226 c93c ba55 3a3d 19a4 683d
00000020: 002e cc3b bde4 95bd d971 a43c 9987 06bc
00000030: eaf3 dd3c cbca a9bd f011 10bd 1bcb 1a3d
00000040: bb6c f53c ac8e 903c 7ce9 023e 2f6e 093d
00000050: ea2b 4dbd 2b69 c1bd f926 05bd 4765 78bd
00000060: 51f7 45bb 66e8 383d 2f63 fd3d f581 313e
00000070: 0a3c 73be d72c 023e 6543 be3d 3562 283e
00000080: 4834 413e 23b6 49be cc30 ebbc 4adf 34bd
00000090: d430 a43d 8b10 32bd f810 3c3d 6f27 fdbd
000000a0: 5079 203e 6474 00be 5369 043e 3daf acbc
000000b0: 9f73 10be 52ff 343d 8c43 ccbd 1be3 aab9
000000c0: f524 c6bd bc33 d3bc a0be 25be 6814 a6bd
000000d0: 052b de3d 7237 2ebd 9044 1b3e 2b6d f53d
000000e0: 85cf 01bd 54b4 1abe fe57 b83d 0ce6 873d
000000f0: a869 febd 442f 2d3e 7d6c bc3d 29a7 8e3e
00000100: 62a9 35be ed17 57bd 3179 57bc 9e8b 813b
00000110: 9631 98bc 7ed1 84be 7c3e 953e e0d9 a536
00000120: fd1a 933d 3017 273d 4a34 9f3d a188 89bc
00000130: 3718 a93d 24f0 0b3e 8835 4cbe 70c9 a63d
00000140: fb2e 61bd fc08 03be 0bf7 ea3c bf24 3a3b
00000150: 8399 363d 1353 dcbd e3e7 c3bd 0893 a33d
00000160: eb90 1dbd 88fb 1e3e 9807 823d 154a e6bd
00000170: a49b 5f3d 3800 4e3c 1a2f 00be 37e0 5fbd
00000180: e29c 153d 3f4b 9a3c 7bd4 34bd 2478 b4bc
00000190: fd55 033e 9f36 bbbd 4eb8 e73d b633 493d
000001a0: 9874 13be 6063 03be c0d5 583e d012 6b3c
000001b0: e6a5 0c3e 88f8 573d 2351 5e3d bd93 1e3e
000001c0: e2c0 473e 4bc6 efbd 9f9b b23d 09f9 613e
000001d0: dd28 103e 8fde d53d e34e 13be 7d26 e7bd
000001e0: f7e3 cdbd b9ef 33bc 4366 113e 5b61 a1bd
000001f0: d59e d03d 9af3 bdbd 0214 19be 74fe 92bd
00000200: 79f6 de3d 43a9 123e 54ec 35be 604e c73b
00000210: 2773 003e 4d5c 943d 057d af3d 3d77 ca3d
00000220: 0968 e83a 660f c33d b163 0abe e604 a5be
00000230: 7993 ecbd 6118 9abd 189b 58be a7c6 80bb
00000240: a800 8dbc 4c81 aebd 9c00 c33d b903 123d
00000250: 2e4d 643d 7d82 923d df1b 2ebd 6169 223e
00000260: 6225 a6bd b2b2 80bd c8e2 3bbe 6de6 f7bd
00000270: 95f2 eebd f741 b3bd 830d a43d 45a7 2abd
00000280: 969e e3bd 5ba9 d73c bfcc af3c ddb8 be3d
00000290: e8a3 d2bd 0a05 fd3c 2eca 92bd 4fd5 7abd
000002a0: 02da eebd 1bb0 68bd 9074 9abd 8005 063e
000002b0: c974 ce3c 9a9b d9bc d6a5 653e 6eb8 343e
000002c0: c713 f63d f676 303d ba70 d6bd 8ec5 3e3e
000002d0: 1f21 a2bd 7abc a4bd ea88 3dbe 0e51 c4bd
000002e0: 9fac 6cbe 8b95 7e3d 1916 48be 4349 83be
000002f0: 2561 d1bd 2076 acbd fcc8 723d b587 5cbd
00000300: 1bb4 dcbd 23d4 42bd c351 b73d b5fe 09be
00000310: 9c12 f03c e990 6b3d 157d 3c3e 1a36 a5bd
00000320: 88b6 b83d d0b1 0cbe 131d 063e 0dfd 4bbd
00000330: f383 c83d 8415 323c 8327 63bc 015e 803d
00000340: 0f51 eb3d fd7b 433e f53f d03c 78a1 e13d
00000350: dc0d 6abd 7ac4 f13d abb3 6f3e 2df7 723e
00000360: 9adc 293e b223 33bd b05d 8dbc 1812 3c3e
00000370: 7dc2 60bd 8824 523e 315a 13be d0cd 0bbe
00000380: cee6 cd3d 4d81 adbd 416b ddbc 4575 393e
00000390: d00c 193e c28a 353e efd9 863b 3614 18be
000003a0: 4ccb 123e 6ec6 20bd 1372 7fbd d549 fe3b
000003b0: 5a7d 95bd 4400 f83d da35 d53d 6cdb e3bd
000003c0: 109f 14be e43b ccbc c205 9a3d 42f6 75bd
000003d0: dd4e 40be 0f6c 2dbd 634b 2bbe 530a eabd
000003e0: ee37 15be 29ff 3b3e 9179 483e 00c7 cbbc
000003f0: cd3c 99bd 0408 623c a06e 15bd 84a8 2fbe

conv1.bias f4 [32]
0.0009637698 0.002760169 -0.0042252745 -0.00287236 0.0030212826 -0.008240048 -0.0156701 0.0008850329
0.002352002 -0.0005294855 0.0012210844 -3.089266e-05 -0.0026515329 0.0005233512 -0.08027268 0.06075193
-0.024567105 -0.004871528 0.019282795 -0.02710538 0.027758837 -0.013683191 -0.023971034 0.005219601
-0.0015179223 0.010931802 0.005393528 -0.0019468413 0.0006908094 0.015544843 0.006979244 0.002940036
00000000: 7fa5 7c3a f4e3 343b 2c74 8abb 343e 3cbb
00000010: b600 463b 4401 07bc 955e 80bc 8d01 683a
00000020: 0c24 1a3b 2ccd 0aba cb0c a03a be92 01b8
00000030: 57c5 2dbb 8131 093a 0166 a4bd 04d7 783d
00000040: f440 c9bc 57a1 9fbb f4f6 9d3c 1a0c debc
00000050: 8066 e33c 762f 60bc e75e c4bc 3009 ab3b
00000060: 05f5 c6ba 4d1b 333c 31bc b03b 272d ffba
00000070: 6f17 353a ccaf 7e3c 24b2 e43b 9ead 403b

conv2.weight f4 [32, 32, 3, 3]
-0.025476653 -0.11095177 -0.01668953 0.07747643 0.10507551 0.031964593 -0.003523816 -0.11773193
0.017849017 -0.035427682 -0.074442305 0.018604575 0.040577065 0.062176492 -0.0055415044 0.013477358
-0.05691403 0.082954735 0.011301833 -0.05617284 0.05259311 0.026532043 -0.06289765 0.03845624
-0.024058282 -0.032865755 -0.036888674 -0.08002715 -0.097109765 -0.10280107 0.007968553 -0.05610312
-0.039235998 0.009719118 0.017928021 -0.10626034 0.0032428554 0.008584943 0.0282877 0.032952227
0.04064595 0.025177905 -0.03683326 -0.066119336 0.028281845 0.024500627 -0.045034036 -0.010533699
0.017391024 -0.1174618 0.042245373 -0.09486818 -0.09121103 0.030264547 0.01170647 -0.04978812
-0.012521273 -0.023626596 -0.021002837 -0.03768908 -0.034401335 -0.085627444 0.00059981155 -0.011477602
-0.07147221 -0.050158788 0.05499755 0.0045184754 0.024102153 -0.062637635 -0.07252172 0.045063872
-0.03674795 0.07796492 0.060864594 -0.018265178 -5.444494e-05 -0.0019408995 -0.09565772 -0.0252462
0.05915856 0.043459117 -0.024488458 0.02864079 -0.03307307 0.047985513 0.06243213 -0.08169186
-0.0013667762 0.1547306 -0.01057092 -0.023101434 -0.023901934 -0.00070922024 0.10549107 -0.0040257224
-0.042206593 -0.04955023 0.07359772 -0.051761724 -0.05551178 -0.027683942 0.07197755 -0.044484712
0.03417823 0.021415083 0.003407774 -0.09033238 0.0022645807 0.045027837 0.031329177 0.045366805
-0.047887042 0.025058677 0.031565048 -0.013370245 -0.01034259 -0.031902097 0.11452197 0.073005706
0.06656874 0.12909095 0.0077497065 0.075121365 0.03636674 0.01848803 -0.003897259 -0.052679256
0.007868339 -0.021492723 -0.03726543 0.0059328238 -0.0048436243 0.018672807 0.002685198 -0.03724413
-0.053974476 -0.004580438 0.01836812 0.0639725 0.028034177 0.043372072 -0.044179298 -0.07863388
-0.045676693 -0.05685637 -0.058326643 0.019808462 -0.05731534 0.03673605 -0.043957137 0.017812941
0.018192481 -0.057086714 -0.039402027 -0.012793116 -0.069038235 0.07159682 -0.04959077 -0.013645511
-0.04754688 -0.06760942 -0.003988556 -0.024761038 0.017886527 0.0092035765 0.02539361 0.030482495
-0.04455603 -0.053276133 0.032307938 0.048060484 -0.032504115 0.081275985 0.00727662 -0.007867501
0.040127207 0.04433457 -0.008972305 0.03126727 0.05144618 -0.0010253248 0.07530671 0.014391523
0.08116253 -0.03253532 -0.02599042 -0.031307288 -0.023550259 0.04112735 0.0036069262 0.058295615
-0.019231437 -0.03129501 -0.019317295 0.07945768 0.020131757 -0.020009926 -0.011689845 0.057741378
0.052696798 -0.067326985 -0.051616654 -0.028598996 0.032662924 -0.013367781 -0.03450775 -0.0852345
-0.043259826 0.014559191 -0.108168095 0.01985815 -0.0917008 0.052878466 -0.03298813 -0.011788537
0.008240987 0.0032107732 -0.006555911 -0.055483423 -0.08426503 -0.07288413 0.061861694 -0.0400915
-0.04725595 -0.048789836 0.008302824 -0.010445797 -0.117330395 -0.14326379 -0.018105758 -0.1237907
-0.06271498 0.024608394 0.035289522 -0.031391148 -0.012679556 0.0038138872 0.0523936 -0.054271862
-0.028073095 0.03664095 0.014667871 0.09312167 -0.039012875 0.019216586 0.010407247 -0.050870936
-0.024283767 0.053764217 0.10145653 -0.04134006 0.061379354 0.08271257 0.031651247 -0.17241529
00000000: 6ab4 d0bc ae3a e3bd 7bb8 88bc f6ab 9e3d
00000010: d431 d73d 4eed 023d d2ef 66bb 701d f1bd
00000020: 1a38 923c 9e1c 11bd 3575 98bd 9f68 983c
00000030: 2334 263d c7ac 7e3d 8295 b5bb 23d0 5c3c
00000040: b01e 69bd 2ce4 a93d 532b 393c 7e15 66bd
00000050: df6b 573d ba59 d93c 7cd0 80bd 4a84 1d3d
00000060: e015 c5bc 3e9e 06bd 9418 17bd 46e5 a3bd
00000070: 7ce1 c6bd 5e89 d2bd 898e 023c 63cc 65bd
00000080: edb5 20bd ef3c 1f3c c9dd 923c 059f d9bd
00000090: 1686 543b dca7 0c3c 9bbb e73c eaf8 063d
000000a0: 5e7c 263d e541 ce3c 79de 16bd 9369 87bd
000000b0: 54af e73c 8ab5 c83c 9c75 38bd 8995 2cbc
000000c0: 9f77 8e3c d08f f0bd 7c09 2d3d 404a c2bd
000000d0: d9cc babd 5bed f73c 7ecc 3f3c a1ee 4bbd
000000e0: 0726 4dbc 908c c1bc 240e acbc dd5f 1abd
000000f0: 6ae8 0cbd 715d afbd ac3c 1d3a 8d0c 3cbc
00000100: 0660 92bd 4d73 4dbd 1c45 613d b80f 943b
00000110: e171 c53c 2948 80bd 4486 94bd e594 383d
00000120: 0585 16bd 12ac 9f3d 274d 793d dba0 95bc
00000130: cf5b 64b8 c865 feba 32e8 c3bd 1ed1 cebc
00000140: 3f50 723d 3002 323d 059c c8bc 17a0 ea3c
00000150: a177 07bd 758c 443d d5b8 7f3d 104e a7bd
00000160: 6625 b3ba b371 1e3e a731 2dbc 383f bdbc
00000170: fdcd c3bc f7ea 39ba b40b d83d 35ea 83bb
00000180: d2e0 2cbd 2ff5 4abd 67ba 963d 1a04 54bd
00000190: 5260 63bd 6fc9 e2bc f768 933d 9a35 36bd
000001a0: 79fe 0b3d af6e af3c f654 5f3b 2f00 b9bd
000001b0: 5c69 143b 1c6f 383d 0653 003d 8bd2 393d
000001c0: 3425 44bd db47 cd3c 5a4a 013d df0e 5bbc
000001d0: f773 29bc c6ab 02bd 7f8a ea3d 0484 953d
000001e0: 3155 883d 6b30 043e 40f1 fd3b 3bd9 993d
000001f0: 4af5 143d 3674 973c 2869 7fbb 34c6 57bd
00000200: 35ea 003c 8211 b0bc a3a3 18bd 2268 c23b
00000210: 44b7 9ebb b7f7 983c 26fa 2f3b 4d8d 18bd
00000220: 5714 5dbd 8017 96bb bd78 963c 0404 833d
00000230: eea7 e53c eaa6 313d 5af5 34bd cd0a a1bd
00000240: 7c17 3bbd 3ae2 68bd ebe7 6ebd 5b45 a23c
00000250: 7dc3 6abd 8a78 163d 660c 34bd 72ec 913c
00000260: 6608 953c c2d3 69bd 0564 21bd 389a 51bc
00000270: eb63 8dbd 5ba1 923d b11f 4bbd 6c91 5fbc
00000280: 84c0 42bd cf76 8abd 6fb2 82bb a9d7 cabc
00000290: c486 923c 99ca 163c 4306 d03c 6db6 f93c
000002a0: 6280 36bd 1338 5abd 5455 043d 12db 443d
000002b0: 0923 05bd 0674 a63d b670 ee3b b1e6 00bc
000002c0: 6d5c 243d 2b98 353d 9300 13bc 1c12 003d
000002d0: 3bb9 523d 3164 86ba 683a 9a3d 6cca 6b3c
000002e0: 8a38 a63d c143 05bd dce9 d4bc 123c 00bd
000002f0: 79ec c0bc 2775 283d 2e62 6c3b 62c7 6e3d
00000300: 3f8b 9dbc 322f 00bd 4e3f 9ebc b5ba a23d
00000310: 5beb a43c dbeb a3bc c386 3fbc 3982 6c3d
00000320: 99d8 573d bbe2 89bd fc6b 53bd 7148 eabc
00000330: 8fc9 053d 8a04 5bbc 0058 0dbd 6d8f aebd
00000340: 3731 31bd ac89 6e3c 3c87 ddbd 8fad a23c
00000350: a1cd bbbd 1797 583d 901e 07bd b524 41bc
00000360: 3405 073c d66b 523b f8d2 d6bb 9642 63bd
00000370: 2593 acbd 4644 95bd b062 7d3d fc36 24bd
00000380: 748f 41bd dad7 47bd 9108 083c d924 2bbc
00000390: eb4a f0bd beb3 12be 8752 94bc fb85 fdbd
000003a0: b670 80bd 8b97 c93c bf8b 103d 0194 00bd
000003b0: eabd 4fbc 69f2 793b ac9a 563d 2c4c 5ebd
000003c0: 8cf9 e5bc d214 163d 8351 703c 93b6 be3d
000003d0: f7cb 1fbd 1a6c 9d3c 2883 2a3c 0b5e 50bd
000003e0: c0ee c6bc de37 5c3d 71c8 cf3d 3254 29bd
000003f0: eb68 7b3d 3565 a93d bda4 013d a28d 30be

conv2.bias f4 [32]
-0.016773283 0.007017303 0.018284595 -0.02400509 0.021095572 0.037514932 -0.0074486095 -0.01982625
-0.03647844 -0.000859956 0.035747662 -0.0123844575 -0.024371391 -0.0055033355 -0.0340396 0.017453166
0.023945494 -0.0018571728 -0.019234575 -0.013807691 -0.0141394455 -0.01613635 0.0016475152 -0.008411646
0.007209353 0.02824864 0.032864086 -0.029913874 -0.014873545 -0.04438118 -0.020373136 -0.023781566
00000000: 2068 89bc 67f1 e53b 93c9 953c 53a6 c4bc
00000010: 9fd0 ac3c 42a9 193d 7713 f4bb a96a a2bc
00000020: 6b6a 15bd ac6e 61ba 246c 123d 2ee8 4abc
00000030: 83a6 c7bc 5355 b4bb 1c6d 0bbd f1f9 8e3c
00000040: 5729 c43c 616c f3ba d491 9dbc a739 62bc
00000050: 22a9 67bc 6130 84bc 70f1 d73a 00d1 09bc
00000060: 703c ec3b b169 e73c 7e9c 063d f10d f5bc
00000070: 2bb0 73bc 0ac9 35bd 90e5 a6bc 8fd1 c2bc

conv3.weight f4 [32, 32, 3, 3]
-0.03708754 0.0057622343 -0.09165466 0.029485183 0.10200005 0.07553038 0.047741223 0.061089672
0.018590393 0.0019897653 0.015302241 -0.0008936384 -0.07899037 -0.047255956 -0.016970895 -0.086024426
0.05642148 0.044321723 -0.012947364 0.010981409 0.054418053 -0.02595476 -0.11424062 -0.013391539
0.08836276 0.019058453 0.04253082 0.055408467 0.03513942 -0.02806864 -0.07764755 -0.046790753
-0.062975205 0.069717504 -0.044459604 0.016134439 -0.0004756395 -0.0213335 -0.04178704 0.011176982
-0.058796395 -0.025716005 0.07017638 0.053081665 -0.033122964 0.07500661 -0.033681333 -0.07573873
0.045134336 -0.0628479 -0.051167198 0.06420609 0.031942498 -0.031441268 0.034216985 -0.044802748
0.019481394 -0.08056903 0.035358757 0.10904287 -0.037035234 -0.029532215 0.015452507 -0.0043869168
-0.09473975 -0.009073816 0.099306434 0.019471774 0.03777701 0.0024456433 -0.016603421 -0.03864982
0.026756896 -0.017607782 0.037185684 -0.00509913 0.03348618 -0.024515487 0.015814599 0.016241023
-0.044796985 -0.0629637 0.016027201 -0.09137148 -0.11107171 -0.08004679 -0.0928211 0.089625865
0.033362072 -0.07638877 -0.012244547 -0.022023575 -0.045972224 0.119562455 0.1125632 0.057258267
0.013251116 -0.09750034 -0.0642284 -0.071719944 0.073028766 0.037600853 0.0064087748 0.03721737
-0.08292559 0.05269783 0.02675644 -0.049106598 -0.010324796 -0.005938343 0.04901238 -0.05517256
-0.012480763 -0.036351953 0.013158579 0.02958697 0.0088018095 0.089377336 0.019778699 -0.0021124983
0.0155511135 -0.08896445 -0.03189509 0.11018588 -0.020031976 0.05611674 0.04151823 0.035915226
-0.014452883 -0.0074420758 0.07820967 0.02736003 -0.037091184 -0.05314752 -0.027236095 -0.0011327266
-0.10646322 -0.09073675 0.027130269 0.009068043 0.064871445 -0.029691618 -0.13390607 -0.030873291
-0.026537735 -0.11068452 0.06261161 -0.05435828 -0.06393918 -0.012036721 0.09901106 -0.0567956
-0.09121178 -0.062818885 -0.00778385 0.012702121 -0.031236293 0.03228326 0.039824773 -0.08613319
0.08342027 0.035066675 0.027207028 0.040097672 0.06479769 -0.004804235 -0.00898485 -0.019783633
-0.044780508 0.03410032 0.07663456 0.024536382 0.019156078 0.04635432 -0.020999769 -0.024463229
0.0039380277 0.061935887 -0.09935844 0.024171079 -0.010241415 0.092955664 -0.035029955 0.052938424
0.049274128 0.082958706 -0.0070292805 0.030691158 0.06589882 0.010877132 -0.005854234 0.043672636
-0.048249837 -0.042651787 0.063229814 -0.048787575 -0.019597055 -0.02492888 0.029849004 0.009589202
0.048166513 -0.044471867 0.10252233 0.061472233 -0.04698672 0.036212623 0.056462903 -0.019145798
-0.0065509737 -0.09636481 0.047593523 -0.08893561 -0.031560604 -0.06725871 -0.039993215 0.045188345
0.017971305 0.054291256 0.03444155 -0.023675276 0.07165751 0.1082202 0.013447908 0.043471757
0.10761763 -0.06426385 0.055160403 0.024739997 -0.050685506 -0.055039443 -0.03506926 0.055749256
0.04981079 -0.013622193 -0.041557763 0.004487581 0.068166755 0.043832835 0.06929862 0.0008439155
-0.002376696 -0.018965993 -0.07344621 0.015904449 0.012998482 0.031718556 0.062229283 -0.041638967
0.0020676295 0.01798499 0.04162458 0.0182933 -0.06553506 0.0145312715 0.04243435 -0.06139507
00000000: 1be9 17bd 20d1 bc3b 70b5 bbbd e98a f13c
00000010: 67e5 d03d acaf 9a3d 4d8c 433d 2a39 7a3d
00000020: e14a 983c b966 023b 40b6 7a3c 0f43 6aba
00000030: b4c5 a1bd 768f 41bd 8c06 8bbc 932d b0bd
00000040: 361a 673d b28a 353d 2e21 54bc 5eeb 333c
00000050: 77e5 5e3d 149f d4bc fcf6 e9bd 3068 5bbc
00000060: 89f7 b43d 7920 9c3c cc34 2e3d fdf3 623d
00000070: 5aee 0f3d 34f0 e5bc ae05 9fbd a9a7 3fbd
00000080: 25f9 80bd 0dc8 8e3d 461b 36bd 5f2c 843c
00000090: 415f f9b9 98c3 aebc e328 2bbd a91f 373c
000000a0: 7dd4 70bd 5faa d2bc a2b8 8f3d 296c 593d
000000b0: f2ab 07bd 119d 993d 70f5 09bd e81c 9bbd
000000c0: c8de 383d 66b6 80bd b294 51bd 7c7e 833d
000000d0: 23d6 023d 8fc8 00bd 1c27 0c3d 1683 37bd
000000e0: 7297 9f3c 6001 a5bd 58d4 103d de51 df3d
000000f0: 42b2 17bd 8bed f1bc 832c 7d3c 20c0 8fbb
00000100: ea06 c2bd 58aa 14bc 2c61 cb3d 4583 9f3c
00000110: 11bc 1a3d 1647 203b e603 88bc 464f 1ebd
00000120: 4731 db3c 323e 90bc 0450 183d 9a16 a7bb
00000130: ce28 093d b4d4 c8bc 9e8d 813c e50b 853c
00000140: 0b7d 37bd 1df3 80bd 7a4b 833c f820 bbbd
00000150: 9179 e3bd 92ef a3bd fd18 bebd c48d b73d
00000160: aba6 083d b771 9cbd 5a9d 48bc c96a b4bc
00000170: 5f4d 3cbd 29dd f43d 8987 e63d a587 6a3d
00000180: 351b 593c 42ae c7bd 2e8a 83bd e8e1 92bd
00000190: 1b90 953d 5a03 1a3d b300 d23b 3e71 183d
000001a0: e4d4 a9bd aed9 573d 5230 db3c 0024 49bd
000001b0: 5529 29bc 6e96 c2bb 35c1 483d 9ffc 61bd
000001c0: 1d7c 4cbc c9e5 14bd 1597 573c 6060 f23c
000001d0: 7735 103c 770b b73d f006 a23c d771 0abb
000001e0: 19ca 7e3c fe32 b6bd 6da4 02bd 22a9 e13d
000001f0: 191a a4bc abda 653d 050f 2a3d d81b 133d
00000200: c9cb 6cbc a8dc f3bb 642c a03d 2422 e03c
00000210: edec 17bd 37b1 59bd 3b1e dfbc ff77 94ba
00000220: 6409 dabd 30d4 b9bd 4c40 de3c 2192 143c
00000230: 52db 843d d63b f3bc ac1e 09be fce9 fcbc
00000240: aa65 d9bc 91ae e2bd 843a 803d caa6 5ebd
00000250: 8bf2 82bd ab35 45bc 50c6 ca3d 81a2 68bd
00000260: 3ecd babd 30a7 80bd ab0f ffbb 8f1c 503c
00000270: 41e3 ffbc 743b 043d 4d1f 233d 9966 b0bd
00000280: 3fd8 aa3d 13a2 0f3d 46e1 de3c 753d 243d
00000290: a7b4 843d d86c 9dbb 3135 13bc 4911 a2bc
000002a0: c46b 37bd c7ac 0b3d 95f2 9c3d 8600 c93c
000002b0: 35ed 9c3c 07de 3d3d b507 acbc 1c67 c8bc
000002c0: 920a 813b 7cb0 7d3d 707c cbbd 6d02 c63c
000002d0: 9ccb 27bc 8a5f be3d 927b 0fbd f6d5 583d
000002e0: abd3 493d 41e6 a93d e155 e6bb 066c fb3c
000002f0: f6f5 863d 0036 323c e0d4 bfbb 14e2 323d
00000300: 9fa1 45bd a4b3 2ebd a27e 813d 7bd5 47bd
00000310: 018a a0bc a737 ccbc e685 f43c 071c 1d3c
00000320: 404a 453d 2228 36bd 3af7 d13d 4fca 7b3d
00000330: 2675 40bd b053 143d a545 673d a6d7 9cbc
00000340: 8da9 d6bb ea5a c5bd 6df1 423d e023 b6bd
00000350: b145 01bd efbe 89bd edcf 23bd 6a17 393d
00000360: 8f38 933c 8260 5e3d 9512 0d3d a7f2 c1bc
00000370: 2cc1 923d 8da2 dd3d 9d54 5c3c 710f 323d
00000380: a266 dc3d c49c 83bd e0ef 613d 89ab ca3c
00000390: 9b9b 4fbd 0a71 61bd c9a4 0fbd 5559 643d
000003a0: 6606 4c3d 9e2f 5fbc 7938 2abd 8f0c 933b
000003b0: 039b 8b3d 0f8a 333d 6fec 8d3d 363a 5d3a
000003c0: 58c2 1bbb 925e 9bbc f76a 96bd 0c4a 823c
000003d0: 96f7 543c 51eb 013d 22e4 7e3d 9f8d 2abd
000003e0: 1181 073b 4255 933c 897e 2a3d d5db 953c
000003f0: 3f37 86bd 9214 6e3c a4cf 2d3d 6679 7bbd

conv3.bias f4 [32]
0.11009688 -0.0873257 -0.055419203 0.088935 0.028426563 -0.09723293 -0.008954524 -0.12240312
-0.041530628 -0.0681659 -0.009319189 -0.059978325 -0.002017458 -0.03697359 0.08615256 0.008021784
0.10878038 -0.04842061 -0.041108735 -0.06164264 -0.028022388 0.030711295 -0.018781232 -0.00041044824
-0.01073274 -0.11259125 0.09249361 0.0593459 0.0177511 0.111771576 0.012694032 -0.037363928
00000000: 797a e13d d1d7 b2bd 3fff 62bd 8e23 b63d
00000010: d3de e83c 0f22 c7bd ffb5 12bc 7dae fabd
00000020: 051c 2abd 909a 8bbd 83af 18bc d5ab 75bd
00000030: 5437 04bb 9e71 17bd c170 b03d cd6d 033c
00000040: 3fc8 de3d b154 46bd a261 28bd fe7c 7cbd
00000050: 358f e5bc 4196 fb3c 19db 99bc 6e31 d7b9
00000060: 60d8 2fbc 3e96 e6bd 4a6d bd3d b014 733d
00000070: c16a 913c 7fe8 e43d a1fa 4f3c eb0a 19bd

conv4.weight f4 [32, 32, 3, 3]
0.045507275 0.019363586 0.02911621 0.058919255 -0.05106663 0.04787205 0.023448275 -0.02639693
-0.041377246 -0.020961424 -0.020744666 0.018906081 0.053822506 0.06576715 -0.072497845 0.04411633
0.06230231 -0.055524427 -0.062152565 -0.045457315 0.04456924 0.055013675 -0.0920586 0.06820902
0.014439932 0.10188696 -0.029819736 0.012094834 0.064513214 -0.07751134 -0.007841358 0.020755095
-0.06361591 -0.024484385 -0.017122677 0.078464694 -0.016169578 -0.08287247 0.0022595644 -0.005338836
-0.013165528 -0.049748518 -0.015435224 -0.060244787 -0.101126805 -0.0440453 -0.017655151 -0.029808162
0.025530426 -0.020043032 -0.083198935 0.020185646 -0.0616876 -0.02707762 0.04428478 0.048178293
-0.057874925 -0.052904695 0.03521133 -0.02848447 -0.083508275 0.07264037 -0.0005103636 -0.044847935
0.07132319 0.025325032 -0.002823045 0.07057773 -0.028776689 -0.020020083 -0.06953967 0.007491028
-0.030289277 -0.11814061 0.011589078 0.04953731 0.030471776 0.0034589027 -0.072540164 -0.009118128
0.06624837 -0.010498255 -0.06558665 0.088471025 0.04054568 -0.051272437 0.0034309644 -0.041320853
-0.0028498468 0.04169511 0.05058317 -0.019261213 0.09641986 -0.0008243789 0.059835378 -0.0048445184
-0.03083245 0.043746762 0.015610832 0.011016072 0.037846003 -0.007047359 -0.017478341 0.013515935
-0.035171144 0.011700146 0.079427205 -0.08641461 0.011608561 -0.079297595 0.021982813 0.010365942
-0.113442294 0.06616693 -0.01934178 -0.033174545 -0.013710118 0.015417612 0.02805987 0.014616677
0.026805198 -0.02435615 0.07153791 -0.020280639 -0.052023664 -0.091942966 0.021230826 0.020010114
-0.010993155 -0.09575972 -9.491472e-05 0.08778605 -0.00358257 0.030794872 0.021027368 0.028283386
0.05093439 0.020082835 0.009777233 0.07732409 -0.12195049 0.040861424 0.0006802652 -0.089033015
-0.01859279 0.0076818056 -0.021617373 0.03455436 0.008511782 0.059986364 0.06356199 -0.014065702
-0.057127967 -0.08585414 -0.043525506 -0.07697593 -0.041851144 0.14545727 -0.0036181167 -0.07814294
0.011340278 0.084263854 -0.019450925 0.0007132698 -0.041376352 0.039967813 0.084474035 -0.07559667
-0.04548308 -0.050348192 0.006725663 0.045594204 -0.027866893 -0.053418417 0.08086097 -0.052988503
-0.002248288 0.028083555 0.008479604 0.030602934 0.048390497 0.051017504 0.012245982 -0.02514915
0.026730984 -0.02709177 -0.106048256 -0.00028938067 0.08334778 0.0011072699 -0.014249379 0.052315455
-0.0022307965 -0.07720407 0.008292716 0.0005390859 0.058052335 -0.052052416 -0.05826542 0.083173595
0.015855081 0.06182121 0.03069078 -0.03745424 0.09823367 -0.07241196 -0.03712548 0.019629255
0.014537465 -0.04148232 -0.07248422 0.06804166 0.0365183 -0.024738545 0.007081885 0.033644576
0.054287504 -0.042982478 -0.003541073 -0.09466333 -0.050623413 0.020846907 -0.023913587 0.021743407
0.027974967 -0.048367526 -0.052795693 0.019070731 -0.0530457 0.02450588 0.015096081 0.023507776
0.03035385 -0.045445357 -0.0030522968 -0.09039838 0.03474311 -0.04267097 -0.0052929926 -0.016369704
-0.10507635 0.07035471 -0.053569593 -0.058378927 0.04809293 -0.027560703 -0.016051235 -0.06446562
-0.0453823 -0.0073975255 0.007793347 -0.025476038 0.069359794 -0.053524762 0.00017709813 -0.0011248579
00000000: d665 3a3d 62a0 9e3c 1e85 ee3c 5155 713d
00000010: 3e2b 51bd 7c15 443d 9916 c03c 603e d8bc
00000020: 307b 29bd 4bb7 abbc b8f0 a9bc ede0 9a3c
00000030: fd74 5c3d edb0 863d c079 94bd 53b3 343d
00000040: b530 7f3d 956d 63bd b093 7ebd 7331 3abd
00000050: 3c8e 363d 0556 613d 3889 bcbd 2cb1 8b3d
00000060: 7795 6c3c 1caa d03d 8548 f4bc 6929 463c
00000070: 811f 843d 44be 9ebd 0a79 00bc 9706 aa3c
00000080: 0f49 82bd 7a93 c8bc db44 8cbc 19b2 a03d
00000090: 1076 84bc 0bb9 a9bd 3315 143b 67f1 aebb
000000a0: 3ab4 57bc 1ac5 4bbd 06e4 7cbc 3dc3 76bd
000000b0: 921b cfbd d868 34bd 89a1 90bc 3f30 f4bc
000000c0: 2f25 d13c 4931 a4bc 3464 aabd 5e5c a53c
000000d0: 23ac 7cbd e3d1 ddbc f563 353d 9a56 453d
000000e0: 420e 6dbd 98b2 58bd c139 103d 4358 e9bc
000000f0: 6306 abbd 79c4 943d ecc9 05ba 78b2 37bd
00000100: e511 923d 7176 cf3c d602 39bb 0f8b 903d
00000110: 17bd ebbc 2801 a4bc d16a 8ebd 4c77 f53b
00000120: 3821 f8bc b4f3 f1bd 1ee0 3d3c a2e7 4a3d
00000130: f29f f93c c2ae 623b f08f 94bd 3364 15bc
00000140: 3aad 873d df00 2cbc 4b52 86bd 4c30 b53d
00000150: 3a13 263d 0c03 52bd 08da 603b 0e40 29bd
00000160: 7fc4 3abb 7ec8 2a3d 4c30 4f3d b1c9 9dbc
00000170: c777 c53d 221b 58ba f115 753d c4be 9ebb
00000180: 5694 fcbc ce2f 333d 93c4 7f3c c17c 343c
00000190: 6904 1b3d 88ed e6bb bd2e 8fbc f171 5d3c
000001a0: 9e0f 10bd f8b1 3f3c bbaa a23d 25fa b0bd
000001b0: d531 3e3c c766 a2bd 4d15 b43c e9d5 293c
000001c0: 6f54 e8bd 8782 873d a772 9ebc 08e2 07bd
000001d0: 67a0 60bc 279a 7c3c d0dd e53c c97a 6f3c
000001e0: 9396 db3c 8c86 c7bc 7882 923d 9523 a6bc
000001f0: c416 55bd 984c bcbd 45ec ad3c 40ec a33c
00000200: a21c 34bc ac1d c4bd f40c c7b8 2cc9 b33d
00000210: 8dc9 6abb 8745 fc3c 9641 ac3c 8fb2 e73c
00000220: 94a0 503d c284 a43c b030 203c 185c 9e3d
00000230: 2ec1 f9bd 4f5e 273d d353 323a f156 b6bd
00000240: e84f 98bc a8b7 fb3b eb16 b1bc df88 0d3d
00000250: 0075 0b3c 43b4 753d ca2c 823d d573 66bc
00000260: 04ff 69bd 4cd4 afbd cd47 32bd 8ea5 9dbd
00000270: 1b6c 2bbd c0f2 143e ed1d 6dbb 6809 a0bd
00000280: 93cc 393c 8792 ac3d 8c57 9fbc bafa 3a3a
00000290: 407a 29bd 4ab5 233d b900 ad3d 6dd2 9abd
000002a0: 774c 3abd e839 4ebd f362 dc3b fdc0 3a3d
000002b0: 1c49 e4bc 45cd 5abd 709a a53d 790a 59bd
000002c0: 0358 13bb 7c0f e63c 09ee 0a3c 01b3 fa3c
000002d0: 1d35 463d bbf7 503d 5fa3 483c 9705 cebc
000002e0: f0fa da3c 8fef ddbc d42f d9bd 04b8 97b9
000002f0: 3eb2 aa3d d021 913a 3a76 69bc bb48 563d
00000300: 8e32 12bb 2b1d 9ebd 2cde 073c 7151 0d3a
00000310: 49c8 6d3d ea34 55bd b9a7 6ebd eb56 aa3d
00000320: 84e2 813c 3d38 7d3d 3b6b fb3c 9e69 19bd
00000330: bc2e c93d b94c 94bd e310 18bd 88cd a03c
00000340: 8c2e 6e3c 5de9 29bd 9b72 94bd 6d59 8b3d
00000350: 3794 153d 7da8 cabc 280f e83b e5ce 093d
00000360: 935c 5e3d 650e 30bd 5911 68bb d9de c1bd
00000370: 7f5a 4fbd 22c7 aa3c 6de6 c3bc 3b1f b23c
00000380: c22b e53c 071d 46bd 4c40 58bd 393a 9c3c
00000390: 7346 59bd 8ec0 c83c 8e55 773c 6193 c03c
000003a0: a3a8 f83c e924 3abd 0b09 48bb c922 b9bd
000003b0: cb4e 0e3d c1c7 2ebd d770 adbb c219 86bc
000003c0: 4532 d7bd 2116 903d ca6b 5bbd be1e 6fbd
000003d0: 18fd 443d fcc6 e1bc e17d 83bc 8d06 84bd
000003e0: cae2 39bd f166 f2bb 555f ff3b 20b3 d0bc
000003f0: 820c 8e3d c83c 5bbd 6bb3 3939 f86f 93ba

conv4.bias f4 [32]
-0.0015321648 0.034293983 -0.03146886 -0.03268909 -0.10545963 -0.00934521 -0.04484413 0.022810118
-0.046876907 0.0049653454 -0.07884467 -0.04644446 -0.041754786 0.079893135 -0.05540496 -0.09130101
-0.04479459 -0.055381514 -0.0780376 -0.040370144 -0.020686764 0.034449752 0.06655284 -0.08743945
-0.04321751 -0.09176982 -0.09092073 -0.19799314 0.030320834 -0.0063363668 0.04120295 -0.042317532
00000000: ebd2 c8ba d977 0c3d 7ee5 00bd ffe4 05bd
00000010: 38fb d7bd a71c 19bc 7aae 37bd 49dc ba3c
00000020: 0002 40bd 56b4 a23b 5079 a1bd 8c3c 3ebd
00000030: 1107 2bbd 039f a33d 50f0 62bd 06fc babd
00000040: 887a 37bd bad7 62bd 2dd2 9fbd 2a5b 25bd
00000050: 4a77 a9bc 2f1b 0d3d db4c 883d 7413 b3bd
00000060: d804 31bd d1f1 bbbd a634 babd b7be 4abe
00000070: 6663 f83c 4ca1 cfbb 6dc4 283d 2655 2dbd

linear.weight f4 [32, 800]
0.04640921 0.06314176 -0.019267282 -0.029758876 -0.0034407966 -0.026195355 0.08393399 -0.048380416
-0.0042353543 0.06415688 -0.020333797 -0.06664892 -0.020138945 -0.0406835 -0.05116417 0.033647224
0.044322688 -0.026991239 0.010316049 0.0029542374 0.0044812723 0.0006225355 -0.03276482 -0.012313065
-0.011013831 -0.005290229 -0.0047294823 0.010240892 0.03564428 -0.011728866 -0.05446891 0.06745142
0.013704187 -0.005347064 0.012360826 0.019693654 0.02161798 -0.033076245 0.03286008 -0.020075073
-0.039861873 -0.11648372 -0.019822365 -0.015824012 0.06937655 0.005041068 -0.047227524 0.01207446
-0.00715484 -0.020751525 -0.11236544 0.00032615938 0.026346544 -0.026567282 -0.010573308 -0.0020464365
-0.08074929 0.0013178531 -0.009858834 0.029201359 0.015077936 -0.02390767 -0.031808205 -0.013038393
-0.0049849884 0.04474486 0.06477417 -0.007831423 -0.02242478 0.026951501 0.07892321 -0.019268623
0.004832028 -0.028721211 0.015506735 0.06807289 -0.01702982 0.049758382 0.028989749 -0.047871467
0.008976895 0.016205005 -0.007694754 -0.029763324 0.008684352 0.01943675 -0.034360595 0.0099913
0.037113618 0.038963366 0.016842332 -0.080678485 0.039554335 0.004762303 0.051685847 -0.0070054666
0.069932036 0.062192332 0.045956373 0.03316629 -0.049466256 0.035584535 -0.03920851 -0.016134039
-0.03063029 -2.4778752e-05 0.06888313 -0.0006902536 0.014964768 0.025801172 -0.047611374 0.03726052
0.06812712 0.042347237 0.09848639 -0.023034252 -0.011873318 -0.006099539 -0.032858033 -0.05387007
-0.03830066 -0.049915407 -0.015334217 -0.042327926 -0.06457043 0.04656598 -0.025789563 0.023560751
-0.016928004 -0.02729594 0.005705829 0.08885633 0.018573709 -0.035782862 0.027047161 -0.0040018437
-0.045564905 -0.023075493 0.021656381 0.02812305 -0.023602726 -0.020301405 0.008553341 -0.013667645
-0.031525508 0.022773683 0.013628844 -0.022548184 -0.033858273 0.026828684 -0.097172365 0.07185055
-0.0057248767 0.0069249873 -0.0329931 -0.0564161 0.05339366 -0.042643435 -0.021962285 0.052307036
-0.027572172 0.09361893 -0.0013616073 -0.030908128 -0.027639102 0.021712363 0.033213552 -0.022307394
-0.019272545 -0.056307208 0.054625023 -0.0034232931 -0.004222102 -0.05653311 -0.03541667 0.075939916
-0.09099164 0.024923857 0.02656445 -0.04647536 -0.029301094 -0.0069569848 -0.016833227 -0.011042555
-0.017570922 -0.027931478 -0.013569476 -0.011347019 -0.0015276258 0.035571415 -0.038022663 0.04610199
0.04031057 0.02992676 -0.0723295 -0.020656047 0.02088679 -0.007357507 -0.012769321 0.023319362
-0.048087846 0.11100042 -0.0118245 0.00078357104 -0.04421078 0.038904272 -0.04639108 0.041289505
-0.011504432 0.024561036 0.008323398 0.0027821553 -0.013896537 0.0015653494 -0.005709202 0.0041735405
-0.008526802 -0.021437027 -0.0019504839 0.031664796 0.043320294 -0.030025478 0.0025961755 -0.03447119
-0.0014500523 -0.023903394 0.06899721 -0.0041621523 -0.056469478 0.016016264 -0.059612278 0.034494992
-0.028437836 -0.010781026 -0.0071297344 -0.032336544 0.02611102 0.0162067 0.016775724 -0.024890661
0.06617276 -0.08234551 -0.03555848 0.004989787 -0.046385016 -0.007355861 0.018484397 -0.0015848571
0.04200648 0.020963838 -0.06480665 0.02152262 0.014873291 0.015804248 0.005176282 -0.01593465
00000000: 9517 3e3d 7850 813d 6bd6 9dbc e3c8 f3bc
00000010: fd7e 61bb a497 d6bc 95e5 ab3d 8b2a 46bd
00000020: bac8 8abb af64 833d 1093 a6bc 3b7f 88bd
00000030: 6efa a4bc bea3 26bd 8591 51bd acd1 093d
00000040: b58b 353d bb1c ddbc a504 293c e19b 413b
00000050: a3d7 923b a631 233a 6734 06bd bdbc 49bc
00000060: 5b73 34bc a859 adbb c6f9 9abb 6ac9 273c
00000070: bdff 113d 6e2a 40bc cb1a 5fbd f823 8a3d
00000080: 8787 603c 6d36 afbb 1085 4a3c 9654 a13c
00000090: 3118 b13c f57a 07bd 4b98 063d 7b74 a4bc
000000a0: 3446 23bd 048f eebd 8362 a2bc 5ca1 81bc
000000b0: 4b15 8e3d 8b2f a53b a671 41bd f5d3 453c
000000c0: 2673 eabb 1aff a9bc da1f e6bd 5f00 ab39
000000d0: b5d4 d73c a1a3 d9bc ab3b 2dbc 821d 06bb
000000e0: e25f a5bd d0bb ac3a f286 21bc b037 ef3c
000000f0: 7309 773c 05da c3bc 5249 02bd fc9e 55bc
00000100: 1d59 a3bb 6346 373d 52a8 843d 5e4f 00bc
00000110: 2cb4 b7bc 65c9 dc3c 7ea2 a13d 3bd9 9dbc
00000120: fd55 9e3b bf48 ebbc f60f 7e3c cd69 8b3d
00000130: 1f82 8bbc 72cf 4b3d e97b ed3c df14 44bd
00000140: d413 133c 5cc0 843c 4624 fcbb 37d2 f3bc
00000150: d048 0e3c d239 9f3c b2bd 0cbd 8db2 233c
00000160: 7304 183d 0d98 1f3d eef8 893c c33a a5bd
00000170: ba03 223d 180d 9c3b 8ab4 533d 1d8e e5bb
00000180: 8738 8f3d 63bd 7e3d c03c 3c3d 60d9 073d
00000190: 219d 4abd 17c1 113d 1a99 20bd 882b 84bc
000001a0: 60ec fabc f7db cfb7 9912 8d3d 23f2 34ba
000001b0: c92e 753c fb5c d33c 2504 43bd 7d9e 183d
000001c0: 3b86 8b3d 4c74 2d3d 3cb3 c93d 54b2 bcbc
000001d0: 4e88 42bc a4de c7bb 2596 06bd dda6 5cbd
000001e0: 27e1 1cbd 1974 4cbd 5e3c 7bbc 0c60 2dbd
000001f0: 803d 84bd f8bb 3e3d a244 d3bc 7a02 c13c
00000200: 99ac 8abc bc9b dfbc f6f7 ba3b 4ffa b53d
00000210: e427 983c 0d91 12bd 0292 dd3c e621 83bb
00000220: 44a2 3abd d108 bdbc b968 b13c 5062 e63c
00000230: 815a c1bc 224f a6bc 5023 0c3c 42ee 5fbc
00000240: e420 01bd e08f ba3c 844b 5f3c f8b6 b8bc
00000250: f9ae 0abd d4c7 db3c 4e02 c7bd 6226 933d
00000260: bf97 bbbb 01eb e23b c623 07bd 9214 67bd
00000270: 4fb3 5a3d e2aa 2ebd 40ea b3bc e73f 563d
00000280: 09df e1bc 48bb bf3d f677 b2ba 0b33 fdbc
00000290: 666b e2bc 20de b13c ef0a 083d ffbd b6bc
000002a0: 75e1 9dbc 63a2 66bd 7dbe 5f3d 5459 60bb
000002b0: 8f59 8abb 438f 67bd 1211 11bd 6386 9b3d
000002c0: d359 babd 1e2d cc3c b09d d93c f25c 3ebd
000002d0: d908 f0bc 6bf7 e3bb d6e5 89bc d5eb 34bc
000002e0: e5f0 8fbc 8ed0 e4bc 8252 5ebc d9e8 39bc
000002f0: 9e3a c8ba 55b3 113d a7bd 1bbd 71d5 3c3d
00000300: b21c 253d f728 f53c 7d21 94bd df36 a9bc
00000310: c61a ab3c 3e17 f1bb 6a36 51bc 3f08 bf3c
00000320: c3f7 44bd 3054 e33d 8cbb 41bc 9068 4d3a
00000330: 5d16 35bd 165a 1f3d 9304 3ebd 2f1f 293d
00000340: 167d 3cbc 3a34 c93c dd5e 083c d254 363b
00000350: 4dae 63bc 692c cd3a 4214 bbbb 32c2 883b
00000360: 00b4 0bbc b49c afbc 61a7 ffba f2b2 013d
00000370: 9f70 313d fef7 f5bc 9924 2a3b aa31 0dbd
00000380: ae0f beba 0dd1 c3bc 694e 8d3d aa62 88bb
00000390: 8a4c 67bd 8a34 833c 012c 74bd 9f4a 0d3d
000003a0: 77f6 e8bc e7a2 30bc 8ca0 e9bb 5373 04bd
000003b0: c7e6 d53c eac3 843c 3e6d 893c 80e7 cbbc
000003c0: 9685 873d c3a4 a8bd c5a5 11bd 5e81 a33b
000003d0: 37fe 3dbd 6f09 f1bb 976c 973c fbba cfba
000003e0: fd0e 2c3d 5bbc ab3c 59b9 84bd 3550 b03c
000003f0: 1baf 733c e977 813c cd9d a93b 6289 82bc

linear.bias f4 [32]
0.114000216 -0.06361557 -0.05807438 -0.008969432 0.009983686 0.07743407 -0.106717005 0.062326536
0.020622527 -0.06105146 -0.015539287 -0.10174659 -0.028773284 0.100278206 -0.069256194 0.091282025
-0.028405637 0.062121004 0.059065428 -0.092485346 0.07839626 -0.021289458 0.023210797 -0.014604588
-0.054350127 0.07083667 0.03356147 0.107168086 0.037191965 0.008266541 -0.115109794 -0.0216587
00000000: f278 e93d e148 82bd 67df 6dbd 86f4 12bc
00000010: 9d92 233c c195 9e3d 728e dabd 1c4a 7f3d
00000020: 93f0 a83c 1911 7abd 7e98 7ebc 8460 d0bd
00000030: f3b5 ebbc a95e cd3d 31d6 8dbd 12f2 ba3d
00000040: f0b2 e8bc 9872 7e3d 97ee 713d f568 bdbd
00000050: 388e a03d 3b67 aebc 9224 be3c 1548 6fbc
00000060: 3d9e 5ebd d112 913d c177 093d f17a db3d
00000070: 9a56 183d 6370 073c afbe ebbd 966d b1bc

critic_linear.weight f4 [1, 32]
0.12225635 -0.13316643 -0.15135552 0.0053841523 -0.010467604 0.060271967 -0.09474493 0.041679863
-0.009755087 -0.054326307 -0.0012382176 -0.08787361 -0.01041787 0.1101482 -0.12111674 0.05845926
-0.058913946 0.11140167 0.040814135 -0.14142685 0.05050568 -0.02610385 0.0012019689 -0.01092599
-0.020635944 0.06815585 0.030438319 0.107074 0.0058257002 -0.0041403156 -0.11119677 -0.004140437
00000000: 8a61 fa3d c85c 08be f1fc 1abe 8b6d b03b
00000010: 5080 2bbc bddf 763d a109 c2bd 81b8 2a3d
00000020: cdd3 1fbc 4385 5ebd b04b a2ba 14f7 b3bd
00000030: b7af 2abc 6195 e13d 0e0c f8bd fa72 6f3d
00000040: c04f 71bd 8f26 e43d b92c 273d 33d2 10be
00000050: 0bdf 4e3d bed7 d5bc 628b 9d3a ec02 33bc
00000060: b60c a9bc 4b95 8b3d c859 f93c 9d49 db3d
00000070: 84e5 be3b 7cab 87bb 22bb e3bd 81ac 87bb

actor_linear.weight f4 [6, 32]
0.0035129937 0.076851755 -0.13918564 0.000814745 0.04548386 0.10894721 -0.021913692 -0.01738135
-0.021473749 -0.00819645 0.09650409 0.018627904 -0.077466026 0.12884766 -0.10972111 0.18459953
0.03712511 -0.086190596 0.071258396 -0.1314102 -0.038844544 -0.08699205 -0.014977641 0.086722985
-0.105147175 0.0878934 0.035534218 -0.102964565 0.0064599398 -0.011308238 0.061695687 -0.007109831
0.042185366 -0.04390308 -0.005956069 0.029952103 5.138951e-05 -0.0484634 0.072806485 -0.021684788
-0.049452078 -0.10701718 -0.090409756 0.102303155 -0.054809786 0.16945396 -0.17532031 0.06977228
-0.0021390426 -0.038388565 -0.075335495 -0.08240445 0.10347764 -0.10498927 0.022110429 0.06774661
0.032897837 0.00066038565 0.13638735 0.1521577 0.029681822 -0.015956638 -0.07723276 -0.022700744
0.027924616 -0.0537365 -0.20141077 0.08104947 -0.13384704 -0.09468488 -0.05957646 0.068354934
-0.14379905 0.068048224 0.06819235 0.0133196395 -0.053673394 0.07003839 0.0047476855 0.0212024
-0.051035967 0.072076954 -0.12157869 -0.08697163 0.05275114 0.03741316 -0.0123514375 -0.11653798
-0.029606972 0.08894116 -0.1571096 -0.13318904 0.050298695 -0.02511441 -0.036681402 -0.05901898
0.036501966 0.024739003 -0.1095197 0.032983348 0.0642502 0.13559285 0.15648386 0.02339671
0.017194003 -0.029214388 0.09789658 0.017267566 0.10921556 0.08002516 0.004415886 -0.048295997
-0.08274272 -0.038619347 0.14992051 0.012802761 -0.0118195675 -0.07155916 0.021533247 0.1424423
0.1180809 0.042864826 0.09351287 0.09053261 -0.041955445 -0.031873718 0.02496402 -0.032479335
0.08249904 -0.0120461555 -0.20317121 0.05490217 -0.09351318 0.1323957 -0.098966084 0.17317867
-0.10274191 0.008069861 0.036375698 -0.11303603 -0.10644073 -0.045034964 -0.094326675 0.041142028
-0.19036877 -0.05083051 0.05799028 -0.09678867 -0.026297946 0.03163638 0.034560174 -0.02800856
-0.14776975 -0.10944134 -0.031531412 -0.121915706 -0.033720132 -0.03120299 -0.036881495 -0.044425417
0.115097344 0.038640928 0.056292977 0.030951459 -0.019374887 0.07990528 0.1209102 0.02028363
0.0732611 0.12046256 -0.032040015 -0.026817296 0.12367822 0.04692104 0.07449046 0.14510912
-0.20238444 0.049902964 0.084521435 -0.08109367 -0.07242225 0.104097985 -0.0076204333 0.15337595
0.10638413 0.113158114 0.19997655 0.18044841 0.06468968 -0.016692821 0.017741278 -0.011772786
00000000: 413a 663b 7464 9d3d ae86 0ebe 9d94 553a
00000010: 494d 3a3d b71f df3d 5884 b3bc 5563 8ebc
00000020: b7e9 afbc 674a 06bc f0a3 c53d 8c99 983c
00000030: 82a6 9ebd a4f0 033e 76b5 e0bd a907 3d3e
00000040: 8010 183d b284 b0bd ecef 913d 6590 06be
00000050: 751b 1fbd e328 b2bd c864 75bc d29b b13d
00000060: 6757 d7bd 7401 b43d 548c 113d 16df d2bd
00000070: e7ad d33b 3046 39bc 9eb4 7c3d 96f9 e8bb
00000080: 90ca 2c3d b7d3 33bd 212b c3bb 1d5e f53c
00000090: 118b 5738 8f81 46bd 911b 953d 4ca4 b1bc
000000a0: 438e 4abd d32b dbbd c028 b9bd 5184 d13d
000000b0: 3a80 60bd 5785 2d3e 2b87 33be c5e4 8e3d
000000c0: 2e2f 0cbb 543d 1dbd 7f49 9abd aac3 a8bd
000000d0: 16ec d33d 9d04 d7bd ee20 b53c bcbe 8a3d
000000e0: e2bf 063d bb1d 2d3a 20a9 0b3e 3acf 1b3e
000000f0: 4b27 f33c 7fb7 82bc 362c 9ebd e9f6 b9bc
00000100: 2ac2 e43c ce1a 5cbd a03e 4ebe 44fd a53d
00000110: 330f 09be 25ea c1bd 7206 74bd acfd 8b3d
00000120: 0f40 13be de5c 8b3d 6ea8 8b3d 9e3a 5a3c
00000130: a2d8 5bbd 4a70 8f3d 7992 9b3b a8b0 ad3c
00000140: 170b 51bd 159d 933d 40fe f8bd 2f1e b2bd
00000150: 9411 583d 8b3e 193d af5d 4abc 77ab eebd
00000160: 528a f2bc c826 b63d 57e1 20be b562 08be
00000170: 0106 4e3d bcbc cdbc 3d3f 16bd e3bd 71bd
00000180: 1683 153d 73a9 ca3c dd4b e0bd 8c19 073d
00000190: 9c95 833d dad8 0a3e 4e3d 203e 75aa bf3c
000001a0: 70da 8c3c 0353 efbc 017e c83d b674 8d3c
000001b0: 68ac df3d 3be4 a33d 23b3 903b 06d2 45bd
000001c0: 0475 a9bd 522f 1ebd c384 193e acc2 513c
000001d0: dca6 41bc 9c8d 92bd 7e66 b03c 65dc 113e
000001e0: 66d4 f13d 0793 2f3d ad83 bf3d 2969 b93d
000001f0: 79d9 2bbd 048e 02bd 5881 cc3c 0d09 05bd
00000200: 42f5 a83d 3d5d 45bc 1d0c 50be 19e1 603d
00000210: d783 bfbd bd92 073e bbae cabd c055 313e
00000220: 5a6a d2bd 7337 043c affe 143d 6f7f e7bd
00000230: 99fd d9bd 9576 38bd 582e c1bd 8b84 283d
00000240: 08f0 42be a733 50bd 3787 6d3d 2339 c6bd
00000250: ca6e d7bc 2695 013d f88e 0d3d 3572 e5bc
00000260: f450 17be c822 e0bd 1527 01bd f1ae f9bd
00000270: 1f1e 0abd 6a9d ffbc 0d11 17bd 6df7 35bd
00000280: 28b8 eb3d f345 1e3d 7793 663d ea8d fd3c
00000290: 15b8 9ebc 61a5 a33d c49f f73d db29 a63c
000002a0: ea09 963d 13b5 f63d 643c 03bd f2af dbbc
000002b0: 024b fd3d 4730 403d 748e 983d 7c97 143e
000002c0: de3d 4fbe 0d67 4c3d 9319 ad3d 7014 a6bd
000002d0: 1e52 94bd 5331 d53d d4b4 f9bb 960e 1d3e
000002e0: ecdf d93d 71bf e73d a7c6 4c3e 78c7 383e
000002f0: 067c 843d 62bf 88bc 2856 913c a5e2 40bc

actor_linear.bias f4 [6]
-0.09627922 0.021526707 0.15174733 -0.006538856 -0.05945849 0.04868167
00000000: 0a2e c5bd c758 b03c a763 1b3e e643 d6bb
00000010: bf8a 73bd 6e66 473d
