spaceinvaders-v0-bottom-7fskip_latent32/model.126.tar (torch, 223035 bytes, 13 tensors)

conv1.weight f4 [32, 4, 3, 3]
0	0x3cbfc082	0.023407225
1	0x3d32bb55	0.043635685
2	0x3c738500	0.014863253
3	0xbe18f85b	-0.1493849
4	0xbf15b8bd	-0.58485013
5	0x3dd06186	0.10174851
6	0x3e4e9ffd	0.20178218
7	0x3e26cf36	0.16289982
8	0x3d63ace8	0.055584818
9	0xbc4e696d	-0.012598378
10	0x3e32c9dd	0.17459817
11	0x3c96b791	0.018398078
12	0x3c5c9c69	0.013465025
13	0xbc9b0bbb	-0.018926492
14	0xbd8955b0	-0.06705797
15	0x3e251a62	0.16123345
16	0x3dd243fe	0.10266875
17	0x3c0c21be	0.008552967
18	0x3d89ddf8	0.0673179
19	0x3e5c54a1	0.21516658
20	0xbd9e1e41	-0.07720614
21	0xbd8f44d4	-0.0699555
22	0xbe16664f	-0.14687465
23	0xbe588d43	-0.21147637
24	0x3e3b9e94	0.18322212
25	0xbd3fa544	-0.04678847
26	0x3e3bdd41	0.1834612
27	0x3d051f1e	0.03250038
28	0xbeffbc5a	-0.49948388
29	0xbc2bb719	-0.010480666
30	0x3e00ea64	0.12589413
31	0x3f1f2d85	0.6217883
32	0x3e8adb65	0.2712051
33	0xbef1ec7c	-0.47250736
34	0xbe36ef6b	-0.17864768
35	0xbeac0a27	-0.33601496
36	0xbd285b7c	-0.04110287
37	0xbcd646df	-0.02615684
38	0x3e3d52d2	0.18488625
39	0xbdb1f52c	-0.08689341
40	0x3e0222c0	0.12708569
41	0x3e0d423d	0.13794799
42	0x3e4f086b	0.20218055
43	0xbe0bf9e4	-0.13669544
44	0xbe3e0736	-0.18557438
45	0x3d9a53ca	0.07535513
46	0xbd071a1a	-0.032983877
47	0xbd2f265d	-0.042761195
48	0x3cdb9e7d	0.026808972
49	0x3d17d5f2	0.03706927
50	0xbd7f93dd	-0.062396873
51	0xbc3212d7	-0.01086875
52	0xbc426267	-0.011864281
53	0x3ac1755d	0.0014759708
54	0xbddeab32	-0.10872497
55	0x3e8b9764	0.2726394
56	0xbdfc07a5	-0.123061456
57	0xbe00958e	-0.1255705
58	0x3e07e3a0	0.13270426
59	0x3d4f5b5c	0.050624236
60	0x3dbaa97b	0.09114357
61	0xbd8c10d2	-0.06839146
62	0x3d61f369	0.055163775
63	0x3edff16c	0.43738878
64	0xbec8bd9e	-0.39207166
65	0xbdf230b0	-0.11825693
66	0x3d5e2a8e	0.054239802
67	0xbe9bfcb3	-0.30466232
68	0xbd593a8e	-0.053034358
69	0xbea2f2ac	-0.3182577
70	0x3ed6191f	0.4181604
71	0xbddc7fbb	-0.1076655
72	0x3e120b53	0.14262132
73	0xbe291120	-0.16510439
74	0x3e59cd97	0.21269833
75	0xbc8d2f37	-0.017234428
76	0x3ddb8416	0.10718553
77	0x3e35dbb1	0.17759587
78	0xbe984f42	-0.2974797
79	0x3d38a5ef	0.04508012
80	0xbe215d7b	-0.15758316
81	0xbe737222	-0.23774007
82	0x3cd74cc0	0.026281714
83	0xbc8cd4b6	-0.017191272
84	0x3cf76da4	0.030203648
85	0xbe334aca	-0.17508999
86	0xbe4694e3	-0.19392733
87	0x3d7c9d19	0.061673257
88	0xbd827495	-0.063698925
89	0x3e4c696d	0.19962092
90	0x3dbb5724	0.0914748
91	0xbdad789f	-0.08470272
92	0x3e8cee6e	0.27525657
93	0x3e1ad491	0.1512015
94	0xbddd23d6	-0.10797851
95	0x3d5db663	0.054129016
96	0x3e2d8068	0.16943514
97	0x3cafef07	0.021476282
98	0xbe051ff5	-0.13000472
99	0xbdc1e4e2	-0.09467484
100	0x3e5dd246	0.21662244
101	0xbe007ac6	-0.12546834
102	0x3da60ddc	0.08108112
103	0xbe4384a5	-0.19093569
104	0xbe8cb696	-0.27483052
105	0xbda72a37	-0.08162349
106	0x3e96a5b0	0.29423285
107	0x3d0f7bcd	0.035030175
108	0x3e97d379	0.29653528
109	0x3e045f4a	0.12926975
110	0x3d541a0e	0.05178266
111	0x3e2b69b3	0.1673954
112	0x3e5f36ea	0.21798292
113	0x3cec41e6	0.028840017
114	0x3e17ea74	0.1483553
115	0x3ef89908	0.48554254
116	0x3dca33c4	0.09873155
117	0x3e14555d	0.14485689
118	0xbe761e99	-0.2403511
119	0xbe042274	-0.12903768
120	0xbdd89e31	-0.105770476
121	0xbdaea9f0	-0.08528507
122	0x3ddd1dc4	0.10796693
123	0x3bcf5d4e	0.0063282615
124	0x3dfe7501	0.124246605
125	0xbe31bb93	-0.1735671
126	0xbc34ecda	-0.011042798
127	0xbe1cdcb6	-0.1531857
128	0x3db7d723	0.08976581
129	0x3dde8804	0.10865787
130	0xbe89cfe5	-0.26916423
131	0x3d2d60ae	0.04232853
132	0x3e65225f	0.22376393
133	0x3e2ebaf9	0.17063512
134	0x3e2fa0ea	0.17151228
135	0x3e4a9bc3	0.19785981
136	0x3d3018e6	0.042992495
137	0x3e099198	0.13434446
138	0xbe97a231	-0.2961593
139	0xbf5f8464	-0.8731139
140	0xbe9147fb	-0.2837523
141	0xbd543e85	-0.051817436
142	0xbe6ca15a	-0.23108426
143	0x3c4089f8	0.011751644
144	0xbe2041b4	-0.15650064
145	0xbdfae8c8	-0.12251431
146	0x3e84ae20	0.25914097
147	0x3e39037d	0.18067737
148	0x3d902cb7	0.07039779
149	0x3dbd59b6	0.09245627
150	0xbd253b41	-0.040339712
151	0x3ed84755	0.42241922
152	0xbe0503f8	-0.12989795
153	0xbd8f6ca7	-0.07003146
154	0xbe5e1be6	-0.2169033
155	0xbe2e1671	-0.17000748
156	0xbe14c80c	-0.14529437
157	0xbe014af7	-0.12626253
158	0xbc27e579	-0.010247582
159	0xbdc8fdf8	-0.09814066
160	0x3cb71880	0.02235055
161	0x3cf0cb45	0.029393801
162	0xbd2cf993	-0.0422302
163	0x3dc4af81	0.09603787
164	0x3bd50220	0.0065004975
165	0xbdaec52e	-0.08533703
166	0xbe975b84	-0.29562008
167	0xbe2029ea	-0.15640989
168	0xbe08ee33	-0.13372116
169	0xbe4bacc5	-0.19890125
170	0xbe367985	-0.17819794
171	0x3e87f5d6	0.26554745
172	0x3c046b56	0.0080822315
173	0xbe399ef1	-0.18127038
174	0x3e1687ac	0.14700192
175	0x3ece1af7	0.40254948
176	0x3e95ebdc	0.2928151
177	0xbc77e95b	-0.01513132
178	0xbdebbd8b	-0.11510762
179	0x3ec2fe29	0.38084534
180	0xbe3cc225	-0.18433435
181	0xbe744d7e	-0.23857686
182	0xbe4b75d5	-0.19869168
183	0xbe96ae99	-0.29430082
184	0xbf061c7a	-0.523872
185	0xbe107815	-0.14108308
186	0xbeb60b10	-0.35555315
187	0xbeecee11	-0.4627538
188	0xbe64fb82	-0.22361568
189	0xbd6fb655	-0.058523495
190	0xbb8082fe	-0.0039218655
191	0xbdaeb8ea	-0.08531363
192	0xbe61fc16	-0.2206882
193	0xbe081a9c	-0.132914
194	0xbd7fceac	-0.062452957
195	0xbe43fe77	-0.1914004
196	0x3b368594	0.0027850615
197	0x3cbc5c3c	0.0229932
198	0x3e806b54	0.25081885
199	0xbbdf2272	-0.006809526
200	0x3ddb728b	0.10715207
201	0xbe2067f3	-0.15664653
202	0x3e460856	0.19339117
203	0xbe1e2ff3	-0.15447979
204	0x3dcd9d8d	0.10039816
205	0x3de17096	0.11007802
206	0xbdf8592f	-0.121263854
207	0x3ebb3ea6	0.36571234
208	0x3f03f60d	0.5154732
209	0x3ee592a5	0.44838443
210	0x3d77af4d	0.060469914
211	0x3e8ae66a	0.27128917
212	0xbdd6ddf5	-0.10491554
213	0x3ec35c84	0.3815652
214	0x3ef2d185	0.47425476
215	0x3ea89baa	0.32931262
216	0x3e9cd73a	0.30632955
217	0xbdeb44be	-0.11487721
218	0xbcc7976b	-0.024364194
219	0x3e9d3ae0	0.3070898
220	0x3dce15fa	0.100627854
221	0x3eb75ce4	0.35813057
222	0xbebd817a	-0.37012845
223	0xbee49b7d	-0.44649878
224	0xbd11bb78	-0.035579175
225	0xbd06f43d	-0.032947768
226	0x3c2475c2	0.010037841
227	0x3e8a5496	0.2701766
228	0x3e383800	0.17990112
229	0x3ddd7749	0.108137675
230	0x3d96bed1	0.07360614
231	0xbe308455	-0.1723798
232	0x3cbf2451	0.023332747
233	0xbdfb74e2	-0.12278153
234	0x3caf2f40	0.021384835
235	0xbdca45c3	-0.09876587
236	0x3d269f89	0.04067949
237	0x3e1bb31a	0.1520504
238	0x3d7b212f	0.061310943
239	0xbd78e6f5	-0.060767133
240	0xbded4538	-0.11585468
241	0x3d5e4f84	0.05427505
242	0x3d80a06e	0.062805995
243	0xbdadbd68	-0.08483392
244	0xbebdd7c0	-0.37078667
245	0xbd79c299	-0.0609766
246	0xbe8e1e9b	-0.27757725
247	0xbee11508	-0.43961358
248	0xbe1a1715	-0.15047868
249	0x3e98c43b	0.29837212
250	0x3ef0faa9	0.4706624
251	0x3d8fa5dc	0.07014057
252	0x3cea57f4	0.028606392
253	0xbdabd0c5	-0.08389429
254	0xbdc180cf	-0.094483964
255	0xbed78cf6	-0.42099732

conv1.bias f4 [32]
0	0xbad08b92	-0.0015910736
1	0xbad76fcb	-0.0016436515
2	0x3b83b07f	0.0040188427
3	0xbb0c2a17	-0.0021387392
4	0xb9267ec6	-0.0001587822
5	0x3b09f4b1	0.0021050388
6	0x3bc61dd1	0.006046035
7	0xbaece433	-0.001807338
8	0xbb8470e8	-0.00404178
9	0xbab9b30e	-0.0014167742
10	0xbac66c82	-0.0015138539
11	0x3ba2d6f4	0.004969472
12	0xb880908a	-6.130438e-05
13	0x3b03d723	0.0020117245
14	0xbb1e2ef0	-0.0024136864
15	0x3d8fba82	0.070179954
16	0x3aa0ddf0	0.0012273174
17	0xbb001dd7	-0.0019549036
18	0x3d41565b	0.047201496
19	0x39cdc199	0.00039244888
20	0x3ba4ce92	0.005029508
21	0x3aa101fd	0.0012283918
22	0xba266318	-0.00063471636
23	0xba64b54f	-0.0008724527
24	0xbb4411a5	-0.0029917744
25	0x3b8ca92b	0.0042926273
26	0xbb547d7e	-0.0032423432
27	0xbbd88c20	-0.006608501
28	0x3ad4eaf3	0.0016244337
29	0xbb4fdcb2	-0.0031717238
30	0x3a503119	0.00079418864
31	0xba19eb8c	-0.0005871586

conv2.weight f4 [32, 32, 3, 3]
0	0xbec7f926	-0.39057273
1	0xbe05b266	-0.13056335
2	0x3e84d82d	0.2594618
3	0x3de2bedc	0.1107156
4	0x3e5b7d78	0.21434581
5	0xbe1c5fb0	-0.15270877
6	0xbe38773f	-0.18014239
7	0xbd980c87	-0.074242644
8	0x3c3945a8	0.011308111
9	0xbd167407	-0.036731746
10	0xbe79bd46	-0.24388608
11	0x3db3d159	0.08780164
12	0x3e739502	0.2378731
13	0xbd33a47c	-0.043858036
14	0x3e096326	0.13416728
15	0x3d98a0f4	0.07452574
16	0xbde67d18	-0.112543285
17	0x3e3a63d7	0.18202148
18	0x3cdef7d4	0.027217783
19	0xbc736e3a	-0.014857823
20	0xbea6aa0d	-0.32551613
21	0xbe17775b	-0.14791624
22	0x3d77c758	0.060492843
23	0x3d92da65	0.07170562
24	0x3c1961b8	0.009361677
25	0x3e01308b	0.12616174
26	0xbc74e301	-0.0149467
27	0xbe4b922a	-0.19879976
28	0xbe4facde	-0.20280787
29	0xbe17fff1	-0.14843728
30	0xbe51a3b4	-0.20472604
31	0xbeeef27b	-0.46669373
32	0x3e86bbfa	0.2631529
33	0xbd8efdbd	-0.069819905
34	0x3e09f62c	0.13472813
35	0x3e972cb8	0.29526305
36	0x3e20417a	0.15649977
37	0x3dbba86a	0.09162982
38	0x3cabf2d2	0.02098981
39	0x3e0f2ce3	0.13981967
40	0x3e196ed6	0.14983687
41	0xbe794e23	-0.24346213
42	0xbd1ef44c	-0.0388072
43	0xbe07d761	-0.13265754
44	0x3df84311	0.12122167
45	0x3e15e9ca	0.14639965
46	0xbe125b17	-0.1429256
47	0xbecbe9bb	-0.3982676
48	0x3dc56916	0.09639184
49	0x3d0b969e	0.034079187
50	0xbcb3d205	-0.021950731
51	0x3ddce63a	0.107861
52	0x3e970a63	0.29500112
53	0x3e3d5bdc	0.18492073
54	0x3ead78c9	0.33881214
55	0x3dcdb968	0.10045129
56	0xbe9fdb68	-0.3122208
57	0xbcbe15ee	-0.023203816
58	0x3d949a49	0.0725599
59	0x3bab42fc	0.005226491
60	0xbdad3282	-0.08456899
61	0x3bd08da2	0.00636454
62	0xbea60db9	-0.32432345
63	0xbe44684f	-0.19180416
64	0xbd6b595e	-0.057458274
65	0x3cd94a0e	0.02652457
66	0x3eb38750	0.35064173
67	0x3d60be58	0.054869026
68	0xbd9df493	-0.077126645
69	0x3d2748eb	0.040841024
70	0x3d3674ff	0.04454517
71	0x3c104e70	0.008807763
72	0xbdcd3ea7	-0.100217156
73	0x3d9a1b6b	0.07524761
74	0x3e9e4848	0.3091452
75	0xbd4a2e72	-0.0493607
76	0x3dae3e63	0.08507993
77	0xbd2bb5df	-0.041921493
78	0xbd82c171	-0.06384552
79	0xbe5ee5e7	-0.21767388
80	0xbdb10966	-0.08644371
81	0x3e3f14b5	0.18660243
82	0xbe35aeda	-0.17742482
83	0x3d35fa53	0.04442818
84	0x3befc3cd	0.0073170424
85	0x3da7fc1b	0.08202382
86	0xbe5fda0e	-0.21860525
87	0x3c8d5aec	0.017255269
88	0x3ea269d4	0.31721365
89	0x3d28f8b1	0.041252796
90	0x3d67b02e	0.056564502
91	0xbd38ac1c	-0.04508601
92	0xbdcd5fe3	-0.100280546
93	0x3e0624b6	0.13099942
94	0x3ec95fa8	0.39330792
95	0xbeeb344b	-0.45938334
96	0x3d86c6ce	0.06580888
97	0x3cc406b5	0.02392898
98	0xbe392668	-0.18081057
99	0x3e43441d	0.19068952
100	0x3ced471a	0.028964568
101	0x39df5ecd	0.00042604507
102	0x3e987345	0.29775444
103	0x3bce24b4	0.0062909964
104	0xbde8bbf7	-0.113639764
105	0xbde65f07	-0.11248594
106	0xbdd0b3d8	-0.101905525
107	0xbd9f83f6	-0.077888414
108	0xbdedbeab	-0.11608633
109	0xbd9cbedf	-0.07653593
110	0x3da2390d	0.07921038
111	0x3ee8ac29	0.45443848
112	0x3e8692ae	0.26283783
113	0xbe600efa	-0.21880713
114	0xbd94b3af	-0.072608344
115	0xbe7974b3	-0.24360923
116	0xbe38a753	-0.18032579
117	0xbe1dfde4	-0.15428883
118	0x3ded35d3	0.11582532
119	0x3f27ef63	0.6559965
120	0x3e6fcea7	0.23418675
121	0x3d0e7ae4	0.034785166
122	0x3dd70541	0.10499049
123	0x3d55b457	0.05217394
124	0xbee76a77	-0.45198414
125	0xbd09ff90	-0.03369099
126	0x3e138bb5	0.14408763
127	0x3df039bb	0.11729761
128	0x3d719543	0.058980238
129	0x3e8af57b	0.27140412
130	0xbe00a3ef	-0.12562536
131	0x3d3ed6c4	0.046591535
132	0x3cc5a94d	0.02412858
133	0xbe1f043e	-0.15528962
134	0xbc807c10	-0.015684158
135	0xbe195a3f	-0.14975832
136	0xbddfcbb4	-0.10927525
137	0xbde295d4	-0.11063734
138	0xbcdbb9e4	-0.026822038
139	0x3e17f889	0.14840902
140	0x3ebea26f	0.37233302
141	0xbdd6ab44	-0.10481885
142	0xbdc00723	-0.09376361
143	0xbceeb852	-0.029140625
144	0xbe7d81ee	-0.24756595
145	0xbde8ddc1	-0.11370421
146	0xbe1c421b	-0.15259592
147	0x3e15a03b	0.14611904
148	0x3d996e9c	0.074918
149	0xbdccf45c	-0.10007545
150	0x3db870cc	0.09005889
151	0x3a4c2c41	0.0007788577
152	0x3d2720bb	0.0408027
153	0xbe0a522f	-0.13507913
154	0x3d271970	0.040795743
155	0xbdd4e377	-0.10394948
156	0xbee12ade	-0.43978018
157	0x3e643aa1	0.2228799
158	0xbe4f684f	-0.20254634
159	0x3e6f3bcc	0.23362654
160	0xbcd72d17	-0.026266618
161	0x3d3211a0	0.04347384
162	0xbdcbe276	-0.09955303
163	0xbdf0b129	-0.117525406
164	0xbd6a13d7	-0.057147827
165	0x3cb293ec	0.02179905
166	0x3ddc2ae0	0.10750365
167	0x3e8526b2	0.26006085
168	0xbe1434c3	-0.14473252
169	0xbe0d46b5	-0.13796504
170	0xbd27769d	-0.040884603
171	0x3e2fa5af	0.17153047
172	0xbc4fa829	-0.01267437
173	0xbd922f30	-0.071379066
174	0x3dc264bc	0.0949187
175	0x3ceae9c2	0.028675918
176	0x3cf841df	0.030304847
177	0xbe97cc36	-0.29647988
178	0xbde6e20e	-0.11273585
179	0xbde308a8	-0.110856354
180	0xbd6e544c	-0.05818586
181	0xbd048d2f	-0.032361206
182	0x3d8ee006	0.06976323
183	0xbd064fc9	-0.032790933
184	0x3e3c0c3a	0.18364039
185	0xbe1fc2f7	-0.15601717
186	0xbdefcd1a	-0.11709042
187	0x3de08f8f	0.10964882
188	0x3d82a6ca	0.06379469
189	0x3e075ee3	0.1321979
190	0xbe93852a	-0.28812534
191	0x3cf8f3a5	0.030389616
192	0xbd88a797	-0.0667259
193	0xbd2698bf	-0.040673014
194	0xbd442953	-0.047890972
195	0xbd14628b	-0.03622679
196	0xbd7a6640	-0.06113267
197	0x3dd73339	0.10507817
198	0xbd98979c	-0.07450792
199	0x3e08a0ed	0.13342638
200	0xbcbe5176	-0.023232203
201	0x3ec8fd1d	0.3925561
202	0x3e45d0f0	0.19317985
203	0xbd998841	-0.074966915
204	0xbe314ed4	-0.17315227
205	0xbbad2517	-0.0052839625
206	0xbcb43790	-0.02199915
207	0xbdfd7aab	-0.12376913
208	0xbdd50a5b	-0.10402366
209	0x3ea049dd	0.31306353
210	0xbeb565f6	-0.35429353
211	0xbe0b5834	-0.13607866
212	0xbd2d8bc7	-0.04236963
213	0x3e2a374f	0.16622661
214	0x3e17dc85	0.14830215
215	0x3b1e1615	0.0024122049
216	0x3dcdb530	0.100443244
217	0x3d2b8aac	0.041880295
218	0x3e23f1ae	0.16010162
219	0xbb11e6fb	-0.002226292
220	0xbdbe728d	-0.092991926
221	0x3cc40454	0.023927845
222	0x3dee506a	0.116364315
223	0xbeaa832c	-0.333032
224	0xbdf3c5f0	-0.11902988
225	0x3eab4c9a	0.3345688
226	0x3d26e51e	0.040745847
227	0x3d92d523	0.07169559
228	0x3e377024	0.17913872
229	0x3d27c1a4	0.040956154
230	0xbe6c18a0	-0.23056269
231	0xbe2ac295	-0.1667579
232	0x3e2deab1	0.16984059
233	0x3cede1f6	0.02903841
234	0x3da53ca0	0.08068204
235	0xbd29113c	-0.0412762
236	0xbe3540f9	-0.17700566
237	0x3daa0ddc	0.08303425
238	0x3d6eaffa	0.058273293
239	0xbe5a411f	-0.21313904
240	0xbe14c223	-0.14527182
241	0x3e8f807d	0.28027716
242	0xbd92ec34	-0.071739584
243	0x3d5f506a	0.05452005
244	0xbdf9c057	-0.12194889
245	0xbd9731b6	-0.073825285
246	0xbe18e811	-0.14932276
247	0xbe699c6f	-0.22813581
248	0x3e2867ec	0.16445893
249	0xbc84f653	-0.016230738
250	0x3df55b7d	0.11980341
251	0x3e540a33	0.20707016
252	0x3ebc5e5f	0.3679075
253	0x3e77d34e	0.242017
254	0xbe8a4fe7	-0.27014086
255	0xbeac640e	-0.33670086

conv2.bias f4 [32]
0	0xbc783722	-0.015149863
1	0xbb48c3a2	-0.0030634184
2	0xbb39ad45	-0.0028332036
3	0xbbff55fa	-0.0077922316
4	0xbd55338c	-0.052051112
5	0xbba5391c	-0.0050422084
6	0xbc494659	-0.012284839
7	0xbc4175ec	-0.0118079
8	0x3a963343	0.0011459369
9	0xbca7ecab	-0.020498594
10	0xbd0d1db3	-0.03445215
11	0xbca096ae	-0.0196031
12	0x3cefdbba	0.029279578
13	0xbc41529f	-0.011799484
14	0xbcee58c8	-0.029095069
15	0xbc61ef86	-0.013790017
16	0x3b7b6eac	0.0038365526
17	0xbb8979fb	-0.0041954494
18	0x3c5e8e14	0.013583679
19	0x39e1991f	0.00043029428
20	0xbc406f9c	-0.01174536
21	0x38f48cdc	0.00011661064
22	0xbc0c04d2	-0.008546071
23	0xbaac0972	-0.0013125374
24	0x3a1f2916	0.0006071491
25	0xbcd1899d	-0.025578314
26	0xba5f1ba6	-0.0008510895
27	0xbcb444d9	-0.022005485
28	0x3cb6a165	0.022293756
29	0xbc575148	-0.013141938
30	0x3a32a1ce	0.0006814272
31	0x3bc9dc81	0.0061603193

conv3.weight f4 [32, 32, 3, 3]
0	0xbe1877b3	-0.14889412
1	0xbd790968	-0.060799986
2	0xbe39025f	-0.18067311
3	0x3bc905a8	0.0061347075
4	0x3de9c7a4	0.114150316
5	0x3e08ca75	0.13358481
6	0x3deaf809	0.1147309
7	0xbe2b517c	-0.16730303
8	0xbd14f5ab	-0.0363671
9	0x3da9df64	0.082945615
10	0xbcdf527e	-0.027261015
11	0x3e29259f	0.16518258
12	0xbe4a60e4	-0.19763523
13	0xbe591cbe	-0.2120237
14	0x3df49140	0.11941767
15	0x3da3ee73	0.08004465
16	0xbd5eb237	-0.054369178
17	0xbe7ce31b	-0.24696009
18	0xbd41cc1b	-0.04731379
19	0xbd8fb920	-0.07017732
20	0x3e51f85b	0.20504896
21	0x3e0b9b66	0.13633499
22	0x3e1a0e55	0.1504453
23	0xbd896867	-0.06709366
24	0xbd80bf0e	-0.06286441
25	0xbdd4ad86	-0.103846595
26	0x3d997e7e	0.074948296
27	0xbcbedaf0	-0.023297757
28	0xbe84bb5f	-0.25924203
29	0xbec9217f	-0.39283368
30	0x3d98c0be	0.07458638
31	0xbe198fd9	-0.1499628
32	0xbe62c627	-0.22145902
33	0x3ec542ce	0.3852753
34	0x3c7dc4cd	0.0154888155
35	0xbeb2fe42	-0.34959608
36	0x3e1a969c	0.15096515
37	0xbd8dc344	-0.069220096
38	0xbeac4f89	-0.3365443
39	0xba98a7eb	-0.0011646723
40	0xbe2801b1	-0.16406895
41	0xbe043010	-0.1290896
42	0x3e4fff11	0.20312144
43	0xbdadb318	-0.08481425
44	0xbd240a19	-0.040048692
45	0xbd9e6ce8	-0.07735616
46	0x3ce5b381	0.028039696
47	0x3ade7cdc	0.0016974467
48	0x3e0fada2	0.1403108
49	0x3e0778e9	0.13229717
50	0xbe282c78	-0.16423213
51	0xbe685665	-0.22689207
52	0x3d0542f2	0.032534547
53	0x3dce705a	0.10080023
54	0x3d9baf9d	0.07601855
55	0xbc6e209f	-0.014534145
56	0xbdf35436	-0.11881296
57	0x3e446752	0.19180039
58	0xbc97ee9d	-0.018546397
59	0x3c6697f0	0.014074311
60	0xbc29603e	-0.010337887
61	0x3e08bac4	0.13352495
62	0x3d176105	0.03695776
63	0xbe116ee2	-0.14202455
64	0xbe0c6169	-0.13709034
65	0xbd364b37	-0.044505324
66	0x3dffb720	0.124861
67	0xbe1b7de9	-0.1518475
68	0xbdf46817	-0.11933916
69	0xbd806f2d	-0.06271205
70	0x3da206e1	0.07911468
71	0xbd0bea91	-0.034159247
72	0x3d9d22f8	0.076726854
73	0xbdd18437	-0.10230296
74	0x3db95d04	0.090509444
75	0x3e474306	0.19459161
76	0xbcfb9543	-0.030710822
77	0x3e2969ec	0.16544312
78	0xbd6b64fa	-0.057469346
79	0x3e2ca476	0.16859612
80	0xbdf4b496	-0.119485065
81	0x3dd75a44	0.10515264
82	0xbdb46259	-0.08807821
83	0xbddf5c87	-0.1090632
84	0x3cb2a43e	0.021806832
85	0xbd9f101a	-0.07766743
86	0xbdbfc35e	-0.09363435
87	0xbd2699c1	-0.040673975
88	0xbec524eb	-0.3850473
89	0x3eb21995	0.34785143
90	0xbe61b019	-0.22039832
91	0xbd626cc3	-0.055279505
92	0xbe2db5a6	-0.16963825
93	0x3df00b97	0.117209606
94	0x3e4b97bc	0.19882101
95	0xbe5bea77	-0.2147616
96	0xbe30b629	-0.17256989
97	0xbe33fd46	-0.17577085
98	0x3e67effd	0.22650142
99	0x3e69b140	0.22821522
100	0x3d7f81ad	0.062379528
101	0xbe1aab3b	-0.15104382
102	0x3e9052d6	0.281882
103	0x3e384fdb	0.17999212
104	0x3cc002d8	0.023438856
105	0x3c389a1a	0.011267209
106	0x3e249224	0.16071373
107	0xbdf205bb	-0.11817499
108	0xbddc3e2d	-0.107540466
109	0x3e5905fc	0.21193689
110	0x3dbc9303	0.09207728
111	0xbdf7efee	-0.1210631
112	0x3da017f2	0.07817067
113	0xbc6fdd29	-0.014640131
114	0x3daaee6e	0.08346258
115	0x3e2b50e7	0.1673008
116	0xbd886b9e	-0.06661151
117	0xbd9dbea3	-0.07702377
118	0x3d8863a2	0.066596285
119	0x3e899611	0.26872304
120	0xbcbeb332	-0.023278806
121	0xbc535edb	-0.012901033
122	0x3cf38e85	0.029731045
123	0xbd99a9ce	-0.07503091
124	0x3ce1ced9	0.027564453
125	0x3efe695b	0.49689755
126	0x3b75abfa	0.003748654
127	0x3e7b1102	0.24518207
128	0xbc9c87ea	-0.019107778
129	0xbd151da2	-0.036405213
130	0x3dae42bc	0.08508822
131	0xbe13a84e	-0.14419672
132	0xbdaa1ddc	-0.083064765
133	0x3defa83d	0.11702011
134	0x3e0a86b6	0.1352795
135	0x3e49addb	0.19695227
136	0xbd6a35ba	-0.057180144
137	0xbd3e3410	-0.04643637
138	0xbe4c9497	-0.19978558
139	0x3d9a1a24	0.07524517
140	0x3e88f669	0.26750496
141	0x3cf85382	0.030313257
142	0xbd2b590c	-0.04183297
143	0xbeed5524	-0.4635402
144	0x3ce1744f	0.02752128
145	0xbd1430b0	-0.036179245
146	0x3e0b5f3d	0.1361055
147	0xbe81afa3	-0.25329313
148	0x3e504b6b	0.2034127
149	0xbe13a6b1	-0.14419056
150	0x3cb06e89	0.021537082
151	0x3d898595	0.06714932
152	0xbea6299d	-0.32453623
153	0xbec62c38	-0.3870561
154	0xbe1c7358	-0.15278375
155	0x3e69fdb5	0.22850688
156	0xbe59b8f1	-0.21261956
157	0x3e2089d0	0.15677571
158	0x3e02ec3c	0.12785429
159	0xbcb779fa	-0.02239703
160	0xbd033b5d	-0.032039035
161	0x3d27d0b4	0.04097052
162	0x3d8acab7	0.06776946
163	0xbc34070e	-0.01098801
164	0xbe36976d	-0.17831202
165	0x3d614bde	0.055003993
166	0xbc1a707c	-0.009426232
167	0xbe34b572	-0.17647341
168	0x3d214839	0.039375518
169	0x3e10b626	0.14131984
170	0xbe9e24b5	-0.3088738
171	0x3d886689	0.06660182
172	0x3e0afe41	0.13573553
173	0x3dada183	0.084780715
174	0xbe82b2c2	-0.25527006
175	0xbe289846	-0.16464338
176	0xbe25b49c	-0.16182178
177	0xbe0a2271	-0.13489701
178	0xbe0af8a4	-0.13571411
179	0xbd56953a	-0.052388407
180	0x3dc1e629	0.09467728
181	0xbead872f	-0.338922
182	0xbe7e9189	-0.24860205
183	0xbe069e95	-0.13146432
184	0x3edb2b19	0.42806318
185	0xbde381b3	-0.111087225
186	0xbda3960a	-0.07987602
187	0xbd6fc9af	-0.05854195
188	0xbe3dd555	-0.18538411
189	0x3e0cb99f	0.13742684
190	0xbd254188	-0.0403457
191	0xbe3f8c56	-0.18705878
192	0x3d2f6932	0.04282493
193	0xbdb21786	-0.08695893
194	0xbdfe0df1	-0.12405003
195	0x3e0df37e	0.13862416
196	0x3e57d93f	0.21078967
197	0xbd9d1c20	-0.0767138
198	0x3e095b28	0.1341368
199	0x3c839440	0.016061902
200	0xbeac11cc	-0.33607328
201	0xbe36b50f	-0.17842506
202	0x3c9a42b0	0.018830627
203	0x3b7412a9	0.0037242568
204	0xbd0b2d54	-0.033978775
205	0x3e8d789a	0.27631074
206	0xbd85336c	-0.065039486
207	0x3e3c13a9	0.18366875
208	0x3e17afc3	0.14813142
209	0xbebd4a51	-0.3697076
210	0x3e9d6fb1	0.30749276
211	0xbeb03adc	-0.34419906
212	0xbd57e6e7	-0.05271044
213	0xbbe387d9	-0.0069436845
214	0xbda97274	-0.08273783
215	0xbe1a9be7	-0.15098535
216	0x3e0382e9	0.12842907
217	0x3cb9c965	0.02267904
218	0x3e4da628	0.20082915
219	0xbe0a6a07	-0.13517009
220	0xbdc971df	-0.09836172
221	0x3dd322e4	0.10309389
222	0xbe5b17fc	-0.21395868
223	0x3d744be3	0.059642684
224	0x3e85b641	0.2611561
225	0x3c476ad2	0.012171464
226	0xbddf7d10	-0.10912526
227	0x3e608fc1	0.21929838
228	0xbcf34f76	-0.029700976
229	0xbd84170a	-0.06449707
230	0x3dacea8a	0.08443172
231	0x3d10b0a8	0.035324723
232	0x3df68648	0.12037331
233	0xbdb769ca	-0.089557245
234	0xbe8cd2b2	-0.27504498
235	0x3e9b20d8	0.30298495
236	0x3e532d85	0.20622833
237	0xbd6425f3	-0.055700254
238	0xbdc464db	-0.09589549
239	0xbcb00b5c	-0.021489792
240	0x3db84aae	0.08998619
241	0x3b955a21	0.0045578633
242	0x3e27a801	0.16372682
243	0x3d9b9823	0.07597377
244	0x3cfa4106	0.030548584
245	0x3e82b863	0.255313
246	0x3dbecb26	0.09316091
247	0xbdcf5411	-0.10123456
248	0xbe328d10	-0.17436624
249	0x3d38754e	0.045033745
250	0xbec412ef	-0.38295695
251	0xbba20521	-0.004944459
252	0xbe419d86	-0.18907747
253	0x3d28c875	0.041206796
254	0x3e450c59	0.19242992
255	0xbe7187aa	-0.23586908

conv3.bias f4 [32]
0	0xbd9dece3	-0.07711198
1	0xbe0ffe1b	-0.14061777
2	0x3c3bfd9b	0.0114740385
3	0xbdc186d6	-0.09449546
4	0xbd8d8e78	-0.069119394
5	0xbebd918f	-0.37025115
6	0xbdf01bcd	-0.117240526
7	0xbe180f7a	-0.14849654
8	0xbde499e4	-0.11162165
9	0xbca5aaaa	-0.02022298
10	0xbe0817a5	-0.1329027
11	0xbdbff2f2	-0.0937251
12	0xbc880d95	-0.016608039
13	0xbdcaa4fb	-0.09894749
14	0xbdedbaba	-0.11607881
15	0xbd482af6	-0.048869096
16	0xbd8585f2	-0.06519689
17	0xbc6cc2cb	-0.014450739
18	0xbe9eee24	-0.31041062
19	0xbdf9e482	-0.122017875
20	0xbe12a1d8	-0.14319551
21	0xbc91df36	-0.01780663
22	0xbe087f6b	-0.13329856
23	0xbe71acb4	-0.23601037
24	0xbd54ab34	-0.051921085
25	0xbe0426a9	-0.12905373
26	0x3c4b43d2	0.012406306
27	0xbd75d39b	-0.060016256
28	0xbd6e2734	-0.058142856
29	0xbd8b1893	-0.067917965
30	0x3ce8fea1	0.028441729
31	0xbe199421	-0.14997913

conv4.weight f4 [32, 32, 3, 3]
0	0x3eb822c4	0.35964024
1	0x3c1b7d1a	0.009490276
2	0x3d85400c	0.065063566
3	0xbdec4aad	-0.11537681
4	0x3dd8f662	0.10593869
5	0xbdad3c3c	-0.084587544
6	0xbe41bffa	-0.1892089
7	0xbe1d47c2	-0.15359405
8	0xbe9009af	-0.28132388
9	0xbe2f6b45	-0.17130764
10	0xbe556ecf	-0.20843051
11	0x3cfccebc	0.030860297
12	0xbdb41813	-0.08793654
13	0x3e05d5e9	0.13069881
14	0xbe379b00	-0.17930222
15	0xbd75ecd9	-0.06004033
16	0x3dda5414	0.10660568
17	0x3d294216	0.04132279
18	0xbe39f246	-0.18158826
19	0x3e3d3660	0.18477774
20	0x3d9faaeb	0.07796272
21	0xbe03ff37	-0.12890325
22	0xbdbd4315	-0.092413105
23	0x3df9a218	0.1218912
24	0x3dcad19a	0.099032596
25	0x3cd0f427	0.025507046
26	0xbb301d72	-0.002687302
27	0x3e27a0ba	0.16369906
28	0x3cf53207	0.029931081
29	0xbab38d4c	-0.0013698726
30	0x3e498ad5	0.19681866
31	0xbe56e9fc	-0.20987695
32	0xbdc1b0ed	-0.09457574
33	0xbd66e0e6	-0.056366824
34	0xbddc648f	-0.107613675
35	0x3e32368c	0.1740362
36	0x3e3cf2be	0.18451974
37	0xbe80115d	-0.25013247
38	0xbe089718	-0.13338888
39	0x3d4dd8e4	0.05025567
40	0xbe3d6c80	-0.1849842
41	0x3e2f525d	0.17121263
42	0x3dd618a8	0.104539216
43	0xbdef0f0a	-0.1167279
44	0x3ced55d9	0.0289716
45	0x3ea0623a	0.3132494
46	0xbc946412	-0.018114123
47	0xbca5d78e	-0.020244386
48	0xbd499e98	-0.049223512
49	0xbcb12511	-0.02162412
50	0x3e00438f	0.12525772
51	0xbda3e7be	-0.08003186
52	0xbd8283b5	-0.063727774
53	0xbd949a5a	-0.07256003
54	0x3e68d8a7	0.22738896
55	0xbe2450ca	-0.16046444
56	0xbd9084eb	-0.07056602
57	0xbd3587e3	-0.044319045
58	0xbd68b514	-0.056813315
59	0xbdc65dec	-0.09685883
60	0xbdba27b1	-0.09089602
61	0x3e7460b0	0.23865008
62	0x3d37b755	0.044852573
63	0x3dc56dfb	0.09640118
64	0xbc4045d5	-0.011735399
65	0x3e0fe571	0.14052369
66	0x3e0771ca	0.13227001
67	0x3dac84e8	0.08423787
68	0x3dad6995	0.08467404
69	0xbd915c62	-0.07097699
70	0x3d4e69f1	0.050394002
71	0x3e5ad664	0.21370846
72	0x3d98f1cc	0.07467994
73	0xbcad23a7	-0.021135164
74	0xbdfa893b	-0.12233206
75	0x3d2d713a	0.04234431
76	0x3e6af5b1	0.22945286
77	0xbda31c54	-0.079643875
78	0xbdedf42d	-0.116188385
79	0x3e03634a	0.12830845
80	0xbd1f702b	-0.03892533
81	0x3df592d4	0.11990896
82	0xbe9ea6ed	-0.3098673
83	0x3c9a6e86	0.01885153
84	0xbe0c6ff7	-0.13714586
85	0x3e886fa5	0.26647678
86	0x3df9a127	0.121889405
87	0xbd600241	-0.05468965
88	0x3db84970	0.08998382
89	0x3daaef08	0.08346373
90	0x3e27c5be	0.16384026
91	0x3d4d60a2	0.050140984
92	0x3df2c598	0.11854094
93	0xbdb2634e	-0.08710347
94	0x3d644a88	0.05573514
95	0xbe3618ff	-0.17782973
96	0x3dadb839	0.08482403
97	0xbe58df64	-0.21178967
98	0x3e91e28b	0.2849315
99	0xbd89672c	-0.067091316
100	0x3e838478	0.25687003
101	0x3ceac21d	0.028657014
102	0x3e707576	0.23482308
103	0xbe912362	-0.28347307
104	0xbe8b1cb0	-0.27170324
105	0x3dfadca3	0.12249114
106	0x3d6e718e	0.058213763
107	0xbc9925ec	-0.01869484
108	0xbe210608	-0.15724957
109	0x3ce82c4f	0.02834144
110	0x3e920ecd	0.28526917
111	0x3c4ed652	0.01262434
112	0xbd67940f	-0.056537684
113	0x3da00669	0.07813723
114	0xbda9089b	-0.082535945
115	0x3dc0ef7e	0.094206795
116	0x3ce949d4	0.028477587
117	0x3ed42ab7	0.4143884
118	0xbeb05aa9	-0.34444168
119	0x3dc75d23	0.09734561
120	0x3df5bdb8	0.119990766
121	0xbe9fb0a5	-0.31189457
122	0x3e6b3b41	0.22971822
123	0xbd23b0be	-0.039963476
124	0xbe2ee7bb	-0.17080586
125	0xbdd6e644	-0.104931384
126	0x3e071588	0.13191807
127	0xbdf25b36	-0.11833803
128	0xbdd11787	-0.102095656
129	0x3b546162	0.0032406677
130	0xbde4468c	-0.11146268
131	0x3e056288	0.13025868
132	0xbd3996a3	-0.045309674
133	0x3e71505f	0.23565815
134	0xbc6fa6eb	-0.014627199
135	0x3d252bb7	0.040324893
136	0xbce39550	-0.027781159
137	0x3e400a19	0.18753852
138	0xbe72d27c	-0.23713106
139	0x3e8ecd23	0.27890882
140	0xbe1eb49f	-0.15498589
141	0xbe5c69dc	-0.21524757
142	0x3e406e42	0.1879206
143	0xbdd9d733	-0.10636749
144	0xbdec4f6c	-0.11538586
145	0xbdc1e246	-0.09466986
146	0xbdcf20d0	-0.1011368
147	0xbd9c6965	-0.0763729
148	0x3e8e2119	0.27759627
149	0x3db12911	0.08650411
150	0x3e5f03a6	0.21778736
151	0xbeb2ecee	-0.34946388
152	0x3a9549bf	0.0011389776
153	0xbe34f3db	-0.17671148
154	0x3d74e1b8	0.059785575
155	0xbc8b0d0e	-0.016973998
156	0xbd9816d2	-0.07426228
157	0xbe0b25bf	-0.13588618
158	0x3dfff1e7	0.12497311
159	0xbe1085b6	-0.14113507
160	0xbe7860ff	-0.24255751
161	0x3d046ff3	0.032333326
162	0x3e150adb	0.14554922
163	0xbaaaf388	-0.0013042549
164	0xbd4dcf17	-0.050246324
165	0x3d2e09cc	0.04248981
166	0xbd6cca3b	-0.05781005
167	0xbe7a1e04	-0.24425513
168	0xbd63df46	-0.055632852
169	0xbe135e9e	-0.14391562
170	0x3e08d698	0.13363111
171	0xbe16eac7	-0.14737998
172	0xbd4f577a	-0.050620534
173	0xbd32697e	-0.043557636
174	0xbd407dea	-0.04699508
175	0x3e3ad8ce	0.18246767
176	0xbd4697be	-0.048484556
177	0x3e890be2	0.26766878
178	0xbe4d0e94	-0.20025092
179	0xbd972001	-0.07379151
180	0xbd4fa6bd	-0.050696123
181	0x3e576dd1	0.21037985
182	0x3e7182e9	0.23585095
183	0x3e416271	0.18885209
184	0xbd35b8f5	-0.044365842
185	0xbea4b4df	-0.32169244
186	0xbdf054b6	-0.11734907
187	0xbd9354d1	-0.07193912
188	0x3b733f4e	0.003711659
189	0xbe1671a1	-0.14691783
190	0xbe41d0f5	-0.18927367
191	0xbdd21517	-0.10257929
192	0x3ded04c8	0.115731776
193	0xbd535e5e	-0.051603667
194	0x3db3b6ff	0.08775138
195	0x3e8a70db	0.27039227
196	0x3e5d93f3	0.2163847
197	0xbe8654a0	-0.2623644
198	0x3d45b8cc	0.04827194
199	0x3e8c1772	0.27361637
200	0xbe7cc104	-0.24683005
201	0xbe4a9150	-0.19781995
202	0x3f0f87d2	0.5606662
203	0xbd76121f	-0.060075875
204	0x3bb174ef	0.005415551
205	0xbe94e905	-0.2908403
206	0x3ce7e0ba	0.0283054
207	0xbd02a69e	-0.03189718
208	0xbe314b91	-0.17313983
209	0xbe03a0ec	-0.12854356
210	0x3e12108d	0.14264126
211	0xbda72505	-0.08161358
212	0xbd3f7af6	-0.046748124
213	0xbdad466c	-0.084606975
214	0xbd9b74e0	-0.075906515
215	0x3e45ac60	0.19304037
216	0x3d29e77c	0.041480526
217	0x3d8ee10a	0.069765165
218	0x3ddcaf19	0.10775585
219	0xbe8d95fa	-0.27653486
220	0xbc86bd33	-0.01644764
221	0x3e2edaef	0.17075704
222	0xbd164992	-0.036691256
223	0x3e3ca037	0.18420492
224	0x3d613247	0.05497959
225	0x3dcb6c60	0.0993278
226	0xbe8fa735	-0.28057256
227	0x3d1f0ab4	0.038828567
228	0xbe189c11	-0.14903285
229	0x3c98fdf2	0.018675778
230	0x3e3a8e27	0.1821829
231	0xbd328e46	-0.043592714
232	0x3ed8fca4	0.4238025
233	0xbe81387e	-0.25238413
234	0xbc7d6ec3	-0.015468302
235	0xbdb5655e	-0.08857225
236	0x3dc5e3b3	0.09662571
237	0x3e73d490	0.23811555
238	0x3e969a75	0.29414716
239	0xb9958043	-0.00028515057
240	0xbe29724c	-0.16547507
241	0xbdbd6eb2	-0.09249629
242	0x3e83feb5	0.25780264
243	0x3e00036f	0.1250131
244	0xbe822ef1	-0.25426438
245	0x3e633a43	0.22190194
246	0xbd861639	-0.065472074
247	0xbd30b64c	-0.0431426
248	0x3e32769c	0.17428058
249	0xbe16a2b1	-0.147105
250	0x3e36087f	0.17776679
251	0xbe88d8a1	-0.26727775
252	0x3c211fc7	0.009834236
253	0xbd172cb9	-0.036907885
254	0x3dd8113c	0.10550162
255	0xbe61dc77	-0.22056757

conv4.bias f4 [32]
0	0xbeee6952	-0.46564728
1	0xbea360b8	-0.31909728
2	0xbe049868	-0.12948763
3	0xbe42aece	-0.19011995
4	0xbf0853e5	-0.5325301
5	0xbea88134	-0.32911074
6	0xbe8a7a46	-0.27046412
7	0xbe670192	-0.22559193
8	0xbe239acc	-0.15977019
9	0xbe95cf83	-0.2925988
10	0xbe335fef	-0.17517065
11	0xbeb8ab78	-0.3606832
12	0xbe9da397	-0.30788872
13	0xbe2c70f5	-0.16839965
14	0xbea8f63e	-0.33000368
15	0xbee51e4d	-0.4474968
16	0xbea44538	-0.3208406
17	0xbec13d5d	-0.3774213
18	0xbeb51139	-0.35364702
19	0xbdab9bef	-0.08379351
20	0xbdcf8bc4	-0.1013408
21	0xbe84bf1d	-0.25927058
22	0xbeaa7f9e	-0.3330049
23	0xbecbe910	-0.3982625
24	0xbe116679	-0.14199246
25	0xbe8bc68d	-0.2729992
26	0xbe9bbb0c	-0.30416143
27	0xbf15f3a7	-0.5857491
28	0xbe19365e	-0.14962146
29	0xbdf6eb21	-0.12056566
30	0xbe8785f6	-0.26469392
31	0xbee9afd4	-0.4564196

linear.weight f4 [32, 800]
0	0xbcc07040	-0.023491025
1	0x3dd04fed	0.10171495
2	0xbcf7add7	-0.03023426
3	0xbd88c25f	-0.06677698
4	0xbc6e85e8	-0.014558293
5	0xbe93a954	-0.28840125
6	0x3dc9bdd6	0.098506615
7	0xbab16e74	-0.0013536946
8	0xbc9cf7f9	-0.019161211
9	0x3d216319	0.039401148
10	0x3e401324	0.18757302
11	0xbdde2575	-0.10846988
12	0xbddfd761	-0.10929752
13	0xbd796a13	-0.060892176
14	0x3e67d480	0.22639656
15	0x3e758989	0.23978247
16	0x3e249304	0.16071707
17	0xbd2ce2af	-0.04220837
18	0xbd4583dd	-0.048221458
19	0xbe125c37	-0.1429299
20	0xbd8c572b	-0.068525635
21	0xbcd1c26b	-0.025605401
22	0xbd719ca8	-0.05898729
23	0xbd1dda21	-0.038538102
24	0xbd192b4e	-0.037394814
25	0x3e8396f1	0.25701097
26	0xbdc8b6c3	-0.09800484
27	0x3da47cdb	0.08031627
28	0xbdb246b3	-0.08704891
29	0x3c540ac1	0.012942017
30	0xbecc479b	-0.3989838
31	0x3daea229	0.08527023
32	0xbda338db	-0.07969829
33	0xbc631706	-0.01386047
34	0x3e6feda0	0.2343049
35	0x3e45dc3e	0.19322297
36	0x3d27db30	0.040980518
37	0xbdc3285f	-0.095291846
38	0xbd59f1f2	-0.053209253
39	0x3d017b50	0.03161174
40	0x3defa6ab	0.11701711
41	0xbebedbb9	-0.3727701
42	0xbdc0d971	-0.09416474
43	0xbdac5cfb	-0.08416172
44	0x3e007345	0.12543972
45	0xbdd0e32d	-0.1019958
46	0xbd049645	-0.03236987
47	0x3cdca7ad	0.026935423
48	0x3bf76238	0.0075495504
49	0xbbc61600	-0.006045103
50	0xbe04d3f1	-0.12971474
51	0x3c6629ec	0.014048081
52	0x3d512700	0.051062584
53	0xbd4dc305	-0.050234813
54	0x3a3a5e48	0.0007109386
55	0x3e86bf21	0.26317695
56	0x3d241f3e	0.040068857
57	0x3a6d733b	0.0009058003
58	0x3c1861d9	0.009300672
59	0xbcc9d49f	-0.024637518
60	0x3d548241	0.051882032
61	0x3d383602	0.04497338
62	0xbad0af94	-0.0015921467
63	0xbb00c8a8	-0.001965085
64	0x3bd00ec3	0.006349416
65	0xbdaa9549	-0.08329255
66	0xbd69ed0e	-0.05711084
67	0x3d564a39	0.052316878
68	0xbd203f30	-0.03912276
69	0xbdd2c36a	-0.102911785
70	0xbdb2c241	-0.08728457
71	0xbc3f358a	-0.01167048
72	0x3c4bb2c4	0.012432758
73	0xbcad0258	-0.021119282
74	0x3cbd4c1b	0.023107579
75	0x3e93a6ca	0.28838187
76	0xbca8c78e	-0.020602968
77	0x3e04dc8e	0.1297476
78	0x3d224e71	0.03962559
79	0xbe6bfa3c	-0.23044676
80	0xbe5c56e5	-0.21517523
81	0x3d881899	0.06645317
82	0xbdb1d706	-0.086835906
83	0xbdc44a62	-0.095845
84	0x3df7ad3c	0.12093589
85	0x3d0e133e	0.03468632
86	0xbbd8c70a	-0.006615524
87	0xbd8781de	-0.06616567
88	0x3da55af1	0.08073986
89	0xbe00e6df	-0.1258807
90	0x3e02ac00	0.12760925
91	0xbd0f8f45	-0.03504874
92	0x3e34106d	0.17584391
93	0x3dd4063c	0.103527516
94	0x3db99faf	0.0906366
95	0x3ca64bd4	0.02029983
96	0xbcffe162	-0.0312354
97	0xbd1fa46f	-0.038975175
98	0xbd6221a0	-0.05520785
99	0xbd8b44d3	-0.068002366
100	0xbea1e1df	-0.31617638
101	0x3e892b51	0.2679086
102	0xbbe8a62e	-0.0070998883
103	0x3da08490	0.07837784
104	0x3dc7bd75	0.09752933
105	0xbe8ef853	-0.2792383
106	0x3eafe8da	0.3435734
107	0x3e17113f	0.14752673
108	0x3e1c1d33	0.15245514
109	0x3e10064e	0.14064905
110	0xbe90e983	-0.28303155
111	0x3f03b56e	0.51448715
112	0x3e6c84b9	0.23097505
113	0x3dfc1622	0.12308909
114	0x3e9ac6ea	0.30229884
115	0xbea638d5	-0.32465234
116	0xbe9bb619	-0.30412367
117	0xbe835b2a	-0.2565549
118	0xbe75f9b0	-0.2402103
119	0xbec3ef7f	-0.3826866
120	0xbeb13be5	-0.34616008
121	0xbed05192	-0.40687233
122	0xbebe9da0	-0.37229633
123	0xbecc6ef4	-0.399284
124	0xbed7d296	-0.42152852
125	0xbd187894	-0.037224367
126	0x3aab5c6f	0.0013073812
127	0x3c26493c	0.010149296
128	0xbd746c98	-0.059673876
129	0x3dfd36e2	0.12363984
130	0x3d54eca0	0.051983476
131	0x3e7dfc30	0.24803233
132	0xbc2e6bf7	-0.010645858
133	0xbd99436c	-0.07483563
134	0x3b814535	0.0039450177
135	0xbdd5fd49	-0.10448701
136	0xbefce1a1	-0.4939089
137	0x3cb2b6fd	0.021815771
138	0x3ce06dde	0.027396139
139	0x3db16479	0.08661742
140	0xbe3e6018	-0.18591344
141	0xbe04da82	-0.12973979
142	0xbdf9d85e	-0.12199472
143	0xbe2472d6	-0.16059431
144	0xbdd2ca7e	-0.102925286
145	0xbc8ef5cb	-0.017451188
146	0x3db5049a	0.08838768
147	0x3d55d3a3	0.052203786
148	0x3d278278	0.04089591
149	0x3dd00e63	0.10158994
150	0xbdf5f5ab	-0.12009748
151	0x3e02dc77	0.12779413
152	0xbe0de59f	-0.13857125
153	0xbb126818	-0.0022339877
154	0x3e5e0830	0.21682811
155	0x3e9888d8	0.29791903
156	0x3e64ca54	0.22342807
157	0xbe1a77d4	-0.15084773
158	0xbe2257ea	-0.15853849
159	0x3e2259c8	0.15854561
160	0xbe4f3a3f	-0.20237063
161	0x3e03d25b	0.12873213
162	0xbda4e710	-0.08051884
163	0xbdc03a03	-0.09386065
164	0xbe24a060	-0.16076803
165	0xbced64df	-0.028978763
166	0x3bc3c99c	0.0059749614
167	0xbd15ed93	-0.03660352
168	0x3df7c9a3	0.12099006
169	0xbd5c4f19	-0.05378637
170	0x3e19a41a	0.15004006
171	0xbc874449	-0.016512053
172	0xbc8dce89	-0.017310398
173	0xbd8e971c	-0.069624156
174	0xbd46ab8f	-0.048503455
175	0x3e9f066f	0.31059596
176	0xbe4d2abe	-0.20035836
177	0x3d5f51ae	0.054521255
178	0x3c156097	0.009117267
179	0xbd9c5e4e	-0.07635175
180	0xbe75a4f4	-0.23988706
181	0x3e0d8bc9	0.13822855
182	0x3d725fa9	0.05917326
183	0xbbf165aa	-0.0073668556
184	0x3d9f40dc	0.07776043
185	0x3c69d6a8	0.014272369
186	0xbd86c618	-0.06580752
187	0xbd810d59	-0.06301374
188	0xbd63e642	-0.055639513
189	0x3e5af812	0.21383694
190	0xbd1f445d	-0.038883556
191	0x3d48630b	0.04892258
192	0x3dfa4f2c	0.12222132
193	0x3d3d0119	0.046143625
194	0xbe467149	-0.19379152
195	0x39327307	0.00017018254
196	0x3ca1898c	0.019718908
197	0xbc0bb8ab	-0.008527915
198	0xbc645f68	-0.013938762
199	0x3cb5792b	0.022152504
200	0xbd8e311f	-0.06942963
201	0x39fff358	0.00048818695
202	0xbc63dc87	-0.013907558
203	0x3e013c76	0.1262072
204	0xbbbbab0d	-0.005727178
205	0xbaee54ce	-0.0018183233
206	0x3d569dd8	0.052396625
207	0xbd9d7e97	-0.07690161
208	0xbd428bee	-0.04749673
209	0x3e55a72a	0.2086455
210	0x3e1548f7	0.14578615
211	0x3d2d42ab	0.042299908
212	0xbccbd435	-0.024881462
213	0x3b2c5fc3	0.0026302196
214	0x3e53a886	0.20669755
215	0xbcedb2cf	-0.029015927
216	0xbd841f03	-0.064512275
217	0x3e34f884	0.17672926
218	0xbe1c0f08	-0.15240109
219	0xbe659a3c	-0.22422117
220	0x3c256c8b	0.010096679
221	0xbd4694e8	-0.04848185
222	0xbc81efe7	-0.015861465
223	0xbd58c9cf	-0.052926835
224	0xbca1c813	-0.019748723
225	0x3dbde8a4	0.09272888
226	0x3e3b34cc	0.18281859
227	0xbdaf8fad	-0.08572326
228	0xbe127c2a	-0.14305177
229	0x3d6c7683	0.05773021
230	0xbe60d9b4	-0.21958047
231	0x3d0ae9ce	0.03391438
232	0xbc1eb16d	-0.009685856
233	0xbe3a3d0b	-0.18187349
234	0x3d31ede6	0.04343977
235	0x3d8c2670	0.06843269
236	0x3e65bf57	0.22436272
237	0xbd4a3aba	-0.049372412
238	0xbd83bede	-0.064328894
239	0xbc71fac0	-0.014769256
240	0x3daf0a34	0.08546868
241	0xbdfc3d67	-0.12316399
242	0xbc2744fb	-0.010209317
243	0x3ca3b1a9	0.019982176
244	0xbc315a0b	-0.010824691
245	0x3d119c23	0.035549294
246	0xbd3a79c5	-0.045526285
247	0xbd86578c	-0.06559667
248	0xbcb43f09	-0.022002714
249	0xbd3051ae	-0.043046646
250	0xbd1b3d74	-0.037900403
251	0xbd96631f	-0.073431246
252	0x3d5b94e2	0.053608783
253	0x3ccc87d2	0.024967108
254	0x3b7bd865	0.0038428542
255	0x3df74c8e	0.120751485

linear.bias f4 [32]
0	0x3f0fe54c	0.56209254
1	0xbe90108b	-0.2813762
2	0xbebe21d4	-0.37135184
3	0x3a6fc1f6	0.0009146029
4	0xbd239543	-0.03993727
5	0x3dc32c9c	0.09529993
6	0xbe5647db	-0.20925848
7	0x3dc7a66c	0.09748539
8	0x3c26fb1d	0.010191706
9	0xbd51d38d	-0.05122714
10	0xbcc04db7	-0.023474557
11	0xbe8ea904	-0.27863324
12	0xbd546df8	-0.051862687
13	0x3e305b72	0.17222384
14	0xbe87440f	-0.26419112
15	0x3d8d3b8b	0.068961225
16	0xbd9a5361	-0.075354345
17	0x3e4277d7	0.18991028
18	0x3d3ffade	0.046870105
19	0xbf1cb4ed	-0.6121357
20	0x3d270b97	0.040782537
21	0xbc0496bd	-0.008092579
22	0x3b4ca1ae	0.0031224298
23	0xbdbc4d7b	-0.09194466
24	0xbddb1a33	-0.106983565
25	0x3d4d18cc	0.050072476
26	0x3ba8c551	0.005150475
27	0x3e789fbc	0.24279684
28	0x3cd050c5	0.025429139
29	0x3cf37aa5	0.029721567
30	0xbe7c73a1	-0.24653484
31	0xba87aedf	-0.0010351798

critic_linear.weight f4 [1, 32]
0	0x3da8e1e3	0.082462095
1	0xbb8629e5	-0.0040943497
2	0xbcb30694	-0.021853723
3	0x3b562681	0.0032676759
4	0xb802b031	-3.1158506e-05
5	0x3b298639	0.0025867356
6	0x3b9cea8f	0.0047887038
7	0x3a60a898	0.00085700443
8	0x3a15d650	0.0005715834
9	0xbb2a2e5d	-0.0025967576
10	0xbbe3ddb7	-0.0069539207
11	0xbb094a2c	-0.002094875
12	0x3ba27c25	0.004958647
13	0x3b2d845c	0.0026476597
14	0x3b9b1f52	0.0047339583
15	0xbaf28868	-0.0018503787
16	0xbaff0739	-0.0019457109
17	0xbae66afa	-0.0017579489
18	0x3b042c90	0.0020168163
19	0xbe20d8b8	-0.15707672
20	0xbab2ca75	-0.0013640659
21	0x3a977ca1	0.0011557528
22	0x3b8a3308	0.004217509
23	0xbb03e427	-0.0020125003
24	0xbb587c27	-0.0033032985
25	0x3b4a3366	0.003085339
26	0x3b5edb16	0.0034005097
27	0xbb629fec	-0.0034580184
28	0x3b955af8	0.0045579635
29	0x3ac41426	0.0014959618
30	0x3b322d8e	0.0027187797
31	0x3b508ef7	0.0031823495

actor_linear.weight f4 [6, 32]
0	0x3ea5be2d	0.32371655
1	0xbe493c92	-0.19652012
2	0xbee1279d	-0.43975535
3	0x3d08bc2a	0.033382572
4	0xbc1b3219	-0.009472393
5	0x3db1b935	0.086779036
6	0xbd8d5d6e	-0.06902586
7	0x3d39d20b	0.04536633
8	0xbc5765c6	-0.013146823
9	0xbd203381	-0.039111618
10	0x3c5457ef	0.012960418
11	0xbdc06c84	-0.09395698
12	0x3d1e143e	0.038593523
13	0x3e48bcef	0.19603322
14	0xbe9bf6c0	-0.30461693
15	0x3e0ac9f0	0.13553596
16	0xbe441e2d	-0.19152136
17	0x3db61279	0.08890242
18	0x3d319cba	0.043362357
19	0xbee9ac31	-0.45639184
20	0x3cae5e66	0.021285247
21	0xbcf0ec63	-0.029409593
22	0xbc648f49	-0.0139501775
23	0x3e211167	0.15729295
24	0x3d0f4fd7	0.03498825
25	0x3d309ca5	0.043118138
26	0x3e0b1610	0.13582635
27	0x3e7adc40	0.24498081
28	0x3caef41d	0.021356637
29	0xbc735fcc	-0.014854383
30	0xbe1170ee	-0.14203236
31	0x3c515784	0.012777213
32	0x3ebd7d23	0.37009534
33	0xbe864ef3	-0.26232108
34	0xbed151b1	-0.40882638
35	0x3ce1241f	0.027483044
36	0x3c19e1f0	0.009392247
37	0x3db7d554	0.08976236
38	0xbdad698f	-0.08467399
39	0x3d522a15	0.051309664
40	0x3ce4f9f7	0.027951224
41	0xbcb75b53	-0.022382414
42	0xbc81bdd6	-0.015837591
43	0xbdde457e	-0.10853098
44	0x3d0a751f	0.0338031
45	0x3e44ddf7	0.19225298
46	0xbec7e678	-0.3904302
47	0x3e069600	0.13143158
48	0xbe1be6e7	-0.15224801
49	0x3dfaa782	0.12238981
50	0x3d83a525	0.06427983
51	0xbee49025	-0.44641224
52	0x3d2ef283	0.042711746
53	0xbcbaf73d	-0.02282297
54	0x3cb23825	0.021755287
55	0x3d8aabe0	0.06771064
56	0x3c3af8fe	0.011411903
57	0x3db6e5b7	0.089305334
58	0x3e1a288f	0.15054534
59	0x3e887cb5	0.26657644
60	0x3c90d67a	0.017680395
61	0xbad8f72e	-0.0016553157
62	0xbe0f62b5	-0.14002497
63	0xbc8c3617	-0.017115636
64	0x3ea22d0c	0.31674993
65	0xbe7b6c41	-0.24553014
66	0xbf009186	-0.5022205
67	0xb91d35cc	-0.00014992728
68	0xbbf8deb9	-0.00759491
69	0x3d875286	0.06607537
70	0xbdc6b99f	-0.09703373
71	0x3d540c2a	0.051769413
72	0xbc3ba870	-0.011453733
73	0xbc95bf2d	-0.018279636
74	0xba04bf17	-0.0005063875
75	0xbdb0543f	-0.08609819
76	0xbb6efffa	-0.0036468492
77	0x3e32951e	0.17439696
78	0xbe906f04	-0.28209698
79	0x3e01390b	0.12619416
80	0xbe348573	-0.17629032
81	0x3dc864c0	0.097848415
82	0x3d28bcb3	0.041195583
83	0xbedda821	-0.43292335
84	0x3c810de7	0.0157537
85	0x3b38768a	0.0028146827
86	0x3d0139a1	0.0315491
87	0x3d6342a0	0.05548346
88	0xbcf91e87	-0.030410064
89	0x3d965073	0.07339563
90	0x3e262230	0.16223979
91	0x3e256768	0.16152728
92	0x3d421f27	0.04739299
93	0xbc6de108	-0.014518984
94	0xbe2403f5	-0.16017134
95	0xbc7ef45d	-0.01556119
96	0x3ee582e7	0.44826433
97	0xbe7533ad	-0.23945494
98	0xbeedb893	-0.4642988
99	0x3c01c8a7	0.007921374
100	0xbca9d7db	-0.02073281
101	0x3db3ff5c	0.0878894
102	0xbd870e67	-0.06594544
103	0x3d396ecb	0.045271676
104	0x3ce6f976	0.028195124
105	0xbcf657f2	-0.030071232
106	0x3c0d0fcf	0.008609726
107	0xbe0b7aca	-0.13621059
108	0x3bff0ef7	0.0077837664
109	0x3e3dfbca	0.18553081
110	0xbe631b27	-0.22178327
111	0x3e05f55b	0.13081877
112	0xbe28b7f4	-0.16476423
113	0x3e019bcb	0.12657087
114	0x3d8e08c7	0.06935268
115	0xbeb75ae9	-0.35811546
116	0x3d05f3a2	0.03270305
117	0xbc38d6eb	-0.011281709
118	0x3cb8ddf9	0.022566782
119	0x3e33d670	0.1756227
120	0x3c6694cf	0.014073565
121	0x3d9d3d4d	0.07677708
122	0x3e28c657	0.1648191
123	0x3ea3156b	0.31852278
124	0x3d285dae	0.041104965
125	0xbcb880aa	-0.02252229
126	0xbe0a75f6	-0.13521561
127	0xbcdd2b3a	-0.026998151
128	0x3ee1db73	0.4411274
129	0xbe74a7d3	-0.23892145
130	0xbee09fdf	-0.43871972
131	0x3d26ea04	0.04075052
132	0x3c613915	0.01374652
133	0x3dc6bf39	0.097044416
134	0xbdb48d50	-0.08816016
135	0x3d43d6d2	0.04781229
136	0x3d2e68af	0.042580303
137	0xbc822972	-0.015888903
138	0x3c393009	0.011302956
139	0xbe1c324b	-0.1525356
140	0x3c79bf2b	0.015243332
141	0x3e33f5ee	0.17574283
142	0xbea2ca96	-0.31795186
143	0x3e14e7fc	0.1454162
144	0xbe27c40b	-0.16383378
145	0x3df600d4	0.12011877
146	0x3d3d0022	0.046142705
147	0xbece5612	-0.4030004
148	0x3d23db70	0.040004194
149	0xbcef660f	-0.02922347
150	0x3c8f08c0	0.017460227
151	0x3c0d32c6	0.008618062
152	0xbcc18912	-0.02362493
153	0x3dbe0447	0.092781596
154	0x3e2ad2f9	0.16682042
155	0x3e1850a9	0.1487452
156	0x3d12eee2	0.035872348
157	0xbd0aa581	-0.033849243
158	0xbe2fd08d	-0.171694
159	0x3b8e95f0	0.00435137
160	0x3edd924d	0.4327568
161	0xbe69e2a2	-0.2284036
162	0xbeaeb047	-0.34118864
163	0x3b4b9acb	0.0031067606
164	0x3a9479cf	0.0011327806
165	0x3ddcc724	0.107801706
166	0xbdc6b841	-0.097031124
167	0x3da4c1ee	0.08044802
168	0x3bfe5318	0.0077613704
169	0xbd430bf3	-0.047618818
170	0xbcbe6d89	-0.02324559
171	0xbe08a5b0	-0.13344455
172	0x3d029abb	0.031885844
173	0x3e2d7107	0.16937648
174	0xbe8fd9dd	-0.28095904
175	0x3e163a49	0.14670672
176	0xbe4285d8	-0.1899637
177	0x3dea0144	0.11426023
178	0x3ce58843	0.028019076
179	0xbecdf6dc	-0.402274
180	0x3d88b305	0.0667477
181	0xbd351624	-0.044210568
182	0xbc26e132	-0.010185527
183	0x3dbdd8d3	0.092698716
184	0xbcb75f97	-0.022384448
185	0x3d9a553e	0.0753579
186	0x3e1dd4e0	0.15413237
187	0x3ebbe489	0.36697796
188	0x3d3a742c	0.045520946
189	0xbd0a0246	-0.033693574
190	0xbe226aa9	-0.15861
191	0xbbaac044	-0.005210908

actor_linear.bias f4 [6]
0	0x3dd3b046	0.10336356
1	0x3ebbe6bd	0.36699477
2	0x3e8ab2bd	0.2708949
3	0x3e67fcca	0.22655025
4	0x3e8b53c2	0.2721234
5	0x3e9b18c1	0.30292323
