spaceinvaders-v0-bottom-7fskip_latent32/model.132.tar (torch, 223035 bytes, 13 tensors)

conv1.weight f4 [32, 4, 3, 3]
0.02667785 0.02844536 0.034943487 -0.14872873 -0.5733538 0.102829605 0.17662805 0.2009584
0.048965715 0.004102713 0.1907312 0.05058638 0.027388066 -0.014448787 -0.07446441 0.13042122
0.10280583 0.026519371 0.06322662 0.23127668 -0.0659542 -0.044669304 -0.14169487 -0.21786219
0.1765818 -0.033716787 0.19769934 0.04274388 -0.49885935 0.004045784 0.14863302 0.65242654
0.2778723 -0.5001414 -0.18225646 -0.33372134 -0.049450267 -0.03340433 0.18784595 -0.09883712
0.11137283 0.16747573 0.16925348 -0.12627377 -0.18268703 0.085115574 -0.058387443 -0.03717834
0.034174602 -0.005063196 -0.0628778 -0.0036058591 0.0037690406 -0.00466827 -0.098038815 0.27217016
-0.11194375 -0.122983344 0.10355702 0.052032087 0.11125757 -0.036682412 0.066568464 0.45464537
-0.37695304 -0.09830732 0.052938387 -0.32360265 -0.046740916 -0.3114199 0.4341931 -0.10672458
0.12435182 -0.16808723 0.19820802 -0.020904336 0.113018915 0.1937054 -0.31707597 0.049033836
-0.14172287 -0.23248124 0.017449528 -0.024126733 0.033384245 -0.1529133 -0.18858492 0.054636214
-0.049841415 0.22165614 0.076109685 -0.09858223 0.290575 0.14212446 -0.103257135 0.053937726
0.14844105 -0.017260708 -0.13620904 -0.10775238 0.21594314 -0.12535849 0.06681517 -0.18692596
-0.27850354 -0.0971985 0.26734725 -0.002168799 0.28831786 0.14672369 0.034949206 0.15206103
0.21375643 0.0095455535 0.15165912 0.4911132 0.09996137 0.13005671 -0.23274405 -0.122993
-0.124896206 -0.082759514 0.0975194 0.01707687 0.12657677 -0.16708195 -0.012306197 -0.15665554
0.0842405 0.10694327 -0.26265088 0.030370317 0.23883353 0.18544978 0.19085516 0.20499423
0.038951542 0.13830318 -0.29868925 -0.8891905 -0.293904 -0.0393835 -0.21771777 0.022156972
-0.14214884 -0.10793353 0.25328377 0.18979704 0.11812597 0.09352707 -0.04509407 0.4470947
-0.14362562 -0.04819471 -0.19113836 -0.18005468 -0.133831 -0.10599165 -0.029625347 -0.107729085
0.027286304 0.00967856 -0.019470917 0.11941389 -0.009259827 -0.083973065 -0.30716947 -0.15917388
-0.13987003 -0.20918426 -0.20747031 0.2884514 0.03905913 -0.20031956 0.15654771 0.40773764
0.30005 -0.01920575 -0.13978031 0.3681673 -0.18837145 -0.23493493 -0.20908603 -0.2940325
-0.5396037 -0.1332911 -0.3703417 -0.46657586 -0.22303362 -0.056509785 0.0017740971 -0.0824576
-0.21834584 -0.14962845 -0.057714388 -0.21128286 -0.016155785 0.0059590433 0.25197878 0.003843064
0.09952618 -0.15475602 0.18727615 -0.15456463 0.08663657 0.10302695 -0.12711821 0.3786547
0.5315104 0.44029412 0.058455102 0.27036393 -0.11094528 0.3824197 0.48041105 0.32158232
0.3188099 -0.10736429 -0.022077458 0.3225823 0.08817744 0.37801367 -0.39007685 -0.49380237
-0.046342053 -0.034094717 0.020196727 0.2716869 0.18842529 0.11493841 0.08342423 -0.18866327
0.007294521 -0.13283391 0.01652862 -0.085606895 0.06890682 0.14899519 0.061978325 -0.04075999
-0.1261107 0.030292057 0.07569381 -0.091262214 -0.34540868 -0.03291558 -0.29547614 -0.4220571
-0.13059877 0.2865272 0.47275046 0.0905113 0.039769277 -0.11030228 -0.0910579 -0.44411308
00000000: 828b da3c 3e06 e93c e720 0f3d 584c 18be
00000010: 51c7 12bf 5498 d23d fcdd 343e 0ac8 4d3e
00000020: 4690 483d 0d70 863b 0a4f 433e aa33 4f3d
00000030: f05c e03c 9bba 6cbc cc80 98bd 248d 053e
00000040: dd8b d23d 273f d93c f57c 813d cbd3 6c3e
00000050: ff12 87bd 29f7 36bd 7618 11be 4417 5fbe
00000060: dcd1 343e 9d1a 0abd b271 4a3e 3514 2f3d
00000070: 7e6a ffbe 7f92 843b 4133 183e 6d05 273f
00000080: 4745 8e3e 4409 00bf 70a1 3abe 86dd aabe
00000090: 5d8c 4abd fbd2 08bd b05a 403e 1e6b cabd
000000a0: 7017 e43d c27e 2b3e c950 2d3e e94d 01be
000000b0: 4f12 3bbe 1351 ae3d ac27 6fbd 5148 18bd
000000c0: abfa 0b3d 2be9 a5bb 13c6 80bd 4750 6cbb
000000d0: 0202 773b 49f8 98bb 93c8 c8bd e359 8b3e
000000e0: c442 e5bd b1de fbbd b415 d43d 991f 553d
000000f0: 02db e33d 4c40 16bd 0c55 883d 47c7 e83e
00000100: fdff c0be 5955 c9bd ecd5 583d 3faf a5be
00000110: 6773 3fbd 6e72 9fbe 8f4e de3e 6b92 dabd
00000120: 2bac fe3d 0f1f 2cbe 0bf7 4a3e 923f abbc
00000130: 7676 e73d b55a 463e c857 a2be b4d7 483d
00000140: cd1f 11be 900f 6ebe 50f2 8e3c 6da5 c5bc
00000150: ebbd 083d 4e95 1cbe 681c 41be 39ca 5f3d
00000160: 8326 4cbd d4f9 623e 65df 9b3d 7be5 c9bd
00000170: 3fc6 943e 1389 113e 7a78 d3bd ceed 5c3d
00000180: ee00 183e 5466 8dbc 627a 0bbe 48ad dcbd
00000190: 3320 5d3e fa5d 00be 64d6 883d 8569 3fbe
000001a0: 0498 8ebe 0210 c7bd bde1 883e 6922 0ebb
000001b0: 669e 933e bc3e 163e e626 0f3d e3b5 1b3e
000001c0: f7e2 5a3e f464 1c3c 874c 1b3e 3073 fb3e
000001d0: 8cb8 cc3d 962d 053e 7554 6ebe c1e3 fbbd
000001e0: 95c9 ffbd d27d a9bd 40b8 c73d cbe4 8b3c
000001f0: 579d 013e 8817 2bbe ee9f 49bc 4f6a 20be
00000200: 4986 ac3d 1305 db3d 2d7a 86be 2ccb f83c
00000210: c790 743e 8ce6 3d3e 896f 433e 02ea 513e
00000220: a78b 1f3d 599f 0d3e cced 98be fda1 63bf
00000230: 967a 96be 9850 21bd 68f1 5ebe 8a82 b53c
00000240: 778f 11be 410c ddbd 69ae 813e 285a 423e
00000250: 07ec f13d 1f8b bf3d 8fb4 38bd 99e9 e43e
00000260: 9812 13be d167 45bd c6b9 43be 4160 38be
00000270: fe0a 09be 2612 d9bd dbb0 f2bc 11a1 dcbd
00000280: 8787 df3c d392 1e3c 7981 9fbc 458f f43d
00000290: 88b6 17bc 12fa abbd 5145 9dbe 7afe 22be
000002a0: 173a 0fbe 6634 56be 1973 54be e7af 933e
000002b0: 77fc 1f3d 9220 4dbe 0b4e 203e fdc2 d03e
000002c0: 27a0 993e 6155 9dbc 9222 0fbe 6d80 bc3e
000002d0: 72e4 40be c892 70be a61a 56be 6e8b 96be
000002e0: 7823 0abf 767d 08be 6d9d bdbe 08e3 eebe
000002f0: ed62 64be ce76 67bd d288 e83a 88df a8bd
00000300: 0d96 5fbe 3338 19be ec65 6cbd 895a 58be
00000310: 2359 84bc 1444 c33b 5d03 813e eadb 7b3b
00000320: 62d4 cb3d 5d78 1ebe 52c5 3f3e 3146 1ebe
00000330: 846e b13d cbff d23d 472b 02be 07df c13e
00000340: 1111 083f 3b6e e13e 9e6e 6f3d 246d 8a3e
00000350: 4737 e3bd 84cc c33e 70f8 f53e 70a6 a43e
00000360: 0d3b a33e cfe1 dbbd c9db b4bc 8229 a53e
00000370: 6096 b43d 028b c13e 27b8 c7be aad3 fcbe
00000380: 2ad1 3dbd e7a6 0bbd 9b73 a53c 8c1a 8b3e
00000390: 8ff2 403e d464 eb3d 53da aa3d f230 41be
000003a0: e106 ef3b 9d05 08be 0767 873c ab52 afbd
000003b0: 051f 8d3d 3292 183e fcdc 7d3d f3f3 26bd
000003c0: 2a23 01be 0c27 f83c 5b05 9b3d afe7 babd
000003d0: 68d9 b0be 7dd2 06bd a648 97be de17 d8be
000003e0: afbb 05be b1b3 923e 590c f23e fd5d b93d
000003f0: 1ce5 223d 29e6 e1bd 907c babd ca62 e3be

conv1.bias f4 [32]
0.0009464396 -0.0029930614 0.003136093 -0.0027392905 -0.005760765 0.0011435106 0.0034823131 -0.0012547285
6.0378647e-05 -0.00021060437 -0.0010142088 -0.00022687289 0.0028665662 0.001035111 -0.00072957017 0.068043575
0.007614961 -0.0019110282 0.04532205 0.002377437 0.0024549484 0.0027999177 0.0013475647 0.0018735421
-0.0026815243 4.0054034e-05 -0.007976629 -0.0070522605 0.0008259996 -0.0018991797 -0.005430716 1.3577014e-06
00000000: 7d1a 783a 3d27 44bb e986 4d3b ab85 33bb
00000010: cdc4 bcbb d9e1 953a 8537 643b b475 a4ba
00000020: 143f 7d38 aed5 5cb9 33ef 84ba bae4 6db9
00000030: 00dd 3b3b 90ac 873a a040 3fba 6e5a 8b3d
00000040: ec86 f93b 777b faba 9da3 393d c6ce 1b3b
00000050: 33e3 203b d37e 373b c5a0 b03a a491 f53a
00000060: 83bc 2fbb b1ff 2738 68b0 02bc a616 e7bb
00000070: e587 583a e5ed f8ba 26f4 b1bb 443a b635

conv2.weight f4 [32, 32, 3, 3]
-0.3801205 -0.13346128 0.210864 0.100673325 0.25692633 -0.1523569 -0.19590718 -0.009773271
0.043117806 -0.025963165 -0.27432284 0.05182379 0.21659973 0.030742683 0.13407387 0.13291886
-0.14962295 0.19567743 0.0005814288 -0.0066156513 -0.2640898 -0.16300341 0.027006764 0.053411435
0.032631163 0.11727409 -0.008067363 -0.23775609 -0.22506297 -0.13161917 -0.20204604 -0.44485295
0.27763325 -0.054179855 0.13803352 0.3281846 0.14865519 0.08397113 0.04521174 0.14452334
0.14121191 -0.24567324 -0.08868465 -0.14232247 0.13508955 0.14948834 -0.12447165 -0.39142087
0.12380123 0.03520583 -0.053900912 0.120002076 0.27801806 0.15600672 0.36588556 0.07526843
-0.3107579 -0.052745767 0.10476664 0.025543887 -0.072780035 0.005084107 -0.3234538 -0.19732065
-0.052481834 0.011087903 0.3531094 0.021384114 -0.11631757 -0.043577615 0.061958417 0.07043505
-0.11195404 0.06354728 0.30453035 -0.06101202 0.05948508 -0.046452083 -0.10841167 -0.17076576
-0.09849501 0.19430323 -0.16772933 0.06641846 -0.014589944 0.0752531 -0.21438648 0.036883503
0.2919458 -0.00104329 0.06602939 -0.028976891 -0.15050535 0.10829266 0.43466392 -0.42531484
0.057829678 -0.01801713 -0.113608845 0.18686558 0.020538462 0.024749193 0.28036714 0.040780503
-0.10699254 -0.0731528 -0.121681385 -0.08772292 -0.13429826 -0.042714763 0.07195621 0.42979878
0.21362187 -0.20389238 -0.124114044 -0.25104007 -0.18513523 -0.15051574 0.11043574 0.6264989
0.2490097 0.048182976 0.123004004 0.0511163 -0.4260369 -0.026426198 0.14415158 0.10881188
0.039745204 0.28039598 -0.13745596 0.053982686 0.007997557 -0.20622365 0.015391263 -0.1493532
-0.08229124 -0.08349847 -0.013403095 0.16341749 0.39564362 -0.12771714 -0.11146865 -0.05897664
-0.22450922 -0.110274255 -0.17313056 0.13504289 0.04621887 -0.14260714 0.0905431 -0.0067320974
0.0054874835 -0.09333836 0.09592609 -0.11384577 -0.44679326 0.18655765 -0.23709881 0.21627258
-0.051268086 0.058676004 -0.09176685 -0.09796369 -0.02807386 0.03512309 0.1219471 0.27270955
-0.16905807 -0.15297075 -0.07937526 0.16036305 -0.0027112113 -0.063785516 0.054035015 0.0095757535
0.03597797 -0.2793512 -0.11690491 -0.1530182 -0.0724942 -0.021273956 0.119082324 -0.0042372947
0.21721841 -0.15558992 -0.07193685 0.11651849 0.035548475 0.11529148 -0.26933947 0.013932806
-0.07980346 -0.03070745 -0.038331553 0.006934817 -0.10242493 0.085494146 -0.16342676 0.13443597
-0.06834057 0.41201767 0.17830946 -0.006791491 -0.22025222 -0.020797685 -0.01781191 -0.07192252
-0.12800272 0.29939008 -0.37741554 -0.19208945 -0.057404894 0.18151055 0.20125268 0.009200253
0.10708497 0.049264614 0.18135546 0.020643037 -0.12178316 -0.024441322 0.065875374 -0.3389594
-0.14517193 0.32390112 0.09104074 0.094404586 0.14402299 0.03778465 -0.19500126 -0.237099
0.14271033 -0.0093951505 0.049937565 -0.0063665067 -0.107203 0.08928173 0.079286635 -0.20269337
-0.1577001 0.25117174 -0.0456718 0.043563064 -0.16105652 -0.033730637 -0.1170494 -0.24556847
0.11340826 0.03474867 0.12238665 0.2081019 0.3706466 0.24207161 -0.3171628 -0.33333424
00000000: 279f c2be 13aa 08be bbec 573e d12d ce3d
00000010: d98b 833e 7203 1cbe e49b 48be 1220 20bc
00000020: 4c9c 303d b4b0 d4bc 0b74 8cbe 2f45 543d
00000030: 52cc 5d3e 14d8 fb3c a94a 093e e21b 083e
00000040: c236 19be aa5f 483e 076b 183a 1bc8 d8bb
00000050: c736 87be 5eea 26be 4a3d dd3c f3c5 5a3d
00000060: 41a8 053d 662d f03d f92c 04bc 5576 73be
00000070: e876 66be 2dc7 06be 28e5 4ebe c4c3 e3be
00000080: f225 8e3e b2eb 5dbd a958 0d3e d007 a83e
00000090: 1139 183e 0ef9 ab3d f22f 393d edfd 133e
000000a0: db99 103e c491 7bbe 4ca0 b5bd fbbc 11be
000000b0: ea54 0a3e 7913 193e feea febd 5168 c8be
000000c0: 808b fd3d fd33 103d 34c7 5cbd a6c3 f53d
000000d0: 6258 8e3e 3ac0 1f3e 5a55 bb3e 5626 9a3d
000000e0: a91b 9fbe f20b 58bd e48f d63d 6a41 d13c
000000f0: b30d 95bd 9598 a63b bd9b a5be 6d0e 4abe
00000100: 31f7 56bd 09aa 353c c1ca b43e bd2d af3c
00000110: e837 eebd 717e 32bd 1cc8 7d3d 4040 903d
00000120: 2948 e5bd 1425 823d 67eb 9b3e bde7 79bd
00000130: a1a6 733d 8a44 3ebd f006 debd 38dd 2ebe
00000140: c0b7 c9bd 6df7 463e 3dc1 2bbe 6706 883d
00000150: a90a 6fbc 4c1e 9a3d 2188 5bbe 2813 173d
00000160: eb79 953e 01bf 88ba 6b3a 873d f260 edbc
00000170: 131e 1abe 8bc8 dd3d 458c de3e dec2 d9be
00000180: d0de 6c3d a998 93bc c1ab e8bd b159 3f3e
00000190: 4740 a83c d2be ca3c 488c 8f3e 7509 273d
000001a0: e81e dbbd 23d1 95bd 1734 f9bd 13a8 b3bd
000001b0: 7c85 09be adf5 2ebd c75d 933d 960e dc3e
000001c0: b1bf 5a3e 2ac9 50be 812f febd 5388 80be
000001d0: 1794 3dbe cc20 1abe 222c e23d 3b62 203f
000001e0: 66fc 7e3e 835b 453d 86e9 fb3d 535f 513d
000001f0: 8221 dabe c17b d8bc 799c 133e c3d8 de3d
00000200: decb 223d 1090 8f3e 41c1 0cbe f31c 5d3d
00000210: 2f08 033c 4b2c 53be a32b 7c3c 0cf0 18be
00000220: 4f88 a8bd 3f01 abbd a898 5bbc ea56 273e
00000230: cd91 ca3e 48c8 02be ad49 e4bd 7d91 71bd
00000240: bfe5 65be 78d7 e1bd 2349 31be af48 0a3e
00000250: ff4f 3d3d 9b07 12be a96e b93d ed98 dcbb
00000260: 59d0 b33b 2f28 bfbd e674 c43d f927 e9bd
00000270: 16c2 e4be f808 3f3e 08ca 72be 8f76 5d3e
00000280: 7cfe 51bd 4056 703d 42f0 bbbd 30a1 c8bd
00000290: 27fb e5bc 3bdd 0f3d 67bf f93d 96a0 8b3e
000002a0: 8f1d 2dbe 5da4 1cbe 7f8f a2bd 3636 243e
000002b0: 94ae 31bb fba1 82bd d253 5d3d 9fe3 1c3c
000002c0: a35d 133d 1f07 8fbe d76b efbd ceb0 1cbe
000002d0: d777 94bd b846 aebc 6fe1 f33d 01d9 8abb
000002e0: 816e 5e3e f752 1fbe a153 93bd 3fa1 ee3d
000002f0: 479b 113d f11d ec3d dde6 89be 6d46 643c
00000300: ff6f a3bd 318e fbbc 8c01 1dbd 763d e33b
00000310: 29c4 d1bd 8e17 af3d 5859 27be 95a9 093e
00000320: 24f6 8bbd fbf3 d23e c196 363e 288b debb
00000330: cc89 61be e85f aabc 48ea 91bc 1d4c 93bd
00000340: 2513 03be a849 993e 9c3c c1be 19b3 44be
00000350: 6521 6bbd e7dd 393e 2f15 4e3e a8bc 163c
00000360: 5d4f db3d b1c9 493d 3fb5 393e 961b a93c
00000370: 7369 f9bd 2b39 c8bc abe9 863d 168c adbe
00000380: f3a7 14be 5ed6 a53e 9173 ba3d 3157 c13d
00000390: c37a 133e 14c4 1a3d 69ae 47be 15ca 72be
000003a0: a822 123e 1eee 19bc 558b 4c3d 219e d0bb
000003b0: 3f8d dbbd 57d9 b63d 0861 a23d da8e 4fbe
000003c0: 237c 21be 9599 803e 5a12 3bbd 2f6f 323d
000003d0: 00ec 24be 2329 0abd 99b7 efbd 4d76 7bbe
000003e0: 9742 e83d 9f54 0e3d daa5 fa3d aa18 553e
000003f0: 64c5 bd3e 9fe1 773e 2a63 a2be c9aa aabe

conv2.bias f4 [32]
-0.01706949 -0.0012907339 -0.0071538086 -0.00526654 -0.05206716 -0.0013109663 -0.008693511 -0.0033425463
0.0018455092 -0.011769338 -0.02778863 -0.018147368 0.029197495 -0.0059714164 -0.034907203 -0.016407298
-0.004573425 -0.0047431216 0.00563323 0.0034578315 -0.013797931 -0.0074629704 -0.0098165395 -0.006929034
0.003685661 -0.0157982 -0.0087509155 -0.0142112365 0.012006424 -0.0022083684 0.00020946351 0.0066654403
00000000: 51d5 8bbc d82d a9ba 7f6a eabb f192 acbb
00000010: 6044 55bd bbd4 abba 3a6f 0ebc 9f0e 5bbb
00000020: 03e5 f13a 2ed4 40bc fba4 e3bc caa9 94bc
00000030: 962f ef3c dfab c3bb dbfa 0ebd 9968 86bc
00000040: abdc 95bb 306c 9bbb f596 b83b c99c 623b
00000050: b810 62bc ef8b f4bb 8dd5 20bc f30c e3bb
00000060: 218b 713b 3a6b 81bc 0060 0fbc 3fd6 68bc
00000070: 98b6 443c 46ba 10bb 6fa3 5b39 c469 da3b

conv3.weight f4 [32, 32, 3, 3]
-0.0916767 -0.0474979 -0.18870082 -0.021658057 0.124973536 0.09402383 0.08811521 -0.1811627
-0.07496604 0.08105715 -0.005874552 0.18862028 -0.19626695 -0.16587299 0.11381924 0.080830894
-0.06944706 -0.2618409 -0.050434567 -0.046799365 0.18919665 0.14422087 0.13828987 -0.063145824
-0.02183823 -0.09122726 0.06528445 -0.0011478541 -0.21812473 -0.4232511 0.10228988 -0.206445
-0.19887798 0.38656917 0.08471928 -0.36857215 0.22436059 0.021075252 -0.3135494 0.016785972
-0.17159864 -0.12524985 0.1804152 -0.09904651 -0.008941225 -0.10582026 0.027022868 -0.031753793
0.13154489 0.10464606 -0.14962932 -0.31531414 0.016050449 0.07493053 0.115950815 0.023990916
-0.14420292 0.17443241 -0.05986447 0.04055204 -0.04236723 0.14072655 0.033347856 -0.09639881
-0.18113679 -0.076232225 0.1742046 -0.13807943 -0.1253593 -0.076170325 0.033072136 -0.01988669
0.049015 -0.14295357 0.10386429 0.15455726 0.004657701 0.19436058 -0.077656195 0.19873005
-0.12511432 0.06481303 -0.047373455 -0.11425679 0.01965236 -0.089431554 -0.09116349 -0.0977443
-0.36614385 0.37069845 -0.24425998 -0.034494672 -0.19087848 0.104666166 0.23793952 -0.22114536
-0.18063618 -0.1813886 0.22070858 0.19728555 0.07803458 -0.15464245 0.30388147 0.22337216
0.024842866 0.03748374 0.18855141 -0.121364415 -0.14353529 0.2336893 0.121280074 -0.123753525
0.10719226 0.013337688 0.05986057 0.18160048 -0.054930024 -0.13680589 0.0440682 0.21325447
-0.03219237 0.0024621054 0.065697394 -0.09248237 0.017786952 0.51117736 -0.00805561 0.26846492
-0.06877673 -0.061746735 0.10525381 -0.14915745 -0.10558751 0.12954865 0.13270469 0.2123268
-0.057602074 -0.009910145 -0.21330641 0.050935 0.2621108 0.08177659 -0.0060061226 -0.45841601
0.000840214 -0.05757008 0.1603093 -0.21150132 0.20614165 -0.12343653 -0.03486486 0.111344345
-0.30869213 -0.33197802 -0.21726896 0.21991137 -0.20976199 0.14192246 0.11615725 -0.01151659
-0.062116545 0.019257698 0.02564306 -0.055744212 -0.21446735 0.06766623 -0.035676684 -0.1609111
0.032649387 0.12796691 -0.29045135 -0.0038685158 0.11849632 0.07489547 -0.23761557 -0.13785735
-0.11265883 -0.16693972 -0.12658195 -0.08453948 0.0976519 -0.33832374 -0.21451227 -0.1517675
0.3773401 -0.097129874 -0.07999977 -0.073911734 -0.15203886 0.13347691 -0.0440203 -0.22088593
0.04691987 -0.0878387 -0.14655794 0.13483699 0.1923646 -0.0007092363 0.12291254 -0.004038369
-0.33895653 -0.17036928 -0.025864098 0.006426037 -0.09612986 0.309167 -0.047613293 0.17649165
0.13434733 -0.38640365 0.34314704 -0.32763746 -0.055473417 0.015381604 -0.12416819 -0.1342032
0.12553172 -0.021762788 0.17228393 -0.16500783 -0.11639188 0.077568896 -0.25154907 0.018713966
0.23907681 0.016921148 -0.08667991 0.2438185 -0.026106732 -0.08857147 0.10699013 -0.012449934
0.08513066 -0.12522082 -0.33046442 0.2532769 0.18018974 -0.12804917 -0.13378455 0.012393477
0.14980404 -0.018721942 0.1778384 0.09609507 0.04612696 0.27463108 0.05355852 -0.12699708
-0.1853695 0.096904755 -0.4337115 0.034094587 -0.18777885 0.008661864 0.19349283 -0.27690154
00000000: fec0 bbbd 288d 42bd ca3a 41be 3d6c b1bc
00000010: 20f2 ff3d 918f c03d bf75 b43d b782 39be
00000020: cc87 99bd 4b01 a63d 507f c0bb ad25 413e
00000030: 34fa 48be 9cda 29be 101a e93d ab8a a53d
00000040: 433a 8ebd 0310 86be 7a94 4ebd b1b0 3fbd
00000050: c4bc 413e a3ae 133e dc9b 0d3e 9952 81bd
00000060: 16e6 b2bc 5cd5 babd dbb3 853d 9873 96ba
00000070: 175c 5fbe 5eb4 d8be 5b7d d13d 5166 53be
00000080: aba6 4bbe 65ec c53e 4d81 ad3d 7db5 bcbe
00000090: c8be 653e 02a6 ac3c 8c89 a0be bc82 893c
000000a0: 8eb7 2fbe 7f41 00be c3be 383e e6d8 cabd
000000b0: 377e 12bc 4bb8 d8bd 105f dd3c 4410 02bd
000000c0: b4b3 063e ac50 d63d 6e38 19be db70 a1be
000000d0: 3b7c 833c 2d75 993d 9f77 ed3d 9988 c43c
000000e0: eea9 13be 699e 323e 7234 75bd e519 263d
000000f0: 4389 2dbd 9f1a 103e c397 083d bd6c c5bd
00000100: ec7b 39be a41f 9cbd b162 323e b264 0dbe
00000110: 305e 00be 30ff 9bbd a676 073d 69e9 a2bc
00000120: f4c3 483d 6c62 12be cdb6 d43d 4244 1e3e
00000130: a19f 983b 7606 473e 360a 9fbd e47f 4b3e
00000140: f81d 00be b2bc 843d ab0a 42bd 77ff e9bd
00000150: fcfd a03c e427 b7bd edb3 babd 2a2e c8bd
00000160: 3577 bbbe 30cc bd3e 4a1f 7abe 494a 0dbd
00000170: a675 43be 375b d63d 6ba6 733e ee73 62be
00000180: b1f8 38be efbd 39be 6e01 623e 3905 4a3e
00000190: 98d0 9f3d 975a 1ebe 5a96 9b3e acbb 643e
000001a0: 4483 cb3c 8d88 193d 9f13 413e e88d f8bd
000001b0: eafa 12be 3f4c 6f3e b061 f83d 7d72 fdbd
000001c0: 9e87 db3d 5186 5a3c 5b30 753d 7af5 393e
000001d0: 4efe 60bd d816 0cbe db80 343d 615f 5a3e
000001e0: 26dc 03bd 465b 213b 5b8c 863d 6667 bdbd
000001f0: f1b5 913c 85dc 023f adfb 03bc 3c74 893e
00000200: d0da 8cbd 25ea 7cbd 4f8f d73d bbbc 18be
00000210: 443e d8bd 67a8 043e bde3 073e 326c 593e
00000220: 27f0 6bbd 295e 22bc ff6c 5abe 38a1 503d
00000230: 6333 863e 7c7a a73d 02cf c4bb 81b5 eabe
00000240: cf41 5c3a 9bce 6bbd 1f28 243e cd93 58be
00000250: cc16 533e 4bcc fcbd 75ce 0ebd 8108 e43d
00000260: e50c 9ebe 06f9 a9be c17b 5ebe 7230 613e
00000270: d9cb 56be 1f54 113e dae3 ed3d 14b0 3cbc
00000280: eb6d 7ebd 52c2 9d3c 6511 d23c 0b54 64bd
00000290: 549d 5bbe 9894 8a3d b721 12bd e1c5 24be
000002a0: 5dbb 053d c209 033e 0ab6 94be ed86 7dbb
000002b0: 33ae f23d cc62 993d 7f51 73be 7a2a 0dbe
000002c0: acb9 e6bd 3ff2 2abe b39e 01be 0923 adbd
000002d0: b8fd c73d c538 adbe 1ba9 5bbe f168 1bbe
000002e0: b932 c13e 07ec c6bd ebd6 a3bd 095f 97bd
000002f0: 13b0 1bbe 2cae 083e a14e 34bd ec2f 62be
00000300: 0d2f 403d c7e4 b3bd 4913 16be b512 0a3e
00000310: 3afb 443e 0bec 39ba 92b9 fb3d 4b54 84bb
00000320: b68b adbe 4975 2ebe f2e0 d3bc 8191 d23b
00000330: bbdf c4bd 234b 9e3e 2806 43bd 3aba 343e
00000340: 5992 093e b3d6 c5be f8b0 af3e 19c0 a7be
00000350: 1838 63bd 2003 7c3c e44b febd 906c 09be
00000360: 638b 003e e047 b2bc 336b 303e d0f7 28be
00000370: de5e eebd 71dc 9e3d 0acb 80be 084e 993c
00000380: 8dd0 743e 389e 8a3c 3d85 b1bd 8fab 793e
00000390: c9dd d5bc f564 b5bd a41d db3d cffa 4bbc
000003a0: fc58 ae3d e339 00be a232 a9be 83ad 813e
000003b0: a983 383e 521f 03be d1fe 08be 030e 4b3c
000003c0: 3b66 193e c25e 99bc 451b 363e 7ecd c43d
000003d0: a0ef 3c3d 729c 8c3e 2e60 5b3d 860b 02be
000003e0: 81d1 3dbe 0076 c63d 6f0f debe c4a6 0b3d
000003f0: 1949 40be 7eea 0d3c fc22 463e 0ac6 8dbe

conv3.bias f4 [32]
-0.082609855 -0.14118683 0.010826042 -0.097661555 -0.0703628 -0.38448477 -0.11588548 -0.14718853
-0.10923999 -0.031677183 -0.13065654 -0.09735805 -0.034047134 -0.11024572 -0.118630156 -0.030686969
-0.058172166 -0.015980985 -0.318721 -0.10161624 -0.17501108 -0.03171837 -0.15640871 -0.2430797
-0.06484302 -0.12725165 0.018972497 -0.07979282 -0.065667555 -0.08358139 0.032048844 -0.13772213
00000000: 5b2f a9bd 4893 10be b65f 313c c802 c8bd
00000010: 5f1a 90bd 30db c4be 5e55 edbd 97b8 16be
00000020: 37b9 dfbd efbf 01bd d4ca 05be a863 c7bd
00000030: 0275 0bbd 82c8 e1bd 5ef4 f2bd 3d63 fbbc
00000040: f045 6ebd 8eea 82bc 662f a3be 2d1c d0bd
00000050: 1b36 33be 1feb 01bd 9b29 20be e3e9 78be
00000060: 6bcc 84bd 424e 02be 366c 9b3c 6b6a a3bd
00000070: b67c 86bd b82c abbd a645 033d 0807 0dbe

conv4.weight f4 [32, 32, 3, 3]
0.35377476 -0.09068135 0.08799815 -0.1355742 0.06976567 -0.08102297 -0.16185255 -0.14271067
-0.27549616 -0.1249615 -0.21659751 0.03160176 -0.06875121 0.10035609 -0.1680341 -0.055260487
0.07255385 0.016588408 -0.21059407 0.19310229 0.06644151 -0.15186837 -0.09746304 0.098691195
0.120854594 0.06059598 -0.008941036 0.19363654 0.07485859 -0.060121387 0.18216869 -0.25203946
-0.072633974 -0.07660022 -0.1171723 0.114702456 0.16852567 -0.21197408 -0.14562021 0.07107326
-0.19801132 0.16124652 0.15684904 -0.12047004 0.05879335 0.26071602 -0.061802585 0.06355981
-0.044067487 0.004907261 0.14929737 -0.047120996 -0.024589041 -0.07871094 0.25063863 -0.20534857
-0.066556044 -0.06571442 -0.013553332 -0.026002673 -0.1114237 0.21807587 0.068767644 0.094453916
-0.034646932 0.11421643 0.10945313 0.05104993 0.09675623 -0.069507964 0.037767883 0.21440522
0.062629074 -0.0027472305 -0.11064383 0.08308398 0.25431788 -0.031009873 -0.0752301 0.12812507
-0.061843198 0.15548134 -0.35105583 -0.036802154 -0.19314124 0.2894014 0.092462935 -0.11071902
0.11587319 0.10571466 0.21480083 0.097638555 0.14368124 -0.11283123 0.061384987 -0.20289752
0.0680384 -0.25683942 0.25064307 -0.07594565 0.22506115 0.08119282 0.3345702 -0.33787864
-0.27493253 0.06391903 -0.00075124355 -0.022859499 -0.17272706 0.02780172 0.26694182 -0.033506498
-0.046766263 0.08342139 -0.046860375 0.026233394 0.03687922 0.40543166 -0.38545364 0.09480324
0.10419862 -0.28509066 0.21413888 -0.040357813 -0.17534018 -0.099579 0.111264445 -0.10813558
-0.108396396 0.00260078 -0.118609235 0.11469078 -0.06983936 0.25342757 -0.07782488 0.02027536
-0.025401223 0.20301552 -0.2701899 0.28685087 -0.18022233 -0.23203954 0.13792664 -0.07497235
-0.14754742 -0.1318325 -0.12987262 -0.08505791 0.3020664 0.13256812 0.21564612 -0.34743655
-0.024729248 -0.16502863 0.0001610244 -0.02388682 -0.05446823 -0.19044769 0.14465657 -0.10621415
-0.2386178 0.0753324 0.1783803 -0.041939102 -0.075344935 0.03301837 -0.06143067 -0.24769887
-0.054547902 -0.14094721 0.14991885 -0.15581644 0.017480398 -0.022777826 -0.04179032 0.1755259
-0.09343969 0.25125518 -0.22130004 -0.07963353 -0.030530557 0.10492188 0.2532425 0.15506077
-0.053151574 -0.3469996 -0.12578665 -0.06407464 0.05223446 -0.10170038 -0.19054702 -0.07284916
0.09655329 -0.044375133 0.13140304 0.2722254 0.18773326 -0.2573691 0.08431111 0.2621573
-0.22106515 -0.21160366 0.55581284 -0.100742266 0.036727462 -0.35027397 0.03826578 -0.06130243
-0.14542128 -0.14542195 0.11038652 -0.11623335 -0.09756993 -0.113577634 -0.07350189 0.19121319
0.057435706 0.093030475 0.022265082 -0.31250563 -0.055285335 0.13060977 0.0077406922 0.20281115
0.095095284 0.082286745 -0.28679383 0.021475704 -0.13809863 0.07802829 0.14492385 -0.10142253
0.39797062 -0.2112051 -0.0075865365 -0.038434166 0.106040955 0.24850766 0.28042203 0.012558115
-0.19525541 -0.09548527 0.25778985 0.15276428 -0.28908044 0.18881194 -0.06570568 -0.054019254
0.1929228 -0.112837955 0.1379382 -0.31348124 0.065645926 -0.0295323 0.12180383 -0.29809478
00000000: f721 b53e 25b7 b9bd 6038 b43d f7d3 0abe
00000010: 4ee1 8e3d 5fef a5bd adbc 25be bf22 12be
00000020: d50d 8dbe d1eb ffbd bdcb 5dbe d970 013d
00000030: 6fcd 8cbd 7e87 cd3d 2211 2cbe d258 62bd
00000040: 1d97 943d 6ae4 873c f9a5 57be 9bbc 453e
00000050: 7d12 883d 6283 1bbe b49a c7bd 9c1e ca3d
00000060: 9d82 f73d 7e33 783d 6c7d 12bc a848 463e
00000070: 764f 993d d841 76bd 6e8a 3a3e 510b 81be
00000080: 1fc1 94bd 93e0 9cbd 08f8 efbd 1fe9 ea3d
00000090: fe91 2c3e bc0f 59be 771d 15be db8e 913d
000000a0: 7bc3 4abe cf1d 253e 099d 203e ffb8 f6bd
000000b0: 4cd1 703d 927c 853e b524 7dbd a52b 823d
000000c0: 1c80 34bd 17cd a03b 69e1 183e f201 41bd
000000d0: f56e c9bc 3433 a1bd b553 803e e546 52be
000000e0: 894e 88bd 4895 86bd cb0e 5ebc 8f03 d5bc
000000f0: 1c32 e4bd 484f 5f3e 0dd6 8c3d 0e71 c13d
00000100: f1e9 0dbd 4eea e93d f628 e03d bb19 513d
00000110: 2128 c63d 315a 8ebd 7fb2 1a3d 0b8d 5b3e
00000120: ac43 803d e10a 34bb 3b99 e2bd ef27 aa3d
00000130: f435 823e 6b08 febc 3d12 9abd 3833 033e
00000140: 4b4f 7dbd 8036 1f3e 97bd b3be dbbd 16bd
00000150: d1c6 45be 6c2c 943e 355d bd3d a7c0 e2bd
00000160: ec4e ed3d ed80 d83d c0f4 5b3e b9f6 c73d
00000170: 2d21 133e 0f14 e7bd d36e 7b3d 5ec4 4fbe
00000180: b757 8b3d 7580 83be 4a54 803e 6589 9bbd
00000190: 6e76 663e 6c48 a63d c94c ab3e 6efe acbe
000001a0: f5c3 8cbe fbe7 823d 1aef 44ba d843 bbbc
000001b0: 5ddf 30be 6fc0 e33c 99ac 883e 1c3e 09bd
000001c0: fb8d 3fbd d5d8 aa3d aaf0 3fbd 6ae7 d63c
000001d0: aa0e 173d bd94 cf3e 2e5a c5be 3328 c23d
000001e0: 1666 d53d 67f7 91be 3947 5b3e 3c4e 25bd
000001f0: 608c 33be 13f0 cbbd 9dde e33d 3076 ddbd
00000200: eefe ddbd d971 2a3b 66e9 f2bd 00e3 ea3d
00000210: f007 8fbd 42c1 813e a762 9fbd 8318 a63c
00000220: 3a16 d0bc 4de3 4f3e 5556 8abe 1ede 923e
00000230: 348c 38be c69b 6dbe a43c 0d3e 1a8b 99bd
00000240: ac16 17be 19ff 06be 54fd 04be d732 aebd
00000250: 72a8 9a3e f0bf 073e 56d2 5c3e 34e3 b1be
00000260: fe94 cabc 44fd 28be a9d8 2839 4bae c3bc
00000270: 141a 5fbd b804 43be da20 143e ce86 d9bd
00000280: 3958 74be e047 9a3d 53a9 363e 56c8 2bbd
00000290: 724e 9abd 453e 073d ba9e 7bbd c6a4 7dbe
000002a0: 9f6d 5fbd 7754 10be 5484 193e 588e 1fbe
000002b0: 0d33 8f3c 9098 babc 542c 2bbd 10bd 333e
000002c0: 4f5d bfbd 85a4 803e 7a9c 62be e716 a3bd
000002d0: 381b fabc 48e1 d63d 00a9 813e 40c8 1e3e
000002e0: 77b5 59bd eea9 b1be 37ce 00be 9139 83bd
000002f0: cdf3 553d 4a48 d0bd c21e 43be f131 95bd
00000300: bbbd c53d b3c2 35bd 858e 063e 2161 8b3e
00000310: 263d 403e e2c5 83be 4eab ac3d 7b39 863e
00000320: e75e 62be a1ae 58be c049 0e3f f651 cebd
00000330: 896f 163d 1c57 b3be 94bc 1c3d 4218 7bbd
00000340: 51e9 14be 7ee9 14be 5412 e23d c00b eebd
00000350: bed2 c7bd 649b e8bd 2988 96bd 64cd 433e
00000360: b441 6b3d c386 be3d 4365 b63c bd00 a0be
00000370: e072 62bd 91be 053e a2a5 fd3b baad 4f3e
00000380: 51c1 c23d f485 a83d a4d6 92be d1ed af3c
00000390: ba69 0dbe 4ccd 9f3d eb66 143e 9eb6 cfbd
000003a0: cec2 cb3e 2646 58be 7b98 f8bb 256d 1dbd
000003b0: 002c d93d cb78 7e3e 7a93 8f3e 8dc0 4d3c
000003c0: 09f1 47be c88d c3bd 08fd 833e 3d6e 1c3e
000003d0: 5a02 94be eb57 413e b390 86bd 4b43 5dbd
000003e0: 8e8d 453e 9617 e7bd ac3f 0d3e 9d80 a0be
000003f0: 5f71 863d b9ed f1bc 4974 f93d e19f 98be

conv4.bias f4 [32]
-0.49360782 -0.32333615 -0.13611752 -0.22617988 -0.53676015 -0.3384483 -0.27721137 -0.24145418
-0.15397741 -0.29009765 -0.19059458 -0.38417557 -0.31412145 -0.22817388 -0.34070545 -0.48328653
-0.33561778 -0.3906299 -0.3700116 -0.12470335 -0.10331479 -0.28089264 -0.36342466 -0.406452
-0.12934043 -0.2765774 -0.30455485 -0.5980363 -0.15923505 -0.10693404 -0.28782773 -0.46999568
00000000: 2aba fcbe 518c a5be 6462 0bbe b39b 67be
00000010: 1d69 09bf 1849 adbe a6ee 8dbe c43f 77be
00000020: 41ac 1dbe ae87 94be 3a2b 43be a9b2 c4be
00000030: 87d4 a0be 6aa6 69be f270 aebe 5571 f7be
00000040: 18d6 abbe a400 c8be 2972 bdbe 7864 ffbd
00000050: b496 d3bd 29d1 8fbe cc12 babe 7a1a d0be
00000060: d171 04be 8e9b 8dbe 9dee 9bbe e818 19bf
00000070: 830e 23be 3c00 dbbd 285e 93be 46a3 f0be

linear.weight f4 [32, 800]
-0.027076686 0.105686136 -0.036080547 -0.05346879 -0.03265609 -0.29837307 0.13131766 0.013002527
-0.0025208099 0.05869161 0.18941075 -0.10194419 -0.09086939 -0.06858278 0.20903799 0.19845147
0.1667473 -0.060470786 -0.061727487 -0.1261138 -0.086450174 -0.046781562 -0.08016351 -0.059715044
-0.058597382 0.2756139 -0.10994272 0.07021 -0.09713027 0.007122536 -0.4140312 0.057642363
-0.088576205 -0.0033299802 0.23448518 0.20533136 0.0725257 -0.09036561 -0.03583818 -0.015891982
0.08270715 -0.38439852 -0.08320329 -0.06833598 0.0901162 -0.09615654 -0.047255334 0.012050497
-0.0073291673 -0.020923793 -0.12592812 0.0020114642 0.035813984 -0.055072132 -0.007970358 0.2677627
0.037699968 -0.015739948 -0.013467443 -0.007926813 0.07724828 0.05611149 0.05416314 0.0088092815
0.0111540295 -0.08199552 -0.0376858 0.04220588 -0.05475665 -0.12182554 -0.08198408 -0.022004522
0.0020981492 -0.031454228 0.012773035 0.29151854 -0.03542318 0.12884903 0.01211407 -0.2100887
-0.22177976 0.060838737 -0.09302058 -0.08858442 0.09330483 0.02648541 -0.047920287 -0.08474034
0.069839634 -0.12233137 0.12057918 -0.044297967 0.18844391 0.08276566 0.11740031 -0.026601812
-0.06913666 -0.076876946 -0.093109556 -0.10590413 -0.3198218 0.27630502 0.010696061 0.10056218
0.10212131 -0.28295735 0.35292923 0.14238846 0.15334328 0.13034786 -0.27984706 0.54334784
0.19509664 0.12008152 0.32514542 -0.32972547 -0.30599296 -0.2623087 -0.24300301 -0.38795534
-0.35174835 -0.41335765 -0.37878165 -0.40576926 -0.42801377 -0.042253945 0.022506667 0.023026573
-0.06397775 0.12591413 0.07380324 0.24515939 -0.03787477 -0.094051525 -0.026870245 -0.14172815
-0.4869181 0.042687703 0.05860903 0.12534185 -0.18746503 -0.12370614 -0.09929454 -0.1444139
-0.121431105 -0.0074468977 0.09362312 0.057437178 0.046128973 0.10682544 -0.12736465 0.11305054
-0.14696781 -0.016937561 0.21452574 0.28170902 0.22781917 -0.13803871 -0.13176051 0.163328
-0.22541454 0.1520165 -0.072731376 -0.07692372 -0.14581393 -0.02707844 0.019145621 -0.05530282
0.1509804 0.016821079 0.15242141 -0.017176267 -0.017974623 -0.07028787 -0.04916812 0.3270406
-0.19001381 0.06916334 -0.0034909372 -0.080125816 -0.25022638 0.13907446 0.03313374 0.047844246
0.10577042 0.014375694 -0.045884445 -0.037573926 -0.014437111 0.22646813 -0.045155514 0.046343386
0.14151044 0.024398787 -0.19807985 0.007109993 -0.007646363 -0.035893463 -0.04130416 -0.0052127605
-0.07949609 -0.010822832 -0.03143243 0.13684605 0.013692266 -0.022685459 0.07746581 -0.038550302
-0.061607182 0.24814424 0.14738561 0.023113035 -0.040654916 -0.020773748 0.22433692 -0.0094468305
-0.0093500735 0.16603939 -0.1868208 -0.2856773 0.0013186685 -0.05370146 -0.021080332 -0.0581466
-0.025068417 0.05689058 0.17486502 -0.08550447 -0.15905493 0.045774546 -0.21386333 0.04523385
-0.0035846138 -0.17368945 0.056570597 0.085139155 0.2142279 -0.06202584 -0.06632525 0.03773214
0.061073236 -0.114118405 0.022475488 0.018032312 -0.011997049 0.025295803 -0.061395414 -0.08146623
-0.03787265 -0.058916043 -0.03361739 -0.06570922 0.0542542 0.05643378 -0.03369979 0.13283132
00000000: edcf ddbc f971 d83d 32c9 13bd 1702 5bbd
00000010: 64c2 05bd 5bc4 98be 2378 063e 8d08 553c
00000020: 2c34 25bb 9d66 703d e4f4 413e 1ec8 d0bd
00000030: bb19 babd 2175 8cbd 0e0e 563e dd36 4b3e
00000040: cebf 2a3e 37b0 77bd f6d5 7cbd fa23 01be
00000050: ca0c b1bd 069e 3fbd c42c a4bd c397 74bd
00000060: cf03 70bd 441d 8d3e a629 e1bd 43ca 8f3d
00000070: 3cec c6bd 2a64 e93b e6fb d3be 661a 6c3d
00000080: 7167 b5bd cc3b 5abb e21c 703e 6242 523e
00000090: 5b88 943d 9b11 b9bd 0ecb 12bd e72f 82bc
000000a0: 5e62 a93d e2cf c4be 7d66 aabd bcf3 8bbd
000000b0: d88e b83d b8ed c4bd cf8e 41bd 736f 453c
000000c0: 8329 f0bb 6068 abbc 4df3 00be c5d2 033b
000000d0: afb1 123d 5193 61bd 1b96 02bc 3118 893e
000000e0: 486b 1a3d 10f1 80bc 8da6 5cbc 77df 01bc
000000f0: 5934 9e3d 29d5 653d 2bda 5d3d ce54 103c
00000100: 64bf 363c 44ed a7bd 6d5c 1abd 13e0 2c3d
00000110: 8248 60bd ab7f f9bd 45e7 a7bd d442 b4bc
00000120: 1a81 093b 26d6 00bd fe45 513c eb41 953e
00000130: e517 11bd 00f1 033e 187a 463c 7e21 57be
00000140: 3c1a 63be 0a32 793d 9381 bebd c06b b5bd
00000150: 9a16 bf3d eef7 d83c 1048 44bd 588c adbd
00000160: 1508 8f3d df88 fabd 38f2 f63d c971 35bd
00000170: 71f7 403e 0b81 a93d 936f f03d 0bec d9bc
00000180: 8597 8dbd a971 9dbd 39b0 bebd 44e4 d8bd
00000190: afbf a3be da77 8d3e 883e 2f3c 8bf3 cd3d
000001a0: fa24 d13d c9df 90be 24b3 b43e 48ce 113e
000001b0: 0506 1d3e e979 053e 1d48 8fbe d818 0b3f
000001c0: 6ac7 473e 4ded f53d 7679 a63e c7d1 a8be
000001d0: 1cab 9cbe 534d 86be c8d5 78be 15a2 c6be
000001e0: 5c18 b4be 9da3 d3be abef c1be fdc0 cfbe
000001f0: 9f24 dbbe 7912 2dbd e75f b83c 39a2 bc3c
00000200: c406 83bd a2ef 003e 2726 973d 100b 7b3e
00000210: 9322 1bbd 169e c0bd fd1e dcbc 2f21 11be
00000220: 544d f9be 4dd9 2e3d 0610 703d 9d59 003e
00000230: d5f6 3fbe a559 fdbd f05a cbbd 3de1 13be
00000240: dfb0 f8bd 1b05 f4bb 7abd bf3d 3f43 6b3d
00000250: bcf1 3c3d 4cc7 da3d e16b 02be 0b87 e73d
00000260: bb7e 16be a4c0 8abc a3ac 5b3e 2a3c 903e
00000270: 6e49 693e 055a 0dbe 3aec 06be 753f 273e
00000280: 12d3 66be 37aa 1b3e 30f4 94bd 2f8a 9dbd
00000290: 3f50 15be 9bd3 ddbc 47d7 9c3c 3685 62bd
000002a0: 9b9a 1a3e 5ccc 893c 5c14 1c3e 3eb5 8cbc
000002b0: 843f 93bc 16f3 8fbd 8364 49bd de71 a73e
000002c0: fb92 42be 82a5 8d3d 35c8 64bb 0119 a4bd
000002d0: ac1d 80be 8969 0e3e 3fb7 073d 54f8 433d
000002e0: 299e d83d 0888 6b3c 54f1 3bbd 1ee7 19bd
000002f0: a289 6cbc 43e7 673e fdf4 38bd 90d2 3d3d
00000300: 1de8 103e f7df c73c 72d5 4abe f2fa e83b
00000310: 588e fabb 0605 13bd 8d2e 29bd cecf aabb
00000320: d9ce a2bd 3f52 31bc 4bbf 00bd 5f21 0c3e
00000330: 8755 603c dbd6 b9bc 65a6 9e3d ece6 1dbd
00000340: d057 7cbd 8619 7e3e 41ec 163e 8c57 bd3c
00000350: c585 26bd b52d aabc 94b8 653e e1c6 1abc
00000360: 0d31 19bc 3b06 2a3e f44d 3fbe 4c44 92be
00000370: 2cd7 ac3a 10f6 5bbd a9b0 acbc 212b 6ebd
00000380: 485c cdbc 1906 693d d10f 333e f81c afbd
00000390: 4cdf 22be 177e 3b3d fdfe 5abe 2147 393d
000003a0: d7eb 6abb a6db 31be 92b6 673d 705d ae3d
000003b0: 8f5e 5b3e cf0e 7ebd 88d5 87bd 048d 1a3d
000003c0: ee27 7a3d e9b6 e9bd 841e b83c 80b8 933c
000003d0: 458f 44bc 2539 cf3c c279 7bbd c4d7 a6bd
000003e0: 5a20 1bbd f351 71bd 63b2 09bd 8e92 86bd
000003f0: a739 5e3d 1b27 673d ca08 0abd ef04 083e

linear.bias f4 [32]
0.5686978 -0.28560516 -0.35906175 -0.0025919792 -0.041494112 0.07728718 -0.21116072 0.07185082
0.013742445 -0.0148059325 -0.0023530838 -0.28311822 -0.047552004 0.18128352 -0.27384436 0.05441764
-0.063059166 0.20538689 0.060470834 -0.6243169 0.044498615 0.022215966 0.01599724 -0.103734605
-0.08529958 0.053755928 0.008570078 0.2340986 0.01790986 0.040264577 -0.23855256 -0.027603785
00000000: 2e96 113f d73a 92be f1d6 b7be 32de 29bb
00000010: bbf5 29bd be48 9e3d 843a 58be 8626 933d
00000020: fe27 613c 9594 72bc 3236 1abb dff4 90be
00000030: e4c5 42bd 63a2 393e 5435 8cbe 08e5 5e3d
00000040: 2a25 81bd f150 523e 44b0 773d 3bd3 1fbf
00000050: 2e44 363d 42fe b53c a50c 833c cf72 d4bd
00000060: 8cb1 aebd 2d2f 5c3d 8369 0c3c 8bb7 6f3e
00000070: b3b7 923c 78ec 243d 1f47 74be 5521 e2bc

critic_linear.weight f4 [1, 32]
0.07413607 -0.0023072963 -0.014451337 -0.004260461 -6.864026e-05 0.001247676 -0.00072592165 0.0024091515
-0.0011583914 -0.0001116673 -0.0011649246 -0.005535467 0.0015253265 -0.0011308382 0.0063360967 0.00097069016
-0.004549912 0.0066160993 0.00429861 -0.15926126 -0.00080922747 -0.0018380114 0.001451997 0.00057344214
-0.0033952103 0.003650501 -0.0029070487 -0.004298258 -0.0027489082 -0.00021195022 -0.004930206 0.0017012106
00000000: a7d4 973d 0236 17bb 4dc5 6cbc 569b 8bbb
00000010: f6f2 8fb8 0f89 a33a c74b 3eba dbe2 1d3b
00000020: 2ad5 97ba ed2e eab8 62b0 98ba dd62 b5bb
00000030: 77ed c73a a238 94ba 089f cf3b ea75 7e3a
00000040: 6e17 95bb ddcb d83b 5bdb 8c3b 6215 23be
00000050: 5622 54ba 6ee9 f0ba ef50 be3a 0d53 163a
00000060: 2d82 5ebb 3e3d 6f3b 2f84 3ebb 67d8 8cbb
00000070: 0727 34bb f43e 5eb9 918d a1bb 28fb de3a

actor_linear.weight f4 [6, 32]
0.3387463 -0.2250776 -0.45956838 0.03465784 0.008898882 0.11399312 -0.07334514 0.05524108
0.016619582 -0.058738004 -0.017074162 -0.09615929 0.029961027 0.1653285 -0.33519998 0.15962204
-0.16831009 0.09373091 0.047304194 -0.46385068 0.04731453 -0.009942755 0.0026183499 0.14638524
-0.010106976 0.08928585 0.16099916 0.2558982 0.023857934 -0.015807431 -0.13045381 0.026650477
0.3804412 -0.24177139 -0.40614685 0.02166385 0.014493801 0.06387346 -0.09859492 0.049400833
-0.0057397494 -0.01335086 0.005504459 -0.09841654 0.015472914 0.20379372 -0.40147954 0.14255278
-0.17405906 0.13208383 0.018404696 -0.45783556 0.033487193 -0.025068082 0.014262099 0.073661655
-0.011743728 0.046436444 0.13090536 0.27192068 0.05116354 -0.03200277 -0.17175236 -0.0072461893
0.34181988 -0.24293132 -0.48175526 0.019118221 -0.0014761465 0.07400951 -0.096184604 0.06562192
0.012640601 -0.039510027 0.007838039 -0.095598966 0.028047213 0.18093508 -0.2553229 0.13027804
-0.17870668 0.09744391 0.040736977 -0.45159182 0.031684414 -0.025189295 0.032069847 0.04390839
-0.0077848593 0.09092444 0.1433045 0.15398216 0.038445372 -0.025341509 -0.1813479 -0.015244283
0.46511662 -0.24018171 -0.44407332 -0.0062077167 0.009029329 0.10732264 -0.10030698 0.057563834
0.01671944 0.014818576 -0.0029057453 -0.0978189 0.024205083 0.20587885 -0.26170945 0.1154855
-0.16232505 0.14622195 0.06311962 -0.37620595 0.03814787 -0.028979976 0.015093522 0.14724769
0.019903654 0.08591107 0.18394157 0.3052504 0.03994493 -0.02490889 -0.14107718 -0.023800412
0.44372922 -0.23915075 -0.4532481 0.0076576103 -0.013048304 0.09257081 -0.075197674 0.049151383
0.016048307 -0.011501696 -0.0079783965 -0.15632613 0.019366667 0.15444894 -0.3319076 0.13379464
-0.1815192 0.1253231 0.05781828 -0.41899985 0.025629535 -0.012629523 0.009104835 0.022102185
-0.01693417 0.060942017 0.17665485 0.13642451 0.02840829 0.007238405 -0.14131644 -0.008439107
0.4588615 -0.21886334 -0.3669204 0.025919436 -0.01771459 0.08651799 -0.08567007 0.0317573
0.03170042 -0.023797499 0.008319713 -0.124702625 0.026593108 0.19344173 -0.25684673 0.1454036
-0.16872823 0.08613694 0.05491813 -0.4283723 0.046955723 -0.011205777 0.0055575944 0.119418725
0.0022178805 0.084065415 0.1530584 0.38070977 0.04361824 -0.03187361 -0.15209289 -0.018993175
00000000: 2870 ad3e be7a 66be 8c4c ebbe 61f5 0d3d
00000010: 9ecc 113c 3a75 e93d fa35 96bd 7844 623d
00000020: ca25 883c 4397 70bd 1ddf 8bbc 29ef c4bd
00000030: d470 f53c e04b 293e 559f abbe f673 233e
00000040: 7b59 2cbe fef5 bf3d 0bc2 413d d67d edbe
00000050: e1cc 413d f0e6 22bc 9f98 2b3b 03e6 153e
00000060: bb97 25bc 80db b63d f7dc 243e 1705 833e
00000070: b771 c33c 967e 81bc af95 05be 1a52 da3c
00000080: 30c9 c23e eb92 77be 7bf2 cfbe 6378 b13c
00000090: 6877 6d3c 17d0 823d 22ec c9bd 8758 4a3d
000000a0: 8214 bcbb 91bd 5abc c05e b43b 9c8e c9bd
000000b0: 1b82 7d3c 4daf 503e ba8e cdbe 5bf9 113e
000000c0: 8a3c 32be fc40 073e 72c5 963c 6c69 eabe
000000d0: de29 093d 945b cdbc 94ab 693c ecdb 963d
000000e0: c468 40bc 2434 3e3d 0e0c 063e 3039 8b3e
000000f0: dc90 513d 5615 03bd dadf 2fbe 7171 edbb
00000100: 0403 af3e fdc2 78be a0a8 f6be d19d 9c3c
00000110: 427b c1ba 4c92 973d 6ffc c4bd c964 863d
00000120: 861a 4f3c 44d5 21bd 1e6b 003c 64c9 c3bd
00000130: 45c3 e53c 0c47 393e afb9 82be 9b67 053e
00000140: e2fe 36be ac90 c73d d1db 263d 0b37 e7be
00000150: 84c7 013d c859 cebc ac5b 033d 49d9 333d
00000160: 2218 ffbb 9836 ba3d 6abe 123e 80ad 1d3e
00000170: e578 1d3d ff98 cfbc 44b3 39be 28c3 79bc
00000180: c423 ee3e 32f2 75be 945d e3be 1a6a cbbb
00000190: c0ef 133c f9cb db3d bf6d cdbd 0ec8 6b3d
000001a0: 35f7 883c 9dc9 723c 516e 3ebb 4755 c8bd
000001b0: bd49 c63c e8d1 523e c8fe 85be a983 ec3d
000001c0: 8a38 26be 35bb 153e dc44 813d 119e c0be
000001d0: f140 1c3d 6a67 edbc d24a 773c 19c8 163e
000001e0: fd0c a33c 25f2 af3d 2e5b 3c3e c849 9c3e
000001f0: 4b9d 233d ba0d ccbc 8976 10be 15f9 c2bc
00000200: 7a30 e33e efe3 74be 2310 e8be b1ec fa3b
00000210: 8ec8 55bc c495 bd3d 3d01 9abd f652 493d
00000220: bd77 833c 9c71 3cbc d2b7 02bc f513 20be
00000230: d8a6 9e3c dd27 1e3e cbef a9be 7601 093e
00000240: 2be0 39be b354 003e dcd2 6c3d 2687 d6be
00000250: 08f5 d13c 0fec 4ebc 722c 153c a40f b53c
00000260: 87b9 8abc 569e 793d 02e5 343e deb2 0b3e
00000270: 81b8 e83c 2430 ed3b 42b5 10be 2e44 0abc
00000280: e5ef ea3e b61d 60be fedc bbbe ff54 d43c
00000290: 301e 91bc 5830 b13d ca73 afbd f113 023d
000002a0: 4dd8 013d f9f2 c2bc 684f 083c 1764 ffbd
000002b0: cad9 d93c 9715 463e 6a81 83be aee4 143e
000002c0: 18c7 2cbe 9068 b03d d5f1 603d 9d53 dbbe
000002d0: a554 403d 6f98 37bc 7b1c b63b ce91 f43d
000002e0: dc59 113b 7d2a ac3d 57bb 1c3e 64ec c23e
000002f0: 0aa9 323d e78d 02bd 3dbe 1bbe 9397 9bbc

actor_linear.bias f4 [6]
0.081041746 0.39926988 0.2706486 0.23611397 0.30183682 0.30828145
00000000: 37f9 a53d 1a6d cc3e 7492 8a3e dcc7 713e
00000010: 5b8a 9a3e 11d7 9d3e
