spaceinvaders-v0-bottom-7fskip_latent32/model.114.tar (torch, 223035 bytes, 13 tensors)

conv1.weight f4 [32, 4, 3, 3]
0.01985079 0.030114476 0.02549539 -0.1330147 -0.56082934 0.090808384 0.1703986 0.1705577
0.054304525 0.019337017 0.1587317 0.017005183 0.014487573 -0.012405564 -0.07495005 0.120340034
0.11942761 0.014685493 0.07300111 0.23764065 -0.03472361 -0.060311098 -0.12121404 -0.19206807
0.15515193 -0.025531186 0.19622749 0.052288394 -0.45509145 0.027239876 0.15473141 0.60401714
0.24576434 -0.47364193 -0.15997063 -0.31570292 -0.027717581 -0.04389554 0.2213571 -0.104770795
0.11699751 0.15702152 0.2094446 -0.124888994 -0.18305416 0.090930216 -0.051963378 -0.025381798
-0.008461854 0.023808774 -0.06022943 -0.02826844 -0.008341494 0.020305716 -0.10237436 0.2781156
-0.10170798 -0.13599256 0.12814714 0.036644444 0.07298134 -0.025659082 0.06749113 0.45372593
-0.36350077 -0.13628703 0.08361611 -0.2961325 -0.07730756 -0.3101347 0.42067185 -0.10895592
0.15758452 -0.17262644 0.23100147 -0.012764714 0.087180205 0.17821696 -0.28836668 0.059997518
-0.14668259 -0.2008414 0.015540784 -0.028651914 0.055163063 -0.1708869 -0.16704412 0.083521254
-0.066110626 0.23202603 0.10590399 -0.09383757 0.23317596 0.13543265 -0.10476154 0.03261378
0.15236846 0.03510599 -0.09392199 -0.083651744 0.20755763 -0.15115654 0.101579614 -0.15506764
-0.2840492 -0.076938264 0.2866934 0.069697216 0.30564177 0.11829503 0.06440711 0.15892047
0.20569183 0.026754394 0.14560264 0.49962434 0.1075142 0.14694838 -0.2447284 -0.114107944
-0.12749612 -0.079448365 0.120256044 -0.008757318 0.13654876 -0.17339815 -0.01784242 -0.1585829
0.09875218 0.10075604 -0.2431242 0.044063438 0.2006361 0.18432368 0.16953035 0.200179
0.031032758 0.14548059 -0.3019731 -0.8414722 -0.27625507 -0.07292725 -0.21878225 0.0053575146
-0.11245369 -0.12248886 0.22720751 0.1683206 0.08388502 0.103723764 -0.037126943 0.43392056
-0.13705657 -0.04262332 -0.17290851 -0.1582038 -0.11908213 -0.12325702 0.04095887 -0.093419105
0.005491348 0.034076974 -0.028181242 0.09242057 -0.012427553 -0.068302825 -0.2902017 -0.17792028
-0.13775828 -0.21032624 -0.21663257 0.29314047 0.0025502457 -0.17388315 0.16691244 0.3940339
0.29059643 -0.013569046 -0.12082017 0.37451118 -0.17230137 -0.23036538 -0.21062496 -0.28673372
-0.5200765 -0.13316001 -0.34398654 -0.47171825 -0.22269066 -0.043911375 -0.0073106536 -0.08435554
-0.21319564 -0.13210733 -0.058928426 -0.1881913 -0.010711309 0.017939927 0.24664333 -0.012501992
0.08086258 -0.16442995 0.16684921 -0.16562459 0.09042581 0.09564374 -0.1281888 0.33563772
0.46117005 0.4091331 0.0495761 0.24319254 -0.117685795 0.35893217 0.44699383 0.3123436
0.33555356 -0.1099377 0.010622396 0.34398416 0.08007955 0.32572383 -0.3609629 -0.42396873
-0.026951034 -0.034382693 0.022434046 0.29127297 0.17871185 0.08541864 0.059129808 -0.17052075
0.02084742 -0.10619636 0.0338529 -0.10282674 0.0582156 0.1567817 0.04242359 -0.059098367
-0.12370139 0.048202295 0.067451045 -0.07222752 -0.3757705 -0.057480894 -0.23850776 -0.4490312
-0.15960574 0.29408818 0.43016583 0.06253691 0.020993173 -0.0970369 -0.0740638 -0.44046578
00000000: 209e a23c a2b2 f63c b5db d03c 0135 08be
00000010: 8392 0fbf bff9 b93d f87c 2e3e ada6 2e3e
00000020: 6c6e 5e3d aa68 9e3c 908a 223e 744e 8b3c
00000030: 495d 6d3c b540 4bbc 697f 99bd d674 f63d
00000040: 7696 f43d 6c9b 703c 9b81 953d 1258 733e
00000050: 583a 0ebd c508 77bd 113f f8bd 7ead 44be
00000060: 26e0 1e3e c726 d1bc dcef 483e 5b2c 563d
00000070: bf01 e9be 2926 df3c e971 1e3e dea0 1a3f
00000080: a6a9 7b3e 3281 f2be 57cf 23be d0a3 a1be
00000090: fb0f e3bc cfcb 33bd 70ab 623e 1292 d6bd
000000a0: 649c ef3d 40ca 203e a578 563e cdc5 ffbd
000000b0: 8d72 3bbe 9f39 ba3d 8dd7 54bd 7ded cfbc
000000c0: 97a3 0abc 9e0a c33c 23b3 76bd 3793 e7bc
000000d0: c3aa 08bc 2c58 a63c a6a9 d1bd 2b65 8e3e
000000e0: 464c d0bd a241 0bbe 0139 033e 7c18 163d
000000f0: 3e77 953d ff32 d2bc ca38 8a3d c44e e83e
00000100: c61c babe d48e 0bbe ec3e ab3d ae9e 97be
00000110: 6d53 9ebd fac9 9ebe 4d62 d73e 4824 dfbd
00000120: d65d 213e fcc4 30be a68b 6c3e 1723 51bc
00000130: 898b b23d 827e 363e cca4 93be f5bf 753d
00000140: f633 16be 5ea9 4dbe c69e 7e3c 6bb7 eabc
00000150: aaf2 613d fafc 2ebe 9d0d 2bbe 310d ab3d
00000160: 0265 87bd 3b98 6d3e 31e4 d83d e92d c0bd
00000170: aec5 6e3e dbae 0a3e 388d d6bd 0796 053d
00000180: 7a06 1c3e 4ccb 0f3d 2c5a c0bd 9b51 abbd
00000190: fd89 543e c8c8 1abe f908 d03d 0dca 1ebe
000001a0: e66e 91be cf91 9dbd 7ac9 923e 6abd 8e3d
000001b0: 147d 9c3e aa44 f23d e0e7 833d 0cbc 223e
000001c0: e1a0 523e 082c db3c dc18 153e c3ce ff3e
000001d0: 6830 dc3d a379 163e 159a 7abe 6db1 e9bd
000001e0: 588e 02be d3b5 a2bd cd48 f63d db7a 0fbc
000001f0: 70d3 0b3e 498f 31be 442a 92bc 8e63 22be
00000200: 953e ca3d 2f59 ce3d 8df5 78be dd7b 343d
00000210: 8d73 4d3e 59bf 3c3e 5d99 2d3e b9fb 4c3e
00000220: 6938 fe3c ddf8 143e 389c 9abe b96a 57bf
00000230: 4e71 8dbe e25a 95bd 7408 60be 178e af3b
00000240: 1f4e e6bd 70db fabd 16a9 683e 3c5c 2c3e
00000250: e9cb ab3d 206d d43d 6c12 18bd d62a de3e
00000260: 8f58 0cbe ca95 2ebd ee0e 31be 2d00 22be
00000270: 55e1 f3bd 2d6e fcbd 7dc4 273d 8452 bfbd
00000280: c4f0 b33b 4c94 0b3d 59dc e6bc ff46 bd3d
00000290: ef9c 4bbc 5ae2 8bbd 5195 94be bc30 36be
000002a0: 8210 0dbe c35f 57be eed4 5dbe 8216 963e
000002b0: 0622 273b 6d0e 32be 18eb 2a3e d0be c93e
000002c0: 0ec9 943e b450 5ebc 9170 f7bd eebf bf3e
000002d0: c56f 30be e7e4 6bbe 12ae 57be c3ce 92be
000002e0: bc23 05bf 195b 08be 011f b0be 0e85 f1be
000002f0: 0509 64be 6adc 33bd 358e efbb 99c2 acbd
00000300: f54f 5abe 2547 07be ef5e 71bd 38b5 40be
00000310: 7c7e 2fbc c1f6 923c 1290 7c3e 28d5 4cbc
00000320: 489b a53d 5360 28be 85da 2a3e 7e99 29be
00000330: 2b31 b93d dde0 c33d ed43 03be b5d8 ab3e
00000340: 7b1e ec3e e579 d13e 4f10 4b3d 7707 793e
00000350: 4005 f1bd f5c5 b73e 60dc e43e 80eb 9f3e
00000360: adcd ab3e 0427 e1bd 8f09 2e3c b11e b03e
00000370: bf00 a43d 46c5 a63e 21d0 b8be 6e12 d9be
00000380: 6ac8 dcbc ded4 0cbd 9bc7 b73c bb21 953e
00000390: 3d00 373e f8ef ae3d 1932 723d fe9c 2ebe
000003a0: 35c8 aa3c 7a7d d9bd 57a9 0a3d d396 d2bd
000003b0: 7b73 6e3d 628b 203e 5cc4 2d3d 2111 72bd
000003c0: 2857 fdbd c56f 453d c623 8a3d 06ec 93bd
000003d0: fe64 c0be 1671 6bbd 613b 74be 6be7 e5be
000003e0: b06f 23be ba92 963e b23e dc3e 5a13 803d
000003f0: e0f9 ab3c 48bb c6bd c3ae 97bd bb84 e1be

conv1.bias f4 [32]
0.00079786906 -0.005953209 -0.0008472006 -0.014147935 0.002104145 0.0058663567 0.00085012265 0.0025433707
0.007168195 0.0025369583 0.0026585772 -0.001817872 0.0018223177 0.010298737 0.0018116381 0.073242955
0.0061119385 0.0030638976 0.05042939 -0.006661887 0.0016897256 -0.0074690552 -0.008013974 -0.00032885323
0.0007847367 -0.0004839407 -0.0066190776 -0.010399166 -0.0022238204 -0.0055295145 -0.00408052 -0.003849611
00000000: 1628 513a 2313 c3bb ab16 5eba becc 67bc
00000010: b2e5 093b 913a c03b c4da 5e3a aeae 263b
00000020: 2ee3 ea3b 1943 263b 863b 2e3b aa45 eeba
00000030: d6da ee3a 09bc 283c 7d74 ed3a 6700 963d
00000040: a846 c83b accb 483b 0c8f 4e3d f54b dabb
00000050: c879 dd3a fabe f4bb 0b4d 03bc ef69 acb9
00000060: cab6 4d3a 6cb9 fdb9 d9e4 d8bb 4361 2abc
00000070: 84bd 11bb ee30 b5bb e2b5 85bb c149 7cbb

conv2.weight f4 [32, 32, 3, 3]
-0.32145235 -0.17851733 0.2616741 0.11254059 0.2442667 -0.18176174 -0.15214422 -0.08109325
0.03934572 -0.021770585 -0.21822529 0.042074036 0.22412756 0.012891195 0.12595181 0.113825165
-0.1977828 0.20483239 0.005580517 -0.033051226 -0.22827879 -0.1535149 0.020671342 0.04115159
0.010700597 0.12318242 0.01667199 -0.19634598 -0.20414974 -0.15995187 -0.18608692 -0.47677895
0.22017087 -0.06706865 0.13130616 0.30377486 0.21153075 0.058107946 0.0036206744 0.114759475
0.16188101 -0.24333575 -0.05741988 -0.14163579 0.13458343 0.135897 -0.120511636 -0.3276466
0.057857413 0.018845392 -0.052010342 0.11345205 0.23859608 0.16449434 0.3182819 0.1357581
-0.33675426 -0.026973827 0.074859835 0.0064701946 -0.030272162 0.016386472 -0.2828953 -0.20428307
-0.0482519 0.054466784 0.29735738 0.08588187 -0.0823314 -0.03982723 0.023077428 0.11941728
-0.017560784 0.1020822 0.31801468 -0.051270038 0.09638713 0.010858626 -0.16580641 -0.20547244
-0.1381064 0.18589382 -0.14108498 0.063547045 0.008505014 0.10047879 -0.17252856 0.039970443
0.2908816 0.010516825 -0.008454586 0.0067714015 -0.061846122 0.20265132 0.4816338 -0.397602
0.09392448 0.010879376 -0.07115123 0.23577292 0.040389292 0.0058521647 0.29104972 -0.02019624
-0.065104276 -0.106442645 -0.079611816 -0.13509962 -0.11488309 -0.083356276 0.05978732 0.44389367
0.20231591 -0.19399352 -0.06338485 -0.28935805 -0.124304004 -0.17377472 0.11866632 0.5850054
0.2318153 0.034924064 0.07890871 0.050101448 -0.4312263 -0.016213493 0.14403766 0.04962368
0.03433816 0.23436853 -0.10424399 0.030890586 0.010873727 -0.18792418 -0.044885654 -0.12969956
-0.08344944 -0.1051589 0.012064775 0.16660811 0.35914147 -0.10017081 -0.08869858 -0.051297788
-0.2852831 -0.1566864 -0.15997308 0.15187553 0.013431177 -0.13609824 0.07602783 -0.02612901
0.10932109 -0.039561354 -0.03011099 -0.07249875 -0.41763562 0.17664336 -0.1647707 0.19885011
-0.062697895 -0.016266758 -0.082611725 -0.08815629 -0.059831154 0.051876158 0.12924755 0.2686211
-0.13607623 -0.1286799 -0.049371056 0.15110277 -0.003241407 -0.089965545 0.10114345 -0.0003573664
0.090787 -0.23938107 -0.084749006 -0.12690824 0.037263412 -0.018101614 0.026009038 -0.073986255
0.1402831 -0.14030983 -0.11471258 0.09131355 -0.030550517 0.23161578 -0.242037 -0.036072884
-0.043155417 -0.0784104 0.022855775 0.017536141 -0.09171863 0.034103867 -0.13144742 0.08955403
-0.032772515 0.36734793 0.14925502 -0.101437755 -0.13540198 -0.027400898 -0.019916113 -0.14209509
-0.081805356 0.30071986 -0.3341509 -0.114572555 -0.07145411 0.05167659 0.19492918 -0.051478703
0.11683592 0.04279977 0.16291009 -0.012141178 -0.09308029 -0.024921043 0.062550485 -0.36011064
-0.1489884 0.29444218 0.014683046 0.018045444 0.17497298 0.047156226 -0.16042751 -0.18024209
0.13591352 0.037744783 0.074709974 -0.023237266 -0.12417943 0.1092529 0.08027229 -0.19155142
-0.12253886 0.29901114 -0.022805817 -0.009560077 -0.1954464 -0.05798577 -0.12659241 -0.23367113
0.16342072 -0.003160111 0.14455855 0.20300676 0.39551783 0.21831226 -0.29727173 -0.32377723
00000000: 6795 a4be 3fcd 36be 26fa 853e ae7b e63d
00000010: 0d21 7a3e c01f 3abe b2cb 1bbe 3814 a6bd
00000020: fa28 213d 3a58 b2bc 7376 5fbe d355 2c3d
00000030: b281 653e 9735 533c 83f9 003e 2b1d e93d
00000040: 9387 4abe 95bf 513e c5dc b63b b960 07bd
00000050: eac1 69be 0333 1dbe f256 a93c 928e 283d
00000060: 8f51 2f3c 1147 fc3d b293 883c ec0e 49be
00000070: a10c 51be 6cca 23be 928d 3ebe 5f1c f4be
00000080: 7974 613e 4a5b 89bd 1f75 063e 6188 9b3e
00000090: 849b 583e 9902 6e3d d648 6d3b 0407 eb3d
000000a0: 23c4 253e 022d 79be 1c31 6bbd f908 11be
000000b0: 3dd0 093e 9528 0b3e cece f6bd 4cc1 a7be
000000c0: e5fb 6c3d a761 9a3c cc08 55bd 8c59 e83d
000000d0: 8852 743e 3471 283e d8f5 a23e 2c04 0b3e
000000e0: 0e6b acbe 37f8 dcbc 1d50 993d ed03 d43b
000000f0: 53fd f7bc ec3c 863c a7d7 90be 952f 51be
00000100: c9a3 45bd 9018 5f3d 3a3f 983e d5e2 af3d
00000110: 5d9d a8bd e121 23bd e00c bd3c 0c91 f43d
00000120: a2db 8fbc 7910 d13d d2d2 a23e 8800 52bd
00000130: 9e66 c53d 61e8 313c 28c9 29be 5e67 52be
00000140: c46b 0dbe f35a 3e3e 9578 10be f424 823d
00000150: 9d58 0b3c d3c7 cd3d 54ab 30be 0cb8 233d
00000160: 6fee 943e c34e 2c3c 1b85 0abc a2e2 dd3b
00000170: 5c52 7dbd d483 4f3e b598 f63e 7d92 cbbe
00000180: 7a5b c03d 693f 323c bcb7 91bd 756e 713e
00000190: 3e6f 253d 84c3 bf3b 7804 953e 9672 a5bc
000001a0: 6455 85bd 9afe d9bd 850b a3bd 8e57 0abe
000001b0: d347 ebbd b2b6 aabd 8de3 743d 0846 e33e
000001c0: e72b 4f3e 3da6 46be ebcf 81bd bd26 94be
000001d0: 1993 febd 00f2 31be 5407 f33d eac2 153f
000001e0: fd60 6d3e 890c 0f3d e49a a13d 2d37 4d3d
000001f0: b2c9 dcbe 29d2 84bc 9c7e 133e 3342 4b3d
00000200: 2ca6 0c3d 4efe 6f3e df7d d5bd 410e fd3c
00000210: b727 323c 326f 40be 05da 37bd f6cf 04be
00000220: 8ae7 aabd 8d5d d7bd 56ab 453c 519b 2a3e
00000230: 64e1 b73e 5b26 cdbd 9aa7 b5bd a11d 52bd
00000240: a010 92be 6672 20be fccf 23be 4285 1b3e
00000250: 700e 5c3c 565d 0bbe 7bb4 9b3d 810c d6bc
00000260: bce3 df3d 160b 22bd 53ab f6bc 3a7a 94bd
00000270: 56d4 d5be ffe1 343e a6b9 28be 5d9f 4b3e
00000280: c167 80bd dd41 85bc 5630 a9bd 498b b4bd
00000290: 8311 75bd 187c 543d 7859 043e b488 893e
000002a0: 9157 0bbe aac4 03be 4e39 4abd afba 1a3e
000002b0: c96d 54bb db3f b8bd 4c24 cf3d e85c bbb9
000002c0: 89ee b93d 5020 75be e390 adbd 3cf4 01be
000002d0: 85a1 183d d649 94bc e810 d53c 1b86 97bd
000002e0: 5fa6 0f3e 61ad 0fbe 6eee eabd 9902 bb3d
000002f0: 1445 fabc b02c 6d3e 8cd8 77be 29c1 13bd
00000300: bcc3 30bd a295 a0bd 093c bb3c f4a7 8f3c
00000310: fad6 bbbd 7fb0 0b3d 279a 06be 1a68 b73d
00000320: 793c 06bd 0715 bc3e 4fd6 183e 99be cfbd
00000330: d1a6 0abe d977 e0bc 1e27 a3bc 6081 11be
00000340: 9189 a7bd f4f7 993e d415 abbe 04a5 eabd
00000350: 8856 92bd d5aa 533d 849b 473e 55db 52bd
00000360: ac47 ef3d d04e 2f3d e7d1 263e cbeb 46bc
00000370: e1a0 bebd 3727 ccbc 781a 803d 6c60 b8be
00000380: 6a90 18be 20c1 963e 2991 703c 0ad4 933c
00000390: 1e2c 333e e326 413d 1c47 24be 6291 38be
000003a0: ea2c 0b3e 469a 1a3d 8b01 993d 145c bebc
000003b0: c951 febd fcbf df3d cc65 a43d 0e26 44be
000003c0: a7f5 fabd fd17 993e 44d3 babc dfa1 1cbc
000003d0: 1a23 48be 7d82 6dbd 71a1 01be 7c47 6fbe
000003e0: c357 273e dd19 4fbb 2807 143e 01e1 4f3e
000003f0: 5081 ca3e 408d 5f3e 0034 98be 21c6 a5be

conv2.bias f4 [32]
-0.012700521 -0.00026916136 0.0071761752 -0.0011883699 -0.05112494 -0.008614396 -0.011493143 -0.008682441
0.0038585227 -0.010743095 -0.036588766 -0.02955464 0.025182951 -0.010560201 -0.042710442 -0.017788827
0.008339048 -0.0043273885 0.00900836 0.0027014278 -0.009246913 -0.0024801437 -0.03202582 0.0005538115
-0.005142121 -0.01877457 -0.0039380663 -0.014408039 0.010014166 -0.007851043 0.010349327 -0.00096684665
00000000: d915 50bc 3a1e 8db9 1f26 eb3b 14c3 9bba
00000010: 6368 51bd 6523 0dbc bc4d 3cbc cc40 0ebc
00000020: 45df 7c3b ce03 30bc 1ade 15bd 931c f2bc
00000030: 7a4c ce3c b104 2dbc 25f1 2ebd e0b9 91bc
00000040: 81a0 083c c4cc 8dbb cd97 133c 700a 313b
00000050: 5d80 17bc e889 22bb 822d 03bd a92d 113a
00000060: 3d7f a8bb 21cd 99bc e50a 81bb b20f 6cbc
00000070: 7512 243c a9a1 00bc 3990 293c fb73 7dba

conv3.weight f4 [32, 32, 3, 3]
-0.097558744 -0.04800131 -0.18103553 0.011125033 0.081544034 0.15955837 0.10559648 -0.14829066
0.0288218 0.14180426 0.011945495 0.11558083 -0.19087242 -0.15750146 0.17329666 0.12195865
-0.06416299 -0.18100145 -0.034086037 -0.033186186 0.21471503 0.11331279 0.14173006 -0.16370958
0.0005704389 -0.05174775 0.031321496 -0.034168016 -0.21141088 -0.41312605 -0.0022523669 -0.14966854
-0.26587552 0.3905978 0.009870796 -0.3559654 0.14806454 -0.02864931 -0.29819795 0.011368221
-0.18453039 -0.15856326 0.22728893 -0.07579976 0.005426391 -0.100009665 0.037017923 0.035656497
0.14517006 0.10144212 -0.21689433 -0.16755979 -0.0017695188 0.13157737 0.08133027 0.009354177
-0.095614314 0.13140798 -0.092954114 0.04734932 -0.04067433 0.09835701 0.032944437 -0.13491277
-0.114321545 -0.0241198 0.11757619 -0.16432296 -0.18728669 -0.07575031 0.055771463 0.031970784
0.08367247 -0.10619672 0.06705366 0.20893048 -0.0123842005 0.11206015 -0.0854505 0.13111566
-0.16509454 0.18554726 -0.088990144 -0.079279505 0.040795274 -0.10914583 -0.11069465 -0.075038485
-0.37610003 0.32029742 -0.22639495 -0.08410533 -0.13976401 0.09550018 0.18057527 -0.18208972
-0.122094356 -0.17269571 0.17579888 0.15748279 0.051496472 -0.21940817 0.26574072 0.113423415
0.052286267 -0.033282287 0.19472538 -0.15427892 -0.12963201 0.1824499 0.061857637 -0.1227492
0.06615376 -0.022964915 0.06804596 0.15347534 -0.08665124 -0.03424026 0.0043953313 0.23362291
-0.05918952 -0.014281977 -0.008528477 -0.029811772 0.019787299 0.4324647 0.097885855 0.30453748
-0.021523735 -0.010508483 0.06589841 -0.13155462 -0.04970119 0.14491282 0.13061035 0.15305182
-0.01928635 -0.018714827 -0.13720076 0.013946677 0.26513618 0.11691439 -0.06348617 -0.3789366
0.043506563 -0.031998582 0.17506775 -0.218883 0.15462764 -0.1769572 0.10448871 0.10210022
-0.33125192 -0.33359388 -0.20123678 0.22156754 -0.1935968 0.13051476 0.13750902 -0.06991723
0.010388151 0.067674875 0.004440436 -0.0875306 -0.12557471 0.03754883 -0.020255782 -0.1931853
0.06363109 0.09996159 -0.25539157 0.021948675 0.1130573 0.023688314 -0.1394903 -0.16741477
-0.12254409 -0.1789841 -0.13252231 -0.045774113 0.059916493 -0.22157748 -0.21183759 -0.07733581
0.45341396 -0.11664636 -0.06505747 -0.09486996 -0.1874704 0.103130616 -0.009483405 -0.19431685
0.041832007 -0.09065096 -0.13621251 0.10082021 0.22063547 -0.03169664 0.18344767 0.015025695
-0.34330162 -0.123169035 0.044822577 -0.03452908 0.015714286 0.23788735 -0.039849795 0.16408817
0.16583413 -0.41067433 0.34366706 -0.34328714 -0.05443969 -0.00913436 -0.07891119 -0.08048372
0.05844933 0.042354256 0.238337 -0.13381356 -0.12415401 0.083933085 -0.20387638 0.050114103
0.24715346 0.03581859 -0.14312872 0.18419224 -0.021956448 -0.05639825 0.1360219 -0.046845604
0.13420038 -0.080108196 -0.28613463 0.2418719 0.22752632 -0.069206804 -0.11028133 -0.020561585
0.13178791 0.0021059667 0.07060176 0.11381892 0.05357143 0.22503789 -0.005532441 -0.13003089
-0.22665332 0.01962258 -0.30240098 -0.040035874 -0.21100685 0.026762547 0.22395563 -0.25965595
00000000: e1cc c7bd 069d 44bd 6161 39be c545 363c
00000010: 8f00 a73d 4563 233e f842 d83d 82d9 17be
00000020: b21b ec3c 2335 113e 0ab7 433c a4b5 ec3d
00000030: 0f74 43be 1048 21be ae74 313e 75c5 f93d
00000040: e367 83bd 7258 39be cd9d 0bbd 3dee 07bd
00000050: 42de 5b3e 8910 e83d af21 113e 7ca3 27be
00000060: 8289 153a 73f5 53bd f84a 003d c3f3 0bbd
00000070: 187c 58be 4285 d3be 729c 13bb b642 19be
00000080: d620 88be 6ffc c73e 1fb9 213c 1941 b6be
00000090: 3b9e 173e f5b1 eabc 67ad 98be c641 3a3c
000000a0: 89f5 3cbe 685e 22be 6ebe 683e e83c 9bbd
000000b0: decf b13b ded1 ccbd 1ba0 173d 8c0c 123d
000000c0: 76a7 143e e3c0 cf3d 8c19 5ebe cb94 2bbe
000000d0: 33ef e7ba 38bc 063e 7c90 a63d 4342 193c
000000e0: 70d1 c3bd d08f 063e ba5e bebd 5cf1 413d
000000f0: 209a 26bd 666f c93d bff0 063d 9326 0abe
00000100: 6a21 eabd e396 c5bc c9cb f03d 4744 28be
00000110: 15c8 3fbe fb22 9bbd 9e70 643d ccf3 023d
00000120: 795c ab3d aa7d d9bd 6e53 893d dff1 553e
00000130: 1ae7 4abc cb7f e53d ac00 afbd 2f43 063e
00000140: 8b0e 29be 1a00 3e3e 7740 b6bd 4b5d a2bd
00000150: f218 273d d987 dfbd e0b3 e2bd c7ad 99bd
00000160: 2f90 c0be 06fe a33e 14d4 67be 6a3f acbd
00000170: 4c1e 0fbe 9995 c33d b9e8 383e ba75 3abe
00000180: 9b0c fabd 25d7 30be 9f04 343e 2b43 213e
00000190: f7ed 523d 89ac 60be 2b0f 883e 894a e83d
000001a0: 202a 563d 0253 08bd 1766 473e 4bfb 1dbe
000001b0: 41be 04be 26d4 3a3e 6f5e 7d3d ef63 fbbd
000001c0: 9f7b 873d eb20 bcbc ae5b 8b3d a428 1d3e
000001d0: 3576 b1bd 843f 0cbd b606 903b d83a 6f3e
000001e0: b670 72bd f4fe 69bc 06bb 0bbc d137 f4bc
000001f0: f918 a23c 036c dd3e 6178 c83d 56ec 9b3e
00000200: 8b52 b0bc c62b 2cbc bff5 863d 41b6 06be
00000210: 7a93 4bbd 0764 143e b8be 053e 9eb9 1c3e
00000220: 68fe 9dbc d64f 99bc 5b7e 0cbe 9a80 643c
00000230: eebf 873e d070 ef3d 0905 82bd fa03 c2be
00000240: f033 323d f210 03bd f644 333e dd22 60be
00000250: b556 1e3e 4534 35be 2dfe d53d ec19 d13d
00000260: da99 a9be d1cc aabe 0411 4ebe 9ae2 623e
00000270: 3d3e 46be a9a5 053e 2acf 0c3e c430 8fbd
00000280: 1033 2a3c 2099 8a3d 1481 913b 3e43 b3bd
00000290: a896 00be cdcc 193d 74ef a5bc 5ed2 45be
000002a0: 0451 823d a9b8 cc3d afc2 82be b5cd b33c
000002b0: 968a e73d ff0d c23c 8cd6 0ebe c76e 2bbe
000002c0: 65f8 fabd 9c47 37be eeb3 07be a37d 3bbd
000002d0: ff6a 753d 35e5 62be f4eb 58be 3d62 9ebd
000002e0: e025 e83e 49e4 eebd da3c 85bd 2e4b c2bd
000002f0: 3ef8 3fbe 2536 d33d 4960 1bbc fffa 46be
00000300: 0a58 2b3d 36a7 b9bd 4b7b 0bbe d47a ce3d
00000310: 44ee 613e 56d4 01bd b5d9 3b3e 552e 763c
00000320: 3bc5 afbe 0c40 fcbd e197 373d 5d6e 0dbd
00000330: 3fbb 803c be98 733e 8a39 23bd bb06 283e
00000340: 6cd0 293e e843 d2be 21f5 af3e 55c3 afbe
00000350: 27fc 5ebd 48a8 15bc 319c a1bd a6d4 a4bd
00000360: 9168 6f3d a87b 2d3d 9d0e 743e 6c06 09be
00000370: 7544 febd 1ce5 ab3d f8c4 50be 7244 4d3d
00000380: cc15 7d3e 84b6 123d 5690 12be e49c 3c3e
00000390: 02de b3bc da01 67bd 5349 0b3e 2de1 3fbd
000003a0: d36b 093e c40f a4bd 3d80 92be 44ad 773e
000003b0: a9fc 683e 4cbc 8dbd 2edb e1bd c570 a8bc
000003c0: 69f3 063e 4204 0a3b a897 903d e519 e93d
000003d0: b76d 5b3d 5570 663e 7b49 b5bb d126 05be
000003e0: cf17 68be 88bf a03c 4dd4 9abe a8fc 23bd
000003f0: 2e12 58be 213d db3c a054 653e a0f1 84be

conv3.bias f4 [32]
-0.084027566 -0.13156968 0.021693574 -0.09209064 -0.033174284 -0.34982422 -0.09851566 -0.1579291
-0.10808328 -0.027090598 -0.12668052 -0.09076154 -0.008381181 -0.07982022 -0.114339285 -0.032129657
-0.045665592 -0.005407686 -0.26434228 -0.09559445 -0.1299996 -0.009146387 -0.11733375 -0.20293848
-0.025568679 -0.1349792 0.015975237 -0.04541031 -0.042605843 -0.033076674 0.03196744 -0.13312866
00000000: a516 acbd 34ba 06be b9b6 b13c 049a bcbd
00000010: c2e1 07bd 291c b3be 94c2 c9bd 2ab8 21be
00000020: c45a ddbd 1aed ddbc 8ab8 01be 30e1 b9bd
00000030: 3951 09bc c978 a3bd b72a eabd 639a 03bd
00000040: d80b 3bbd f532 b1bb df57 87be 06c7 c3bd
00000050: 9d1e 05be bada 15bc ad4c f0bd 1bcf 4fbe
00000060: 6875 d1bc fd37 0abe 80de 823c 2900 3abd
00000070: 7783 2ebd 687b 07bd 4af0 023d e152 08be

conv4.weight f4 [32, 32, 3, 3]
0.29225492 -0.05375919 0.088648394 -0.12943515 -0.0049530426 -0.1123244 -0.14379178 -0.12796539
-0.30212042 -0.18420629 -0.18880144 0.03756178 -0.08250581 0.060507372 -0.12433505 -0.058416992
0.052025046 0.053601086 -0.1055107 0.17576249 0.0685524 -0.10074799 -0.06903631 0.14108916
0.098323815 0.10641072 0.06408825 0.08062898 0.0071946317 0.009289121 0.19325079 -0.19530673
-0.09829469 -0.044850454 -0.098652296 0.07153995 0.18260014 -0.1636427 -0.088147394 0.059347242
-0.17509829 0.12233917 0.13789082 -0.13448706 -0.0034067845 0.31614885 -0.009425011 -0.014277338
-0.0723725 0.003629301 0.10012884 -0.14355974 -0.050444078 0.045872636 0.21388505 -0.09991682
-0.027951116 -0.074563906 -0.0517138 -0.09031055 -0.05765408 0.24763218 0.0037808213 0.07926259
-0.0046610204 0.12229232 0.13100721 0.062516116 0.0753333 -0.08203339 0.05663541 0.19107215
0.10638021 0.008950122 -0.1089067 -0.00062197295 0.25382268 -0.037062336 -0.09481827 0.03968455
-0.01504127 0.11166148 -0.30629537 0.038202975 -0.11177576 0.31991878 0.019861666 -0.015182546
0.052634083 0.10610657 0.11110317 0.09067946 0.1296065 -0.098078065 0.054013815 -0.20347211
0.07774301 -0.20293401 0.26173517 -0.028806033 0.18221876 0.019112438 0.24405538 -0.28660697
-0.28115192 0.13236573 -0.053722396 -0.041542757 -0.12871665 0.037423115 0.24850462 0.11153983
-0.0689563 0.099024124 -0.04275764 0.0868425 0.012862871 0.33315274 -0.3020967 0.062441356
-0.008865028 -0.28732097 0.18210754 -0.068414554 -0.1732172 -0.12332352 0.07081037 -0.12748507
-0.114511214 -0.00022401265 -0.022345072 0.17065497 -0.05081575 0.16020851 -0.030035341 0.05712814
0.028430901 0.15788178 -0.22803491 0.30035338 -0.17717105 -0.22401088 0.116047956 -0.10832563
-0.14159259 -0.058961272 -0.09083086 -0.04458682 0.25640395 0.12250904 0.1684938 -0.30251724
0.029153649 -0.119266674 0.011025545 -0.053060897 -0.011882865 -0.12669753 0.116977066 -0.13426702
-0.18037082 0.094293565 0.14683384 -0.0362281 -0.10147351 0.05374089 -0.013033741 -0.23026583
-0.06594434 -0.14939721 0.15492938 -0.1213136 -0.06266659 -0.063184485 0.02403032 0.07769666
-0.08842186 0.25499743 -0.28193167 -0.056895748 -0.02812843 0.1775905 0.28377455 0.2265261
-0.08101375 -0.26556557 -0.103087194 -0.085510544 -0.09235218 -0.115211196 -0.17097627 -0.09700819
0.112974115 -0.066827536 0.048594855 0.31449065 0.2516141 -0.31626192 0.08269095 0.21331374
-0.20449662 -0.20904206 0.5560248 -0.09351744 0.047519013 -0.25026393 -0.00059958675 -0.043893155
-0.21640159 -0.14490682 0.11427244 -0.090831816 -0.05566238 -0.13624364 -0.010330104 0.10208738
0.073654436 0.10783292 0.03167628 -0.25052357 -0.012775321 0.18365534 -0.048158333 0.118620984
0.10321077 0.13978627 -0.2799153 0.101830214 -0.0880029 -0.022641856 0.13247655 -0.02055326
0.35639688 -0.26432273 -0.13562939 -0.1271832 0.040537275 0.26335502 0.29172134 -0.023874357
-0.14133836 -0.14540373 0.20796898 0.1102669 -0.28434595 0.23705424 -0.016075741 -0.09154303
0.20367017 -0.19998752 0.08574237 -0.27037212 0.0052285916 -0.08453684 0.11892711 -0.22428037
00000000: 70a2 953e 9932 5cbd 4a8d b53d a68a 04be
00000010: 224d a2bb 560a e6bd 273e 13be 5c09 03be
00000020: 87af 9abe 93a0 3cbe 2a55 41be 62da 193d
00000030: cef8 a8bd 94d6 773d 60a3 febd a846 6fbd
00000040: 3718 553d d08c 5b3d fe15 d8bd 15fb 333e
00000050: 3365 8c3d f654 cebd e962 8dbd ad79 103e
00000060: ff5d c93d dded d93d b340 833d cf20 a53d
00000070: f2c0 eb3b 6631 183c 89e3 453e 7dfe 47be
00000080: ba4e c9bd 1cb5 37bd 370a cabd 8a83 923d
00000090: 88fb 3a3e f491 27be 9f86 b4bd 1816 733d
000000a0: f74c 33be f58c fa3d 4033 0d3e fab6 09be
000000b0: 5c44 5fbb 43de a13e 5d6b 1abc 7feb 69bc
000000c0: 0938 94bd 91d9 6d3b 5910 cd3d 5301 13be
000000d0: 739e 4ebd f2e4 3b3d af04 5b3e 31a1 ccbd
000000e0: bdf9 e4bc f6b4 98bd d9d1 53bd bdf4 b8bd
000000f0: af26 6cbd 4a93 7d3e a8c7 773b 6d54 a23d
00000100: 79bb 98bb 6574 fa3d c126 063e 7308 803d
00000110: 5848 9a3d 1f01 a8bd 88fa 673d 6ba8 433e
00000120: dedd d93d 88a3 123c 7a0a dfbd e60b 23ba
00000130: 0cf5 813e adce 17bd 1530 c2bd 448c 223d
00000140: a96f 76bc c6ae e43d bfd2 9cbe b97a 1c3d
00000150: b1ea e4bd 65cc a33e efb4 a23c 37c0 78bc
00000160: d696 573d 674e d93d 0f8a e33d 27b6 b93d
00000170: 91b7 043e 27dd c8bd 973d 5d3d fe5a 50be
00000180: ba37 9f3d efcd 4fbe 2702 863e a1fa ebbc
00000190: 8e97 3a3e b091 9c3c a7e9 793e 26be 92be
000001a0: 25f3 8fbe e28a 073e 040c 5cbd bd28 2abd
000001b0: 4cce 03be fb48 193d ff77 7e3e ff6e e43d
000001c0: f638 8dbd 29cd ca3d a322 2fbd 7bda b13d
000001d0: cbbe 523c ff92 aa3e 6bac 9abe 82c2 7f3d
000001e0: 9f3e 11bc bc1b 93be 667a 3a3e ee1c 8cbd
000001f0: da5f 31be 0b91 fcbd 0705 913d 728b 02be
00000200: db84 eabd f0e4 6ab9 030d b7bc 2dc0 2e3e
00000210: 2d24 50bd b30d 243e ad0c f6bc 32ff 693d
00000220: ece7 e83c c3ab 213e fc81 69be ebc7 993e
00000230: 546c 35be 1c63 65be 8daa ed3d d4d9 ddbd
00000240: a6fd 10be 6081 71bd 8805 babd aba0 36bd
00000250: 6147 833e 05e6 fa3d a489 2c3e 8ae3 9abe
00000260: a2d3 ee3c 1642 f4bd 7da4 343c 6256 59bd
00000270: 59b0 42bc ffbc 01be ac91 ef3d 4b7d 09be
00000280: 21b3 38be fc1c c13d 9c5b 163e eb63 14bd
00000290: 58d1 cfbd 681f 5c3d 798b 55bc ceca 6bbe
000002a0: d30d 87bd 95fb 18be cfa5 1e3e 4473 f8bd
000002b0: 5757 80bd de66 81bd 3cdb c43c 6d1f 9f3d
000002c0: 8516 b5bd 068f 823e 5959 90be 840b 69bd
000002d0: 986d e6bc 49da 353e e64a 913e 75f6 673e
000002e0: 89ea a5bd 36f8 87be 611f d3bd 2720 afbd
000002f0: 2423 bdbd d9f3 ebbd 6714 2fbe 3bac c6bd
00000300: f95e e73d e0dc 88bd 660b 473d eb04 a13e
00000310: 90d3 803e 15ed a1be df59 a93d eb6e 5a3e
00000320: 9067 51be 1f0f 56be a457 0e3f 1286 bfbd
00000330: 4ca3 423d 9822 80be 962d 1dba 4fc9 33bd
00000340: 6198 5dbe 7462 14be ab07 ea3d 0806 babd
00000350: 3cfe 63bd 7483 0bbe 993f 29bc 3013 d13d
00000360: 23d8 963d 82d7 dc3d fdbe 013d a044 80be
00000370: 944f 51bc 2510 3c3e ac41 45bd 8fef f23d
00000380: 2b60 d33d 2224 0f3e 0f51 8fbe 5c8c d03d
00000390: dd3a b4bd 6a7b b9bc efa7 073e 4f5f a8bc
000003a0: a779 b63e 4f55 87be 6ee2 0abe 503c 02be
000003b0: 6a0a 263d 78d6 863e 805c 953e 2894 c3bc
000003c0: 01bb 10be b7e4 14be d2f5 543e 9dd3 e13d
000003d0: cb95 91be 59be 723e 46b1 83bc ea7a bbbd
000003e0: ea8e 503e 87c9 4cbe b299 af3d 376e 8abe
000003f0: 9b54 ab3b a721 adbd 0f90 f33d c1a9 65be

conv4.bias f4 [32]
-0.41844818 -0.2684377 -0.102469854 -0.17474341 -0.5339003 -0.31834745 -0.24691305 -0.20160483
-0.11845085 -0.2725263 -0.17456883 -0.3025068 -0.2939661 -0.13377908 -0.311861 -0.40868735
-0.31221524 -0.33993885 -0.31211883 -0.062361293 -0.09850261 -0.21587873 -0.27553454 -0.35241884
-0.099559024 -0.29086637 -0.29640555 -0.5658146 -0.13685124 -0.10120604 -0.1981205 -0.4301142
00000000: d73e d6be ab70 89be b7db d1bd f0ef 32be
00000010: b1ad 08bf 70fe a2be c6d6 7cbe 7f71 4ebe
00000020: 5c96 f2bd 9188 8bbe 2cc2 32be 2ce2 9abe
00000030: ba82 96be 62fd 08be 3fac 9fbe 783f d1be
00000040: adda 9fbe 770c aebe 0ace 9fbe 8e6e 7fbd
00000050: bdbb c9bd 500f 5dbe dd12 8dbe 3e70 b4be
00000060: 9ae5 cbbd 70ec 94be 78c2 97be 3ad9 10bf
00000070: bb22 0cbe 1d45 cfbd 1ae0 4abe ee37 dcbe

linear.weight f4 [32, 800]
-0.04536586 0.113848746 -0.06321395 -0.108241536 -0.028318526 -0.31290957 0.07274971 -0.026517274
-0.023980873 0.03843643 0.15937789 -0.08541112 -0.07880798 -0.003974846 0.22223711 0.227969
0.17349593 -0.07520347 -0.043625057 -0.111417025 -0.09082414 -0.040466238 -0.073848754 -0.05339932
-0.052256692 0.22601162 -0.09129003 0.07092426 -0.07554521 0.056965873 -0.35924324 0.029079443
-0.07597265 -0.04825137 0.23923188 0.18540208 0.058278874 -0.086571425 -0.03493053 -0.019601421
0.0823365 -0.36334807 -0.046541616 -0.090342745 0.09320194 -0.12135068 -0.0028516175 0.056451336
0.037057176 0.0234639 -0.13108751 -0.033230327 0.023225982 -0.057923097 0.044783723 0.28040403
0.022616668 0.010882033 0.031690754 -0.057733864 0.0628859 0.06435054 0.006619116 -0.040080808
0.029962497 -0.066641666 0.006927535 0.039967474 -0.044299547 -0.10391899 -0.073787734 -0.018039424
0.0060635414 -0.027488373 0.016738735 0.25217015 -0.03864185 0.14422578 0.02451301 -0.20762144
-0.20219375 0.07010863 -0.045581978 -0.10459407 0.09610131 0.010059771 -0.03063516 -0.011874774
0.042877205 -0.093097486 0.10485322 -0.057754893 0.15775913 0.12884945 0.109648906 -0.011067576
-0.007747587 -0.015487408 -0.031721447 -0.044514555 -0.3176592 0.2516229 -0.030535918 0.07228011
0.067357786 -0.28236806 0.31792006 0.14369133 0.15942654 0.12067379 -0.29153827 0.48876402
0.17330363 0.096118346 0.2442763 -0.32482225 -0.30508935 -0.25841838 -0.25348052 -0.38341588
-0.3463962 -0.40611878 -0.37154278 -0.39853045 -0.42077497 -0.04301188 0.0011828764 0.00846477
-0.06646301 0.10331234 0.06530401 0.26425514 -0.009747282 -0.0185698 0.030348916 -0.020251174
-0.4579767 -0.025433358 0.045543898 0.07935743 -0.14105815 -0.09358381 -0.07624551 -0.16302435
-0.1147897 -0.013165114 0.10841739 0.0722349 0.060926754 0.12161984 -0.15399535 0.12628844
-0.16437723 -0.033994768 0.18369165 0.23504269 0.2472486 -0.16152439 -0.12753016 0.14746678
-0.16099219 0.13304006 -0.086731605 -0.08451383 -0.14033289 -0.010166433 0.033162914 -0.06484432
0.122064546 -0.07165595 0.15225056 -0.007401255 -0.008199804 -0.060511585 -0.03939047 0.29361242
-0.17625661 0.055338543 -0.018619444 -0.046294533 -0.20147102 0.13369949 0.045249414 -0.0021111888
0.05934302 0.01381594 -0.01681809 -0.069496654 0.008386262 0.13391295 -0.05758305 -0.001736592
0.10295337 -0.018562786 -0.20036155 -0.03213193 0.029657096 0.0014101529 -0.0040009064 0.032090954
-0.090193935 -0.045251306 -0.014737075 0.092469044 0.018899499 0.03283662 0.048107706 -0.051609136
-0.05024354 0.17663905 0.11816137 0.01697106 -0.022693995 -0.016390786 0.19311474 -0.017753327
-0.028584799 0.14241433 -0.14140768 -0.1625626 0.012090514 -0.041905783 -0.009285218 -0.046351265
-0.01334733 0.08608569 0.15937386 -0.11074138 -0.14904591 0.05790885 -0.20889197 0.048015088
-0.037280213 -0.1649914 0.034148008 0.08355894 0.25473094 -0.029846597 -0.023863185 -0.02333647
0.107724845 -0.10076713 -0.021018283 0.0007130107 -0.008044259 0.020203426 -0.017195314 -0.037264206
0.0063283225 -0.014715883 -0.026444672 -0.07181223 0.038974162 0.012839908 -0.022575013 0.06276309
00000000: 8dd1 39bd 8829 e93d 5176 81bd bdad ddbd
00000010: 41fc e7bc af35 a0be cdfd 943d c13a d9bc
00000020: 8973 c4bc 856f 1d3d f533 233e 06ec aebd
00000030: 1466 a1bd 6d3f 82bb 2092 633e b570 693e
00000040: eba8 313e 4704 9abd 30b0 32bd 9c2e e4bd
00000050: 0202 babd edbf 25bd 043e 97bd 3fb9 5abd
00000060: 1d0b 56bd 976f 673e 44f6 babd bd40 913d
00000070: 72b7 9abd 0c55 693d bbee b7be 0338 ee3c
00000080: 8c97 9bbd 3ba3 45bd 34f9 743e 0bda 3d3e
00000090: d4b5 6e3d 5c4c b1bd 5113 0fbd 2993 a0bc
000000a0: 0aa0 a83d c208 babe 6ca2 3ebd 9e05 b9bd
000000b0: a9e0 be3d b586 f8bd 34e2 3abb 8439 673d
000000c0: 44c9 173d 5d37 c03c ce3b 06be 861c 08bd
000000d0: 6a44 be3c c540 6dbd 236f 373d 1e91 8f3e
000000e0: 9746 b93c 8e4a 323c 2ace 013d 587a 6cbd
000000f0: 53ca 803d 37ca 833d 2be5 d83b c62b 24bd
00000100: e973 f53c 6d7b 88bd 6000 e33b efb4 233d
00000110: 7173 35bd 7bd3 d4bd 061e 97bd 6ac7 93bc
00000120: acb0 c63b 4c2f e1bc ac1f 893c 721c 813e
00000130: eb46 1ebd ecaf 133e 82cf c83c b79a 54be
00000140: e10b 4fbe 1d95 8f3d 2bb4 3abd 6a35 d6bd
00000150: c3d0 c43d bdd1 243c 96f6 fabc 698e 42bc
00000160: 02a0 2f3d e5a9 bebd 49bd d63d 6590 6cbd
00000170: 9c8b 213e 1cf1 033e 9b8f e03d c754 35bc
00000180: 78df fdbb e6be 7dbc 59ee 01bd e554 36bd
00000190: 3aa4 a2be b7d4 803e 7626 fabc 9807 943d
000001a0: e1f2 893d 8c92 90be 6bc6 a23e d223 133e
000001b0: b640 233e d223 f73d 8144 95be 473f fa3e
000001c0: 8276 313e b2d9 c43d 9123 7a3e 1a4f a6be
000001d0: ac34 9cbe 6a4f 84be 33c8 81be 164f c4be
000001e0: d85a b1be cdee cfbe db3a bebe 2f0c ccbe
000001f0: d16f d7be 3a2d 30bd bf0a 9b3a d2af 0a3c
00000200: c21d 88bd 6c95 d33d 1cbe 853d 734c 873e
00000210: 10b3 1fbc b11f 98bc 4a9e f83c cae5 a5bc
00000220: ec7b eabe 9e59 d0bc 3d8c 3a3d 2686 a23d
00000230: 8c71 10be dea8 bfbd 9b26 9cbd dbef 26be
00000240: dd16 ebbd 7eb2 57bc f009 de3d e4ef 933d
00000250: 558e 793d d313 f93d f5b0 1dbe c251 013e
00000260: 8152 28be 193e 0bbd aa19 3c3e 08af 703e
00000270: bd2e 7d3e a666 25be 4497 02be 8801 173e
00000280: 23db 24be a73b 083e 57a0 b1bd 9615 adbd
00000290: 6db3 0fbe 1c91 26bc d6d5 073d 19cd 84bd
000002a0: fafc f93d 5bc0 92bd 92e7 1b3e 3a86 f2bb
000002b0: 7958 06bc ffda 77bd e757 21bd 5e54 963e
000002c0: 9d7c 34be abaa 623d ce87 98bc 569f 3dbd
000002d0: 6b4e 4ebe 85e8 083e 7357 393d df5b 0abb
000002e0: ab11 733d 415c 623c 17c6 89bc 4354 8ebd
000002f0: 8866 093c 7a20 093e 34dc 6bbd 5c9e e3ba
00000300: 37d9 d23d fc10 98bc 942b 4dbe c59c 03bd
00000310: 70f3 f23c e1d4 b83a 091a 83bb ce71 033d
00000320: 99b7 b8bd 6f59 39bd c673 71bc 6960 bd3d
00000330: 1fd3 9a3c b17f 063d 960c 453d 1a64 53bd
00000340: 2ccc 4dbd dee0 343e 97fe f13d e406 8b3c
00000350: c2e8 b9bc f845 86bc dfbf 453e 6d6f 91bc
00000360: ab2a eabc 10d5 113e 2dcd 10be cf76 26be
00000370: 4b17 463c 66a5 2bbd 0721 18bc d3da 3dbd
00000380: c2ae 5abc b24d b03d e732 233e 60cc e2bd
00000390: 7e9f 18be d531 6d3d c7e7 55be 78ab 443d
000003a0: 23b3 18bd 81f3 28be c8de 0b3d f320 ab3d
000003b0: 186c 823e da80 f4bc ba7c c3bc 202c bfbc
000003c0: d89e dc3d ff5e cebd 892e acbc 57e9 3a3a
000003d0: 11cc 03bc a881 a53c 30dd 8cbc 5aa2 18bd
000003e0: d15d cf3b e31a 71bc 7fa2 d8bc 4a12 93bd
000003f0: 5fa3 1f3d 7a5e 523c 3cef b8bc ef89 803d

linear.bias f4 [32]
0.56123716 -0.3012117 -0.4165438 -0.006364977 -0.024862433 0.0758985 -0.19345881 0.103626415
0.0058710896 -0.048592605 -0.005869197 -0.25849065 -0.07225332 0.1654558 -0.26767898 0.069894545
-0.07373088 0.19498332 0.041189913 -0.58842295 0.04179013 -0.00074865547 0.015530015 -0.09844738
-0.11364903 0.04926248 -0.0025769956 0.23772669 0.03357847 0.019073725 -0.23405626 -0.021435877
00000000: 3dad 0f3f 6c38 9abe 3b45 d5be 4c91 d0bb
00000010: 4dac cbbc ac70 9b3d 111a 46be 163a d43d
00000020: 4562 c03b 0a09 47bd 6552 c0bb e358 84be
00000030: 8cf9 93bd 3f6d 293e 380d 89be df24 8f3d
00000040: 3700 97bd b5a9 473e c1b6 283d e3a2 16bf
00000050: 212c 2b3d 6b41 44ba 9b71 7e3c c89e c9bd
00000060: d3c0 e8bd 74c7 493d d0e2 28bb a06e 733e
00000070: 9489 093d 8040 9c3c 72ac 6fbe 4b9a afbc

critic_linear.weight f4 [1, 32]
0.09469436 0.0028703767 -0.043670073 0.0008443409 0.0020312765 0.0022819387 -0.0013810723 -0.00056867796
0.0005471948 0.0032352437 0.0036802127 0.0026483783 -0.001071137 -6.747302e-05 -0.0020373296 0.0025356093
0.0042819846 0.0016222408 -0.0017938423 -0.15546878 -0.001407742 0.0021131623 -0.00021404967 -0.002992246
4.956998e-05 -0.0015132969 9.907485e-05 -0.009181474 -0.006767864 0.002022886 0.00057446247 -0.0018614659
00000000: 1eef c13d ee1c 3c3b 64df 32bd c256 5d3a
00000010: 2a1f 053b 948c 153b 1905 b5ba 5513 15ba
00000020: 9f71 0f3a 6206 543b b92f 713b 6a90 2d3b
00000030: 6565 8cba 4d80 8db8 b884 05bb 772c 263b
00000040: e44f 8c3b 5ea1 d43a 5c1f ebba 3533 1fbe
00000050: fc83 b8ba fb7c 0a3b 8572 60b9 8f19 44bb
00000060: 5ce9 4f38 d159 c6ba 68c6 cf38 e56d 16bc
00000070: f5c4 ddbb 6592 043b 8697 163a 6efc f3ba

actor_linear.weight f4 [6, 32]
0.2872229 -0.22472154 -0.41404206 -0.007080292 -0.012072628 0.1323122 -0.09140118 0.046681736
-0.031118203 -0.01711656 0.024603045 -0.08023484 0.00060698565 0.16033469 -0.30376875 0.111573614
-0.16143376 0.14961962 0.05683577 -0.43045908 0.044400617 0.017822655 0.02267007 0.13324423
-0.0064223628 0.068697825 0.15194274 0.24074572 0.031978413 -0.02290945 -0.12445695 -0.004340105
0.35510442 -0.23783574 -0.36528337 0.03230526 -0.002848112 0.07005602 -0.06594043 0.049366098
0.034636587 -0.050359335 -0.009788657 -0.0968964 0.031703856 0.1920309 -0.37622756 0.14393269
-0.18486504 0.10669785 0.059586804 -0.42695683 0.031331215 -0.038052388 0.0113474075 0.101297036
-0.010920049 0.08002026 0.15047376 0.27671292 0.03255334 -0.01737831 -0.139031 0.018028483
0.28372163 -0.2336462 -0.49870813 0.008917888 0.013673662 0.077263944 -0.08531127 0.09927741
-0.0116638355 -0.024152974 0.0050246352 -0.105167285 0.010051358 0.2112783 -0.2996848 0.09112761
-0.17474884 0.12336969 0.041335415 -0.39147374 0.0009945426 -0.03609727 -0.00200144 0.034148518
-0.00374921 0.03228395 0.12946852 0.16228646 0.015236089 -0.0027655975 -0.17883468 -0.007203718
0.3974618 -0.21577942 -0.41887012 0.05502638 -0.045526113 0.107124954 -0.08826388 0.06067464
0.037009485 -0.03664151 -0.001537404 -0.1743015 0.04482434 0.1418344 -0.20981352 0.15179914
-0.20058249 0.11154155 0.02872414 -0.30052722 0.034778498 -0.040001493 -0.0013938766 0.19956608
0.002932755 0.08942795 0.16409165 0.32925367 0.025401851 -0.029156188 -0.16751714 -0.03281138
0.4024955 -0.2596866 -0.44161907 0.026873127 -0.019128254 0.09199574 -0.08779532 0.06505173
0.024382498 -0.009616638 -0.005262965 -0.15498656 0.0047779204 0.1729331 -0.3059084 0.14910215
-0.1770514 0.10401951 0.051295187 -0.37650934 0.07748264 -0.008217314 0.031930372 -0.029511029
-0.012916737 0.08708333 0.15227813 0.120161824 0.051142734 -0.03620971 -0.15682481 -0.022484098
0.41592494 -0.23093233 -0.31326693 0.019145546 0.0054953545 0.06998057 -0.09848829 0.038816087
0.017052028 -0.028531155 -0.0149996625 -0.1259031 0.014812068 0.20372307 -0.23335357 0.13196874
-0.14966564 0.08077426 0.048381455 -0.37904873 0.026605694 -0.021476898 -0.02122137 0.09787686
0.011667525 0.09050021 0.14620972 0.35966173 0.028119186 -0.0013873624 -0.15801911 -0.014454325
00000000: e10e 933e 671d 66be 52fd d3be cb01 e8bb
00000010: 46cc 45bc d97c 073e 8b30 bbbd 5935 3f3d
00000020: 9aeb febc 0738 8cbc 538c c93c 2a52 a4bd
00000030: 1e1e 1f3a c72e 243e 9487 9bbe b580 e43d
00000040: e44e 25be e335 193e a0cc 683d 2265 dcbe
00000050: 6cdd 353d d100 923c 95b6 b93c 2d71 083e
00000060: af72 d2bb 72b1 8c3d e196 1b3e 0c86 763e
00000070: ccfb 023d 99ac bbbc 49e3 febd 7137 8ebb
00000080: 3fd0 b53e 368b 73be 6c06 bbbe 8552 043d
00000090: 64a7 3abb 8879 8f3d c70b 87bd 1b34 4a3d
000000a0: 18df 0d3d 9745 4ebd 9a60 20bc 9f71 c6bd
000000b0: e7db 013d c0a3 443e e6a0 c0be 1763 133e
000000c0: 434d 3dbe 6784 da3d 4b11 743d 169a dabe
000000d0: 2955 003d d2dc 1bbd 7aea 393c d274 cf3d
000000e0: 01ea 32bc a9e1 a33d cb15 1a3e 51ad 8d3e
000000f0: a756 053d f55c 8ebc 245e 0ebe 78b0 933c
00000100: f643 913e f340 6fbe ac56 ffbe 551c 123c
00000110: 7f07 603c 8f3c 9e3d adb7 aebd f451 cb3d
00000120: ac19 3fbc 75dc c5bc b2a5 a43b f261 d7bd
00000130: 73ae 243c 5759 583e 4970 99be 1da1 ba3d
00000140: 5cf1 32be 3fa9 fc3d 534f 293d 3f6f c8be
00000150: 505b 823a bbda 13bd 972a 03bb 51df 0b3d
00000160: 4eb5 75bb 2d3c 043d 6593 043e 6c2e 263e
00000170: caa0 793c 073f 35bb 7020 37be 2b0d ecbb
00000180: 1d80 cb3e 48f5 5cbe 2576 d6be 5763 613d
00000190: 9779 3abd 5464 db3d b1c3 b4bd f985 783d
000001a0: 4297 173d 6815 16bd b882 c9ba 187c 32be
000001b0: ba99 373d 093d 113e 5bd9 56be 3c71 1b3e
000001c0: 7f65 4dbe e56f e43d e34e eb3c b4de 99be
000001d0: e673 0e3d 9bd8 23bd bdb2 b6ba 0d5b 4c3e
000001e0: 7733 403b 0026 b73d a407 283e f093 a83e
000001f0: 8b17 d03c f5d8 eebc 9d89 2bbe 3a65 06bd
00000200: e413 ce3e a4f5 84be e51b e2be 0825 dc3c
00000210: dbb2 9cbc 4368 bc3d 08ce b3bd d739 853d
00000220: cebd c73c 1a8f 1dbc f374 acbb ccb4 1ebe
00000230: 1a90 9c3b 6015 313e 07a0 9cbe 3cae 183e
00000240: f64c 35be 2e08 d53d e71a 523d d5c5 c0be
00000250: 38af 9e3d eaa1 06bc 6cc9 023d 1dc1 f1bc
00000260: b9a0 53bc bf58 b23d ccee 1b3e 6717 f63d
00000270: 0b7b 513d a250 14bd af96 20be 9230 b8bc
00000280: 1df4 d43e 8679 6cbe 8664 a0be 1fd7 9c3c
00000290: 6012 b43b f951 8f3d 3bb4 c9bd 9efd 1e3d
000002a0: b2b0 8b3c 2bba e9bc 25c1 75bc beec 00be
000002b0: 51ae 723c c89c 503e 3df4 6ebe d022 073e
000002c0: f341 19be fa6c a53d a22b 463d ad12 c2be
000002d0: 2ff4 d93c 52f0 afbc 70d8 adbc aa73 c83d
000002e0: 2629 3f3c 2d58 b93d 00b8 153e 9525 b83e
000002f0: 355a e63c 28d8 b5ba c3cf 21be d5d1 6cbc

actor_linear.bias f4 [6]
0.047202144 0.37092674 0.27082652 0.21814795 0.2550399 0.26107663
00000000: 0957 413d 1cea bd3e c6a9 8a3e 2d62 5f3e
00000010: 9794 823e d6ab 853e
