spaceinvaders-v0-bottom-7fskip_latent32/model.140.tar (torch, 223035 bytes, 13 tensors)

conv1.weight f4 [32, 4, 3, 3]
0.034371592 0.009830763 0.018906519 -0.17470486 -0.5734456 0.120269895 0.17089853 0.21422833
0.032268595 -0.0069731665 0.16441062 0.043678153 0.0023776502 -0.03726762 -0.10389159 0.15705058
0.07840165 0.0060308184 0.040571574 0.23182827 -0.06302629 -0.062340528 -0.14580992 -0.20819457
0.22406402 -0.04847563 0.20122407 0.036079362 -0.5172382 -0.013323661 0.15099113 0.69156635
0.3167663 -0.45631936 -0.20780128 -0.3315713 -0.046542726 -0.021399708 0.18430305 -0.11901831
0.14620563 0.15890548 0.1566186 -0.14473236 -0.18822317 0.061882313 -0.06121662 -0.037920903
0.018620543 0.009066297 -0.06535514 -0.00036072786 -0.030818803 -0.017958065 -0.094225384 0.26013887
-0.10417194 -0.120327204 0.1360615 0.056496076 0.10500551 -0.048884585 0.056741618 0.45733345
-0.38352415 -0.084340096 0.05053632 -0.28547305 -0.03076031 -0.34265932 0.44090006 -0.08432101
0.1341502 -0.15056436 0.16772924 -0.008424153 0.12626243 0.18483889 -0.3433964 0.0543377
-0.1333796 -0.21569215 0.0268836 -0.047686715 0.028663695 -0.16525064 -0.20229484 0.04578806
-0.026665036 0.26384753 0.10516675 -0.08520779 0.28881872 0.1469555 -0.08786765 0.046431676
0.15105194 0.0018577426 -0.099953614 -0.072556525 0.23194991 -0.13915196 0.060907766 -0.20740378
-0.2863094 -0.1136457 0.2917471 0.030038174 0.28885943 0.1477925 0.055111922 0.15114102
0.207125 0.01775927 0.15055744 0.49485403 0.09728187 0.11880582 -0.23865944 -0.114955164
-0.1259221 -0.0866993 0.10933984 0.017383683 0.14226574 -0.15945937 -0.004636792 -0.16376019
0.098510295 0.10443984 -0.291028 0.032087028 0.24175268 0.19424553 0.19203551 0.21141134
0.05206732 0.15248774 -0.29735878 -0.93045175 -0.2925499 -0.0442482 -0.22287866 0.02449277
-0.12853137 -0.13985555 0.2582873 0.2178614 0.07730014 0.101312384 -0.066797964 0.4210239
-0.13826585 -0.07247937 -0.22618723 -0.14065899 -0.12243906 -0.12403596 -0.043413382 -0.13284634
0.024233097 0.01079299 -0.0314786 0.090060286 0.018211085 -0.08446342 -0.32173282 -0.16847849
-0.17222987 -0.22348832 -0.23480524 0.27195254 0.0009025276 -0.17076348 0.13816097 0.42790586
0.3084029 -0.038587138 -0.13095288 0.35441175 -0.1816125 -0.25823036 -0.2131666 -0.2983289
-0.5577921 -0.13869074 -0.36184683 -0.4795041 -0.22500388 -0.057302758 -0.006320252 -0.08839122
-0.22149785 -0.15173078 -0.06522354 -0.1994843 -0.020918084 0.0060475166 0.257214 -0.013924483
0.095292725 -0.15472902 0.19891897 -0.16708553 0.10315122 0.09931859 -0.1377766 0.39732486
0.54196316 0.4440765 0.05516062 0.2914614 -0.11851347 0.4110934 0.49839902 0.33424664
0.34552854 -0.11200943 -0.052239098 0.3406874 0.09573823 0.36405712 -0.3772742 -0.48697165
-0.059137087 -0.010529806 0.018389387 0.2552979 0.21376543 0.124310374 0.09643559 -0.17320234
0.031660587 -0.14526066 0.04151531 -0.12405841 0.053103328 0.16163641 0.07207013 -0.062070295
-0.12136121 0.055556953 0.06825822 -0.0498479 -0.3687226 -0.07471586 -0.2698866 -0.43704796
-0.17098859 0.2916043 0.5079538 0.08148671 0.05559362 -0.07754149 -0.07984288 -0.44830367
00000000: 3ac9 0c3d 3511 213c d8e1 9a3c d5e5 32be
00000010: 55cd 12bf 1050 f63d 0600 2f3e ac5e 5b3e
00000020: 132c 043d 297f e4bb 425b 283e dde7 323d
00000030: 5ad2 1b3b efa5 18bd 1dc5 d4bd ded1 203e
00000040: 0b91 a03d 2c9e c53b 612e 263d 6464 6d3e
00000050: ed13 81bd c858 7fbd 324f 15be f530 55be
00000060: 0a71 653e 628e 46bd af0d 4e3e f4c7 133d
00000070: b969 04bf 7c4b 5abc 6b9d 1a3e 7e0a 313f
00000080: 312f a23e b1a2 e9be dcc9 54be b7c3 a9be
00000090: 96a3 3ebd 714e afbc f0b9 3c3e dfbf f3bd
000000a0: eeb6 153e 1eb8 223e a060 203e b834 14be
000000b0: 93bd 40be 4f78 7d3d 47be 7abd f352 1bbd
000000c0: 1c8a 983c ce8a 143c ead8 85bd 1320 bdb9
000000d0: b777 fcbc cb1c 93bc 3df9 c0bd ec30 853e
000000e0: 1958 d5bd 1c6e f6bd b553 0b3e 6e68 673d
000000f0: 210d d73d 343b 48bd e669 683d 9c27 ea3e
00000100: 475d c4be 80ba acbd 2cff 4e3d 8629 92be
00000110: 0cfd fbbc 0b71 afbe a7bd e13e 7eb0 acbd
00000120: ac5e 093e 8b2d 1abe 37c1 2b3e 7505 0abc
00000130: f04a 013e 6846 3d3e a7d1 afbe 3591 5e3d
00000140: a994 08be 67de 5cbe ff3a dc3c 2553 43bd
00000150: 20d0 ea3c 7737 29be 6126 4fbe 438c 3b3d
00000160: a270 dabc 0617 873e aa61 d73d 6c81 aebd
00000170: 0ce0 933e 817b 163e f4f3 b3bd 242f 3e3d
00000180: 5cad 1a3e 7f7f f33a 7bb4 ccbd 8498 94bd
00000190: 4784 6d3e da7d 0ebe 6c7a 793d a861 54be
000001a0: 2597 92be 14bf e8bd e05f 953e 9e12 f63c
000001b0: 62e5 933e eb56 173e 0abd 613d b6c4 1a3e
000001c0: 9318 543e e37b 913c bb2b 1a3e 825d fd3e
000001d0: b83b c73d 7750 f33d 2463 74be 9d6d ebbd
000001e0: b9f1 00be 678f b1bd 91ed df3d 3a68 8e3c
000001f0: 1cae 113e 5149 23be 3bf0 97bb c0b0 27be
00000200: c4bf c93d 8ee4 d53d 9f01 95be b06d 033d
00000210: 048e 773e 4de8 463e f5a4 443e 377c 583e
00000220: 8b44 553d bf25 1c3e 693f 98be 1632 6ebf
00000230: 1ac9 95be 9a3d 35bd 4e3a 64be 10a5 c83c
00000240: ba9d 03be 4b36 0fbe 3c3e 843e 0f17 5f3e
00000250: 894f 9e3d de7c cf3d 5fcd 88bd 7290 d73e
00000260: 9095 0dbe 1070 94bd a09d 67be e908 10be
00000270: 54c1 fabd 9106 febd 3bd2 31bd df08 08be
00000280: 7d84 c63c 15d5 303c b4ef 00bd 8771 b83d
00000290: 6a2f 953c 28fb acbd 2aba a4be a085 2cbe
000002a0: 075d 30be 1fda 64be c970 70be 5d3d 8b3e
000002b0: 9a97 6c3a 9fdc 2ebe 127a 0d3e 7a16 db3e
000002c0: fce6 9d3e 8c0d 1ebd 8318 06be 7575 b53e
000002d0: a1f8 39be c536 84be 5848 5abe 91be 98be
000002e0: 77cb 0ebf f204 0ebe fd43 b9be 9081 f5be
000002f0: 6b67 66be 4cb6 6abd 1e1a cfbb 7506 b5bd
00000300: 55d0 62be 505f 1bbe eb93 85bd 9d45 4cbe
00000310: 675c abbc 3f2a c63b 8eb1 833e 8423 64bc
00000320: d528 c33d 4971 1ebe 6ab1 4b3e 7818 2bbe
00000330: f240 d33d 8b67 cb3d 4f15 0dbe 2a6e cb3e
00000340: 19be 0a3f ff5d e33e 1af0 613d 6e3a 953e
00000350: 31b7 f2bd d67a d23e 282e ff3e 6022 ab3e
00000360: 1ee9 b03e 3365 e5bd aaf8 55bd 946e ae3e
00000370: 6812 c43d b265 ba3e 152a c1be 5954 f9be
00000380: bb39 72bd 3585 2cbc 57a5 963c 68b6 823e
00000390: 53e5 5a3e 7096 fe3d 0680 c53d f45b 31be
000003a0: 88ae 013d 36bf 14be f50b 2a3d 5612 febd
000003b0: e082 593d 0484 253e 8199 933d 6c3d 7ebd
000003c0: 3a8c f8bd b08f 633d f7ca 8b3d 502d 4cbd
000003d0: 35c9 bcbe a104 99bd 942e 8abe c0c4 dfbe
000003e0: a217 2fbe 294d 953e 4309 023f 81e2 a63d
000003f0: 23b6 633d 13ce 9ebd aa84 a3bd 0f88 e5be

conv1.bias f4 [32]
-0.004496776 -0.0015735027 -0.0008656635 -0.007548329 0.006058417 0.009879507 -0.0045995284 -0.004081622
8.534718e-06 0.00051652367 0.001874354 -0.0027835036 0.008660922 0.0016104558 -0.0012122421 0.06766388
0.0031482112 0.0025365036 0.043724176 -0.00081474334 -0.005632851 0.002509905 -0.0011782364 -0.002793071
-0.0010297575 -0.0044397353 0.0012402564 -0.004137504 0.006267134 0.003142249 -0.00411511 0.00016474583
00000000: b159 93bb fd3d ceba b2ed 62ba f957 f7bb
00000010: af85 c63b a8dd 213c a4b7 96bb 21bf 85bb
00000020: 5630 0f37 5167 073a e2ac f53a 716b 36bb
00000030: 8ae6 0d3c ee15 d33a 18e4 9eba 5c93 8a3d
00000040: 3852 4e3b 783b 263b 1f18 333d 8094 55ba
00000050: c793 b8bb 387d 243b 0e6f 9aba f50b 37bb
00000060: eef8 86ba 337b 91bb 1990 a23a e693 87bb
00000070: 885c cd3b 31ee 4d3b 0bd8 86bb 9fbf 2c39

conv2.weight f4 [32, 32, 3, 3]
-0.3405816 -0.15000933 0.19313818 0.17078869 0.2015978 -0.15053268 -0.18720786 0.006728738
0.017947316 -0.012387253 -0.2601172 0.0566908 0.22515647 -0.02134281 0.07646821 0.10506935
-0.166732 0.15865853 -0.033010643 0.006169299 -0.2765121 -0.12818402 0.072058044 0.045271166
0.057558004 0.07669495 0.06732079 -0.22857998 -0.21409489 -0.124943465 -0.23760758 -0.46070513
0.29144558 -0.08682512 0.14289613 0.33575958 0.19127367 0.07829493 0.05725504 0.16860193
0.14071776 -0.20892455 -0.07466636 -0.08459462 0.15433584 0.106432 -0.13718715 -0.3998203
0.124207854 0.052835576 -0.052004825 0.1704305 0.32913345 0.16853043 0.42214093 0.076670684
-0.36292696 -0.039167948 0.13677505 0.030142069 -0.064002834 -0.029217342 -0.28718355 -0.18420891
-0.05284914 0.04511453 0.33548313 -0.06860942 -0.091282845 -0.028635433 0.07585406 0.082859
-0.12877096 0.09149152 0.31321466 0.0025517626 0.05878914 -0.024245283 -0.08353036 -0.18084037
-0.09971551 0.19355087 -0.16290319 0.05928287 -0.017289443 0.0906538 -0.24308488 0.06838772
0.30761775 -0.014140063 0.1659269 -0.008280383 -0.11181507 0.077932104 0.49429408 -0.43073136
0.05209574 0.015890568 -0.09691254 0.19347727 -0.0022859806 -0.06948026 0.31540304 0.020442035
-0.13032639 -0.049400073 -0.15724806 -0.051762424 -0.087559484 -0.029696288 0.13645907 0.44438383
0.18956007 -0.19354962 -0.13571018 -0.23427415 -0.19569804 -0.13323894 0.08153707 0.71343684
0.27805322 0.033510067 0.1352148 0.021427281 -0.40877149 -0.0986049 0.14789028 0.1317984
0.07451075 0.21928683 -0.13076706 0.08447826 -0.025357047 -0.16400704 0.053964145 -0.15083076
-0.08507552 -0.06940696 -0.009219744 0.17066483 0.4131761 -0.10197905 -0.09523641 -0.065657906
-0.22907041 -0.09436856 -0.12557213 0.17043206 0.03913102 -0.14578302 0.0916953 0.0019986602
-0.012698854 -0.114227094 0.17409591 -0.09246259 -0.47775435 0.1567998 -0.22808017 0.231894
-0.09877219 0.07525906 -0.07731364 -0.101430364 -0.018104369 0.049593892 0.11902432 0.27505007
-0.13852769 -0.13596945 -0.08693494 0.17395665 -0.024615498 -0.05854303 0.0785397 0.060282305
0.037120108 -0.30435187 -0.12429394 -0.12727425 -0.09497035 -0.035783883 0.031997748 0.02313225
0.20206368 -0.20559327 -0.094428144 0.12877588 0.012921745 0.15862077 -0.3057142 0.048569392
-0.08646518 -0.018360628 -0.0248667 -0.042680398 -0.12520804 0.12787692 -0.12329624 0.106551625
-0.085366696 0.39733458 0.2082059 0.0073692827 -0.2541009 -0.03146717 -0.05852471 -0.10490767
-0.11758931 0.33180365 -0.3471508 -0.20813465 -0.08839861 0.24046196 0.12636502 -0.004788288
0.08471358 0.042892184 0.20567665 0.008200276 -0.1274204 -0.03141423 0.10002409 -0.31295305
-0.15612225 0.2550843 0.09742624 0.09207039 0.07745031 -0.0024730992 -0.19503084 -0.26135945
0.09240668 0.04491867 0.105320886 0.010903685 -0.14548801 0.025456274 0.12961034 -0.21668208
-0.15146162 0.32324415 -0.0660567 -0.04039569 -0.13871889 -0.015268033 -0.15618286 -0.25843394
0.10378406 0.031496443 0.15073009 0.2132145 0.39461946 0.25358003 -0.28591058 -0.30411062
00000000: b660 aebe 0c9c 19be 04c6 453e 3be3 2e3e
00000010: a76f 4e3e 3d25 1abe 6bb3 3fbe bf7c dc3b
00000020: 4006 933c e8f3 4abc 152e 85be 9d34 683d
00000030: 6b8f 663e 1ed7 aebc 5d9b 9c3d 992e d73d
00000040: cbbb 2abe 6277 223e 2b36 07bd d527 ca3b
00000050: fe92 8dbe ac42 03be 2b93 933d 426e 393d
00000060: f1c1 6b3d 3e12 9d3d 7bdf 893d df10 6abe
00000070: b13b 5bbe 5ce2 ffbd 674f 73be 8be1 ebbe
00000080: 5b38 953e 5ed1 b1bd 5d53 123e aee8 ab3e
00000090: 3fdd 433e 1859 a03d 4384 6a3d fca5 2c3e
000000a0: 5118 103e 51f0 55be adea 98bd f23f adbd
000000b0: 370a 1e3e 05f9 d93d ca7a 0cbe 3fb5 ccbe
000000c0: b060 fe3d 1e6a 583d 0303 55bd 5585 2e3e
000000d0: 2e84 a83e 3e93 2c3e db22 d83e 8505 9d3d
000000e0: 90d1 b9be 926e 20bd c20e 0c3e 80ec f63c
000000f0: eb13 83bd 3559 efbc b909 93be 43a1 3cbe
00000100: 5778 58bd 03ca 383d 72c4 ab3e 1883 8cbd
00000110: 80f2 babd db94 eabc 6059 9b3d fbb1 a93d
00000120: 89dc 03be e85f bb3d ac5d a03e 793b 273b
00000130: e2cc 703d 0b9e c6bc f711 abbd 382e 39be
00000140: a537 ccbd 3332 463e 18d0 26be 98d2 723d
00000150: 97a2 8dbc b3a8 b93d 3eeb 78be dc0e 8c3d
00000160: 1380 9d3e b9ab 67bc bee8 293e 72aa 07bc
00000170: 4dff e4bd de9a 9f3d 1d14 fd3e d288 dcbe
00000180: 5862 553d f02c 823c 157a c6bd e81e 463e
00000190: 64d0 15bb ab4b 8ebd 827c a13e 0e76 a73c
000001a0: 4874 05be bb57 4abd a305 21be d604 54bd
000001b0: 6352 b3bd a145 f3bc edbb 0b3e 4786 e33e
000001c0: 091c 423e df31 46be 9cf7 0abe 90e5 6fbe
000001d0: 1165 48be ca6f 08be e8fc a63d cca3 363f
000001e0: fe5c 8e3e da41 093d c075 0a3e 4488 af3c
000001f0: 7f4a d1be 5ef1 c9bd 8d70 173e 29f6 063e
00000200: 1899 983d ba8c 603e cde7 05be f002 ad3d
00000210: 95b9 cfbc 76f1 27be 8209 5d3d 6173 1abe
00000220: 133c aebd 3c25 8ebd 690e 17bc c3c2 2e3e
00000230: d18b d33e 64da d0bd 4f0b c3bd a777 86bd
00000240: 6f91 6abe 4e44 c1bd fb95 00be be85 2e3e
00000250: d947 203d 2548 15be bfca bb3d f4fb 023b
00000260: db0e 50bc e5ef e9bd 3346 323e 075d bdbd
00000270: 389c f4be 2090 203e d98d 69be 9f75 6d3e
00000280: 1349 cabd 6c21 9a3d 9d56 9ebd b9ba cfbd
00000290: 9d4f 94bc f722 4b3d 06c3 f33d 5dd3 8c3e
000002a0: 34da 0dbe 933b 0bbe f20a b2bd b121 323e
000002b0: 71a6 c9bc d1ca 6fbd 6cd9 a03d 94ea 763d
000002c0: 410b 183d 02d4 9bbe d28d febd 2e54 02be
000002d0: d17f c2bd 1f92 12bd 1210 033d d87f bd3c
000002e0: c8e9 4e3e 0b87 52be 8b63 c1bd d3dd 033e
000002f0: bab5 533c 7c6d 223e 9286 9cbe b3f0 463d
00000300: a814 b1bd 0769 96bc 40b5 cbbc a4d1 2ebd
00000310: 8936 00be 2bf2 023e bd82 fcbd bd37 da3d
00000320: bcd4 aebd 706f cb3e ed33 553e 067a f13b
00000330: 8319 82be b8e3 00bd 9bb7 6fbd d5d9 d6bd
00000340: aad2 f0bd 2be2 a93e c0bd b1be 4021 55be
00000350: 550a b5bd a93b 763e d565 013e 12e7 9cbb
00000360: 507e ad3d b7af 2f3d e69c 523e 735a 063c
00000370: 7e7a 02be 35ac 00bd 6ed9 cc3d 623b a0be
00000380: 83de 1fbe 699a 823e 6987 c73d 678f bc3d
00000390: 459e 9e3d b813 22bb 2ab6 47be e8d0 85be
000003a0: b73f bd3d a4fc 373d 7ab2 d73d 5fa5 323c
000003b0: cffa 14be ad89 d03c 93b8 043e e8e1 5dbe
000003c0: c118 1bbe 4280 a53e bc48 87bd f375 25bd
000003d0: 530c 0ebe c626 7abc 66ee 1fbe 7451 84be
000003e0: bd8c d43d 6a02 013d fd58 1a3e e754 5a3e
000003f0: 900b ca3e 3ed5 813e df62 92be 63b4 9bbe

conv2.bias f4 [32]
-0.0061414004 -0.003638785 -0.006124172 -0.011626137 -0.057442572 -0.009245333 -0.0023599432 -0.007708771
-0.0026357754 -0.023378707 -0.027213113 -0.026457414 0.03362366 -0.01094689 -0.028622255 -0.0018568296
-0.0052853115 -0.0031712763 0.011738714 0.004639911 -0.0042444533 -0.0048647677 -0.009497825 0.0021052426
0.0029864036 -0.0031164747 -0.01249872 -0.016129758 0.01839534 0.0057449862 -0.0017897433 -0.00876992
00000000: cd3d c9bb af78 6ebb 47ad c8bb 8e7b 3ebc
00000010: e748 6bbd bd79 17bc 47a9 1abb dc99 fcbb
00000020: f9bc 2cbb b484 bfbc 09ee debc 38bd d8bc
00000030: f7b8 093d 965a 33bc 3879 eabc dd60 f3ba
00000040: 6830 adbb 30d5 4fbb bc53 403c 650a 983b
00000050: 0e15 8bbb a168 9fbb c49c 1bbc 1cf8 093b
00000060: 8ab7 433b c53d 4cbb 6ec7 4cbc 8e22 84bc
00000070: d3b1 963c 7040 bc3b d295 eaba b6af 0fbc

conv3.weight f4 [32, 32, 3, 3]
-0.056636162 -0.02306503 -0.26397496 -0.027542429 0.047699995 0.08516078 0.053853933 -0.19599155
-0.05166278 0.05671907 -0.046267096 0.1375104 -0.16040099 -0.17830254 0.1622976 0.046688557
-0.08850268 -0.28821024 -0.0947744 -0.040778033 0.20015313 0.21488617 0.15965317 -0.024690272
-0.08601571 -0.06508231 0.034872834 -0.022102801 -0.21268101 -0.4398917 0.1536323 -0.22164504
-0.22606209 0.42915106 0.0027147245 -0.37595934 0.18408097 0.026975343 -0.31799152 0.0011994395
-0.16034234 -0.14515913 0.17355362 -0.10591239 -0.01816475 -0.03170492 0.0035864539 -0.04538666
0.14242803 0.109583646 -0.2035798 -0.28846312 0.01599668 0.15303782 0.13819377 -0.008424216
-0.15284146 0.15438236 -0.15505502 0.07660935 -0.068036556 0.17256768 0.07436321 -0.09662411
-0.22558267 -0.11220928 0.2376769 -0.20695408 -0.09690709 -0.13360299 -0.029697198 -0.0024508429
0.060234122 -0.1092795 0.122897595 0.1875294 -0.0010966037 0.21631384 -0.0369824 0.18186525
-0.07112709 0.11881959 -0.09238052 -0.102280214 0.028208083 -0.09513686 -0.09502691 -0.12838545
-0.41157368 0.39200884 -0.23445596 -0.0790569 -0.10354987 0.08227444 0.24247229 -0.29417855
-0.17301933 -0.19661188 0.24727798 0.17845562 0.08624471 -0.1408793 0.2958273 0.25078693
0.027064404 -0.011982502 0.15563402 -0.18550654 -0.17175785 0.23282771 0.13416547 -0.16547394
0.09751638 0.0006244368 0.046169437 0.17700544 -0.06486131 -0.11174449 0.055163577 0.22311212
0.01864553 0.07617737 0.12008206 -0.09741704 0.06733841 0.5923855 -0.00386127 0.28868794
0.010315833 -0.059453662 0.098098084 -0.16712306 -0.092579 0.08317882 0.10424173 0.20713401
-0.110839665 -0.055393692 -0.23126529 0.013543415 0.28332695 0.07549363 0.053502314 -0.47061813
0.0010959976 -0.06701618 0.18566461 -0.15047263 0.21493477 -0.1483299 -0.018213058 0.12385924
-0.37868452 -0.35103366 -0.2618438 0.1944288 -0.20960565 0.10595993 0.12740885 0.03637929
-0.1002677 0.1287774 0.09694094 -0.0640699 -0.28775162 0.054465663 -0.02675716 -0.132723
0.014399219 0.1238855 -0.29276302 -0.029061107 0.16877505 0.08906219 -0.28207424 -0.16036427
-0.061926305 -0.12462049 -0.12528968 -0.063064486 0.13483274 -0.2955705 -0.22166266 -0.09113511
0.4679814 -0.06152558 -0.0528328 -0.08102998 -0.14193852 0.16950452 -0.06253951 -0.12546752
0.031828936 -0.12952967 -0.09560465 0.1571091 0.17151271 -0.0057065208 0.12125354 -0.018632445
-0.27979508 -0.1741133 0.039189246 0.009706567 -0.06255013 0.32465842 -0.035371486 0.16817348
0.06254092 -0.37244788 0.3700363 -0.34804794 -0.12999447 0.049683865 -0.12848412 -0.12623952
0.10398526 -0.01734841 0.17755498 -0.13746996 -0.06407255 0.15433325 -0.2814445 0.1024683
0.2604666 -0.02386436 -0.123923235 0.22892591 -0.04585095 -0.08871574 0.12348511 -0.019223902
0.14333555 -0.092589945 -0.32183 0.2574193 0.1873536 -0.06940066 -0.12759629 0.011116296
0.123013325 -0.05530445 0.17539842 0.071355045 0.10807724 0.27108935 0.10115622 -0.1203006
-0.21155299 0.034126732 -0.41070828 -0.05663967 -0.19890067 -0.022753509 0.14611083 -0.2762771
00000000: 52fb 67bd e0f2 bcbc ba27 87be a9a0 e1bc
00000010: 1261 433d c668 ae3d f195 5c3d 02b2 48be
00000020: 5a9c 53bd 4152 683d 9182 3dbd 87cf 0c3e
00000030: 2840 24be f194 36be 5831 263e 803c 3f3d
00000040: e540 b5bd 4b90 93be 1519 c2bd de06 27bd
00000050: f1f4 4c3e 1f0b 5c3e 1f7c 233e 4143 cabc
00000060: 0129 b0bd e049 85bd d1d6 0e3d ef10 b5bc
00000070: 0dc9 59be 7c39 e1be c951 1d3e ebf6 62be
00000080: d27c 67be b0b9 db3e 85e9 313b be7d c0be
00000090: b97f 3c3e 65fb dc3c c9cf a2be 8336 9d3a
000000a0: c830 24be 98a4 14be 0ab8 313e 98e8 d8bd
000000b0: 3ece 94bc 05dd 01bd b60a 6b3b 5de7 39bd
000000c0: a7d8 113e 646d e03d 3977 50be 70b1 93be
000000d0: 780b 833c f2b5 1c3e ab82 0d3e b905 0abc
000000e0: 7982 1cbe 6916 1e3e bec6 1ebe 5de5 9c3d
000000f0: c056 8bbd 95b5 303e bd4b 983d dde2 c5bd
00000100: 25ff 66be fbcd e5bd 9361 733e c5eb 53be
00000110: 3977 c6bd 39cf 08be 8a47 f3bc 529e 20bb
00000120: 0eb8 763d eecd dfbd bcb1 fb3d b507 403e
00000130: eabb 8fba 6081 5d3e db7a 17bd e23a 3a3e
00000140: 14ab 91bd af57 f33d 0032 bdbd 4a78 d1bd
00000150: a314 e73c 1dd7 c2bd 789d c2bd 7a77 03be
00000160: c9b9 d2be 62b5 c83e 3915 70be 96e8 a1bd
00000170: f411 d4bd 807f a83d a84a 783e 929e 96be
00000180: fb2b 31be a054 49be 7036 7d3e 12bd 363e
00000190: 11a1 b03d aa42 10be ad76 973e 2567 803e
000001a0: 2bb6 dd3c 4252 44bc 865e 1f3e 6df5 3dbe
000001b0: 4ae1 2fbe 636a 6e3e ac62 093e 0072 29be
000001c0: abb6 c73d 3fb1 233a 2a1c 3d3d ea40 353e
000001d0: 02d6 84bd 4cda e4bd 34f3 613d 8177 643e
000001e0: 83be 983c e202 9c3d 95ed f53d 9682 c7bd
000001f0: b8e8 893d 93a6 173f 5c0d 7dbb e8ce 933e
00000200: bd03 293c af85 73bd a6e7 c83d 4f22 2bbe
00000210: 0f9a bdbd a859 aa3d b07c d53d f01a 543e
00000220: e8ff e2bd 7fe4 62bd cfd0 6cbe 33e5 5d3c
00000230: 3b10 913e 679c 9a3d 3e25 5b3d dcf4 f0be
00000240: 94a7 8f3a c73f 89bd dd1e 3e3e 7f15 1abe
00000250: dc17 5c3e cbe3 17be 8d33 95bc eaa9 fd3d
00000260: f0e2 c1be afba b3be 6410 86be 5818 473e
00000270: dda2 56be 8501 d93d 7777 023e 7302 153d
00000280: 2759 cdbd 39de 033e f988 c63d 1437 83bd
00000290: 2e54 93be 6317 5f3d d531 dbbc 8ae8 07be
000002a0: b4ea 6b3c aeb7 fd3d 09e5 95be 8f11 eebc
000002b0: 5ed3 2c3e 3d66 b63d 096c 90be 8836 24be
000002c0: 70a6 7dbd 0739 ffbd f04b 00be f427 81bd
000002d0: 9811 0a3e 0455 97be 89fb 62be 0ba5 babd
000002e0: 429b ef3e 3f02 7cbd 3567 58bd 0cf3 a5bd
000002f0: 5558 11be 9892 2d3e b714 80bd 8f7a 00be
00000300: 0f5f 023d 6da3 04be 5fcc c3bd 35e1 203e
00000310: 07a1 2f3e c4fd babb c753 f83d 12a3 98bc
00000320: 4d41 8fbe c24a 32be e784 203d 4b08 1f3c
00000330: 481a 80bd a139 a63e b1e1 10bd ab35 2c3e
00000340: 7415 803d 7db1 bebe 6675 bd3e 5733 b2be
00000350: 451d 05be 4f81 4b3d 5791 03be ef44 01be
00000360: 39f6 d43d 411e 8ebc f9d0 353e edc4 0cbe
00000370: 7838 83bd 8909 1e3e 7e19 90be e6da d13d
00000380: e15b 853e 317f c3bc 77cb fdbd 8e6b 6a3e
00000390: 35ce 3bbd 99b0 b5bd c3e5 fc3d 727b 9dbc
000003a0: 8ec6 123e cc9f bdbd e7c6 a4be 76cc 833e
000003b0: 9fd9 3f3e ef21 8ebd 9aa8 02be 2021 363c
000003c0: 69ee fb3d eb86 62bd a59b 333e 9822 923d
000003d0: 9a57 dd3d 39cc 8a3e fe2a cf3d 2960 f6bd
000003e0: 59a1 58be 79c8 0b3d 5b48 d2be 00ff 67bd
000003f0: 9eac 4bbe 9165 babc 149e 153e 3174 8dbe

conv3.bias f4 [32]
-0.10544959 -0.15239103 0.0025704089 -0.11018977 -0.053315982 -0.3974749 -0.1184693 -0.13836344
-0.104989275 -0.030501682 -0.14733635 -0.13785319 -0.037720602 -0.10202215 -0.12527028 -0.039196808
-0.0774467 -0.035161808 -0.35835972 -0.10730806 -0.19591534 -0.017314663 -0.16376017 -0.22867641
-0.06519353 -0.12841853 0.019997332 -0.082010835 -0.08481812 -0.10326363 0.04778635 -0.1395038
00000000: f4f5 d7bd 650c 1cbe 4e74 283b 2dab e1bd
00000010: dc61 5abd d581 cbbe 08a0 f2bd 25af 0dbe
00000020: 9e04 d7bd aade f9bc 57df 16be 6329 0dbe
00000030: eb80 1abd fdf0 d0bd da46 00be d58c 20bd
00000040: 609c 9ebd d405 10bd ed7a b7be 54c4 dbbd
00000050: 089e 48be 7bd7 8dbc bfb0 27be 262a 6abe
00000060: 2f84 85bd 2680 03be 72d1 a33c 4cf5 a7bd
00000070: 1fb5 adbd e27b d3bd 9fbb 433d 16da 0ebe

conv4.weight f4 [32, 32, 3, 3]
0.30053285 -0.11149645 0.06503753 -0.12173893 0.056106504 -0.08215382 -0.19862208 -0.18052565
-0.26763692 -0.12972458 -0.21953633 0.05822584 -0.043417733 0.0975498 -0.17764449 -0.014172383
0.12206499 0.002992922 -0.26788765 0.16569526 0.038914356 -0.15003467 -0.09963929 0.08495874
0.058968164 -0.047866873 -0.013141582 0.17190328 0.067730375 -0.041903198 0.21841484 -0.26264516
-0.09459505 -0.050566822 -0.14707288 0.08586273 0.12788178 -0.2354345 -0.1713081 0.09555206
-0.17734906 0.14019676 0.14526847 -0.11007769 0.06896794 0.3238593 -0.12411843 0.09060546
-0.051072527 0.026543938 0.13945448 -0.0866956 -0.0005062592 -0.05316552 0.25074628 -0.2606731
-0.038770597 -0.058195025 -0.00061613787 0.013221085 -0.16101417 0.13259687 0.058733538 0.10244421
-0.049238116 0.1543481 0.112953976 0.0384974 0.14322463 -0.07584735 0.041275207 0.25774106
0.07243608 -0.014927065 -0.0902951 0.03583188 0.22487713 -0.04002738 -0.053591363 0.10265412
-0.07038788 0.13363568 -0.41137227 -0.008681285 -0.20458537 0.30927536 0.14054075 -0.16856013
0.1660139 0.19290859 0.18870685 0.038737405 0.08708575 -0.111233786 0.13576876 -0.1900008
0.045362897 -0.22429702 0.33061117 -0.12089823 0.18481612 0.026621703 0.31767744 -0.31489483
-0.2636584 0.12293916 0.021747554 -0.033191293 -0.121133775 0.0288274 0.2727497 -0.050201617
-0.058867637 0.060483713 -0.09395309 0.040327515 0.029257549 0.38321352 -0.40890497 0.09420754
0.17473133 -0.3238371 0.18906403 -0.068770334 -0.11351365 -0.14887674 0.1726489 -0.0752248
-0.05336819 -0.0013679331 -0.06271244 0.10567003 -0.12804078 0.11404484 -0.0830764 0.012606758
-0.043817304 0.24661115 -0.22999944 0.35882258 -0.13101012 -0.24690492 0.15424469 -0.046236396
-0.13258433 -0.09518265 -0.16631292 -0.10592944 0.3537583 0.15272474 0.23347221 -0.31209147
-0.0035061536 -0.22549398 0.026961828 -0.06496003 -0.10150043 -0.17976835 0.12095974 -0.08345161
-0.19827531 0.055092603 0.2260531 -0.05192042 -0.042019207 0.04851827 -0.029793173 -0.1988095
-0.06668521 -0.13698469 0.21172012 -0.15146793 0.008766038 -0.064753145 -0.12127804 0.18757845
-0.1004358 0.17216071 -0.22306739 -0.08454735 -0.016150184 0.052898135 0.23713216 0.24355955
-0.078749664 -0.32713258 -0.14502226 -0.08997292 -0.023832878 -0.086305164 -0.22250894 -0.076491676
0.074949734 -0.04366438 0.074322455 0.2562943 0.11754141 -0.29612336 0.09978329 0.30465233
-0.19975807 -0.2454852 0.5998779 -0.07545921 0.085183404 -0.3699367 0.03897063 -0.058680486
-0.13163492 -0.13609324 0.10317216 -0.09513554 -0.09580735 -0.106363416 -0.019388856 0.18447231
0.04397733 0.11666121 -0.0050730193 -0.32596022 -0.019834066 0.16936317 -0.03445836 0.1646318
0.12447533 0.07824545 -0.3278906 0.09681922 -0.15664794 0.06866376 0.11763514 -0.15728264
0.40367624 -0.18300164 -0.039055895 -0.020670144 0.14452593 0.2722475 0.33573672 0.042432867
-0.18281946 -0.11016492 0.25281912 0.15385862 -0.25599635 0.18756689 -0.013351513 -0.11456742
0.18880753 -0.10171664 0.21016623 -0.27267957 0.029555071 -0.013830179 0.11227653 -0.33504725
00000000: 71df 993e 4058 e4bd 6632 853d 4352 f9bd
00000010: efcf 653d 4340 a8bd 9663 4bbe b7db 38be
00000020: b507 89be 85d6 04be 22ce 60be 387e 6e3d
00000030: cbd6 31bd 31c8 c73d 70e8 35be 4833 68bc
00000040: 36fd f93d e624 443b 9228 89be 05ac 293e
00000050: a964 1f3d b0a2 19be af0f ccbd d9fe ad3d
00000060: 9a88 713d 0e10 44bd ca4f 57bc 6a07 303e
00000070: 39b6 8a3d b0a2 2bbd 24a8 5f3e 6d79 86be
00000080: 0dbb c1bd 281f 4fbd 469a 16be cdd8 af3d
00000090: 71f3 023e be15 71be 646b 2fbe ccb0 c33d
000000a0: fe9a 35be bd8f 0f3e 42c1 143e 6970 e1bd
000000b0: 103f 8d3d e3d0 a53e ce31 febd 5b8f b93d
000000c0: 6d31 51bd ac72 d93c 28cd 0e3e 768d b1bd
000000d0: 7bb6 04ba 17c4 59bd d161 803e f276 85be
000000e0: ebcd 1ebd e85d 6ebd 5084 21ba 409d 583c
000000f0: e6e0 24be 79c7 073e 9492 703d 45ce d13d
00000100: e8ad 49bd 6e0d 1e3e 6a54 e73d 73af 1d3d
00000110: 7aa9 123e db55 9bbd 3110 293d a3f6 833e
00000120: 5e59 943d a690 74bc a3ec b8bd 73c4 123d
00000130: 3146 663e c0f3 23bd 9e82 5bbd 533c d23d
00000140: 8527 90bd cbd7 083e 639f d2be f33b 0ebc
00000150: d47e 51be 5759 9e3e eae9 0f3e 079b 2cbe
00000160: 8cff 293e d489 453e 5e3c 413e 1dab 1e3d
00000170: 045a b23d 8ace e3bd f706 0b3e 928f 42be
00000180: 72ce 393d 1eae 65be de45 a93e 7e99 f7bd
00000190: 7040 3d3e c215 da3c 9ea6 a23e e539 a1be
000001a0: 3cfe 86be 87c7 fb3d ed27 b23c 98f3 07bd
000001b0: fc14 f8bd 7127 ec3c d9a5 8b3e 36a0 4dbd
000001c0: 311f 71bd c5bd 773d 7a6a c0bd 772e 253d
000001d0: 87ad ef3c 9034 c43e fe5b d1be e2ef c03d
000001e0: c5ec 323e facd a5be 009a 413e 76d7 8cbd
000001f0: d879 e8bd 2573 18be e0ca 303e 760f 9abd
00000200: 9a98 5abd 384c b3ba 616f 80bd 8769 d83d
00000210: 1f1d 03be 5790 e93d f623 aabd 938c 4e3c
00000220: c679 33bd a287 7c3e f984 6bbe 98b7 b73e
00000230: 8427 06be a5d4 7cbe 52f2 1d3e 6062 3dbd
00000240: 30c4 07be 1fef c2bd ef4d 2abe 89f1 d8bd
00000250: cf1f b53e e063 1c3e 5713 6f3e 74ca 9fbe
00000260: 7fc7 65bb e5e7 66be 0ddf dc3c c409 85bd
00000270: 75df cfbd 3215 38be bdb9 f73d ade8 aabd
00000280: af08 4bbe c8a8 613d 777a 673e 82aa 54bd
00000290: 551c 2cbd 18bb 463d d010 f4bc b894 4bbe
000002a0: 4192 88bd b745 0cbe 29cd 583e 691a 1bbe
000002b0: 6e9f 0f3c 4c9d 84bd 9f60 f8bd 9114 403e
000002c0: 49b1 cdbd e64a 303e c76b 64be 2927 adbd
000002d0: 644d 84bc b7ab 583d c6d2 723e ad67 793e
000002e0: 8147 a1bd ec7d a7be b780 14be b943 b8bd
000002f0: 2b3d c3bc c3c0 b0bd 62d9 63be aba7 9cbd
00000300: 3f7f 993d 6cd9 32bd 5f36 983d 0239 833e
00000310: 8db9 f03d 7b9d 97be 2e5b cc3d 64fb 9b3e
00000320: 618d 4cbe 7960 7bbe 9991 193f 5c8a 9abd
00000330: a374 ae3d 5868 bdbe ab9f 1f3d f35a 70bd
00000340: 4ecb 06be 075c 0bbe ed4b d33d 6cd6 c2bd
00000350: a536 c4bd 10d5 d9bd 61d5 9ebc 4fe6 3c3e
00000360: 9321 343d 13ec ee3d 923b a6bb 42e4 a6be
00000370: 0d7b a2bc 8a6d 2d3e 3624 0dbd 3d95 283e
00000380: ecec fe3d 273f a03d 47e1 a7be 2849 c63d
00000390: 5168 20be 969f 8c3d b1ea f03d b30e 21be
000003a0: a7ae ce3e c864 3bbe 13f9 1fbd 6f54 a9bc
000003b0: 9bfe 133e 0664 8b3e afe5 ab3e 16ce 2d3d
000003c0: 0635 3bbe 259e e1bd 8271 813e 1d8d 1d3e
000003d0: f411 83be 8911 403e 4ec0 5abc 53a2 eabd
000003e0: c356 413e d050 d0bd d135 573e a89c 8bbe
000003f0: 7a1d f23c fa97 62bc 3df1 e53d 508b abbe

conv4.bias f4 [32]
-0.53216374 -0.34773645 -0.15715067 -0.25121924 -0.54161835 -0.34671128 -0.2837351 -0.25198838
-0.19221258 -0.30114478 -0.20180564 -0.4054491 -0.33575976 -0.2550016 -0.36213082 -0.50748694
-0.34088024 -0.42749497 -0.37277368 -0.13583222 -0.10662244 -0.28870684 -0.35268283 -0.43273997
-0.13431434 -0.26931182 -0.32272843 -0.61147344 -0.19843337 -0.13711853 -0.31218818 -0.48100567
00000000: e23b 08bf 830a b2be 1bec 20be cf9f 80be
00000010: 80a7 0abf 2484 b1be ba45 91be 9f04 81be
00000020: 60d3 44be a62f 9abe 23a6 4ebe 0697 cfbe
00000030: b4e8 abbe 928f 82be 3669 b9be aaea 01bf
00000040: db87 aebe 9fe0 dabe 31dc bebe 9a17 0bbe
00000050: de5c dabd 62d1 93be d892 b4be 1890 ddbe
00000060: b389 09be 3de3 89be a93c a5be 8689 1cbf
00000070: 1e32 4bbe cd68 0cbe 21d7 9fbe 6046 f6be

linear.weight f4 [32, 800]
-0.027749397 0.123908035 -0.03588208 -0.0032463116 -0.03900079 -0.2852664 0.143951 0.019908648
-0.021714129 0.06307082 0.19872284 -0.15221877 -0.09313492 -0.07131673 0.27444026 0.18872544
0.18460083 -0.06271188 -0.04221078 -0.112721555 -0.09095594 -0.0461113 -0.07949334 -0.059045017
-0.057927404 0.30838877 -0.08002662 0.09624658 -0.105815485 0.028408902 -0.45566365 0.059418887
-0.06285056 -0.0329615 0.22992754 0.20892839 0.0900555 -0.061233222 -0.08567134 -0.011447081
0.084718496 -0.36863327 -0.098605424 -0.031146213 0.089260496 -0.083016224 -0.056297652 0.0030082078
-0.016393445 -0.029988283 -0.12433299 -0.051096994 0.0136578 -0.07576302 0.020740364 0.30155545
0.09048722 -0.0014464092 -0.010334037 -0.04279728 0.0629643 0.053414647 0.025537763 -0.007203061
-0.0041497177 -0.09512995 -0.008033554 0.07351316 -0.08018628 -0.11646706 -0.07583356 -0.023098223
0.001003984 -0.03254817 0.011678323 0.3295775 -0.048542626 0.11523991 -0.025289787 -0.22240184
-0.22447915 0.058558386 -0.09882827 -0.12358629 0.12560087 0.035413213 -0.04639201 -0.058655795
0.044558007 -0.11613831 0.17758182 -0.030323723 0.18763609 0.07408169 0.13382141 0.017703645
-0.042935032 -0.050675195 -0.06690586 -0.079700574 -0.30518642 0.2887666 0.012196832 0.089138515
0.13526474 -0.2694652 0.37569577 0.14743079 0.1438432 0.15818858 -0.26568094 0.56281376
0.20414758 0.09488747 0.3906675 -0.31733164 -0.2929036 -0.24847004 -0.22083262 -0.37361857
-0.33877808 -0.4008353 -0.3662593 -0.39324692 -0.41549143 -0.02804867 0.0061156526 0.042441122
-0.041645184 0.1908703 0.09073852 0.28376466 -0.032005195 -0.09237677 -0.055127256 -0.14323823
-0.4889323 0.04161255 0.085219376 0.11047892 -0.18473366 -0.09987818 -0.10239442 -0.11985509
-0.105247736 -0.011897571 0.10510682 0.06892115 0.05761402 0.118310116 -0.14338599 0.070972435
-0.16333684 7.1021095e-05 0.22284573 0.30201355 0.2059457 -0.13016814 -0.14410631 0.17865786
-0.27779573 0.116766684 -0.026020784 -0.07966379 -0.13326484 -0.046734687 0.010967704 0.0050754496
0.22266231 0.06398298 0.18119308 -0.012418328 -0.013216689 -0.065530226 -0.044412907 0.34656304
-0.20552261 0.04853882 -0.0022315832 -0.04456945 -0.26784927 0.18600002 0.04108287 0.0013695956
0.103560716 0.002980988 -0.072358996 -0.035780117 -0.016475877 0.26538065 -0.022304079 0.039239377
0.13982016 0.06633512 -0.282757 0.01802482 0.010868828 -0.017377976 -0.022788191 0.013302258
-0.096115924 -0.022002405 -0.030009765 0.16674744 -0.03039488 -0.011373024 0.08822023 -0.04895417
-0.05665039 0.24417941 0.1710348 0.016482057 -0.03521453 0.023231413 0.2535067 -0.017403191
-0.023336012 0.19599096 -0.23249893 -0.27666223 -0.018207196 -0.06585058 -0.03323058 -0.070295565
-0.037216466 0.080333956 0.21059266 -0.064609416 -0.13476582 0.0034240058 -0.2021664 0.06042344
-0.005948719 -0.18741202 0.050557915 0.07910673 0.25506017 -0.06618351 -0.05717902 0.03308501
0.088570155 -0.09781142 0.040816993 0.044508513 -0.009908731 0.03873079 -0.053798478 -0.07387119
-0.030275974 -0.05131885 -0.041139353 -0.06947496 0.050234813 0.10189095 -0.023539206 0.15107587
00000000: b452 e3bc 7fc3 fd3d 17f9 12bd 12c0 54bb
00000010: 4bbf 1fbd 700e 92be e467 133e 7617 a33c
00000020: d4e1 b1bc 462b 813d 007e 4b3e 3ddf 1bbe
00000030: 85bd bebd 810e 92bd 6f83 8c3e 3e41 413e
00000040: 0008 3d3e 166f 80bd 36e5 2cbd 8fda e6bd
00000050: 1c47 babd 34df 3cbd 67cd a2bd 30d9 71bd
00000060: 4945 6dbd 22e5 9d3e ffe4 a3bd ed1c c53d
00000070: cab5 d8bd c9b9 e83c bf4c e9be 3861 733d
00000080: cbb7 80bd a302 07bd 2072 6b3e 53f1 553e
00000090: 056f b83d b0cf 7abd 7574 afbd 8a8c 3bbc
000000a0: e480 ad3d 80bd bcbe a4f1 c9bd 5826 ffbc
000000b0: 35ce b63d 6904 aabd 5e98 66bd 5a25 453b
000000c0: 8c4b 86bc fda9 f5bc 4ba2 febd 154b 51bd
000000d0: f7c4 5f3c a429 9bbd b2e7 a93c 7a65 9a3e
000000e0: 5d51 b93d 7095 bdba 1850 29bc 334c 2fbd
000000f0: 6df3 803d 51c9 5a3d 9234 d13c a807 ecbb
00000100: 5bfa 87bb 7ed3 c2bd 2b9f 03bc 118e 963d
00000110: b438 a4bd 4886 eebd a04e 9bbd 7c38 bdbc
00000120: 1d98 833a 3b51 05bd 7056 3f3c 62be a83e
00000130: a2d4 46bd e702 ec3d 872c cfbc 4fbd 63be
00000140: dddd 65be ebda 6f3d 7a66 cabd cf1a fdbd
00000150: 849d 003e 720d 113d 8c05 3ebd 0f41 70bd
00000160: 7582 363d ecd9 edbd 02d8 353e 7569 f8bc
00000170: ad23 403e 24b8 973d 7b08 093e 3c07 913c
00000180: a5dc 2fbd cb90 4fbd f105 89bd 0e3a a3bd
00000190: 6541 9cbe 37d9 933e 39d5 473c 418e b63d
000001a0: d782 0a3e 58f7 89be 325b c03e 19f8 163e
000001b0: a24b 133e 30fc 213e 5507 88be 9014 103f
000001c0: 100c 513e 5d54 c23d 9205 c83e 4b79 a2be
000001d0: 76f7 95be ee6e 7ebe f221 62be ef4a bfbe
000001e0: 5274 adbe 493a cdbe 5786 bbbe a957 c9be
000001f0: 4bbb d4be 53c6 e5bc d065 c83b bed6 2d3d
00000200: 2494 2abd 8173 433e 1ed5 b93d 9a49 913e
00000210: e117 03bd 0830 bdbd 1ecd 61bd 0bad 12be
00000220: 5655 fabe ec71 2a3d 7f87 ae3d c642 e23d
00000230: d22a 3dbe ee8c ccbd 2ab4 d1bd 9676 f5bd
00000240: 208c d7bd 08ee 42bc 3f42 d73d 8826 8d3d
00000250: aefc 6b3d 934c f23d c7d3 12be ff59 913d
00000260: c641 27be 29f1 9438 ac31 643e 85a1 9a3e
00000270: 6ee3 523e cc4a 05be 9b90 13be 16f2 363e
00000280: 3e3b 8ebe 5f23 ef3d 8a29 d5bc c526 a3bd
00000290: 9476 08be df6c 3fbd e2b1 333c f54f a63b
000002a0: 9701 643e 8209 833d ae8a 393e 3e76 4bbc
000002b0: d08a 58bc b634 86bd 4fea 35bd b670 b13e
000002c0: 8574 52be a4d0 463d c13f 12bb 758e 36bd
000002d0: 8a23 89be ca76 3e3e 8346 283d 0184 b33a
000002e0: a417 d43d ae5c 433b f430 94bd 2c8e 12bd
000002f0: 6bf8 86bc f9df 873e 0bb7 b6bc 78b9 203d
00000300: 042d 0f3e b5da 873d 87c5 90be caa8 933c
00000310: 2b13 323c 425c 8ebc 4dae babc b7f1 593c
00000320: 6dd8 c4bd 633e b4bc 0ad7 f5bc d7bf 2a3e
00000330: affe f8bc ec55 3abc cfac b43d 2b84 48bd
00000340: 3d0a 68bd 2b0a 7a3e bf23 2f3e 6105 873c
00000350: 1c3d 10bd ce4f be3c a1cb 813e 2391 8ebc
00000360: 2a2b bfbc dbb1 483e 3314 6ebe aca6 8dbe
00000370: 4227 95bc abdc 86bd ca1c 08bd 1ff7 8fbd
00000380: 4b70 18bd 2186 a43d 9aa5 573e f151 84bd
00000390: 0d00 0abe 4965 603b b504 4fbe 927e 773d
000003a0: 79ed c2bb f0e8 3fbe d115 4f3d b602 a23d
000003b0: 3f97 823e 388b 87bd 8c34 6abd 2684 073d
000003c0: 4564 b53d 5b51 c8bd b82f 273d 8f4e 363d
000003d0: 3b58 22bc 2da4 1e3d cb5b 5cbd c749 97bd
000003e0: 5205 f8bc b733 52bd bd81 28bd e348 8ebd
000003f0: 05c3 4d3d 34ac d03d 4bd5 c0bc a2b3 1a3e

linear.bias f4 [32]
0.55575395 -0.26109904 -0.35807332 0.002542884 -0.062074363 0.06602712 -0.20987727 0.074392855
3.848663e-05 -0.017777383 -0.0019578661 -0.27594635 -0.063918866 0.16840492 -0.27915686 0.056252204
-0.066762924 0.17228732 0.07499693 -0.6404788 0.060953956 0.03462598 0.027780943 -0.12224305
-0.07578244 0.049530428 -0.0039057015 0.21440853 0.016072998 0.0310242 -0.227008 -0.012898908
00000000: e445 0e3f c6ae 85be 6355 b7be 84a6 263b
00000010: b041 7ebd 3a39 873d 11ea 56be 485b 983d
00000020: b46c 2138 e0a1 91bc 8b4f 00bb d748 8dbe
00000030: e5e7 82bd 5772 2c3e a6ed 8ebe b668 663d
00000040: 00bb 88bd 166c 303e fe97 993d 6bf6 23bf
00000050: dbaa 793d f9d3 0d3d dc94 e33c 905a fabd
00000060: d333 9bbd 6be0 4a3d ccf6 7fbb e98d 5b3e
00000070: 85ab 833c 7726 fe3c c974 68be f155 53bc

critic_linear.weight f4 [1, 32]
0.060442235 0.002164407 -0.0058534 -0.0029417432 0.0050022323 -0.0005982206 -0.005251151 0.0031909202
-0.0012157279 -0.002335217 0.00064985803 -0.0010714119 0.0033046515 -0.0023503124 -0.0019738718 -0.0042917975
0.0022589702 -0.004458365 -0.0012429864 -0.15795682 -0.001164976 0.001602903 -0.0011072303 -0.0046234983
0.0009971762 0.00058714504 -5.518098e-05 -0.0090777045 0.00408582 -0.0050977725 0.0037735694 0.000743465
00000000: 4792 773d b9d8 0d3b e1cd bfbb 43ca 40bb
00000010: c4e9 a33b e8d1 1cba d911 acbb c21e 513b
00000020: 0f59 9fba 710a 19bb 3c5b 2a3a 9e6e 8cba
00000030: da92 583b b307 1abb 135c 01bb 35a2 8cbb
00000040: 3b0b 143b 7a17 92bb b4eb a2ba 6fbf 21be
00000050: 1cb2 98ba 8018 d23a 7c20 91ba b780 97bb
00000060: aeb3 823a a3ea 193a 2072 67b8 a7ba 14bc
00000070: 58e2 853b 370b a7bb fd4d 773b 17e5 423a

actor_linear.weight f4 [6, 32]
0.3460521 -0.20031665 -0.45120892 0.012832573 -0.007899085 0.093987584 -0.08661644 0.044638213
0.0045379116 0.0075339964 0.011304005 -0.09447723 0.014854658 0.17163621 -0.3296018 0.12013406
-0.21076345 0.12078498 0.06771015 -0.4898041 0.023300646 0.0020498105 0.044812366 0.1502461
0.010422426 0.11026766 0.16612251 0.21947013 0.058420125 -0.0024465888 -0.15870215 -0.021577938
0.40815094 -0.22727995 -0.45102218 0.0014601325 0.010193429 0.092515916 -0.11894944 0.04370232
-0.0100853015 -0.026105944 -0.017785953 -0.12727764 0.040963855 0.19298603 -0.40186286 0.13098264
-0.16699958 0.12977192 0.025133228 -0.4842858 0.00025137572 -0.027450757 -0.008159249 0.06869702
0.006275315 0.0748528 0.16499 0.27023757 0.0512397 -0.02350731 -0.14516903 -0.012348362
0.36496338 -0.25300184 -0.44762528 0.02075524 -0.018788163 0.07305917 -0.08973631 0.048874155
0.01876519 -0.039580822 0.0003736395 -0.08721633 0.022544181 0.17019093 -0.3011447 0.124824576
-0.15112722 0.09282572 0.04098788 -0.4639632 0.0563019 -0.03829913 0.0030961486 0.063433915
-0.02252305 0.05896359 0.1633252 0.16047908 0.025664445 -0.009568544 -0.14959508 -0.0015574783
0.48811 -0.24599883 -0.44546676 0.03240731 0.010231725 0.08013487 -0.07883305 0.05946988
0.015655132 -0.031366628 0.007151237 -0.12690899 0.021611575 0.20397723 -0.2690065 0.151557
-0.1718931 0.104978345 0.030355804 -0.40182215 0.041069254 -0.041102476 0.0001685196 0.16562043
-0.011630018 0.053032484 0.15176128 0.33551443 0.042560127 -0.020027194 -0.1914679 -0.00079965935
0.46091792 -0.24654256 -0.42156377 0.0047030277 -0.017076433 0.07444027 -0.0890422 0.05920684
0.028807193 -0.011287399 -0.0018796754 -0.12833415 0.018491657 0.18109475 -0.34755045 0.14618398
-0.16568315 0.10650021 0.06448251 -0.45066336 0.061856195 -0.012925926 0.026611205 0.004634756
0.00040588487 0.08211595 0.15716699 0.13318554 0.023021096 -0.030510118 -0.1287159 -0.0001911903
0.46894878 -0.25328064 -0.3695824 0.032010093 0.020472324 0.10668313 -0.07599356 0.05013452
0.038375087 -0.025865922 0.0052027116 -0.10374526 0.0357641 0.1902401 -0.26074728 0.13733645
-0.17345624 0.12141483 0.062994696 -0.42359477 0.05064138 -0.004741513 0.021816945 0.083442725
0.009682338 0.074858174 0.16447355 0.37988633 0.035304185 -0.027250271 -0.16514398 -0.013994679
00000000: be2d b13e cf1f 4dbe db04 e7be b63f 523c
00000010: 2a6b 01bc 907c c03d f663 b1bd 8fd6 363d
00000020: c3b2 943b bedf f63b 6f34 393c 477d c1bd
00000030: f460 733c 67c1 2f3e 91c1 a8be d908 f63d
00000040: 60d2 57be 1e5e f73d 9eab 8a3d 9ac7 fabe
00000050: ffe0 be3c 1d56 063b 2c8d 373d 1dda 193e
00000060: d3c2 2a3c 03d4 e13d 051c 2a3e c7bc 603e
00000070: f149 6f3d f356 20bb d182 22be 37c4 b0bc
00000080: 29f9 d03e 13bc 68be 61ec e6be eb61 bf3a
00000090: 5702 273c fc78 bd3d c49b f3bd 3401 333d
000000a0: d23c 25bc 22dc d5bc d9b3 91bc 1255 02be
000000b0: b7c9 273d 219e 453e f8c0 cdbe 5020 063e
000000c0: f001 2bbe eee2 043e 33e4 cd3c 4ff4 f7be
000000d0: 14cb 8339 69e0 e0bc 5fae 05bc 06b1 8c3d
000000e0: 28a1 cd3b 6d4c 993d 23f3 283e 945c 8a3e
000000f0: b8e0 513d 6792 c0bc 31a7 14be c950 4abc
00000100: 7bdc ba3e 7589 81be 242f e5be e506 aa3c
00000110: a2e9 99bc 0ca0 953d acc7 b7bd 4430 483d
00000120: 75b9 993c 801f 22bd 0be5 c339 7a9e b2bd
00000130: 93ae b83c 8846 2e3e a32f 9abe 07a4 ff3d
00000140: 18c1 1abe 691b be3d e8e2 273d 968c edbe
00000150: d29c 663d 8cdf 1cbd c1e8 4a3b a4e9 813d
00000160: 4282 b8bc ce83 713d b93e 273e a154 243e
00000170: 3e3e d23c 62c5 1cbc 742f 19be 4d24 ccba
00000180: 8ee9 f93e 1ee7 7bbe 3814 e4be 87bd 043d
00000190: f7a2 273c c01d a43d 3973 a1bd b096 733d
000001a0: 313f 803c 4b7a 00bd ed54 ea3b 6ef4 01be
000001b0: c20a b13c 68df 503e 38bb 89be c231 1b3e
000001c0: bf04 30be e3fe d63d bcac f83c a2bb cdbe
000001d0: 3c38 283d 125b 28bd a3b4 3039 6798 293e
000001e0: d58b 3ebc 9738 593d 4f67 1b3e 8cc8 ab3e
000001f0: 8753 2e3d 1210 a4bc 2910 44be 3ba0 51ba
00000200: 6ffd eb3e a775 7cbe 35d7 d7be db1b 9a3b
00000210: e0e3 8bbc 2474 983d c25b b6bd df82 723d
00000220: 10fd eb3c c8ee 38bc 715f f6ba 076a 03be
00000230: d17b 973c e770 393e 22f2 b1be 41b1 153e
00000240: d8a8 29be c81c da3d 680f 843d 59bd e6be
00000250: ec5c 7d3d 43c7 53bc beff d93c 27df 973b
00000260: f2cc d439 682c a83d 62f0 203e ca61 083e
00000270: bd96 bc3c 5bf0 f9bc 1ace 03be 417a 48b9
00000280: 0e1a f03e 00ae 81be e839 bdbe 041d 033d
00000290: 93b5 a73c af7c da3d 83a2 9bbd db59 4d3d
000002a0: 322f 1d3d c5e4 d3bc 827b aa3b 6578 d4bd
000002b0: 607d 123d 4dce 423e ab80 85be eda1 0c3e
000002c0: 839e 31be 57a8 f83d 5d03 813d 6ae1 d8be
000002d0: 566d 4f3d b25e 9bbb 73b9 b23c 05e4 aa3d
000002e0: aba2 1e3c 3e4f 993d c16b 283e 7680 c23e
000002f0: 1f9b 103d f63b dfbc 811b 29be f049 65bc

actor_linear.bias f4 [6]
0.11389958 0.40390113 0.2657134 0.21153067 0.34395024 0.32139033
00000000: 2f44 e93d 21cc ce3e 960b 883e 7f9b 583e
00000010: 3f1a b03e 468d a43e
