spaceinvaders-v0-bottom-7fskip_latent32/model.94.tar (torch, 223035 bytes, 13 tensors)

conv1.weight f4 [32, 4, 3, 3]
00000000: 790a d3ba 5695 173d 969c 2a3c c6be cfbd
00000010: ae8d 01bf 806d c33d 8de7 1f3e 3484 033e
00000020: 376e aa3c 6214 7abc 6b34 093e b4cd 893c
00000030: 5750 73bc 2ebd 1fbd 8265 b7bd 8a8a d23d
00000040: 63d9 0a3e 41ff 29bd 4adb 1b3d 5d13 3f3e
00000050: 5569 9abd fb67 9ebd 20de e4bd 167f 21be
00000060: 7590 103e 7c5d db3b 79aa 443e 1d25 a03d
00000070: 047e d2be 58fd 263d 06ab 143e ffd2 093f
00000080: b5a8 543e 6333 c8be 18b4 20be 7382 96be
00000090: 10c9 a6bc a527 37bd 8a67 3a3e ba79 afbd
000000a0: 42a7 3f3e 6dcd 063e a743 633e 4a70 f3bd
000000b0: 1d1b 49be ae27 643d 2c86 aabd d44d 07bd
000000c0: 5193 09bd a0a0 593d 4c6b 9fbd 8718 13bd
000000d0: 42dc 1bbc 7ecc b73b d305 c3bd 3d27 7e3e
000000e0: 99e3 c3bd ab62 1cbe 4248 0c3e 89a8 993d
000000f0: cb1e 893d aef8 a6bb 5d35 7b3d 9c01 d63e
00000100: d15c b6be cfd3 0dbe bf76 803d 4a5b 85be
00000110: abd8 22bd ccc7 a0be 7c99 c63e 0bb7 e2bd
00000120: 74b9 413e d975 01be cdec 833e 5fbb 07bd
00000130: 7bb5 853d cc0e 253e f907 a0be acff 403d
00000140: f042 f2bd adfa 31be dab1 db3c ebf4 e6bc
00000150: bb7a d83c cc94 30be f160 1cbe 3bd8 833d
00000160: dbae b7bd 23d7 543e c521 ab3d 8454 02be
00000170: 5653 6d3e 0c35 dd3d 3ee6 e1bd aa50 a03c
00000180: 251e 0c3e ca18 4c3d 59ed 0dbe f59b 50bd
00000190: 5ec2 413e c963 14be 4a9e d23d cb99 0dbe
000001a0: e1ff a1be 709c bbbd 413a 743e 8368 ac3c
000001b0: d0fe 8f3e bb1f 013e e3ed 8b3c 6955 123e
000001c0: 6569 6d3e f0c9 cebb 0d1a 123e f9ab f83e
000001d0: 6335 cc3d cace f23d 5a38 6ebe faab 14be
000001e0: 48ec 01be 273c 8dbd ab36 fc3d 6fd1 a0bb
000001f0: f517 0e3e 250a 11be 79ca 39bd 47e1 01be
00000200: 13a3 d13d d323 ea3d 3483 79be 56f4 093d
00000210: b570 4c3e 0d6b 313e a2ac 173e 0df1 333e
00000220: b0f8 bc3c 383a 183e 2cf3 8cbe 1018 50bf
00000230: 16ee 86be b5dd 6fbd 0f4e 5fbe baa9 893c
00000240: 1650 14be b6bc 00be 098f 513e 319f 233e
00000250: e7f4 b23d 61c0 db3d c45c d5b9 2cc1 da3e
00000260: 088f d6bd 91a5 bdbd 1adb 24be cb35 31be
00000270: 9ef2 0abe 2833 0ebe 5bc0 973c 7847 bebd
00000280: 4215 a4bc f667 483d 6389 34bd f0ca ae3d
00000290: 5d20 13bd 1a85 3cbd 4903 93be 5fdd 2abe
000002a0: eb53 20be bf0d 49be 38c7 30be 11e1 673e
000002b0: d82f 6f3c fd97 27be 5a52 423e ff06 af3e
000002c0: 4728 903e 3b88 e83c c331 ecbd 9006 af3e
000002d0: f254 35be a133 5cbe 0393 40be 1336 80be
000002e0: b6d4 f7be 72c6 8ebd ce59 9cbe fb0a e7be
000002f0: debb 3dbe 7774 47bd 2567 0cbc b762 acbd
00000300: 2063 51be 8027 c5bd 4099 d2bc 4976 28be
00000310: a0c2 853c ce46 f03c 3c88 6c3e 2250 13bd
00000320: 25f3 b83d a6e1 1fbe d34f 1f3e 6ec1 e3bd
00000330: e8fb d73d a23b da3d 3be0 98bd e688 8d3e
00000340: 8597 cc3e b2a4 ba3e 5059 c03c cfbc 793e
00000350: bfdc bdbd 11e5 a63e 44f7 dd3e 1e64 a33e
00000360: 6423 b03e 09a2 83bd c153 013d ddb0 a53e
00000370: 61cb aa3d 0007 9c3e b52e a1be 5632 d1be
00000380: 5211 363c ff6a 6db8 eafb bf3c c3f4 933e
00000390: 1a17 453e 73a8 e33d 42bd 643d bffb 2fbe
000003a0: c15e dc3c 16f9 b1bd 2d42 163d 0a09 bcbd
000003b0: b00a 833d ede6 223e 2c85 ad3d 86ee 9bbd
000003c0: 8287 09be 6a9e 313d ca39 933d bda7 8cbd
000003d0: 5cbc c7be a66b 57bd 1c6a 78be cbb3 d0be
000003e0: 9388 1fbe dcb2 6b3e 756f cf3e 2ea0 b93d
000003f0: c8f2 8e3c 3cbd 63bd 93af bfbd 25fe ccbe
-0.0016101144 0.037007652 0.01041331 -0.10143809 -0.5060681 0.0954237 0.15615673 0.128434
0.020804508 -0.015263649 0.13398902 0.01682172 -0.0148506975 -0.038998775 -0.08954908 0.102803305
0.13559489 -0.041503195 0.038050927 0.1865973 -0.07539622 -0.077346765 -0.111751795 -0.15771136
0.14117606 0.006694494 0.19205655 0.07819579 -0.41111767 0.04076895 0.14518365 0.5383758
0.20767482 -0.39101705 -0.156937 -0.293964 -0.020359546 -0.044715542 0.1820356 -0.085681394
0.18716148 0.13164301 0.22193776 -0.11886652 -0.19639249 0.055701904 -0.083263725 -0.033033207
-0.033587757 0.0531317 -0.07784137 -0.035912063 -0.009512963 0.005609094 -0.09522595 0.24819656
-0.09564895 -0.15272014 0.13699439 0.07502849 0.066953264 -0.005095563 0.061330188 0.41798103
-0.35617688 -0.1385033 0.06272649 -0.2604621 -0.039757412 -0.31402433 0.38788974 -0.11070069
0.18918401 -0.12642612 0.25766602 -0.033137675 0.06528755 0.16118926 -0.31256083 0.047118828
-0.118291736 -0.17380781 0.026818205 -0.028192958 0.02642571 -0.17244262 -0.15271355 0.06437727
-0.08968898 0.20785193 0.083560504 -0.12727553 0.23176321 0.108011335 -0.11030243 0.019569714
0.13683374 0.04982833 -0.13860072 -0.050929982 0.18921801 -0.1449119 0.102840975 -0.13828199
-0.31640533 -0.091606975 0.23850347 0.021045929 0.28124094 0.1260976 0.017081207 0.14290394
0.23184736 -0.006310694 0.1426775 0.48568705 0.0997112 0.11855848 -0.23263684 -0.14518729
-0.1268779 -0.06896239 0.123151146 -0.004907779 0.13876326 -0.14164026 -0.04535911 -0.12683593
0.10236182 0.11432614 -0.24366456 0.033680283 0.1996487 0.17325993 0.14811948 0.17572422
0.023067802 0.14865959 -0.27529275 -0.81286716 -0.2635352 -0.058561046 -0.2180712 0.016804565
-0.14483675 -0.12571988 0.2046472 0.15978695 0.08738118 0.10730053 -0.00040695642 0.42725503
-0.104765 -0.09260095 -0.16099206 -0.17305677 -0.13569114 -0.13886702 0.01852434 -0.09290975
-0.020029668 0.04892727 -0.044076335 0.08534801 -0.035919536 -0.046025373 -0.28713444 -0.16686009
-0.15657012 -0.1963415 -0.17263496 0.2264445 0.014598809 -0.16366573 0.18976727 0.34185025
0.2815573 0.028385272 -0.11532929 0.34184694 -0.17708185 -0.2150407 -0.1880608 -0.25041255
-0.48404473 -0.06971444 -0.30537266 -0.45125565 -0.18528697 -0.048695054 -0.008569513 -0.08417266
-0.2044797 -0.09626675 -0.02570784 -0.16451372 0.016328156 0.029330637 0.23098844 -0.035965092
0.09030751 -0.15613422 0.15557794 -0.11120878 0.10546094 0.10655905 -0.074646436 0.27643508
0.3995935 0.36453778 0.023480088 0.24388431 -0.092706196 0.3259664 0.4335271 0.3191232
0.34402 -0.0642739 0.031574015 0.32361498 0.08339573 0.3047409 -0.31480947 -0.40858716
0.011112528 -5.660485e-05 0.023435552 0.28897676 0.19247094 0.111161135 0.055844553 -0.17185877
0.026900651 -0.086900875 0.036684204 -0.091814116 0.06398523 0.15908404 0.08472666 -0.07613854
-0.13430598 0.043363966 0.07188757 -0.06867931 -0.39010894 -0.052592896 -0.24259228 -0.4076217
-0.15579443 0.23017448 0.40514722 0.09063755 0.017449751 -0.05560039 -0.0935966 -0.40037647

conv1.bias f4 [32]
00000000: 19af d0bb 6048 e5bb 281a 20bb 3f8b c93a
00000010: 0a99 143b cefc 8f3b 5907 1abc 201b 6e3a
00000020: 52d1 9339 6455 3c39 05b1 ceba a0ed 833b
00000030: cc46 8839 d0fb 053c e6c6 8bba 5c11 a83d
00000040: 841b 4cbb 9135 573b 24d8 723d 1890 4dbb
00000050: 7e64 14bc d29e 023b 3e7e 3c3b b745 023c
00000060: 095a 6e3b c8d1 cc3a d0c7 e93a 003b 8bba
00000070: 082e a23b 0039 afbb 9b92 e6ba 9515 3fba
-0.0063685295 -0.006997153 -0.0024429653 0.0015376582 0.0022674226 0.0043941503 -0.009401166 0.00090830214
0.0002819398 0.00017960888 -0.0015769309 0.00402613 0.0002599269 0.008177713 -0.0010664135 0.08206436
-0.003114433 0.0032838325 0.05928816 -0.0031366404 -0.009057162 0.001993109 0.002876177 0.007951192
0.0036369583 0.0015626485 0.0017836038 -0.0010622442 0.004949335 -0.005347371 -0.0017591299 -0.0007289288

conv2.weight f4 [32, 32, 3, 3]
00000000: 6665 aabe f371 4fbe 7658 533e 1d0d 733e
00000010: 73de b93e df41 efbd c277 1fbe 97ae 54bd
00000020: d627 a539 0dd5 5ebd 9c30 8bbe 99b3 833d
00000030: 83af 183e ff46 0c3d 8ee4 a83d 4c83 123e
00000040: c6ae 56be b0a5 423e cec8 823c d3e2 eebd
00000050: dccf 7dbe 872b 08be 6601 133d 6b9f 493d
00000060: e487 83bc c1c1 0c3e b860 063d 5551 34be
00000070: 8d34 3cbe 06a3 1bbe c90a 65be fe46 d7be
00000080: e695 403e 0109 d2bd df99 ce3d fb53 7b3e
00000090: f2d0 393e c71b 363d ed5b 183d c987 243e
000000a0: 0f95 503e ec01 39be f52f b4bc 089e 2ebe
000000b0: 96a3 d33d 9a90 023e a4f4 27be e568 a9be
000000c0: 0897 6b3d 45f8 00bd 9849 72bd 1849 f33d
000000d0: 93c1 813e b574 213e 8256 753e 6cb0 023e
000000e0: d317 97be 6fe1 b3bd 986c 823d 6140 bfbb
000000f0: ec94 6bbd e373 87bc 28dd 9abe 8596 4abe
00000100: eb60 32bd e6f2 e5bc 43b7 883e 787e 1f3e
00000110: f748 84bd da74 48bd a49b 83bc ee73 b63d
00000120: 0c7b a9bc ae89 423e 2d32 9b3e b716 3f3d
00000130: dcde 003e 8de9 8a3d 9480 79be b1ff 76be
00000140: 9c13 c9bd e900 063e d7a8 21be a07b 3f3d
00000150: 04d8 253d 9849 e33d 05b0 32be 4416 2fbc
00000160: d73a 9c3e 6a54 4a3d 4c01 11bd 7e60 54bc
00000170: faae 46bd e9f1 303e 677c f03e 4ac9 b5be
00000180: 7aa2 bb3d 9c7e f0bc 1d6f ebbd 4f69 4d3e
00000190: 0d96 a53d 9d2f a03c ea8a 8e3e d146 a83c
000001a0: 5995 98bd 5e45 2cbe c1b3 a6bd 7c4f 2cbe
000001b0: 93b3 08be aaab d2bd 07ce a63d 68b7 dc3e
000001c0: 0434 663e e6f3 ebbd a9a7 5ebd f3d7 adbe
000001d0: 4ca0 d9bd ce87 b7bd bad2 e03d 2650 0a3f
000001e0: 5719 633e 65f7 f03c fa86 a13d 05a9 8a3d
000001f0: 8ab4 e0be fcd8 3ebb aed7 293e 47b4 6d3d
00000200: af3f 483b da20 623e 56d7 10be 428f 0b3d
00000210: 4026 44bc ac06 7cbe 255a 82bd 5a3a edbd
00000220: 30dc 7fbd 2ef2 babd cb0e 13bc 249e 293e
00000230: daaa 9d3e 9d49 c1bd 39d7 89bd 3029 e8bc
00000240: 6f4b 83be 18a6 54be e53e 1cbe 0754 ed3d
00000250: 0d41 52bd 2c0f e3bd 90ae af3d a8ab debc
00000260: 3782 2a3e 2076 b6bc 9892 4f3c d85a cdbd
00000270: f910 88be e322 233e 7fa7 20be c1e3 623e
00000280: 5e4e 3ebc ed7e 99bc 2826 9ebd 383f 8abd
00000290: 96e2 2dbd fd5c a83c 946b fb3d 29c7 7f3e
000002a0: 1053 03be fad6 e9bd 5dc2 febb 85c3 183e
000002b0: 041d 23bb 9b2a 20bd 86d0 a23d d90c 21bc
000002c0: 5c86 b43d 284c 4ebe a831 a5bd b3dd b9bd
000002d0: e609 043d 6e16 56bd fec4 e43d 6e04 6fbd
000002e0: 1b73 183e 3a3a 19be ae79 a4bd b67a 043e
000002f0: d47a 19bd 7ee8 493e 762e 1fbe 3ce5 07bc
00000300: 9c74 32be ae66 5dbe b98e d23d e9eb 463d
00000310: 5598 9fbd 4c3b 3cbc 0ecb f8bd b467 cb3d
00000320: e63f b0bc bff4 7d3e fb87 223e 7744 7cbd
00000330: 148f f8bd 03c8 383d dcc9 e4bb e06d aebd
00000340: 19a6 42bd 066e 7a3e feec 91be ba46 a3bc
00000350: e2b5 7ebd 64cc a73c d9f6 293e 5018 9bbc
00000360: 1b92 be3d 39b1 813c f823 f83d f411 38bd
00000370: 65bc 1cbe 1e99 40bd 2ec9 cf3d 2905 a7be
00000380: c99b 0ebe 3aef ab3e fcf6 083c 8f09 193c
00000390: a6be 803e 85b3 8d3d 9275 33be f50e 22be
000003a0: c348 b03d 353c be3c 4bbd f5bb c0ed 8bbd
000003b0: 9119 e1bd d412 a83d 9cf1 ba3d 263e 78be
000003c0: d37d 42be bd2d 813e 9916 7fbc 4c64 063d
000003d0: 09e2 7bbe 223f c6bd cf66 06be 23b4 8fbe
000003e0: acd5 fb3d e3ad 493d 65e6 183e 2a86 793e
000003f0: 3a9f b23e f3d4 a63e 09a6 8ebe 7e19 c9be
-0.33280486 -0.20258312 0.20639214 0.23735471 0.36302528 -0.11682486 -0.15573028 -0.051924314
0.00031500933 -0.0544024 -0.27185524 0.0643074 0.14910702 0.034247395 0.08246718 0.14307898
-0.20965108 0.19008517 0.015964892 -0.11664357 -0.24786323 -0.13297854 0.035890006 0.0492243
-0.016056009 0.13745786 0.032807082 -0.1760915 -0.18379422 -0.15198907 -0.22367395 -0.4204635
0.18807182 -0.102556236 0.10087942 0.24543755 0.18146113 0.044460084 0.037197042 0.16067423
0.20369361 -0.1806714 -0.021995524 -0.17052472 0.10333936 0.12750474 -0.16401917 -0.3308784
0.05751708 -0.03148677 -0.059152216 0.11879176 0.25342998 0.15767176 0.23958781 0.12762612
-0.29510364 -0.087832324 0.06368369 -0.005836532 -0.05751507 -0.016534751 -0.30246854 -0.19783981
-0.04354946 -0.028069925 0.26702318 0.15575588 -0.064592294 -0.048939563 -0.016065426 0.089088306
-0.020688556 0.18997833 0.3031172 0.046652522 0.12585014 0.067828275 -0.24365455 -0.24120976
-0.09818193 0.13086285 -0.15787064 0.046748757 0.04048921 0.11098021 -0.17449959 -0.010686461
0.3051364 0.04939691 -0.035401627 -0.012962459 -0.048506714 0.17279781 0.4696991 -0.35505134
0.09161849 -0.029357247 -0.114958026 0.20059703 0.080852605 0.019553954 0.27840358 0.02054158
-0.07450361 -0.16823336 -0.08139754 -0.16827196 -0.13349752 -0.102866486 0.08144765 0.43108678
0.2248078 -0.11521129 -0.054359112 -0.3395382 -0.10626277 -0.089614496 0.10977693 0.54028547
0.22177635 0.029414842 0.07887073 0.06770519 -0.4388774 -0.0029121032 0.16586182 0.058033254
0.0030555537 0.22082844 -0.14144644 0.03407217 -0.01197201 -0.2461192 -0.0636485 -0.11583395
-0.062465847 -0.09128223 -0.008975695 0.16564232 0.30794412 -0.09437869 -0.067305036 -0.028339952
-0.2564349 -0.20766485 -0.15258367 0.115882926 -0.05133157 -0.11086878 0.08578217 -0.027181461
0.16651236 -0.022273123 0.012669228 -0.10027093 -0.2657545 0.15931277 -0.15688895 0.22157194
-0.011615364 -0.01873728 -0.077221215 -0.06750339 -0.042452417 0.020552153 0.12276378 0.24978317
-0.12824655 -0.11417957 -0.0077746348 0.14918335 -0.002488912 -0.03910313 0.07949929 -0.009829723
0.088146895 -0.20146239 -0.08066112 -0.09075489 0.032236002 -0.052267484 0.11170386 -0.058353834
0.14887659 -0.14963618 -0.08031021 0.12937436 -0.037470654 0.19717595 -0.15545067 -0.0082944
-0.17427295 -0.216212 0.102811284 0.048564825 -0.07792727 -0.011488747 -0.121481046 0.09931889
-0.021514844 0.24800394 0.15872185 -0.06158873 -0.12136665 0.04511262 -0.0069820713 -0.08517051
-0.047521684 0.24456033 -0.28501123 -0.019931186 -0.062185176 0.020483203 0.16598071 -0.018932492
0.09305211 0.015831577 0.121162355 -0.044938996 -0.15306242 -0.047021024 0.10145794 -0.32621124
-0.13926615 0.33580953 0.008359667 0.009340658 0.25145453 0.06919006 -0.17525318 -0.15826018
0.08607628 0.023222068 -0.007499372 -0.068324566 -0.109912045 0.08206716 0.091281146 -0.24242458
-0.1899331 0.25230208 -0.015569353 0.032810494 -0.24597944 -0.096800104 -0.13125156 -0.2806712
0.12296614 0.049238097 0.14931639 0.24367586 0.34887105 0.32584342 -0.2786105 -0.39277261

conv2.bias f4 [32]
00000000: 8949 cdbb e55d 59bc ea1d b4bb 38ed 8bbc
00000010: e735 51bd 970a 9dbc b9d3 0fbc 2aa8 d03b
00000020: 71b3 ccbb ec8c 6bbc a0e5 e7bc e0e0 90bc
00000030: 0180 9f3c 67a2 a8bc 962e a6bc 5f6b 2dbc
00000040: e86b 3ebc da9c df3b b4a1 873c 794f 57bb
00000050: 5000 dfba 71c5 17bc 5c77 afbc 9de7 ed3b
00000060: d6c4 823c b705 20bc fb0c 0abc ac37 16bd
00000070: 9162 983c 6f6c e4bb e6df 0c3b 9cff 9f3b
-0.0062648696 -0.013267015 -0.00549673 -0.017080888 -0.051076796 -0.019170089 -0.008778506 0.006367703
-0.006246977 -0.01437686 -0.028307736 -0.017685354 0.019470217 -0.020585252 -0.020285886 -0.010584681
-0.011622407 0.006824118 0.016556598 -0.0032853766 -0.0017013643 -0.009263382 -0.02141922 0.0072602765
0.015963 -0.0097669875 -0.008425946 -0.036674187 0.018601688 -0.006970934 0.0021495759 0.004882766

conv3.weight f4 [32, 32, 3, 3]
00000000: 2f7a 12be 4058 2dbd b802 15be 6c72 1f3e
00000010: 2002 0e3e 3ede 6f3e b1d1 ff3d 8e88 00be
00000020: e4db 4fbd a21d 113e 0b65 c93c 4367 473d
00000030: 0538 48be 5bbb 07be 5e11 1e3e b299 7d3e
00000040: 1960 97bd 3891 12be b4c3 fbbc 0664 1b3d
00000050: 14ac 8e3d 7544 153e 9dae 673d d804 a9bc
00000060: 7627 793c 8af0 543d d957 6fbd 8c34 a43c
00000070: 2c43 0dbe 83e8 b6be 13f8 713b 01d1 1bbe
00000080: 029e 21be b9a2 803e 2a50 8d3b d783 a8be
00000090: 31a0 333e 5e3d bdbc dc0b a7be 20b3 093d
000000a0: 486d 45be b170 5abd 5724 513e 4d34 72bd
000000b0: 0f2d 963c 51b6 45bd 6b05 7f3d 411a e139
000000c0: 1add 5e3e 0cd2 753e 3731 1abe 486e ccbd
000000d0: e4a6 5bbd b02a 363d 306e dbbb f673 ce3a
000000e0: e2b3 fabd b637 b63d e22b d4bd 518b cf3c
000000f0: 5751 7c3d 18ea 583d 29bf f83d f513 3ebe
00000100: 22fa e4bd 7cdf b0bd e64e 523e a6e9 90bd
00000110: 3f3a 07be 0304 07be 653c c93d 076e af3b
00000120: 7830 f43d af7a acbd ba45 cf3d 7920 2f3e
00000130: 48e5 adbd c5fd bdbc cba8 ed3c 77b3 133e
00000140: e92c 49be e134 633e c76e bfbc 618a 13be
00000150: 5191 e63b 1031 b7bd bfa1 64bd 02d6 6a3c
00000160: 181f a5be a093 8d3e 2e19 f6bd 37a6 9abd
00000170: 9816 43be 56bf b43d aaa5 0a3e 7def 0fbe
00000180: f0ec 87bd 4244 4cbe 7467 e63d b8cf ba3d
00000190: 5282 573c ec40 54be 3122 883e a98f 653e
000001a0: 06a4 f0bc 8d35 d3bc 14a7 4f3e d75a 4dbd
000001b0: 00fd f6bd 9e1d 293e bf70 1a3b 240d 10be
000001c0: 748c 813d 72a3 bfbb f8fe 293d dc20 0e3e
000001d0: d1e1 babd 991e 23bd 2842 97bd ca09 583e
000001e0: 3cc3 69bd 26a6 9b3c 4dd3 e0bd 2d66 713d
000001f0: 5881 8dbc 3ba5 c63e 18e6 543c 2db4 573e
00000200: ae79 2dbe 655f 50bd 23cf fa3d 641c f7bd
00000210: 8639 72bd c27e 6b3e ea6b 9a3c 9658 633d
00000220: 0a52 a7bc 0c74 49bd a4e8 f7bd 4616 09be
00000230: 61a0 413e ce15 103e 20a9 01be 83f3 77be
00000240: 4a66 123d f223 5cbd 47de 313e aa08 7cbe
00000250: 14b0 0bbb 993f 1ebe 7a86 4d3d 81ff f13d
00000260: 9a52 b1be a733 64be 9d10 34be 7f5a 4f3e
00000270: 429b f9bd a206 5a3d 5247 cf3d 41cc 89bd
00000280: 0f56 563d ac12 8bbd f75d 233b 4125 96bd
00000290: f8ec 073b d4f7 2a3e 3b58 d4bc 9ee9 21be
000002a0: a81e 373d b64d bc3d 53fe 4cbe e986 153e
000002b0: c91e 2c3e 140a 23bd be2c 9ebd 5d19 17be
000002c0: 5ac9 b8bd 6928 19be 5a0a e3bd 7ea3 80bd
000002d0: cc10 e53d 2bdc dabd 1a91 e7bd 9f43 ddbd
000002e0: e012 b23e d770 b5bd 177c c8bd 623e 10bd
000002f0: ed94 73be 9b8d 813d 9c3c 81bd a3be abbd
00000300: 9d49 4a3d ae5d 2dbe 14f2 49be ac8c 323b
00000310: bf4e 7f3e e97d 9fbc a207 173e 7655 48bc
00000320: 6cb5 97be 88a0 2dbe 1847 9b3c 9390 b6bc
00000330: 0e6e cfbc e993 053e de97 52bd 1a5c 3c3e
00000340: 94e3 143e 8836 b9be f146 943e 3d03 d4be
00000350: 5dd2 0d3c f34f dcbc 7d86 d3bd d324 88bd
00000360: 2b08 02bc 5b38 023e a150 583e 139c b7bd
00000370: 23bc c1bd 99d5 8f3d 3a85 b2bd 9b41 8bbd
00000380: 5e33 5c3e 551e 3a3d df24 7ebd df02 f63d
00000390: 8ca4 7fbd 06aa 1c3d a944 c53d 93b6 953b
000003a0: cb80 c73d 3f6a edbd a58c a7be 5c13 133e
000003b0: c536 2f3e 293c a13d 1fe0 6fbc 2a87 30bd
000003c0: a5c9 663c a685 9fbc bae5 823c 086e 9b3d
000003d0: ec9b 0d3d 3501 1a3e 5765 b63d c291 7abd
000003e0: a1c4 3ebe c8f1 823d 7fd5 8cbe c38b f53c
000003f0: a8d3 2cbe 17c0 33bd 4327 803e 7253 22be
-0.14304422 -0.04232049 -0.14551818 0.15570992 0.13867998 0.23424622 0.12491167 -0.12552091
-0.050746813 0.1417146 0.024584314 0.048682462 -0.1955262 -0.13255064 0.15436313 0.24765661
-0.07391376 -0.14313209 -0.030732967 0.037937187 0.06966415 0.14576896 0.05656301 -0.020632192
0.015207162 0.05198721 -0.058433387 0.020044588 -0.13795155 -0.35724267 0.0036921545 -0.15216447
-0.15782931 0.25124148 0.004312535 -0.32913086 0.17541577 -0.023100551 -0.32626235 0.033618093
-0.19279969 -0.053330127 0.20424019 -0.05913191 0.018332032 -0.048269574 0.062261026 0.00042934905
0.21764031 0.24005908 -0.15057836 -0.09981972 -0.053625956 0.044474304 -0.006696485 0.0015751112
-0.12241341 0.08897345 -0.103599325 0.025334986 0.06160101 0.052957624 0.12145836 -0.185623
-0.111805215 -0.08636376 0.2053791 -0.07075815 -0.13205813 -0.13185124 0.098259725 0.0053536925
0.11923307 -0.084218375 0.10120721 0.17102231 -0.084909976 -0.023192296 0.02901115 0.14423929
-0.19646038 0.2218814 -0.023368252 -0.14408256 0.007036366 -0.08944905 -0.055818316 0.01433325
-0.32250285 0.2765169 -0.120165214 -0.07551234 -0.19051588 0.08825557 0.13539758 -0.14056201
-0.06636989 -0.19947913 0.11250201 0.091216505 0.013153629 -0.2072789 0.26588586 0.22418083
-0.029375087 -0.025782371 0.20278579 -0.05013546 -0.12059975 0.16515204 0.0023565737 -0.14067513
0.063256174 -0.0058483416 0.041502923 0.13879722 -0.09125102 -0.039824102 -0.07385665 0.21097484
-0.057070956 0.019000124 -0.109778024 0.058935333 -0.01727359 0.38797936 0.012994312 0.21064825
-0.16940948 -0.050872225 0.122465394 -0.12065962 -0.05913689 0.22997573 0.018850286 0.055504404
-0.020424861 -0.049182937 -0.121049196 -0.13387403 0.18908836 0.14070818 -0.12662172 -0.24213986
0.03574208 -0.053745218 0.17369948 -0.2461268 -0.0021314668 -0.15453948 0.050177075 0.11816312
-0.34633332 -0.22285329 -0.17584462 0.20249365 -0.12187816 0.05322898 0.10121025 -0.067284115
0.052328166 -0.06790671 0.0024927834 -0.07331324 0.002074061 0.16696101 -0.025920978 -0.15811774
0.04470697 0.0919451 -0.20018892 0.14602245 0.16808619 -0.039804533 -0.07723378 -0.14755769
-0.0902278 -0.14956822 -0.11085959 -0.06281184 0.111848444 -0.10686525 -0.11306973 -0.10803913
0.34780025 -0.08859413 -0.09789293 -0.035215743 -0.2378728 0.06325837 -0.063103884 -0.083859704
0.04938661 -0.16930267 -0.19721252 0.0027244492 0.24932383 -0.019469218 0.14749005 -0.012227407
-0.296306 -0.16955769 0.018954799 -0.022285735 -0.025321033 0.13044704 -0.051414363 0.18394509
0.14539939 -0.36174417 0.28960374 -0.4140872 0.008656112 -0.026893592 -0.10328386 -0.06647649
-0.007936518 0.1271681 0.21124507 -0.08965316 -0.09459712 0.070231624 -0.08716817 -0.067996226
0.2150397 0.045439083 -0.06204688 0.12012266 -0.062412784 0.038248084 0.096322365 0.0045688837
0.09741362 -0.115925305 -0.3272449 0.14362854 0.17110737 0.07872803 -0.014640837 -0.043097652
0.014086162 -0.019472908 0.015978683 0.07589346 0.034572527 0.15039523 0.08906048 -0.06117416
-0.18629695 0.06393772 -0.27506635 0.02997387 -0.16877615 -0.043884363 0.25029954 -0.15852144

conv3.bias f4 [32]
00000000: 387f 54bd 8e6c d1bd e125 823b 58d5 33bd
00000010: df59 95bc e792 9bbe d9ee a6bd 679e 26be
00000020: fdc3 c9bd bd19 d7bb f4db 08be db56 41bd
00000030: 6b3e 62bc 819d 82bd 562f c2bd 835d 98bc
00000040: f6fd abbc 37db ee3c ac4b 7abe 752e b0bd
00000050: 0928 ccbd 4ecb 30bc 9286 c4bd 1626 23be
00000060: 01e6 0cbc 071e e4bd 0400 703c 130a 07bd
00000070: 6585 45bc 6915 b33c 558e 4f3c 1d52 0bbe
-0.051879138 -0.10225783 0.0039718007 -0.043904632 -0.01823133 -0.30385515 -0.08151025 -0.16271363
-0.09851835 -0.0065643475 -0.13365155 -0.047201972 -0.013808827 -0.06377698 -0.09481685 -0.018599277
-0.020995121 0.029157264 -0.24442929 -0.08602611 -0.099685736 -0.010790659 -0.0959598 -0.15932497
-0.008599759 -0.1113854 0.014648441 -0.032968592 -0.0120557295 0.021860795 0.012668212 -0.13605542

conv4.weight f4 [32, 32, 3, 3]
00000000: f2a1 213e 2a34 9ebd c8a8 8f3d fc4b adbd
00000010: 91a0 5abd b4ff b7bd 9bd4 b2bd 608e a3bd
00000020: d2a8 6abe 64c9 1cbd 89b0 2cbe 7390 8f3d
00000030: 69e1 6dbd ac01 433d d34b 44bd 4dfb 09be
00000040: 40a0 45bc 8fc1 f33d dd66 b1bd 4532 103e
00000050: 250d 923d 2107 7bbd 6d7b f5bd 32b4 fe3d
00000060: b6f2 803d d062 0e3e ceac c13c fb7c 2f3e
00000070: f224 f0bc f654 ac3c 50b7 b63d 9ca7 12bd
00000080: b1ec c6bd 77f2 acbd d4c8 9ebc 022a c13d
00000090: d820 d93d 8ecb 43be 0317 f5bc e11f 8b3d
000000a0: 83d8 c4bd d632 cf3d d4f0 323e 283a f4bd
000000b0: 33a6 35bd 159b a13e 223b 1cbd 7f2c 22bd
000000c0: b9ad f6bc 446f dcbd 33c4 803d c9ee 88bd
000000d0: b84f d6bd 82d1 ecbb 1c9e 983e 6149 a6bd
000000e0: e9e0 c5bd e563 e4bd e709 94bd 321c d2bd
000000f0: 6db7 16bd 087e 2f3e 7c4c 9b3d bdc2 863c
00000100: b101 24bd 1367 313e d451 d83d ff9b 9f3d
00000110: 4194 8e3d a69e acbd 7cb7 4a3d 7a17 193e
00000120: ff4a 1f3d 5fcc a4bd f10d 19be 31f1 263c
00000130: 1259 213e 8ad0 9abb 37c9 38be 4fcd 21bd
00000140: a48a e03c fb5d f03d a695 6cbe 7e1a ed3b
00000150: a45b 1dbd aca4 a43e accd 73bd 030c a93b
00000160: 3232 083d 7459 243e 4b6f c23d 8c91 9d3d
00000170: 7f90 dd3d aff5 1cbd fcb6 b3bc 47cf 4ebe
00000180: 2eb0 7f3d 3fe7 6abe 3c00 2b3e 408d 72bd
00000190: 567f 033e 49fa 24bd 49f7 3a3e 826e 54be
000001a0: 12f1 7fbe b486 db3d 8d08 37bb 01fd 8bbc
000001b0: 6e0c edbd 6086 04bd e4ae 373e 736a c83d
000001c0: 052e b5bd 70a9 0a3e f6c7 18bc bbeb 163d
000001d0: 9d71 debd 2edc ae3e fdaf 27be 6603 363d
000001e0: aa0a 5fbd 9c73 8cbe 3a7b 303e 7bd0 4dbd
000001f0: 7d66 e0bd 0edf a3bd 45f6 f83c 2ea5 8bbd
00000200: 8aeb 7dbd a5d3 a8bd e280 1ebe eb1d 2a3e
00000210: b7ed 76bc 3fac 3a3e efb1 adbd e9a6 7e3d
00000220: 3e00 6fbc bf72 463d 1cb1 40be da6e 763e
00000230: 0c42 4dbe f809 e4bd 7927 033e 8862 0cbe
00000240: d129 e1bd f9ab 95bd 465a b1bd ff0c a5bd
00000250: b7ac 3b3e c18e 263e 2cf3 193e 2af3 a4be
00000260: 3503 a4bb 2205 eebd c923 a03d 0c00 69bd
00000270: f115 dcbd 4586 78bd 0b67 8c3d 2a58 35be
00000280: 93d1 c9bd b15b e63d a06d 4ab9 6f6b aabd
00000290: 9fe2 66bd c43d 7c3d 22fa 2abd f5c2 4ebe
000002a0: a63c 02bd 929e 29be b5c1 523d 5090 35bc
000002b0: 434c e0bc 07db d6bd f6f9 583d d407 013d
000002c0: 489a e3bd 3d5e 203e 83d4 85be b914 933c
000002d0: f82d 3b3c e703 4a3e cf97 6d3e 6664 8a3e
000002e0: dfc5 dabd 8bcd 50be 08f7 9fbd 9f12 aabd
000002f0: 851e 39bd ced5 b4bd 4ea8 12be 6ed5 23be
00000300: cf43 f43d 3d48 a2bd 5b34 12bc d275 933e
00000310: ba82 8e3e 2b60 7dbe f5e8 113c 9381 4b3e
00000320: 5d47 2fbe a7ef 15be 378b c13e 6c14 0cbe
00000330: db30 553d 0527 0dbe 9be6 5b3c 2d13 cfbb
00000340: b343 4dbe ace0 0abe 1692 8f3d e703 c3bd
00000350: 76e7 bbbd fd00 63bd e16f f83c aeeb 063e
00000360: 9d1f 933c 39ba 8e38 f9ef 873d 61dc 69be
00000370: e737 27bb 8f7a e53d f7cc 90bd 67d8 b63d
00000380: bb56 7d3d 86a6 193d 7d9a b3be 85d9 103e
00000390: 9e9c fbbd 27a5 09bd fdca b43d 0508 01bd
000003a0: 6e52 ab3e ce42 89be 15da 48bd 4f28 5cbd
000003b0: 5f90 003e 8d6b 5f3e 0b14 773e 73c3 0bbb
000003c0: 5808 f6bd 2f60 cabd ff01 4e3e c31c d03d
000003d0: 5b51 78be e284 113e 14ab 5e3c dceb 9ebd
000003e0: 2ccf 893e 48ce 33be 30ce c13d dbaa 26be
000003f0: 10c0 2ebd aafc 2ebd d6ed 0f3d 2123 68be
0.15784433 -0.07724793 0.07014614 -0.084617585 -0.053375784 -0.089843184 -0.087319575 -0.0798614
-0.22915962 -0.038278 -0.16864218 0.070099734 -0.058076296 0.047609016 -0.047923874 -0.1347477
-0.012062132 0.11902153 -0.08662198 0.14081676 0.07131413 -0.061286096 -0.11986432 0.12436713
0.062962934 0.13904881 0.02364197 0.1713752 -0.029314492 0.021036606 0.08921683 -0.035804376
-0.09713114 -0.08444684 -0.019382872 0.094318405 0.106019676 -0.19120619 -0.0299182 0.0679319
-0.09611609 0.10117118 0.17474681 -0.11925155 -0.044347953 0.3156363 -0.03814233 -0.039593216
-0.030112134 -0.1076341 0.06287422 -0.0668617 -0.10464424 -0.0072271237 0.29808128 -0.08119465
-0.09662039 -0.11151866 -0.07228451 -0.10259284 -0.036796022 0.17137921 0.075829476 0.01645028
-0.040040676 0.17324476 0.105624825 0.07793426 0.06961871 -0.08428697 0.04949139 0.14950362
0.03888988 -0.08046793 -0.14946724 0.01018934 0.15756634 -0.004724567 -0.18045507 -0.03950244
0.027409859 0.11736675 -0.23103961 0.007235824 -0.038417473 0.32156885 -0.059522316 0.0051589026
0.033250995 0.16049749 0.09493884 0.076937765 0.10818576 -0.03832024 -0.02193784 -0.20196258
0.062423877 -0.22939776 0.16699308 -0.059216738 0.12841544 -0.040277753 0.18258394 -0.2074528
-0.24994305 0.10719052 -0.002792868 -0.017088415 -0.115746364 -0.032354712 0.17937809 0.097859286
-0.08846668 0.13541198 -0.009325018 0.036845904 -0.10861514 0.3415236 -0.16375728 0.044436835
-0.05445353 -0.27431953 0.17234507 -0.05024765 -0.10957048 -0.08001529 0.030390868 -0.06818615
-0.061992206 -0.08243493 -0.15478852 0.16612975 -0.015071324 0.18229769 -0.08481204 0.062170897
-0.01458746 0.048449274 -0.18817562 0.24065724 -0.20044726 -0.11134714 0.12808026 -0.13709462
-0.10994304 -0.07308192 -0.086597964 -0.080591194 0.18327604 0.16265394 0.15034169 -0.3221677
-0.005005265 -0.11622073 0.078193255 -0.05688481 -0.107463725 -0.060674924 0.068555914 -0.17709413
-0.09854426 0.112479575 -0.0001930506 -0.083212726 -0.056368466 0.06158234 -0.04174245 -0.20191558
-0.03179612 -0.16564396 0.051454265 -0.01108177 -0.027380114 -0.10490995 0.052972756 0.031501606
-0.11113411 0.15660949 -0.26138696 0.017954217 0.011424534 0.19728051 0.23202442 0.27029723
-0.10682272 -0.20390908 -0.07810789 -0.08304333 -0.04519512 -0.088298425 -0.14322016 -0.15999386
0.11926996 -0.079239346 -0.008923615 0.28800827 0.2783411 -0.24743716 0.008905639 0.19873647
-0.17117067 -0.14642201 0.37801525 -0.13679665 0.052048545 -0.13784416 0.01342168 -0.0063194246
-0.20045356 -0.13562268 0.070102856 -0.09522229 -0.09175007 -0.055420864 0.030326786 0.13175842
0.01795941 6.805774e-05 0.06637568 -0.22837974 -0.0025515498 0.11205017 -0.07070344 0.08927994
0.06185029 0.037512325 -0.35078803 0.14145477 -0.12285732 -0.033604767 0.088277794 -0.03150179
0.33461326 -0.2680878 -0.049036104 -0.05374938 0.12555073 0.21818371 0.2412874 -0.0021326214
-0.1201331 -0.09881627 0.20117949 0.10161736 -0.24249785 0.14210847 0.013590593 -0.0775983
0.26915872 -0.17559159 0.09463155 -0.16276114 -0.042663634 -0.042721428 0.035138927 -0.2266965

conv4.bias f4 [32]
00000000: 701d a3be 132b 4ebe 6bb1 90bd bc18 0fbe
00000010: 1383 02bf c470 98be 76e8 66be fec6 3fbe
00000020: f7f4 bfbd 9cc2 8abe 08bd 06be 960b 83be
00000030: 42cb 85be 94e7 edbd 3a2d 71be 75b6 b0be
00000040: 8ead 88be bc03 83be e419 77be 7bd1 81bd
00000050: 0981 d9bd c562 00be c3b6 80be 9039 99be
00000060: d452 afbd 365c 91be fab2 88be 8fe7 07bf
00000070: 6f7b ddbd 4440 27bd a405 06be b995 bdbe
-0.31858397 -0.20133619 -0.0706509 -0.13974279 -0.50981253 -0.29773533 -0.22549614 -0.18728253
-0.09372895 -0.271016 -0.13158047 -0.25594777 -0.26131636 -0.11616436 -0.23552409 -0.34514204
-0.26694912 -0.25588787 -0.2413097 -0.06338783 -0.10620315 -0.12537678 -0.25139436 -0.2992673
-0.0856072 -0.28390664 -0.26699048 -0.53087705 -0.10814559 -0.040832773 -0.13088089 -0.37028292

linear.weight f4 [32, 800]
00000000: e382 7dbd e240 ef3d 4c00 32bd 0577 4cbd
00000010: 5445 5cbc e8c1 99be 378c 9f3c 4593 693a
00000020: a8d1 1dbc 8ba0 453d f520 003e 32c2 5fbd
00000030: 0c77 e1bd ba44 cbbc 8bde ed3d 6666 2d3e
00000040: 1d59 1d3e 689c 16bd 7eea 18bc bfd3 c6bd
00000050: 11a2 49bd e89b b9bc 798c 65bd eec8 11bd
00000060: dc25 0dbd 50dc 3f3e af65 a4bd adb9 773d
00000070: c7e5 0cbd 65a3 1d3d 7709 92be 2147 253d
00000080: 7967 d23a 0d80 63bd c8a5 493e ba40 343e
00000090: e62c 803c e8bc a3bd f67c f3bc f927 683b
000000a0: b670 4a3d 7330 bebe d125 76bd 366e 84bd
000000b0: 5ee0 0d3e df48 d8bd 2e52 23bc 2c12 4a3d
000000c0: ad37 f63c 28dc 863c f0c3 1cbe 4a0e 68bd
000000d0: a7fd bc3c 18c2 55bd 5605 413c 9f1e 7e3e
000000e0: 6e29 28bd 48b0 5fbb 8f2a 633d 67ec 8bbd
000000f0: d387 0b3d 9c58 813d 8c09 9ebc 5c74 95bc
00000100: 79d9 813b d02b 3abd 1a1b 8fbc eaf0 833d
00000110: 7233 82bc e96a 9cbd 509b a5bd 3ddb 8bbc
00000120: 7965 e63b 9645 d9bc ad0a 913c b8cb 4b3e
00000130: e6fb 6cbd d5a2 f93d bb05 3c3d 7127 2fbe
00000140: 643f 6abe d11b 9c3d cfed abbc 7c6d babd
00000150: 4dc4 963d 92d7 07bc 6db7 fabb 08e2 18bd
00000160: 8fed 923d 97db 82bd ddb8 d73d a801 bbbd
00000170: b7e6 123e bca5 d83d 8c33 b03d 6905 733c
00000180: c8b4 2fbb 2dc0 2abc 3e5c dabc 7894 21bd
00000190: 9278 96be d327 4e3e cced 9abd 8205 fc3c
000001a0: 719f 213d cee4 85be f0f5 873e 7814 063e
000001b0: 3241 fe3d 9b54 373d 6655 90be 6362 ca3e
000001c0: 11aa 303e c378 c63d e5c0 333e 9992 99be
000001d0: 3b4e 8fbe e9f9 79be d8ea 7abe 1342 b7be
000001e0: b601 a4be 17cd c1be 2519 b0be 7dea bdbe
000001f0: 1b4e c9be ce1d 2dbd 6dda 84bc 9997 903c
00000200: 2776 a3bd 81d0 ae3d 78d2 f8ba 9849 623e
00000210: 783e b83c d6d6 0abd 3731 2e3d 34ce fd3b
00000220: 7ba2 d6be 4afd 0e3d 1269 823d 07a3 bb3d
00000230: 9655 f7bd 14fe 9ebd 7474 5bbd 4e35 34be
00000240: f5c1 d2bd c793 bbbc 3f3b a53d 3643 363d
00000250: 89f0 073d 2d45 c03d 56c9 30be 1056 873d
00000260: 30c8 29be 6929 d3bc cbdf 483e 2e66 4a3e
00000270: 8874 353e be56 19be 0b8b a3bd 8b2b 0a3e
00000280: 2ecd 36be f93d f23d 598b 92bd 184d 43bd
00000290: 5915 abbd 1d26 35bd a186 183d 972a 49bd
000002a0: 0340 423d 1106 d0bd e868 ee3d df9e b8bc
000002b0: b729 bfbc 3bec 9abd 8f57 5fbd 4e97 813e
000002c0: 14f6 3dbe c690 8b3d 45dc 153c ce36 c4bc
000002d0: 958d 67be 1a67 bf3d 8999 e73c cda3 9abc
000002e0: 41c8 563d ee65 b33c 7951 e4bc ea2e 47bd
000002f0: 14a9 a8bb a8e8 9c3d b0b7 76bd 48d1 3a3d
00000300: db54 893d 6427 433c cba8 22be 2511 6dbc
00000310: 0c7f 9b3c 80cc 17bc 0d73 70bc ea6e af3c
00000320: 2f32 8fbd ffcd 693c 9d19 9bbc b82a a93d
00000330: cf0e 853c 4d11 9b3d 4550 fb3c 8d2e 62bd
00000340: 31d7 15bd a99b f33d b5ff c73d ef72 043d
00000350: 4c2a 40bd a459 083b 2b73 243e 2beb adbb
00000360: ee51 30bd f827 0e3e 8edc 87bd 4e4c 26be
00000370: e80e 453d 21c6 56bd 0e51 a2bc bcfb 68bd
00000380: 7ddf c2bc 419b 8a3d 39fd 1e3e 196b ddbd
00000390: 44d4 1abe 5613 a23d c265 63be e082 ce3c
000003a0: 6126 4dbd 3af3 01be 778f b03c c1a0 523d
000003b0: 4e5e 743e 8ff5 09bd 4997 8d3c a1ce 12bc
000003c0: 791b a93d d9d6 13be 62fe 1ebd 7a52 9cbc
000003d0: 0a6b e9ba d6d6 0c3a 39bb 62bc bbe3 0abd
000003e0: 31ae 1e3c 721b 3abc 31fe 81bc ff5e cabd
000003f0: 723b 0f3c 02c3 9eb9 6595 1a3d 4a88 e63c
-0.0618924 0.11682297 -0.043457314 -0.049918193 -0.0134442635 -0.3003075 0.01947604 0.00089101895
-0.0096325055 0.04824881 0.12512572 -0.05462856 -0.110090345 -0.024813045 0.11614712 0.16933593
0.15366025 -0.036770254 -0.009333251 -0.09708356 -0.049226824 -0.02265735 -0.05604217 -0.035592012
-0.034459934 0.18736386 -0.08027207 0.06047981 -0.03439882 0.038485903 -0.28522846 0.040351037
0.0016052566 -0.05554204 0.19692147 0.17602816 0.01564641 -0.079950154 -0.029722672 0.0035424216
0.049423896 -0.3714634 -0.06009466 -0.064663336 0.1385512 -0.10560774 -0.009968324 0.049333736
0.030055845 0.0164624 -0.15309119 -0.056654252 0.02307017 -0.052187055 0.011781057 0.24816369
-0.041055135 -0.0034132171 0.05546051 -0.068321995 0.03406508 0.06315729 -0.019291662 -0.018243961
0.0039626923 -0.04545194 -0.017468978 0.06442435 -0.015893672 -0.07637579 -0.08086264 -0.017072314
0.0070311395 -0.026522439 0.017705286 0.19901931 -0.057857417 0.12189261 0.045903903 -0.1710489
-0.22875744 0.07622493 -0.02098742 -0.09102914 0.0736166 -0.008291142 -0.0076512606 -0.037324935
0.07174217 -0.0638954 0.10533307 -0.09131175 0.14345823 0.10578486 0.08603582 0.014832833
-0.0026810635 -0.010421795 -0.026655313 -0.03944823 -0.29388863 0.20132379 -0.075648874 0.030764345
0.039458696 -0.26151127 0.26554823 0.13093746 0.12414779 0.04475842 -0.28190154 0.39528188
0.17252375 0.09691002 0.17554052 -0.29994658 -0.27989373 -0.2441174 -0.24503648 -0.35792598
-0.32032555 -0.37851784 -0.34394184 -0.37092963 -0.39317402 -0.042264752 -0.016217435 0.017650412
-0.0798152 0.08535863 -0.0018983623 0.22098386 0.022490725 -0.03389629 0.042527404 0.0077455286
-0.41920838 0.034909524 0.06367697 0.091619544 -0.12076871 -0.07763305 -0.053577855 -0.17598459
-0.102909006 -0.022897614 0.08067941 0.04449769 0.033188377 0.09388194 -0.17264304 0.06608212
-0.16580272 -0.025776582 0.1961662 0.19765541 0.17720234 -0.14974496 -0.07985505 0.13493173
-0.17851707 0.118282266 -0.07155485 -0.047680944 -0.08353681 -0.0442258 0.037237767 -0.049112882
0.047424328 -0.10157407 0.11641103 -0.022536693 -0.02333532 -0.07564589 -0.05452686 0.2531075
-0.18550903 0.06814723 0.009146755 -0.023951914 -0.22612603 0.09345837 0.028271453 -0.018876934
0.05243707 0.02189919 -0.02787088 -0.048628725 -0.005147109 0.07661563 -0.06023377 0.045609742
0.06705638 0.011911247 -0.15884702 -0.01446942 0.01898148 -0.009265065 -0.014675868 0.021415193
-0.06991994 0.014270305 -0.018933112 0.08260101 0.016242413 0.07571659 0.030677924 -0.055220176
-0.036582176 0.11894924 0.09765569 0.03233617 -0.046915337 0.0020805383 0.16059558 -0.005307575
-0.043046884 0.13882434 -0.06633864 -0.16240045 0.04810992 -0.052435044 -0.01981404 -0.056880698
-0.023788208 0.067678936 0.15526284 -0.10811443 -0.15120035 0.07913844 -0.22206786 0.02520889
-0.05008543 -0.1269044 0.021552784 0.051422838 0.238641 -0.03368145 0.017284052 -0.008960397
0.08257193 -0.14437427 -0.038816817 -0.019082297 -0.0017808389 0.0005372589 -0.013838583 -0.033908587
0.009685085 -0.011359083 -0.015868278 -0.098814 0.0087422 -0.000302814 0.03774013 0.02814116

linear.bias f4 [32]
00000000: 905e 083f 2db9 a6be 0b85 d2be 3022 c4bc
00000010: 5eb1 21bd a0a8 9a3d 6627 55be 061a c93d
00000020: 17d3 eaba dbd7 57bd 79c4 56bb b400 87be
00000030: 14fb adbd ec8f 1d3e e360 8abe afd1 a43d
00000040: 176d 97bd 9927 503e 8db1 473d 7deb 09bf
00000050: 79c7 0d3d f85a 3bbc b23e 1abb ee84 cebd
00000060: 7f9f d2bd 4d1c 8d3d 77ff 74bc 886a 803e
00000070: 88cd f23c 3ae3 203c f323 71be d89a 67bc
0.5326929 -0.32563153 -0.4111713 -0.023942083 -0.03947579 0.07551694 -0.2081581 0.09819417
-0.0017915693 -0.05269609 -0.0032770915 -0.26367724 -0.08495155 0.15386933 -0.27027044 0.080478065
-0.07393854 0.20327605 0.04875331 -0.5387495 0.03461406 -0.011435263 -0.0023535904 -0.10083948
-0.10284328 0.068901636 -0.014953486 0.25081277 0.02963902 0.0098198 -0.2354887 -0.014136039

critic_linear.weight f4 [1, 32]
00000000: 79a3 ea3d c223 9cbb e276 aebd ead9 d1bb
00000010: e10a 85bb b83f 4539 72a7 b1ba 4bed 7c3b
00000020: 40e9 fc3a 0e80 78bb fe45 f9ba 1789 73bb
00000030: 4550 edba 6547 b63b 155e f6bb 03b3 f93b
00000040: fadd 5ebb d006 803b b8a4 b739 a094 1fbe
00000050: 1ad4 e03b 027a 55bb 0644 3dbb e6f0 8bbb
00000060: 007f 64ba cf7f 6b3b 40df e8b9 6f0d 623b
00000070: 88b0 3f3b a638 b23a 7282 7ebb 24b3 a63b
0.11456961 -0.004765005 -0.08518769 -0.006404151 -0.0040601348 0.00018811121 -0.0013553931 0.0038593586
0.0019295588 -0.0037918123 -0.0019018052 -0.003716057 -0.0018105587 0.00556271 -0.0075185397 0.007620217
-0.003400682 0.003907062 0.00035027205 -0.1558404 0.006861222 -0.0032573943 -0.0028879656 -0.0042706607
-0.0008716434 0.0035934334 -0.00044416822 0.003449287 0.0029249508 0.0013597205 -0.0038835076 0.005087273

actor_linear.weight f4 [6, 32]
00000000: 76de 7c3e 2681 6dbe fc20 bfbe e151 f43c
00000010: ee87 c1bc 2d2e 813d 6cc1 7bbd 59b6 a93d
00000020: cd8a 103d 34bd c5bc c4d6 2a3c 5ce2 eabd
00000030: 8ff5 d2bb ca1c 3d3e ce4f 91be 4be9 f93d
00000040: d7d5 37be 5174 e53d 45b4 8e3d 4d6d bcbe
00000050: 7450 cb3c 5b7d e9bb a189 343c f30c 023e
00000060: 9e9f 39bc bf02 753d 19c6 0c3e d3a8 653e
00000070: 2397 153d 5081 44bc 5233 0dbe 1b1d d7bb
00000080: 6873 a23e cd4a 73be 802c a1be 4eb0 ae3c
00000090: 598b 15bc 37a1 de3d 1cd4 a1bd bbbb 963d
000000a0: 9505 85bc 0903 e1bc c4c3 34bb 5368 bcbd
000000b0: 2bdf 8b3c ed3a 3f3e 2ec5 afbe 1306 083e
000000c0: c800 2abe aa9d e63d 3386 623d 5f3f c4be
000000d0: cd3b 533d b8ce 45bc 8a00 ba3c dcd8 be3d
000000e0: 2eb7 973b 7ba0 8a3d 465d 1e3e a51b 8b3e
000000f0: 97f6 f13c d313 71bc 9a34 13be da3c 3bbc
00000100: 31e7 613e 144b 6cbe e48c e1be 7a81 d93a
00000110: b382 38bc 8346 e43d 47d6 e0bd 2948 8d3d
00000120: 2c61 5038 91aa f4bc 9098 98bc c982 adbd
00000130: e7f2 053c a875 143e c923 75be c18e d43d
00000140: dc38 1fbe 8427 003e ed01 5b3d 8545 a4be
00000150: 3b0d 003b 1ce0 a2bc fd6a 8ebc d688 423d
00000160: c4ef 9b3c 3e1a c73d fd5f aa3d cae8 1e3e
00000170: d45c 3cbc 3b93 46bd 1dc9 0ebe 5163 d1ba
00000180: b4bb a13e d27b 5abe 2584 c4be bc2a 683c
00000190: 9f26 143c 66e7 fc3d 0916 eebd b116 373c
000001a0: bf92 723c 5af3 94bc 460f 973c ed81 30be
000001b0: 83eb 633d 5362 413e d12a 34be 88b7 e93d
000001c0: ae2f 25be 2103 4c3d c14e 6a3d 878d 72be
000001d0: 8482 493d d030 4b3c e17d 4ebb 73a5 503e
000001e0: f026 e83b 5b96 a03d aacb 3e3e 3f07 ab3e
000001f0: c57d a13c 08bb fb3b e829 1cbe 40a6 04bc
00000200: 631b aa3e 5836 6cbe 77a7 c4be e3c1 eb3c
00000210: 37cc 4d3c 8bff cd3d 4058 e0bd 33bb 653d
00000220: 9a16 393b e6b5 c5bc 2931 5f3a 33ee 1fbe
00000230: 2eab 33bb b5b7 2d3e 4214 90be 34fe 0b3e
00000240: 7a92 25be 48ea f63d dca8 2c3d 9985 a1be
00000250: 24d2 0b3d 6b96 91bc 4373 513c 96d3 91bc
00000260: 72a6 debb 858d b73d b6bf cc3d eaa8 023e
00000270: 8a0c 003d 1604 02bd c233 2ebe f49b 33bc
00000280: 9067 c53e 0542 79be 689c 71be 9116 cc3c
00000290: 079a 6cbc 31bb 963d 9d14 a1bd 6e0c 923d
000002a0: f236 c73c 9fd1 abbc 3a18 adbc 970f 21be
000002b0: 0d16 583c 6e6f 3d3e cc6b 5fbe bf3e 003e
000002c0: 4d14 38be 81ee f43d 2495 393d 6646 b3be
000002d0: 1331 213d ab86 06bd defc 993c 2b3b df3d
000002e0: bc03 9cbc 885a 883d 1510 2d3e f5e4 b13e
000002f0: 6e5c 403d c271 c3bc 209a 23be c1a6 563c
0.24694237 -0.23193797 -0.37329853 0.0298242 -0.023624387 0.063076355 -0.06146376 0.08286733
0.03528862 -0.02413807 0.010427181 -0.11468956 -0.0064379643 0.18468013 -0.283812 0.122027
-0.17952667 0.11203826 0.069679774 -0.3680214 0.024818636 -0.0071255392 0.011019141 0.12700252
-0.01132956 0.059817072 0.13747443 0.22427683 0.03652109 -0.011993721 -0.13789108 -0.006564749
0.31728673 -0.23759003 -0.31479263 0.021324303 -0.009127461 0.10870593 -0.07901785 0.073600255
-0.016238013 -0.027467268 -0.0027582506 -0.09199586 0.017074188 0.18674822 -0.34330124 0.13283567
-0.1660186 0.11260541 0.055303764 -0.38329598 0.051570702 -0.012073211 0.022705335 0.093187064
0.004629991 0.067688905 0.15465268 0.2716953 0.029536529 -0.014714199 -0.14375535 -0.011428082
0.22060849 -0.23075515 -0.44052804 0.0016594373 -0.01126163 0.111462615 -0.1097837 0.06898529
4.9681563e-05 -0.029866489 -0.018627435 -0.08472211 0.008175588 0.14498007 -0.23939432 0.10378791
-0.15549034 0.12515074 0.053468633 -0.3208429 0.0019539136 -0.019882254 -0.017385 0.04749378
0.019035228 0.09721802 0.083190896 0.1551849 -0.011496741 -0.048480254 -0.13943906 -0.0015975033
0.3158852 -0.21336296 -0.38382068 0.014170345 0.009042411 0.12348823 -0.116252966 0.011174844
0.014805495 -0.018182445 0.0184399 -0.17237063 0.055644523 0.18885164 -0.17594458 0.11411959
-0.1613147 0.04980767 0.05720401 -0.23686801 0.049196735 0.0124017745 -0.0031508135 0.20375614
0.00708472 0.07841178 0.18632379 0.33403966 0.019713292 0.007682208 -0.15250361 -0.008096278
0.3322402 -0.23067605 -0.38409016 0.028778976 0.012560896 0.100585066 -0.10954332 0.05608673
0.0028242231 -0.024134587 0.00085141003 -0.1561821 -0.0027415263 0.1696461 -0.28140455 0.1367119
-0.16169158 0.12056404 0.042153224 -0.3154724 0.034135953 -0.01777192 0.012783828 -0.017801087
-0.006794744 0.089625396 0.099975035 0.12759748 0.03126196 -0.031742178 -0.17011932 -0.010962475
0.38555574 -0.2434159 -0.2359482 0.024913104 -0.01444102 0.07359923 -0.0786526 0.07131277
0.024318192 -0.020973979 -0.021129716 -0.15728603 0.013188851 0.18499538 -0.21818465 0.12523936
-0.17976494 0.119595535 0.045308247 -0.35014647 0.03935344 -0.032843273 0.018797334 0.10899957
-0.01904475 0.066578925 0.16900666 0.34744993 0.046963148 -0.023857955 -0.15976763 0.013101281

actor_linear.bias f4 [6]
00000000: 9d13 3f3d 0614 a03e 8a70 6b3e 36b1 033e
00000010: 18a4 623e 5202 8f3e
0.046649564 0.31265277 0.22992149 0.1286057 0.2213291 0.27931458
