spaceinvaders-v0-bottom-7fskip_latent32/model.102.tar (torch, 223035 bytes, 13 tensors)

conv1.weight f4 [32, 4, 3, 3]
000000 e2 46 3b 3c 3b 4b 94 3c 07 98 47 3c 50 95 e2 bd
       0.011430474 0.018102279 0.012182242 -0.11063635
000010 73 f7 02 bf b1 18 c7 3d ee 82 38 3e 49 04 10 3e
       -0.5115883 0.097215064 0.18018696 0.14064135
000020 b3 ca c1 3c 8b d4 ba bb ab 75 11 3e 57 44 e1 3c
       0.023656225 -0.0057016066 0.14205043 0.027498407
000030 9b 83 01 3c 55 a2 d7 bc 83 bd a0 bd a1 d6 fb 3d
       0.007904912 -0.026322523 -0.078486465 0.122967966
000040 81 93 05 3e f1 60 bb bc 81 7e 1a 3d f9 f0 4a 3e
       0.1304455 -0.022873374 0.0377183 0.19818486
000050 88 6e 2d bd 30 5f 9c bd 63 b2 ef bd fb e2 25 be
       -0.04234174 -0.07635343 -0.117039464 -0.16199867
000060 b2 7b 2d 3e 2f 0a 2f bc 9c e7 43 3e 82 50 3c 3d
       0.16941717 -0.01068358 0.1913132 0.045975216
000070 86 f8 e5 be 1b 75 03 3d 6e 67 15 3e 29 8a 10 3f
       -0.4491617 0.032094102 0.14590237 0.56460816
000080 d0 e3 5c 3e db 3a d0 be 76 ac 21 be bb ac 9f be
       0.21571279 -0.40669903 -0.15788445 -0.3118647
000090 58 64 ea bc 38 33 9e bd cd 73 39 3e 79 e5 d6 bd
       -0.0286123 -0.07724613 0.1811058 -0.10492987
0000a0 83 55 22 3e 02 82 07 3e 0e 11 48 3e 08 59 ef bd
       0.15852933 0.13233188 0.19537756 -0.11686903
0000b0 4c fd 3a be 4c 9a 4f 3d a5 48 a1 bd b8 bf fd bc
       -0.18260688 0.05068426 -0.07875184 -0.030975208
0000c0 14 f6 dc bc 34 c6 57 3d 87 bd 84 bd 9a 42 47 bd
       -0.026972808 0.052679256 -0.06481462 -0.0486475
0000d0 b3 7c ae 3c fd c0 64 3c 51 09 e2 bd 87 62 89 3e
       0.021299696 0.013962028 -0.11036933 0.26832983
0000e0 2a 71 a6 bd 3b 9a 2c be 24 ba 18 3e 3e bb 91 3d
       -0.08127053 -0.16855709 0.14914757 0.07115792
0000f0 c2 04 88 3d 04 62 8e bb b6 e7 72 3d 5e e2 c3 3e
       0.066415325 -0.0043451805 0.059303008 0.38258642
000100 77 75 c1 be 41 8a e4 bd 49 32 5c 3d 7f c4 89 be
       -0.3778493 -0.11159182 0.053758893 -0.26907727
000110 82 1f 0e bd aa ae 9e be db f5 d8 3e a6 71 f3 bd
       -0.034698017 -0.30992633 0.42375073 -0.11886911
000120 3f e1 32 3e b4 61 06 be ad 38 7f 3e 49 3d 8d bc
       0.17468737 -0.13123208 0.24923964 -0.017241137
000130 95 17 6c 3d cc 1f 51 3e d4 8d a7 be 2e fb 10 3d
       0.057639677 0.20422286 -0.32725394 0.035395794
000140 47 f9 d8 bd f3 28 50 be 17 c9 70 3c 9f 92 db bc
       -0.10594421 -0.20328121 0.014696381 -0.026803313
000150 3e cf 49 3d cc 01 4a be 65 cd 07 be 5c 33 41 3d
       0.049269907 -0.19727248 -0.13261946 0.04716812
000160 e9 35 d5 bd 53 bd 66 3e 4b fc a2 3d 6f 93 eb bd
       -0.10410673 0.22533159 0.07958277 -0.1150273
000170 e3 4d 65 3e 8c ab fe 3d 0b 86 0b be a1 b1 41 3d
       0.22392993 0.12435064 -0.13625352 0.04728854
000180 a2 06 01 3e 86 31 21 b9 ad d4 e5 bd 84 b8 a3 bd
       0.12600186 -0.00015372605 -0.11222205 -0.07994178
000190 92 04 4a 3e 06 19 0e be 39 fa ca 3d e9 66 31 be
       0.19728306 -0.13876733 0.099110074 -0.17324413
0001a0 e4 26 90 be 5e df b2 bd 3e c1 6a 3e d2 ef 3f 3d
       -0.2815467 -0.0873401 0.22925279 0.04685957
0001b0 3b e7 98 3e b2 87 10 3e a8 5e d4 3c 35 a8 23 3e
       0.29863915 0.14114264 0.025924042 0.15982135
0001c0 df 44 65 3e 6d e6 88 3b bb 79 0f 3e 9b 6a fc 3e
       0.22389553 0.0041778595 0.1401128 0.49300084
0001d0 50 ac d5 3d b1 48 08 3e 56 c7 59 be ba 62 12 be
       0.104332566 0.1330898 -0.21267447 -0.14295474
0001e0 92 8c e1 bd 98 93 9a bd 28 06 ea 3d dd ec 83 bc
       -0.1101314 -0.075476825 0.114269555 -0.016104156
0001f0 0f 34 fa 3d f7 71 32 be 30 53 03 bd 1b ff f7 bd
       0.12216961 -0.17426287 -0.032061756 -0.121092044
000200 04 52 ba 3d 85 88 dd 3d 0d 88 84 be ee a5 1e 3d
       0.090976745 0.10817055 -0.25885049 0.03873246
000210 21 c2 45 3e 93 f7 25 3e bb 32 1a 3e 1a d8 3e 3e
       0.19312336 0.16207723 0.15058415 0.18637124
000220 b9 94 2b 3d 99 42 13 3e 11 ef 8e be 00 41 57 bf
       0.04188988 0.14380874 -0.27916768 -0.8408356
000230 be b2 82 be 61 a3 90 bd d5 e4 69 be 51 b0 fd 3a
       -0.25526994 -0.07062412 -0.22841199 0.0019354915
000240 1c e5 03 be 3e ee 00 be 96 eb 6c 3e 35 f7 19 3e
       -0.12880367 -0.12590882 0.23136744 0.15035708
000250 0b f6 ba 3d 5e 16 ec 3d 77 38 58 bd db a3 da 3e
       0.0912896 0.11527704 -0.052788224 0.42703137
000260 91 b5 c2 bd b6 cc 8f bd 15 ca 13 be 47 34 1e be
       -0.09507287 -0.070214674 -0.14432557 -0.1544963
000270 0f 8a 02 be 99 dc f7 bd c9 17 77 3c 66 46 c2 bd
       -0.12747978 -0.121026225 0.015081354 -0.09486084
000280 68 ec 90 bc 94 38 e4 3c e0 d5 03 bd 93 88 d7 3d
       -0.017690852 0.02785901 -0.03218639 0.10524096
000290 0f 87 9a bc 81 0d 81 bd fa aa 94 be 97 8c 3e be
       -0.01886323 -0.06301404 -0.29036695 -0.18608318
0002a0 16 24 28 be cd de 65 be ca 86 54 be 9d 3b 80 3e
       -0.16420016 -0.22448273 -0.20754543 0.2504548
0002b0 29 52 84 3c 78 eb 26 be 53 78 24 3e 65 cb be 3e
       0.016152458 -0.16300762 0.16061525 0.37264553
0002c0 f6 54 8d 3e bf 47 99 bb 2d 36 f5 bd e6 97 ad 3e
       0.27603883 -0.0046777423 -0.11973224 0.33904952
0002d0 f7 ef 2b be ea 24 55 be 2b 5f 38 be b0 67 86 be
       -0.16790758 -0.20814863 -0.18005054 -0.26250982
0002e0 3f 99 fa be c1 70 bf bd c7 e3 9e be 66 d9 e7 be
       -0.48945042 -0.09347678 -0.31033155 -0.4528305
0002f0 ba f5 4a be 44 03 2c bd 0a d6 95 3a be 62 82 bd
       -0.198203 -0.0419953 0.0011431586 -0.0636649
000300 fa 7a 57 be 18 2a d2 bd b1 76 1d bd d1 3c 2e be
       -0.21043006 -0.10261935 -0.03844327 -0.17015387
000310 17 62 63 3c e7 69 02 3d 15 fc 79 3e f5 a2 67 bc
       0.013878367 0.031839278 0.24412568 -0.014137973
000320 ec de c4 3d ce c9 23 be 04 88 2b 3e b5 b7 08 be
       0.096128315 -0.15994951 0.16751105 -0.13351329
000330 27 fc d1 3d f9 1b e3 3d 4c ca c8 bd c0 07 9b 3e
       0.10253172 0.1108932 -0.0980421 0.3027935
000340 8c 0e e0 3e ff 9b ce 3e 32 bb e9 3c ba 1a 80 3e
       0.43761098 0.4035339 0.028531644 0.2502039
000350 f6 08 d3 bd 1e 02 b0 3e dc 9c e5 3e bc fa a2 3e
       -0.103044435 0.34376615 0.44846237 0.3183192
000360 6d 1e ae 3e 05 45 ca bd f4 f2 65 3c 7e 53 a8 3e
       0.34007588 -0.09876446 0.014034975 0.328762
000370 32 e6 6f 3d 85 6b 9f 3e dd c5 aa be 2a f1 dd be
       0.05856914 0.31136718 -0.33354083 -0.43348056
000380 c1 0d 06 3b 04 25 22 bd d2 f2 3f 39 8b 53 8d 3e
       0.0020454975 -0.039586082 0.00018305637 0.276028
000390 48 74 31 3e 0f 4a 97 3d 94 e8 8f 3d f3 6d 28 be
       0.17329514 0.073871724 0.07026783 -0.16448192
0003a0 70 22 70 3b fc fa af bd f9 ee bf 3c 19 86 da bd
       0.003664162 -0.08592793 0.02342938 -0.10670108
0003b0 37 c3 67 3d 5b 39 1d 3e 2e 72 89 3d 2f da 90 bd
       0.056582656 0.1535391 0.06711231 -0.07072865
0003c0 43 7d f9 bd 6a c6 28 3d 00 30 71 3d 42 2e ba bd
       -0.12182095 0.041204847 0.058883667 -0.09090854
0003d0 77 c5 d0 be 8c 79 3b bd e3 c0 76 be a1 8f d9 be
       -0.40775654 -0.045770213 -0.24097018 -0.42492393
0003e0 d8 9e 11 be 56 ba 8b 3e fc 3b d4 3e e2 fc b0 3d
       -0.1422075 0.272906 0.41452014 0.086419836
0003f0 4a 52 92 3c ea b2 8f bd 16 1d ad bd 5d 9b d4 be
       0.017861504 -0.07016547 -0.08452813 -0.41524783

conv1.bias f4 [32]
000000 44 1e 2a ba c4 c2 ad 3a 07 21 c9 3b d3 56 6d ba
       -0.0006489495 0.0013256897 0.0061379704 -0.00090537703
000010 3a 3e 64 b8 19 fe 75 3b 65 fc ae ba 1e aa 0f 3b
       -5.441739e-05 0.0037535487 -0.0013350366 0.0021921466
000020 27 57 79 bb 89 aa 1f 3a 8f aa 72 b9 c2 f5 37 3a
       -0.0038046332 0.00060907804 -0.00023142456 0.0007017517
000030 2d 26 55 3b 6a 5e 91 ba 49 82 e3 3a b0 33 af 3d
       0.0032523975 -0.001109076 0.0017357554 0.085547805
000040 9f 4b cc 3b 41 1b a1 ba 57 0a 81 3d f0 0f eb 39
       0.0062346007 -0.0012291447 0.063008 0.00044834567
000050 52 bf f8 3a fa 95 dd 3a 42 5c 00 3b 72 b6 8e bb
       0.0018977916 0.0016905658 0.001958624 -0.0043552453
000060 6c 65 29 bb 00 f2 24 b8 f4 5f 4e 3a a1 d2 c6 ba
       -0.0025847806 -3.9326027e-05 0.00078725745 -0.0015168973
000070 bc ca 1a 3b 2a 16 16 ba c3 bf 32 bb fb c8 42 ba
       0.0023619374 -0.00057253486 -0.0027274943 -0.0007430461

conv2.weight f4 [32, 32, 3, 3]
000000 98 35 84 be fc d1 54 be 99 4e 81 3e 52 7a fb 3d
       -0.2582214 -0.20783228 0.25255278 0.1227919
000010 95 1d 9a 3e 26 db 39 be 0b ce 9b bd ae c3 2e bd
       0.30100694 -0.18150005 -0.07607659 -0.042667083
000020 d5 47 92 bc 87 d6 a7 bb a0 ca 8c be 13 29 d3 3d
       -0.017856518 -0.005122009 -0.2749834 0.10310569
000030 29 91 01 3e 5a 96 6a 3d 65 5e b0 3d 8e b7 19 3e
       0.1265303 0.057272293 0.08611754 0.15011427
000040 c2 87 39 be 20 a9 5d 3e cf b1 00 3b 56 5a 0d be
       -0.18118194 0.21646547 0.0019637232 -0.13803992
000050 7f f3 69 be fc 22 02 be 92 5b a2 3c 0f 67 22 3d
       -0.22846793 -0.12708658 0.019819055 0.039649066
000060 c5 bd e0 bb a5 73 9f 3d 26 4e a8 3c 9d 0e 51 be
       -0.00685856 0.07785729 0.020545077 -0.20415731
000070 98 94 58 be 6c a5 33 be 6c 56 48 be d8 c3 ee be
       -0.21150434 -0.17543572 -0.19564217 -0.46633792
000080 2d 11 4b 3e 23 84 83 bd 58 b3 ea 3d 7f 6c 7f 3e
       0.19830771 -0.064216875 0.11459988 0.24943732
000090 27 52 2e 3e 4c 91 b7 3c da 64 10 3d 16 fd 03 3e
       0.17023526 0.02240815 0.03525243 0.12889513
0000a0 12 2c 51 3e 10 62 44 be ed 79 f7 bc c2 06 0f be
       0.20426968 -0.19178033 -0.030209506 -0.13967422
0000b0 d0 8c e6 3d e0 8d 18 3e 9c c7 e1 bd 33 b2 9d be
       0.112573266 0.14897871 -0.110244006 -0.30800018
0000c0 d9 a1 57 3d 97 da a5 39 04 36 a0 bd df 3a 01 3e
       0.052644584 0.00031634115 -0.07822803 0.12620114
0000d0 6c 2e 6c 3e 97 05 2f 3e 63 f0 8c 3e b4 ae de 3d
       0.23064584 0.17091976 0.2752715 0.10873166
0000e0 6a b3 b3 be e4 a3 4f bd 4a 22 81 3d b7 c8 da ba
       -0.3509782 -0.050693408 0.06305368 -0.0016691898
0000f0 09 3f 52 bd c2 5d 9c bc a8 e3 84 be 4c db 40 be
       -0.051329646 -0.019087676 -0.25954938 -0.18833655
000100 93 0b 3c bc 12 22 b4 3c 90 d8 8f 3e 37 ec cf 3d
       -0.011477369 0.021988902 0.28094912 0.10152476
000110 ea cd 99 bd 4d f1 92 bc f4 c3 7d 3b 30 f4 f2 3d
       -0.07509978 -0.017937327 0.0038721533 0.11862981
000120 ee 99 df bc 41 30 25 3e 65 fa a0 3e ab 1c ab 3c
       -0.02729508 0.16131689 0.31441036 0.020887693
000130 b7 47 17 3e e5 ab 9b 3d 6c d5 40 be 1e f3 80 be
       0.14773451 0.07601146 -0.18831414 -0.25185484
000140 13 2a d2 bd 4a 4d 17 3e 46 e9 1d be 42 75 77 3d
       -0.10261931 0.14775577 -0.15421018 0.06041456
000150 4b e5 bd 3c 73 42 f8 3d 7d 45 3b be 40 0b e7 3a
       0.023180624 0.12122049 -0.18288226 0.0017627254
000160 20 5a 9a 3e 0b 6d 5f 3d 26 f7 89 3d fe 3d 26 3a
       0.30146885 0.05454735 0.06736593 0.0006341635
000170 35 1c 09 bd be fb 41 3e cb 07 f1 3e f6 5f bb be
       -0.033474166 0.18943688 0.47076258 -0.3659665
000180 06 55 ed 3d 30 e7 96 bc b5 a0 98 bd 42 c8 3e 3e
       0.115884826 -0.018420786 -0.074525274 0.1863108
000190 1b 61 24 3d 51 33 0e 3d d9 33 78 3e 7d fb 19 3d
       0.04013167 0.034716908 0.24238528 0.037593354
0001a0 2f 7e c2 bd 30 a0 0d be 74 62 6c bd d3 2d 1c be
       -0.09496724 -0.13830638 -0.05771108 -0.15251856
0001b0 35 7f e2 bd bc a4 99 bd 18 b1 9a 3d dc 41 d5 3e
       -0.11059419 -0.07502124 0.07553309 0.4165181
0001c0 19 45 4c 3e 78 97 27 be 17 7e c8 bd 77 1a ab be
       0.19948234 -0.16366374 -0.09789675 -0.3341863
0001d0 71 1b ed bd 93 18 0d be fc 8a 03 3e f4 72 1a 3f
       -0.115775 -0.13778906 0.12845987 0.60331655
0001e0 09 51 5c 3e 79 ac d7 3c 2b d3 d5 3d 77 9f 5a 3d
       0.21515287 0.026327359 0.10440668 0.053374734
0001f0 84 c5 db be 08 9b 13 bd 00 44 25 3e e2 ab d4 3d
       -0.4292413 -0.03603652 0.16139221 0.103843465
000200 55 e2 51 bd 68 fe 5a 3e 24 a4 bb bd 41 0c 22 3d
       -0.051241238 0.21386111 -0.09162167 0.039562467
000210 24 0b bd bc 44 4f 71 be ed bf 31 bd 50 f3 d8 bd
       -0.023076601 -0.23565394 -0.043395925 -0.10593283
000220 97 c9 9c bd 0a 6f c7 bd 5d 2e c8 3c 78 e6 30 3e
       -0.07655638 -0.09737976 0.02443617 0.17275417
000230 d0 4d a6 3e 3e 0d bb bd 46 76 94 bd ea c3 05 bd
       0.3248124 -0.09133385 -0.07249121 -0.03265754
000240 d8 ed 7e be 41 15 37 be 6c b3 1b be ab 4e f8 3d
       -0.24895418 -0.17879201 -0.15205163 0.1212438
000250 1e 52 c0 bc 13 22 3a be 57 56 b4 3c 35 c2 70 bc
       -0.023476657 -0.18177061 0.022013826 -0.01469474
000260 13 c3 19 3e 0d 2b f4 bc 42 3b 0f bb 86 4f d6 bd
       0.15015821 -0.029805684 -0.0021855389 -0.10464387
000270 cc 39 aa be 42 ec 0f 3e ce 0d 11 be ca ba 16 3e
       -0.3324722 0.14054969 -0.14165422 0.14719692
000280 30 41 71 bc 97 95 70 3c fa 5d 85 bd 9a f6 a0 bd
       -0.014725015 0.0146841025 -0.06512065 -0.078595355
000290 71 2c 55 bd 91 a5 56 3d f6 08 0e 3e d9 f6 80 3e
       -0.052044336 0.05240399 0.13870606 0.2518833
0002a0 42 68 04 be 13 16 f6 bd fc 48 a1 bc 87 4b 2f 3e
       -0.12930396 -0.12015929 -0.019688122 0.17118655
0002b0 f5 b2 47 3c 96 0a 87 bd 27 b6 af 3d 56 16 51 3d
       0.012188663 -0.06593816 0.08579665 0.05104669
0002c0 4d 14 92 3d b2 f6 53 be ba f6 3f bd 35 38 f9 bd
       0.07132778 -0.20699576 -0.046866156 -0.12168924
0002d0 1a 90 9e 3c e1 4b 66 bd 2b 58 bf 3d b6 1d 9f bd
       0.019355822 -0.056224708 0.093429886 -0.07769339
0002e0 89 c3 ef 3d 1a b4 25 be ff 01 d9 bd f3 f5 34 3e
       0.11707217 -0.16181985 -0.10596084 0.17671947
0002f0 aa 11 6b bd 69 14 20 3e 54 0f 09 be a8 b0 3a bb
       -0.057389893 0.15632786 -0.13384753 -0.0028486643
000300 93 15 06 be 42 29 34 be 41 cc 8e 3d fa 39 b2 3c
       -0.13094167 -0.17593864 0.06972552 0.021756161
000310 91 56 31 bd 53 03 4c bc 96 0c fd bd a1 64 3d 3e
       -0.043295447 -0.012451964 -0.12355916 0.18495418
000320 45 c3 11 bd 00 b0 90 3e 85 28 be 3d 37 d2 b5 bd
       -0.035586614 0.28259277 0.09285072 -0.08877986
000330 dc f5 99 bd 31 f3 8c bd 9d 49 b0 bd 42 3a 07 be
       -0.07517597 -0.068823226 -0.086077906 -0.13205817
000340 25 30 d4 bd e6 8b 98 3e b3 f3 8d be 99 3a b8 bd
       -0.10360745 0.29794234 -0.2772499 -0.089955516
000350 28 e1 51 bc 19 66 59 bc b9 19 35 3e 79 cd 5a bd
       -0.012810029 -0.013268971 0.17685594 -0.05341861
000360 d0 69 d8 3d c8 7b 7a 3d bb 57 0f 3e 80 c4 23 bd
       0.10567057 0.061153203 0.1399831 -0.03998232
000370 18 e9 e9 bd 4b 91 12 bd 0e 6b 95 3d 96 fb b8 be
       -0.11421412 -0.035783093 0.0729581 -0.36129445
000380 9a aa 22 be 57 3f 9e 3e 00 a3 c7 3c 2b 89 5e 3c
       -0.15885392 0.309077 0.024369717 0.013582508
000390 3d 9c 6a 3e 05 46 61 3d fb 20 16 be bd b6 2d be
       0.22911163 0.054998416 -0.14661019 -0.1696424
0003a0 e0 61 ef 3d 70 62 60 3d 11 41 6b 3d 6c f1 7f bd
       0.1168859 0.054781377 0.0574351 -0.062486097
0003b0 a1 89 16 be dc 97 f9 3d e0 af b1 3d 88 6c 76 be
       -0.14700939 0.12187168 0.086761236 -0.24064839
0003c0 2f 15 06 be 1c 10 8b 3e 64 c1 32 bc 2f c4 fb 3c
       -0.13094018 0.27160728 -0.010910366 0.030733196
0003d0 e9 1b 68 be a0 36 ab bd d1 52 f7 bd bd cc 75 be
       -0.22666897 -0.08360028 -0.12076343 -0.24003883
0003e0 31 ee d0 3d 53 59 d3 3c a3 91 41 3e d4 61 53 3e
       0.102016814 0.025799429 0.18903212 0.20642787
0003f0 bf ca a6 3e 3d ae 8f 3e 1a 63 a3 be 20 91 b4 be
       0.32576558 0.2806262 -0.31911546 -0.35266972

conv2.bias f4 [32]
000000 ab 22 9c bc aa 4f f9 bb 55 2d da 3b 08 47 eb bb
       -0.0190595 -0.0076083736 0.006658236 -0.0071800984
000010 8c 7b 45 bd 16 bb 47 bc 07 0b 20 bc 45 e3 23 ba
       -0.048213527 -0.012190601 -0.009768254 -0.00062518223
000020 2c 00 2f 3b b4 e8 51 bc 30 55 15 bd dc 91 39 bc
       0.0026702983 -0.012811828 -0.036458194 -0.0113262795
000030 47 dc e2 3c 21 46 38 bc 63 c5 f5 bc 65 fd de bb
       0.027692927 -0.011247189 -0.030001348 -0.0068051093
000040 54 1e 02 bc 65 b6 7a 3b 02 f4 0c 3a a5 d6 68 bc
       -0.007941801 0.0038255688 0.0005376936 -0.0142113315
000050 b1 33 8e bc f8 fe b1 bb dc d9 50 bc aa eb e6 3b
       -0.017358633 -0.005432006 -0.012747254 0.0070471363
000060 79 a6 3c 3b 6b 09 9d bc 74 af 16 bc ca 98 a7 bc
       0.002878575 -0.01916953 -0.009197105 -0.020458598
000070 03 3e 09 3c e9 70 02 bc d9 9d ff bb 7b a1 92 3b
       0.008376601 -0.00796149 -0.0078007993 0.0044748164

conv3.weight f4 [32, 32, 3, 3]
000000 08 5d 21 be 44 e4 8d bd eb 5a 23 be f3 50 8e 3d
       -0.15758145 -0.06928304 -0.15952651 0.069490336
000010 07 c0 1b 3e 57 fa 7b 3e d8 b0 a8 3d 02 5b 2c be
       0.15209971 0.24607216 0.08236855 -0.16831592
000020 89 d5 e7 bc c2 fb 23 3e 2b d7 85 3c a1 f9 57 3d
       -0.028300064 0.16014007 0.016337952 0.0527283
000030 5e 99 47 be 0d d0 16 be f1 70 1d 3e 4c f1 f0 3d
       -0.19492099 -0.14727803 0.15375115 0.11764774
000040 ac 09 ce bd d4 d5 4c be 4f f2 bc bc fe 42 7f 3d
       -0.100604385 -0.20003444 -0.02306476 0.062319748
000050 64 e8 c6 3d 01 b1 20 3e 22 c3 d9 3d 8f e8 58 bd
       0.09712294 0.15692522 0.10632922 -0.05295616
000060 48 55 fe bc 9a 24 91 b9 9e 1b 55 bb 1d 42 18 bd
       -0.031046525 -0.00027683825 -0.0032517682 -0.037172426
000070 ee f4 b4 bd 66 0d be be 95 54 d9 ba f7 7e 1e be
       -0.08835779 -0.37119597 -0.0016580994 -0.1547812
000080 54 ed 4b be 58 d6 bb 3e 8b 83 0f 3d 02 97 b4 be
       -0.19914752 0.3668697 0.03503756 -0.3527146
000090 c8 21 13 3e 83 5b 24 bd ab 89 a1 be b1 97 a8 3c
       0.14368355 -0.040126335 -0.31550345 0.020580145
0000a0 a4 3a 1f be a5 fc a8 bd d2 20 5a 3e da c8 76 bd
       -0.15549713 -0.08251313 0.21301582 -0.06025014
0000b0 0a 74 34 3c cc 0b a3 bd f8 68 1a 3d 82 b0 f5 39
       0.011013994 -0.079612345 0.037697762 0.0004686155
0000c0 8c bc 20 3e 85 18 45 3e d5 bf 4e be 6a 06 17 be
       0.15696925 0.19247635 -0.20190366 -0.1474854
0000d0 f9 26 d6 bc 26 f4 80 3d d7 8e 9a 3a 72 d7 76 3c
       -0.02614163 0.062965676 0.0011791837 0.015066015
0000e0 4d 05 05 be c1 b2 e9 3d bf 9c b2 bd 0e ba 10 3d
       -0.12990303 0.11411048 -0.08721303 0.035333686
0000f0 cf 47 44 3d 2b 39 9c 3d 43 f4 9d 3d f8 f6 4a be
       0.047920045 0.076280914 0.07712605 -0.19820774
000100 02 b3 ba bd ab 3a b9 bd b0 54 47 3e fc a3 fd bd
       -0.09116174 -0.09044393 0.194659 -0.12384793
000110 db 11 17 be ea 53 da bd 74 da 3c 3d 3b 85 b9 bc
       -0.14752905 -0.106605366 0.04610677 -0.022646537
000120 5b f7 a4 3d ba 06 09 be f8 fa dd 3d 97 47 64 3e
       0.08054992 -0.13381472 0.10838884 0.22292934
000130 73 b4 e5 bd 06 5a 47 3d 4b 8c 38 bd d1 0f 09 3e
       -0.112160586 0.048669837 -0.04505567 0.1338494
000140 c3 3a 22 be 33 70 4f 3e c8 d5 32 bd 48 9a 1f be
       -0.15842728 0.20257644 -0.04366091 -0.15586197
000150 59 f1 0d 3d 4f c7 c8 bd 8c d4 93 bd 35 af a5 bc
       0.034653995 -0.0980364 -0.072182745 -0.020225147
000160 5f b7 bd be d7 6a a0 3e 97 be 10 be 21 5f 0b bd
       -0.37053964 0.31331512 -0.14135204 -0.03402627
000170 06 58 3f be b8 c8 88 3d 00 4d 2d 3e 50 90 0b be
       -0.18685922 0.06678909 0.16923904 -0.1362927
000180 d0 e8 c3 bd d0 c8 22 be 83 36 12 3e ea 86 11 3e
       -0.0956589 -0.15896916 0.14278607 0.14211622
000190 51 65 66 3d 4c e6 72 be 06 9c 8f 3e 39 48 00 3e
       0.056248967 -0.23720664 0.28048724 0.12527551
0001a0 b6 62 24 bd 7c da 94 bb c6 bb 23 3e 8c ef d4 bd
       -0.0401332 -0.004542647 0.15989599 -0.103972524
0001b0 4a 2f e5 bd 62 12 3e 3e 94 2d f9 3c bc 6d 01 be
       -0.1119066 0.185617 0.030417241 -0.12639517
0001c0 11 1a 96 3d 57 70 77 bb 11 d9 96 3d 57 ae 2e 3e
       0.073291905 -0.0037756169 0.07365621 0.17058693
0001d0 04 0c b8 bd a1 6d 38 bc 29 6f 1f 3c ba 48 6d 3e
       -0.08986667 -0.011256606 0.0097310925 0.23172274
0001e0 da a9 2e bd d6 f6 5d bd d6 19 55 bd d7 5f e9 3a
       -0.04264245 -0.05419048 -0.052026592 0.0017805052
0001f0 73 37 83 bc 22 7c dd 3e fb c5 81 3d a2 07 56 3e
       -0.016017651 0.43258768 0.0633659 0.20901349
000200 2a 67 03 be b0 43 35 3b 92 64 e6 3d 38 8e 16 be
       -0.12832323 0.0027658753 0.11249651 -0.1470269
000210 6a c0 7c bc 8e 3d 20 3e bd 07 35 3d ef 15 c1 3d
       -0.015426734 0.15648481 0.044196833 0.094280116
000220 28 59 5f 3c d2 0c 71 bc f2 cc ef bd 9c 7b c7 bd
       0.013632096 -0.014712529 -0.11709012 -0.097403735
000230 e8 28 84 3e 5c 51 d7 3d 50 b5 4c bd cc ca 9e be
       0.2581246 0.10513565 -0.0499776 -0.31014097
000240 26 d2 19 3d c5 8e 9c bd d6 59 11 3e 88 36 72 be
       0.03755393 -0.076444186 0.14194426 -0.23653615
000250 3d e1 9d 3d 30 b4 28 be 0b f3 8c 3d 44 50 17 3e
       0.077089764 -0.16474986 0.06882294 0.14776713
000260 17 c2 b8 be da 79 9e be 17 e9 5d be f4 d7 66 3e
       -0.3608558 -0.3095234 -0.21670948 0.22543317
000270 59 b3 07 be 35 60 aa 3d 10 e9 0e 3e 11 15 ba bd
       -0.1325201 0.08319131 0.13956094 -0.09086049
000280 cc 8b 2b 3d 2b ab 17 ba 94 35 a8 3c 34 f0 1e bc
       0.041881368 -0.0005785699 0.02053336 -0.009700824
000290 90 1d 04 bd 63 e3 02 3e e9 8e cf bc a5 9b 00 be
       -0.032254755 0.12782054 -0.0253367 -0.12559374
0002a0 bd b6 1e 3c 17 db 1a 3e aa de 5e be 46 89 fb 3d
       0.009687123 0.15122639 -0.21764627 0.12282042
0002b0 e2 d8 c5 3d fb 94 a2 3c 74 ed db bd db 5b 03 be
       0.09660508 0.01984643 -0.1073865 -0.12828009
0002c0 59 db dc bd 5f 8f 0b be 89 6e 0b be ce fb 4e bd
       -0.10784025 -0.1362891 -0.13616385 -0.05053311
0002d0 e5 94 06 3e 0c 92 23 be 8e d6 27 be 1f bd 11 bd
       0.13142736 -0.15973681 -0.1639044 -0.03558075
0002e0 a0 77 ca 3e a4 54 8f bd 03 99 91 bc e6 3d 97 bd
       0.39544392 -0.06998566 -0.017773157 -0.07384853
0002f0 0e bc 73 be bb 2c b2 3d d3 0a 12 3c ff 1e e6 bd
       -0.23802206 0.08699938 0.0089137135 -0.11236381
000300 f4 4f ac 3d 1d 6c 40 be 1e d7 24 be 0a 36 a7 3d
       0.08413687 -0.18791242 -0.16097686 0.08164604
000310 64 e1 86 3e 78 75 37 bd 40 fe 0a 3e 88 21 75 3d
       0.26343834 -0.04478976 0.13573551 0.05984643
000320 ea 4d a6 be c8 99 17 be 34 de 86 3d c9 11 c7 bc
       -0.3248132 -0.14804757 0.06585351 -0.024300473
000330 ff 40 84 3d 71 df 68 3e 96 9e 1c bd b2 cd 35 3e
       0.064577095 0.22741486 -0.038237177 0.17754248
000340 02 48 12 3e ec cf 9a be 89 b7 94 3e 7a 50 c0 be
       0.14285281 -0.30236757 0.29046276 -0.375614
000350 ab ec ae 3c 40 38 57 bd 00 b3 7f bd 0f af 9c bd
       0.021353086 -0.05254388 -0.062426567 -0.07650577
000360 e4 14 b0 3d 87 a0 97 3d 89 cd 86 3e 9a 45 1d be
       0.085977346 0.07403665 0.26328686 -0.15358582
000370 1a 93 82 bd a0 68 80 3d 07 ea e9 bd d8 7d 22 3d
       -0.06375714 0.06269956 -0.1142159 0.039670795
000380 0c 4d 6c 3e a2 33 8f 3d 90 c8 00 be 7b 45 e3 3d
       0.23076266 0.0699227 -0.12576509 0.11097237
000390 56 cf 0b bd 79 5d b1 3c 44 1b 8c 3d 7e 83 82 bc
       -0.034133278 0.021651017 0.06841138 -0.015931841
0003a0 75 25 ef 3d 3e d2 a4 bd 23 54 a9 be d7 9f 26 3e
       0.11677066 -0.08047913 -0.33072004 0.16271912
0003b0 1c 61 61 3e 61 90 c6 3c 9a 1b 34 bd 7b 67 6b bc
       0.220097 0.024238767 -0.043971635 -0.014367933
0003c0 70 86 a0 3d 9b 4b 08 bd a5 cc d0 3c 16 58 7b 3d
       0.07838142 -0.033275228 0.025488207 0.061363302
0003d0 a9 e8 d2 3c 0a 00 1a 3e a3 8e 0f 3d 03 56 f4 bd
       0.025745707 0.15039077 0.03504814 -0.11930468
0003e0 5d e5 32 be d2 ed 2a 3d 59 4a 93 be 79 a7 e1 3c
       -0.17470308 0.04173071 -0.2876766 0.027545677
0003f0 68 39 28 be 05 24 5f 3d b3 d9 6f 3e f4 6f 63 be
       -0.16428149 0.05447771 0.2342289 -0.22210675

conv3.bias f4 [32]
000000 cb f2 6e bd 6f 58 f2 bd 9d be 40 ba 9f f5 89 bd
       -0.058337014 -0.118332736 -0.00073526223 -0.06736302
000010 c3 b9 c7 bc 80 6e a1 be 98 74 a4 bd 9f 1e 23 be
       -0.02438057 -0.31529617 -0.08030051 -0.1592965
000020 61 a7 ae bd f8 26 32 3c 97 cd 12 be 61 b3 88 bd
       -0.08528019 0.010873549 -0.14336239 -0.06674839
000030 01 58 a7 bc 45 a2 81 bd ee 5d b2 bd 94 71 6f bc
       -0.020427706 -0.063297786 -0.08709322 -0.0146144815
000040 2c 09 11 bd b3 2b 69 3c bc 21 78 be aa 86 ae bd
       -0.035409138 0.01423161 -0.24231619 -0.08521779
000050 ad 9c 08 be c5 8b 82 bb 32 d0 ca bd f1 38 29 be
       -0.13341017 -0.003983947 -0.09902991 -0.16525628
000060 7c 93 c2 ba 07 cd fd bd 5d 23 ce 3c 6f 0f fb bc
       -0.0014844979 -0.123926215 0.025163347 -0.030647008
000070 50 7f e0 bc f1 e1 76 bc be 20 0f 3d e4 5a 13 be
       -0.027404457 -0.015068517 0.034943335 -0.14390141

conv4.weight f4 [32, 32, 3, 3]
000000 7a f7 31 3e 4f b8 0f bd e0 16 88 3d ca 80 b5 bd
       0.17379561 -0.03508788 0.06644988 -0.08862455
000010 fb e7 ba bc 30 24 a1 bd de ee f6 bc 36 a0 c4 bd
       -0.022815695 -0.0786823 -0.030143198 -0.0960087
000020 71 f9 63 be 3f 98 17 be b8 db 3d be b3 6e d3 3d
       -0.22263123 -0.14804171 -0.18540847 0.103238486
000030 59 7d f6 bd 61 c9 20 ba aa a5 c8 bd f9 b9 a2 bd
       -0.12035627 -0.00061335234 -0.09797223 -0.07945628
000040 04 68 21 3d 4c 21 57 3d 61 b4 04 be 9b ec 3f 3e
       0.039405838 0.05252199 -0.12959434 0.18742602
000050 2a 30 7e 3d d0 8d c0 bd 7a 79 0b be d8 8e e2 3d
       0.06205765 -0.094020486 -0.13620558 0.110624015
000060 a8 b2 be 3d 00 86 b1 3d ec 31 f2 bc d0 f6 51 3e
       0.0931142 0.086681366 -0.02956482 0.20504308
000070 8a 2b d7 3b ef 29 90 ba 18 ea ea 3d e9 7a c3 bd
       0.0065664696 -0.0010998825 0.11470431 -0.095449276
000080 07 45 b0 bd 40 d5 e3 bd f2 7b 1b bd b6 19 9a 3d
       -0.08606916 -0.111246586 -0.03796 0.07524435
000090 6a 06 bb 3d 43 25 24 be 08 25 fd bc eb 81 85 3d
       0.09132083 -0.16029839 -0.030901447 0.065189205
0000a0 e5 40 0a be e2 6b 0e 3e 20 df 1c 3e e1 e0 09 be
       -0.13501318 0.13908342 0.1531949 -0.1346469
0000b0 28 dc 0e bd 1d d9 bc 3e ef 82 4c 3c 24 db 03 bd
       -0.034877926 0.36884394 0.012482389 -0.03219141
0000c0 cf d2 4a bd 3d 82 a3 bd 55 e6 c3 3d d5 06 d0 bd
       -0.04951745 -0.07983825 0.09565417 -0.10157553
0000d0 d1 f7 c9 bd 4b 0c 7c bd f0 58 89 3e 11 66 9f bd
       -0.0986172 -0.06153516 0.26825666 -0.077831395
0000e0 c5 86 91 bd 7a 5e b4 bd c7 28 43 bd f4 c9 c4 bd
       -0.071057834 -0.088070825 -0.04764631 -0.09608832
0000f0 a5 ca 5b bd 0f c3 58 3e a6 76 9d 3d fd 5b 6c 3d
       -0.053660054 0.21168159 0.07688646 0.057704914
000100 f3 e6 34 bd ef a8 15 3e b3 c6 0f 3e 63 ce 8d 3d
       -0.044165563 0.14615224 0.14040641 0.06924131
000110 c8 7c 81 3d 7d 61 a6 bd 0e a2 41 3d c6 e1 34 3e
       0.06322628 -0.08124063 0.047273688 0.1766425
000120 85 64 5e 3d 3e 96 07 bd ed 3b 2d be d3 c2 1b 3d
       0.05429508 -0.033102266 -0.16917391 0.038027596
000130 13 23 46 3e 75 26 4e bc 69 65 3d be 6f b3 b3 3c
       0.19349317 -0.012582411 -0.18495716 0.021936147
000140 92 d4 55 bc d4 4f 3a 3e 3f db 81 be 63 44 be 3b
       -0.013051169 0.18194515 -0.25362584 0.005806492
000150 b4 0c 8e bd b2 87 ae 3e e0 81 07 3d d8 84 a1 bc
       -0.06936017 0.34087902 0.033082843 -0.019716665
000160 3a 8e 97 bb 56 8d 12 3e 7b 59 fc 3d 78 b3 4e 3d
       -0.004625109 0.14311728 0.123217545 0.050464123
000170 e9 cc 1d 3e b0 d8 a6 bb 17 6d 42 3b 69 3c 3b be
       0.15410198 -0.005091749 0.0029667073 -0.18284763
000180 8d 39 87 3d 00 44 4a be 92 30 2f 3e 61 01 e4 bd
       0.06602774 -0.19752502 0.17108372 -0.111330755
000190 bb 5e 0f 3e 4e b9 a7 3c 83 8c 6a 3e 3a ea 5d be
       0.1400098 0.020474102 0.22905163 -0.21671382
0001a0 bc 16 8e be fc c8 24 3e ff 80 07 3d f4 73 0c bd
       -0.2775172 0.16092294 0.033082005 -0.03429027
0001b0 bf 5b ab bd d5 5c 4d bd 97 2a 19 3e 9b 4a ea 3d
       -0.083671086 -0.05013736 0.14957653 0.11440011
0001c0 02 d8 84 bd 52 f7 fe 3d 8c 6f 7b bd 35 82 a5 3d
       -0.06486513 0.12449516 -0.061385676 0.08081476
0001d0 92 ae 8d bd c8 d5 af 3e 01 9e 5f be 0f 89 60 3d
       -0.06918062 0.3434279 -0.21837617 0.05481821
0001e0 6c 85 1d 3a 9c a4 98 be 23 31 22 3e fc 27 5d bd
       0.0006008956 -0.29813087 0.15839057 -0.05399321
0001f0 71 c1 f5 bd 38 d2 47 bd d5 58 06 3d 31 81 1c be
       -0.11999787 -0.048784465 0.03279956 -0.15283658
000200 52 d0 f2 bd dd 58 34 bd 84 88 8e bd 7d 4f 1d 3e
       -0.1185614 -0.04403006 -0.06959632 0.15362354
000210 19 5d a1 3c cb 4e d2 3d 3a 21 fa bc e6 f8 cf 3b
       0.019697713 0.10268935 -0.030533422 0.0063468097
000220 de 0e 12 3d 50 1a 0c 3e 4a 22 59 be d2 29 77 3e
       0.03565871 0.13681912 -0.21204486 0.24137047
000230 88 58 3d be 16 8d fe bd 6b 7f d2 3d 3d 05 34 be
       -0.18490803 -0.12429254 0.10278209 -0.17580123
000240 15 e7 12 be 06 12 f4 bd 1a 41 b6 bd bf fa 83 bd
       -0.14345963 -0.119175 -0.08899136 -0.064443104
000250 30 95 6e 3e c4 a2 0f 3e cc 91 56 3e 31 ae 89 be
       0.23299098 0.14026934 0.20954055 -0.2689071
000260 4e 14 09 3d 21 3d e9 bd 90 4c 3b 3d 09 e6 a7 bd
       0.03346663 -0.113886125 0.045727313 -0.081981726
000270 94 93 17 bd d3 00 92 bd 42 85 d8 3d f5 40 46 be
       -0.037005976 -0.071290635 0.10572292 -0.19360717
000280 85 49 26 be 65 28 f8 3d cf aa a4 3d 0b 3b b0 bd
       -0.16238983 0.1211708 0.08040392 -0.086050116
000290 39 37 97 bd 17 26 97 3d 21 0e a3 bc 3e 3f 69 be
       -0.0738358 0.07380312 -0.019904198 -0.22778031
0002a0 e5 4c 68 bd f7 5d 21 be f7 17 b9 3d 67 24 4d bd
       -0.056713957 -0.15758501 0.09037774 -0.050083544
0002b0 4b 3a 86 bd 66 74 ba bd 58 f4 47 3c 75 e4 42 3d
       -0.06554087 -0.091042325 0.012204252 0.047581155
0002c0 71 78 13 be 7d b8 f2 3d 0f d7 97 be 56 75 02 3b
       -0.14401414 0.118515946 -0.29656264 0.0019906363
0002d0 fc 18 12 3c f1 34 5e 3e cc 3c 83 3e 26 4f 70 3e
       0.00891709 0.21699883 0.25632322 0.23467693
0002e0 25 a5 a0 bd a8 0f 6f be c9 e1 01 bd 91 13 8c bd
       -0.07843999 -0.23345816 -0.031709466 -0.068396695
0002f0 4f 3b 2d bd 49 8a 6f bd 26 01 06 be 76 38 cc bd
       -0.04229289 -0.05848149 -0.13086376 -0.099717066
000300 be 7a f2 3d 29 47 d8 bd dd d9 8f 3c 70 7a b1 3e
       0.118398175 -0.10560448 0.01755994 0.34663725
000310 12 23 92 3e 7c dd 99 be 5f e3 63 3d 0b 33 4e 3e
       0.28542382 -0.30051792 0.05563676 0.20136659
000320 55 3d 4d be 59 d3 0a be d3 b6 ec 3e ae 59 ff bd
       -0.20042928 -0.13557185 0.46233234 -0.12468277
000330 bd 88 5c 3d 95 74 f5 bd af 3e e5 3c 18 8c 1b 3d
       0.05384134 -0.11985127 0.027983991 0.0379754
000340 2d 75 4e be 60 98 25 be 88 2d 41 3d f4 8e 98 bd
       -0.20161887 -0.16171408 0.047162563 -0.07449141
000350 3d 03 99 bd 2d a2 e5 bd 4d b8 4c bc 6f 0a 22 3e
       -0.07471321 -0.11212573 -0.012495113 0.15824293
000360 8f 2e d2 3c 23 9e 69 3d ff 3a 29 3d a3 91 7a be
       0.025656966 0.057035577 0.04131603 -0.24469618
000370 05 8b 91 bc ed 84 e1 3d b0 e9 6b bd df 50 d9 3d
       -0.017766485 0.11011682 -0.05759591 0.10611128
000380 2e a2 e4 3d 49 e1 0a 3e d9 27 a1 be 53 6c 12 3e
       0.11163746 0.13562502 -0.31475714 0.14299135
000390 ac 2b 0f be 79 ac 90 3c d2 ea 0b 3e b6 bd 07 3c
       -0.13981503 0.017660366 0.13663796 0.008284977
0003a0 87 f3 b5 3e a5 89 7a be 7b 53 48 bd 0e 7a ae bd
       0.3553736 -0.2446657 -0.04890774 -0.08519374
0003b0 bd c4 be 3d 10 32 77 3e ba d2 8a 3e c8 76 65 bc
       0.093148686 0.24140191 0.27113897 -0.01400537
0003c0 6f 59 60 be 1b b9 89 bd 6c 12 63 3e fe e7 c4 3d
       -0.21909116 -0.06724759 0.22174996 0.096145615
0003d0 e6 3e 85 be 07 ca 2d 3e de 0c 0c bd 5d 35 e5 bd
       -0.2602455 0.16971599 -0.03419196 -0.11191819
0003e0 1c 2f 90 3e 92 78 44 be 00 0f 1a 3e a7 3e 4f be
       0.28160942 -0.19186619 0.15044785 -0.20238744
0003f0 3f 1d 2a bd 5d 9c be bd 50 11 e8 3d 6a 74 4d be
       -0.041531797 -0.09307168 0.11331427 -0.2006394

conv4.bias f4 [32]
000000 d0 53 b5 be 15 a8 6a be ff 2f 9c bd 6b cd 0f be
       -0.35415506 -0.2291568 -0.07626342 -0.14043204
000010 e0 24 05 bf b7 5f a7 be 41 8d 60 be 25 2f 42 be
       -0.5200939 -0.32690212 -0.21928884 -0.18963297
000020 b0 da e0 bd 87 9c 82 be 92 a3 0d be 85 23 8b be
       -0.10979211 -0.25510046 -0.13831928 -0.27175537
000030 86 e7 8c be 39 90 0a be 13 76 85 be b8 e1 b9 be
       -0.27520388 -0.13531579 -0.26066646 -0.36305022
000040 a3 5c 9b be 22 f5 9e be ef de 8b be 3a f1 4a bd
       -0.30344114 -0.31046396 -0.27318522 -0.049546458
000050 6a 81 a0 bd dd 06 31 be 36 70 89 be 7d 42 a5 be
       -0.07837184 -0.17287774 -0.26843423 -0.3227729
000060 1c d1 c6 bd aa 30 95 be e4 2b 89 be 31 8a 0a bf
       -0.09707853 -0.2913869 -0.26791298 -0.54117113
000070 c3 ed ed bd e8 93 84 bd 4b 66 2d be a8 9c c6 be
       -0.11617615 -0.064735234 -0.16933553 -0.38791394

linear.weight f4 [32, 800]
000000 03 28 81 bd 13 59 0b 3e ea 58 46 bd e9 d4 b8 bd
       -0.0630646 0.13608198 -0.04842464 -0.090249844
000010 a4 5c f6 bc 16 67 9b be 22 f4 d6 3c 3b 06 77 bc
       -0.030073471 -0.30352086 0.026239458 -0.015077169
000020 78 a8 35 bc a2 40 4b 3d df 3d 09 3e 00 77 8b bd
       -0.011087529 0.049622186 0.13402508 -0.06809807
000030 1f a2 c3 bd 39 d1 c8 bc 9a ee f5 3d 1b 63 49 3e
       -0.095524065 -0.024513828 0.120084 0.19666712
000040 26 31 1a 3e f5 ac 3c bd 8d 0a 92 bc 2b 69 c8 bd
       0.15057811 -0.046063382 -0.017827297 -0.09785684
000050 2f 5c b3 bd c2 c7 6d bc 17 2f 44 bd 90 d8 e0 bc
       -0.08757817 -0.014512958 -0.04789647 -0.027447015
000060 d6 91 d7 bc 1b 34 50 3e 1a c1 9b bd ae 96 9b 3d
       -0.026314657 0.20332377 -0.076051906 0.07597099
000070 45 90 a5 bd 19 66 c1 3c e6 40 a4 be 7e ff ae 3c
       -0.08084158 0.023608254 -0.32080764 0.021362063
000080 82 26 f1 bc b5 e0 69 bd 0c 8f 69 3e c0 ac 3f 3e
       -0.029437307 -0.057099063 0.22808474 0.18718243
000090 9f ca ec 3b 73 a3 bb bd ee af fc bc 3c 01 d8 3c
       0.0072263028 -0.09162035 -0.030845609 0.026367776
0000a0 15 64 aa 3d 00 1b bb be e1 77 c3 bd 78 37 62 bd
       0.083198704 -0.36544037 -0.095443495 -0.05522868
0000b0 92 60 0e 3e 38 50 d5 bd 8e 17 3a bc ed 5f 44 3d
       0.13904026 -0.10415691 -0.011358155 0.047943044
0000c0 ca 6b eb 3c 10 20 78 3c 5e e0 0d be dc 12 83 bd
       0.028737921 0.015144363 -0.1385512 -0.064000815
0000d0 17 ff 93 3c 63 1d 94 bd 3b 67 d1 bb 45 b7 7e 3e
       0.018065972 -0.072321676 -0.00639048 0.248746
0000e0 ff 4d ca bc 5d 06 bb 3b 09 6a 3c 3d 71 f7 85 bd
       -0.024695395 0.0057075457 0.04599956 -0.06541336
0000f0 eb 8f 52 3d 29 56 4a 3d 56 c9 53 3c e3 c0 b9 bc
       0.051406782 0.049398575 0.01292642 -0.022674983
000100 39 53 c2 bc 4b 17 fa bc 01 64 0c 3d 7c 6e 56 3d
       -0.023721324 -0.030528685 0.03427506 0.05235146
000110 99 86 3f bd 14 fd cd bd 99 f9 8e bd 4a db b7 bb
       -0.04675922 -0.100580364 -0.06981201 -0.005610858
000120 36 7c 97 3c a6 c1 76 bc 92 ee ee 3c f7 3c 61 3e
       0.018491846 -0.015060818 0.029166494 0.21995912
000130 37 d0 70 bd f3 29 ce 3d a0 c1 bb 3c 79 41 57 be
       -0.05879232 0.10066595 0.022919476 -0.2102107
000140 be 5a 59 be 99 75 8d 3d 4b 6a 34 bd 75 27 d3 bd
       -0.21226022 0.069071956 -0.04404668 -0.1031026
000150 3a 17 ab 3d 0c 2e a6 bb f5 d5 5c bc 08 d3 05 bd
       0.083540395 -0.005071407 -0.013478746 -0.03267196
000160 75 0f a6 3d eb 85 9b bd 82 94 a1 3d 9b 84 a1 bd
       0.08108417 -0.07593902 0.07889654 -0.078866206
000170 72 bb f0 3d 76 df e5 3d a1 a4 9b 3d 41 97 96 3c
       0.11754502 0.112242624 0.0759976 0.01838267
000180 c2 aa e7 3a 0c ba c3 bb 43 e9 b5 bc ba 5b 0f bd
       0.0017674791 -0.0059731063 -0.022205954 -0.034999587
000190 6b 9d 9b be 0a b4 69 3e 70 44 e4 bc 46 31 9a 3d
       -0.30393538 0.22822586 -0.027864665 0.075289294
0001a0 62 76 84 3d f8 f4 89 be d1 1e 92 3e 2f ed 13 3e
       0.06467892 -0.2694471 0.28539136 0.14445947
0001b0 9c 03 0c 3e f8 0e bc 3d 00 af 91 be 31 eb dd 3e
       0.13673252 0.091825426 -0.28453827 0.433435
0001c0 c3 de 3f 3e 94 d1 b1 3d 9a 45 5c 3e 0e 4b 9e be
       0.1873732 0.08682552 0.21510926 -0.30916637
0001d0 23 57 94 be a7 d6 7e be f6 ed 7c be 13 3e bc be
       -0.2897273 -0.24886571 -0.2470015 -0.3676611
0001e0 3c 07 a9 be 3f 26 c7 be 4d 72 b5 be a3 43 c3 be
       -0.33013332 -0.38896367 -0.35438767 -0.3813754
0001f0 43 a7 ce be 5d 9e 1c bd 22 0c ef bc 30 12 64 3c
       -0.40361986 -0.038236964 -0.02918059 0.013920352
000200 ec 99 92 bd 0b 97 fc 3d 76 4b 9b 3c 97 6e 6b 3e
       -0.071582645 0.12333497 0.018956881 0.22991405
000210 ce d1 ab 3b b0 25 28 bd 37 fa 76 3b 73 56 33 bc
       0.0052435165 -0.041051567 0.003768576 -0.010945904
000220 e1 14 de be d2 9f b8 bb 5d 69 83 3d f4 71 c9 3d
       -0.43375304 -0.0056342864 0.06416581 0.09836188
000230 bb f4 e3 bd dc 7b 88 bd d3 df 3c bd d4 a6 20 be
       -0.11130663 -0.06664249 -0.046111893 -0.1568864
000240 b6 85 a5 bd b7 f0 ac bc 00 76 cd 3d e3 5b 83 3d
       -0.08082144 -0.021110876 0.10032272 0.064140104
000250 03 66 58 3d e5 7f e8 3d 93 4a 21 be 06 a4 c7 3d
       0.05283166 0.11352519 -0.15751104 0.09748082
000260 8e 4f 3d be 54 00 14 bb b8 30 46 3e 8a dc 51 3e
       -0.18487379 -0.0022583203 0.19354522 0.20494285
000270 84 0a 65 3e 4a 65 2a be c8 f8 ce bd 0d f2 0e 3e
       0.22367293 -0.16640201 -0.10106045 0.13959523
000280 37 15 3d be 86 f2 03 3e 3a 3b 7f bd 4f 6e 13 bd
       -0.18465124 0.12885484 -0.062312342 -0.03599387
000290 35 3b 07 be 2c 8a 2a bc 01 71 ab 3c 7a 56 35 bd
       -0.1320618 -0.010408919 0.020927908 -0.044271924
0002a0 94 30 66 3d 0c 7f 98 bd 5b 69 13 3e 64 7d 5b bc
       0.05619867 -0.07446107 0.14395659 -0.013396595
0002b0 3e 93 68 bc 07 34 88 bd f3 e6 39 bd 06 98 87 3e
       -0.0141952615 -0.066505484 -0.045386266 0.26483172
0002c0 3c 02 30 be ae ab 7c 3d f9 a3 86 bc a1 6b 3f bd
       -0.17188352 0.061687164 -0.01643561 -0.046733502
0002d0 a7 0c 56 be 73 7f d5 3d ed e3 7b 3c cb 0a 89 bc
       -0.20903264 0.104247 0.015374166 -0.01672878
0002e0 01 c2 90 3d 5e c9 1a 3c 17 64 1f bd 79 7a 83 bd
       0.07068253 0.009447424 -0.038913812 -0.06419844
0002f0 15 4b 52 bc 9d 1b f4 3d d0 40 b4 bd b6 ff ae 3c
       -0.012835284 0.11919329 -0.088014245 0.021362167
000300 ac b3 9f 3d 98 8a 68 3c e9 a8 2f be 7c e0 1c bd
       0.077979416 0.0141932 -0.17154278 -0.038300022
000310 ea ad bb 3c 60 d8 ae bb 7f 14 30 bc a0 9d cf 3c
       0.022910077 -0.0053358525 -0.010747074 0.025343716
000320 21 41 a7 bd d5 3c bf bb 22 94 73 3b 36 68 c7 3d
       -0.08166719 -0.005836109 0.0037167151 0.097366735
000330 a4 3c a7 3c 1a 4d 26 3d 90 14 34 3d 0a 74 28 bd
       0.020414658 0.040600874 0.043964922 -0.04112629
000340 a4 1b 57 bd 01 0b 1b 3e d4 81 cf 3d 9b 23 86 3c
       -0.052516595 0.15140916 0.101321846 0.0163744
000350 82 76 6a bd 5a ad e9 ba 70 72 26 3e a6 64 ba bc
       -0.057241924 -0.0017828152 0.16254592 -0.022753071
000360 e1 d3 a1 bc 22 92 22 3e 58 c3 e9 bd 0f 7b 18 be
       -0.019754352 0.15876058 -0.11414212 -0.14890693
000370 12 35 ad 3c 12 58 42 bd 59 eb 72 bc b0 8d 54 bd
       0.02114347 -0.04744727 -0.014826619 -0.051892936
000380 d2 18 9a bc 2b 4f 81 3d 56 e3 11 3e 2e bc af bd
       -0.018810663 0.06313928 0.14246878 -0.08580814
000390 61 b0 1d be 80 33 cb 3d 3a ab 58 be 42 07 52 3c
       -0.15399314 0.09921932 -0.21159068 0.012819113
0003a0 46 19 22 bd c4 07 10 be 1b 79 5b 3d bc 68 89 3d
       -0.039574884 -0.14065462 0.053582292 0.067094296
0003b0 b2 69 77 3e 07 0e 9b 3b 8e b4 5b bc c9 f3 db 3b
       0.24161413 0.004731897 -0.013409747 0.006712411
0003c0 ad 3f d1 3d 5c 6e 13 be dc be 95 bd 8a 92 c4 bc
       0.10217223 -0.14397568 -0.07311794 -0.023995657
0003d0 80 84 b6 3c 42 d7 8e 3a 06 12 2c bd 8a 46 7e bd
       0.022279978 0.0010897892 -0.042009376 -0.06207899
0003e0 57 6f 97 bc ff e9 21 bd 69 87 8f bc c2 94 f8 bd
       -0.018485708 -0.039529797 -0.017520623 -0.12137748
0003f0 f5 be de 3c e0 f6 ec bc 81 70 af 3c f8 18 20 3d
       0.027190665 -0.028926313 0.02141595 0.039086312

linear.bias f4 [32]
000000 98 3d 0b 3f 93 71 97 be f1 bc d8 be c3 37 79 bc
       0.5439086 -0.29578838 -0.4233165 -0.015211049
000010 29 f2 0d bd a6 b2 b5 3d c6 ac 42 be dc fa dc 3d
       -0.03465477 0.08871965 -0.1901122 0.10790035
000020 65 60 db bb f3 97 4d bd 4c 6e b5 bb 22 73 87 be
       -0.0066948407 -0.05019374 -0.00553683 -0.26455027
000030 3c 0b 89 bd 9f e2 24 3e e0 64 86 be 49 17 8f 3d
       -0.06691596 0.16102074 -0.26248837 0.06986863
000040 33 9e 8c bd 82 4c 50 3e 72 d1 17 3d e0 27 0e bf
       -0.068661116 0.20341685 0.037064977 -0.55529594
000050 cb 11 1a 3d a0 23 33 bb 87 a2 6a 3c ef 40 c0 bd
       0.037614625 -0.0027334467 0.014320976 -0.09387385
000060 41 ac c1 bd 16 68 30 3d 5d ef af bc d2 f8 76 3e
       -0.09456683 0.043068014 -0.021476442 0.24118355
000070 fc 7d 81 3c 7c 39 db 3c 95 70 71 be fe 9c ea bc
       0.015807144 0.02676081 -0.23578103 -0.028639313

critic_linear.weight f4 [1, 32]
000000 19 d0 d7 3d 94 48 1e bb 91 c4 8f bd 69 ca 14 bb
       0.10537738 -0.0024152147 -0.07019914 -0.0022703654
000010 2b 33 a4 3a a2 19 aa 3a 2a d8 55 ba cc b5 3e ba
       0.0012527456 0.001297761 -0.0008157516 -0.00072750147
000020 dd 8a b7 ba 0f c5 72 bb c0 0b 0a bb be d1 07 bb
       -0.0014003176 -0.0037043726 -0.0021064132 -0.0020724381
000030 97 3c 23 bb 17 6e b6 ba 29 0f 95 bb e4 76 3c bb
       -0.002490794 -0.0013918307 -0.0045489264 -0.0028757388
000040 da a8 5d 39 4e 24 90 3a 11 9b 49 3b 75 0e 1d be
       0.00021139105 0.0010997148 0.0030762593 -0.15337546
000050 f2 92 4e b9 d1 8e b0 bb 2c 50 2d bb 19 d9 f5 ba
       -0.00019700432 -0.005388119 -0.0026445491 -0.0018756717
000060 21 d5 a7 ba 91 e7 a8 3a 75 9c cd 39 9e 7d 08 bb
       -0.0012804606 0.0012886395 0.00039217217 -0.0020826827
000070 5d fc a5 b9 e7 ec ef ba d2 73 90 bb 70 3a c9 b9
       -0.00031659278 -0.0018304855 -0.004408338 -0.00038381247

actor_linear.weight f4 [6, 32]
000000 dc 02 84 3e e7 8f 85 be 5e a5 bf be 1a 3d d1 3c
       0.25783432 -0.2608635 -0.37430853 0.02554183
000010 fe a6 26 bc a9 75 d9 3d 39 21 c7 bd bd 67 8e 3d
       -0.01017165 0.10618145 -0.097231336 0.0695338
000020 5d 1c bf 3c ff 7d ed bc 6c d3 9b bb c0 f2 d0 bd
       0.023328954 -0.028990744 -0.004755428 -0.10202551
000030 66 a8 d4 3c ab 82 3c 3e 64 c1 8a be 46 de ff 3d
       0.025959205 0.18409221 -0.2710067 0.12493567
000040 8a 64 21 be dc 74 cc 3d 5e d7 93 3d d5 91 c1 be
       -0.15761009 0.09983227 0.072188124 -0.37806574
000050 a1 fa 0d 3d 62 a1 23 bd b7 0f 3e bd 9b 8f ee 3d
       0.034662846 -0.03994883 -0.046401706 0.11648484
000060 ed 3d 1e 3c 1f 5c d1 3d 9c a1 06 3e e7 05 7c 3e
       0.009658319 0.10222649 0.13147587 0.24611627
000070 8a d6 ff 3b ec 49 1c bc 7f a3 1a be 4f 67 cb bc
       0.0078075575 -0.009539109 -0.15101431 -0.024829535
000080 94 c1 ab 3e e6 38 67 be 1d ab a9 be 7c 0a ba 3b
       0.33546126 -0.22580299 -0.33138362 0.0056775194
000090 54 14 b6 3b ba 08 bc 3d 25 36 c7 bd d6 e1 42 3d
       0.0055566225 0.09181352 -0.09727124 0.047578655
0000a0 30 d3 51 3c b4 7c 0f bc e9 0c 6f bb e5 bf dc bd
       0.012806699 -0.008757759 -0.00364762 -0.107787885
0000b0 a0 e1 82 3c 1d 9d 54 3e d4 6c bb be 93 01 f6 3d
       0.015976727 0.20763059 -0.36606467 0.12012019
0000c0 36 76 34 be 95 9a ea 3d b1 2c 60 3d 52 89 cd be
       -0.17623219 0.114552654 0.05473012 -0.4014383
0000d0 dc b3 39 3d 22 d8 8b 3c 80 ee cc 3c fb 72 db 3d
       0.045337543 0.017070834 0.02501607 0.1071529
0000e0 98 de 00 3a 92 95 80 3d 4f 9c 31 3e f9 71 8b 3e
       0.00049159816 0.06278528 0.17344783 0.27235392
0000f0 71 a9 00 3d df 18 4c bc 0a 5b 22 be 5f c3 9d bb
       0.031411592 -0.012457102 -0.15855041 -0.00481455
000100 8d 8d 7d 3e 36 b3 6a be 2c b9 ea be bd af a7 3c
       0.24761029 -0.22919926 -0.458444 0.02046954
000110 5d da 82 bb d5 a3 ca 3d 9e c7 ae bd d9 93 83 3d
       -0.003993316 0.0989453 -0.08534168 0.06424684
000120 2e 3e 66 bb 08 e5 ae bc 6c 01 82 bc 86 0a a3 bd
       -0.0035132277 -0.021349445 -0.015869819 -0.079609916
000130 f7 25 75 3c 6f 9e 18 3e dd 2c 89 be 5a 17 17 3e
       0.014962665 0.14904188 -0.2679204 0.14755002
000140 bb 06 34 be c3 3f fd 3d c3 37 c1 3c a6 f2 b2 be
       -0.17580692 0.12365677 0.02358616 -0.3495075
000150 1b 85 2c 3d 12 bb 52 bc 57 15 2d 3d ca 6e 10 3d
       0.042119127 -0.012861984 0.04225668 0.035261907
000160 7a 79 06 bc 7e 65 0d 3d ae ae fb 3d 50 7c 31 3e
       -0.008207673 0.03452062 0.12289177 0.17332578
000170 84 73 93 3c 19 3b bf bb 65 b1 16 be 61 c6 88 3b
       0.017999418 -0.0058359024 -0.14716108 0.0041740392
000180 f1 61 b6 3e 3c 96 81 be ac 0f d1 be 7b 11 82 3c
       0.35621598 -0.25309932 -0.4083227 0.015877476
000190 79 a8 65 3a a5 f2 c7 3d cb 59 b0 bd d2 ba 7e 3d
       0.0008760761 0.09763078 -0.08610877 0.062189884
0001a0 aa 64 1b 3c 90 65 37 bd 34 d2 44 bc 99 7b 3c be
       0.009484449 -0.044774592 -0.012013007 -0.18406524
0001b0 95 79 77 3c ee 0a 32 3e 90 a4 54 be b8 a2 02 3e
       0.015104671 0.17386982 -0.207659 0.12757385
0001c0 cb 5a 3e be 8d d8 fd 3d 09 68 9b 3d dd 22 8c be
       -0.18589322 0.123948194 0.075882025 -0.2737035
0001d0 62 f2 af 3c 89 7b 05 bd 2c ab b8 3b 3c 72 47 3e
       0.021477882 -0.032588515 0.0056356397 0.1947717
0001e0 ed a0 62 bc f7 7e a3 3d 87 22 39 3e 15 8c a8 3e
       -0.013832313 0.07983201 0.18079577 0.32919374
0001f0 94 09 04 3d ad 5b 0d bc dd d1 18 be d5 87 a6 bb
       0.032235697 -0.008627814 -0.14923806 -0.0050821104
000200 fd a2 b3 3e da 6a 79 be 55 01 d1 be ef 9b 1d 3d
       0.35085288 -0.24357167 -0.4082133 0.038478788
000210 8c 8f 27 3c 2b a3 c8 3d 5e dd a0 bd c4 ac 86 3d
       0.010227095 0.09796747 -0.078547224 0.06575921
000220 8e 7d ae 3c e9 7b 0c bd 04 d0 ad 3c 1b 38 35 be
       0.021300104 -0.034297857 0.021217354 -0.17697184
000230 f2 72 6d bb 1f 44 2c 3e 0c c5 94 be 43 ea f3 3d
       -0.0036231843 0.16822861 -0.29056585 0.11909916
000240 44 c6 22 be 53 85 d3 3d 74 57 2c 3d 63 8f aa be
       -0.15895945 0.10328164 0.04207559 -0.3331252
000250 9a a8 00 3d 21 97 01 bc 37 64 ed 3c b8 e0 68 bc
       0.03141079 -0.007909567 0.02897845 -0.014213733
000260 8d 58 26 bc c7 e0 ca 3d 43 e2 06 3e 12 7b 01 3e
       -0.010152948 0.09906154 0.1317225 0.12644604
000270 52 6b 27 3d df c5 16 bd cd 3b 22 be 92 9b ba bb
       0.040873833 -0.0368098 -0.15843125 -0.005694815
000280 dc 44 cc 3e d7 1b 6b be c3 2f 8e be a2 f3 81 3c
       0.39896286 -0.22959839 -0.27770814 0.015863243
000290 3d bc bb bc 3b 4b a1 3d cf c1 c1 bd 80 08 6e 3d
       -0.022916907 0.07875677 -0.09460794 0.058113575
0002a0 97 f6 26 bc 15 97 0e bd 96 1b 6c bc 51 0a 00 be
       -0.010190628 -0.03481205 -0.014410874 -0.12503935
0002b0 18 ac cc 3c d1 50 43 3e 8e 54 5b be e8 fd 05 3e
       0.024984404 0.19073798 -0.21418974 0.13085139
0002c0 73 b8 26 be c7 06 c4 3d 0e 0c 12 3d d2 a2 bb be
       -0.162813 0.09571605 0.035656027 -0.3664766
0002d0 0a 67 2e 3d 46 46 04 bd ec b5 c7 3b a8 ba ea 3d
       0.042578734 -0.03229358 0.006094685 0.11461383
0002e0 9d 0a 0e 3c 77 7f 91 3d 7e a9 0a 3e 3a a8 b4 3e
       0.008669523 0.0710439 0.13541219 0.35284597
0002f0 63 0a bf 3c e3 01 d7 bc b1 0d 11 be 7b aa 68 3b
       0.023320382 -0.026246017 -0.14165379 0.0035502005

actor_linear.bias f4 [6]
000000 c0 15 38 3d d4 52 aa 3e e6 b0 73 3e 1b 6d 40 3e
       0.044942617 0.33266318 0.2379795 0.1879162
000010 27 4c 74 3e c7 e3 83 3e
       0.23857175 0.25759718
