spaceinvaders-v0-bottom-7fskip_latent32/model.86.tar (torch, 223035 bytes, 13 tensors)

conv1.weight f4 [32, 4, 3, 3]
000000 a7 d1 c9 bc b6 83 01 3d 43 20 8e bb c3 0b bb bd
       -0.024636103 0.03161975 -0.004337342 -0.09133103
000010 37 b0 f7 be d0 48 ed 3d a7 b9 24 3e 83 08 f1 3d
       -0.4837663 0.115861535 0.16086446 0.117692016
000020 a7 80 71 3d bc 9a 3e bc f9 fa 11 3e 45 cb f1 3c
       0.058960583 -0.011633571 0.14255895 0.029515872
000030 01 ba e8 3a 16 df 2d bd 98 7c c2 bd e7 ed ce 3d
       0.0017755629 -0.04244908 -0.094964206 0.1010397
000040 b7 cc f0 3d 9b 07 05 bd 66 da 2a 3d ef d2 3e 3e
       0.11757796 -0.032477956 0.041712187 0.18635152
000050 e1 63 87 bd e8 74 9a bd fc 2c be bd dd e2 20 be
       -0.06610847 -0.07541829 -0.09285924 -0.15711541
000060 52 5a 07 3e a6 64 8f 3c 16 4b 5d 3e 62 0f a7 3d
       0.13218048 0.017504048 0.21610674 0.08157231
000070 0a b3 c2 be 36 18 3a 3d d5 0e 09 3e 45 65 00 3f
       -0.3802722 0.045433246 0.13384564 0.50154525
000080 a9 06 3d 3e ad 23 d0 be 52 73 0e be 95 8b 80 be
       0.18459572 -0.40652218 -0.13911179 -0.25106493
000090 82 07 39 3b 39 1b 80 bd fa 2a 38 3e 9a 01 e2 bd
       0.0028233235 -0.06255192 0.17985144 -0.11035462
0000a0 fd a5 27 3e 30 62 fd 3d de b8 47 3e f9 59 bc bd
       0.16371913 0.123722434 0.19504115 -0.091968484
0000b0 3f 4c 34 be 3d 2b 01 3d 00 8f 83 bd 44 74 b8 bc
       -0.1760721 0.031535376 -0.064237595 -0.022516377
0000c0 4e 57 91 bd 20 15 ff 3c 9f 80 c8 bd 40 f3 09 bd
       -0.0709673 0.031138003 -0.097901575 -0.033679247
0000d0 59 a8 12 3c e6 f3 8f bb f8 4c a6 bd eb 85 84 3e
       0.00895127 -0.0043930886 -0.081201494 0.2588342
0000e0 7c b5 bf bd 8c 14 18 be d6 24 ff 3d 62 ff 9b 3d
       -0.09360787 -0.14851588 0.12458198 0.0761707
0000f0 b2 af 5f 3d dc bb 52 3b b8 fa ab 3d 4a 73 d4 3e
       0.054610915 0.003215543 0.0839743 0.4149421
000100 b3 c8 b1 be 79 f7 eb bd 84 30 7b 3d e0 8b 87 be
       -0.34723434 -0.11521811 0.061325565 -0.26473904
000110 0c 5c 58 bd 90 5c aa be 20 eb bf 3e dd 33 d0 bd
       -0.052822158 -0.33273745 0.37484074 -0.10166142
000120 62 82 52 3e 51 fe c7 bd 04 4e 8c 3e ef 51 66 bc
       0.2055755 -0.09765304 0.2740327 -0.01405762
000130 95 01 b0 3d ad f5 4c 3e a0 c5 8f be 84 ad d7 3c
       0.08594052 0.20015593 -0.28080463 0.026327856
000140 2c 6c f5 bd 12 e1 1d be 03 48 01 3c f1 0c 36 bc
       -0.11983523 -0.15417889 0.007890704 -0.011111484
000150 96 b8 a8 3b eb d8 2b be 13 96 b7 bd 6d b4 80 3d
       0.0051489575 -0.16781966 -0.08964171 0.062844135
000160 2c a3 cb bd be 99 53 3e dd 68 a3 3d db 05 0f be
       -0.09943232 0.20664117 0.079789855 -0.13967077
000170 c5 2b 6e 3e ad 71 c0 3d a3 17 e1 bd fe 96 40 3d
       0.23258884 0.09396682 -0.109908365 0.047018997
000180 0e 1a 05 3e fc 3e 6e 3d d8 de 15 be 56 23 2f bd
       0.1299822 0.058165535 -0.1463579 -0.04275831
000190 e9 d8 21 3e 03 05 0d be 91 fd f0 3d 12 10 00 be
       0.15805401 -0.13771443 0.11767114 -0.1250613
0001a0 a3 5f 90 be 95 d5 89 bd f8 9d 87 3e fb 17 8a 3c
       -0.28197965 -0.06730191 0.26487708 0.016857138
0001b0 38 0a 93 3e 1e 3d 14 3e 4a e5 ff 3c d5 21 14 3e
       0.28718734 0.1447644 0.031237263 0.14466031
0001c0 c0 17 7a 3e 8e ac ea bb f6 59 09 3e 6f d9 ea 3e
       0.24423122 -0.0071616834 0.13413224 0.45869014
0001d0 94 18 c6 3d 03 91 fe 3d 99 b6 61 be 31 6e f7 bd
       0.09672657 0.124300025 -0.22042312 -0.12081564
0001e0 19 84 03 be 41 76 5c bd 28 e8 1c 3e 73 f7 d5 bb
       -0.1284336 -0.053823713 0.15322936 -0.0065297424
0001f0 22 65 ea 3d 8d 34 12 be e2 15 57 bd 6d 56 e2 bd
       0.11445071 -0.14277859 -0.052511103 -0.11051641
000200 ba 23 f0 3d 50 b5 f2 3d c1 02 7c be 47 af 44 3d
       0.11725564 0.11850989 -0.24610426 0.04801872
000210 42 53 2f 3e c8 ce 15 3e 80 f0 0f 3e 2c 46 3e 3e
       0.17121604 0.14629662 0.14056587 0.18581456
000220 20 6e 26 3d 13 c8 2f 3e 2d a3 85 be 27 a5 47 bf
       0.040632367 0.17166166 -0.26101056 -0.7798638
000230 e1 d3 7a be 6a 68 84 bd 95 3c 6c be 65 ca 97 3c
       -0.24494888 -0.06465228 -0.23069985 0.018529126
000240 3a 09 04 be d2 e5 f8 bd 28 66 4e 3e e2 65 19 3e
       -0.12894145 -0.1215321 0.20156157 0.14980271
000250 2c bc a5 3d 81 2b bd 3d 01 16 7a 3c 2b ed ca 3e
       0.080925316 0.09236813 0.015264035 0.3963407
000260 89 52 ce bd 49 7e ab bd 72 90 13 be 8d ca 02 be
       -0.10074336 -0.08373696 -0.1441057 -0.1277258
000270 1d 0a 0f be 02 3b 04 be 92 51 18 3d 80 97 c6 bd
       -0.13968702 -0.12913135 0.037187167 -0.09696865
000280 20 31 04 bd e5 b0 75 3d 2d a1 ca bc 1a 1d c4 3d
       -0.03227341 0.059983153 -0.024735058 0.09575863
000290 f8 8a 5b bd 15 19 8a bd 58 ec 94 be a8 6d 36 be
       -0.053599328 -0.06743065 -0.29086566 -0.17815268
0002a0 0a fd 1f be 73 21 5a be df a8 12 be 6d 42 51 3e
       -0.1562387 -0.21301822 -0.14322232 0.20435496
0002b0 c3 96 04 3d 99 be 10 be 3e c2 21 3e 22 a4 9d 3e
       0.03237034 -0.14135207 0.15796754 0.30789286
0002c0 f5 f6 88 3e 54 e1 de 3c c5 10 ff bd 89 00 ad 3e
       0.26750913 0.027207054 -0.124543704 0.3378947
0002d0 bf 57 2f be bf b3 43 be 4d c8 48 be e1 82 78 be
       -0.17123316 -0.19111536 -0.19607659 -0.24268676
0002e0 77 f6 ec be 19 36 5c bd 40 6b 95 be c4 a2 da be
       -0.46281788 -0.05376253 -0.29183388 -0.42702305
0002f0 e1 95 31 be 56 03 46 bd fa 97 10 3b f6 5e 8b bd
       -0.1734233 -0.048343025 0.0022063241 -0.06805222
000300 98 83 52 be b1 8e b9 bd 2e 3b 16 bc 12 4f 20 be
       -0.20558012 -0.09060419 -0.009169383 -0.15655163
000310 2f a1 c3 3c 1a 28 b0 3c 8d e3 70 3e 90 8c f4 bc
       0.02388057 0.021503497 0.23524304 -0.029852182
000320 f0 d9 ce 3d 4e e3 25 be 93 84 18 3e 32 b8 e2 bd
       0.10100162 -0.16199991 0.14894323 -0.11070289
000330 37 88 e5 3d aa 1f e4 3d 95 3f a3 bd 31 7e 8b 3e
       0.112076215 0.11138852 -0.07971112 0.27244714
000340 bf f9 c7 3e 28 d7 b6 3e fe 4e 92 3c 54 05 6d 3e
       0.3905773 0.35711026 0.017859932 0.23146564
000350 85 1d b4 bd 86 81 a1 3e f4 b2 d3 3e 4b f5 97 3e
       -0.08794693 0.3154413 0.41347468 0.2967933
000360 98 10 ad 3e 1c 9c 8f bd be a5 0a 3d 91 f4 a4 3e
       0.33801723 -0.070121974 0.03384947 0.3221784
000370 1b 1e d4 3d 37 ec 97 3e cc a4 9a be bb 46 d2 be
       0.10357305 0.29672405 -0.30203855 -0.41069588
000380 96 b8 c7 3b 2f f3 90 bc 5d d8 40 bc 4c ff 87 3e
       0.0060950024 -0.017694084 -0.011770335 0.26561964
000390 b7 53 42 3e d0 c3 ca 3d 86 e3 7c 3d 33 d8 26 be
       0.18977247 0.099006295 0.06174042 -0.16293411
0003a0 bd 5a 67 bb d5 84 9c bd a4 9c 05 3d 19 bb d5 bd
       -0.0035301887 -0.07642523 0.032620087 -0.10436077
0003b0 b6 a4 74 3d fb 42 41 3e e0 03 8e 3d 16 62 64 bd
       0.059727393 0.18873207 0.06934333 -0.055757605
0003c0 36 3f f4 bd 88 f1 83 3c 23 1d 64 3d cf 9f be bd
       -0.11926119 0.016106382 0.05569185 -0.09307825
0003d0 4e fa d0 be 57 37 2a bd 46 51 5e be 9e 6e cc be
       -0.40815967 -0.041556682 -0.21710691 -0.39928144
0003e0 97 59 ff bd d7 ae 76 3e b0 94 c9 3e b4 a1 a0 3d
       -0.1246826 0.24090134 0.39371252 0.078433424
0003f0 9d 6a de bb 9f cd 41 bd 88 ea 8f bd ca b0 c3 be
       -0.0067876116 -0.047315236 -0.07027155 -0.38220817

conv1.bias f4 [32]
000000 89 52 86 bb 6a 50 1c 3a 82 d5 69 bc 57 c9 4d bc
       -0.0040991944 0.00059629104 -0.014272096 -0.01256021
000010 48 39 92 3b 91 9a 82 3c 11 e3 c6 bb 54 2b 3d bb
       0.004462395 0.015942844 -0.006069549 -0.0028864937
000020 b5 64 da 3b b0 b9 99 3b 8e 18 5d 3a 4b 2f a3 bb
       0.0066648372 0.004691325 0.000843414 -0.004980003
000030 8b 0f 21 3b 2b b3 06 3c 52 4e 81 bb 5d f0 ba 3d
       0.0024575915 0.008221428 -0.003946104 0.09127877
000040 fe 8e 9f ba 0e 26 38 bb d2 71 8c 3d 30 f2 8e bb
       -0.0012173352 -0.0028098854 0.06857647 -0.004362367
000050 37 2b c3 bb 18 c3 8c 3b 12 eb c8 bb 6e f1 bc ba
       -0.0059560793 0.004295718 -0.006131538 -0.0014415213
000060 66 b2 76 b9 eb c6 07 3c 2c b1 ca ba 7d c5 71 bb
       -0.00023526847 0.008287172 -0.0015464178 -0.0036891394
000070 ae b5 dc ba a7 60 29 bc 10 38 14 bb 89 2e 6a 3b
       -0.0016838813 -0.010337985 -0.0022616424 0.0035733304

conv2.weight f4 [32, 32, 3, 3]
000000 8e 19 ae be c1 1a 49 be 45 ec 5a 3e cf 5d 8e 3e
       -0.34003872 -0.19639112 0.21379192 0.27805945
000010 6e 60 cb 3e 68 90 04 bd 84 f1 04 be 6d 46 03 bd
       0.39722008 -0.03236428 -0.12982756 -0.032049585
000020 8f 0f d6 3d f1 67 cb bd a8 33 79 be 68 1e a7 3d
       0.10452186 -0.099319346 -0.24336112 0.081600964
000030 a9 c5 26 3e 43 b7 97 3d 58 be 98 3d f5 0f f9 3d
       0.16286339 0.07408001 0.0745818 0.12161247
000040 3f a4 6a be 68 5f 28 3e 97 9d b1 3c 85 7e e8 bd
       -0.22914217 0.16442645 0.02168159 -0.11352257
000050 16 69 58 be f9 54 2a be 51 81 cb bb 36 b5 4c 3d
       -0.21133837 -0.16633977 -0.006210484 0.049977504
000060 12 26 b2 bd 92 cd 0e 3e 58 f4 63 3b ca 2f 11 be
       -0.086986676 0.13945606 0.0034783091 -0.14178386
000070 29 53 41 be 61 38 09 be 56 11 7f be b1 04 dd be
       -0.1887938 -0.13400413 -0.24908957 -0.43167642
000080 d4 ec fc 3d 70 78 15 be 91 50 7b 3d e3 ea 54 3e
       0.12349859 -0.14596725 0.06135613 0.20792727
000090 0b ad e2 3d e3 95 85 bc de 9c 56 3c 14 b6 06 3e
       0.110681616 -0.016306823 0.0130989235 0.13155395
0000a0 66 ee 67 3e 4e 5e 04 be 09 10 59 bd 41 6e 4c be
       0.22649536 -0.129266 -0.052993808 -0.19963934
0000b0 e0 4e ba 3d cc 78 0d 3e 22 a0 00 be 9d 1b a0 be
       0.090970755 0.13815612 -0.12561086 -0.31271067
0000c0 39 c2 94 3d 1c 0a 08 bd 36 9d 97 bd b7 b2 fe 3d
       0.072636075 -0.033212766 -0.074030325 0.12436431
0000d0 a6 29 6e 3e bf bf 23 3e d0 7e 66 3e cc 15 f5 3d
       0.23258075 0.15991114 0.22509313 0.11967048
0000e0 2b 7b 90 be 18 eb bf bd 50 e8 29 3d 06 b1 87 3c
       -0.2821897 -0.093710124 0.041481316 0.016563904
0000f0 28 e5 ed bd bc be 78 bd 82 66 99 be d8 9c 3d be
       -0.11615974 -0.060728773 -0.2996102 -0.18516862
000100 e6 73 31 bb db 0d fa 3c ce 43 83 3e 0f da 28 3e
       -0.0027077137 0.030524185 0.25637668 0.16489433
000110 28 1e ac bd 11 8a 94 bd b7 df 4a bc 50 ab 58 3e
       -0.08404189 -0.072528966 -0.012382439 0.211591
000120 be 23 ea bc 14 1a 28 3e b9 cf 96 3e 97 1e 46 3d
       -0.028581496 0.16416198 0.29455355 0.048369016
000130 d6 bd 40 3e ce 47 9d 3d 06 05 61 be d9 ac 57 be
       0.18822417 0.07679711 -0.21974573 -0.2106203
000140 5a 60 aa bd 5e 20 fb 3d 36 96 21 be 7c c9 c9 bc
       -0.08319159 0.12262033 -0.15779957 -0.024632208
000150 db 98 f8 3c 52 9f 10 3e 85 9e 16 be a0 b4 2e 3c
       0.030346325 0.14123276 -0.14708908 0.010663182
000160 42 a7 94 3e 95 6a 60 3d 9b a8 14 bd be 51 5c bb
       0.29033858 0.054789145 -0.036293607 -0.0033618058
000170 72 1e b6 bd c2 1d 68 3e a0 28 ec 3e f4 ac 9c be
       -0.08892526 0.22667602 0.46124744 -0.30600703
000180 e6 60 97 3d e6 5c 88 3a d2 94 9e bd 98 ac 0f 3e
       0.07391529 0.0010403662 -0.07743229 0.14030683
000190 53 98 e5 3c f0 91 1c bc 2d cb 48 3e 51 b5 12 3d
       0.028026735 -0.009556279 0.19608755 0.035817448
0001a0 f4 47 4b bd 58 d9 40 be e7 0c c6 bd 13 32 4e be
       -0.049629167 -0.1883291 -0.0967043 -0.2013629
0001b0 ba 67 fe bd 85 5c 22 bd dd e0 8c 3d 0a 89 cc 3e
       -0.12422128 -0.039639015 0.06878827 0.39948303
0001c0 ab 6a 7a 3e e4 24 f5 bd d8 f5 75 bd e5 aa ac be
       0.24454753 -0.11969927 -0.060048908 -0.33724132
0001d0 5e d3 96 bd f6 b7 e4 bd 0f b1 e2 3d d8 01 fc 3e
       -0.07364534 -0.111679 0.110689275 0.49220157
0001e0 29 9b 6a 3e 88 09 60 3d c2 cd 57 3d 55 21 bd 3d
       0.22910751 0.05469659 0.05268646 0.09234873
0001f0 38 fb d8 be 03 13 b3 3b 3c 33 f4 3d 99 cb 4c 3d
       -0.42379165 0.005464913 0.11923835 0.049998853
000200 76 92 3d bd 24 02 3e 3e 21 e1 c7 bd ca 97 f6 3c
       -0.046282254 0.18555504 -0.09759737 0.030101676
000210 e6 fc e4 bc 51 7a a0 be 73 e6 70 bd dc 58 c3 bd
       -0.027952623 -0.3134332 -0.058813524 -0.09538433
000220 8a 90 60 bd 45 60 c7 bd b6 2b 15 3b 8c bc 3c 3e
       -0.054825343 -0.09735159 0.002276165 0.184313
000230 f9 62 91 3e 40 84 ac bd 17 73 5d bd 53 77 11 bd
       0.28395823 -0.08423662 -0.054064836 -0.035514187
000240 4c 40 2f be db 17 14 be 8f f5 f9 bd ad a6 d3 3d
       -0.17114371 -0.14462225 -0.1220504 0.10334525
000250 2d f6 81 bd 3d 76 02 be f5 1a b9 3d 9e 92 75 bc
       -0.063457824 -0.12740417 0.09038345 -0.01498857
000260 6b bc 3f 3e c9 14 93 3a 79 f8 9e bc b2 42 ab bd
       0.1872422 0.0011221404 -0.01940559 -0.083623305
000270 7f 6b 59 be bb 49 2d 3e c0 f5 df bd fc 2f 46 3e
       -0.21232413 0.16922657 -0.10935545 0.19354242
000280 64 d4 41 3c b2 cc e0 bb de 6a 8c bd 10 02 59 bd
       0.011830423 -0.006860339 -0.06856321 -0.052980483
000290 9d 33 41 bd bc f0 fd 3c 08 c7 13 3e 43 0d 78 3e
       -0.047168363 0.03099858 0.14431393 0.24223809
0002a0 86 3c f5 bd c0 08 d0 bd 7e 81 63 bb 70 e4 0d 3e
       -0.119744346 -0.10157919 -0.0034714635 0.13856673
0002b0 11 2a 84 bc 11 44 6e bd f6 b6 c1 3c fb 53 d1 bb
       -0.01613334 -0.058170382 0.023646813 -0.006388185
0002c0 97 3a 6c 3d 40 ea 18 be 51 02 85 bd 11 eb ec bd
       0.057673063 -0.1493311 -0.064945824 -0.11568273
0002d0 b3 33 31 bc 19 ed a5 bd e9 08 e0 3d 30 94 5d bd
       -0.010815549 -0.081018634 0.109391995 -0.0540964
0002e0 60 34 07 3e ec 82 19 be 9a 28 27 bd 3f 9b f4 3d
       0.13203573 -0.14991349 -0.040810205 0.11943673
0002f0 64 be e4 3b 8e cf 39 3e 6f 04 ea bd fc 5f 0f 3c
       0.006980704 0.18145582 -0.11426627 0.008750912
000300 13 7f 2a be ef 47 2c be c7 38 b3 3d 9b a1 dc 3d
       -0.16650037 -0.16824315 0.08751064 0.10773011
000310 80 7e f8 bb 61 2e 1d bd c4 7e 12 be c8 f5 fa 3d
       -0.0075834394 -0.03837431 -0.1430617 0.1225391
000320 bb cb 0b bd 15 7a 5c 3e ea d2 ef 3d 19 e6 16 be
       -0.03412984 0.21530946 0.117101505 -0.14736213
000330 0e ae ef bd e6 d6 06 3d 7e 7d aa 3c 54 44 c1 bd
       -0.1170312 0.032919787 0.020811792 -0.09436861
000340 0e 50 fe bc 08 13 59 3e 9e 2c 6f be 84 9a c2 bc
       -0.031044032 0.21198666 -0.23356864 -0.02375532
000350 d8 d9 70 3c 60 34 97 3c 24 8e 38 3e 37 6b 8c bd
       0.0147003755 0.018457592 0.18022972 -0.06856387
000360 27 2f b3 3d 9c a2 40 3d 23 8e 05 3e 93 3f 95 bc
       0.08749228 0.047030076 0.13042502 -0.018218791
000370 c9 88 28 be a7 38 be bd ef 14 96 3d e3 7e a8 be
       -0.1645843 -0.09288149 0.073282115 -0.32909307
000380 7a b4 07 be 98 95 a1 3e ff ba 21 3d cf 9b 61 3b
       -0.1325244 0.31559443 0.039484974 0.0034425145
000390 3c 79 54 3e 62 9e 0d 3d 26 96 1f be 58 10 09 be
       0.20749372 0.034574874 -0.15584621 -0.13385141
0003a0 7a 8a e8 3d d1 fd 58 3c f1 50 b8 bb 00 92 1a be
       0.11354537 0.013244108 -0.0056248833 -0.15094757
0003b0 3a bb 33 be 77 78 40 3d 27 a3 b0 3d 59 bd 93 be
       -0.1755189 0.046989884 0.08624869 -0.28855398
0003c0 0a 70 47 be 99 3c 7a 3e 2a d4 0f 3c b1 ef 17 3d
       -0.19476333 0.24437179 0.008778611 0.037093822
0003d0 55 40 6f be a2 48 ae bd d4 53 0c be 10 5d 8f be
       -0.23364384 -0.08509947 -0.13703853 -0.2800069
0003e0 39 af c6 3d 92 c1 84 3d 1d 38 02 3e 59 e8 7f 3e
       0.0970139 0.06482233 0.12716718 0.24990977
0003f0 f7 f8 9e 3e 1d f6 96 3e 5e 42 88 be 65 2a cb be
       0.3104932 0.29484645 -0.26613134 -0.39680782

conv2.bias f4 [32]
000000 6f f7 e4 ba 7b 66 a2 bc 07 dd ee ba d9 b1 e6 bb
       -0.001746876 -0.019824257 -0.001822383 -0.007040244
000010 5a 7e 20 bd 64 3e 45 bc d3 22 15 bc 0b a6 0b 3c
       -0.039183 -0.012038801 -0.009102541 0.008523474
000020 a6 61 01 bc 37 7f ae bc bb 18 c8 bc d5 c5 b9 bc
       -0.007896816 -0.021300895 -0.024425855 -0.022677341
000030 e6 49 b7 3c d9 5a 31 bc dc e9 e1 bc f9 25 a9 bb
       0.022374105 -0.010824882 -0.027577333 -0.0051619974
000040 be f0 e8 3a 2b 81 4c 3c 28 7e a0 3c 3b 8a a4 bb
       0.0017771942 0.012481968 0.019591406 -0.005021361
000050 5d 43 30 bc 61 4b 09 bb a9 ce 42 bc 00 97 c6 3a
       -0.010758248 -0.002094947 -0.011890092 0.0015151203
000060 9b ea 27 3b 61 0e 17 bc 73 00 57 3c ee aa 85 bc
       0.0025622013 -0.009219737 0.013122666 -0.016316857
000070 1a b2 ae 3b ba 1c 30 bb 5c 90 2a 39 38 46 ac bb
       0.00533129 -0.002687259 0.00016266241 -0.005257394

conv3.weight f4 [32, 32, 3, 3]
000000 d2 05 29 be 8a 76 0e bd 56 25 01 be bd 96 1a 3e
       -0.16506127 -0.034781016 -0.12611899 0.15096565
000010 34 72 c0 3d ad b5 6b 3e 08 e3 12 3e af 2a e7 bd
       0.093967825 0.23018523 0.14344418 -0.11287438
000020 a1 ac 8f bd 63 91 f6 3d b9 3b 4e bc 47 ba a3 3c
       -0.07015348 0.12039449 -0.012587481 0.019986285
000030 2c 9b 44 be c5 6e 09 be 34 eb 08 3e 66 e4 81 3e
       -0.19199818 -0.13421161 0.13370973 0.25369567
000040 98 19 b3 bd 86 83 1e be 0a ff 88 bd c4 76 5e 3d
       -0.08745116 -0.1547986 -0.0668927 0.054312482
000050 21 8b db 3b 36 af 38 3e 80 83 be 3a ef 92 9b bd
       0.006699935 0.18035588 0.001453504 -0.07596385
000060 5d 3e 06 3d 05 81 b9 3d 2d fb 0f bd 2d 8d dc bc
       0.032774318 0.09057812 -0.03515165 -0.026922787
000070 46 de 26 be 80 8d 8f be cf 2b f2 bc 15 37 0b be
       -0.16295728 -0.28037643 -0.029561905 -0.13595231
000080 22 89 27 be d7 e4 88 3e 42 56 f2 bc d2 6b 9d be
       -0.16360906 0.2673709 -0.029582147 -0.30746323
000090 74 fd 23 3e 21 93 f2 bc 3e bf 90 be d7 6a c5 3c
       0.16014653 -0.029611172 -0.28270906 0.024098797
0000a0 3b 48 2f be 73 73 92 bd 13 b9 2b 3e 63 a8 58 bd
       -0.17117397 -0.071509264 0.16769819 -0.05289496
0000b0 93 5b fd ba 17 3f ee bd 4f 44 23 3d c5 f3 ef bc
       -0.0019329659 -0.11633127 0.039860066 -0.029291043
0000c0 24 3c 86 3e 2c f0 28 3e 2b 5d 0b be 5b c1 bf bd
       0.2621776 0.16497868 -0.1360976 -0.093630515
0000d0 5b 01 4b bd d4 e8 a6 3d 4e ad 68 bd 78 53 ba 3d
       -0.04956184 0.08149877 -0.0568059 0.09097952
0000e0 83 68 5b bd 85 a8 01 3e 84 4c 53 bd ea 3f 31 3d
       -0.053566467 0.12661941 -0.051586643 0.043273844
0000f0 d6 a0 81 3c 66 7f 63 3d 00 ac f5 3d 25 e3 6c be
       0.015823763 0.05554142 0.11995697 -0.23133524
000100 9a 87 2d be d4 49 82 bd 91 ff 6f 3e 70 26 e8 bd
       -0.16946259 -0.06361738 0.23437335 -0.11335456
000110 3e 22 d9 bd 5e f1 29 be b7 d3 dc 3d db 3e a4 3d
       -0.10602234 -0.1659598 0.10782569 0.08019801
000120 ae 4a 8c 3d 67 2a f8 bd 61 9c 10 3e e4 89 30 3e
       0.068501815 -0.121174626 0.14122154 0.17240101
000130 34 e3 a3 bd 4c 66 5d ba 10 27 86 bb ff 08 1b 3e
       -0.0800232 -0.00084457244 -0.004094012 0.1514015
000140 be 7d 43 be 0d db 11 3e b3 f9 ef bc 8d c3 11 be
       -0.19090936 0.14243717 -0.02929387 -0.14234753
000150 15 13 3d bd bb 48 69 bd 05 dd 0b bd 56 d7 59 3c
       -0.046160776 -0.056954127 -0.034146328 0.013295969
000160 7e 8e a9 be 3e 33 52 3e 4b ba 01 be 4e fb a8 bd
       -0.33116525 0.2052736 -0.12668721 -0.082510576
000170 bc 75 cc bd a8 2c 05 3e 40 32 b0 3d ac b9 fc bd
       -0.099833935 0.13005316 0.086033344 -0.123401016
000180 ad da ed bd 87 e4 3b be 0c 89 ef 3d 5f 1d da 3d
       -0.11613975 -0.18348895 0.116960615 0.10650133
000190 35 30 ff 3c fd 26 62 be 3e b7 7a 3e 58 3f 46 3e
       0.031150917 -0.22085185 0.24483964 0.19360101
0001a0 24 f6 9a bc 29 89 53 3b 91 ef 4b 3e f7 94 04 bd
       -0.018916197 0.0032277799 0.19915606 -0.032368626
0001b0 84 04 9f bd 41 30 21 3e a6 da 04 bb 95 39 d0 bd
       -0.07764533 0.15741064 -0.0020271926 -0.10167233
0001c0 bd ca 4b 3d e7 9d 8c bc fe 2e 73 3d 82 7e 08 3e
       0.049753893 -0.017165137 0.059370987 0.13329509
0001d0 fb fa e2 bd 6a 70 a6 bd 94 41 2b bd 4a c2 12 3e
       -0.11083027 -0.0812691 -0.041810587 0.14331928
0001e0 bb 7a d5 bd 38 03 80 bc 86 b6 06 be 62 2f 1f 3d
       -0.104237996 -0.015626535 -0.13155565 0.038863547
0001f0 70 eb c2 3c d9 0b ba 3e 00 b4 e6 3d 41 37 28 3e
       0.023793906 0.36337164 0.11264801 0.16427328
000200 75 a1 f4 bd 84 07 10 3d 90 85 8f 3d ac 09 c4 bd
       -0.11944858 0.035163417 0.07007897 -0.09572157
000210 b4 db 72 bc 2d 04 80 3e ac 1f 2b 3d 6d e9 9e 3d
       -0.014822889 0.25003186 0.04177825 0.07759366
000220 61 44 86 3c f3 83 93 bd df c3 e2 bd 89 fa 14 be
       0.016390027 -0.07202902 -0.11072516 -0.14548697
000230 cd 6f 06 3e ba 7a ea 3d a1 1e 01 be d4 81 6b be
       0.13128586 0.114491895 -0.1260934 -0.22998744
000240 ea e9 23 3d 94 ae e2 bd a0 7e 4c 3e de 66 79 be
       0.040018 -0.110684544 0.19970179 -0.24355647
000250 49 b7 17 bc 5a 9a 59 be b3 4c e1 3d b4 74 44 3d
       -0.009260007 -0.21250287 0.11000957 0.04796286
000260 05 02 a0 be 3c 3d 64 be a9 d0 33 be 89 72 11 3e
       -0.3125154 -0.22288984 -0.17560066 0.14203848
000270 b4 90 97 bd e3 06 b2 bb ca 9d f5 3d 53 8c 8f bd
       -0.07400647 -0.00543295 0.119929865 -0.070091866
000280 af db 90 3d 6e 32 9f bd 2c ec 85 bc b7 59 0d bd
       0.07073151 -0.077732906 -0.016347967 -0.034509387
000290 ac dd a9 bc 08 2c 32 3e be 24 9a bd 46 f6 42 be
       -0.020735584 0.17399609 -0.07526539 -0.19039258
0002a0 4f a2 10 3d be 2a d9 3d 5e a7 37 be 28 50 ed 3d
       0.03531104 0.106038556 -0.1793494 0.11587554
0002b0 08 6d 1a 3e fd e4 9b bd 95 19 0f bd fb 4e 09 be
       0.15080655 -0.076120354 -0.034936506 -0.13409035
0002c0 42 84 24 bd 7f 05 d0 bd 53 61 d1 bd 87 6a 83 bd
       -0.040165193 -0.10157298 -0.10223641 -0.06416803
0002d0 ef b0 c0 3d 9a 1a 31 be fa 51 8a bd d3 c9 82 bd
       0.094087474 -0.17295304 -0.06753917 -0.06386151
0002e0 3d 87 aa 3e 5e 65 71 bd 4d b7 9e bd 2e 10 05 bd
       0.33306304 -0.058934562 -0.077498056 -0.032486133
0002f0 07 63 31 be d6 fe 7d 3d 61 d7 08 3c 90 47 87 bd
       -0.17322932 0.06201061 0.008352132 -0.06605446
000300 1a 51 94 3c 69 fd 69 be 8e a2 2c be a5 e6 92 bc
       0.018105078 -0.22850575 -0.16858885 -0.017932246
000310 6b 40 5b 3e ff c3 1f bc 5f 45 35 3e bb f5 58 3c
       0.21411292 -0.009751319 0.17702244 0.01324218
000320 e4 1a 77 be 0d 89 17 be 1b 66 14 3d 66 47 ab 3c
       -0.24131352 -0.14798374 0.036230188 0.020908069
000330 e5 cc 22 bc 7b 07 03 3e 08 be 76 bd de a9 10 3e
       -0.009936546 0.12795822 -0.06023982 0.14127299
000340 b2 18 d1 3d a8 f0 ba be ac 7a 95 3e b0 3a b8 be
       0.102097884 -0.3651173 0.29195154 -0.35982275
000350 c8 75 f2 3c 8c 08 2c bc 33 aa 0f be 1a f0 b9 bd
       0.029597178 -0.010500085 -0.1402977 -0.09078999
000360 6b 97 d6 bb df 01 03 3e 40 73 53 3e fb e4 99 bd
       -0.006548812 0.12793683 0.20649433 -0.07514378
000370 c9 ea 8f bd 0e 1b b2 3d e3 bc 8e bd 90 2e 60 bd
       -0.070272036 0.086965665 -0.06969621 -0.054731905
000380 fe ab 6f 3e 01 f8 6d 3c ad 3a 9a bd 2e 2e c3 3d
       0.23405454 0.014524461 -0.07530723 0.095302925
000390 85 e3 a1 bd b7 9b 15 3c 07 93 74 3d 0e fc 4a bd
       -0.07904724 0.009131364 0.05971053 -0.049556784
0003a0 b3 f4 b3 3d d2 b4 a1 bd 1d 0b 95 be 92 78 08 3e
       0.08786907 -0.07895817 -0.2911004 0.13327244
0003b0 b1 c4 6b 3e 0d bb dc 3c 4a fe 47 bd c9 f9 8c bc
       0.2302425 0.026944662 -0.048826493 -0.01720895
0003c0 e2 d7 95 3c 5e e6 36 3d 9c c4 ac 3d d0 76 27 3d
       0.018291418 0.04465329 0.08435938 0.040884793
0003d0 84 77 8e bc 84 d1 00 3e 75 17 8c 3d 57 74 c4 bd
       -0.017390974 0.12579924 0.068404116 -0.095925026
0003e0 85 e0 0a be 9e 14 fe bb 28 f8 99 be 58 7b da bb
       -0.1356221 -0.0077539226 -0.3007214 -0.0066675358
0003f0 54 68 3d be e9 1c f7 bc c4 af 5a 3e b9 a6 3d be
       -0.1849683 -0.030165153 0.21356112 -0.18520631

conv3.bias f4 [32]
000000 6b ae 38 bd dc 7f d8 bd 29 5f b6 3a 4d 65 06 bd
       -0.045088213 -0.10571262 0.0013913858 -0.03281145
000010 51 cb eb bb 19 ca 8d be 43 6d a8 bd ee c7 24 be
       -0.007195868 -0.2769325 -0.08223965 -0.16091892
000020 9d 35 ac bd a5 eb a6 3a 7a 66 fa bd 27 99 04 bd
       -0.084086634 0.0012735022 -0.12226577 -0.03237262
000030 7a 6b 0a bc 9b 0d 1f bd 13 2e 8a bd 86 1f 3e bc
       -0.008448476 -0.038831335 -0.06747069 -0.011604195
000040 11 49 dc bc 58 b1 e6 3c 10 7d 5f be 61 f9 8f bd
       -0.02689031 0.028160736 -0.21825051 -0.07029987
000050 23 61 b2 bd e6 eb 23 3c 5c 54 93 bd aa 13 25 be
       -0.087099336 0.010004973 -0.07193825 -0.16120782
000060 c2 a1 ad 3b be a5 d4 bd 1e 94 b1 ba 6c de 9a bc
       0.005298824 -0.10383175 -0.0013548171 -0.018904887
000070 b0 83 0c bc 6b 83 08 3d 33 45 97 3c 68 e5 fb bd
       -0.008576319 0.033328455 0.018465614 -0.12299615

conv4.weight f4 [32, 32, 3, 3]
000000 1d 22 00 3e 62 56 38 3b 5a 49 0f 3d f8 72 18 be
       0.12513013 0.002812766 0.034982063 -0.14887607
000010 d4 e7 b9 bd 7b db a9 bd 27 55 65 bd 47 3d 0a bc
       -0.09077421 -0.08293816 -0.05598941 -0.008437461
000020 1c 61 4f be 77 54 30 bd 0b 96 14 be 8c fe 96 3d
       -0.20251888 -0.043049302 -0.14510362 0.0737277
000030 00 6b 4a bd 81 eb 3b 3d 62 85 cc bc e4 a0 8f bd
       -0.04941845 0.04587889 -0.024965946 -0.07013109
000040 ea dc b8 bc 51 3c 1e 3e 07 97 aa bd 50 73 c1 3d
       -0.022566278 0.15452696 -0.083295874 0.09445822
000050 19 2b bd 3d 2f 1e 45 bd f9 93 60 be 85 0e 46 3d
       0.09236736 -0.04812449 -0.21931447 0.04835369
000060 04 04 aa 3d 3d f6 d7 3d f3 c1 f4 bc c6 98 26 3e
       0.08301547 0.10545013 -0.029877638 0.16269216
000070 90 a1 39 bd 5a 02 bc 3c 5e 3a 5d 3d 1b e0 a9 3c
       -0.045320094 0.02295034 0.05401074 0.020736745
000080 2a a8 51 bd d7 60 b5 bd 82 65 44 bd 24 ab c8 3d
       -0.051185764 -0.08856361 -0.047948368 0.097982675
000090 d0 2b cd 3d 11 bc f5 bd 52 1c 39 3c 05 22 02 3d
       0.10018122 -0.119987614 0.011298256 0.031770725
0000a0 b4 f7 e6 bd 7b b7 c9 3d 0b 36 33 3e f5 f4 00 be
       -0.11277714 0.09849449 0.17501085 -0.12593444
0000b0 f4 7a 47 bd 82 68 8b 3e 3d 65 27 3d 59 57 8b bd
       -0.04870124 0.2722817 0.040868033 -0.068037696
0000c0 56 ba cf bb 78 b0 04 be b5 11 dc 3b 58 12 40 bd
       -0.0063393516 -0.12957942 0.006715978 -0.046892494
0000d0 f4 cf 38 bd 29 08 fe bc 26 7a 96 3e f5 29 9d bc
       -0.045120195 -0.03100975 0.29390067 -0.019185046
0000e0 a3 12 11 be 02 c6 c5 bd 85 93 a5 bd ca 1e d7 bd
       -0.14167266 -0.096569076 -0.08084778 -0.105039194
0000f0 b5 f0 3f bd 0f cb ff 3d b6 9d b2 3d 6c 7a 9c bc
       -0.046860415 0.12489902 0.08721487 -0.019101344
000100 52 df 86 bc 4a cb 3a 3e 00 8b 76 3d 02 87 92 3d
       -0.01646391 0.18241611 0.060191154 0.07154657
000110 80 80 a7 3d 7b 7d e4 bd f0 2c 67 3d 1c 15 2d 3e
       0.08178806 -0.11156746 0.05643934 0.16902584
000120 fa 99 49 bd b5 39 48 bd e1 22 19 be d9 5b 0f 3c
       -0.04921911 -0.04888316 -0.14954711 0.0087499255
000130 29 90 2a 3e 72 1e 06 bd a9 43 04 be c6 65 ed bd
       0.16656555 -0.03274388 -0.12916435 -0.11591677
000140 6f 4b 9a 3d 7d 11 25 3e 0b d7 93 be 4e b6 f6 bc
       0.07533919 0.16119952 -0.28875002 -0.030116227
000150 8a b9 64 bd 76 02 91 3e f4 db 9a bd d7 29 8a bd
       -0.055841006 0.2832219 -0.07561484 -0.067462616
000160 62 c8 33 bd 8c 3d e7 3d cc d0 6c 3d 53 ed d2 3d
       -0.04389227 0.11291036 0.05781631 0.10299172
000170 1a fa 09 3e 61 7b 3c bb 01 d1 a1 bd 2a 89 34 be
       0.13474312 -0.0028760063 -0.079011925 -0.17630449
000180 4e 00 1a 3d b6 d0 73 be 8a 39 34 3e c6 62 8d bd
       0.037597947 -0.23810086 0.17600074 -0.06903605
000190 e2 1f cf 3d 96 85 dc bc 78 c7 2f 3e fe 6a 59 be
       0.10113503 -0.026919167 0.17165935 -0.2123222
0001a0 af 6e 56 be b8 99 16 3e 76 15 cd 3d b5 71 49 bc
       -0.2094066 0.14707077 0.10013859 -0.012295176
0001b0 37 be 8c bd f3 90 77 bd d7 7a 0a 3e 84 20 05 3e
       -0.06872218 -0.06044097 0.13523422 0.13000685
0001c0 04 ae be bd 0c 32 fc 3d 14 c1 df bc 6c 00 37 3d
       -0.093105346 0.12314233 -0.027313747 0.044678137
0001d0 f1 ab 87 bd 0e 7d b7 3e 99 01 23 be 2a 76 33 3d
       -0.06624592 0.35837597 -0.15918578 0.043813862
0001e0 fb c2 bf bd 84 57 74 be 0b a3 e0 3d 56 65 fa b9
       -0.093633614 -0.2386151 0.10968598 -0.00047759217
0001f0 10 bc a2 3b 6c c7 93 bd 45 92 80 3d 53 72 9d bd
       0.0049662665 -0.07215771 0.06277899 -0.07687821
000200 e1 b5 d9 bc 1c 53 c3 bd b0 94 dc bd d3 1f 24 3e
       -0.026575984 -0.09537336 -0.107705474 0.16027765
000210 ab 60 64 bd 39 35 2c 3e f1 a0 c3 bc e1 f6 d1 3d
       -0.055756252 0.16817178 -0.023880454 0.102521665
000220 95 92 95 bc a5 97 82 3d ac 71 5c be 5b 8b 41 3e
       -0.018258372 0.0637658 -0.21527737 0.18900816
000230 cb 76 19 be 8e 09 c5 bd a2 4f 07 3e 1b a1 3c be
       -0.14986722 -0.09620963 0.13213971 -0.18420832
000240 9d a7 e0 bd b0 3f 73 bd 66 85 c4 bd db 65 de bd
       -0.1096947 -0.05938691 -0.09595756 -0.10859271
000250 a8 79 10 3e 35 db 1a 3e 20 f3 10 3e 10 95 96 be
       0.14108908 0.15122683 0.14155245 -0.294106
000260 bc 7e 1f bd 12 42 32 be ad fd 0d 3e e6 df 78 bd
       -0.038939223 -0.17408016 0.13866301 -0.0607604
000270 f3 f4 10 be f7 4f b4 bd 4f 84 98 3d 52 4a 50 be
       -0.1415594 -0.088043146 0.07447111 -0.20340851
000280 09 02 c6 bd 9a 23 c2 3d 4d 75 16 bd a5 2b 95 bd
       -0.09668357 0.09479447 -0.03673296 -0.07283715
000290 6c 0d 22 bd 6a 4e 6b 3d 47 01 0f bd 94 e3 2e be
       -0.03956358 0.05744783 -0.034913328 -0.17079002
0002a0 b4 b3 1f bd 26 eb 1f be e9 48 a4 3d 8d d4 8f 3d
       -0.038989738 -0.15617046 0.08021719 0.07022963
0002b0 f4 5e 06 bd 2b a1 c1 bd 37 df a9 3d 57 77 33 3d
       -0.032805398 -0.094545685 0.08294528 0.043814983
0002c0 8a af 05 be 37 db 19 3e 9e 81 8e be 1f e5 2c 3d
       -0.13055244 0.1502503 -0.27833265 0.042210694
0002d0 4a 58 0a 3d 04 4f 2b 3e a3 55 24 3e 2e ee 86 3e
       0.033775605 0.16729361 0.16048293 0.26353592
0002e0 35 a8 b4 bd e3 40 6a be 88 48 60 bd a5 de a5 bc
       -0.088211454 -0.22876315 -0.05475667 -0.020247767
0002f0 71 57 67 3d d4 39 3a bd 07 39 c0 bd 61 22 a5 bd
       0.056479875 -0.045465305 -0.09385877 -0.08063198
000300 4d 5c ae 3d d4 22 02 bd ca 94 87 3c 6b 6b 9d 3e
       0.08513699 -0.031771496 0.01655044 0.30746016
000310 55 8a 81 3e 56 fc 62 be a2 1e a7 bc 1f 1b 8b 3e
       0.2530085 -0.22166571 -0.020400349 0.2716913
000320 bf 67 4e be 3f 80 2f be 74 f2 9d 3e 53 29 63 bd
       -0.20156763 -0.17138766 0.3084904 -0.05545933
000330 d9 70 bf 3c 37 4b b8 bd 9a b0 08 3d 1f 41 96 3d
       0.02336924 -0.08998721 0.033371545 0.073366396
000340 da 2d 4a be 35 82 19 be 0b 9f 0b 3a 23 9f 41 bc
       -0.19744053 -0.14991076 0.00053261284 -0.011817726
000350 6a b8 f0 bc d4 a9 a6 bd 04 09 5a 3d 96 6d 0c 3e
       -0.02938481 -0.08137861 0.053231254 0.13713679
000360 f8 5e dc 3d 71 a9 04 3c 1c e9 28 3c 7f b4 61 be
       0.10760301 0.008097039 0.010309484 -0.2204151
000370 30 60 c5 bc 86 50 a2 3d c0 9a c5 bd b7 fb 4a 3d
       -0.024093717 0.07925515 -0.09648657 0.04955646
000380 3d d9 45 3d 15 27 cf 3c 4d 85 9b be 1d 92 2e 3e
       0.048302878 0.02528719 -0.30375138 0.17047925
000390 f7 64 a3 bd dc 1b 1d b8 e0 89 57 3d b9 7d 3d bd
       -0.07978242 -3.7457663e-05 0.052621722 -0.046262477
0003a0 0e 1f b2 3e 15 9c 90 be 11 42 a6 bd 7e af 93 bc
       0.34789318 -0.2824408 -0.0811807 -0.018028017
0003b0 6d 59 f8 3d a3 6c 45 3e 24 9c 89 3e b7 ed e3 bc
       0.121264316 0.19279723 0.26876938 -0.027823312
0003c0 93 2a d1 bd 9f 8c 2d be b6 84 35 3e 5b 0f 6d 3d
       -0.102131985 -0.16948174 0.17726406 0.057875972
0003d0 dd 2e 5f be fd e8 ff 3d 07 1a a8 bd d6 7b b6 bd
       -0.2179522 0.12495611 -0.08208089 -0.089103386
0003e0 11 57 7d 3e 40 4a 11 be 39 e6 bb 3d 8e 57 13 be
       0.24740244 -0.1418848 0.09174771 -0.14388868
0003f0 8b 24 8b bc 79 f6 12 bc 8d f4 80 3d 96 e8 6b be
       -0.016985198 -0.0089698965 0.06296644 -0.23037943

conv4.bias f4 [32]
000000 f4 99 9f be 70 78 2d be c2 7f 52 bd dc ce e2 bd
       -0.31172144 -0.16940475 -0.05139137 -0.110746115
000010 4a 89 00 bf 70 d3 90 be 42 ee 40 be 8d 06 29 be
       -0.50209486 -0.28286314 -0.18840888 -0.16506405
000020 eb d4 81 bd f9 68 88 be 9c 78 d5 bd f7 ec 61 be
       -0.06339439 -0.26642588 -0.10423395 -0.22063051
000030 0c ac 7c be 43 d5 f0 bd d9 59 67 be aa 65 97 be
       -0.24675006 -0.117594264 -0.22592868 -0.2956975
000040 2d 67 78 be 75 bf 65 be 9d c0 66 be 50 49 95 bd
       -0.24258108 -0.22436316 -0.22534414 -0.07289374
000050 a7 26 a1 bd 26 95 db bd 1e 00 67 be f8 58 8a be
       -0.078687005 -0.10721807 -0.22558638 -0.27021003
000060 1d 69 c4 bd 55 22 8e be 9c 74 82 be 35 b3 00 bf
       -0.09590361 -0.27760568 -0.2547959 -0.5027345
000070 0c d4 a4 bd 8a 31 b5 bc 9e 66 18 be 5a e9 a9 be
       -0.08048257 -0.022118349 -0.14882895 -0.33185846

linear.weight f4 [32, 800]
000000 c8 cb 27 bd 32 c0 ce 3d 3c 98 43 bd 0d 8e a1 bd
       -0.040965825 0.10095252 -0.047752604 -0.07888422
000010 f1 d9 1f bb 92 94 97 be 74 ed ff 3b 3e 97 1d bc
       -0.0024391378 -0.29605538 0.007810289 -0.0096185785
000020 c1 a5 c7 bb 56 ae 81 3d 35 a5 01 3e dd b7 f0 bc
       -0.0060927575 0.0633208 0.12660678 -0.029384548
000030 3b bf c7 bd c4 f4 a4 bb 98 b6 c4 3d 9a 9d 25 3e
       -0.09753271 -0.005034061 0.096051395 0.16173401
000040 43 86 0a 3e 76 c9 36 bd 20 89 8a 34 f4 94 bd bd
       0.1352778 -0.044625722 2.5804275e-07 -0.09256926
000050 13 f8 01 bd fb 4e 62 bc f4 52 41 bd 70 1d db bc
       -0.031730723 -0.013812776 -0.04719825 -0.026747435
000060 68 d7 d1 bc 60 34 35 3e 76 cc 78 bd ba 0b 26 3d
       -0.025615409 0.1769576 -0.060741864 0.040538527
000070 3a b7 5b bd b5 b4 2c 3d ba 45 94 be 9a c6 c7 3c
       -0.053641535 0.042164523 -0.28959447 0.024386693
000080 5a de 40 bd 6e c5 86 bd 56 bf 31 3e 5d a6 2c 3e
       -0.04708705 -0.065806255 0.17358145 0.16860338
000090 ed 8e 83 3c ca 1b bf bd 84 2e 15 bc 51 92 00 3c
       0.016059363 -0.09331472 -0.0091053285 0.007847385
0000a0 18 53 94 3d 07 72 b0 be 10 f1 00 bd 03 85 51 bd
       0.072424114 -0.34461996 -0.031479895 -0.05115224
0000b0 23 41 0d 3e 48 11 bc bd d7 05 b4 bc 3b e3 18 3d
       0.13794379 -0.09182984 -0.02197544 0.03732608
0000c0 75 b8 93 3c f3 71 91 3b f6 96 04 be 77 86 9e bd
       0.018032292 0.0044386326 -0.12948212 -0.07740491
0000d0 a2 95 37 3c 74 8e 53 bd b2 c1 24 3d e7 55 65 3e
       0.011205109 -0.051649526 0.040223785 0.2239605
0000e0 18 18 d0 bc 54 fa 22 bd ec a9 3a 3d 4d 69 22 bd
       -0.025402114 -0.039789513 0.045572206 -0.039651204
0000f0 1f 7a 13 bc e0 9c 59 3d 48 eb 96 ba 48 40 81 bc
       -0.009001284 0.053128123 -0.0011514211 -0.015777722
000100 d7 5b 0c bd d2 e4 f7 bc bd 57 16 38 0e 9e 65 3d
       -0.034267273 -0.030260477 3.58445e-05 0.056058936
000110 2c a9 28 bd 64 c8 49 bd 7e 1b 95 bd cd 74 61 bb
       -0.04117696 -0.049263373 -0.07280634 -0.0034401894
000120 21 46 a9 3c de 30 53 bc 40 5c 00 3d 2e 90 35 3e
       0.020663323 -0.012890069 0.031337976 0.17730781
000130 6a 6b 5c bd 60 91 ec 3d 1c 57 c8 3c 4b 04 10 be
       -0.053813376 0.115511656 0.0244556 -0.14064138
000140 c5 53 69 be df 03 99 3d b1 7e f1 bc 92 4e cd bd
       -0.22785862 0.074714415 -0.029479356 -0.10024752
000150 6a 31 3c 3d b4 c2 59 bc 3d 0b a5 3a 48 01 91 bc
       0.045945562 -0.01329105 0.001259185 -0.017700806
000160 11 ca af 3d 99 20 4a bd 2e 68 e4 3d eb 56 07 be
       0.08583463 -0.049347494 0.11152683 -0.1321675
000170 23 70 d5 3d ad 0a a1 3d 50 64 9a 3d f5 6e 36 3d
       0.10421779 0.07863364 0.07538664 0.04453941
000180 58 3b 08 3b be 89 b9 bb 75 5e b3 bc 69 15 0e bd
       0.0020787325 -0.005662172 -0.021895627 -0.034688387
000190 be ca 8d be 72 ae 3f 3e c4 86 8f bd 3e 66 26 3d
       -0.27693743 0.1871889 -0.070081264 0.04062485
0001a0 ff de e4 3c ff 20 7a be 66 c5 70 3e 21 97 0c 3e
       0.027938364 -0.2442665 0.23512802 0.13729526
0001b0 b2 9c 0d 3e 1d 07 5a 3d 77 4d 89 be c0 ab af 3e
       0.13829306 0.05322944 -0.26816913 0.34310722
0001c0 90 3d 1a 3e a6 ee be 3d 36 bc 28 3e cd 3a 90 be
       0.15062547 0.09322862 0.16478047 -0.2816986
0001d0 c0 70 85 be d6 81 6f be 91 7f 6f be d1 b9 ad be
       -0.26062584 -0.23389372 -0.23388506 -0.3393083
0001e0 a9 82 9a be 87 9b b7 be 95 e7 a5 be f1 b8 b3 be
       -0.3017781 -0.35860845 -0.32403246 -0.35102037
0001f0 8d 1c bf be 2e f5 89 bc c4 20 8b bc 86 d9 4e 3d
       -0.3732647 -0.016840544 -0.016983397 0.050500415
000200 d7 ef 44 bd 23 49 a1 3d 06 e1 8f bc ab 51 51 3e
       -0.04808029 0.07875278 -0.017563354 0.2044131
000210 67 52 0b 3d 7d 69 12 bd e5 86 c0 3c 24 87 cf bb
       0.034014132 -0.035745133 0.023501823 -0.0063332487
000220 f7 8c c9 be ec 61 d0 39 08 bf 6e 3d bc 4d e0 3d
       -0.3936536 0.0003974581 0.05828765 0.10952327
000230 d2 1e d5 bd 92 90 68 bd 8f 8b 6e bd b2 6b 2e be
       -0.10406269 -0.056778498 -0.058238562 -0.1703327
000240 f2 17 be bd 4d 89 00 bd 8c 38 a1 3d c3 3c 2e 3d
       -0.09281911 -0.03138094 0.078721136 0.042538416
000250 76 d4 ff 3c 61 42 bc 3d 01 2c 25 be da 22 3e 3d
       0.031229239 0.09192348 -0.16130067 0.046419956
000260 50 98 20 be 77 2f 0e bd bd 00 43 3e 19 42 29 3e
       -0.15683103 -0.034713235 0.1904325 0.1652912
000270 e7 c8 1a 3e 75 fc 20 be cb 95 c8 bd fe 3a e1 3d
       0.151157 -0.15721305 -0.09794196 0.1099758
000280 6b 2d 1c be 6d 2b ce 3d b3 86 4f bd bf 10 b1 bc
       -0.152517 0.100668766 -0.05066557 -0.02161443
000290 fb 21 97 bd 79 26 0a bd 66 dc 1d 3d c5 04 80 bd
       -0.07379528 -0.033728097 0.038540266 -0.0625091
0002a0 72 f5 92 3d 8e ab 64 bd 47 5a d8 3d be 9c c8 bc
       0.07175721 -0.05582767 0.10564094 -0.024488803
0002b0 98 27 cf bc 12 eb 9e bd 14 57 67 bd 25 cd 76 3e
       -0.025287434 -0.0775968 -0.05647953 0.24101694
0002c0 9f fa 38 be 54 c6 2d 3d 8a 98 ce 3c 75 5c 36 bd
       -0.18064354 0.04242547 0.02521922 -0.044521768
0002d0 b5 c0 69 be 90 ab 80 3d 7c cf 20 3c 44 58 a3 bc
       -0.22827418 0.06282723 0.009815093 -0.01993955
0002e0 54 e1 23 3d ef 05 92 3b 6d 8b 03 3b 95 50 08 bd
       0.04000981 0.0044562737 0.0020072118 -0.033279974
0002f0 74 be 45 bb 9d a9 ae 3d d0 97 97 bd fa ba 86 3d
       -0.0030173333 0.08528445 -0.07402003 0.06578632
000300 78 38 80 3c 1d b8 e6 3c 04 a6 1d be be b8 7f bc
       0.015651926 0.028163964 -0.15395361 -0.015608011
000310 89 6e e3 3c dc 25 fe b9 15 2d c1 bb 7a 5e f7 3c
       0.027762668 -0.00048474863 -0.005895267 0.030196417
000320 ff 31 9f bd 77 34 b0 3c 83 5a 65 bd c9 03 4b 3d
       -0.07773208 0.021509392 -0.05599452 0.049564157
000330 a2 39 3a 3c 2f 12 65 3d cf 9f 06 3d 0b f8 3f bd
       0.01136628 0.055925544 0.03286725 -0.04686741
000340 e0 6b 49 bd ea cf ae 3d 23 16 78 3d 5e 90 5d 3c
       -0.049175143 0.0853575 0.060567986 0.013523189
000350 27 ae 9b bd 7d a5 a2 bc 3d 06 e1 3d 9c cd 87 3c
       -0.07601576 -0.019854302 0.10987518 0.016577534
000360 18 87 f4 bc 99 ce be 3d 7a 1f 83 bd d7 da e4 bd
       -0.029849574 0.09316749 -0.06402488 -0.11174553
000370 ad af 75 3d 8a 4a 1b bd 2d 6e ad bb 53 80 2d bd
       0.05998199 -0.037912883 -0.005292675 -0.042358708
000380 e9 94 19 bc 88 d4 9c 3d d0 2a ee 3d 98 0a 02 be
       -0.009373882 0.076577246 0.116292596 -0.12699354
000390 15 f9 f6 bd bf f4 be 3d 6b c7 6c be 14 22 99 ba
       -0.120592274 0.09324025 -0.23122947 -0.001168313
0003a0 1d 51 05 bd d9 58 e2 bd 27 f2 c2 bc 5a e8 54 3d
       -0.03254806 -0.110521026 -0.023797108 0.0519794
0003b0 18 4f 72 3e 78 39 91 bc b8 29 b1 3c 9f 3d 22 bc
       0.23662984 -0.017727599 0.021626338 -0.009902387
0003c0 91 c0 bc 3d 52 fa 0e be 80 a9 d2 bd 9c 1d e3 bc
       0.092164166 -0.13962677 -0.10286236 -0.02772408
0003d0 06 56 66 3c 38 f4 cd 3c 9f d5 c0 bc be 9e 32 bd
       0.0140585955 0.025140867 -0.023539362 -0.04360842
0003e0 f4 e2 80 b7 6e 85 ac bc 14 1c d5 bc 31 a6 be bd
       -1.5364472e-05 -0.021059718 -0.026014365 -0.09309042
0003f0 fe b1 44 3d b4 0b b7 bc ac 68 9d 3c 18 f8 9a 3b
       0.04802131 -0.022344448 0.01921495 0.004729282

linear.bias f4 [32]
000000 d3 13 03 3f 8f 9d a7 be b1 e4 ce be c6 a1 3d bc
       0.51202124 -0.32737395 -0.40408853 -0.011574214
000010 da bd 2b bd 92 75 a5 3d 26 69 4a be b2 35 c3 3d
       -0.041929103 0.080790654 -0.19766673 0.09531726
000020 ac d8 8b 3c 75 2e 43 bd 54 64 2e bc 80 05 8a be
       0.01707109 -0.047651727 -0.010644037 -0.2695732
000030 80 64 73 bd 8b 48 23 3e 13 b1 82 be 67 5b a7 3d
       -0.059422016 0.15945642 -0.25525722 0.081717305
000040 19 e4 94 bd 73 3d 39 3e e4 08 2f 3d c1 4b 02 bf
       -0.07270069 0.18089847 0.042733088 -0.5089684
000050 cc d6 2f 3d bc e4 84 3c dc 3c 9e 3a bb 32 be bd
       0.042929456 0.01622235 0.0012072581 -0.0928702
000060 d0 f4 d7 bd 30 f0 59 3d b5 35 9a bc f1 9b 83 3e
       -0.10544741 0.053207576 -0.018824438 0.2570491
000070 02 8d 14 3d 3d 9c ce 3c 84 8e 66 be 3d 23 ac bc
       0.036267288 0.025220985 -0.22515303 -0.021012897

critic_linear.weight f4 [1, 32]
000000 4b cf f0 3d 2e 78 86 bb ab 3d d1 bd 10 30 be bb
       0.11758288 -0.004103682 -0.1021684 -0.0058040693
000010 b4 5b 12 3a 19 3a 3b 38 c6 9c f9 ba 2d 88 ca 3a
       0.0005583123 4.4638382e-05 -0.0019043915 0.001545196
000020 41 a1 04 3b 3b af ee 39 d1 be 00 bb 7b a5 d1 39
       0.0020237716 0.00045525454 -0.0019644985 0.0003998688
000030 d7 05 60 ba 09 09 e5 3b 83 e1 04 bc ce 46 da ba
       -0.0008545792 0.0069896025 -0.008110407 -0.0016653182
000040 be f8 9f 39 53 af 0e bb c5 37 11 bb 83 ad 20 be
       0.0003051217 -0.0021771982 -0.0022158485 -0.1569119
000050 20 7f fd bb 7f 05 e0 ba 8d e5 96 bb 26 bc 21 bb
       -0.0077361017 -0.0017091482 -0.0046050013 -0.0024678796
000060 d6 58 ca bb 42 9f 96 bb a1 c0 1b bb cf f6 1e 3c
       -0.006175141 -0.0045966217 -0.0023765939 0.009702398
000070 a1 89 91 3b ba 17 40 ba c6 96 ea 3a 7e dd 62 3b
       0.0044414555 -0.0007327754 0.0017897717 0.0034616883

actor_linear.weight f4 [6, 32]
000000 8f 83 68 3e 8e e1 61 be 99 03 b2 be 4d 32 8b bc
       0.22706436 -0.22058699 -0.3476837 -0.016991759
000010 58 ef 38 bc 9b 08 ad 3d 91 fb c4 bd c5 ba 84 3d
       -0.011287533 0.08448907 -0.09618295 0.06480936
000020 fe bc 20 bd 25 aa 63 bc 67 72 0a 3d be 3f f0 bd
       -0.039242737 -0.013895546 0.03380051 -0.11730908
000030 65 d4 4e 3c 33 2d 4d 3e 71 1d 8d be aa 8c b9 3d
       0.012623881 0.20036773 -0.27561525 0.09060033
000040 58 1c 18 be 01 3f d3 3d db f5 f8 3c c5 68 af be
       -0.14854562 0.103147514 0.03039067 -0.3425962
000050 e0 7f 91 bb ef 31 5a bd c4 60 e1 3c ca e8 1b 3e
       -0.0044402927 -0.053270277 0.027511962 0.1522552
000060 3a 71 90 3c 5e 55 9f 3d 53 16 22 3e 57 b1 63 3e
       0.017632116 0.077799544 0.15828829 0.22235619
000070 c8 65 23 3d 3d 5f 71 bd 8c ef 25 be cc 56 ad bc
       0.039891988 -0.058928717 -0.16204661 -0.021159552
000080 63 99 95 3e c6 f7 71 be 4f 97 8f be 4d dd 03 3d
       0.29218587 -0.23629674 -0.28045127 0.03219347
000090 fc 34 30 3c 70 46 cc 3d 3d aa 8c bd 65 a1 6a 3d
       0.01075482 0.099743724 -0.06868408 0.057282824
0000a0 fb 44 4c 3c 9f b3 c1 bc 15 4f e8 bc d0 e1 b6 bd
       0.012467618 -0.02364522 -0.028358022 -0.08929789
0000b0 be 31 92 3c 52 04 41 3e 3f 7a b4 be b7 59 03 3e
       0.017845985 0.18849304 -0.35249516 0.12827192
0000c0 f2 71 15 be 7d d0 bb 3d 12 4f 43 3d ae f4 b2 be
       -0.14594248 0.09170625 0.04768283 -0.349523
0000d0 c0 0b 31 3d 89 e6 9a 3c 66 64 3d 3c e8 a4 c4 3d
       0.043224096 0.018908756 0.011559581 0.09601766
0000e0 6c 54 c2 bb 93 5f 9f 3d c9 e9 29 3e 0e 05 83 3e
       -0.005930474 0.07781901 0.16593088 0.25589794
0000f0 17 2b 7a 3c e3 8b 81 bc a5 3f 05 be d1 9d 9c 3c
       0.0152690625 -0.015813773 -0.1301256 0.019118221
000100 a1 35 47 3e 7a 64 7d be 5b a9 d4 be 8c 74 34 3d
       0.19454052 -0.2474536 -0.41535458 0.04405646
000110 ce 43 3e 3c a9 b3 d9 3d d3 11 fd bd ab 89 81 3d
       0.011612846 0.106299706 -0.12356915 0.06325086
000120 2c 4e e7 3c 41 7c c6 ba db ef 06 3c 86 be c1 bd
       0.028235517 -0.0015143232 0.008235897 -0.094601676
000130 6a 00 f7 bb 55 83 3c 3e 29 5a 49 be 97 a2 04 3e
       -0.007537891 0.18409474 -0.196633 0.12952648
000140 bf 03 43 be 82 25 e1 3d 2c c1 bc 3d f6 5a 94 be
       -0.19044398 0.10993482 0.09216532 -0.28975648
000150 3f ca 95 3d 94 45 34 3c 5b 3a 00 bc 13 ba 2d 3d
       0.07313966 0.011002917 -0.007826413 0.042413782
000160 b4 e7 1d bc eb 11 99 3d b6 30 85 3d 74 f7 24 3e
       -0.009637762 0.07474121 0.065034315 0.16110021
000170 6c 12 bc 3c 15 f0 63 bc f4 6d 1e be 4d b6 8f bc
       0.022958003 -0.0139122205 -0.15471631 -0.017542982
000180 d3 42 99 3e 9a 15 45 be f5 fb be be a1 f2 6e 3d
       0.29933795 -0.19246522 -0.37301603 0.058336858
000190 95 d1 93 bc ce 62 c3 3d 4f a0 d0 bd 2e 95 c1 3d
       -0.018044272 0.0954033 -0.101868264 0.09452282
0001a0 8c e9 8c 3c 79 e9 49 bd e5 7d e2 bc 30 d4 12 be
       0.017201208 -0.049294923 -0.027647922 -0.14338756
0001b0 7a 6d 71 3c f1 54 39 3e 3c 92 49 be 44 14 08 3e
       0.014735574 0.18098809 -0.1968469 0.1328898
0001c0 66 33 3c be 76 26 df 3d 89 e2 80 3d 07 02 6a be
       -0.18378982 0.10896008 0.06293208 -0.22852336
0001d0 1b 3c 45 3d f9 18 08 3c 15 81 ef bb b5 e8 3b 3e
       0.048153024 0.008306735 -0.007309089 0.1835049
0001e0 a7 d9 ec bb 95 f6 a4 3d 73 5f 3a 3e 64 99 9f 3e
       -0.0072280946 0.08054844 0.18200473 0.31171715
0001f0 b3 07 12 3d 1c c5 0b bd 43 bf 1c be 69 af 53 bb
       0.035651874 -0.034123525 -0.15307336 -0.0032300598
000200 78 b6 a2 3e 49 db 6a be 36 be c0 be 34 94 9f 3c
       0.31779838 -0.22935213 -0.3764512 0.019479848
000210 b3 8f 7f bc 4b 18 d4 3d 14 0b 98 bd e0 09 88 3d
       -0.015598225 0.10356196 -0.07423988 0.066425085
000220 10 8e 21 3c d5 c0 1c bd 77 7c b1 bc 4b 90 27 be
       0.0098605305 -0.038269836 -0.021665795 -0.16363637
000230 84 b4 8a 3c 4d 38 30 3e cc 93 88 be 13 42 0c 3e
       0.01693178 0.17208977 -0.2667526 0.1369708
000240 2d 06 28 be 46 2d e9 3d ab 43 12 3d 4f 04 9c be
       -0.16408606 0.11385588 0.035709064 -0.30472037
000250 2a 2c dd 3c d4 18 93 bb 98 9d b6 3b 58 10 78 bc
       0.026998598 -0.0044890437 0.005572986 -0.015140615
000260 28 42 80 bc fa e2 8d 3d 33 5c 94 3d 88 3f 01 3e
       -0.015656546 0.06928058 0.07244148 0.12621891
000270 8e 36 a1 3c 2e c6 81 bc fb 05 0a be fa a8 13 bb
       0.019679334 -0.01584157 -0.13478844 -0.0022531138
000280 87 58 b9 3e 25 4c 76 be 0a 1c 58 be 51 d1 c4 bb
       0.36200354 -0.24052484 -0.21104446 -0.006006398
000290 b4 c0 57 3c 6b 92 b4 3d 29 c2 a1 bd e1 00 38 3d
       0.013168503 0.088169895 -0.07898361 0.044922713
0002a0 d6 e0 af ba 33 ad 01 bd 3d 80 24 3c 13 0e 1b be
       -0.0013418447 -0.031659316 0.01004034 -0.15142088
0002b0 90 1a b8 3c 6e 28 23 3e a6 a0 50 be 7e 41 f6 3d
       0.022473603 0.15933391 -0.20373783 0.120242104
0002c0 89 5c 22 be c0 a4 04 3e f1 96 18 3d 0c 67 ab be
       -0.15855612 0.12953472 0.037253324 -0.33477056
0002d0 cc 49 96 3c 26 d6 4d bd da bb 00 3d 9e 6e e0 3d
       0.018345736 -0.050253056 0.03142915 0.109585986
0002e0 e9 62 49 3c 12 2e 8c 3d 2b 2e 31 3e 72 7d ad 3e
       0.012291648 0.06844725 0.17302768 0.3388477
0002f0 53 c1 05 3c 7c dc 85 bc e4 2a 25 be 54 29 aa 3a
       0.008163768 -0.016340487 -0.16129643 0.0012982287

actor_linear.bias f4 [6]
000000 f2 a1 9c 3c be 32 95 3e eb 88 68 3e a6 fb 09 3e
       0.01912019 0.29140276 0.2270848 0.13474903
000010 4a f5 4e 3e 66 f9 86 3e
       0.20210758 0.2636215
