spaceinvaders-v0-bottom-7fskip_latent32/model.52.tar (torch, 223035 bytes, 13 tensors)

conv1.weight f4 [32, 4, 3, 3]
0.00677268 -0.06734587 -0.01460312 -0.06771298 -0.36922395 0.056003775 0.12014215 0.086881585
-0.00024130267 -0.056065742 0.15685423 0.0194643 -0.004844229 0.052947536 -0.06687109 0.07911441
0.119742654 -0.0036277468 0.04089462 0.11264415 -0.0655626 -0.07162722 -0.015093773 -0.112254456
0.12765762 0.018480368 0.13122901 0.1632435 -0.32469887 0.04169085 0.093974665 0.35790843
0.15077877 -0.3313938 -0.115758754 -0.21958938 0.004490435 -0.08003592 0.17110842 -0.09816923
0.15015839 0.05589678 0.20948373 -0.07483413 -0.19533785 0.029003592 -0.064816155 -0.050489735
-0.060646173 0.049917936 -0.08160646 -0.04166291 0.086759634 0.04976218 -0.013796569 0.18710795
-0.03948288 -0.13122088 0.0856275 0.10635441 0.013078209 0.040636644 0.03516671 0.36409116
-0.29443148 -0.12708011 0.054664806 -0.19092546 -0.018590365 -0.32601553 0.2746689 -0.095408626
0.07134819 -0.03075078 0.21461214 -0.07974585 0.05969029 0.16212547 -0.2292877 -0.056072254
-0.07485802 -0.17343292 0.023745738 0.004251749 -0.013722108 -0.13839386 -0.11037329 0.078139514
-0.111006215 0.20824067 0.07093486 -0.059341308 0.1729541 0.060115103 -0.1350362 -0.040549304
0.15757284 0.07675464 -0.12375593 -0.10099989 0.1675538 -0.1528334 0.07302444 -0.10258959
-0.29008317 -0.05955574 0.28923947 0.03284848 0.18697838 0.11379415 -0.02216566 0.15503691
0.2700362 -0.057671443 0.13222702 0.38005075 0.08842237 0.059640087 -0.22172911 -0.1543399
-0.12250697 -0.036575012 0.14641607 -0.015143854 0.07144376 -0.141851 -0.050769664 -0.036992
0.10880289 0.16380471 -0.2076192 0.03901737 0.16788527 0.11143804 0.09567163 0.103125915
0.048062775 0.16819777 -0.20106071 -0.59458315 -0.21009853 -0.033531416 -0.23038276 0.024904327
-0.09833169 -0.122443184 0.15964007 0.09066762 0.07700683 0.026974514 -0.009769352 0.32406008
-0.07019634 -0.07251951 -0.11949968 -0.1602236 -0.11576184 -0.08180321 0.02957363 -0.06022777
-0.06518596 0.03065759 -0.04985505 0.109659545 -0.0902367 -0.03225419 -0.19878195 -0.13520235
-0.1299301 -0.17335893 -0.11832295 0.23638922 0.08641449 -0.09813804 0.18533799 0.2754838
0.21920554 0.010038387 -0.14349802 0.30085462 -0.15675095 -0.15863311 -0.19287795 -0.18225032
-0.38807866 0.0062035285 -0.27313393 -0.37059546 -0.15895425 -0.05422885 0.05065459 -0.049997322
-0.14909498 -0.05425802 0.05285862 -0.14385028 0.049721796 0.046782125 0.19405003 -0.05823177
0.08584842 -0.16006412 0.120183975 -0.09827046 0.115681514 0.07661709 -0.07831697 0.1804861
0.30338043 0.25629908 0.014539683 0.16150151 -0.08647075 0.24193223 0.3476446 0.25020617
0.3041689 0.006820327 0.03696235 0.28993577 0.08384898 0.2354743 -0.27698612 -0.32786533
0.039049987 -0.0147302365 -0.021431664 0.22005989 0.1587221 0.10035941 0.0095953485 -0.1512163
0.032729536 -0.07700921 0.011606452 -0.06727187 0.045456696 0.14105397 0.073495984 -0.046367217
-0.14220628 0.025514083 0.07038076 -0.11969278 -0.35142484 -0.056999218 -0.1882061 -0.33322135
-0.1511423 0.23359771 0.35722348 0.024895445 -0.07938753 -0.01641228 -0.09568296 -0.34971672
00000000: 5ced dd3b a2ec 89bd ed41 6fbc 1aad 8abd
00000010: ec0a bdbe 3764 653d 160d f63d f9ee b13d
00000020: 3106 7db9 31a5 65bd 659e 203e 9873 9f3c
00000030: 57bc 9ebb 84df 583d b6f3 88bd bc06 a23d
00000040: a33b f53d 7ebf 6dbb 1e81 273d fab1 e63d
00000050: af45 86bd 4bb1 92bd df4b 77bc aae5 e5bd
00000060: aeb8 023e 2464 973c e660 063e 4e29 273e
00000070: ee3e a6be 06c4 2a3d ca75 c03d c63f b73e
00000080: c065 1a3e 73ac a9be ed12 edbd 0adc 60be
00000090: 8024 933b dfe9 a3bd 0c37 2f3e f30c c9bd
000000a0: 1fc3 193e 06f4 643d e782 563e a342 99bd
000000b0: a506 48be f198 ed3c 55be 84bd 53ce 4ebd
000000c0: 1f68 78bd c076 4c3d 4a21 a7bd baa6 2abd
000000d0: 09af b13d 6dd3 4b3d 010b 62bc 3a99 3f3e
000000e0: cdb8 21bd c45e 06be 795d af3d 57d0 d93d
000000f0: fc45 563c 9c72 263d f80a 103d 286a ba3e
00000100: b9bf 96be 4a21 02be 34e8 5f3d f781 43be
00000110: d24a 98bc 82eb a6be 67a1 8c3e 9965 c3bd
00000120: 001f 923d 0fe9 fbbc 49c3 5b3e cb51 a3bd
00000130: ce7d 743d 3804 263e 65ca 6abe 05ac 65bd
00000140: 294f 99bd 6698 31be 6c86 c23c 4152 8b3b
00000150: b1d2 60bc 1fb7 0dbe 640b e2bd 9c07 a03d
00000160: 3a57 e3bd 0b3d 553e 4c46 913d df0f 73bd
00000170: e11a 313e 413b 763d ee46 0abe 0717 26bd
00000180: c65a 213e 8931 9d3d c073 fdbd 08d9 cebd
00000190: 3993 2b3e 5c80 1cbe d68d 953d 7e1a d2bd
000001a0: c885 94be b8f0 73bd 3217 943e 218c 063d
000001b0: 4377 3f3e e80c e93d c294 b5bc ffc1 1e3e
000001c0: 2f42 8a3e e438 6cbd 8566 073e 0396 c23e
000001d0: ca16 b53d 2a49 743d f50c 63be 470b 1ebe
000001e0: efe4 fabd aecf 15bd 18ee 153e ed1d 78bc
000001f0: 1b51 923d 6341 11be daf3 4fbd ec84 17bd
00000200: 0dd4 de3d 6cbc 273e 219a 54be aed0 1f3d
00000210: 1eea 2b3e a139 e43d 7def c33d ae33 d33d
00000220: 79dd 443d 093c 2c3e dce2 4dbe 9a36 18bf
00000230: 1224 57be 3d58 09bd 75e9 6bbe 2904 cc3c
00000240: 2062 c9bd 7ec3 fabd b078 233e f2af b93d
00000250: c2b5 9d3d a8f9 dc3c a20f 20bc 34eb a53e
00000260: 19c3 8fbd 1c85 94bd 40bc f4bd a811 24be
00000270: 8b14 edbd 7188 a7bd 6644 f23c 65b1 76bd
00000280: 3780 85bd a025 fb3c cf34 4cbd 2f95 e03d
00000290: 05ce b8bd f81c 04bd 7f8d 4bbe 7c72 0abe
000002a0: 650c 05be 0185 31be 4e53 f2bd 0410 723e
000002b0: 15fa b03d 99fc c8bd 3ec9 3d3e 360c 8d3e
000002c0: 6b77 603e 0c78 243c 25f1 12be 9e09 9a3e
000002d0: 5283 20be b870 22be cc81 45be d49f 3abe
000002e0: 3fb2 c6be f846 cb3b 36d8 8bbe b0be bdbe
000002f0: e7c4 22be 121f 5ebd 307b 4f3d fec9 4cbd
00000300: 5bac 18be a83d 5ebd 4882 583d 7d4d 13be
00000310: 15a9 4b3d 9d9e 3f3d 0db5 463e 7084 6ebd
00000320: 4cd1 af3d d9e7 23be 0423 f63d 0642 c9bd
00000330: 6eea ec3d 6ce9 9c3d a664 a0bd 59d1 383e
00000340: ae54 9b3e a239 833e da37 6e3c a760 253e
00000350: 9417 b1bd 15bd 773e 79fe b13e 061b 803e
00000360: 07bc 9b3e 0d7d df3b d565 173d 7672 943e
00000370: 04b9 ab3d 2d20 713e 20d1 8dbe f7dd a7be
00000380: e1f2 1f3d 1757 71bc 7591 afbc 6157 613e
00000390: 0c88 223e 3c89 cd3d cf35 1d3c 72d8 1abe
000003a0: 680f 063d 01b7 9dbd fd28 3e3c d6c5 89bd
000003b0: cd30 3a3d 7470 103e 1085 963d 8deb 3dbd
000003c0: 869e 11be e902 d13c ca23 903d 7d21 f5bd
000003d0: f5ed b3be 0378 69bd 1ab9 40be fd9b aabe
000003e0: 0cc5 1abe 3d34 6f3e ffe5 b63e 88f1 cb3c
000003f0: ee95 a2bd 0c73 86bc 6df5 c3bd 120e b3be

conv1.bias f4 [32]
-0.0018782357 0.0011885124 0.004379326 -0.01320432 0.0045064357 0.01569862 -0.0050018164 -0.009067401
0.0051337923 0.005704944 0.00866919 0.002237448 0.0066599003 0.003989864 -0.0063461736 0.09735865
-0.00078352704 0.00024608627 0.07001559 0.0018752229 0.0027496358 -0.0102617415 -0.00086886296 -0.004192746
-0.007766024 0.0041165915 -0.0010789263 -0.009032496 -0.0026543324 -0.010831758 0.0044840104 0.0032926954
00000000: 222f f6ba dcc7 9b3a 7380 8f3b ef56 58bc
00000010: b9aa 933b 649a 803c 47e6 a3bb 708f 14bc
00000020: 5f39 a83b 8af0 ba3b 3809 0e3c 26a2 123b
00000030: 4b3b da3b 68bd 823b 90f3 cfbb f963 c73d
00000040: 9c65 4dba 2405 8139 5564 8f3d 0aca f53a
00000050: 3c33 343b dd20 28bc 68c4 63ba 4d63 89bb
00000060: 227a febb 79e4 863b c26a 8dba 09fd 13bc
00000070: 4ff4 2dbb b077 31bc 9bee 923b 43ca 573b

conv2.weight f4 [32, 32, 3, 3]
-0.14434184 -0.10762065 0.22457363 0.2174954 0.37022924 -0.051072452 -0.11795348 -0.1851078
0.07849059 0.105632044 -0.25647202 0.03707163 0.11388276 0.25503784 -0.012209338 0.090149425
-0.1498609 0.039707765 0.070474565 -0.12940128 -0.096559785 -0.04951114 -0.03838493 0.12265988
-0.03967464 0.09310627 0.005789532 -0.022993213 -0.10448932 -0.010013153 -0.18435626 -0.310378
0.053456623 -0.08152027 0.05875894 0.049719892 0.003908445 -0.02147132 0.09981019 0.13224916
0.19162805 -0.085172944 -0.035179064 -0.1922584 -0.030392924 0.17395717 -0.08276936 -0.24359445
0.037421435 -0.09022819 -0.07843394 0.038071193 0.08976323 0.15421933 0.14805312 0.076338485
-0.19971049 -0.1966251 0.04644177 0.10373369 -0.0495956 -0.06788742 -0.23398474 -0.13402449
-0.03269762 -0.035369515 0.21534294 0.17951341 -0.2035887 -0.048921373 -0.02028385 0.20381966
-0.09408707 0.19909449 0.15122344 0.11485437 0.11305503 0.01557134 -0.25358552 -0.18974197
-0.0017858021 0.088720515 -0.09567313 -0.018727835 0.018469056 0.12007734 -0.03779749 -0.06247919
0.25560576 0.078193456 -0.06381353 -0.012826673 0.0032511682 0.20591119 0.4582722 -0.18135622
0.06799736 -0.050901648 -0.046096273 0.10419913 0.033983957 0.018480312 0.14352845 0.028790578
0.029855706 -0.10913538 -0.20515792 -0.27784008 -0.122726 0.006734058 0.05521052 0.30638894
0.20114638 -0.0868536 -0.03405246 -0.30802256 -0.0063216165 -0.07877524 0.052635368 0.311004
0.16816996 0.02512144 -0.06867721 0.13793859 -0.29528508 0.073076256 0.09250526 -0.045266528
-0.15768261 0.14933482 -0.072386496 0.06927175 -0.018312344 -0.13978073 -0.122304656 -0.026457386
-0.06874409 -0.09303441 0.025819179 0.14974342 0.17462552 -0.015164871 -0.063213475 -0.07981549
-0.06740153 -0.11580678 -0.09980677 0.08812106 -0.043281138 -0.078591496 0.10417977 0.05325115
0.19531357 -0.13814823 0.050508447 0.0053127757 -0.038100764 0.12417499 -0.06478768 0.13903175
-0.06970538 -0.06105723 -0.00082515593 -0.05941472 -0.05803263 0.03809166 0.11555793 0.17661493
-0.066663444 -0.095663965 -0.005524769 0.080925524 -0.076032415 -0.009306899 0.021127481 -0.10120271
0.06992622 -0.0702786 -0.17833978 -0.047767967 0.09282607 -0.19679151 0.16613227 0.046370648
0.12653378 -0.12157915 0.12382965 -0.029933596 -0.042685833 0.18424119 -0.010607175 0.0049158507
-0.13399705 -0.10651556 0.040814463 0.09352117 -0.06804395 0.003286289 -0.07430234 0.084013924
0.083915375 0.13820282 0.05436387 -0.109388284 -0.026361477 -0.07313077 -0.021705398 -0.13215987
0.039621495 0.14643367 -0.12907456 0.047858253 -0.0056895185 0.023423914 0.22124466 -0.12748182
0.12337049 0.05213024 0.050250676 -0.018855432 -0.12603462 -0.12949498 0.06003777 -0.21826133
-0.11894222 0.11113452 0.062070433 0.010011518 0.062467143 -0.04700912 -0.066085376 -0.19657108
-0.017060434 0.04006553 -0.07285448 -0.19169295 -0.077966765 0.079465404 0.02426423 -0.26861078
-0.17879353 0.23054487 0.067172416 0.16293979 -0.26957703 -0.10342618 -0.033340104 -0.27904782
-0.012598145 0.09179905 0.16532907 0.19617377 0.2110331 0.29045218 -0.18974833 -0.38970616
00000000: 59ce 13be 3768 dcbd a1f6 653e 1db7 5e3e
00000010: b08e bd3e 5931 51bd 9891 f1bd e68c 3dbe
00000020: adbf a03d 9d55 d83d 4d50 83be 6cd8 173d
00000030: 5d3b e93d 5294 823e ad09 48bc 43a0 b83d
00000040: 2375 19be 9ca4 223d f854 903d c581 04be
00000050: 23c1 c5bd 31cc 4abd 8439 1dbd 1a35 fb3d
00000060: e081 22bd 80ae be3d 1db6 bd3b 435c bcbc
00000070: 7ffe d5bd 350e 24bc e3c7 3cbe dde9 9ebe
00000080: 55f5 5a3d 19f4 a6bd 37ad 703d 16a7 4b3d
00000090: 6a12 803b 9fe4 afbc 4969 cc3d 536c 073e
000000a0: 253a 443e 276f aebd ec17 10bd 63df 44be
000000b0: 95fa f8bc d421 323e fb82 a9bd d370 79be
000000c0: 3847 193d 8fc9 b8bd f9a1 a0bd 8af0 1b3d
000000d0: c9d5 b73d aceb 1d3e 3d9b 173e 5a57 9c3d
000000e0: e880 4cbe 1758 49be ba39 3e3d 5472 d43d
000000f0: c224 4bbd 8f08 8bbd b299 6fbe b73d 09be
00000100: f1ed 05bd a0df 10bd dc82 5c3e 5dd2 373e
00000110: 8e79 50be c761 48bd 512a a6bc 1ab6 503e
00000120: b9b0 c0bd 6ddf 4b3e 51da 1a3e c538 eb3d
00000130: 6589 e73d ef1e 7f3c f6d5 81be b84b 42be
00000140: 9311 eaba 1ab3 b53d 46f0 c3bd 1e6b 99bc
00000150: 6b4c 973c 1ceb f53d 8ad1 1abd 2eea 7fbd
00000160: c2de 823e e423 a03d abb0 82bd f726 52bc
00000170: 8d11 553b 62da 523e a7a2 ea3e 72b5 39be
00000180: 3342 8b3d 3f7e 50bd 72cf 3cbd 5a66 d53d
00000190: c332 0b3d 0664 973c 1ff9 123e 38da eb3c
000001a0: f493 f43c 5f82 dfbd eb14 52be 0e41 8ebe
000001b0: c557 fbbd 5fa9 dc3b 6d24 623d 03df 9c3e
000001c0: 51f9 4d3e 4de0 b1bd 987a 0bbd 22b5 9dbe
000001d0: 9025 cfbb ea54 a1bd 2f98 573d eb3b 9f3e
000001e0: bf34 2c3e 7acb cd3c a3a6 8cbd c63f 0d3e
000001f0: 9b2f 97be 01a9 953d 6673 bd3d 6569 39bd
00000200: 8d77 21be 3aeb 183e 5f3f 94bd 59de 8d3d
00000210: c503 96bc ae22 0fbe dd7a fabd 29bd d8bc
00000220: b4c9 8cbd d388 bebd be82 d33c 5756 193e
00000230: 08d1 323e 1476 78bc 1176 81bd 4e76 a3bd
00000240: d009 8abd 1b2c edbd 7e67 ccbd d078 b43d
00000250: 9047 31bd 94f4 a0bd 345c d53d e11d 5a3d
00000260: 4800 483e bb76 0dbe f2e1 4e3d cb16 ae3b
00000270: 8c0f 1cbd 754f fe3d 67af 84bd 575e 0e3e
00000280: b2c1 8ebd 2517 7abd 474f 58ba d95c 73bd
00000290: 9fb3 6dbd 0006 1c3d a3a9 ec3d 8bda 343e
000002a0: d886 88bd 78eb c3bd 1f09 b5bb 48bc a53d
000002b0: e2b6 9bbd f77b 18bc 8a13 ad3c 5e43 cfbd
000002c0: 7a35 8f3d 3aee 8fbd b49e 36be 58a8 43bd
000002d0: 981b be3d b783 49be 941e 2a3e 26ef 3d3d
000002e0: 1292 013e 7dfe f8bd 669a fd3d 4d37 f5bc
000002f0: 57d7 2ebd b9a9 3c3e b7c9 2dbc 2515 a13b
00000300: 8636 09be d424 dabd 112d 273d 0788 bf3d
00000310: a05a 8bbd c85e 573b d32b 98bd 7e0f ac3d
00000320: d3db ab3d 0a85 0d3e a6ac 5e3d f706 e0bd
00000330: 06f4 d7bc 96c5 95bd 85cf b1bc eb54 07be
00000340: 264a 223d b5f2 153e 1f2c 04be 0407 443d
00000350: 246f babb 82e3 bf3c f68d 623e 988a 02be
00000360: aba9 fc3d 8586 553d a7d3 4d3d b576 9abc
00000370: 380f 01be 559a 04be 2aea 753d e67f 5fbe
00000380: fb97 f3bd 7f9a e33d 913d 7e3d 5a07 243c
00000390: 8cdd 7f3d a38c 40bd c557 87bd ee49 49be
000003a0: 53c2 8bbc c11b 243d bb34 95bd 284b 44be
000003b0: 0aad 9fbd c2be a23d c7c5 c63c 5a87 89be
000003c0: a715 37be f413 6c3e b191 893d b0d9 263e
000003d0: 0006 8abe 1bd1 d3bd a28f 08bd 5bdf 8ebe
000003e0: 7368 4ebc 2401 bc3d 064c 293e c7e1 483e
000003f0: 1019 583e 26b6 943e 634d 42be 9187 c7be

conv2.bias f4 [32]
-0.018182054 -0.0033613145 -0.0022390296 0.0056887562 -0.03598039 -0.0061264425 -0.011157205 -0.008201631
0.0032114394 -0.0061858855 -0.027839245 0.0022558046 0.016589094 0.004063009 -0.007824388 0.00212268
-0.0012466044 0.00044038988 -0.0020218843 -0.005891264 -0.011493809 0.00399132 -0.013073562 -0.011050667
-0.006241245 -0.003179171 -0.008494466 -0.019810557 0.0024776692 -0.0145651065 0.008703011 0.0047617187
00000000: 88f2 94bc 8049 5cbb afbc 12bb bf68 ba3b
00000010: 2c60 13bd 53c0 c8bb b6cc 36bc 2260 06bc
00000020: 0377 523b f8b2 cabb 210f e4bc 1fd6 133b
00000030: dae5 873c fd22 853b dd31 00bc a91c 0b3b
00000040: 1a65 a3ba 21e4 e639 9781 04bb 810b c1bb
00000050: 8750 3cbc 9ec9 823b 7e32 56bc db0d 35bc
00000060: 5c83 ccbb a359 50bb 5f2c 0bbc c049 a2bc
00000070: 6460 223b 7ca2 6ebc 1397 0e3c 3108 9c3b

conv3.weight f4 [32, 32, 3, 3]
-0.10252545 -0.0521626 -0.005607939 0.1879807 0.07058416 0.14778495 0.08740184 0.05996462
0.018408785 0.21639912 0.009335617 -0.13542639 -0.1996375 -0.067507766 0.1094887 0.12759371
0.034382325 -0.08665081 -0.08353349 -0.07318654 0.025216961 0.11914268 -0.03141722 -0.06604306
0.04646994 0.11005553 0.0023035603 -0.008408962 -0.072668664 -0.12578939 -0.015898606 -0.044879843
-0.16690372 0.14714523 -0.036613777 -0.052248817 0.0026235157 0.05025059 -0.24232933 0.02847205
-0.05434266 -0.05018555 0.18989287 0.07629876 -0.048730567 -0.10128832 -0.033523817 0.06374917
0.13785052 0.11759916 -0.11759803 -0.13022648 -0.08751421 0.05084176 -0.06555151 -0.010188395
-0.15313864 0.05957434 -0.07004477 0.0576674 -0.041546527 -0.027778165 0.06235572 -0.14819492
-0.23288159 0.042268734 0.28122205 -0.17797194 -0.07881944 -0.18261938 -0.026261536 0.16033502
0.012823704 -0.11656993 -0.04169145 0.05682654 -0.077532694 -0.01907448 -0.026743518 0.07759305
-0.10132586 0.085064076 -0.0012502751 -0.16440392 -0.06408699 0.0027513579 -0.03132163 0.060746692
-0.11150976 0.097514406 -0.07248746 -0.032340106 -0.012319696 0.20727368 0.033435673 -0.06777132
-0.009287715 -0.15761401 0.0083147995 0.086042695 -0.0046200897 -0.107553825 0.10173504 0.1517355
-0.0508875 0.010007723 0.13418347 -0.08591684 -0.012743607 0.07262845 -0.008122705 -0.112055235
-0.014272183 -0.042476706 -0.026673894 0.10929476 -0.036434185 -0.048294563 0.043315448 0.08508583
-0.09555809 0.0018604154 -0.09770238 0.0602522 0.0019317332 0.19464748 0.072302595 0.115815036
-0.20723476 0.016057884 0.13211274 -0.024200357 0.060138177 0.161757 0.06198045 0.039958
0.029790884 -0.028022474 -0.1358312 -0.10052248 0.12161341 0.14359361 0.0028382367 -0.15415293
-0.0423295 -0.014784257 0.13272001 -0.13660045 -0.14935647 -0.12325036 0.095580414 0.09991231
-0.19189349 -0.12989345 -0.020525262 0.0864023 0.0110376645 -0.03332505 0.06275854 -0.094331175
0.08173443 -0.06262337 -0.03727697 -0.041214522 0.03175511 0.15832843 -0.14797743 -0.07212989
0.03592545 0.004352292 -0.121182926 0.073170505 0.068123735 0.065933086 0.05265444 -0.11130235
-0.06101652 -0.12788878 -0.060777105 -0.030584315 -0.041184455 -0.18675421 -0.09794082 -0.06748181
0.1300365 -0.05851467 -0.060995486 -0.09363152 0.04034401 0.010586194 -0.007856014 -0.045454983
-0.029851452 -0.26888937 -0.049251154 -0.030331982 0.02437584 0.031907454 0.05473203 -0.052302986
-0.1465219 -0.085028455 0.04476613 0.018079007 -0.03153116 0.012573127 -0.0936606 0.053759046
0.0081660235 -0.28256023 0.21163926 -0.18119846 -0.024592238 -0.0136475125 -0.10039371 -0.117234245
-0.09291337 0.16542299 0.20672484 0.020344082 0.014203044 -0.034907695 -0.027966341 -0.054049183
0.22330451 -0.015060363 -0.042533733 0.045403145 -0.17183608 -0.093074866 0.06647115 0.0078201955
-0.033163298 -0.17634284 -0.200679 0.17217612 0.16581903 0.074064024 -0.026819902 -0.03982277
-0.015141742 -0.021124275 0.007212068 0.012969737 -0.061279155 0.11158329 0.09875007 -0.055947095
-0.11675535 0.023606045 -0.15797411 0.0137563795 -0.10311464 -0.027361613 0.26343536 -0.08367227
00000000: ddf8 d1bd 73a8 55bd cdc2 b7bb 037e 403e
00000010: 6e8e 903d f054 173e bcff b23d 769d 753d
00000020: 05ce 963c bb97 5d3e 6af4 183c 37ad 0abe
00000030: c66d 4cbe 8341 8abd 9d3b e03d eda7 023e
00000040: 7bd4 0c3d fb75 b1bd 9b13 abbd d3e2 95bd
00000050: cd93 ce3c 1401 f43d 58af 00bd 9541 87bd
00000060: 4457 3e3d cb64 e13d 54f7 163b bec5 09bc
00000070: 4fd3 94bd efce 00be cb3d 82bc edd3 37bd
00000080: cfe8 2abe 3dad 163e 54f8 15bd db02 56bd
00000090: 4aef 2b3b 90d3 4d3d 2e25 78be 373e e93c
000000a0: 6996 5ebd 5d8f 4dbd 4773 423e 8642 9c3d
000000b0: b499 47bd 4070 cfbd 4550 09bd ed8e 823d
000000c0: b028 0d3e d4d7 f03d 3cd7 f0bd 175a 05be
000000d0: a63a b3bd 733f 503d df3f 86bd 3aed 26bc
000000e0: 60d0 1cbe 3904 743d a273 8fbd a734 6c3d
000000f0: b12c 2abd 098f e3bc b668 7f3d 69c0 17be
00000100: 8378 6ebe fb21 2d3d 56fc 8f3e 473e 36be
00000110: 166c a1bd 9300 3bbe 6f22 d7bc dd2e 243e
00000120: 831a 523c 37bc eebd a7c4 2abd f2c2 683d
00000130: 76c9 9ebd 1542 9cbc 3915 dbbc 1be9 9e3d
00000140: ef83 cfbd 1336 ae3d 45e0 a3ba 8059 28be
00000150: 0a40 83bd 2050 343b 1c4b 00bd 86d1 783d
00000160: 3b5f e4bd a2b5 c73d 4e74 94bd 0f77 04bd
00000170: 8dd8 49bc 8d3f 543e d8f3 083d b1cb 8abd
00000180: 802b 18bc 9165 21be cc3a 083c 2737 b03d
00000190: 1f64 97bb 2e45 dcbd 765a d03d 8d60 1b3e
000001a0: 696f 50bd 6ff7 233c 6467 093e 2bf5 afbd
000001b0: 90ca 50bc 3abe 943d 1815 05bc 377d e5bd
000001c0: e0d5 69bc 0efc 2dbd 3683 dabc eed5 df3d
000001d0: 033c 15bd 85d0 45bd 8a6b 313d 7b41 ae3d
000001e0: f6b3 c3bd 2fd9 f33a 2f18 c8bd 03cb 763d
000001f0: 3632 fd3a ab51 473e 6213 943d 6f30 ed3d
00000200: 5935 54be d38b 833c 9048 073e d43f c6bc
00000210: 7353 763d a1a3 253e 36df 7d3d 00ab 233d
00000220: 030c f43c 638f e5bc 5617 0bbe bbde cdbd
00000230: 7410 f93d 340a 133e b601 3a3b 44da 1dbe
00000240: b361 2dbd ab39 72bc c1e7 073e fde0 0bbe
00000250: e7f0 18be af6a fcbd aabf c33d d39e cc3d
00000260: ba7f 44be ca02 05be 9824 a8bc b0f3 b03d
00000270: 52d7 343c d97f 08bd 8d87 803d b430 c1bd
00000280: 6164 a73d ae40 80bd bcaf 18bd 8fd0 28bd
00000290: a511 023d d920 223e 6587 17be d6b8 93bd
000002a0: 9126 133d ac9d 8e3b c12e f8bd 6bda 953d
000002b0: 7584 8b3d ed07 873d 2fac 573d 7df2 e3bd
000002c0: 75ec 79bd 47f5 02be 6af1 78bd f58b fabc
000002d0: 08b1 28bd 7f3c 3fbe 3295 c8bd e733 8abd
000002e0: 4a28 053e 14ad 6fbd 67d6 79bd e2c1 bfbd
000002f0: c33f 253d b771 2d3c 83b6 00bc 012f 3abd
00000300: 088b f4bc deab 89be 94bb 49bd c77a f8bc
00000310: d7af c73c 64b1 023d b12e 603d a83b 56bd
00000320: d609 16be 6623 aebd b15c 373d 6d1a 943c
00000330: d126 01bd 84ff 4d3c 21d1 bfbd 7232 5c3d
00000340: c9ca 053c bcab 90be f6b7 583e 178c 39be
00000350: a975 c9bc d199 5fbc 389b cdbd 8218 f0bd
00000360: 5d49 bebd a564 293e adaf 533e a2a8 a63c
00000370: e2b3 683c 5ffb 0ebd ab19 e5bc ad62 5dbd
00000380: f0a9 643e bebf 76bc da37 2ebd a6f8 393d
00000390: ccf5 2fbe 099e bebd 0722 883d 4720 003c
000003a0: 3dd6 07bd 3893 34be cc7e 4dbe f04e 303e
000003b0: 77cc 293e e1ae 973d 69b5 dbbc 331d 23bd
000003c0: 1215 78bc d10c adbc 3653 ec3b 057f 543c
000003d0: daff 7abd c885 e43d 7a3d ca3d c828 65bd
000003e0: 6e1d efbd 7761 c13c f7c3 21be 7062 613c
000003f0: c52d d3bd 7625 e0bc 00e1 863e 5e5c abbd

conv3.bias f4 [32]
-0.0023314615 -0.05159116 -0.03176061 0.017347725 -0.014071307 -0.19801724 -0.0152562335 -0.15522379
-0.023154909 -0.013211278 -0.036923643 -0.024848867 -0.013823765 -0.022779994 -0.0023463008 -0.014099915
0.02846884 0.02335576 -0.15590823 -0.039119646 -0.019012647 0.011774205 -0.029929934 -0.044675205
-0.0021166254 -0.14418516 -0.0015822939 0.013269062 -0.016609605 0.10270635 -0.0060648574 -0.021619663
00000000: 6fcb 18bb 4151 53bd 6a17 02bd d11c 8e3c
00000010: 578b 66bc 08c5 4abe 48f5 79bc fcf2 1ebe
00000020: 5daf bdbc 1e74 58bc 3f3d 17bd da8f cbbc
00000030: 137d 62bc 1c9d babc 65c4 19bb 5403 67bc
00000040: 7c37 e93c 9454 bf3c 68a6 1fbe ec3b 20bd
00000050: 69c0 9bbc 98e8 403c 9f2f f5bc 59fd 36bd
00000060: 15b7 0abb 46a5 13be f964 cfba 7b66 593c
00000070: de10 88bc b557 d23d b6bb c6bb b81b b1bc

conv4.weight f4 [32, 32, 3, 3]
0.044959176 0.0069177924 0.010786227 -0.048762362 -0.14530072 -0.11615129 0.010588013 0.012292988
-0.12244686 0.013224025 -0.08562512 0.017523322 -0.03406464 0.0066499133 -0.030639129 -0.11498384
0.02941366 -0.0046491837 -0.037436906 0.11209888 0.18047644 0.044997435 -0.14290859 -0.050816704
-0.06764734 0.24122599 0.013517187 0.19738275 -0.09312235 -0.01152917 -0.009197036 0.0073016067
-0.07910396 -0.027859833 0.070315756 0.13357258 -0.07935614 -0.09499309 0.09506989 0.0028142456
-0.02011094 0.05101827 0.09108348 -0.124805905 -0.069606915 0.2207574 0.08253781 -0.15791427
0.05544423 -0.19201207 -0.08277709 -0.037377957 -0.108496375 -0.050885376 0.21397077 -0.01866833
-0.09876518 -0.09525969 -0.1174176 -0.105480455 -0.05290929 0.103940174 0.029422022 -0.06367021
-0.06170759 0.101133846 0.04195676 0.19554041 0.059882995 -0.09291016 0.01551906 0.12930799
-0.005093301 -0.0746146 -0.06195505 0.041607115 0.08771341 -0.007909573 -0.111435145 -0.10935691
0.17174762 0.13445303 -0.1590036 0.00898797 -0.025914842 0.13867511 -0.16798809 -0.05449095
0.0018549517 0.076390915 0.0423031 -0.04608529 0.13544016 0.15928017 -0.062070347 -0.06591743
-0.093917966 -0.07614446 0.11151342 -0.056302473 0.12257388 -0.042249847 0.08801349 -0.024187393
-0.116178535 0.0675879 0.120378725 -0.1010471 -0.08031735 -0.16966297 0.09702103 0.15940851
-0.05425779 0.09059171 0.03744091 -0.04410545 -0.06264461 0.17377998 -0.11207137 -0.023878185
-0.09438953 -0.16071065 0.17176637 0.07257551 -0.08241038 -0.10041983 0.05161614 -0.07127361
-0.030875534 -0.18131742 -0.08971365 0.19247484 0.058750622 0.0067651756 0.004621434 0.073590234
0.09559048 -0.079806685 -0.08940314 -0.02075154 -0.031452343 -0.07946664 0.15559807 -0.16315116
-0.09438642 0.061901085 -0.04309809 -0.060872506 0.050807167 0.03815765 0.054387935 -0.16828318
-0.048093807 -0.2040596 0.17121948 -0.04559587 -0.14781046 0.15053008 0.1088295 -0.02842803
0.0011322094 0.1379162 -0.0414616 -0.0643127 -0.041192207 0.058724005 0.14639103 -0.108785614
-0.018807556 -0.110573426 0.028274018 0.021385474 -0.06072702 -0.018851947 0.08161945 -0.042232938
-0.03899536 -0.045053534 -0.20161407 0.030851787 0.08178556 -0.048199814 0.12872654 0.17043303
-0.16351256 -0.130678 -0.11755638 0.013579433 -0.016364763 -0.116818205 0.10245465 0.04314078
0.08961501 -0.029946772 -0.04698145 0.078095675 0.1357491 -0.20352775 -0.13440916 0.25500685
-0.15016162 0.010726314 0.14976358 0.053767495 0.05438309 -0.040726293 0.044443212 0.11348007
-0.13802226 -0.0891781 -0.12347871 0.109285034 0.039863665 -0.035493184 0.009459815 0.11873434
-0.025719224 -0.084155016 0.040210817 -0.17966817 0.06604704 0.11221816 -0.08906089 0.079829305
0.1212912 -0.09369463 -0.17668673 0.10745112 0.009090032 0.0023394139 0.07728231 -0.0049477764
0.26355326 -0.26601496 -0.025391549 -0.043995168 0.054847114 -0.011484448 0.20029743 -0.045331802
0.04375839 -0.10427007 0.061885018 0.04591951 -0.07622348 0.010163426 -0.17978922 0.015356378
0.14714856 -0.1740487 -0.0035032027 -0.061844543 0.08537523 -0.06817215 0.045585804 -0.097013354
00000000: 1d27 383d a6ae e23b b7b8 303c 0bbb 47bd
00000010: b6c9 14be bae0 edbd 5879 2d3c 8768 493c
00000020: 6bc5 fabd 95a9 583c 395c afbd 128d 8f3c
00000030: 5d87 0bbd 84e7 d93b e9fe fabc a67c ebbd
00000040: eaf4 f03c 2e58 98bb 7157 19bd 1994 e53d
00000050: d1ce 383e 3b4f 383d a156 12be 2d25 50bd
00000060: b08a 8abd f203 773e 3177 5d3c b41e 4a3e
00000070: eeb6 bebd d8e4 3cbc 2aaf 16bc 5142 ef3b
00000080: 4201 a2bd 4e3a e4bc b501 903d 40c7 083e
00000090: 7985 a2bd bd8b c2bd 01b4 c23d 356f 383b
000000a0: b3bf a4bc 89f8 503d fa89 ba3d 3d9a ffbd
000000b0: 128e 8ebd 3a0e 623e 9509 a93d 47b4 21be
000000c0: 7d19 633d d09e 44be 0987 a9bd a119 19bd
000000d0: 5933 debd 2f6d 50bd 271b 5b3e 53ee 98bc
000000e0: 6645 cabd 8317 c3bd a378 f0bd 2306 d8bd
000000f0: 69b7 58bd 96de d43d 7406 f13c 8765 82bd
00000100: 19c1 7cbd 431f cf3d dada 2b3d bf3b 483e
00000110: df47 753d af47 bebd a843 7e3c 5069 043e
00000120: b5e5 a6bb 8acf 98bd 94c4 7dbd 396c 2a3d
00000130: 17a3 b33d 2797 01bc 1c38 e4bd 84f6 dfbd
00000140: 9cde 2f3e 0eae 093e d7d1 22be 4742 133c
00000150: 5d4b d4bc d900 0e3e 1205 2cbe e731 5fbd
00000160: da21 f33a d772 9c3d 0446 2d3d eec3 3cbd
00000170: d3b0 0a3e 571a 233e 7a3d 7ebd b8ff 86bd
00000180: 1058 c0bd a0f1 9bbd 2661 e43d 6c9d 66bd
00000190: 0408 fb3d 2d0e 2dbd 6b40 b43d a424 c6bc
000001a0: 03ef edbd 866b 8a3d 1f89 f63d c8f1 cebd
000001b0: 6c7d a4bd 21bc 2dbe f6b2 c63d fc3b 233e
000001c0: 6b3d 5ebd 2588 b93d a45b 193d eba7 34bd
000001d0: d14b 80bd 61f3 313e ad85 e5bd 2f9c c3bc
000001e0: 4c4f c1bd 5591 24be 86e3 2f3e 78a2 943d
000001f0: c6c6 a8bd e9a8 cdbd 726b 533d e6f7 91bd
00000200: b0ee fcbc 46ab 39be cabb b7bd 2018 453e
00000210: 7ea4 703d 68ae dd3b 666f 973b 7ab6 963d
00000220: f1c4 c33d b071 a3bd fe18 b7bd 22ff a9bc
00000230: 2cd4 00bd 68bf a2bd 1a55 1f3e 1911 27be
00000240: ab4d c1bd fe8b 7d3d 9f87 30bd 7355 79bd
00000250: 2d1b 503d 324b 1c3d e2c5 5e3d 6d52 2cbe
00000260: 03fe 44bd 00f5 50be 2954 2f3e bcc2 3abd
00000270: a05b 17be 8f24 1a3e 00e2 de3d e6e1 e8bc
00000280: a566 943a e839 0d3e a4d3 29bd 60b6 83bd
00000290: 29b9 28bd 9588 703d 88e7 153e feca debd
000002a0: 4e12 9abc 5274 e2bd ea9e e73c 9730 af3c
000002b0: e5bc 78bd 666f 9abc 1928 a73d 72fc 2cbd
000002c0: 99b9 1fbd 0e8a 38bd eb73 4ebe e3bc fc3c
000002d0: 307f a73d 2b6d 45bd e4d0 033e ff85 2e3e
000002e0: d66f 27be 74d0 05be 66c1 f0bd 457c 5e3c
000002f0: 650f 86bc 623e efbd bed3 d13d 63b4 303d
00000300: 1388 b73d ef52 f5bc 9f6f 40bd a0f0 9f3d
00000310: d001 0b3e 9469 50be 8ea2 09be 4290 823e
00000320: f8c3 19be 6cbd 2f3c a05b 193e 4e3b 5c3d
00000330: cec0 5e3d 9dd0 26bd 160a 363d 3d68 e83d
00000340: b555 0dbe 02a3 b6bd 68e2 fcbd d5d0 df3d
00000350: 1548 233d 4d61 11bd 57fd 1a3c fd2a f33d
00000360: 1fb1 d2bc 7759 acbd 19b4 243d effa 37be
00000370: ac43 873d a2d2 e53d 8e65 b6bd 8c7d a33d
00000380: 8567 f83d f8e2 bfbd 5eed 34be 550f dc3d
00000390: 5cee 143c da50 193b 3046 9e3d f520 a2bb
000003a0: 74f0 863e 1d33 88be f001 d0bc 4734 34bd
000003b0: 5ea7 603d 4429 3cbc c51a 4d3e d7ad 39bd
000003c0: ff3b 333d 8c8b d5bd 257b 7d3d 1916 3c3d
000003d0: 0e1b 9cbd 8084 263c aa1a 38be 5199 7b3c
000003e0: 1dae 163e d339 32be fd95 65bb b450 7dbd
000003f0: 35d9 ae3d d79d 8bbd 2eb8 3a3d f0ae c6bd

conv4.bias f4 [32]
-0.12999316 -0.060113434 -0.030151015 -0.023118448 -0.37461787 -0.14614178 -0.10802247 -0.07268837
-0.028614711 -0.12355552 -0.07979181 -0.118134305 -0.1516768 -0.028544348 -0.1447201 -0.13692966
-0.13482548 -0.11204046 -0.11630361 -0.039443497 -0.037315257 -0.03769829 -0.08617095 -0.14742789
-0.033922497 -0.22914161 -0.1899481 -0.40052837 -0.03345143 -0.017345743 -0.08332596 -0.18107225
00000000: ed1c 05be 8139 76bd 43ff f6bc e662 bdbc
00000010: eacd bfbe 31a6 15be e23a ddbd a4dd 94bd
00000020: 6669 eabc ad0a fdbd e369 a3bd 66f0 f1bd
00000030: 2a51 1bbe d6d5 e9bc 8231 14be 4a37 0cbe
00000040: b10f 0abe 7875 e5bd 9630 eebd 818f 21bd
00000050: e2d7 18bd 8669 1abd 657a b0bd 56f7 16be
00000060: 51f2 0abd 19a4 6abe c181 42be 0e12 cdbe
00000070: 5e04 09bd a918 8ebc cda6 aabd 016b 39be

linear.weight f4 [32, 800]
0.033341106 0.09723227 -0.025214281 -0.046773158 0.0049078064 -0.29595426 0.027750352 -0.031690493
0.009755061 0.09063784 0.027183454 -0.029857643 -0.08392891 -0.027104571 0.011234369 0.16543815
0.095760286 -0.0604147 -0.013396938 -0.07050282 0.07748681 -0.008413708 -0.04180117 -0.021350808
-0.020217793 0.1633103 -0.0658497 0.08259881 0.000676365 0.04053309 -0.31898314 0.040983845
-0.016202942 -0.03786434 0.07663531 0.17230777 0.030052165 -0.049423523 0.022075947 -0.0064894296
-0.0041238475 -0.26475453 -0.056187842 -0.0508407 0.13685122 -0.11792206 -0.021115026 0.038188066
0.018920816 0.0053260396 -0.12176293 -0.013549359 -0.032001458 0.0046811197 -0.015466005 0.17339773
-0.050537385 -0.034676556 0.055484053 -0.00651377 -0.0042346762 0.03433703 -0.0037481908 0.002276837
-0.06596338 -0.018328723 0.045771223 0.038520522 0.0019430512 -0.051135484 0.0069368305 -0.02322573
0.00083093636 -0.032721814 0.011505572 0.13664868 -0.047077633 0.13385165 0.007623205 -0.04149261
-0.10303771 0.06409718 -0.0015800411 -0.03091898 0.0032751057 0.013235243 -0.005831665 0.010305814
0.019700548 0.0040935935 0.07535133 -0.07834686 0.073358685 0.03988136 0.09496224 -0.078498736
0.015435148 0.0076939636 -0.008540177 -0.021331565 -0.17556979 0.10940094 -0.09105647 0.010062957
0.0248455 -0.1544154 0.16135137 0.10031673 0.079899736 0.021924889 -0.18796912 0.19922465
0.102323696 0.037387952 0.10140532 -0.18281314 -0.16583788 -0.16180648 -0.17393555 -0.23889676
-0.20280586 -0.25203604 -0.21744885 -0.24444364 -0.266693 0.04995891 -0.0504765 0.054273836
-0.036617372 0.05294492 0.02594025 0.16577579 0.045826003 -0.03641889 -0.014194547 -0.0032217454
-0.25179616 0.006359728 0.034939982 0.0889042 -0.066245966 -0.08938239 -0.055538107 -0.10071266
-0.08575452 -0.08454196 0.07815284 0.041975044 0.030663675 0.09135634 -0.15374678 0.06957987
-0.10288637 -0.0057572 0.11086878 0.0909907 0.083654106 -0.12683785 -0.03800133 0.06650272
-0.16319011 0.050901856 0.0024274548 -0.06494287 -0.0067310454 0.034844376 -0.0016614669 -0.008582491
0.029486036 -0.030850358 0.12030665 -0.013974441 -0.014773335 -0.06708068 -0.045967516 0.213326
-0.16590597 0.044640828 0.0061289924 -0.047084894 -0.22538738 0.058615267 -0.008971911 -0.028734516
0.051321004 0.08162075 -0.015262601 -0.025689872 0.005138083 0.077733874 -0.03949018 0.05753535
0.0046676174 0.0032139437 -0.12271927 -0.06018498 0.03991991 0.011674597 0.0062635913 0.042352363
-0.06368775 0.0451778 -0.019142332 -0.017472826 0.03608393 0.06658232 -0.005642797 -0.02445783
-0.063846625 0.03744628 0.02245503 -0.0035568594 -0.04331126 0.010972536 -0.0063307295 -0.0021853342
-0.017784681 0.057034798 -0.011135223 -0.03770281 0.10417737 -0.027563717 0.0050578057 -0.032009147
0.0011737798 0.102049105 0.08771849 -0.083597004 -0.10610782 0.1181857 -0.3098372 0.0071584014
-0.027541682 -0.043650303 -0.050135575 0.092655875 0.10305951 -0.036821563 0.06460889 0.009170454
0.1125696 -0.15213048 -0.05543251 -0.021163695 -0.03428182 -0.0011077902 0.014502438 -0.0055665653
0.038024668 0.016982028 -0.012234164 -0.061903264 0.027885681 0.017074922 0.046701584 -0.008978243
00000000: af90 083d b621 c73d 2e8e cebc 3695 3fbd
00000010: aad1 a03b 5187 97be b554 e33c e4cd 01bd
00000020: b1d3 1f3c 55a0 b93d d6af de3c 0498 f4bc
00000030: ece2 abbd 680a debc 5c10 383c 9e68 293e
00000040: f81d c43d 6875 77bd d57e 5bbc c863 90bd
00000050: 68b1 9e3d a6d9 09bc b437 2bbd e4e7 aebc
00000060: c99f a5bc d13a 273e 35dc 86bd 9129 a93d
00000070: 164e 313a 0606 263d c251 a3be adde 273d
00000080: 08bc 84bc a317 1bbd f9f2 9c3d 7371 303e
00000090: f52f f63c 5270 4abd 9ed8 b43c 48a5 d4bb
000000a0: 5721 87bb e88d 87be 3925 66bd 563e 50bd
000000b0: ba22 0c3e 1f81 f1bd 6bf9 acbc 176b 1c3d
000000c0: d4ff 9a3c 0f86 ae3b d85e f9bd 21fe 5dbc
000000d0: f613 03bd 1464 993b 2065 7dbc 2d8f 313e
000000e0: 4a00 4fbd 0109 0ebd 3f43 633d 7771 d5bb
000000f0: 0ac3 8abb fca4 0c3d 35a4 75bb fc36 153b
00000100: cf17 87bd 1e26 96bc 9b7a 3b3d b2c7 1d3d
00000110: fbad fe3a 7173 51bd 5a4e e33b e343 bebc
00000120: 32d3 593a 4f07 06bd de81 3c3c a2ed 0b3e
00000130: 7ad4 40bd 6810 093e 14cc f93b 28f4 29bd
00000140: 6f05 d3bd 6245 833d 6219 cfba cd49 fdbc
00000150: 28a3 563b a2d8 583c 8d17 bfbb b8d9 283c
00000160: 0b63 a13c 8d23 863b cc51 9a3d 5274 a0bd
00000170: 143d 963d a35a 233d 907b c23d f2c3 a0bd
00000180: b4e3 7c3c a51d fc3b 19ec 0bbc 89bf aebc
00000190: 91c8 33be 9a0d e03d d17b babd 1adf 243c
000001a0: ca88 cb3c 121f 1ebe 4b39 253e dc72 cd3d
000001b0: 79a2 a33d d39b b33c fa7a 40be 8c01 4c3e
000001c0: 168f d13d 1c24 193d 98ad cf3d 5e33 3bbe
000001d0: 68d1 29be 99b0 25be 291c 32be 5aa1 74be
000001e0: 57ac 4fbe de0a 81be e9aa 5ebe 6f4f 7abe
000001f0: fc8b 88be b7a1 4c3d 72c0 4ebd 3e4e 5e3d
00000200: 19fc 15bd c6dc 583d a680 d43c 21c1 293e
00000210: 0cb4 3b3d f92b 15bd 3f90 68bc eb23 53bb
00000220: 6deb 80be 4465 d03b 3a1d 0f3d 6813 b63d
00000230: f7ab 87bd 1d0e b7bd ed7b 63bd 7042 cebd
00000240: 11a0 afbd 5624 adbd 990e a03d 06ee 2b3d
00000250: 6332 fb3c 0819 bb3d cc6f 1dbe e47f 8e3d
00000260: 17b6 d2bd e5a6 bcbb 2c0f e33d 5559 ba3d
00000270: d852 ab3d c8e1 01be 48a7 1bbd 9432 883d
00000280: 4f1b 27be 777e 503d ef15 1f3b c400 85bd
00000290: 1a90 dcbb fab8 0e3d 94c5 d9ba 949d 0cbc
000002a0: b38c f13c e4b9 fcbc 5563 f63d 0ef5 64bc
000002b0: dc0b 72bc 9861 89bd 6f48 3cbd 2272 5a3e
000002c0: 41e3 29be 4dd9 363d b7d5 c83b 17dc 40bd
000002d0: f3cb 66be 9016 703d ecfe 12bc a664 ebbc
000002e0: f935 523d c828 a73d fd0f 7abc 9173 d2bc
000002f0: 5d5d a83b f032 9f3d 74c0 21bd 30aa 6b3d
00000300: d0f2 983b 07a1 523b 3e54 fbbd 8784 76bd
00000310: 0f83 233d cf46 3f3c d03e cd3b ac79 2d3d
00000320: b96e 82bd 5b0c 393d 61d0 9cbc 2c23 8fbc
00000330: becc 133d 505c 883d 36e7 b8bb c95b c8bc
00000340: 05c2 82bd 4561 193d 9cf3 b73c 331a 69bb
00000350: 2667 31bd 27c6 333c 0272 cfbb d337 0fbb
00000360: 2eb1 91bc 529d 693d 8370 36bc 436e 1abd
00000370: f25a d53d 4ecd e1bc f3bb a53b 061c 03bd
00000380: 84d9 993a 1fff d03d c0a5 b33d e834 abbd
00000390: 0f4f d9bd 580b f23d fba2 9ebe 0691 ea3b
000003a0: 189f e1bc a9ca 32bd f65a 4dbd 5dc2 bd3d
000003b0: dd10 d33d 35d2 16bd aa51 843d ac3f 163c
000003c0: e48a e63d 18c8 1bbe 330d 63bd 7c5f adbc
000003d0: 186b 0cbd 4533 91ba a29b 6d3c bc67 b6bb
000003e0: c1bf 1b3d e51d 8b3c ce71 48bc 478e 7dbd
000003f0: 8370 e43c b5e0 8b3c 294a 3f3d 7b19 13bc

linear.bias f4 [32]
0.40062264 -0.33013627 -0.3258493 -0.028983029 -0.0011905388 0.07475096 -0.21313964 0.0741628
-0.016716074 -0.030175624 0.009369082 -0.23956941 -0.073558345 0.18131302 -0.2462088 0.061277043
-0.04712889 0.18205869 0.03831965 -0.39402696 0.037124034 0.007108974 -0.005378524 -0.060994416
-0.09128168 0.032239173 0.0058260867 0.29050952 0.033796936 0.040197346 -0.2509891 -0.016464666
00000000: 691e cd3e 9f07 a9be b8d5 a6be d16d edbc
00000010: da0b 9cba 0817 993d 4741 5abe abe2 973d
00000020: 26f0 88bc df32 f7bc c780 193c af51 75be
00000030: c2a5 96bd 1faa 393e 291e 7cbe a3fd 7a3d
00000040: 390a 41bd 986d 3a3e 11f5 1c3d e7bd c9be
00000050: 5f0f 183d 65f2 e83b 543e b0bb 48d5 79bd
00000060: e4f1 babd 390d 043d c2e8 be3b aabd 943e
00000070: a86e 0a3d f9a5 243d a581 80be e8e0 86bc

critic_linear.weight f4 [1, 32]
0.1376737 -0.12135499 -0.1602353 0.00041435345 -0.004477061 0.0005862687 -0.0016374312 -0.00032618112
0.0005710081 0.00028082728 0.0026976184 -0.019337457 -0.0040545855 -0.0057673184 -0.032873414 -0.0021650442
-0.0014162303 0.0033946487 0.003571045 -0.16574106 0.0009879379 -0.0021264658 -0.00024329657 -0.009243729
-0.00660437 0.0011285191 -0.008641229 0.06817337 -1.0030035e-05 -0.0035868976 -0.0013500899 -0.0008993354
00000000: 56fa 0c3e f788 f8bd b914 24be 943d d939
00000010: 4fb4 92bb d4af 193a 139f d6ba 4a03 abb9
00000020: b4af 153a 003c 9339 87ca 303b 9669 9ebc
00000030: 54dc 84bb c6fb bcbb 46a6 06bd 6ae3 0dbb
00000040: cea0 b9ba c178 5e3b 3108 6a3b 06b8 29be
00000050: b27d 813a 2d5c 0bbb 6d1d 7fb9 0273 17bc
00000060: 7969 d8bb d1ea 933a f193 0dbc 7b9e 8b3d
00000070: ac46 28b7 2812 6bbb 80f5 b0ba 61c1 6bba

actor_linear.weight f4 [6, 32]
0.13741186 -0.068161055 -0.26737484 0.021226784 -0.019516774 0.10236127 -0.07863978 0.076024406
0.0009206992 -0.03007895 0.0020649976 -0.08465923 0.02965459 0.17733312 -0.27769032 0.1258373
-0.1706457 0.0765158 0.058142055 -0.26472017 0.028871084 -0.0040854546 0.012814868 0.15624373
0.017624231 0.087624945 0.16685924 0.10470144 0.041051075 -0.043898024 -0.12147206 -0.0054168813
0.19577555 -0.18766776 -0.17259412 0.0082149515 -0.0050390554 0.079276174 -0.08906572 0.053595893
0.002314265 -0.022801092 0.006911874 -0.0716695 0.0015825549 0.17531364 -0.31704283 0.10644538
-0.13750201 0.085195646 0.039270632 -0.24277988 0.030403167 -0.016865784 0.011758074 0.09369703
0.0020550995 0.073095135 0.15043609 0.2555656 0.018611884 -0.0075295973 -0.14806205 -0.01064553
0.1454133 -0.17064032 -0.3326372 0.03034658 -0.016270567 0.055886403 -0.095083795 0.042828668
-0.016704671 -0.03059598 -0.027974825 -0.09705761 -0.005516642 0.18472646 -0.12583289 0.122028835
-0.14684702 0.13215217 0.032370593 -0.22434919 0.02521305 -0.012007946 -0.0012159192 -0.007303904
-0.00617625 0.07002231 -0.03366305 0.02370231 -0.008684411 0.007919311 -0.17392315 -0.0010909538
0.17625931 -0.1054396 -0.25043097 0.042463455 -0.029791664 0.120370425 -0.08391467 0.079609975
0.025381867 -0.03516455 -0.0039902255 -0.19376433 0.094420716 0.13402815 -0.1176049 0.15931134
-0.21021251 0.141009 0.08610223 -0.10927221 0.050579604 -0.033822633 0.02343626 0.18891822
0.02021974 0.084533155 0.18753362 0.22334883 0.02719962 -0.044835392 -0.12930633 -0.018544728
0.22153187 -0.14502187 -0.30989137 0.022458544 -0.018067103 0.109027356 -0.11424451 0.08312455
-0.00079742953 -0.013683751 -0.00026202836 -0.21268076 -0.04222635 0.12929094 -0.2006033 0.12252251
-0.18092462 0.10143788 0.058661096 -0.21783699 0.026551178 -0.01997 0.0037774104 -0.034541026
-0.059194177 0.07239666 -0.0062891035 -0.0021443767 0.03157191 -0.036810014 -0.14025097 -0.026655087
0.2683603 -0.1288161 -0.11005713 0.017896773 -0.00682881 0.10267225 -0.08426897 0.047043942
0.00089369307 0.0046979743 0.0073330225 -0.1442956 0.03283589 0.16829187 -0.11747465 0.11380191
-0.15966704 0.15577044 0.061839398 -0.2458892 0.035775043 -0.018898496 0.015026631 0.12656873
0.017460832 0.089544825 0.20940897 0.31869313 0.0247501 -0.005397599 -0.14887638 -0.02537493
00000000: b2b5 0c3e 0698 8bbd 5be5 88be cbe3 ad3c
00000010: a4e1 9fbc c9a2 d13d e50d a1bd afb2 9b3d
00000020: 145b 713a 2168 f6bc e954 073b d261 adbd
00000030: 2fee f23c d096 353e 6d2d 8ebe 7edb 003e
00000040: bfbd 2ebe 51b4 9c3d 5d26 6e3d 6789 87be
00000050: 0d83 ec3c 47df 85bb 74f5 513c 5bfe 1f3e
00000060: b160 903c b574 b33d 26dd 2a3e b56d d63d
00000070: 2c25 283d 6ace 33bd 58c6 f8bd 1880 b1bb
00000080: 6379 483e fa2b 40be 83bc 30be 0198 063c
00000090: a91e a5bb 8c5b a23d 1768 b6bd 5e87 5b3d
000000a0: ecaa 173b 5bc9 babc 007d e23b 75c7 92bd
000000b0: bb6d cf3a 6b85 333e 7053 a2be 0900 da3d
000000c0: 54cd 0cbe 0e7b ae3d 3eda 203d 4a9b 78be
000000d0: 1010 f93c 1d2a 8abc f0a4 403c 3ae4 bf3d
000000e0: d9ae 063b e7b2 953d eb0b 1a3e 7fd9 823e
000000f0: f377 983c d7ba f6bb 949d 17be 976a 2ebc
00000100: 39e7 143e 56bc 2ebe 6c4f aabe 6499 f83c
00000110: da49 85bc 24e9 643d 4bbb c2bd 1d6d 2f3d
00000120: 3cd8 88bc 6ca4 fabc 762b e5bc 24c6 c6bd
00000130: f2c4 b4bb ef28 3d3e 56da 00be 41ea f93d
00000140: 115f 16be e652 073e 0797 043d cbbb 65be
00000150: 998b ce3c fabc 44bc 7a5f 9fba 9655 efbb
00000160: 2462 cabb db67 8f3d 44e2 09bd 592b c23c
00000170: 0f49 0ebc ffbf 013c e918 32be 56fe 8eba
00000180: 527d 343e b8f0 d7bd 7d38 80be 29ee 2d3d
00000190: a60d f4bc c584 f63d 74db abbd 8e0a a33d
000001a0: a2ed cf3c b408 10bd 70c0 82bb 286a 46be
000001b0: a65f c13d ad3e 093e d6da f0bd 8322 233e
000001c0: f341 57be aa64 103e 5e56 b03d 1cca dfbd
000001d0: 8f2c 4f3d 9a89 0abd 66fd bf3c c773 413e
000001e0: dea3 a53c b81f ad3d d008 403e 8eb5 643e
000001f0: bdd1 de3c 51a5 37bd e168 04be 1deb 97bc
00000200: 40d9 623e 9d80 14be 15aa 9ebe fbfa b73c
00000210: 7601 94bc bc49 df3d 07f9 e9bd 343d aa3d
00000220: 970a 51ba d031 60bc da60 89b9 fcc8 59be
00000230: 8af5 2cbd d864 043e f46a 4dbe 15ed fa3d
00000240: 4e44 39be aabe cf3d 9e46 703d a910 5fbe
00000250: db81 d93c 2098 a3bc 6e8e 773b e47a 0dbd
00000260: 9875 72bd b344 943d d314 cebb ac88 0cbb
00000270: 8c51 013d 19c6 16bd f39d 0fbe c55b dabc
00000280: 8566 893e 5ee8 03be a265 e1bd 419c 923c
00000290: 36c4 dfbb d445 d23d 3695 acbd 26b1 403d
000002a0: ba46 6a3a 77f1 993b da49 f03b 3ac2 13be
000002b0: ed7e 063d b454 2c3e 8d96 f0bd fa10 e93d
000002c0: c27f 23be 4982 1f3e 4f4b 7d3d 61ca 7bbe
000002d0: da88 123d 05d1 9abc 4232 763c 3c9b 013e
000002e0: 050a 8f3c 4763 b73d 4e6f 563e bf2b a33e
000002f0: b9c0 ca3c 58de b0bb 0d73 18be 16df cfbc

actor_linear.bias f4 [6]
0.0022883215 0.16867974 0.25875083 0.04292282 0.08389221 0.2126472
00000000: aaf7 153b 62ba 2c3e fd7a 843e d7cf 2f3d
00000010: aecf ab3d 30c0 593e
