spaceinvaders-v0-bottom-7fskip_latent32/model.28.tar (torch, 223035 bytes, 13 tensors)

conv1.weight f4 [32, 4, 3, 3]
-0.018048335 -0.11326708 -0.07649626 0.038753666 -0.30569118 -0.0043499344 0.09810486 0.06837491
0.013909152 -0.06307345 0.10122022 0.013967274 0.031070303 -0.01154824 -0.055112854 0.058526862
0.10824216 0.018625336 0.04989325 0.0605857 -0.02870889 -0.07651249 -0.025224287 -0.069225125
0.07000755 0.015909975 0.12421 0.16809773 -0.24996315 0.08951311 0.08126212 0.20959327
0.13660549 -0.27456307 -0.1586809 -0.16077593 0.014191984 -0.068897165 0.12641688 -0.06740521
0.08800153 -0.015589638 0.1859851 -0.042926002 -0.112210065 0.006036382 -0.10287656 -0.005827633
-0.041045014 -0.002842266 -0.09038714 -0.04473591 0.09666493 0.016904918 0.06826 0.14254859
-0.0004491947 -0.0848431 0.029726565 0.08389494 -0.058183677 0.039835595 0.04317205 0.31483853
-0.22522262 -0.111301444 0.023766618 -0.1259067 -0.06632158 -0.32175776 0.18090723 -0.035521816
0.091731675 -0.059921544 0.22193202 -0.0781456 0.07300392 0.18992133 -0.21423349 -0.037791822
-0.083209656 -0.14215828 0.012281803 0.020398065 -0.0145565085 -0.1308516 -0.07590002 0.118341476
-0.1009626 0.16529576 0.08199606 -0.041018415 0.12633996 0.0043088417 -0.13291909 -0.040465783
0.13546906 0.051032305 -0.105474785 -0.039680596 0.119647205 -0.15344936 0.09464543 -0.055575874
-0.21548107 -0.0730031 0.30367544 0.04281702 0.15454848 0.08539515 0.0043243757 0.14543861
0.25625682 -0.07950754 0.1197862 0.29390547 0.082995005 0.06572907 -0.19521578 -0.15247008
-0.13655603 -0.03572333 0.14708762 -0.061232403 0.051173788 -0.14823769 -0.09772363 -0.04079003
0.10425732 0.13379894 -0.16814928 0.026522525 0.14048512 0.10133765 0.054883383 0.063997574
0.0011448229 0.11889356 -0.18264987 -0.4661743 -0.1739254 -0.025074625 -0.2097309 -0.024713516
-0.06862956 -0.108224265 0.1930762 0.053319994 0.048963446 0.009437595 -0.031799044 0.27300027
-0.09261437 -0.085911766 -0.1776877 -0.11824475 -0.09968383 -0.049033854 0.021889826 -0.034776494
-0.040395174 0.006319373 -0.074074335 0.06682044 -0.086890325 -0.019238213 -0.110933535 -0.07995818
-0.06828544 -0.08309549 -0.12169213 0.16766539 0.089648396 -0.064143345 0.14044897 0.19031818
0.19114923 0.021296185 -0.19280307 0.19588539 -0.11286477 -0.14482254 -0.21759175 -0.09088414
-0.31899872 -0.012530884 -0.24311447 -0.31371137 -0.15255256 -0.046956383 0.06515129 -0.04811353
-0.09734966 -0.051770564 0.065240495 -0.13160682 0.054886125 0.047542028 0.18925193 -0.063081205
0.09127189 -0.145573 0.119225375 -0.09127132 0.11043158 0.03132432 -0.042869467 0.13192753
0.21896845 0.25462738 0.020753294 0.1346641 -0.059424166 0.17536002 0.29407626 0.27263162
0.24649411 -0.011711428 0.040085696 0.20981228 -0.015496877 0.18466195 -0.18599728 -0.2565789
0.055216376 -0.05400842 -0.037565038 0.20191927 0.107317194 0.10860386 0.0015270225 -0.14315116
0.0831846 -0.07986572 -0.006920633 0.044054653 -0.014354621 0.1116141 0.043319754 -0.067508094
-0.13360082 -0.0074233743 0.05973677 -0.116476245 -0.2990075 -0.107770756 -0.19554766 -0.24454802
-0.14844768 0.23595402 0.33388606 0.02012942 -0.09721997 -0.045441877 -0.06116474 -0.2499911
00000000: 1ada 93bc 92f8 e7bd 12aa 9cbd 2abc 1e3d
00000010: 8e83 9cbe e589 8ebb 33eb c83d 2508 8c3d
00000020: 36e3 633c a72c 81bd 8c4c cf3d fed6 643c
00000030: 2687 fe3c d434 3dbc 04be 61bd ddb9 6f3d
00000040: 11ae dd3d 2994 983c dd5c 4c3d b628 783d
00000050: e82e ebbc 95b2 9cbd 2aa3 cebc e7c5 8dbd
00000060: 1e60 8f3d a355 823c d061 fe3d d021 2c3e
00000070: 57f6 7fbe a652 b73d c16c a63d 9e9f 563e
00000080: 4fe2 0b3e 8893 8cbe 3f7d 22be 72a2 24be
00000090: 7f85 683c f519 8dbd 6d73 013e be0b 8abd
000000a0: 253a b43d ae6b 7fbc e172 3e3e 2dd3 2fbd
000000b0: 64ce e5bd d8cc c53b f2b0 d2bd bbf5 bebb
000000c0: d11e 28bd 5045 3abb e51c b9bd 003d 37bd
000000d0: 43f8 c53d 2f7c 8a3c e6cb 8b3d 42f8 113e
000000e0: e481 ebb9 38c2 adbd 2085 f33c 1cd1 ab3d
000000f0: 0252 6ebd a62a 233d 2dd5 303d 8432 a13e
00000100: c2a0 66be 03f2 e3bd 36b2 c23c b0ed 00be
00000110: 9cd3 87bd 6fbd a4be bf3f 393e 537f 11bd
00000120: d1dd bb3d 4b70 75bd 2642 633e cd0a a0bd
00000130: 1483 953d bd7a 423e 0660 5bbe 99cb 1abd
00000140: d369 aabd f191 11be 9e39 493c d819 a73c
00000150: 6c7e 6ebc f6fd 05be 7871 9bbd 045d f23d
00000160: 7bc5 cebd 4b43 293e 8ded a73d ed02 28bd
00000170: 435f 013e 2f31 8d3b f11b 08be 73bf 25bd
00000180: 67b8 0a3e 4007 513d 2a03 d8bd 1f88 22bd
00000190: 9809 f53d d421 1dbe 77d5 c13d 87a3 63bd
000001a0: 12a7 5cbe a682 95bd 597b 9b3e e660 2f3d
000001b0: f541 1e3e a7e3 ae3d 7eb3 8d3b dced 143e
000001c0: 1834 833e d9d4 a2bd 7852 f53d c77a 963e
000001d0: 49f9 a93d f69c 863d a5e6 47be 1e21 1cbe
000001e0: 58d5 0bbe a052 12bd 239e 163e d4ce 7abd
000001f0: 9b9b 513d 9fcb 17be 5423 c8bd 7213 27bd
00000200: dd84 d53d 9702 093e 532f 2cbe c445 d93c
00000210: 55db 0f3e 1d8a cf3d 66cd 603d 2911 833d
00000220: e20d 963a 777e f33d 9108 3bbe 66ae eebe
00000230: 8019 32be 4d69 cdbc b2c3 56be 0074 cabc
00000240: a88d 8cbd afa4 ddbd c4b5 453e 1166 5a3d
00000250: e58d 483d 24a0 1a3c b73f 02bd b1c6 8b3e
00000260: 9aac bdbd 82f2 afbd c4f3 35be 4e2a f2bd
00000270: 0927 ccbd b9d7 48bd 4b52 b33c cc71 0ebd
00000280: 6975 25bd be12 cf3b 49b4 97bd 28d9 883d
00000290: 8ef3 b1bd 7599 9dbc 1f31 e3bd 1dc1 a3bd
000002a0: 3dd9 8bbd f82d aabd b939 f9bd 7ab0 2b3e
000002b0: 9499 b73d 965d 83bd dbd1 0f3e c5e2 423e
000002c0: a0bc 433e 5675 ae3c 2b6e 45be 2e96 483e
000002d0: a525 e7bd 5c4c 14be 5fd0 5ebe 7721 babd
000002e0: cd53 a3be 564e 4dbc 00f3 78be c79e a0be
000002f0: bd36 1cbe 5655 40bd 0a6e 853d b112 45bd
00000300: 425f c7bd 5f0d 54bd cf9c 853d f0c3 06be
00000310: 46d0 603d 6ebb 423d 42cb 413e b830 81bd
00000320: c2ec ba3d 1711 15be 6f2c f43d 75ec babd
00000330: f429 e23d ee4d 003d e597 2fbd 0318 073e
00000340: 4439 603e 855e 823e d002 aa3c 63e5 093e
00000350: c166 73bd 9491 333e 2a91 963e 5f96 8b3e
00000360: f468 7c3e 4ae1 3fbc e630 243d 08d9 563e
00000370: 9de6 7dbc 0618 3d3e 1276 3ebe 4f5e 83be
00000380: 912a 623d ef37 5dbd ccdd 19bd edc3 4e3e
00000390: 1ec9 db3d b36b de3d 5f26 c83a 3896 12be
000003a0: b05c aa3d a390 a3bd 7ac6 e2bb a772 343d
000003b0: a52f 6bbc ef95 e43d 0e70 313d af41 8abd
000003c0: a7ce 08be c73f f3bb 8bae 743d 198b eebd
000003d0: 8317 99be eab6 dcbd a53d 48be cc6a 7abe
000003e0: ab02 18be ee9d 713e 1df3 aa3e 74e6 a43c
000003f0: 431b c7bd 4321 3abd e187 7abd abfd 7fbe

conv1.bias f4 [32]
-0.003704109 -0.0031199544 -0.0049300552 -0.0079592625 0.004045601 0.006576501 0.0018434938 0.0027118393
0.0069359657 0.0050705173 0.0070773 -8.1557155e-05 0.005960592 -0.0006018157 0.0024986616 0.08608403
-0.0010429495 0.004521519 0.05176902 -0.0048810695 0.00082806696 -0.0052116294 0.002838195 -0.005475245
0.002542226 0.0036564837 0.0037157563 -0.00620312 0.0007412814 -0.012358109 0.0021164976 -0.0008055887
00000000: a3c0 72bb 2678 4cbb 4d8c a1bb 9167 02bc
00000010: f690 843b b07f d73b 63a1 f13a 1db9 313b
00000020: 1947 e33b 9526 a63b b2e8 e73b aa09 abb8
00000030: 1251 c33b 2bc3 1dba 96c0 233b d34c b03d
00000040: 94b3 88ba 4029 943b c00b 543d 61f1 9fbb
00000050: a212 593a 51c6 aabb 0301 3a3b af69 b3bb
00000060: 7a9b 263b 9ea1 6f3b 0c84 733b 8b43 cbbb
00000070: 8d52 423a aa79 4abc f0b4 0a3b 242e 53ba

conv2.weight f4 [32, 32, 3, 3]
-0.063011326 -0.04859422 0.10342196 0.233924 0.29508677 -0.14206153 -0.061064128 -0.13665621
0.012089137 0.00019997658 -0.20341931 -0.008801069 0.09493618 0.14769115 0.0009100004 0.11722704
-0.01903937 -0.038721487 -0.007385588 -0.19894023 -0.076541886 -0.06673318 -0.09281596 0.17760447
0.0330138 -0.003211568 -0.0066923853 -0.0113360165 -0.1750937 -0.074474275 -0.10558513 -0.25915727
-0.025282562 0.0042664353 0.017002754 -0.031485423 -0.0056049926 0.047241986 0.059090685 0.13729009
0.13908663 -0.017924426 -0.2362137 -0.25907385 0.02656792 0.12961106 -0.010898595 -0.18916947
-0.017692715 -0.10712808 -0.06268809 -0.06933906 0.03951085 0.051503364 0.046788793 0.013242227
-0.06442037 -0.14262365 0.018619148 0.11776224 0.03358343 -0.04535326 -0.12393299 -0.088343546
-0.034108162 -0.07330064 0.1143564 0.11022004 -0.12753758 -0.03848513 -0.0469732 0.22267662
-0.10438588 0.20638312 0.1439703 0.11101436 0.069927916 -0.022742223 -0.16831447 -0.22174016
0.0769718 0.079461105 -0.006984559 -0.032226212 -0.04774164 0.078819394 -0.055303816 -0.16738182
0.10829823 0.11699967 -0.10552301 -0.0028466538 -0.00024184736 0.11693038 0.3469585 -0.079932414
-0.05478197 -0.004427676 -0.047752216 0.11061212 -0.05010728 0.0069049457 0.10437685 -0.03851545
0.11317372 0.0049502365 -0.13716914 -0.1617347 -0.052623507 0.11420474 0.063881345 0.2615967
0.1404844 -0.018112672 -0.0506625 -0.25356275 0.0106829265 -0.039231386 0.09342364 0.18239835
0.11125239 0.063804984 -0.022170816 0.098852865 -0.11278325 0.037443496 -0.017291594 -0.06482763
-0.10679032 0.005484597 -0.035945173 0.04177557 -0.050164122 -0.0059782807 -0.053677637 -0.019655323
-0.077648476 -0.08751607 -0.0025224825 0.107504584 0.105778515 0.0037345442 -0.065922156 -0.07403164
-0.020371998 -0.06381881 -0.09587329 0.048734903 0.03022351 -0.021174977 0.103388935 0.0379233
0.09832146 -0.1292152 0.10829467 0.07382306 0.007261765 0.1838273 0.0063866433 0.015847603
-0.062544465 -0.0795836 0.0035089718 -0.036355093 -0.0516057 -0.013074856 0.07441286 0.11721691
-0.073614605 -0.080159046 0.025809048 0.12591079 -0.020083165 0.026525147 0.026795836 -0.066430524
0.0648292 -0.120971404 -0.16892788 0.0043991646 0.039425462 -0.07289459 0.041862924 0.12977687
0.1647562 0.0025564863 0.014622272 -0.03535355 -0.09994446 0.13086732 0.016414046 -0.015207288
-0.07326565 -0.09662987 0.0070879012 0.07043734 0.011888915 -0.037680984 -0.07088966 -0.034195844
0.0636903 -0.010826086 -0.056124717 -0.038855158 0.012755375 -0.012161206 0.022393374 -0.1143553
-0.047219265 0.1337038 -0.15698569 0.0045793774 -0.11438214 0.08105721 0.12173514 -0.045131937
0.03330449 0.062267177 0.058394104 -0.04631847 -0.11383346 -0.114508145 0.05750669 -0.12326388
-0.12611724 0.09264474 0.03176518 -0.008277652 0.007219152 -0.092731185 -0.08815255 -0.18408899
-0.099752024 0.09214652 0.0034395468 -0.069784544 -0.028558278 0.00428423 0.019451447 -0.21451741
-0.19096507 0.13886745 0.07329391 0.24586909 -0.24465907 -0.14195892 -0.08722069 -0.21940191
-0.06043898 0.10710971 0.17564894 0.10520634 0.03552575 0.16185187 -0.0031032853 -0.31855175
00000000: 150c 81bd bc0a 47bd e4ce d33d c689 6f3e
00000010: 9d15 973e 9478 11be 611e 7abd 9bef 0bbe
00000020: 8411 463c ceb0 5139 274d 50be 5c32 10bc
00000030: e66d c23d 593c 173e 188d 6e3a bb14 f03d
00000040: 74f8 9bbc 6c9a 1ebd cd02 f2bb fdb6 4bbe
00000050: fec1 9cbd 68ab 88bd 4b16 bebd f2dd 353e
00000060: 7a39 073d 2c79 52bb cc4b dbbb b3ba 39bc
00000070: c34b 33be f885 98bd 043d d8bd 43b0 84be
00000080: 601d cfbc 74cd 8b3b 5c49 8b3c dcf6 00bd
00000090: 16aa b7bb d080 413d 1309 723d c695 0c3e
000000a0: ba6c 0e3e 3fd6 92bc 01e2 71be 54a5 84be
000000b0: f7a4 d93c c3b8 043e 0590 32bc a4b5 41be
000000c0: 50f0 90bc f865 dbbd 9d62 80bd a301 8ebd
000000d0: 21d6 213d 31f5 523d 9ba5 3f3d edf5 583c
000000e0: d4ee 83bd ef0b 12be 2f87 983c 542d f13d
000000f0: c78e 093d 57c4 39bd 94d0 fdbd 76ed b4bd
00000100: 00b5 0bbd a51e 96bd b033 ea3d 0bbb e13d
00000110: 3699 02be 95a2 1dbd f866 40bd 5705 643e
00000120: 44c8 d5bd 1956 533e f36c 133e 7f5b e33d
00000130: 5e36 8f3d e64d babc a15a 2cbe da0f 63be
00000140: 64a3 9d3d 81bc a23d bade e4bb a2ff 03bd
00000150: bd8c 43bd 106c a13d 4186 62bd 2466 2bbe
00000160: 76cb dd3d 869d ef3d 731c d8bd ed8e 3abb
00000170: 6898 7db9 3279 ef3d 8ba4 b13e 9bb3 a3bd
00000180: 0f63 60bd 0a16 91bb d497 43bd 9b88 e23d
00000190: 4b3d 4dbd e242 e23b 88c3 d53d 60c2 1dbd
000001a0: a0c7 e73d 9835 a23b 1176 0cbe c89d 25be
000001b0: bf8b 57bd 2de4 e93d 39d4 823d 01f0 853e
000001c0: 24db 0f3e 0761 94bc 7b83 4fbd fad2 81be
000001d0: 7107 2f3c 17b1 20bd e554 bf3d a2c6 3a3e
000001e0: 4bd8 e33d 30ac 823d 929f b5bc 5f73 ca3d
000001f0: e8fa e6bd 5a5e 193d 1aa7 8dbc 59c4 84bd
00000200: e2b4 dabd 22b8 b33b 3f3b 13bd dc1c 2b3d
00000210: e578 4dbd 74e5 c3bb 15dd 5bbd 3304 a1bc
00000220: 2a06 9fbd a03b b3bd 3c50 25bb 5d2b dc3d
00000230: 68a2 d83d 41bf 743b 3202 87bd e79d 97bd
00000240: 2de3 a6bc 70b3 82bd 3759 c4bd 409e 473d
00000250: 4b97 f73c 2577 adbc 94bd d33d 7655 1b3d
00000260: c35c c93d fd50 04be 99c9 dd3d 8b30 973d
00000270: 1af4 ed3b 393d 3c3e 0c47 d13b d5d2 813c
00000280: 5017 80bd bafc a2bd c7f6 653b 14e9 14bd
00000290: 8060 53bd ec37 56bc c565 983d 6b0f f03d
000002a0: 41c3 96bd 6d2a a4bd 7f6d d33c c2ee 003e
000002b0: 7385 a4bc 444b d93c f182 db3c ba0c 88bd
000002c0: 2cc5 843d dbbf f7bd 6efb 2cbe de26 903b
000002d0: 987c 213d c249 95bd 7578 2b3d 3ae4 043e
000002e0: d9b5 283e b98a 273b 4192 6f3c e2ce 10bd
000002f0: aeaf ccbd 1502 063e c076 863c fd27 79bc
00000300: 4d0c 96bd e2e5 c5bd a041 e83b 7441 903d
00000310: b9c9 423c 6057 1abd 992e 91bd f110 0cbd
00000320: 0f70 823d e55f 31bc 08e3 65bd 9626 1fbd
00000330: ecfb 503c cc3f 47bc 4f72 b73c 1d33 eabd
00000340: fd68 41bd a6e9 083e dbc0 20be 9a0e 963b
00000350: 2f41 eabd 5301 a63d 4650 f93d 44dc 38bd
00000360: 4a6a 083d de0b 7f3d a82e 6f3d 70b8 3dbd
00000370: 8421 e9bd 3f83 eabd 238c 6b3d c671 fcbd
00000380: e124 01be 87bc bd3d 351c 023d fd9e 07bc
00000390: a38e ec3b d9e9 bdbd 5389 b4bd d381 3cbe
000003a0: ca4a ccbd 51b7 bc3d 056a 613b 33eb 8ebd
000003b0: 0df3 e9bc ba62 8c3b a458 9f3c 74aa 5bbe
000003c0: 598c 43be 4533 0e3e 1e1b 963d 1bc5 7b3e
000003d0: e887 7abe ae5d 11be c3a0 b2bd e5aa 60be
000003e0: dd8e 77bd 565c db3d 51dd 333e 6c76 d73d
000003f0: 7383 113d 7fbc 253e 7d60 4bbb 3719 a3be

conv2.bias f4 [32]
-0.01245493 -0.0076646176 -0.0008656826 -0.010175144 -0.015333179 -0.005712332 -0.007106006 9.63572e-05
-0.00040450908 -0.011394121 -0.0063491715 -0.0066934037 0.002167906 -0.0019718437 0.010607511 0.0050928085
-0.0039284434 -0.0054294392 0.0028468415 -0.0013225817 -0.0026786225 -0.00211029 -0.002656704 -0.0051636947
-0.0026467594 0.00055883575 0.00018529482 -0.020695888 -0.0046490952 -0.003413051 0.0019403582 -0.0009775056
00000000: c30f 4cbc 7927 fbbb faee 62ba a6b5 26bc
00000010: 0438 7bbc 842e bbbb 80d9 e8bb 6113 ca38
00000020: 4a14 d4b9 68ae 3abc b60c d0bb 5754 dbbb
00000030: 6d13 0e3b 0c3a 01bb 20cb 2d3c 93e1 a63b
00000040: 2cba 80bb 70e9 b1bb 1392 3a3b 7a5a adba
00000050: d48b 2fbb cb4c 0abb 191c 2ebb 3634 a9bb
00000060: 4175 2dbb d57e 123a b34b 4239 6c8a a9bc
00000070: 7057 98bb 7ead 5fbb 9e53 fe3a a51f 80ba

conv3.weight f4 [32, 32, 3, 3]
-0.023587905 0.04063834 -0.03123298 0.13312301 0.07650611 0.1473515 -0.022635946 0.007956612
-0.0014219586 0.12899996 -0.090689555 -0.029112143 -0.18631977 -0.031522967 0.051911928 0.15196264
-0.012426115 -0.02475117 0.010324777 -0.060422294 0.027368467 -0.024639053 -0.070018284 0.0028492403
0.13295546 0.059217546 -0.014322267 0.0197471 -0.022080114 -0.028245213 -0.08148448 -0.0019385137
-0.14013615 0.09443066 -0.02896085 0.081688 0.013578303 0.043972544 -0.14158195 0.11185238
0.024448458 -0.027192287 0.06569508 0.06559306 -0.116245724 -0.019180572 -0.037966575 -0.10442668
0.121641435 0.108215086 -0.036064897 -0.044116568 -0.059675843 0.02039169 -0.065433815 -0.051293314
-0.04269966 -0.040633917 0.0036983094 0.10781762 -0.088507175 0.022570318 0.099394135 -0.037783563
-0.11375013 0.04523275 0.18075745 -0.11362441 0.0028907664 -0.060814485 0.0036415136 0.09910973
0.0021351 -0.08032205 -0.01406076 -0.09287986 -0.026418425 0.012420821 0.052120335 0.06800594
-0.09162419 0.06324988 -0.051993594 -0.09825748 -0.116951086 0.0004912683 -0.042642236 0.10205897
0.010798383 -0.047406 -0.002312191 -0.019205488 0.05806811 0.19891752 0.08331045 -0.02964207
-0.049367573 -0.10109474 -0.07653678 -0.02415481 0.023425872 -0.0050594537 0.098653905 0.053476524
0.004580904 0.043719087 0.1287472 -0.04310945 0.015900264 0.017144542 0.04732079 -0.110832445
-0.07945827 -0.062144298 -0.036081433 0.018087575 -0.042287454 0.055698816 -0.039713867 0.0339686
-0.0039210008 -0.017532617 -0.11960711 0.07207656 -0.101118095 0.12678906 0.07842222 0.11394146
-0.104764916 0.063354775 0.10529092 0.021289691 0.12732925 0.1014608 0.06085374 0.008552932
-0.07699533 -0.06420898 -0.09849588 -0.014457964 0.12327405 0.04016544 -0.029980415 -0.07262199
0.03611652 -0.064759344 0.06279207 -0.10505481 0.023599483 -0.085300125 0.08282821 -0.08105969
-0.06475091 -0.15095311 -0.05252457 0.08630565 -0.012200655 0.0028207148 0.057702247 -0.083889015
0.04342463 -0.0532628 -0.010969011 -0.033975236 0.043529328 0.04038677 -0.09624152 0.022054536
-0.052109975 -0.005827422 -0.07856848 -0.026820373 0.051071376 0.074869744 0.028368395 -0.083158195
0.012272014 -0.1551099 -0.108237736 0.019305415 -0.025337884 -0.03499177 -0.11546803 0.0690935
0.018599315 -0.01738355 -0.013599753 -0.022595612 -0.023785178 -0.01095581 0.0060909935 0.081586435
-0.051773712 -0.1357467 -0.01642987 -0.021778157 0.0035763767 0.12171631 -0.0075850133 -0.014052966
-0.049375817 -0.0036808024 0.028287157 0.052549604 -0.055414353 0.058022328 0.053162627 -0.029134514
-0.03324442 -0.1785134 0.07441857 -0.088457204 0.005131413 -0.023211982 -0.107942864 -0.006130969
-0.053275026 0.063699074 0.16976245 -0.005923069 0.029166484 0.029103534 -0.09056996 -0.045306325
0.12752025 -0.0076010227 -0.001986443 0.05202243 -0.098192185 -0.07754856 0.035615675 0.10196616
0.0169826 -0.07031929 -0.025967529 0.11304883 0.09838781 0.119288154 -0.022033472 -0.037797336
0.011849551 0.0050657187 -0.06813914 -0.024584182 -0.04675078 0.050095636 0.12570222 -0.032410786
-0.090329215 -0.028966974 -0.09824516 -0.004099472 -0.07614796 -0.05451765 0.24755514 -0.062118404
00000000: 6c3b c1bc 6374 263d 4edc ffbc 6651 083e
00000010: 3caf 9c3d 50e3 163e 056f b9bc 735c 023c
00000020: 0361 baba 9118 043e 72bb b9bd 977c eebc
00000030: 9cca 3ebe 3a1e 01bd 9aa1 543d 189c 1b3e
00000040: e796 4bbc f7c2 cabc 4129 293c 5e7d 77bd
00000050: d633 e03c d7d7 c9bc bf65 8fbd 52ba 3a3b
00000060: 7a25 083e 198e 723d f1a7 6abc acc4 a13c
00000070: 5be1 b4bc 8162 e7bc 56e1 a6bd ba15 feba
00000080: da7f 0fbe dd64 c13d 4e3f edbc 0a4c a73d
00000090: 8877 5e3c 8e1c 343d dcfa 10be dc12 e53d
000000a0: 2248 c83c 5cc2 debc 248b 863d a755 863d
000000b0: 3d12 eebd 9320 9dbc d782 1bbd a8dd d5bd
000000c0: 251f f93d df9f dd3d c9b8 13bd 93b3 34bd
000000d0: a86e 74bd 790c a73c 2a02 86bd f018 52bd
000000e0: d7e5 2ebd c06f 26bd 565f 723b 7ccf dc3d
000000f0: 4043 b5bd 63e5 b83c 278f cb3d f0c2 1abd
00000100: d4f5 e8bd fa45 393d 7b18 393e eab3 e8bd
00000110: 0373 3d3b 9c18 79bd 76a6 6e3b 0bfa ca3d
00000120: 09ed 0b3b e37f a4bd 1a5f 66bc cc37 bebd
00000130: 746b d8bc b380 4b3c 227c 553d b346 8b3d
00000140: 77a5 bbbd 2789 813d 3cf7 54bd 383b c9bd
00000150: 0d84 efbd 75c8 003a a0a9 2ebd 4b04 d13d
00000160: b3eb 303c cb2c 42bd 2188 17bb d454 9dbc
00000170: d4d8 6d3d 09b1 4b3e ab9e aa3d edd3 f2bc
00000180: a735 4abd c20a cfbd 51bf 9cbd 4fe0 c5bc
00000190: 9de7 bf3c c6c9 a5bb 0f0b ca3d 330a 5b3d
000001a0: 681b 963b c912 333d 4ed6 033e 8993 30bd
000001b0: 4541 823c b672 8c3c 72d3 413d 1ffc e2bd
000001c0: 04bb a2bd 058b 7ebd 20ca 13bd 652c 943c
000001d0: 9c35 2dbd 7124 643d 02ab 22bd a922 0b3d
000001e0: bd7b 80bb 90a0 8fbc 93f4 f4bd e09c 933d
000001f0: 0117 cfbd fed4 013e d49b a03d 245a e93d
00000200: fd8e d6bd 26c0 813d c4a2 d73d b867 ae3c
00000210: 9962 023e aeca cf3d c541 793d 9921 0c3c
00000220: baaf 9dbd ff7f 83bd 35b8 c9bd 19e1 6cbc
00000230: 1b77 fc3d 8484 243d 7d99 f5bc d7ba 94bd
00000240: ebee 133d 8ca0 84bd 2199 803d fa26 d7bd
00000250: b453 c13c d5b1 aebd d6a1 a93d 9f02 a6bd
00000260: 209c 84bd 7493 1abe 0124 57bd 04c1 b03d
00000270: 42e5 47bc bedb 383b 3159 6c3d 01ce abbd
00000280: 06de 313d 182a 5abd 5eb7 33bc 9e29 0bbd
00000290: cf4b 323d 996c 253d 461a c5bd b7ab b43c
000002a0: 4571 55bd f5f3 bebb 83e8 a0bd 66b6 dbbc
000002b0: 3830 513d 4f55 993d d664 e83c d84e aabd
000002c0: 8f10 493c 21d5 1ebe bfab ddbd 6426 9e3c
000002d0: 6591 cfbc 8853 0fbd 817a ecbd e580 8d3d
000002e0: 975d 983c f267 8ebc 80d1 5ebc 6f1a b9bc
000002f0: 22d9 c2bc ff7f 33bc f596 c73b ca16 a73d
00000300: ac10 54bd 2f01 0bbe ef97 86bc 1b68 b2bc
00000310: a561 6a3b 6746 f93d b48b f8bb 693e 66bc
00000320: 4c3e 4abd 9e39 71bb 78ba e73c 413e 573d
00000330: 29fa 62bd d2a8 6d3d 0ec1 593d 81ab eebc
00000340: 4d2b 08bd 37cc 36be c368 983d 0d29 b5bd
00000350: 6a25 a83b 0e27 bebc 2611 ddbd 4ce6 c8bb
00000360: ea36 5abd a974 823d 35d6 2d3e 4e16 c2bb
00000370: 8dee ee3c 896a ee3c be7c b9bd 2093 39bd
00000380: ab94 023e 0012 f9bb fc2e 02bb 7915 553d
00000390: fc18 c9bd c8d1 9ebd bee1 113d a2d3 d03d
000003a0: 181f 8b3c 8f03 90bd dbb9 d4bc 2586 e73d
000003b0: 8c7f c93d 594d f43d 8a7f b4bc 61d1 1abd
000003c0: 9f24 423c 54fe a53b 898c 8bbd c464 c9bc
000003d0: bf7d 3fbd 1531 4d3d 15b8 003e 2cc1 04bd
000003e0: 86fe b8bd 264c edbc c234 c9bd dd54 86bb
000003f0: 76f3 9bbd e64d 5fbd 187f 7d3e de6f 7ebd

conv3.bias f4 [32]
0.06894689 -0.047084164 -0.036088087 0.014359321 0.024360774 -0.13186958 -0.022738786 -0.14428855
-0.053092506 -0.0026661993 -0.025311979 -0.018361779 0.0014231354 -0.007305128 0.013591676 -0.0040391567
0.09611624 -0.019113075 -0.119497046 -0.039655462 -0.027731314 0.007836654 -0.006019833 -0.024609609
0.011480159 -0.13728826 0.018198896 0.019229747 -2.1216361e-05 0.12798391 0.02505771 -0.020340454
00000000: 0734 8d3d 53db 40bd 1ad1 13bd 5c43 6b3c
00000010: 3f90 c73c d208 07be b146 babc 61c0 13be
00000020: 8777 59bd 67bb 2ebb 115b cfbc 716b 96bc
00000030: 8088 ba3a db5f efbb 9faf 5e3c e75a 84bb
00000040: 97d8 c43d 0693 9cbc deba f4bd c46d 22bd
00000050: c82c e3bc 4f65 003c 0542 c5bb 179a c9bc
00000060: 4717 3c3c 4b95 0cbe da15 953c b487 9d3c
00000070: caf9 b1b7 370e 033e d445 cd3c 06a1 a6bc

conv4.weight f4 [32, 32, 3, 3]
-0.028482392 0.04613392 0.07362957 -0.031272646 -0.07244602 -0.11793123 -0.013100277 0.10886184
-0.052111708 6.899467e-05 -0.09221745 0.056253232 0.033962205 0.01264156 -0.07370979 -0.106867895
0.114902206 -0.021947045 -0.095877826 0.010204874 0.14768131 0.056903206 -0.16245356 0.09552752
0.015791018 0.2950411 -0.012553648 0.13209592 -0.014160847 -0.13635908 -0.025356984 0.047837812
-0.05146104 -0.03486809 -0.0057878844 0.12662295 -0.028581914 -0.01585039 0.11420051 8.246059e-05
-0.0059311637 -0.02954653 -0.08392871 -0.14382544 -0.11083017 0.11152806 0.08879416 -0.13224557
0.04667627 -0.18303452 -0.09695436 0.0009233105 -0.13470876 -0.02180651 0.16749333 0.047980364
-0.06558413 -0.020322202 -0.085799046 -0.16545498 -0.17644894 0.054303937 0.069433704 -0.043515127
-0.0138705615 0.07859341 0.036087945 0.20379594 0.031453293 -0.048194584 -0.0446288 0.08309469
0.046498902 -0.13042046 -0.068307534 0.091721475 -0.00646636 0.03105605 -0.027065208 -0.078121796
0.14729697 -0.010663634 -0.12566441 0.051468197 0.080732755 0.07643332 -0.07193569 -0.019848302
0.020474514 0.059086975 0.04699555 -0.04608306 0.12312736 0.07548402 -0.007919922 -0.02420679
-0.023167916 -0.02631836 0.06374628 -0.026538033 0.18492575 -0.031420242 -0.10533842 -0.01293045
-0.0106256185 0.10106384 0.15443978 -0.060095057 -0.044804197 -0.20662034 0.07562038 0.08792074
-0.0633729 0.1168887 0.01177689 -0.08080885 -0.037012927 0.14429119 -0.0036467216 -0.06830654
-0.055034515 -0.12146756 0.10757999 0.036737382 -0.07773668 -0.06921996 0.014716632 -0.046100225
-0.011432432 -0.093147315 -0.053407416 0.16142213 0.0460188 -0.074121535 0.002847057 0.07354932
0.1243163 -0.09001379 -0.021616295 -0.0439768 -0.072803125 -0.06031726 -0.017710924 -0.1541594
-0.06091711 0.13669181 0.017682014 0.031715125 0.04904923 -0.012793897 -0.010384535 -0.0630366
0.012041745 -0.17933844 0.10009255 -0.09441441 -0.09068834 0.16542064 -0.023452139 -0.036549203
-0.030356565 0.14569925 -0.044607602 -0.038345102 -0.05942931 0.07945111 0.18186831 -0.06027131
-0.020742461 -0.174426 0.024992274 -0.0106656775 -0.067097895 -0.017063154 0.042455144 -0.09134163
0.01633564 -0.059369296 -0.015974948 0.103215456 0.06488186 -0.059757948 -0.0024000208 0.15448631
-0.058920402 -0.04037193 -0.13930647 -0.028222337 0.04358684 -0.07789417 0.057611253 -0.0001056301
0.017451 -0.07917929 -0.00023550174 0.035803534 0.0866293 -0.108395696 -0.13493013 0.2363589
-0.122964345 0.04769251 0.083975084 0.05473009 0.10136488 -0.015283037 0.03713774 0.04519557
-0.04672016 -0.018106736 -0.09987553 0.13349159 -0.006615527 -0.022313101 0.007209332 0.01132929
0.088775665 -0.10396641 0.013030538 -0.103504725 0.030754086 0.1208184 -0.097420394 0.085976675
0.060910255 -0.11012848 -0.19673574 0.1295645 0.014002214 -0.043649193 0.05066446 0.019631526
0.23459491 -0.19631848 -0.05291356 -0.11249726 0.026152963 -0.08820625 0.1171222 0.019379053
0.020837652 -0.012209311 -0.038525634 0.029599372 -0.030055037 -0.03318724 -0.046367094 -0.03156296
0.102369666 -0.13564609 0.037753604 -0.006397534 0.02498358 -0.13216831 0.054080535 -0.044067945
00000000: e853 e9bc ecf6 3c3d 1acb 963d bf17 00bd
00000010: 945e 94bd ee85 f1bd 8ba2 56bc f5f2 de3d
00000020: 1673 55bd 3bb1 9038 81dc bcbd ca69 663d
00000030: f41b 0b3d 8c1e 4f3c 29f5 96bd 8edd dabd
00000040: d951 eb3d 4aca b3bc 985b c4bd 5832 273c
00000050: c539 173e 5613 693d 3a5a 26be efa3 c33d
00000060: 2a5c 813c a10f 973e d1ad 4dbc 2744 073e
00000070: e602 68bc b7a1 0bbe 73b9 cfbc 95f1 433d
00000080: d0c8 52bd d8d1 0ebd 4ba8 bdbb 72a9 013e
00000090: 9e24 eabc add8 81bc f5e1 e93d b1ee ac38
000000a0: 355a c2bb 910b f2bc d1e2 abbd fa46 13be
000000b0: eefa e2bd d368 e43d b6d9 b53d 626b 07be
000000c0: 9e2f 3f3d 676d 3bbe 0290 c6bd 520a 723a
000000d0: 18f1 09be 91a3 b2bc 5f83 2b3e 0f87 443d
000000e0: f950 86bd bf7a a6bc 69b7 afbd 086d 29be
000000f0: 08af 34be ce6d 5e3d 4233 8e3d eb3c 32bd
00000100: 5a41 63bc 95f5 a03d f4d0 133d e2af 503e
00000110: 2bd5 003d af67 45bd b0cc 36bd 8d2d aa3d
00000120: a275 3e3d f18c 05be d2e4 8bbd 78d8 bb3d
00000130: c2e3 d3bb 4269 fe3c dbb7 ddbc 52fe 9fbd
00000140: 04d5 163e 86b6 2ebc 2cae 00be 51d0 523d
00000150: 3757 a53d 1389 9c3d 0553 93bd e898 a2bc
00000160: 2bba a73c 2f05 723d 687e 403d 97c1 3cbd
00000170: 332a fc3d 5e97 9a3d 8fc2 01bc 514d c6bc
00000180: a4ca bdbc 9a99 d7bc 698d 823d 4a66 d9bc
00000190: 2d5d 3d3e 83b2 00bd abbb d7bd 3dda 53bc
000001a0: 1317 2ebc 8ffa ce3d 7625 1e3e 3c26 76bd
000001b0: 9b84 37bd 4894 53be dcde 9a3d ca0f b43d
000001c0: a7c9 81bd 5863 ef3d dbf3 403c 1c7f a5bd
000001d0: de9a 17bd 12c1 133e d6fd 6ebb 4de4 8bbd
000001e0: df6b 61bd fcc3 f8bd e652 dc3d f079 163d
000001f0: 6934 9fbd 32c3 8dbd 071e 713c 97d3 3cbd
00000200: 184f 3bbc 05c4 bebd bcc1 5abd d84b 253e
00000210: 367e 3c3d 08cd 97bd b195 3a3b 07a1 963d
00000220: 8b99 fe3d 2659 b8bd a814 b1bc 0421 34bd
00000230: ce19 95bd 3b0f 77bd 8016 91bc f6db 1dbe
00000240: 3884 79bd f0f8 0b3e dfd9 903c b8e7 013d
00000250: d8e7 483d 7e9d 51bc e623 2abc 5519 81bd
00000260: bd4a 453c 7fa4 37be 53fd cc3d 585c c1bd
00000270: cfba b9bd 0764 293e b31e c0bc 9eb4 15bd
00000280: 55ae f8bc 2f32 153e 76b6 36bd c10f 1dbd
00000290: 266c 73bd 43b7 a23d b03b 3a3e 0ddf 76bd
000002a0: 18ec a9bc bb9c 32be 99bc cc3c 18bf 2ebc
000002b0: 9f6a 89bd 07c8 8bbc 72e5 2d3d 5211 bbbd
000002c0: 52d2 853c 382d 73bd e5dd 82bc a062 d33d
000002d0: c8e0 843d c0c4 74bd ab49 1dbb a931 1e3e
000002e0: 8556 71bd 095d 25bd 5ba6 0ebe 8832 e7bc
000002f0: 1d88 323d fb86 9fbd c7f9 6b3d ba85 ddb8
00000300: 66f5 8e3c c028 a2bd 04f1 76b9 baa6 123d
00000310: b46a b13d 90fe ddbd 202b 0abe 1108 723e
00000320: bbd4 fbbd 3959 433d 21fb ab3d a92c 603d
00000330: 6498 cf3d b465 7abc be1d 183d fd1e 393d
00000340: a35d 3fbd 9454 94bc 8b8b ccbd 05b2 083e
00000350: 10c7 d8bb f7c9 b6bc 433c ec3b 7d9e 393c
00000360: 04d0 b53d 57ec d4bd 0a7e 553c 49fa d3bd
00000370: feef fb3c a36f f73d 5884 c7bd 8a14 b03d
00000380: 087d 793d 0a8b e1bd 1875 49be 8eac 043e
00000390: 8b69 653c 7fc9 32bd 8985 4f3d 4bd2 a03c
000003a0: a639 703e b607 49be e4bb 58bd f764 e6bd
000003b0: bd3e d63c 7aa5 b4bd c4dd ef3d d2c0 9e3c
000003c0: b9b3 aa3c 9009 48bc 0ecd 1dbd 627a f23c
000003d0: fb35 f6bc 58ef 07bd 6ceb 3dbd 2a48 01bd
000003e0: 30a7 d13d cfe6 0abe 86a3 1a3d 68a2 d1bb
000003f0: 5daa cc3c 2157 07be 8d83 5d3d 9780 34bd

conv4.bias f4 [32]
-0.031406824 0.0053721303 -0.049357396 -0.017710362 -0.18471591 -0.054725148 -0.06772626 -0.0051919688
-0.030105665 -0.02003738 -0.061272882 -0.0675574 -0.051760256 -0.027408216 -0.08850547 -0.098371595
-0.060584433 -0.056416318 -0.023266444 -0.05107956 -0.023144614 0.009555924 0.055422377 -0.109266736
-0.056238536 -0.15584634 -0.08529757 -0.32177296 0.0015238656 -0.011072282 0.0141728455 -0.04907763
00000000: 71a4 00bd b208 b03b fb2a 4abd 5215 91bc
00000010: 2b26 3dbe 7a27 60bd 11b4 8abd 6421 aabb
00000020: 28a0 f6bc 6e25 a4bc 46f9 7abd 895b 8abd
00000030: 9002 54bd 3287 e0bc 5b42 b5bd 0c77 c9bd
00000040: 6227 78bd cc14 67bd 4599 bebc cd38 51bd
00000050: c699 bdbc 7390 1c3c 9302 633d 3dc7 dfbd
00000060: 615a 66bd 2f96 1fbe 7eb0 aebd 6dbf a4be
00000070: 72bc c73a 8468 35bc 3935 683c a005 49bd

linear.weight f4 [32, 800]
0.07791233 0.10322218 -0.0019795042 -0.056475177 -0.020433448 -0.24133356 0.03234836 -0.035907235
-0.013587482 0.10501422 -0.04317256 -0.047985602 -0.033098638 -0.027576761 -0.02796398 0.11749068
0.07966203 -0.011063488 -0.0025780639 -0.06848335 0.11566921 -0.0050219144 -0.038407706 -0.017958617
-0.01682571 0.06618935 -0.059777923 0.050803866 0.030544704 0.04139063 -0.2201768 0.070519105
-0.029872876 -0.036133938 0.06489728 0.0686109 0.0115602305 -0.043149333 0.03552185 -0.001381461
0.0023881344 -0.19472061 -0.029873699 -0.049272858 0.1251508 -0.025944045 -0.019201515 0.040101975
0.02086779 0.0072719534 -0.15583646 0.028613325 -0.032556243 0.017741451 -0.032717675 0.08100609
-0.05592553 -0.008199539 0.020751622 -0.021107491 -0.017838383 0.0072754645 -0.013700568 -0.0094648525
-0.011050216 -0.0148207825 0.083046064 0.0009496491 0.013847814 -0.016850306 0.09115403 -0.024208741
-0.00015196107 -0.03370584 0.010522717 0.11858644 -0.055432573 0.087145396 -0.00094740215 -0.06684443
-0.071258485 0.042136397 -0.0140066575 -0.038146965 0.014925516 0.008681628 -0.015625292 0.0059874626
0.03858144 0.03977636 0.07412101 -0.10396236 0.049410667 0.055627353 0.030704673 -0.02801529
0.036239043 0.0284988 0.0122643495 -0.0005271038 -0.10773239 0.060304537 -0.08044741 -0.043234147
-0.016767567 -0.082053505 0.15529543 0.06248591 0.052394096 0.021309197 -0.116970986 0.113511756
0.08203845 0.014265059 0.052198425 -0.103643335 -0.08277813 -0.09341683 -0.11791731 -0.14635773
-0.12227543 -0.15459852 -0.12001787 -0.14701 -0.16925088 0.05960213 -0.02313929 0.06382349
-0.021686861 -0.0010701213 0.037890922 0.12414454 0.03763817 -0.03851634 -0.0037192004 0.053257756
-0.118357375 -0.013042745 0.0044393633 0.08557477 -0.012135879 -0.022449246 -0.024970941 -0.06882415
-0.13178375 -0.02316163 0.06540578 0.029228134 0.017916793 0.078605734 -0.15077616 0.0847887
-0.04156137 0.0330964 0.017103553 0.009012324 0.07187968 -0.09934206 -0.020190166 0.049788523
-0.15722571 0.076307245 -0.023488773 -0.04607527 -0.0068534743 0.080835976 -0.019311594 -0.06752253
-0.036068685 -0.001329332 0.176688 -0.004381122 -0.0051800315 -0.057489373 -0.036373872 0.16190045
-0.1401195 0.043616243 0.010318902 -0.064997286 -0.22821282 0.021019796 -0.021147938 -0.0023220999
0.0215346 0.022412822 -0.017465584 -0.009538759 -0.015335089 0.053845294 -0.008553552 0.055763114
0.029555038 0.03963148 -0.13190462 -0.03725647 0.051390287 0.023146356 0.01773417 0.053822547
-0.049759958 0.053321894 -0.026874555 -0.0076903263 0.008727633 0.096094824 -0.012097133 0.025341474
-0.057136625 0.0396162 -0.0068508876 0.02521901 -0.019296216 -0.011645885 -0.008276665 -0.039407324
-0.0571558 -0.013988787 0.011389962 -0.0071441466 0.049904056 -0.038809016 -0.006187251 -0.04325504
-0.010179408 0.0708297 0.0583128 -0.03493354 -0.090767674 0.05792444 -0.2563764 -0.009424187
-0.025146348 -0.021971785 -0.07109352 0.038152672 0.055360474 -0.010624487 0.042583555 -0.00781389
0.1351591 -0.12971778 -0.059037033 -0.027079854 -0.032422878 0.046165943 0.026459217 0.0063902866
0.049979866 0.028938629 -0.04129459 -0.026985548 -0.010011655 0.026830846 0.045755774 0.0077965716
00000000: 8090 9f3d 2666 d33d 92ba 01bb 8452 67bd
00000010: 0c64 a7bc 2520 77be b77f 043d 7713 13bd
00000020: 089e 5ebc b211 d73d b6d5 30bd 8d8c 44bd
00000030: 7092 07bd a9e8 e1bc b714 e5bc f49e f03d
00000040: d925 a33d a243 35bc bcf4 28bb 0041 8cbd
00000050: fbe3 ec3d df8e a4bb 6651 1dbd f31d 93bc
00000060: 12d6 89bc 488e 873d b2d9 74bd b717 503d
00000070: e338 fa3c 3989 293d 0776 61be 526c 903d
00000080: f6b7 f4bc 2e01 14bd dde8 843d df83 8c3d
00000090: 1f67 3d3c 5bbd 30bd 5c7f 113d 2412 b5ba
000000a0: 3f82 1c3b d764 47be b0b9 f4bc 56d2 49bd
000000b0: 8827 003e 9b88 d4bc 7f4c 9dbc f841 243d
000000c0: edf2 aa3c 9149 ee3b 9893 1fbe 7e66 ea3c
000000d0: b259 05bd 8556 913c f802 06bd 85e6 a53d
000000e0: 2b12 65bd 5c57 06bc 4eff a93c 9ee9 acbc
000000f0: cd21 92bc 0567 ee3b 5978 60bc 7812 1bbc
00000100: f70b 35bc ded2 72bc 0e14 aa3d dff1 783a
00000110: f1e1 623c a709 8abc f7ae ba3d 6951 c6bc
00000120: bd57 1fb9 230f 0abd 7967 2c3c 73dd f23d
00000130: 440d 63bd 4979 b23d 155b 78ba bce5 88bd
00000140: f8ef 91bd 3797 2c3d 2e7c 65bc fe3f 1cbd
00000150: 278a 743c 633d 0e3c 9d00 80bc 7a32 c43b
00000160: 9207 1e3d 89ec 223d c2cc 973d 38ea d4bd
00000170: d762 4a3d 82d9 633d 5e88 fb3c 5280 e5bc
00000180: 646f 143d 5176 e93c 69f0 483c 562d 0aba
00000190: cda2 dcbd e401 773d 9dc1 a4bd 4a16 31bd
000001a0: 235c 89bc ab0b a8bd c405 1f3e 3af1 7f3d
000001b0: 319b 563d a090 ae3c 7c8e efbd da78 e83d
000001c0: c603 a83d feb7 693c 04ce 553d f542 d4bd
000001d0: 9587 a9bd 5351 bfbd a17e f1bd cdde 15be
000001e0: 8a6b fabd 134f 1ebe eecb f5bd ca89 16be
000001f0: 1a50 2dbe 5d21 743d 9c8e bdbc e4b5 823d
00000200: a5a8 b1bc 5043 8cba 8333 1b3d 7e3f fe3d
00000210: 7b2a 1a3d 4fc3 1dbd d4bd 73bb ce24 5a3d
00000220: 5a65 f2bd 3db1 55bc 1478 913b d341 af3d
00000230: 91d5 46bc 7be7 b7bc dc8f ccbc adf3 8cbd
00000240: 52f2 06be 75bd bdbc 77f3 853d d76f ef3c
00000250: 3dc6 923c 0bfc a03d 1165 1abe b3a5 ad3d
00000260: 413c 2abd 1790 073d c01c 8c3c 6da8 133c
00000270: a735 933d da73 cbbd d965 a5bc 0def 4b3d
00000280: c7ff 20be f946 9c3d 876b c0bc 6cb9 3cbd
00000290: 1c93 e0bb 558d a53d 5933 9ebc 4149 8abd
000002a0: c2bc 13bd fb3c aeba b3ed 343e 848f 8fbb
000002b0: 41bd a9bb fa79 6bbd c5fc 14bd 3bc9 253e
000002c0: 7c7b 0fbe f2a6 323d 9d10 293c 4c1d 85bd
000002d0: 9fb0 69be b531 ac3c 713e adbc 5f2e 18bb
000002e0: 5469 b03c 189b b73c fc13 8fbc 7448 1cbc
000002f0: 0640 7bbc e28c 5c3d 3324 0cbc dd67 643d
00000300: 681d f23c 9e54 223d 0112 07be 3e9a 18bd
00000310: 9f7e 523d 6d9d bd3c 4047 913c 0875 5c3d
00000320: 19d1 4bbd 0f68 5a3d 0728 dcbc 22ff fbbb
00000330: 59fe 0e3c 5dcd c43d 0e33 46bc ec98 cf3c
00000340: 1808 6abd 9944 223d 697d e0bb 1998 ce3c
00000350: 1913 9ebc 62ce 3ebc d99a 07bc 9369 21bd
00000360: 331c 6abd 3a31 65bc f79c 3a3c 7219 eabb
00000370: 3268 4c3d 34f6 1ebd 6cbe cabb 322c 31bd
00000380: 88c7 26bc 290f 913d 67d9 6e3d 7916 0fbd
00000390: 67e4 b9bd 2d42 6d3d c443 83be e867 1abc
000003a0: b7ff cdbc 2cfe b3bc 7b99 91bd fa45 1c3d
000003b0: aac1 623d 5412 2ebc 186c 2e3d d505 00bc
000003c0: 2667 0a3e bdd4 04be d1d0 71bd 92d6 ddbc
000003d0: dacd 04bd 8018 3d3d 00c1 d83c 9c65 d13b
000003e0: b0b7 4c3d b410 ed3c 8424 29bd cc10 ddbc
000003f0: ed07 24bc 5dcc db3c 686a 3b3d 627a ff3b

linear.bias f4 [32]
0.28017738 -0.2229183 -0.2204405 -0.019218443 -0.018342556 0.08612735 -0.20635633 0.088136695
0.0024152803 -0.046236143 0.0047343248 -0.23428942 -0.042100776 0.17889236 -0.20105252 0.06106247
-0.068962246 0.1889719 0.05038806 -0.25803408 0.040521704 -0.014870928 0.02792106 -0.031698648
-0.07396787 0.0345649 0.02072723 0.2249358 0.035122354 0.03426532 -0.2512542 0.0066026016
00000000: 6973 8f3e b244 64be 28bb 61be ff6f 9dbc
00000010: 2143 96bc 8963 b03d 134f 53be 0381 b43d
00000020: ae49 1e3b 1c62 3dbd 6522 9b3b 91e9 6fbe
00000030: dd71 2cbd 8f2f 373e b6e0 4dbe a41c 7a3d
00000040: 143c 8dbd da81 413e b663 4e3d 0b1d 84be
00000050: 16fa 253d 31a5 73bc b5ba e43c 71d6 01bd
00000060: 777c 97bd ed93 0d3d 27cc a93c 9255 663e
00000070: 75dc 0f3d cb59 0c3d 64a4 80be a35a d83b

critic_linear.weight f4 [1, 32]
0.13797452 -0.13957235 -0.16614453 0.00040956176 -0.0035069415 0.0007033832 -0.05874738 0.0031137497
-0.0051315976 0.0031428612 -0.0007587883 -0.082149215 -0.0067559457 0.06132007 -0.10877819 0.00028861637
-0.005598956 0.0955672 -0.0013045544 -0.16226941 -0.0005582848 0.0010281653 -0.0035710565 -0.006215829
-0.0064646187 -0.0005906519 -0.0031379336 0.10543778 -0.0035163574 0.0016873983 -0.09048288 -1.5081564e-05
00000000: 3149 0d3e 0eec 0ebe cb21 2abe 73ba d639
00000010: b7d4 65bb 3f63 383a 18a1 70bd 0d10 4c3b
00000020: f626 a8bb 76f8 4d3b 6ce9 46ba d93d a8bd
00000030: fb60 ddbb c12a 7b3d 1ac7 debd 6f51 9739
00000040: 7277 b7bb bcb8 c33d 95fd aaba f429 26be
00000050: dc59 12ba 81c3 863a 6308 6abb 27ae cbbb
00000060: 27d5 d3bb fad5 1aba caa5 4dbb c3ef d73d
00000070: b072 66bb b12b dd3a 174f b9bd d306 7db7

actor_linear.weight f4 [6, 32]
0.08403776 -0.00533193 -0.2139802 0.026725002 0.0057941647 0.068873666 -0.087830454 0.047602065
-0.009860318 -0.011229867 -0.014515691 -0.05333659 -0.000913126 0.22535267 -0.19638106 0.15576239
-0.10269405 0.000732536 0.029293023 -0.20746455 0.03530192 -0.010732774 -0.038833946 0.109784305
-0.0069030654 0.08327093 0.11448383 0.0056807003 -0.0154929925 -0.038479704 -0.029747514 -0.0657482
0.124232195 -0.11614742 -0.09197149 0.0311044 0.0065321485 0.08883543 -0.025879579 0.051598385
0.0021879128 -0.044599444 0.013257279 -0.0004966568 -0.004340576 0.2194796 -0.2518544 0.118932545
-0.12415264 0.032504223 0.057747953 -0.16152291 0.04581842 -0.02423526 0.0076086204 0.0965082
0.004868774 0.064414516 0.14327206 0.20366359 0.03593066 -0.0053363517 -0.15254153 -0.0038021735
0.07079084 -0.09621371 -0.27177504 0.028939085 -0.04452381 0.11503269 -0.11924637 0.09504513
-0.078789294 0.010348186 0.025480203 -0.04645462 -0.0443329 0.104720175 -0.050512258 0.09219012
-0.096888065 0.11096599 0.072875015 -0.14192793 0.0096803 -0.009192151 0.032812577 -0.061101604
-0.05997231 0.067832515 -0.10446595 -0.12319111 0.0041550426 -0.031128306 -0.07423754 -0.031462274
0.11211645 -0.054896984 -0.18283331 0.05353178 -0.010125231 0.14398305 0.07418594 0.082985476
0.019060563 -0.036586948 0.024770726 -0.053490344 0.09332468 0.17401674 -0.071140826 0.102279626
-0.12342194 0.044759735 0.10590084 -0.06269162 0.028183013 -0.038443826 0.013587975 0.14461121
0.07621293 0.09038078 0.1368564 0.16765723 0.04883405 -0.01582348 -0.05014474 -0.024163485
0.15996136 -0.09134787 -0.26079953 0.019820664 -0.052087955 0.08567553 -0.15355535 0.08835135
-0.05559732 -0.015876336 0.00503978 -0.17596054 -0.07056842 0.022126338 -0.15798154 0.11670299
-0.21353549 0.025770748 0.033578172 -0.1674963 0.030071104 -0.026460271 0.010829295 -0.027158907
-0.090388164 0.022238154 0.008103345 -0.03237645 0.028741727 -0.005471451 -0.114009894 -0.003383564
0.19318838 -0.046566788 -0.025623605 -0.0050932853 0.0066924873 0.09104711 0.034331627 0.041140895
0.031697143 -0.00019348384 0.0019180193 -0.094521895 0.06843359 0.14157096 -0.01698719 0.12502944
-0.19551346 0.13194211 0.05109238 -0.16519964 -0.0012583785 -0.017980145 -0.0031162398 0.17000617
0.071393855 0.118315145 0.23610133 0.26766032 0.0029368596 -0.006487873 -0.070311405 0.018591903
00000000: fd1b ac3d 78b7 aebb a01d 5bbe 64ee da3c
00000010: fadc bd3b a30d 8d3d 74e0 b3bd 62fa 423d
00000020: 2c8d 21bc 7afd 37bc 39d3 6dbc 7877 5abd
00000030: d95e 6fba dac2 663e 1e18 49be 2d80 1f3e
00000040: 4251 d2bd a907 403a ecf7 ef3c 9671 54be
00000050: bf98 103d 84d8 2fbc 5810 1fbd 98d6 e03d
00000060: 1c33 e2bb f389 aa3d 8076 ea3d 2b25 ba3b
00000070: 52d6 7dbc e59c 1dbd 0fb1 f3bc fea6 86bd
00000080: 736d fe3d b3de edbd 8c5b bcbd a8ce fe3c
00000090: a20b d63b 5aef b53d 6901 d4bc d458 533d
000000a0: 1663 0f3b e8ad 36bd 0f35 593c 1332 02ba
000000b0: 643b 8ebb 43bf 603e 0ff3 80be e892 f33d
000000c0: bd43 febd 2623 053d 1e89 6c3d 4366 25be
000000d0: 18ac 3b3d 0689 c6bc bc51 f93b 17a6 c53d
000000e0: 3d8a 9f3b c2eb 833d e9b5 123e 308d 503e
000000f0: 072c 133d 90dc aebb d933 1cbe e32d 79bb
00000100: cafa 903d b20b c5bd 1926 8bbe a911 ed3c
00000110: 995e 36bd 4296 eb3d 7137 f4bd 05a7 c23d
00000120: 485c a1bd 708b 293c dcbb d03c 3347 3ebd
00000130: 6a96 35bd 8877 d63d f1e5 4ebd 2cce bc3d
00000140: 406d c6bd 2342 e33d 7f3f 953d 8e55 11be
00000150: 1f9a 1e3c ad9a 16bc 7b66 063d ad45 7abd
00000160: 86a5 75bd c6eb 8a3d 3ef2 d5bd 9f4b fcbd
00000170: 0627 883b ca00 ffbc da09 98bd 96de 00bd
00000180: 4f9d e53d a9db 60bd a838 3bbe 2444 5b3d
00000190: 4ce4 25bc 4b70 133e ccee 973d 4af4 a93d
000001a0: e624 9c3c 32dc 15bd faeb ca3c b118 5bbd
000001b0: 0321 bf3d 7231 323e 48b2 91bd fb77 d13d
000001c0: a4c4 fcbd fc55 373d 8ae2 d83d 7764 80bd
000001d0: 10e0 e63c 4677 1dbd 19a0 5e3c f614 143e
000001e0: 8615 9c3d 8f19 b93d 1624 0c3e 56ae 2b3e
000001f0: 3606 483d 3ea0 81bc 9264 4dbd 80f2 c5bc
00000200: e9cc 233e 9814 bbbd 8487 85be f25e a23c
00000210: 2e5a 55bd a776 af3d 9d3d 1dbe 8df1 b43d
00000220: 04ba 63bd 170f 82bc bd24 a53b 002f 34be
00000230: 2d86 90bd 4b42 b53c eac5 21be fa01 ef3d
00000240: 0ca9 5abe 2d1d d33c 4489 093d 2684 2bbe
00000250: ad57 f63c 36c3 d8bc 5b6d 313c 5b7c debc
00000260: 6e1d b9bd ca2c b63c e4c3 043c 2b9d 04bd
00000270: c573 eb3c dc49 b3bb 057e e9bd c9be 5dbb
00000280: 2dd3 453e d1bc 3ebd 98e8 d1bc 93e5 a6bb
00000290: a74c db3b e876 ba3d 529f 0c3d 5b83 283d
000002a0: ddd4 013d ece1 4ab9 0c66 fb3a b294 c1bd
000002b0: e926 8c3d faf7 103e b828 8bbc b807 003e
000002c0: ae34 48be d51b 073e 3e46 513d 182a 29be
000002d0: 2df0 a4ba 194b 93bc d439 4cbb 1916 2e3e
000002e0: f136 923d 364f f23d 8cc4 713e c60a 893e
000002f0: 5478 403b 3998 d4bb 6dff 8fbd 0c4e 983c

actor_linear.bias f4 [6]
-0.06584648 0.084465824 0.19860448 0.072174914 0.041223478 0.12020092
00000000: 85da 86bd 6bfc ac3d f95e 4b3e 71d0 933d
00000010: f3d9 283d e62b f63d
