spaceinvaders-v0-bottom-7fskip_latent32/model.54.tar (torch, 223035 bytes, 13 tensors)

conv1.weight f4 [32, 4, 3, 3]
0.0037557129 -0.043147024 0.013610465 -0.08002216 -0.3850342 0.05817538 0.09639335 0.06621629
-0.005787473 -0.051535822 0.18127422 0.03832081 -0.0059205713 0.037298914 -0.08039525 0.05938715
0.09462441 -0.012403208 0.03821442 0.1441199 -0.060750596 -0.0895123 -0.028845495 -0.12970194
0.11284195 -0.0026952075 0.12963828 0.15456955 -0.3085817 0.04094399 0.08307252 0.35292417
0.12806977 -0.35117707 -0.14149101 -0.23066945 -0.0023602464 -0.067838 0.17289408 -0.07719326
0.1900668 0.048375893 0.2201813 -0.050452065 -0.17399397 0.021290826 -0.05264564 -0.055082288
-0.042729266 0.06695982 -0.093267955 -0.02857912 0.10134817 0.070252545 -0.028167192 0.20023073
-0.053749412 -0.1256954 0.10775151 0.09441798 0.038097404 0.044803128 0.06396761 0.34788555
-0.29888636 -0.13012227 0.045490894 -0.20104484 -0.0150207905 -0.31521353 0.2911842 -0.05622647
0.07469374 -0.042270232 0.21697205 -0.06839889 0.06785469 0.16939978 -0.23406614 -0.044826224
-0.07888473 -0.17386313 0.011038636 0.006551211 -0.01732399 -0.14029981 -0.09410638 0.07116513
-0.10954144 0.19904935 0.07143471 -0.07845536 0.190048 0.06972941 -0.12275204 -0.021307636
0.15753661 0.08741204 -0.1317816 -0.095066406 0.15080662 -0.14750668 0.06735986 -0.09271721
-0.26777396 -0.06434569 0.2920198 0.028408188 0.18788913 0.11231148 -0.033643056 0.14461882
0.2749606 -0.054881163 0.11439405 0.3787747 0.090606675 0.06378221 -0.22882456 -0.16640273
-0.11980173 -0.03642455 0.14677566 -0.025189506 0.06292336 -0.1442296 -0.061484184 -0.052819088
0.10482068 0.16806984 -0.20836271 0.051063266 0.15468185 0.10735763 0.103533015 0.10208941
0.03304743 0.17122124 -0.21183951 -0.6053127 -0.1968776 -0.056226905 -0.23559467 0.0353952
-0.116616026 -0.122704715 0.20459926 0.0770959 0.07721668 0.025049835 -0.00039637234 0.3325896
-0.10285971 -0.095462985 -0.11896246 -0.12585334 -0.12807795 -0.08696033 0.027649296 -0.054115403
-0.059748005 0.01406989 -0.06592016 0.11477894 -0.07241522 -0.046989366 -0.19654368 -0.12936784
-0.13173397 -0.17635816 -0.12413978 0.21235485 0.10238566 -0.07524117 0.1810291 0.28717205
0.22498816 0.02205989 -0.1430192 0.284655 -0.15506154 -0.16305244 -0.20085967 -0.18015362
-0.39870417 -0.00192444 -0.2668741 -0.3704736 -0.16679575 -0.053713415 0.046412736 -0.06688642
-0.14697756 -0.061408643 0.038432885 -0.1355842 0.053974267 0.03280524 0.19700101 -0.058478083
0.076061554 -0.15789737 0.11697325 -0.10985592 0.124101266 0.083713785 -0.094219625 0.17862907
0.31223506 0.24885455 0.012005294 0.16104266 -0.10346585 0.25252846 0.3519896 0.23430113
0.28726923 -0.021880941 0.027428156 0.27868116 0.067668125 0.22399592 -0.27722138 -0.33264288
0.03699435 -0.028711164 -0.041246243 0.22741087 0.1377049 0.090719454 0.014949006 -0.15086243
0.026105193 -0.08243651 0.0021207994 -0.08872002 0.057257142 0.13096385 0.07669807 -0.049072288
-0.1359942 0.025676772 0.06031478 -0.12073765 -0.37705714 -0.045230597 -0.2018911 -0.34260136
-0.13505098 0.24623083 0.37221193 0.021279147 -0.056594666 -0.024688292 -0.1288695 -0.33921647
00000000: 6822 763b efba 30bd 6efe 5e3c a9e2 a3bd
00000010: 3423 c5be 4f49 6e3d e069 c53d 689c 873d
00000020: d8a4 bdbb 3a17 53bd f39f 393e 48f6 1c3d
00000030: 5a01 c2bb bfc6 183d 44a6 a4bd f13f 733d
00000040: 71ca c13d d336 4bbc b986 1c3d 2b94 133e
00000050: 9ed5 78bd 3a52 b7bd 634d ecbc 96d0 04be
00000060: ae19 e73d 14a2 30bb e6bf 043e 7b47 1e3e
00000070: 6cfe 9dbe e3b4 273d ed21 aa3d 7ab2 b43e
00000080: b924 033e 7bcd b3be 05e3 10be 9d34 6cbe
00000090: 5dae 1abb a6ee 8abd 250b 313e 8017 9ebd
000000a0: dfa0 423e cd25 463d 3577 613e d3a6 4ebd
000000b0: 7a2b 32be 196a ae3c f4a2 57bd f79d 61bd
000000c0: e204 2fbd 3b22 893d 4503 bfbd c21e eabc
000000d0: a18f cf3d 91e0 8f3d e2be e6bc 4909 4d3e
000000e0: 5828 5cbd 4cb6 00be d3ac dc3d 375e c13d
000000f0: 060c 1c3d 7c83 373d 7301 833d 0e1e b23e
00000100: a207 99be c63e 05be a954 3a3d b3de 4dbe
00000110: c319 76bc ab63 a1be 1816 953e ba4d 66bd
00000120: 08f9 983d 8d23 2dbd ec2d 5e3e b814 8cbd
00000130: 66f7 8a3d 2377 2d3e 09af 6fbe b49b 37bd
00000140: 518e a1bd 2d09 32be 65db 343c 8aab d63b
00000150: 0aeb 8dbc c1aa 0fbe d9ba c0bd 06bf 913d
00000160: 4357 e0bd 98d3 4b3e 5c4c 923d 34ad a0bd
00000170: f19b 423e 4bce 8e3d 6c65 fbbd 5a8d aebc
00000180: 4751 213e 1505 b33d c1f1 06be 2db2 c2bd
00000190: 0d6d 1a3e fe0b 17be f7f3 893d 85e2 bdbd
000001a0: ab19 89be acc7 83bd 9f83 953e 4ab8 e83c
000001b0: 0266 403e 9003 e63d 4dcd 09bd f516 143e
000001c0: a3c7 8c3e 12cb 60bd 6d47 ea3d c2ee c13e
000001d0: fe8f b93d 3fa0 823d fc50 6abe 7a65 2abe
000001e0: 9c5a f5bd e931 15bd 5c4c 163e 395a cebc
000001f0: f6dd 803d edb0 13be d7d6 7bbd d458 58bd
00000200: 3aac d63d 801a 2c3e 095d 55be b727 513d
00000210: eb64 1e3e 51de db3d 1e09 d43d 4114 d13d
00000220: be5c 073d 9f54 2f3e 75ec 58be c6f5 1abf
00000230: 489a 49be 2f4e 66bd bb3f 71be 8ffa 103d
00000240: 62d4 eebd 9c4c fbbd 7882 513e 75e4 9d3d
00000250: c723 9e3d 5035 cd3c 32d0 cfb9 2f49 aa3e
00000260: 1da8 d2bd 1982 c3bd 97a2 f3bd b3df 00be
00000270: de26 03be 4218 b2bd c780 e23c 1da8 5dbd
00000280: 53ba 74bd 6585 663c 2601 87bd 3911 eb3d
00000290: 6e4e 94bd ec77 40bd bf42 49be 0179 04be
000002a0: 45e5 06be 3c97 34be ff3c febd 8d73 593e
000002b0: 93af d13d 0b18 9abd b15f 393e 3708 933e
000002c0: 4c63 663e f1b6 b43c a073 12be 4dbe 913e
000002d0: 74c8 1ebe 38f7 26be 28ae 4dbe 317a 38be
000002e0: f422 ccbe 7e3d fcba b9a3 88be b7ae bdbe
000002f0: 81cc 2abe 9902 5cbd 481b 3e3d bffb 88bd
00000300: 4981 16be a187 7bbd cd6b 1d3d 96d6 0abe
00000310: 1f14 5d3d ca5e 063d a2ba 493e b786 6fbd
00000320: 29c6 9b3d d9af 21be ac8f ef3d 24fc e0bd
00000330: ce28 fe3d 2272 ab3d 38f6 c0bd 8aea 363e
00000340: 46dd 9f3e bad3 7e3e dab1 443c 5ee8 243e
00000350: e7e5 d3bd 694b 813e fb37 b43e a3ec 6f3e
00000360: f414 933e a93f b3bc 03b1 e03c 4caf 8e3e
00000370: 9695 8a3d 305f 653e f6ef 8dbe 2b50 aabe
00000380: 6387 173d ad33 ebbc d2f1 28bd 65de 683e
00000390: 8302 0d3e 1fcb b93d adec 743c ae7b 1abe
000003a0: 8fda d53c 79d4 a8bd 1cfd 0a3b d8b2 b5bd
000003b0: 7786 6a3d 631b 063e e113 9d3d 0600 49bd
000003c0: 1042 0bbe 1858 d23c a10c 773d 4d45 f7bd
000003d0: a20d c1be b843 39bd 8abc 4ebe 7269 afbe
000003e0: ce4a 0abe ef23 7c3e 9092 be3e 9b51 ae3c
000003f0: cfcf 67bd 1a3f cabc 5ef6 03be c8ad adbe

conv1.bias f4 [32]
-0.0040421975 -0.002294877 -0.003171622 -0.010936858 -0.0034690101 0.013244499 -0.0015184764 -0.0015309708
-0.0006023943 0.0107791 0.0033390166 -0.0037604303 -0.008505583 -0.016338935 -0.0028214229 0.092475556
-0.0043767192 -0.0047759237 0.06549604 -0.0033313702 0.012047543 -0.012564461 -0.0023128558 0.0006663667
0.0045633866 0.0060472945 -4.9722867e-06 -0.0008324496 -0.016044037 -0.0050542494 0.009008327 0.00010104971
00000000: 6974 84bb a665 16bb fdda 4fbb 8230 33bc
00000010: 5558 63bb 75ff 583c 9d07 c7ba dbaa c8ba
00000020: ffe9 1dba d29a 303c 67d3 5a3b 8d71 76bb
00000030: 005b 0bbc 3bd9 85bc 9fe7 38bb d363 bd3d
00000040: 956a 8fbb 5a7f 9cbb ca22 863d 1e53 5abb
00000050: 0f63 453c 2bdb 4dbc 4893 17bb 1daf 2e3a
00000060: 7688 953b 6228 c63b 9ed7 a6b6 bf38 5aba
00000070: c96e 83bc 1e9e a5bb a997 133c a6ea d338

conv2.weight f4 [32, 32, 3, 3]
-0.15163831 -0.11994835 0.1980078 0.25642627 0.37949455 -0.032839134 -0.13596325 -0.16274588
0.09332737 0.08039801 -0.24959844 0.014507573 0.13546883 0.22851017 0.013135025 0.07408428
-0.15897015 0.020841394 0.09129963 -0.14322631 -0.11006302 -0.08514884 -0.053931378 0.11647793
-0.052769918 0.084076114 0.005512834 -0.01954094 -0.096159235 -0.033722866 -0.21198046 -0.32664204
0.09238859 -0.11990252 0.061697297 0.05900884 -0.023240624 -0.027392037 0.06470787 0.13749947
0.20273511 -0.09927733 -0.018429384 -0.22293937 -0.016416 0.18119825 -0.07415434 -0.24782027
0.057822913 -0.08229847 -0.08065024 0.04351673 0.05884255 0.13071546 0.13690276 0.100423194
-0.1786534 -0.19014053 0.01908834 0.08882514 -0.042289797 -0.057196714 -0.22707272 -0.12426007
-0.03889538 -0.07323618 0.22628808 0.19424228 -0.1633921 -0.044593252 -0.03425594 0.17564246
-0.085990936 0.18719755 0.15989102 0.124245815 0.12926273 -0.0035177777 -0.21961308 -0.18132088
0.019170253 0.07902275 -0.100276165 -0.01965842 0.061031435 0.12921531 -0.04164876 -0.027012283
0.22289546 0.071871065 -0.07547886 -0.027325232 0.023911286 0.2402102 0.4476864 -0.17478965
0.09103714 -0.07805742 -0.07125491 0.11548855 0.020764442 0.013409161 0.12650256 0.018246032
0.040439278 -0.11353856 -0.13944651 -0.26702017 -0.15775287 -0.0015865769 0.05385047 0.31663
0.22026983 -0.099302426 -0.0044435253 -0.28599438 -0.012542837 -0.10027733 0.069394834 0.32016233
0.16091113 0.025602473 -0.06451486 0.11654364 -0.28951833 0.047272682 0.060812708 -0.04503404
-0.1592932 0.15281211 -0.06526271 0.08335125 -0.019169156 -0.14350808 -0.09578198 -0.030418638
-0.05955541 -0.07872124 0.004553926 0.1428038 0.17852718 -0.049047165 -0.05456393 -0.057932876
-0.085945584 -0.12795319 -0.10151795 0.1012801 -0.028342148 -0.09774058 0.119693145 0.044797968
0.16834699 -0.1543092 -0.0084245205 0.005916922 -0.034650378 0.15194063 -0.10605815 0.16806145
-0.077764645 -0.034616347 -0.011092676 -0.05245468 -0.046266206 0.016736455 0.107219435 0.17300679
-0.09789029 -0.0885051 0.01852205 0.07682291 -0.036130056 0.030415019 0.016114375 -0.08160695
0.06263368 -0.07761437 -0.14555234 -0.051132664 0.09895208 -0.19838168 0.13117309 0.055752497
0.12698267 -0.15125024 0.13380109 -0.01410478 -0.047387436 0.14994286 -0.023084298 0.00083676854
-0.1175247 -0.09219572 0.0073650884 0.07802826 -0.03053847 0.023768395 -0.041277424 0.09572828
0.080063194 0.096276596 0.05330062 -0.10130298 -0.082280494 -0.06418945 -0.019118043 -0.07412741
0.017408852 0.16373362 -0.15283886 0.03604364 -0.001467058 0.0076612537 0.20744213 -0.09081988
0.09606742 0.0454001 0.029184258 -0.015808651 -0.12325303 -0.12763596 0.045177564 -0.21834837
-0.08329161 0.1283976 0.02826799 0.007842988 0.09370719 -0.03312171 -0.05116603 -0.13904297
-0.0049370145 0.043310527 -0.11003029 -0.19003753 -0.08628827 0.09310111 0.015566266 -0.23787074
-0.18473351 0.20870528 0.04225732 0.1599077 -0.24950662 -0.114757374 -0.049791172 -0.2724999
0.0036079318 0.059446592 0.15610705 0.17544745 0.20996836 0.28345564 -0.17437108 -0.4095276
00000000: 1347 1bbe 7ba7 f5bd 8fc2 4a3e 4e4a 833e
00000010: 1c4d c23e 5482 06bd f339 0bbe dba6 26be
00000020: 6c22 bf3d b6a7 a43d bc96 7fbe 2cb1 6d3c
00000030: 57b8 0a3e 92fe 693e 4a34 573c 80b9 973d
00000040: 12c9 22be 92bb aa3c 4dfb ba3d eba9 12be
00000050: b868 e1bd 8462 aebd 26e7 5cbd fb8b ee3d
00000060: 4525 58bd 1930 ac3d 01a5 b43b 5214 a0bc
00000070: 22ef c4bd fd20 0abd 6811 59be a03d a7be
00000080: 3b36 bd3d 748f f5bd 4eb6 7c3d 41b3 713d
00000090: 1f63 bebc 4465 e0bc 8f85 843d a9cc 0c3e
000000a0: cb99 4f3e ea51 cbbd 38f9 96bc 384a 64be
000000b0: d97a 86bc 098c 393e 3bde 97bd 99c4 7dbe
000000c0: b8d7 6c3d 1a8c a8bd f42b a5bd 993e 323d
000000d0: e304 713d 46da 053e 3d30 0c3e adaa cd3d
000000e0: ebf0 36be 33b4 42be 275f 9c3c f4e9 b53d
000000f0: 1138 2dbd 1a47 6abd c085 68be 107c febd
00000100: c350 1fbd dafc 95bd 10b8 673e 73e7 463e
00000110: 4250 27be 6aa7 36bd f54f 0cbd 9edb 333e
00000120: 041c b0bd b7b0 3f3e 79ba 233e 9774 fe3d
00000130: 735d 043e 848a 66bb 40e2 60be 2eac 39be
00000140: ef0a 9d3c aed6 a13d 975d cdbd b20a a1bc
00000150: 19fc 793d 0551 043e e497 2abd dd48 ddbc
00000160: b53e 643e 2331 933d a994 9abd 2ad9 dfbc
00000170: 9ae1 c33c aaf9 753e 2737 e53e 0ffc 32be
00000180: ae71 ba3d 92dc 9fbd 18ee 91bd 4385 ec3d
00000190: 311a aa3c 19b2 5b3c e389 013e b478 953c
000001a0: a8a3 253d e886 e8bd 11cb 0ebe deb6 88be
000001b0: f889 21be b0f4 cfba 4f92 5c3d 541d a23e
000001c0: 6a8e 613e 125f cbbd fe9a 91bb db6d 92be
000001d0: 7980 4dbc 335e cdbd e11e 8e3d 51ec a33e
000001e0: e3c5 243e 47bc d13c 5e20 84bd 6fae ee3d
000001f0: bf3b 94be 00a1 413d bf16 793d 9d75 38bd
00000200: c21d 23be c77a 1c3e 75a8 85bd 0fb4 aa3d
00000210: a208 9dbc c8f3 12be 5829 c4bd 8230 f9bc
00000220: 60f0 73bd 9a38 a1bd 1a39 953b 293b 123e
00000230: d4cf 363e aee5 48bd 6d7e 5fbd 064b 6dbd
00000240: 3d04 b0bd 2906 03be a5e8 cfbd f16b cf3d
00000250: cb2d e8bc 372c c8bd ae21 f53d 137e 373d
00000260: 2763 2c3e 3b03 1ebe 0007 0abc bde2 c13b
00000270: 8eed 0dbd 5396 1b3e 0435 d9bd 4d18 2c3e
00000280: 1243 9fbd dfc9 0dbd 0ebe 35bc b8da 56bd
00000290: a281 3dbd e41a 893c dd95 db3d b128 313e
000002a0: b47a c8bd 2942 b5bd 8ebb 973c 5455 9d3d
000002b0: 1cfd 13bd eb28 f93c 4b02 843c 8b21 a7bd
000002c0: 1646 803d 48f4 9ebd ac0b 15be 7c70 51bd
000002d0: 63a7 ca3d 9124 4bbe 3d52 063e bb5c 643d
000002e0: bf07 023e 58e1 1abe 2703 093e bc17 67bc
000002f0: 5419 42bd 9f8a 193e 481b bdbc 965a 5b3a
00000300: cab0 f0bd 1cd1 bcbd d756 f13b 48cd 9f3d
00000310: d02b fabc f0b5 c23c 8412 29bd 300d c43d
00000320: 2cf8 a33d aa2c c53d c051 5a3d f077 cfbd
00000330: ad82 a8bd c275 83bd 719d 9cbc 1dd0 97bd
00000340: 029d 8e3c c9a9 273e ca81 1cbe 7fa2 133d
00000350: 4c4a c0ba 410b fb3b b66b 543e c6ff b9bd
00000360: ffbe c43d 75f5 393d d313 ef3c 2581 81bc
00000370: 166c fcbd 00b3 02be 1c0c 393d b796 5fbe
00000380: cb94 aabd a97a 033e 4692 e73c e07f 003c
00000390: 8ee9 bf3d a1aa 07bd 7993 51bd 4861 0ebe
000003a0: aec6 a1bb 6166 313d 9057 e1bd 3399 42be
000003b0: e8b7 b0bd cbab be3d a709 7f3c 6394 73be
000003c0: c82a 3dbe d6b6 553e 0316 2d3d d8be 233e
000003d0: aa7e 7fbe ea05 ebbd d4f1 4bbd 1b85 8bbe
000003e0: 0d73 6c3b 457e 733d 87da 1f3e 7fa8 333e
000003f0: f201 573e 1921 913e 558e 32be 9aad d1be

conv2.bias f4 [32]
-0.010247577 -0.01197231 -0.028266897 -0.010701072 -0.046490207 -0.026094137 -0.013507522 -0.019199893
0.006740177 -0.012558675 -0.02095065 -0.012750795 0.012290094 -0.008554077 -0.013166429 0.013719741
-0.010526097 0.0017711394 0.001974616 0.007857917 -0.019504126 0.0033730369 -0.010335099 -0.0019321867
0.000954025 -0.0043547777 -0.0036499258 -0.012712123 0.005436826 0.00250044 0.017189855 -0.0138552375
00000000: 74e5 27bc 8227 44bc fb8f e7bc 8d53 2fbc
00000010: 846c 3ebd 5fc3 d5bc a74e 5dbc 1849 9dbc
00000020: b4dc dc3b e7c2 4dbc b3a0 abbc b6e8 50bc
00000030: 645c 493c 6626 0cbc 01b8 57bc c4c8 603c
00000040: a775 2cbc 9425 e83a 8f68 013b 7ebe 003c
00000050: 1ec7 9fbc 2b0e 5d3b 8c54 29bc 6d41 fdba
00000060: 8917 7a3a 86b2 8ebb 9833 6fbb 8246 50bc
00000070: 6727 b23b 6cde 233b bdd1 8c3c 1401 63bc

conv3.weight f4 [32, 32, 3, 3]
-0.11313742 -0.061160002 -0.00967703 0.17102593 0.029689692 0.12438095 0.07589592 0.030884488
-0.015977586 0.21096122 -0.0049853763 -0.09841382 -0.1780328 -0.07702517 0.08920678 0.14382793
-0.002125681 -0.05782637 -0.059796408 -0.044312842 0.028325528 0.11594083 -0.061175223 -0.069850445
0.06210507 0.10069031 -0.0063371356 0.012240711 -0.03903421 -0.14793102 -0.041506916 -0.091855206
-0.18296577 0.1347767 -0.009464637 -0.06953835 -0.019633316 0.050482985 -0.2467594 0.030784894
-0.035149544 -0.070010476 0.16221833 0.055032793 -0.065237954 -0.08601238 -0.016913269 0.045163315
0.15852411 0.05301524 -0.12492172 -0.12799574 -0.13437727 0.017170498 -0.08721387 0.009755861
-0.16620043 0.070544794 -0.09501553 0.034187727 -0.016111318 0.015048014 0.07054408 -0.12532422
-0.22651127 0.011895128 0.28283486 -0.1961607 -0.091367476 -0.16981567 -0.02797313 0.11389169
0.041548353 -0.113489725 -0.026992826 0.05425332 -0.06806229 -0.01794813 -0.029178042 0.1084519
-0.109026596 0.105598815 0.032271057 -0.16969338 -0.037080273 -0.03977402 -0.024434911 0.057235785
-0.0995596 0.086581014 -0.091973975 -0.043166917 -0.059241813 0.14893742 0.070884585 -0.082886666
-0.010487717 -0.18010584 0.014492849 0.13277632 -0.0056783822 -0.09540057 0.15058109 0.16594209
-0.012626427 0.012834496 0.14755207 -0.0771225 0.0073430226 0.080139734 -0.010085361 -0.10123027
-0.021621821 -0.05258981 0.0047562476 0.09729603 -0.05385654 -0.054145895 0.036636874 0.094298355
-0.09866266 0.05591448 -0.08799074 0.088392876 -0.012975258 0.1853984 0.09791181 0.16524531
-0.20486653 0.04132081 0.15935421 -0.050409183 0.10584581 0.14514725 0.04878838 0.0048191
0.007265737 -0.032171227 -0.16884317 -0.11782998 0.13636236 0.14683339 -0.00965597 -0.10957979
-0.021211758 -0.007372776 0.11911399 -0.15623952 -0.16400473 -0.13318303 0.12611498 0.087981485
-0.18701844 -0.13883628 -0.04259249 0.078393996 -0.024690526 -0.06803581 0.06095204 -0.088629335
0.06772115 -0.101446986 -0.059369482 -0.044016 0.00769953 0.14894086 -0.10077819 -0.08853332
0.029676042 -0.0015423485 -0.10738909 0.1076266 0.02063255 0.035346195 0.04507364 -0.10788221
-0.055959508 -0.13165647 -0.07886036 -0.05265331 -0.038488623 -0.17679313 -0.11414288 -0.04443331
0.163273 -0.054729782 -0.036406305 -0.08456683 0.04732448 0.041378893 0.03366775 -0.029166443
-0.054976538 -0.2438968 -0.068220705 -0.022626074 0.072241254 0.032833252 0.045819413 -0.017389849
-0.17421041 -0.09978214 0.008256955 0.025609588 -0.014752454 -0.008333539 -0.099704266 0.044098854
0.017246798 -0.29648647 0.2292237 -0.17852427 -0.030595263 -0.001979057 -0.099550955 -0.14267707
-0.13693902 0.13855426 0.19471478 0.009141151 0.025526978 -0.03587585 -0.03769958 -0.0759012
0.20721464 -0.009723111 -0.06398741 0.09886054 -0.1501978 -0.107776865 0.056762062 0.021675529
-0.032297608 -0.16570395 -0.22084145 0.16126093 0.16773733 0.10380266 0.017067056 -0.03134115
-0.045425605 -0.033187892 -0.0013032105 0.00280813 -0.054771744 0.10914704 0.051987503 -0.08627422
-0.14892372 -0.023722908 -0.14328049 0.013136458 -0.095366806 -0.044708643 0.25483936 -0.07726092
00000000: 97b4 e7bd e982 7abd 688c 1ebc 6c21 2f3e
00000010: cc37 f33c 71bb fe3d 526f 9b3d 7701 fd3c
00000020: 6de3 82bc 3806 583e 5e5c a3bb 2f8d c9bd
00000030: 3b4e 36be 5fbf 9dbd 0bb2 b63d a147 133e
00000040: 024f 0bbb 58db 6cbd 14ed 74bd 6281 35bd
00000050: f00a e83c 6372 ed3d df92 7abd c00d 8fbd
00000060: e361 7e3d b936 ce3d bfa7 cfbb 438d 483c
00000070: 56e2 1fbd 3b7b 17be 2803 2abd 951e bcbd
00000080: 615b 3bbe e702 0a3e 9111 1bbc 1f6a 8ebd
00000090: 0cd6 a0bc 3fc7 4e3d 7fae 7cbe 9a30 fc3c
000000a0: f8f8 0fbd a761 8fbd 901c 263e 116a 613d
000000b0: 7a9b 85bd 4227 b0bd b28d 8abc 2bfd 383d
000000c0: 2554 223e 8226 593d f5d6 ffbd 5111 03be
000000d0: 329a 09be 25a9 8c3c 2f9d b2bd 0cd7 1f3c
000000e0: 7230 2abe ca79 903d 8197 c2bd 6e08 0c3d
000000f0: e2fb 83bc f28b 763c 6a79 903d fe54 00be
00000100: 92f2 67be c8e3 423c bbcf 903e 5ade 48be
00000110: df1e bbbd 29e4 2dbe e827 e5bc 0c40 e93d
00000120: 9b2e 2a3d 4d6d e8bd 0f20 ddbc bb38 5e3d
00000130: 3e64 8bbd f507 93bc ca06 efbc 081c de3d
00000140: 5649 dfbd 3144 d83d a82e 043d 1ac4 2dbe
00000150: 7ce1 17bd 15ea 22bd b92b c8bc 1270 6a3d
00000160: e7e5 cbbd 6351 b13d da5c bcbd cbcf 30bd
00000170: 8ba7 72bd 0d83 183e f02b 913d 7cc0 a9bd
00000180: acd4 2bbc aa6d 38be 6a73 6d3c 84f6 073e
00000190: b911 babb 6061 c3bd ee31 1a3e b9ec 293e
000001a0: 13df 4ebc c747 523c e417 173e 67f2 9dbd
000001b0: bd9d f03b 4d20 a43d 123d 25bc d151 cfbd
000001c0: 3f20 b1bc 6a68 57bd 4cda 9b3b 2443 c73d
000001d0: ad98 5cbd 16c8 5dbd 8c10 163d 7f1f c13d
000001e0: a60f cabd 9506 653d 7d34 b4bd 5307 b53d
000001f0: 2d96 54bc 14d9 3d3e fd85 c83d 1136 293e
00000200: 88c8 51be 0240 293d c02d 233e dc79 4ebd
00000210: b0c5 d83d 7ba1 143e 53d6 473d 8ae9 9d3b
00000220: 6b15 ee3b fac5 03bd 39e5 2cbe d850 f1bd
00000230: 93a2 0b3e 7e5b 163e 1334 1ebc 5e6b e0bd
00000240: 48c4 adbc 5497 f1bb 09f2 f33d 41fd 1fbe
00000250: dbf0 27be 2261 08be 4924 013e a32f b43d
00000260: c381 3fbe 192b 0ebe 7675 2ebd 088d a03d
00000270: c943 cabc 5c56 8bbd d9a8 793d 4c83 b5bd
00000280: 63b1 8a3d 70c3 cfbd 6a2d 73bd 1f4a 34bd
00000290: 574c fc3b f483 183e cc64 cebd f550 b5bd
000002a0: 2c1b f33c a128 caba d0ee dbbd 566b dc3d
000002b0: 9805 a93c 2cc7 103d 239f 383d 59f1 dcbd
000002c0: cc35 65bd f4d0 06be 8a81 a1bd ffaa 57bd
000002d0: 3fa6 1dbd 4209 35be bec3 e9bd b4ff 35bd
000002e0: 0a31 273e 562c 60bd c71e 15bd 6031 adbd
000002f0: 50d7 413d ea7c 293d 32e7 093d 77ee eebc
00000300: 142f 61bd 15c0 79be 4cb7 8bbd 515a b9bc
00000310: 39f3 933d 297c 063d 23ad 3b3d 2875 8ebc
00000320: 3764 32be 945a ccbd 2e48 073c 33cb d13c
00000330: 47b4 71bc 6589 08bc c031 ccbd 00a1 343d
00000340: 2849 8d3c 13cd 97be 9eb9 6a3e 11cf 36be
00000350: eba2 fabc 11b3 01bb 5fe1 cbbd f019 12be
00000360: be39 0cbe 2be1 0d3e 5063 473e c4c4 153c
00000370: f41d d13c 8ef2 12bd e06a 1abd 1772 9bbd
00000380: 1330 543e af4d 1fbc d50b 83bd 6577 ca3d
00000390: 74cd 19be 1eba dcbd 567f 683d e190 b13c
000003a0: 7f4a 04bd 4cae 29be 4324 62be 9621 253e
000003b0: 56c3 2b3e 7d96 d43d 36d0 8b3c 945f 00bd
000003c0: 3310 3abd 07f0 07bd 7dd0 aaba 9b08 383b
000003d0: 5658 60bd 7c88 df3d d9f0 543d 8ab0 b0bd
000003e0: 767f 18be 8b56 c2bc 1fb8 12be 4c3a 573c
000003f0: ac4f c3bd 6920 37bd 4e7a 823e f93a 9ebd

conv3.bias f4 [32]
-0.005674677 -0.051563088 -0.026920652 0.005558135 -0.0020130924 -0.20985529 -0.018471701 -0.16069725
-0.036229722 -0.01389366 -0.044410825 -0.04785646 -0.0107810665 -0.023507174 0.004996755 -0.035919297
0.030439397 0.01821983 -0.16381407 -0.019882586 -0.023967644 0.021472821 -0.029224396 -0.03987038
-0.0023485573 -0.15087274 0.008504031 -0.0056570484 -0.022264237 0.10464965 -0.011462067 -0.029567983
00000000: a4f2 b9bb d133 53bd b388 dcbc 0421 b63b
00000010: 16ee 03bb 4ee4 56be f751 97bc d28d 24be
00000020: 9e65 14bd 3ca2 63bc 20e8 35bd 2305 44bd
00000030: 12a3 30bc 1e92 c0bc d2bb a33b 1d20 13bd
00000040: 0b5c f93c c141 953c e0be 27be cee0 a2bc
00000050: cb57 c4bc c5e7 af3c 0068 efbc 204f 23bd
00000060: 41ea 19bb 627e 1abe 7e54 0b3c c35e b9bb
00000070: 7d63 b6bc 8e52 d63d 65cb 3bbc 8e38 f2bc

conv4.weight f4 [32, 32, 3, 3]
0.06689495 -0.0059770877 0.006383569 -0.04425146 -0.15192163 -0.104834504 -0.004532184 0.0008113817
-0.109791085 -0.0034516223 -0.10947914 0.040677723 -0.041199584 0.021538174 -0.007247614 -0.108064376
-0.021899434 0.01657087 -0.07178144 0.055560563 0.19370353 0.03414502 -0.076236114 -0.008683791
-0.078638904 0.22631977 -0.015109543 0.20821242 -0.09666517 0.011426596 0.011181228 0.020970818
-0.049509555 -0.015399081 0.025251566 0.08697299 -0.0361664 -0.10623096 0.07638967 0.035981465
-0.016377287 0.07006845 0.09663562 -0.14997217 -0.053652946 0.21112601 0.0721306 -0.117394954
0.058510438 -0.15139207 -0.062443957 -0.051389847 -0.082772724 -0.004416675 0.19513202 -0.04689827
-0.09102153 -0.079941906 -0.124109626 -0.12244153 -0.098864704 0.09027106 0.0075994446 -0.033293933
-0.08015934 0.09199701 0.07297643 0.17568463 0.057498433 -0.079898484 0.025175957 0.1375524
0.016055753 -0.045504764 -0.06718771 0.073015995 0.08638893 -0.008457569 -0.12942985 -0.08789778
0.19778955 0.11088938 -0.15826371 0.013740494 -0.04634294 0.14984927 -0.18009606 -0.047657847
-0.0021400447 0.063682206 0.086703815 -0.052514203 0.11812334 0.11133771 -0.106252596 -0.08759428
-0.06410715 -0.07864832 0.11982717 -0.039476164 0.10744195 -0.061677292 0.085888326 -0.069014296
-0.15860395 0.05457329 0.11058195 -0.07751869 -0.05493146 -0.11750675 0.08918275 0.15244071
-0.07744589 0.109760195 0.045809828 0.01264832 0.007432344 0.20975912 -0.11559349 -0.015471859
-0.054061342 -0.19731541 0.16657189 0.041804798 -0.07536484 -0.10579548 0.038033266 -0.03669142
-0.00036588704 -0.2065552 -0.05436263 0.17418127 0.08831065 0.03718586 0.0076817474 0.058630086
0.09298211 -0.064903796 -0.08578721 0.0047522434 -0.033157755 -0.093505256 0.1729933 -0.14879268
-0.10398142 0.035393007 -0.10479621 -0.037992172 0.08998767 0.048001148 0.10640463 -0.17142576
-0.050779868 -0.22356641 0.17392895 -0.06658615 -0.13897818 0.11252016 0.076288104 -0.062455397
-0.028692603 0.10640242 -0.020354496 -0.08990341 -0.041474458 0.08254642 0.13586427 -0.08060238
-0.012525789 -0.101101026 0.06316357 -0.01914876 -0.106560595 -0.05878179 0.06319209 -0.021257233
-0.040008344 -0.049050108 -0.2125737 0.013071531 0.07509058 -0.043741707 0.15658851 0.21029976
-0.18153939 -0.105542734 -0.13470386 0.019756183 -0.02089566 -0.13395944 0.08512838 0.039170623
0.11724226 -0.011103243 -0.03257338 0.09789216 0.15747581 -0.19523647 -0.16081552 0.23078057
-0.1275783 0.015153577 0.16417792 0.039487652 0.049505677 -0.041357722 -0.0028008872 0.131732
-0.17206256 -0.10831422 -0.109256364 0.062208287 0.0070677022 -0.008408611 -0.0065828282 0.09130756
-0.038400844 -0.086002894 0.056549903 -0.19397505 0.06314509 0.10484423 -0.11782647 0.112379834
0.13456273 -0.12014075 -0.18831296 0.11883616 -0.018614044 0.02857346 0.05759223 0.0063527226
0.26034728 -0.2915599 -0.021669269 -0.0016969298 0.057561886 -0.013699362 0.18491091 -0.046421867
0.06527541 -0.12470102 0.026990067 0.06738595 -0.066902466 0.07510062 -0.17513153 0.009938894
0.16067776 -0.17563261 -0.010677738 -0.048251856 0.08106054 -0.08343945 0.027768778 -0.12852499
00000000: 3800 893d 72db c3bb 422d d13b 0541 35bd
00000010: 5891 1bbe 79b3 d6bd b782 94bb e7b2 543a
00000020: 26da e0bd 9d34 62bb 9936 e0bd af9d 263d
00000030: e5c0 28bd d370 b03c 657d edbb db50 ddbd
00000040: 7166 b3bc a2bf 873c 2602 93bd 7993 633d
00000050: 385a 463e a6db 0b3d ae21 9cbd 7646 0ebc
00000060: 6f0d a1bd 5fc0 673e 048e 77bc a335 553e
00000070: 63f8 c5bd 9e36 3b3c 7831 373c feca ab3c
00000080: 88ca 4abd 6d4c 7cbc 5fdc ce3c e51e b23d
00000090: 3823 14bd 9e8f d9bd 3072 9c3d 4d61 133d
000000a0: a929 86bc 0c80 8f3d e5e8 c53d 4e92 19be
000000b0: 31c3 5bbd 6b31 583e 35b9 933d c46c f0bd
000000c0: a4a8 6f3d 8606 1bbe 3cc5 7fbd 297e 52bd
000000d0: bf84 a9bd c1b9 90bb b0d0 473e 6618 40bd
000000e0: 7f69 babd 95b8 a3bd 302d febd a0c2 fabd
000000f0: 9479 cabd 09e0 b83d c304 f93b 385f 08bd
00000100: 942a a4bd ee68 bc3d ab74 953d ace6 333e
00000110: 7a83 6b3d d1a1 a3bd cf3d ce3c 89da 0c3e
00000120: 5b87 833c 3463 3abd b699 89bd 6989 953d
00000130: aeec b03d 9e91 0abc 4289 04be c003 b4bd
00000140: 5889 4a3e f919 e33d e20f 22be cf1f 613c
00000150: 18d2 3dbd 1672 193e 1a6b 38be e034 43bd
00000160: fe3f 0cbb d16b 823d c591 b13d 2219 57bd
00000170: a6ea f13d 0605 e43d f69a d9bd a164 b3bd
00000180: 9c4a 83bd 5f12 a1bd f367 f53d c2b1 21bd
00000190: 860a dc3d 54a1 7cbd 38e6 af3d 5e57 8dbd
000001a0: 1369 22be 3e88 5f3d ca78 e23d 1ec2 9ebd
000001b0: d0ff 60bd 61a7 f0bd 72a5 b63d 6b19 1c3e
000001c0: f39b 9ebd f4c9 e03d 16a3 3b3d e63a 4f3c
000001d0: 058b f33b 18cb 563e 48bc ecbd ae7d 7dbc
000001e0: 6d6f 5dbd 0d0d 4abe d291 2a3e 823b 2b3d
000001f0: e258 9abd 4dab d8bd c5c8 1b3d be49 16bd
00000200: 87d4 bfb9 3583 53be 59ab 5ebd 935c 323e
00000210: 37dc b43d 3350 183d 2bb7 fb3b 1a26 703d
00000220: 686d be3d 48ec 84bd 34b1 afbd b5b8 9b3b
00000230: 6dd0 07bd af7f bfbd 2825 313e 1c5d 18be
00000240: 36f4 d4bd 42f8 103d 659f d6bd ae9d 1bbd
00000250: 754b b83d da9c 443d acea d93d 3c8a 2fbe
00000260: 8dfe 4fbd 98ee 64be 6e1a 323e 525e 88bd
00000270: 4c50 0ebe f870 e63d f03c 9c3d 3bd1 7fbd
00000280: c00c ebbc 83e9 d93d 79be a6bc 471f b8bd
00000290: 1fe1 29bd 190e a93d 0120 0b3e dc12 a5bd
000002a0: f838 4dbc 0e0e cfbd e75b 813d dcdd 9cbc
000002b0: 713c dabd 2dc5 70bd db6a 813d a623 aebc
000002c0: cadf 23bd c4e8 48bd ecac 59be fa29 563c
000002d0: 17c9 993d 812a 33bd bd58 203e d258 573e
000002e0: 76e5 39be ca26 d8bd cfef 09be b8d7 a13c
000002f0: 602d abbc aa2c 09be ca57 ae3d 6071 203d
00000300: b61c f03d 60ea 35bc aa6b 05bd af7b c83d
00000310: 5741 213e 12ec 47be d3ac 24be be51 6c3e
00000320: e3a3 02be b546 783c 421e 283e cebd 213d
00000330: 77c6 4a3d b766 29bd 178f 37bb c1e4 063e
00000340: 2b31 30be d9d3 ddbd cdc1 dfbd 1ece 7e3d
00000350: 2f98 e73b 45c4 09bc c4b4 d7bb 75ff ba3d
00000360: 344a 1dbd 4922 b0bd dfa0 673d 65a1 46be
00000370: 3752 813d 92b8 d63d 014f f1bd 6627 e63d
00000380: d0ca 093e 5b0c f6bd 1dd5 40be 5f60 f33d
00000390: 7b7c 98bc e412 ea3c d5e5 6b3d 802a d03b
000003a0: 3d4c 853e 5747 95be c083 b1bc 846b deba
000003b0: 03c6 6b3d 4a73 60bc 4959 3d3e db24 3ebd
000003c0: 1daf 853d 4063 ffbd 461a dd3c a501 8a3d
000003d0: 2904 89bd 5bce 993d ae55 33be bed6 223c
000003e0: b688 243e 09d9 33be aef1 2ebc bda3 45bd
000003f0: 1203 a63d 4de2 aabd 597b e33c 0e9c 03be

conv4.bias f4 [32]
-0.1602058 -0.07047256 -0.0369639 -0.027395608 -0.40523505 -0.16246884 -0.13054815 -0.081241496
-0.030120028 -0.124660924 -0.08996254 -0.13495308 -0.17283702 -0.05451453 -0.1522933 -0.1311341
-0.14149119 -0.12381756 -0.123208866 -0.03979019 -0.035498068 -0.048364554 -0.10568399 -0.15907393
-0.032204818 -0.23592089 -0.19808352 -0.40929803 -0.026708832 -0.01561134 -0.0838003 -0.19521175
00000000: fd0c 24be eb53 90bd 7567 17bd c16c e0bc
00000010: f87a cfbe 3b5e 26be 6aae 05be f161 a6bd
00000020: 47be f6bc 3a4e ffbd 483e b8bd 2431 0abe
00000030: 30fc 30be a14a 5fbd c6f2 1bbe 0448 06be
00000040: 11e3 10be 1094 fdbd ee54 fcbd 0afb 22bd
00000050: 6c66 11bd e919 46bd d970 d8bd 47e4 22be
00000060: 33e9 03bd 3f95 71be 68d6 4abe 838f d1be
00000070: 7bcc dabc b5c6 7fbc 7e9f abbd 97e5 47be

linear.weight f4 [32, 800]
0.030072948 0.09879657 -0.034689497 -0.0548919 0.02367633 -0.28624466 0.015748251 -0.03228012
-0.0010633331 0.05715144 0.057747055 -0.027244218 -0.07425267 -0.0046811346 0.023205932 0.15346602
0.09523206 -0.081606135 -0.008132362 -0.08828578 0.07350012 0.0067685726 -0.026618889 -0.006168513
-0.005035431 0.14748952 -0.044611003 0.07677126 -0.016523233 0.031702194 -0.29757 0.04497262
-0.009543519 -0.019234905 0.068473384 0.16746734 0.009112525 -0.044089787 0.0011707918 -0.0011387847
0.0047375113 -0.27625898 -0.045328695 -0.05306233 0.14109632 -0.11106594 -0.01129891 0.048003867
0.028736778 0.015142043 -0.097199686 0.0032732685 -0.018862223 -0.0022157636 0.004306402 0.178298
-0.043838277 -0.032037463 0.0730393 -0.026043877 -0.00430853 0.042135548 0.0019933393 0.015356273
-0.042599626 -0.0066538895 0.06605437 0.023353608 -0.021619078 -0.06827786 0.005454583 -0.020532941
0.0035238233 -0.030028928 0.014198455 0.110044174 -0.054505557 0.13152708 0.0055019096 -0.061345644
-0.10985734 0.06753984 -0.00030533914 -0.03531471 0.031838946 0.021725403 -0.014701601 0.022647707
0.028096834 -0.0044170353 0.08641457 -0.09471289 0.08069337 0.040760186 0.06876518 -0.062692
0.029281817 0.021540157 0.005306256 -0.0074849664 -0.17768149 0.10894481 -0.081163555 0.014104812
0.025895398 -0.1571921 0.16648732 0.101174556 0.0953462 0.02151764 -0.18960863 0.20628546
0.08911052 0.040994987 0.12123915 -0.18628614 -0.16834442 -0.16392544 -0.17308865 -0.24223521
-0.20659636 -0.25640565 -0.22182001 -0.2488169 -0.27106184 0.030920617 -0.061224546 0.046843756
-0.040288236 0.060465246 0.04283833 0.17662404 0.0316948 -0.031322006 -0.013045458 0.0054699536
-0.24621898 0.005487329 0.015302328 0.08981339 -0.059024822 -0.08370255 -0.045256406 -0.09575167
-0.09104531 -0.069549486 0.06613417 0.029955842 0.018644346 0.07933776 -0.14063095 0.057574462
-0.08614545 0.0022434797 0.114505135 0.07862081 0.084847525 -0.11818597 -0.04289531 0.07038133
-0.14169261 0.047715113 -0.009769987 -0.064722195 -0.005825683 0.027891045 0.00085823145 -0.00855381
0.030743018 -0.0060042767 0.12741725 -0.0020478142 -0.0028467444 -0.05515491 -0.034040377 0.18226749
-0.13904116 0.04072921 0.028934797 -0.075182214 -0.2125682 0.04757165 0.014008306 -0.025969867
0.05174281 0.084590934 -0.012725077 -0.008053459 0.005777287 0.059585694 -0.048830375 0.050691817
0.015557015 0.01977494 -0.11331178 -0.05748231 0.036166996 0.007920938 0.0025099746 0.038599253
-0.058061477 0.029159324 -0.026551252 -0.03827632 0.056064323 0.07165209 0.0036328193 -0.019847644
-0.053312674 0.02737142 0.01816989 -0.033728626 -0.061022807 -0.0019876398 0.021101002 0.005471096
-0.018449374 0.06744107 0.0024183847 -0.05162408 0.10316204 -0.026810985 0.005810342 -0.031256497
0.0021232758 0.08465596 0.08972794 -0.09347844 -0.107520744 0.103024244 -0.30262265 -0.0026478511
-0.013004825 -0.053694356 -0.050378148 0.0877237 0.12813768 -0.029807298 0.050088312 0.007559679
0.1219523 -0.14004967 -0.048747636 -0.028199408 -0.009066942 0.00649659 0.016453225 -0.0036156587
0.039975654 0.018932745 -0.03774426 -0.055139363 0.044895787 -0.0002706443 0.026621213 -0.037076693
00000000: 8b5b f63c db55 ca3d 9316 0ebd 54d6 60bd
00000010: ddf4 c13c a98e 92be 7a02 813c 2938 04bd
00000020: 8a5f 8bba a117 6a3d 2d88 6c3d 442f dfbc
00000030: c911 98bd 3464 99bb 5e1a be3c 3226 1d3e
00000040: 0709 c33d 1e21 a7bd 993d 05bc 2dcf b4bd
00000050: 3b87 963d e7ca dd3b db0f dabc 3d21 cabb
00000060: 4200 a5bb 7e07 173e 07ba 36bd 403a 9d3d
00000070: bb5b 87bc 29da 013d 185b 98be 3635 383d
00000080: 6b5c 1cbc 8592 9dbc c63b 8c3d 8f7c 2b3e
00000090: b34c 153c 7e97 34bd 4175 993a 4643 95ba
000000a0: 203d 9b3b d171 8dbe 95aa 39bd e357 59bd
000000b0: 8e7b 103e 8a76 e3bd 101f 39bc b49f 443d
000000c0: 6469 eb3c 5516 783c a110 c7bd 5584 563b
000000d0: f384 9abc 5836 11bb b81c 8d3b c093 363e
000000e0: c48f 33bd b739 03bd a195 953d f859 d5bc
000000f0: 922e 8dbb 5396 2c3d afa2 023b e198 7b3c
00000100: f27c 2ebd df08 dabb 8347 873d 1150 bf3c
00000110: 7e1a b1bc 43d5 8bbd 5cbc b23b b334 a8bc
00000120: f2ef 663b 3aff f5bc a3a0 683c d75e e13d
00000130: 3841 5fbd 09af 063e 5d49 b43b 9245 7bbd
00000140: e3fc e0bd 5452 8a3d ed15 a0b9 28a6 10bd
00000150: 8e69 023d 79f9 b13c fcde 70bc af87 b93c
00000160: 552b e63c c7bc 90bb 1ffa b03d d5f8 c1bd
00000170: 9142 a53d 27f4 263d c2d4 8c3d aa64 80bd
00000180: 6ce0 ef3c fc74 b03c 1ae0 ad3b 7344 f5bb
00000190: 23f2 35be 751e df3d 1439 a6bd df17 673c
000001a0: 9622 d43c f7f6 20be a77b 2a3e 9b34 cf3d
000001b0: de44 c33d c345 b03c c428 42be 7f3c 533e
000001c0: 947f b63d 5cea 273d 3b4c f83d cbc1 3ebe
000001d0: 7b62 2cbe 12dc 27be 273e 31be 820c 78be
000001e0: ff8d 53be 9a47 83be c924 63be dcc9 7ebe
000001f0: 9ec8 8abe 3c4d fd3c 97c6 7abd 3ddf 3f3d
00000200: 4705 25bd 68aa 773d 3f77 2f3d efdc 343e
00000210: 68d2 013d 814b 00bd 9ebc 55bc 4c3d b33b
00000220: d420 7cbe 0dcf b33b 9eb6 7a3c 15f0 b73d
00000230: 03c4 71bd 3e6c abbd c85e 39bd 7419 c4bd
00000240: f775 babd f66f 8ebd 5a71 873d f465 f53c
00000250: 07bc 983c d67b a23d 8f01 10be 33d3 6b3d
00000260: 076d b0bd 5807 133b ab81 ea3d f203 a13d
00000270: 8ac4 ad3d 7c0b f2bd feb2 2fbd 1624 903d
00000280: de17 11be ec70 433d 4c12 20bc 128d 84bd
00000290: 5fe5 bebb c37b e43c f0fa 603a 4825 0cbc
000002a0: c8d8 fb3c 86bf c4bb ab79 023e 9f34 06bb
000002b0: 7290 3abb 1dea 61bd ec6d 0bbd 54a4 3a3e
000002c0: ce60 0ebe acd3 263d ab08 ed3c 22f9 99bd
000002d0: 7aab 59be 7eda 423d 1883 653c c2be d4bc
000002e0: 45f0 533d 033e ad3d d77c 50bc a8f2 03bc
000002f0: 654f bd3b 2110 743d 5c02 48bd 39a2 4f3d
00000300: dae2 7e3c 0eff a13c 0210 e8bd 9272 6bbd
00000310: d823 143d d2c6 013c 637e 243b 401a 1e3d
00000320: dfd1 6dbd 89df ee3c 0382 d9bc a1c7 1cbd
00000330: b4a3 653d 55be 923d 9814 6e3b 8797 a2bc
00000340: 645e 5abd 073a e03c 05d9 943c 0727 0abd
00000350: 0df3 79bd 1043 02bb 02dc ac3c e146 b33b
00000360: 2423 97bc 8b1e 8a3d c37d 1e3b c573 53bd
00000370: 9f46 d33d b6a2 dbbc ae64 be3b d006 00bd
00000380: a826 0b3b 1b60 ad3d 48c3 b73d a071 bfbd
00000390: d633 dcbd 60fe d23d 5bf1 9abe 9287 2dbb
000003a0: 3112 55bc 9dee 5bbd 5159 4ebd 7ca8 b33d
000003b0: 8636 033e 6f2e f4bc 6729 4d3d 2fb7 f73b
000003c0: 21c2 f93d 2e69 0fbe 9aab 47bd 7202 e7bc
000003d0: 838d 14bc 59e1 d43b eac8 863c b0f4 6cbb
000003e0: 83bd 233d d818 9b3c ba99 1abd d0d9 61bd
000003f0: a5e4 373d 43e5 8db9 bb14 da3c bbdd 17bd

linear.bias f4 [32]
0.40450978 -0.3278022 -0.32702252 -0.0296075 -0.012439801 0.100902446 -0.2161584 0.10407993
-0.001000491 -0.029688306 0.017737504 -0.2365845 -0.069480054 0.16011119 -0.23104231 0.06711393
-0.06604198 0.1826988 0.058312632 -0.39718542 0.03389644 -0.0057893237 0.007798954 -0.058822863
-0.09415662 0.034905292 0.006424433 0.2853683 0.05114799 0.019526094 -0.24226163 -0.020730956
00000000: e81b cf3e b1d5 a7be 7f6f a7be 6e8b f2bc
00000010: 4fd0 4bbc f1a5 ce3d a158 5dbe dc27 d53d
00000020: e822 83ba e434 f3bc 3e4e 913c 3543 72be
00000030: 8f4b 8ebd 30f4 233e 5b96 6cbe 0773 893d
00000040: 0541 87bd 6515 3b3e 3ad9 6e3d e35b cbbe
00000050: fed6 0a3d 5eb4 bdbb 5e8e ff3b 3ef0 70bd
00000060: 30d5 c0bd daf8 0e3d 0d84 d23b cb1b 923e
00000070: 8e80 513d 30f5 9f3c 6f13 78be f7d3 a9bc

critic_linear.weight f4 [1, 32]
0.12467901 -0.107424155 -0.14406353 -0.01148735 -0.0066936086 0.00095032656 0.007918864 0.0033757964
-0.0009028496 -0.0003770502 0.011869355 0.0055055823 -0.0013662541 0.0030880251 -0.022344448 0.0033235038
0.0017049456 -0.0012670489 0.0023847274 -0.15391332 -0.017334934 -0.010408406 0.0009784971 -0.0059663067
0.0028083292 -0.0012856065 -0.0063068 0.058293115 -0.0049607237 0.00565383 0.0046698083 0.0023725894
00000000: b557 ff3d 3201 dcbd 6485 13be 7035 3cbc
00000010: 0f56 dbbb 561f 793a 1fbe 013c 773c 5d3b
00000020: 36ad 6cba d2ae c5b9 af77 423c 2c68 b43b
00000030: e113 b3ba 7760 4a3b b40b b7bc 24cf 593b
00000040: 7b78 df3a 1b13 a6ba 1649 1c3b 749b 1dbe
00000050: fe01 8ebc 0588 2abc ea40 803a 0281 c3bb
00000060: f20b 383b cc81 a8ba 46a9 cebb c3c4 6e3d
00000070: 918d a2bb c343 b93b 3105 993b 727d 1b3b

actor_linear.weight f4 [6, 32]
0.15080974 -0.07971729 -0.26789284 0.030238746 0.009111567 0.095397875 -0.12502179 0.08831394
0.00038355438 0.003200884 -0.0013922998 -0.09596025 -0.0004162903 0.16372761 -0.27865815 0.12862167
-0.17852513 0.10312871 0.052262824 -0.27584052 0.027029408 -0.023020538 -0.019058598 0.13243009
-0.0051261676 0.089075394 0.17680699 0.13004808 0.031628862 -0.03201111 -0.15763935 -0.059062175
0.1926427 -0.1879019 -0.17529994 0.04588902 0.0007362426 0.08159855 -0.09040941 0.040299855
0.019455729 -0.026209263 -0.0034410788 -0.084103115 -0.014397217 0.15560056 -0.32928172 0.117528215
-0.16228043 0.07546469 0.05023314 -0.24261938 0.0539792 -0.006931787 0.01035271 0.075857155
-0.010706207 0.089147985 0.13231526 0.24264666 0.0035782189 -0.019622108 -0.1526748 -0.025400344
0.14096639 -0.16269045 -0.32882747 -0.0059128683 -0.04334084 0.0776876 -0.0586689 0.039743643
-0.016225567 -0.02977655 -0.009840758 -0.0957854 0.030202646 0.1749988 -0.11103966 0.15857926
-0.13265574 0.13099575 0.029686963 -0.21996112 0.035797104 -0.008145973 0.04054856 0.01324627
0.00999541 0.0857298 -0.017365096 0.02782559 0.0039261216 -0.007771076 -0.122671284 0.0007209994
0.17834698 -0.110848226 -0.26172653 0.03463473 -0.021786826 0.09939363 -0.100200675 0.076083936
-0.013701241 0.0078174 0.0066839885 -0.17720011 0.06338666 0.14269353 -0.14491548 0.10163125
-0.18126732 0.13159718 0.052960716 -0.11677335 0.02792925 -0.04058898 -0.0117920935 0.19377415
0.007531524 0.07166642 0.1883113 0.22072436 0.025961623 -0.0180326 -0.1151673 -0.03856251
0.2329563 -0.15796064 -0.31927568 0.015575648 -0.023371004 0.09518126 -0.107049085 0.08864022
-8.15664e-05 -0.029820826 0.0018270398 -0.20470046 -0.030785093 0.17432028 -0.22180606 0.120528646
-0.18292159 0.09964751 0.05803042 -0.22813505 0.051812526 -0.014431718 0.019941993 -0.017934976
-0.040342286 0.07901515 0.013940713 0.019402158 0.035914883 -0.041077346 -0.14876305 -0.002472074
0.27802813 -0.136325 -0.1223273 0.0074268035 -0.0060184314 0.10924662 -0.08125176 0.048685607
0.0024492322 -0.02919674 -0.008350805 -0.15811376 0.039686866 0.17442136 -0.10211691 0.118962556
-0.1527424 0.14505881 0.07129871 -0.25226712 -0.0009279807 -0.014099426 0.015748676 0.11157781
0.009449073 0.06902685 0.18781184 0.32071078 0.031208819 -0.014401364 -0.15643124 0.012381834
00000000: de6d 1a3e d242 a3bd 4029 89be 3fb7 f73c
00000010: af48 153c f65f c33d b605 00be f0dd b43d
00000020: cc17 c939 ecc5 513b d47d b6ba cf86 c4bd
00000030: 8a41 dab9 36a8 273e 48ac 8ebe 66b5 033e
00000040: 4bcf 36be 2535 d33d 8b11 563d f83a 8dbe
00000050: c76c dd3c 9195 bcbc c720 9cbc c19b 073e
00000060: 69f9 a7bb 296d b63d e40c 353e 532b 053e
00000070: 448d 013d 151e 03bd 366c 21be 2eeb 71bd
00000080: 2144 453e 5b69 40be d481 33be 20f6 3b3d
00000090: 6800 413a 241d a73d 9228 b9bd 7611 253d
000000a0: 9f61 9f3c cfb4 d6bc b983 61bb 413e acbd
000000b0: 4ee2 6bbc c155 1f3e 9d97 a8be a2b2 f03d
000000c0: d72c 26be 3b8d 9a3d 44c1 4d3d 3771 78be
000000d0: 4b19 5d3d 0b24 e3bb 6a9e 293c ff5a 9b3d
000000e0: 1669 2fbc 3893 b63d a77d 073e 5e78 783e
000000f0: 8d80 6a3b 8bbe a0bc c856 1cbe 6214 d0bc
00000100: 7e59 103e 5398 26be 135c a8be bcc0 c1bb
00000110: 2a86 31bd ad1a 9f3d cd4e 70bd 3bca 223d
00000120: 7beb 84bc f4ed f3bc 213b 21bc 232b c4bd
00000130: 8a6b f73c e332 333e c368 e3bd 9a62 223e
00000140: e8d6 07be c023 063e 1332 f33c 7d3d 61be
00000150: fc9f 123d b076 05bc 3f16 263d e206 593c
00000160: cac3 233c 1b93 af3d 3f41 8ebc 7ef2 e33c
00000170: b2a6 803b 83a4 febb 153b fbbd 7301 3d3a
00000180: 97a0 363e 6504 e3bd 0501 86be 26dd 0d3d
00000190: 497a b2bc e38e cb3d 0336 cdbd e5d1 9b3d
000001a0: 2c7b 60bc 8d14 003c 5c05 db3b f273 35be
000001b0: ddd0 813d 411e 123e b964 14be 0b24 d03d
000001c0: 249e 39be 69c1 063e 56ed 583d de26 efbd
000001d0: e2cb e43c a140 26bd a033 41bc bb6c 463e
000001e0: 01cb f63b d8c5 923d add4 403e 9105 623e
000001f0: 78ad d43c 1ab9 93bc d5dc ebbd b9f3 1dbd
00000200: 198c 6e3e 6fc0 21be 1a78 a3be 0131 7f3c
00000210: 8c74 bfbc 64ee c23d 8d3c dbbd 0189 b53d
00000220: a10e abb8 ce4a f4bc 4879 ef3a ff9c 51be
00000230: 0531 fcbc 0481 323e 2121 63be b9d7 f63d
00000240: cc4f 3bbe fe13 cc3d 4eb1 6d3d 3c9c 69be
00000250: 5f39 543d 0373 6cbc 645d a33c 5fec 92bc
00000260: f43d 25bd b2d2 a13d 9767 643c 46f1 9e3c
00000270: 7c1b 133d b840 28bd 5755 18be 8502 22bb
00000280: b459 8e3e c898 0bbe bc86 fabd 8b5c f33b
00000290: 4336 c5bb b1bc df3d 5367 a6bd 8f6a 473d
000002a0: 4c83 203b 002e efbc d1d1 08bc 93e8 21be
000002b0: b28e 223d 839b 323e ac22 d1bd a4a2 f33d
000002c0: 8168 1cbe 4c8a 143e 0f05 923d 2829 81be
000002d0: bb43 73ba 4701 67bc 5e03 813c e882 e43d
000002e0: 49d0 1a3c f35d 8d3d bf51 403e 3434 a43e
000002f0: a3a9 ff3c b3f3 6bbc 832f 20be 2ddd 4a3c

actor_linear.bias f4 [6]
0.0130882645 0.15934011 0.253969 0.04521395 0.098689586 0.22546816
00000000: 2970 563c 0e2a 233e 3a08 823e 4332 393d
00000010: c41d ca3d 20e1 663e
