spaceinvaders-v0-bottom-7fskip_latent32/model.36.tar (torch, 223035 bytes, 13 tensors)

conv1.weight f4 [32, 4, 3, 3]
0	0xbcf60251	-0.030030401
1	0xbdeffac6	-0.11717753
2	0xbd2bcd77	-0.041943993
3	0x3cad55a9	0.02115901
4	0xbe9fe7d5	-0.3123156
5	0x3d38ba9a	0.045099832
6	0x3decd014	0.11563125
7	0x3dc37012	0.0954286
8	0x3b464334	0.0030252459
9	0xbda21197	-0.07913511
10	0x3de8fe72	0.113766566
11	0x3d01fe5f	0.031736728
12	0x3c65f8ac	0.014036339
13	0x3c98f957	0.018673582
14	0xbce30ece	-0.02771702
15	0x3d772b1e	0.060343854
16	0x3decf128	0.115694344
17	0x3aa7470f	0.0012762266
18	0x3d1d6f7e	0.038436405
19	0x3d8ef8ec	0.06981072
20	0xbcdad441	-0.026712539
21	0xbd600cf1	-0.054699842
22	0xbc56bb7f	-0.013106226
23	0xbd47ae42	-0.04875017
24	0x3dbbf323	0.09177234
25	0x3c92ad25	0.017904827
26	0x3e086fe1	0.13323928
27	0x3e1e166d	0.15438242
28	0xbe8da6b5	-0.2766625
29	0x3d91155e	0.070841536
30	0x3db68ef6	0.089139864
31	0x3e7cbdb7	0.24681745
32	0x3e0c48f5	0.13699706
33	0xbe93d3b1	-0.28872445
34	0xbe0c8fa7	-0.13726674
35	0xbe3638c6	-0.17795095
36	0x3c610836	0.013734868
37	0xbdc95bef	-0.09831988
38	0x3e0327f7	0.12808214
39	0xbd7a6fe5	-0.061141867
40	0x3dd8bbde	0.10582708
41	0x3c141c22	0.0090399105
42	0x3e44d573	0.1922205
43	0xbd229eae	-0.03970211
44	0xbe0bdb25	-0.13657816
45	0x3c5a9116	0.013340255
46	0xbdd5f3a8	-0.10446864
47	0xbc6fecfb	-0.014643903
48	0xbd06e825	-0.032936234
49	0x3cf50aea	0.02991243
50	0xbdae785a	-0.08519049
51	0xbd2d313f	-0.042283293
52	0x3de44192	0.11145319
53	0x3d314a38	0.04328367
54	0x3d01d380	0.031695843
55	0x3e22373c	0.15841383
56	0xbb101ce1	-0.002198987
57	0xbdb294e9	-0.087198086
58	0x3d6a738b	0.057239097
59	0x3df161de	0.11786245
60	0xbd351c4d	-0.044216443
61	0x3d27a88d	0.040932227
62	0x3d5624a2	0.05228103
63	0x3eaa1e32	0.33226162
64	0xbe7ec7c3	-0.2488089
65	0xbdf92be7	-0.12166577
66	0x3d2c37c8	0.042045385
67	0xbe1539da	-0.1457285
68	0xbd49c272	-0.049257703
69	0xbea9e414	-0.33181822
70	0x3e5c5575	0.21516974
71	0xbd3a9b1d	-0.045558084
72	0x3def9ad7	0.11699455
73	0xbca2c81b	-0.019870808
74	0x3e663afe	0.22483441
75	0xbd975a64	-0.073902875
76	0x3d5e8dfd	0.05433463
77	0x3e381762	0.1797767
78	0xbe6ae257	-0.22937904
79	0xbd417790	-0.047233164
80	0xbda2bce1	-0.07946182
81	0xbdf96cc7	-0.12178951
82	0x3d3446fa	0.044013
83	0x3cc0189e	0.023449238
84	0x3a504bf8	0.00079458905
85	0xbdf3780d	-0.11888132
86	0xbdb5c5b3	-0.08875599
87	0x3dc6ab27	0.097006135
88	0xbdc38759	-0.095473
89	0x3e30bd2a	0.1725966
90	0x3dc75c21	0.09734369
91	0xbd30a7be	-0.04312872
92	0x3e29a8b8	0.16568267
93	0x3a48e684	0.0007663744
94	0xbe0680fe	-0.13135144
95	0xbca8be64	-0.020598598
96	0x3e0386ae	0.12844345
97	0x3d5f824e	0.054567628
98	0xbdf2de89	-0.118588515
99	0xbd2ace38	-0.04170057
100	0x3e212b31	0.15739132
101	0xbe038331	-0.12843014
102	0x3d83823b	0.06421324
103	0xbd87f68d	-0.06638823
104	0xbe655c92	-0.22398594
105	0xbda4e906	-0.08052258
106	0x3e912fb0	0.28356695
107	0x3cdbca3b	0.02682983
108	0x3e28ef9b	0.16497652
109	0x3dbffc3f	0.09374284
110	0x3b049f38	0.0020236503
111	0x3e0e4a99	0.13895644
112	0x3e814c29	0.25253418
113	0xbd947254	-0.07248369
114	0x3df350a2	0.11880614
115	0x3eb08bc7	0.34481642
116	0x3db90667	0.09034424
117	0x3daa6ae9	0.08321173
118	0xbe49bb9f	-0.19700478
119	0xbe17bc92	-0.14818028
120	0xbe0adc2f	-0.13560556
121	0xbd124985	-0.035714645
122	0x3e11ff01	0.14257433
123	0xbd57d19e	-0.05269014
124	0x3d8168d6	0.06318824
125	0xbe1cead0	-0.15323949
126	0xbd77f094	-0.060532168
127	0xbd248820	-0.04016888
128	0x3de56f6e	0.11202894
129	0x3e1c1197	0.15241085
130	0xbe41bb9e	-0.18919227
131	0x3d0d3b3b	0.034480315
132	0x3e19919c	0.14996952
133	0x3ddb3d42	0.107050434
134	0x3d982a54	0.074299484
135	0x3da3b9d9	0.07994432
136	0x3d0e8b8b	0.034801047
137	0x3e0c4a01	0.13700105
138	0xbe3ee393	-0.186415
139	0xbf02336b	-0.5085971
140	0xbe40c67f	-0.1882572
141	0xbcee8eca	-0.029120822
142	0xbe52daf8	-0.20591342
143	0x39c3dd86	0.00037358346
144	0xbdbb629d	-0.09149668
145	0xbdf23319	-0.11826152
146	0x3e4ae63a	0.19814387
147	0x3d59f222	0.05320943
148	0x3d9a84ac	0.075448364
149	0x3c831ebc	0.016005866
150	0xbd36d882	-0.04464007
151	0x3e9c356f	0.30509517
152	0xbdbad239	-0.09122128
153	0xbda22518	-0.07917231
154	0xbe3698f7	-0.17831789
155	0xbde424e2	-0.11139847
156	0xbdff68ff	-0.12471198
157	0xbd917c15	-0.07103745
158	0x3ce5168c	0.027964853
159	0xbd50da20	-0.05098927
160	0xbd776dc2	-0.060407408
161	0x3b5c135a	0.003358087
162	0xbd7cc66d	-0.06171267
163	0x3d9aea3d	0.07564209
164	0xbda655d6	-0.08121841
165	0xbca9dca7	-0.020735098
166	0xbe0efae7	-0.13962899
167	0xbdaf6539	-0.085642286
168	0xbd9af8a2	-0.07566954
169	0xbe021f54	-0.12707263
170	0xbe0226dd	-0.12710138
171	0x3e3225cc	0.17397231
172	0x3dbb095f	0.09132647
173	0xbd6bf3de	-0.057605617
174	0x3e2847b6	0.16433606
175	0x3e66ca10	0.22538018
176	0x3e53a118	0.20666921
177	0x3cb980d5	0.02264444
178	0xbe44880c	-0.19192523
179	0x3e5a4c86	0.21318254
180	0xbdffe53e	-0.12494896
181	0xbe1f68d5	-0.15567334
182	0xbe62e477	-0.22157465
183	0xbe027e72	-0.12743548
184	0xbeb5dcaa	-0.35519916
185	0x3c049ff1	0.008094774
186	0xbe78448f	-0.24244903
187	0xbead53ca	-0.33852988
188	0xbe222640	-0.15834904
189	0xbd904e5e	-0.07046197
190	0x3d6995a6	0.05702748
191	0xbd6960e8	-0.056977183
192	0xbe029b4a	-0.1275455
193	0xbd4dc342	-0.05023504
194	0x3d8da02c	0.06915316
195	0xbe0416e0	-0.12899351
196	0x3d60c432	0.054874606
197	0x3d50b166	0.05095043
198	0x3e33f418	0.17573583
199	0xbda35e2d	-0.07976947
200	0x3dc13d8a	0.09435566
201	0xbe288406	-0.16456613
202	0x3df28b38	0.1184296
203	0xbd965d63	-0.07342031
204	0x3dfd7164	0.12375143
205	0x3d74a598	0.059728235
206	0xbd53d6b6	-0.051718436
207	0x3e1769b5	0.14786418
208	0x3e6d8966	0.23196945
209	0x3e825430	0.25454855
210	0x3c40541d	0.011738804
211	0x3e0f5c6f	0.14000104
212	0xbd4a934b	-0.049456876
213	0x3e5aa466	0.21351776
214	0x3ea4b9a1	0.32172874
215	0x3e8a58db	0.27020916
216	0x3e8a8840	0.27057076
217	0x3cce4f59	0.02518432
218	0x3d127a78	0.035761327
219	0x3e5ff743	0.21871667
220	0x3ac8666c	0.0015289313
221	0x3e478648	0.19484818
222	0xbe7600b6	-0.24023709
223	0xbe9db3ba	-0.30801183
224	0x3d12066a	0.03565065
225	0xbce1b651	-0.027552756
226	0xbd05e482	-0.032688625
227	0x3e59831e	0.21241423
228	0x3deff57a	0.11716743
229	0x3db27e61	0.08715511
230	0x3b93ea60	0.0045140237
231	0xbe26bb28	-0.16282332
232	0x3d81a577	0.06330388
233	0xbdaf4c54	-0.0855948
234	0x3c6dfc8d	0.014525545
235	0x3c2a2d8c	0.010386836
236	0x3c67d2a6	0.014149344
237	0x3e016cb7	0.12639128
238	0x3d4146e8	0.047186762
239	0xbd6718d5	-0.056420166
240	0xbe2aa6f3	-0.16665249
241	0xb9d96135	-0.0004146189
242	0x3d7a7bd2	0.06115324
243	0xbdc660e8	-0.09686452
244	0xbe96a2be	-0.29421037
245	0xbdb34e00	-0.08755112
246	0xbe367e04	-0.17821509
247	0xbe8e0974	-0.27741587
248	0xbe1370b6	-0.14398465
249	0x3e4c6d66	0.19963607
250	0x3eaad867	0.33368227
251	0x3c9f8809	0.019474046
252	0xbda8172b	-0.08207544
253	0xbd061c3d	-0.032741774
254	0xbd8d286b	-0.06892475
255	0xbe8d3529	-0.2757962

conv1.bias f4 [32]
0	0x3a9dc97a	0.0012038194
1	0x3abb10cc	0.0014271974
2	0xb99bd10b	-0.00029719653
3	0xbba1e377	-0.004940446
4	0x3b9889dc	0.004655106
5	0x3ba2805e	0.00495915
6	0xbb981cbd	-0.0046420977
7	0xbaa6b4bf	-0.0012718661
8	0xbacea836	-0.0015766684
9	0x3c024426	0.007950818
10	0x3b9bb37e	0.0047516217
11	0xbba10f19	-0.00491513
12	0x3c01b053	0.007915574
13	0x3b16889d	0.0022969611
14	0xbaacad4d	-0.0013174206
15	0x3db4e573	0.088328265
16	0x3b007af2	0.001960453
17	0xba09aefa	-0.0005252209
18	0x3d67d478	0.05659911
19	0x3a98736d	0.0011631079
20	0x3bbdb0cb	0.0057888976
21	0x3b18dab1	0.002332371
22	0xbb550c50	-0.003250856
23	0x36ff90ea	7.6164624e-06
24	0xbb514326	-0.0031930893
25	0x3bdd8479	0.0067601767
26	0x3bae0668	0.0053108223
27	0xbac1b6b6	-0.0014779184
28	0x3a9d7f3a	0.0012016066
29	0xbb87222f	-0.004123948
30	0x3a21af84	0.00061678165
31	0x3ab58046	0.0013847433

conv2.weight f4 [32, 32, 3, 3]
0	0xbdacc4fc	-0.08436009
1	0xbccef839	-0.025264846
2	0x3db0ffa4	0.086425096
3	0x3e81d3f9	0.25357035
4	0x3e99f725	0.3007137
5	0xbe0a1590	-0.13484788
6	0xbdd3fafb	-0.10350605
7	0xbe59c4f4	-0.21266538
8	0x3c2664c9	0.010155865
9	0x3d9a4450	0.07532561
10	0xbe6643ca	-0.22486797
11	0x3c89139e	0.016732987
12	0x3de44301	0.111455925
13	0x3e104388	0.14088261
14	0x3d025f02	0.031828888
15	0x3dea7d3d	0.114496686
16	0xbd91c540	-0.071177006
17	0xbd85029d	-0.06494639
18	0x3d2388e8	0.039925486
19	0xbe12e444	-0.14344889
20	0xbde65730	-0.112470984
21	0xbd4211a0	-0.04738009
22	0xbd8095a3	-0.06278541
23	0x3e0856c6	0.13314351
24	0x3d27d577	0.04097506
25	0x3da42fd0	0.08016932
26	0xbbcbfdff	-0.006225347
27	0x3d1d2ad5	0.038370926
28	0xbe233b7a	-0.15940657
29	0xbd25a961	-0.040444735
30	0xbe258abf	-0.16166209
31	0xbe7c8857	-0.24661385
32	0x3d0d7191	0.034532133
33	0xbd5b3bbc	-0.053523764
34	0x3d6be250	0.057588875
35	0xbc157fda	-0.0091247205
36	0xbd2665b7	-0.040624347
37	0x3d39d47c	0.045368657
38	0x3d892115	0.06695763
39	0x3e06d82a	0.13168398
40	0x3e2e8570	0.1704309
41	0x3af26112	0.0018492064
42	0xbe1aafe3	-0.15106158
43	0xbe935fa0	-0.28783894
44	0xbb3ed7e5	-0.0029120382
45	0x3e0ed66d	0.13948984
46	0xbd276621	-0.040868882
47	0xbe898ba9	-0.26864365
48	0x3b99ca7e	0.0046933284
49	0xbde24cc4	-0.11049798
50	0xbdb4c477	-0.08826535
51	0xbb372b54	-0.002794941
52	0x3d5a67f6	0.0533218
53	0x3dba3b68	0.09093362
54	0x3df460ae	0.11932503
55	0x3d7ca7a7	0.061683323
56	0xbd72cac6	-0.05927541
57	0xbe294c1d	-0.16532941
58	0x3c03ca84	0.008043889
59	0x3dcd74ef	0.10032069
60	0xbc21588a	-0.0098477695
61	0xbccf6b2e	-0.025319662
62	0xbe4148f0	-0.1887548
63	0xbdbdf64c	-0.09275493
64	0xbd115182	-0.035478123
65	0xbdbee9a2	-0.09321906
66	0x3e0c7bc0	0.13719082
67	0x3e449fd5	0.19201596
68	0xbe11f77c	-0.14254564
69	0xbc90affd	-0.017662043
70	0xbcb350aa	-0.02188905
71	0x3e444e0c	0.19170398
72	0xbdd72a2c	-0.105060905
73	0x3e5b4d62	0.21416238
74	0x3ddad3f5	0.10684959
75	0x3e06e3e6	0.13172874
76	0x3dc79700	0.09745598
77	0xbd1a18b3	-0.03762121
78	0xbe60cea0	-0.21953821
79	0xbe85922d	-0.26088086
80	0x3cad92f9	0.021188246
81	0x3db08dea	0.08620818
82	0xbcc41364	-0.023935027
83	0xbd7fc092	-0.06243951
84	0xbc989e50	-0.018630177
85	0x3dd0f289	0.1020251
86	0xbd54589b	-0.051842313
87	0xbe11346d	-0.14180155
88	0x3e03de7a	0.12877837
89	0x3dac8622	0.08424021
90	0xbda07aa5	-0.078358926
91	0xbb9436da	-0.0045231404
92	0x3ccb21df	0.024796424
93	0x3e2fe201	0.17176057
94	0x3eb83f45	0.3598577
95	0xbdfbb7c3	-0.12290909
96	0xbaf41cd7	-0.0018624318
97	0xbd0ad3b3	-0.0338933
98	0xbdc00b44	-0.09377149
99	0x3e262d79	0.16228284
100	0xbc7752c2	-0.015095415
101	0x3d5416d1	0.051779572
102	0x3ddc77ae	0.107650146
103	0xbb9dd81c	-0.004817022
104	0x3d93c649	0.07215554
105	0xbdb4b2a2	-0.08823134
106	0xbe2f6435	-0.1712807
107	0xbe69a0f6	-0.22815308
108	0xbde43f3e	-0.11144875
109	0x3d5f29a0	0.054483056
110	0x3d8372d2	0.064183846
111	0x3e98c622	0.29838663
112	0x3e188f94	0.1489852
113	0xbd970722	-0.07374407
114	0xbd012a89	-0.031534705
115	0xbe9c9538	-0.30582595
116	0x3c4dcb5f	0.0125606945
117	0xbdaa5b19	-0.08318157
118	0x3dabcace	0.08388291
119	0x3e841774	0.25799143
120	0x3e18a3a1	0.1490617
121	0x3c866883	0.016407257
122	0xbce88c70	-0.028387278
123	0x3e206f90	0.15667558
124	0xbe53912b	-0.20660846
125	0x3d7c6778	0.061622113
126	0x3cfb02d1	0.030640991
127	0xbd6d682e	-0.05796068
128	0xbdb4fd4e	-0.088373765
129	0x3d18ac49	0.03727368
130	0xbc6a9eb4	-0.014320064
131	0x3d761212	0.060075827
132	0xbd8e2544	-0.069407016
133	0xbddfc9d6	-0.10927169
134	0xbd62ff5e	-0.05541932
135	0xbca7d425	-0.0204869
136	0xbda4eef8	-0.08053392
137	0xbdbd4af8	-0.09242815
138	0xbc7a7e7b	-0.015288944
139	0x3e048a21	0.12943317
140	0x3df0e820	0.11763024
141	0xbc058f7f	-0.008151888
142	0xbd38b4fb	-0.04509447
143	0xbda04b2d	-0.07826839
144	0xbd8f6ecc	-0.07003555
145	0xbd9ae49b	-0.07563134
146	0xbdca1b05	-0.09868435
147	0x3dbf4ac9	0.09340436
148	0xbbcbec70	-0.006223254
149	0xbdabdb61	-0.083914526
150	0x3e24e519	0.16103019
151	0x3d5b6c1f	0.05356991
152	0x3de61198	0.112338245
153	0xbe45c33b	-0.19312756
154	0x3db0a325	0.08624867
155	0x3d18033c	0.03711246
156	0xbce10e06	-0.027472507
157	0x3e3371d2	0.17523888
158	0x3a890c34	0.0010455907
159	0x3d898a0c	0.067157835
160	0xbd79b5c9	-0.06096438
161	0xbd794cdd	-0.06086432
162	0xbbda664d	-0.0066650272
163	0xbd585761	-0.052817706
164	0xbd657c8e	-0.056026988
165	0xbc896f44	-0.016776688
166	0x3dc8f8d2	0.09813084
167	0x3e067e33	0.13134079
168	0xbd985ec7	-0.07439952
169	0xbd836ff9	-0.064178415
170	0x3ca3aed0	0.019980818
171	0x3dfbdf68	0.12298471
172	0xbd2a71ec	-0.04161255
173	0x3d725989	0.05916742
174	0x3d405019	0.046951387
175	0xbdc9156b	-0.09818538
176	0x3cf18a41	0.02948487
177	0xbdd1ba63	-0.102406286
178	0xbe594c16	-0.2122043
179	0x3c771831	0.015081451
180	0xbc3cfeb5	-0.011535336
181	0xbdfa039b	-0.12207719
182	0x3d8df1b8	0.0693087
183	0x3e054f79	0.13018598
184	0x3e132abe	0.14371774
185	0xbbdb5689	-0.0066936654
186	0x3da96443	0.082710765
187	0xbe048c91	-0.12944247
188	0xbdb4cd52	-0.08828224
189	0x3e069172	0.1314142
190	0x3ae0f10a	0.0017161679
191	0xbc7df406	-0.015500074
192	0xbd9c9994	-0.0764648
193	0xbdfd6c52	-0.12374176
194	0x3b2123e9	0.0024588055
195	0x3dbcdd04	0.09221843
196	0xbcedb233	-0.029015636
197	0xbb41680a	-0.0029511475
198	0xbda9d75f	-0.08293032
199	0x3ca1f3a7	0.019769503
200	0x3d8c0e22	0.06838633
201	0x3d5988db	0.05310903
202	0x3cfa8a67	0.030583574
203	0xbd14a12e	-0.036286525
204	0xbd8b47ca	-0.06800802
205	0xbd6a415c	-0.057191238
206	0x3d14e2e9	0.03634921
207	0xbdedf4c8	-0.11618954
208	0xbcb1f286	-0.02172209
209	0x3e153882	0.14572337
210	0xbe128611	-0.14308955
211	0x3d297955	0.041375477
212	0xbd8847cb	-0.066543184
213	0x3d6d7044	0.057968393
214	0x3e415b31	0.18882443
215	0xbd984485	-0.07434944
216	0x3ccea4de	0.0252251
217	0x3d202985	0.039102096
218	0x3cee3596	0.029078286
219	0xbc0cd7a1	-0.008596332
220	0xbdcd6caf	-0.100304954
221	0xbde6250b	-0.11237534
222	0x3d839a56	0.064259216
223	0xbe278cbb	-0.16362278
224	0xbda9cd67	-0.082911305
225	0x3dcd258e	0.100169286
226	0xbc6011b2	-0.013676094
227	0x3be3dfe4	0.00695418
228	0x3ce75e75	0.028243283
229	0xbd066adc	-0.032816753
230	0xbda7c05b	-0.08190986
231	0xbe3d9b17	-0.18516193
232	0xbd8decdf	-0.06929945
233	0x3d40444a	0.046940126
234	0x3cf21a09	0.02955343
235	0xbe049949	-0.12949099
236	0xbd373af1	-0.044733945
237	0x3c33b59e	0.010968594
238	0x3d4f0e56	0.05055078
239	0xbe62c3bd	-0.2214498
240	0xbe62eb06	-0.22159967
241	0x3e40e53f	0.1883745
242	0x3db1381c	0.0865328
243	0x3e544e7b	0.20733063
244	0xbe87ae13	-0.26499996
245	0xbe12fa53	-0.14353304
246	0xbd8c0121	-0.06836153
247	0xbe6d0a14	-0.23148376
248	0xbd2667ae	-0.04062622
249	0x3e01e0f5	0.1268347
250	0x3e4e90ab	0.20172374
251	0x3e48f5ec	0.19625062
252	0x3d8570fd	0.065156914
253	0x3e6d6e78	0.23186672
254	0xbd8e2ea7	-0.06942492
255	0xbebb0f80	-0.36535263

conv2.bias f4 [32]
0	0xbc5a8686	-0.013337737
1	0xbc302406	-0.010750776
2	0xbb9586db	-0.004563195
3	0xbc8acbe8	-0.016942933
4	0xbc4af7c8	-0.012388177
5	0xbc448d2c	-0.011996549
6	0xbc182bf7	-0.009287826
7	0xbc0224af	-0.007943316
8	0x3aded730	0.0017001387
9	0xbc70d97c	-0.01470029
10	0xbc27b57e	-0.010236142
11	0xbbe2dcd5	-0.006923298
12	0x3bd3cc20	0.0064635426
13	0x3b7d167b	0.0038618136
14	0x3b277031	0.002554905
15	0x3a3acf09	0.00071261876
16	0xbc298067	-0.010345555
17	0xbb1e2886	-0.002413304
18	0x3a4a68d6	0.000772131
19	0xbbbbfba2	-0.005736784
20	0xbbd73a1b	-0.006568206
21	0x393b4abb	0.00017861549
22	0xb911bea2	-0.00013899294
23	0xbad9f454	-0.0016628602
24	0x39073f70	0.00012898236
25	0x3c0a18ae	0.008428736
26	0xbaa20d3c	-0.0012363563
27	0xbc9449c6	-0.018101584
28	0xbb6a97be	-0.0035796012
29	0x3b58660c	0.003301981
30	0xba6b8a15	-0.00089851144
31	0xbba26bf4	-0.0049567167

conv3.weight f4 [32, 32, 3, 3]
0	0xbd0f363e	-0.03496384
1	0x3ce34b12	0.027745757
2	0x3c0d6193	0.008629221
3	0x3e2ae69c	0.16689533
4	0x3d77f9a2	0.060540803
5	0x3dd14de8	0.102199376
6	0xbcbf4beb	-0.02335163
7	0x3d38151a	0.044942
8	0x3d06aba9	0.03287855
9	0x3e162f03	0.14666371
10	0xbcf890f4	-0.030342557
11	0xbda6a6dc	-0.08137295
12	0xbe4acb93	-0.1980422
13	0xbd8a6193	-0.06756892
14	0x3d9fcb9e	0.07802509
15	0x3e103404	0.14082342
16	0xbd277dff	-0.040891644
17	0xbc8d659c	-0.017260365
18	0x3c670f69	0.014102795
19	0xbe03da05	-0.12876137
20	0x3c07986e	0.008276088
21	0x3c8defc2	0.01732624
22	0xbcf478b8	-0.02984272
23	0xbd4b843b	-0.04968665
24	0x3dbdb45e	0.09262918
25	0x3d2813dc	0.041034564
26	0xbd06943d	-0.032856215
27	0x3c19b6f9	0.009382003
28	0xbd3514c9	-0.044209275
29	0xbd9b431e	-0.07581161
30	0xbd450b17	-0.04810628
31	0xbba4226d	-0.0050089867
32	0xbe4569e9	-0.19278683
33	0x3dc8bcfc	0.09801671
34	0x3c7086fb	0.014680619
35	0x3d87ae26	0.06625013
36	0xbb6c9379	-0.0036098643
37	0x3d848cc0	0.064721584
38	0xbe16cbc0	-0.14726162
39	0x3db90296	0.09033696
40	0x3cbda6db	0.023150852
41	0xbc4481ef	-0.011993869
42	0x3dab69a9	0.083697625
43	0x3e0ed94d	0.13950081
44	0xbdad4b33	-0.08461609
45	0xbcbd1e87	-0.023085846
46	0xbd9e0afe	-0.0771694
47	0xbc55dd0e	-0.013053192
48	0x3e28470b	0.1643335
49	0x3da530a9	0.08065922
50	0xbd39740f	-0.045276698
51	0xbdc5be04	-0.09655383
52	0xbd69928b	-0.05702452
53	0x3d6613ac	0.056171104
54	0xbd9e5dac	-0.0773271
55	0xbd44c613	-0.04804046
56	0xbdeb9891	-0.11503709
57	0xbcca24f0	-0.024675816
58	0xbc8c021d	-0.017090851
59	0x3dd633bc	0.10459086
60	0xbd31325b	-0.043260913
61	0x3d282125	0.041047234
62	0x3d39f87a	0.04540298
63	0xbd9487ca	-0.07252462
64	0xbdb871e0	-0.09006095
65	0x3d98d657	0.07462757
66	0x3e62e96b	0.22159354
67	0xbde42ad0	-0.11140978
68	0xbd8918c5	-0.066941775
69	0xbda84ada	-0.08217402
70	0x3c24c1b5	0.010055949
71	0x3e213fbc	0.15746969
72	0x3ccfddc8	0.025374308
73	0xbdc85c46	-0.09783225
74	0xbc0e63fc	-0.00869083
75	0xbd8ef9a5	-0.0698121
76	0xbd944356	-0.07239406
77	0xbce18b5a	-0.027532268
78	0x3d6f4d36	0.058423243
79	0x3da473c9	0.08029897
80	0xbdb38eca	-0.08767469
81	0x3d59725a	0.05308757
82	0xbb818064	-0.003952073
83	0xbda241a0	-0.07922673
84	0xbdaddc0c	-0.08489236
85	0x3c60fdd2	0.0137323905
86	0xbd47ec4e	-0.048809342
87	0x3d065210	0.032793105
88	0x3acd3c9c	0.0015658322
89	0xbc45a929	-0.012064257
90	0x3c83b951	0.016079577
91	0xbd4319f9	-0.04763219
92	0x3d36dd94	0.044644907
93	0x3e5d176d	0.21590967
94	0x3da41374	0.08011523
95	0xbd1fa702	-0.03897763
96	0xbbaa286d	-0.0051928074
97	0xbe289959	-0.16464747
98	0xbcfca8dc	-0.030842237
99	0x3c961280	0.018319368
100	0x3ca614af	0.020273535
101	0xbd506316	-0.050875746
102	0x3e0b8dc1	0.13628294
103	0x3dd5ce12	0.104396954
104	0xb94d2c16	-0.00019566747
105	0x3cb07134	0.021538354
106	0x3df3ac92	0.118981495
107	0xbd3f8b07	-0.046763446
108	0xbbb6b499	-0.005575728
109	0x3d6e0528	0.058110386
110	0x3d1dd834	0.038536265
111	0xbe0ca460	-0.13734579
112	0xbd8ed100	-0.06973457
113	0xbd9acfec	-0.07559189
114	0xbd0b6ec1	-0.03404117
115	0x3d257fd9	0.04040513
116	0xbd412af6	-0.04716011
117	0x3d00cc65	0.031444926
118	0xbcfe07d1	-0.031009587
119	0x3d56a552	0.052403755
120	0xbd1b0cf3	-0.037854146
121	0x3c1e9e35	0.009681274
122	0xbd9520c2	-0.07281639
123	0x3d8c3cea	0.06847556
124	0xbdc62438	-0.09674877
125	0x3e1cdc9d	0.15318532
126	0x3dbf6619	0.093456455
127	0x3dc0ce71	0.094143756
128	0xbdd7be93	-0.10534396
129	0x3d3f5f98	0.046722025
130	0x3df601ef	0.120120876
131	0x3cfcf599	0.030878829
132	0x3e03dc05	0.128769
133	0x3e04c0ef	0.12964223
134	0x3dbf2ece	0.09335099
135	0x3cb91242	0.022591714
136	0xbd1a224a	-0.037630357
137	0xbd70089c	-0.05860196
138	0xbdf31cfb	-0.11870762
139	0xbdddd04e	-0.108307466
140	0x3df837bb	0.12120005
141	0x3dcf2550	0.10114539
142	0xbb0eda1b	-0.0021797481
143	0xbd8b02cc	-0.06787643
144	0x3c5dd5e0	0.013539761
145	0xbcc5b0a3	-0.024132079
146	0x3d557a93	0.05211885
147	0xbe15573f	-0.14584063
148	0xbc534a93	-0.012896198
149	0xbd751151	-0.059830967
150	0x3dded127	0.108797364
151	0x3d91a8c8	0.071122706
152	0xbe146fda	-0.14495793
153	0xbe08ba4e	-0.1335232
154	0xbd8343cd	-0.06409416
155	0x3dfec9ba	0.1244082
156	0xbc90b5ff	-0.017664908
157	0xbcccf87b	-0.025020828
158	0x3d49b66e	0.049246244
159	0xbd1ee2f5	-0.03879066
160	0x3d2961dc	0.04135309
161	0xbcf231f0	-0.029564828
162	0x3c772272	0.015083896
163	0xbd989845	-0.07450918
164	0x3d8a6da7	0.06759196
165	0x3d937e59	0.07201833
166	0xbd1b003e	-0.037842028
167	0xba9393e1	-0.0011259281
168	0xbd5ef152	-0.05442936
169	0xbd8c78fb	-0.06859013
170	0xbd86c1f7	-0.065799646
171	0xbd2f2869	-0.042763148
172	0x3da77655	0.08176867
173	0x3dfcac35	0.123375334
174	0x3d19fe8e	0.037596278
175	0xbd7f4b6f	-0.0623278
176	0xbc751511	-0.014958636
177	0xbe2fd3ea	-0.17170683
178	0xbd47bf31	-0.04876632
179	0x3cb733d6	0.022363584
180	0xbd1307d9	-0.035896156
181	0xbdbc3a4e	-0.09190808
182	0xbdf39f1f	-0.11895584
183	0x3cf1dc82	0.029524092
184	0x3dd48f84	0.10378936
185	0x3d246fc4	0.04014565
186	0xbcef8d16	-0.02924208
187	0xbd29e5de	-0.041478984
188	0xbcc7131f	-0.02430111
189	0xbb65c81d	-0.0035061904
190	0xb9fad24d	-0.00047840402
191	0x3d0d81ba	0.034547545
192	0xbde82677	-0.113354616
193	0xbe21e891	-0.15811373
194	0x3b555821	0.003255375
195	0xbc210613	-0.009828108
196	0xbd354dad	-0.04426353
197	0x3dcbc3b7	0.09949439
198	0xbd3eb3ed	-0.04655831
199	0xbd53b263	-0.051683795
200	0xbdc31b0c	-0.09526643
201	0x3b58e3fd	0.0033094876
202	0x3c094cad	0.008380097
203	0x3dadd8af	0.08488595
204	0xbcef3665	-0.029200742
205	0x3d069e49	0.032865796
206	0xbbdcec00	-0.0067420006
207	0xbd409747	-0.04701927
208	0x3c345a97	0.011007926
209	0xbe3474fc	-0.17622751
210	0x3dee7405	0.11643223
211	0xbdb566d4	-0.088575035
212	0xbc14bf0a	-0.00907875
213	0xbc61edc8	-0.013789602
214	0xbdc87dda	-0.09789629
215	0xbd2a9a57	-0.041651096
216	0xbe061b48	-0.13096344
217	0x3d846e44	0.06466344
218	0x3e6d01f9	0.23145284
219	0x3c7a5e26	0.015281236
220	0x3b1b4265	0.0023690697
221	0xbbef4605	-0.007302048
222	0xbd8f4a09	-0.06996543
223	0xbd830436	-0.063972875
224	0x3e4b51b5	0.19855388
225	0xbb14a23e	-0.0022679712
226	0xbd406193	-0.046968054
227	0x3d879c1e	0.06621574
228	0xbe2baecb	-0.16765897
229	0xbdedd05d	-0.11612008
230	0x3d90cbd4	0.07070127
231	0x3df8e93b	0.1215386
232	0xbbbdc2ee	-0.0057910597
233	0xbe06d326	-0.13166484
234	0xbd317a17	-0.043329325
235	0x3e147e5f	0.14501332
236	0x3ded27d5	0.11579863
237	0x3dc85aff	0.09782981
238	0xb849739d	-4.8029808e-05
239	0xbce5e67e	-0.028064009
240	0x3d0458c3	0.032311212
241	0x3c0c3da7	0.008559621
242	0xbd4b0438	-0.04956457
243	0x3c163998	0.009169005
244	0xbda0a48b	-0.07843884
245	0x3d4997fd	0.049217213
246	0x3e0e36b6	0.13888058
247	0xbd85b2b5	-0.06528226
248	0xbe0b2d9c	-0.13591617
249	0xbd7c1bd8	-0.06154999
250	0xbe019ee4	-0.12658268
251	0xbbba4012	-0.0056839073
252	0xbd859e35	-0.06524316
253	0xbdb225f9	-0.08698649
254	0x3e804c60	0.2505827
255	0xbd5fa82a	-0.054603733

conv3.bias f4 [32]
0	0x3d18360d	0.03716092
1	0xbc960402	-0.018312458
2	0xbd19c05b	-0.03753696
3	0x3c263dc4	0.010146562
4	0x3ba22cd6	0.0049491925
5	0xbe20ee82	-0.15715984
6	0xbc96e723	-0.018420761
7	0xbe18d3c1	-0.14924528
8	0xbd1fa3b6	-0.038974486
9	0xbc1ec89a	-0.009691382
10	0xbd43cbeb	-0.047801893
11	0xbcc937c9	-0.024562733
12	0x3bdfeaf3	0.006833428
13	0x3b2ff2bc	0.0026847562
14	0x3c25d1ea	0.010120848
15	0xbbc082cd	-0.0058749677
16	0x3d8863e1	0.066596754
17	0xbc8a9774	-0.016917922
18	0xbe06a072	-0.13147143
19	0xbcdb9997	-0.026806636
20	0xbcd92657	-0.02650754
21	0x3b975bb7	0.0046190876
22	0xbc81248c	-0.015764497
23	0xbcf8fc01	-0.030393602
24	0xbbcc7438	-0.0062394403
25	0xbe15bef7	-0.14623629
26	0xbb96b2a3	-0.004598932
27	0x3c75c958	0.015001617
28	0xbc22a7f5	-0.009927739
29	0x3e026be1	0.12736465
30	0x3c0fe9c7	0.008783764
31	0xbcc59c8c	-0.024122499

conv4.weight f4 [32, 32, 3, 3]
0	0x3c1cb93c	0.009565648
1	0x3aec9604	0.0018050079
2	0x3d7eebfa	0.062236764
3	0xbcbb93a5	-0.02289755
4	0xbd939806	-0.072067305
5	0xbdc6c96b	-0.09706386
6	0x3cbda5ea	0.023150403
7	0x3d37f80e	0.044914298
8	0xbdd1005d	-0.102051474
9	0x3cd82bbc	0.026388042
10	0xbda863c7	-0.08222156
11	0x3d0bc7c3	0.034126054
12	0x3b9ba38c	0.004749721
13	0x3c3ee0a8	0.011650242
14	0xbd26d1f8	-0.040727586
15	0xbdb05323	-0.08609607
16	0x3d54a62f	0.051916298
17	0xbd322746	-0.043494485
18	0xbdb552a7	-0.08853655
19	0x3c9e8e55	0.019354979
20	0x3e32b854	0.17453128
21	0x3d690f06	0.056899093
22	0xbe36a236	-0.17835316
23	0x3d641280	0.055681705
24	0xbc31d41f	-0.010853796
25	0x3e8a1431	0.2696853
26	0x3aea5bf7	0.0017880191
27	0x3e2a466d	0.16628428
28	0xbd4ebb7f	-0.05047178
29	0xbe07a3ea	-0.13246122
30	0x3d32e2ef	0.043673452
31	0x3ba03ca4	0.0048900414
32	0xbd7fbf3a	-0.062438227
33	0xbd08e17d	-0.033418167
34	0x3d5185ec	0.05115311
35	0x3e025369	0.12727131
36	0xbc6682a1	-0.01406923
37	0x3bc4cb06	0.0060056476
38	0x3da80490	0.08203995
39	0x3c9237a9	0.017848806
40	0xba6987ed	-0.0008908499
41	0xbc70b3fb	-0.014691348
42	0xbd576a9d	-0.05259191
43	0xbdef14e0	-0.116739035
44	0xbd4be5d8	-0.049779743
45	0x3da3583f	0.07975816
46	0x3dc24761	0.09486271
47	0xbddc9b42	-0.107718006
48	0x3cbca803	0.023029333
49	0xbe65ae50	-0.22429776
50	0xbd3e7906	-0.046502136
51	0x3c187fb8	0.009307794
52	0xbe0b60d1	-0.13611151
53	0xbd499d47	-0.049222257
54	0x3df816dd	0.12113736
55	0xbbb1f266	-0.0054305075
56	0xbd5b09a4	-0.05347599
57	0xbd4516a2	-0.048117287
58	0xbdd82c63	-0.10555341
59	0xbe227fdc	-0.15869087
60	0xbdccfd1e	-0.10009216
61	0x3d9eeff4	0.07760611
62	0x3d8c69d7	0.06856125
63	0xbd31d745	-0.043418188
64	0xbd5c4c40	-0.053783655
65	0x3d4591c7	0.048234727
66	0x3d4d7887	0.050163772
67	0x3e7e48d4	0.24832469
68	0x3d37dcf6	0.04488846
69	0xbd690982	-0.056893833
70	0x3d0ea72b	0.034827393
71	0x3dc881c1	0.097903736
72	0xbbd57681	-0.006514371
73	0xbde5f796	-0.11228864
74	0xbd8ba99d	-0.068194605
75	0x3d7f35bc	0.062307104
76	0x3d07989f	0.033104535
77	0x3c91b493	0.0177863
78	0xbd46960c	-0.04848294
79	0xbdc7ef24	-0.09762409
80	0x3e3a9a10	0.18222833
81	0x3d3a32d1	0.04545862
82	0xbdba222f	-0.09088551
83	0x3c17b083	0.009258392
84	0x3c18755b	0.0093053235
85	0x3de558a6	0.11198549
86	0xbdcf19bc	-0.1011233
87	0xbd44c74c	-0.048041627
88	0x3c152b37	0.0091045415
89	0x3d2a7bcb	0.041621964
90	0x3d06dbc8	0.032924443
91	0xbd6f42a3	-0.05841316
92	0x3e1d873f	0.15383624
93	0x3dfbedca	0.12301214
94	0x3c0af3cd	0.008480978
95	0xbd790495	-0.060795385
96	0xbc2d0f49	-0.010562726
97	0xbcab0189	-0.020874755
98	0x3b519263	0.0031978122
99	0xbbb3840a	-0.005478387
100	0x3de83213	0.11337676
101	0xbcec48a7	-0.028843237
102	0xbd08d4a1	-0.033405904
103	0xbd227d10	-0.03967005
104	0xbda4b872	-0.08042993
105	0x3e186ecb	0.14886014
106	0x3e4d9044	0.20074564
107	0xbd2b7c47	-0.041866567
108	0xbde4b577	-0.11167424
109	0xbe3f012c	-0.18652791
110	0x3dacf6cd	0.08445511
111	0x3e03369d	0.12813802
112	0x3b7bcdba	0.0038422183
113	0x3e0acaee	0.13553974
114	0x3cb195bb	0.021677842
115	0xbd8f1ca6	-0.06987886
116	0xbd56445c	-0.052311286
117	0x3e24857f	0.1606655
118	0xbd8f1668	-0.069866955
119	0xbdefc831	-0.11708105
120	0xbd3fefbc	-0.046859488
121	0xbdcd4052	-0.10022034
122	0x3e3367fc	0.17520136
123	0x3d4ccc66	0.049999617
124	0xbd58ac82	-0.05289889
125	0xbd04c1c3	-0.032411348
126	0x3d54ef63	0.05198611
127	0xbd26d23f	-0.04072785
128	0xbc2dc32a	-0.010605613
129	0xbdf4b5a4	-0.11948708
130	0xbd8a653a	-0.06757589
131	0x3e40a9fb	0.18814842
132	0x3d85a9d9	0.065265365
133	0xbd5aa715	-0.053381998
134	0xbdb27eff	-0.08715629
135	0x3ded8e25	0.115993775
136	0x3df3cdba	0.119044736
137	0xbdc1b4c3	-0.09458306
138	0xbc36b194	-0.011150736
139	0xbdf0f266	-0.11764984
140	0x3b540ed0	0.0032357462
141	0xbd5030e6	-0.050827883
142	0x3d70e615	0.058813173
143	0xbe3d26c8	-0.18471825
144	0xbd1cdd55	-0.038297016
145	0x3e04b45c	0.12959427
146	0x3bdcd88c	0.0067396816
147	0x3b9b4268	0.004738141
148	0x3d43bf2d	0.04778974
149	0xbb3e9818	-0.0029082354
150	0xbc8017c5	-0.015636334
151	0xbde9ef71	-0.11422623
152	0x3bb7cde7	0.0056092623
153	0xbe69670b	-0.22793214
154	0x3e01852f	0.12648462
155	0xbc8f0082	-0.017456297
156	0xbdeb204e	-0.11480771
157	0x3e3ade3e	0.18248841
158	0xbc6d098c	-0.014467608
159	0xbd127b78	-0.03576228
160	0xbcca95c0	-0.02472961
161	0x3e37ae6c	0.1793763
162	0xbd8c2e6d	-0.068447925
163	0xbdacfe1a	-0.084469035
164	0xbdb81a0c	-0.08989343
165	0x3dbd49bf	0.092425816
166	0x3e5240ee	0.20532581
167	0xbd931ada	-0.07182856
168	0xbc565990	-0.013082877
169	0xbdeaf9c1	-0.11473418
170	0x3cc38680	0.023867846
171	0x3d510a8c	0.05103545
172	0xbd4c927c	-0.049944386
173	0xbd21a985	-0.039468307
174	0x3d98da66	0.07463531
175	0xbd84767a	-0.0646791
176	0xbd078ddf	-0.033094283
177	0xbdbe1849	-0.09281976
178	0xbdd1c2b3	-0.10242214
179	0x3d6cfeff	0.05786037
180	0x3d95359f	0.07285618
181	0xbd8bb806	-0.06822209
182	0x3d0658f4	0.032799676
183	0x3e44a6d3	0.19204263
184	0xbd742ac2	-0.05961109
185	0xbda23a95	-0.0792133
186	0xbe12ae40	-0.14324284
187	0xbcfda6e7	-0.030963374
188	0x3d127d3f	0.035763975
189	0xbdcb1b13	-0.09917273
190	0x3e01cf6e	0.12676784
191	0x3c26e9b7	0.010187558
192	0x3cdee93e	0.027210828
193	0xbd5f8152	-0.05456669
194	0xbc3d724d	-0.011562896
195	0x3c81de10	0.015852958
196	0x3dda36e1	0.106549986
197	0xbdddf8eb	-0.10838493
198	0xbe38abb5	-0.18034251
199	0x3e8b7962	0.27241045
200	0xbde91762	-0.11381413
201	0x3b96af4e	0.0045985347
202	0x3d967bd8	0.0734784
203	0x3ddc92ef	0.10770213
204	0x3da11dd1	0.07867015
205	0xbd2ae137	-0.041718688
206	0x3d38f98f	0.045159873
207	0x3dbc7bb9	0.09203286
208	0xbd231b93	-0.03982122
209	0xbd148b6c	-0.036265776
210	0xbe19415b	-0.14966337
211	0x3dcf3c35	0.101189055
212	0xbd0a4b6c	-0.033763334
213	0xbd0544cb	-0.03253631
214	0x3ce81420	0.028329909
215	0x3d719e3b	0.05898879
216	0x3c66f133	0.014095592
217	0xbdaaef58	-0.083464324
218	0x3d51f55e	0.05125939
219	0xbe17516a	-0.14777151
220	0x3dab6522	0.08368899
221	0x3e099d07	0.13438807
222	0xbdedd242	-0.11612369
223	0x3d90b464	0.07065657
224	0x3d429568	0.047505766
225	0xbd9ec6a6	-0.07752733
226	0xbe895d53	-0.26829013
227	0x3dfc460f	0.1231805
228	0x3c3d87ec	0.011568051
229	0xbd65f881	-0.056145195
230	0x3d05c2e0	0.03265655
231	0x3d64bf79	0.055846665
232	0x3e6a5fb7	0.22888075
233	0xbe7e97ef	-0.24862646
234	0xb9133027	-0.0001403695
235	0xbd1a8e81	-0.03773356
236	0x3d4071b2	0.04698343
237	0xbd0e9c93	-0.03481729
238	0x3e25b962	0.16183999
239	0xbc4fa33f	-0.012673198
240	0x3d42f247	0.047594335
241	0xbd5d7cbb	-0.05407403
242	0xbcbafd53	-0.022825873
243	0x3d09fc3b	0.03368781
244	0xbc9ded4f	-0.019278197
245	0xbcf52578	-0.029925093
246	0xbdf3499d	-0.11879275
247	0xbd3203de	-0.04346072
248	0x3e067017	0.13128696
249	0xbdf51b3a	-0.11968084
250	0x3d1330d6	0.035935245
251	0xbcedcded	-0.029028857
252	0x3d5f28d6	0.054482304
253	0xbe0c8c2b	-0.13725345
254	0x3d0604e6	0.032719515
255	0xbce05fa1	-0.02738935

conv4.bias f4 [32]
0	0xbda19de3	-0.078914426
1	0xbc729473	-0.014805901
2	0xbd02060d	-0.03174405
3	0xbd29b089	-0.041428123
4	0xbe7b1760	-0.24520636
5	0xbda4c83f	-0.080460064
6	0xbdd13d97	-0.102168255
7	0xbceaf349	-0.02868046
8	0xbd1f5eb4	-0.038908675
9	0xbd8b1030	-0.06790197
10	0xbd9fb143	-0.07797482
11	0xbd982352	-0.07428612
12	0xbdc1d69a	-0.0946476
13	0xbd0fdaff	-0.03512096
14	0xbdd644ff	-0.10462379
15	0xbdb9bc5a	-0.09069128
16	0xbd84eecf	-0.064908616
17	0xbd82e185	-0.06390671
18	0xbd42bb5f	-0.047541972
19	0xbd3ac07b	-0.04559372
20	0xbd065d28	-0.032803684
21	0xbc155f1e	-0.009116916
22	0x3cb47da0	0.022032559
23	0xbdf810ca	-0.12112577
24	0xbd60ab51	-0.05485088
25	0xbe402859	-0.18765391
26	0xbddce0c4	-0.10785058
27	0xbeb20446	-0.34768885
28	0xbbcedeb0	-0.0063131675
29	0x3c7087ef	0.014680847
30	0xbd15f68f	-0.03661209
31	0xbdaaeb90	-0.08345711

linear.weight f4 [32, 800]
0	0x3d7fccaa	0.062451042
1	0x3dd8cd99	0.1058609
2	0x3b7cff5f	0.0038604361
3	0xbd45e1fe	-0.048311226
4	0xbc389342	-0.011265578
5	0xbe88a932	-0.26691586
6	0x3cf8ddf8	0.03037928
7	0xbd2cd5c1	-0.04219604
8	0xbc235345	-0.0099685835
9	0x3deb5b6f	0.11492049
10	0xbba9df5f	-0.0051840986
11	0xbd1f3cc8	-0.038876325
12	0xbd495ab6	-0.049158774
13	0xbd6a5012	-0.057205267
14	0xbbcb1b2e	-0.0061983084
15	0x3e0bc056	0.13647589
16	0x3db9e9f8	0.09077829
17	0xbc9609ef	-0.018315284
18	0x3c0e8e8d	0.008700979
19	0xbd670fae	-0.056411438
20	0x3dc1ed68	0.0946911
21	0xbcd63884	-0.026149996
22	0xbd73dae5	-0.059534926
23	0xbd201911	-0.039086405
24	0xbd1b751d	-0.037953485
25	0x3dd49c74	0.103814036
26	0xbd677940	-0.056512117
27	0x3d9e62aa	0.077336624
28	0x3c12fdb0	0.008971617
29	0x3d20313b	0.03910945
30	0xbe85ef13	-0.26158962
31	0x3d51bf19	0.051207636
32	0xbcbe5f67	-0.02323885
33	0xbd146718	-0.03623113
34	0x3db9f9e7	0.09080868
35	0x3dd940bf	0.106080525
36	0x3c9a7bc5	0.018857846
37	0xbc97e0bb	-0.018539777
38	0x3ccfbe34	0.02535925
39	0x3ca1a34b	0.019731184
40	0xbb74af43	-0.003733591
41	0xbe5c6bc8	-0.2152549
42	0xbd2f35fe	-0.0427761
43	0xbd3bbe1b	-0.045835596
44	0x3e111e4c	0.14171714
45	0xbd8b2157	-0.067934684
46	0xbcbef947	-0.023312224
47	0x3d136b93	0.035991263
48	0x3c88fb05	0.016721258
49	0x3b4cd3a2	0.0031254073
50	0xbe0dc05a	-0.13842908
51	0xbba8155f	-0.0051295008
52	0xbd029523	-0.03188051
53	0x3c70007a	0.014648551
54	0xbbf26338	-0.0073970817
55	0x3e01eda9	0.12688316
56	0xbd244fe4	-0.040115252
57	0xbbb9dc7a	-0.005672035
58	0x3bc3a71e	0.0059708497
59	0xbcd74008	-0.02627565
60	0xbc218fc2	-0.009860935
61	0x3c954679	0.01822208
62	0xbbeb81a3	-0.0071870848
63	0x3b33940d	0.0027401478
64	0xbc835ca8	-0.016035393
65	0xbca1b100	-0.01973772
66	0x3dc01189	0.093783446
67	0x3bf310af	0.0074177603
68	0x3b55b0e2	0.003260665
69	0xbcf394da	-0.029734064
70	0x3dadfec2	0.08495857
71	0xbd1ea142	-0.038728006
72	0xbc705edf	-0.0146710565
73	0xbd458701	-0.048224453
74	0xbb82f16c	-0.003996065
75	0x3e01e09e	0.12683341
76	0xbd3be0fd	-0.045868862
77	0x3de35899	0.11100883
78	0x3b79dd31	0.0038126225
79	0xbd50a2c1	-0.050936464
80	0xbd8cfb0c	-0.06883821
81	0x3d526a92	0.051371165
82	0xbccf6397	-0.025316043
83	0xbd208cb9	-0.039196704
84	0x3d041851	0.032249752
85	0x3cf5e142	0.030014638
86	0xbd01db39	-0.031703208
87	0x3bc1ae70	0.005910687
88	0x3d0dbebc	0.034605727
89	0x3bdf01d3	0.0068056374
90	0x3d916eac	0.07101187
91	0xbd910be7	-0.07082348
92	0x3d168fe9	0.036758337
93	0x3d04231b	0.03226004
94	0x3d3bf03c	0.045883402
95	0xbd5d12c5	-0.05397298
96	0x3d022b5c	0.031779632
97	0x3cc4edaf	0.024039118
98	0x3bffc1f6	0.0078051044
99	0xbba3660b	-0.0049865297
100	0xbdfb80c5	-0.1228042
101	0x3da01688	0.078167975
102	0xbdb4a781	-0.08821011
103	0xbc6bd489	-0.014393934
104	0x3952f74e	0.00020119289
105	0xbdd526ca	-0.10407789
106	0x3e1a5968	0.15073168
107	0x3d89a786	0.06721406
108	0x3d842167	0.064516835
109	0x3bddf457	0.0067735123
110	0xbe0e370f	-0.1388819
111	0x3e0fdaba	0.14048281
112	0x3dbf2e66	0.09335022
113	0x3ce88ce1	0.028387489
114	0x3da179f3	0.07884588
115	0xbe01be6b	-0.12670295
116	0xbdd93bb3	-0.1060709
117	0xbdebb622	-0.115093485
118	0xbe0ba608	-0.13637555
119	0xbe34d369	-0.17658772
120	0xbe15c81f	-0.14627121
121	0xbe3dfed4	-0.1855424
122	0xbe1a94fa	-0.15095893
123	0xbe36397e	-0.17795369
124	0xbe4cffce	-0.20019457
125	0x3d9a6df7	0.075405054
126	0xbd21bfac	-0.039489433
127	0x3d89f3dc	0.067359656
128	0xbd00f224	-0.031480923
129	0x3c42580b	0.011861811
130	0x3d473f73	0.048644494
131	0x3e16a16d	0.14710017
132	0x3d0a4e18	0.033765882
133	0xbd5896bd	-0.05287813
134	0xbbc0e502	-0.005886675
135	0x3c0c55c3	0.008565369
136	0xbe4361bc	-0.19080251
137	0x3c354b36	0.011065295
138	0x3cb43e05	0.02200223
139	0x3da67dac	0.08129439
140	0xbd5f88aa	-0.054573692
141	0xbd4f647b	-0.050632935
142	0xbd44ed36	-0.048077784
143	0xbdb86426	-0.09003477
144	0xbdec8598	-0.115489185
145	0xbd4ec241	-0.050478224
146	0x3da07554	0.078348786
147	0x3d2cbc91	0.04217202
148	0x3cfccf31	0.030860515
149	0x3dbb7edb	0.09155055
150	0xbe1ad9ea	-0.1512219
151	0x3d9a7420	0.0754168
152	0xbd6e80ef	-0.05822843
153	0x3c834cd3	0.016027844
154	0x3d26f125	0.040757317
155	0x3d6cde7f	0.057829376
156	0x3d9adfa4	0.07562187
157	0xbd9a3cbe	-0.07531117
158	0xbd1dfb7f	-0.038569923
159	0x3d58d4e1	0.052937392
160	0xbe146a0d	-0.1449358
161	0x3d913fa4	0.070922166
162	0xbcb066de	-0.021533426
163	0xbd396325	-0.045260567
164	0x3c19d180	0.009388328
165	0x3da9ed25	0.08297185
166	0xbd608162	-0.05481089
167	0xbd223e27	-0.039610054
168	0xbca42d89	-0.020041244
169	0x3d010b4c	0.031504914
170	0x3e2105dc	0.15724891
171	0xbbe5d124	-0.007013457
172	0xbbfffde0	-0.0078122467
173	0xbd764212	-0.060121603
174	0xbd1fc581	-0.039006714
175	0x3e3e72f1	0.18598534
176	0xbe03ea91	-0.12882449
177	0x3d4d7036	0.05015584
178	0x3c5cb69e	0.013471274
179	0xbd6f94e0	-0.058491588
180	0xbe7ccd58	-0.24687707
181	0x3ceb9c56	0.02876107
182	0xbc88ed6c	-0.016714774
183	0x3ad9e163	0.0016622957
184	0x3d6653b1	0.056232158
185	0x3d47bcaf	0.048763927
186	0xbd04af10	-0.032393515
187	0xbc73f5e7	-0.014890171
188	0xbc163421	-0.009167702
189	0x3d9f069a	0.07764931
190	0xbc943d7a	-0.01809572
191	0x3d08ed8b	0.033429664
192	0x3c0e2007	0.008674628
193	0x3c734c7d	0.014849779
194	0xbe0bc20c	-0.13648242
195	0xbd7fb4d2	-0.062428303
196	0x3d5e032b	0.05420224
197	0x3cd4a404	0.025957115
198	0x3ca84fdc	0.020545892
199	0x3d67f97d	0.056634415
200	0xbd7f782f	-0.062370475
201	0x3d438c60	0.047741294
202	0xbd234d35	-0.039868552
203	0xbcfbbf9b	-0.030731013
204	0x3d08e30f	0.033419665
205	0x3dd2aeff	0.10287284
206	0xbc2ac783	-0.010423544
207	0x3cf13e99	0.029448794
208	0xbd2d6b77	-0.042338815
209	0x3c349d9e	0.011023907
210	0x3b382c60	0.0028102621
211	0x3cd98b48	0.026555672
212	0xbc57b957	-0.013166747
213	0xbc790626	-0.01519922
214	0xbc61527e	-0.013752578
215	0xbc860828	-0.016361311
216	0xbd0bc74f	-0.034125622
217	0xbc10c2c6	-0.0088355
218	0x3cea62e8	0.028611615
219	0xbcdc5882	-0.026897673
220	0x3dadd422	0.08487727
221	0xbd0572e0	-0.032580256
222	0x382ab7e4	4.070242e-05
223	0xbd17a962	-0.03702677
224	0xbb7bd807	-0.0038428323
225	0x3dc299a7	0.09501963
226	0x3d8a643d	0.067574
227	0xbd5b62a0	-0.053560853
228	0xbdc71fca	-0.0972286
229	0x3d45f42c	0.048328564
230	0xbe952cbb	-0.2913569
231	0xbbf67201	-0.0075209145
232	0xbcc38a4d	-0.023869658
233	0xbcc82b9c	-0.024434857
234	0xbd9adbff	-0.07561492
235	0x3d8c482f	0.068497054
236	0x3d7c70c9	0.061630998
237	0xbc9197c9	-0.017772572
238	0x3d554da5	0.052076
239	0x3c5cc9cf	0.013475849
240	0x3e1f3614	0.15547973
241	0xbe00d8cd	-0.12582703
242	0xbd5284a4	-0.051396027
243	0xbcf0040d	-0.029298807
244	0xbd0b23e4	-0.033969775
245	0x3cf2d7aa	0.029643852
246	0x3cb52a2a	0.022114832
247	0x3b0612b0	0.0020457916
248	0x3d3aecaf	0.045635875
249	0x3cc97a67	0.024594499
250	0xbd2200ab	-0.03955142
251	0xbd087252	-0.03331215
252	0x3cbce4ef	0.023058383
253	0x3bdc2000	0.006717682
254	0x3d5cd656	0.053915344
255	0xbcf96d41	-0.030447604

linear.bias f4 [32]
0	0x3ea64075	0.32471052
1	0xbe88aa05	-0.26692215
2	0xbe88d92e	-0.26728195
3	0xbd13c56e	-0.036076955
4	0xbcb3944f	-0.021921305
5	0x3da734cb	0.08164366
6	0xbe4eeebd	-0.20208259
7	0x3dc340cc	0.095338434
8	0x3a7004c0	0.0009155981
9	0xbcf5fd11	-0.030027898
10	0xbc925f59	-0.01786773
11	0xbe815db9	-0.25266817
12	0xbd1eecfa	-0.038800217
13	0x3e27b137	0.16376196
14	0xbe6ecac0	-0.2331953
15	0x3dacaf99	0.0843193
16	0xbd8aaa44	-0.06770757
17	0x3e5af1b9	0.21381272
18	0x3d46feea	0.04858295
19	0xbe9d5bdb	-0.30734143
20	0x3d3f3859	0.046684597
21	0xba930116	-0.0011215534
22	0x3ca7ccad	0.02048334
23	0xbd0c3b72	-0.03423638
24	0xbd9685b3	-0.0734972
25	0x3d26a96a	0.04068891
26	0x3c81bb3b	0.015836349
27	0x3e836e01	0.25669864
28	0x3d0a0165	0.033692736
29	0x3d1b8fab	0.03797881
30	0xbe8cbda3	-0.2748843
31	0xbb6e44ee	-0.0036357003

critic_linear.weight f4 [1, 32]
0	0x3e0ca6fb	0.13735573
1	0xbe09faae	-0.13474533
2	0xbe28c2fe	-0.16480634
3	0x3a43e1e4	0.000747232
4	0xbb12a8ef	-0.0022378524
5	0xbb0ca2ac	-0.0021459265
6	0xbcbe5fb4	-0.023238994
7	0x3ad8d6de	0.0016543528
8	0xba89605f	-0.0010480991
9	0x39a1f116	0.00030887936
10	0x3933f252	0.00017161042
11	0xbd850519	-0.06495113
12	0xbbb7a16e	-0.0056039607
13	0xba74b532	-0.00093348615
14	0xbdb598e1	-0.0886705
15	0xba99e020	-0.0011739768
16	0xbb5fd9af	-0.003415685
17	0x3d984ff9	0.074371286
18	0xbb045256	-0.0020190678
19	0xbe26c049	-0.16284288
20	0xbb63daaa	-0.0034767785
21	0x3b9476e7	0.004530776
22	0x3b6d9b6c	0.0036255969
23	0xbbac54b5	-0.0052591213
24	0xbbc505f6	-0.0060126735
25	0xbbc53e36	-0.006019379
26	0xbaf10afb	-0.0018390113
27	0x3dc78f5c	0.097441405
28	0x3a4ca96a	0.0007807227
29	0xbb83a520	-0.004017487
30	0xbd8adc8e	-0.06780349
31	0x38b63191	8.687669e-05

actor_linear.weight f4 [6, 32]
0	0x3dd5a6ba	0.10432191
1	0xbce443ba	-0.027864326
2	0xbe6c39b9	-0.23068894
3	0x3c869aa0	0.016431153
4	0xbb093246	-0.0020934506
5	0x3dd0cc64	0.101952344
6	0xbd6e9b6a	-0.058253683
7	0x3d4262ee	0.047457628
8	0x3c02dbe1	0.0079869935
9	0xbc846741	-0.016162517
10	0x3ccbe3a7	0.024888827
11	0xbd649ebb	-0.05581544
12	0x3d3d76ce	0.04625588
13	0x3e770f39	0.241269
14	0xbe56e0c3	-0.20984177
15	0x3df3ce8a	0.119046286
16	0xbdded49d	-0.108803965
17	0x3cc877c0	0.024471164
18	0x3d740a65	0.059580225
19	0xbe6bb454	-0.23018008
20	0x3c351369	0.011051991
21	0xbc972fd6	-0.018455427
22	0xbb56b8bc	-0.003276392
23	0x3e0414de	0.12898585
24	0x3d2ba168	0.041901976
25	0x3dc5e64a	0.09663065
26	0x3e03099d	0.12796636
27	0x3d201e67	0.039091494
28	0x3c809090	0.015693933
29	0x3ba63b9c	0.005073024
30	0xbd33d12d	-0.043900657
31	0xba2a4ff9	-0.0006496902
32	0x3e0fe517	0.14052235
33	0xbe06e3d8	-0.13172853
34	0xbde411db	-0.11136218
35	0x3c3e0578	0.011597984
36	0xbcb346c8	-0.021884337
37	0x3da0df09	0.078550406
38	0xbd5f1532	-0.054463573
39	0x3d97816b	0.073977314
40	0x3b52e8d3	0.003218223
41	0x3bea8dfe	0.00715804
42	0xbcba3faa	-0.022735436
43	0xbcb4bc74	-0.022062518
44	0xbca8b5ef	-0.020594565
45	0x3e45ae53	0.1930478
46	0xbe897441	-0.26846507
47	0x3e08dd61	0.133657
48	0xbe382861	-0.17984153
49	0x3d2b4dcc	0.04182224
50	0x3d3148e9	0.043282423
51	0xbe374392	-0.1789687
52	0x3cafe270	0.021470279
53	0xbbbcfdec	-0.0057675745
54	0xbcb901ea	-0.02258392
55	0x3dda8672	0.10670175
56	0xba013c34	-0.00049299304
57	0x3d67581c	0.056480512
58	0x3e2672f9	0.16254796
59	0x3e5e96ea	0.21737257
60	0x3d22342c	0.039600536
61	0xbb4c89dd	-0.0031210103
62	0xbe314e43	-0.1731501
63	0xbbb5d6bc	-0.00554928
64	0x3dc0edf8	0.09420389
65	0xbdf61090	-0.12014878
66	0xbe96dfde	-0.29467672
67	0x3cc5c269	0.024140554
68	0xbcfcc86b	-0.030857285
69	0x3dced116	0.10098474
70	0xbdf9749f	-0.12180447
71	0x3d89a7f5	0.067214884
72	0xbd11fd10	-0.03564173
73	0xbd1b9063	-0.037979495
74	0xbb6a553d	-0.0035756372
75	0xbd89ae3f	-0.06722688
76	0xbac0f09e	-0.0014720147
77	0x3e026a6b	0.12735908
78	0xbd75782a	-0.05992905
79	0x3e1b2bdc	0.1515345
80	0xbde3a769	-0.11115915
81	0x3e15737f	0.1459484
82	0x3d5869c1	0.05283523
83	0xbe28bb97	-0.1647781
84	0x3d672412	0.056430884
85	0xbd7a6d44	-0.06113936
86	0x3751064e	1.2458839e-05
87	0xbd3d827f	-0.04626703
88	0xbcc3b328	-0.02388914
89	0x3dc7fd16	0.09765069
90	0xbdc73896	-0.0972759
91	0xbdac9e31	-0.0842861
92	0xbcbff7b4	-0.023433544
93	0x3bc50a40	0.006013185
94	0xbdb911bc	-0.09036586
95	0xbc7a1a90	-0.015265122
96	0x3e11a435	0.14222796
97	0xbda97897	-0.08274954
98	0xbe563401	-0.20918275
99	0x3d0d0129	0.034424935
100	0x3c35162c	0.0110526495
101	0x3de75845	0.11296133
102	0x3d25be9a	0.040464975
103	0x3d400410	0.046878874
104	0x3cdaea02	0.026722912
105	0xbd06ba94	-0.03289278
106	0x3b9edc8f	0.00484807
107	0xbdb02bc1	-0.086020954
108	0x3dd20de8	0.10256559
109	0x3e3ee564	0.18642193
110	0xbdcf331a	-0.10117169
111	0x3db49bda	0.08818789
112	0xbe0c5f3b	-0.13708203
113	0x3d95865e	0.07301019
114	0x3da4e238	0.0805096
115	0xbdb509d4	-0.08839765
116	0x3b93e288	0.0045130886
117	0x3c21d9b8	0.009878568
118	0x3d870a05	0.06593708
119	0x3e31e160	0.1737113
120	0x3db268ee	0.0871142
121	0x3d9adcf0	0.07561672
122	0x3e293db3	0.16527443
123	0x3e49bb04	0.19700247
124	0x3c791835	0.015203525
125	0xbd35f8ad	-0.04442661
126	0xbd9a0e3d	-0.07522247
127	0x3ba582c5	0.0050509893
128	0x3e38161b	0.17977183
129	0xbdde2b24	-0.10848072
130	0xbe8f89af	-0.28034732
131	0x3c6af6cc	0.0143410675
132	0xbd07179b	-0.032981496
133	0x3dba0d2c	0.090845436
134	0xbe303b1c	-0.17210048
135	0x3daae7a1	0.08344961
136	0xbd07b18f	-0.033128317
137	0xbc22cea2	-0.00993696
138	0x3bab8110	0.0052338913
139	0xbe4c93a1	-0.19978191
140	0xbd7930d8	-0.060837597
141	0x3d800e4f	0.06252729
142	0xbe39f1d6	-0.1815866
143	0x3dd4e835	0.103958525
144	0xbe40a761	-0.1881385
145	0x3d223811	0.03960425
146	0x3d4d3c4a	0.050106324
147	0xbe3d6f47	-0.1849948
148	0x3bbfb880	0.0058508515
149	0xbc7005ff	-0.014649867
150	0x3c26f270	0.010189638
151	0xbce65b54	-0.02811972
152	0xbdbfb044	-0.09359792
153	0x3d481f1c	0.048857793
154	0xbabaa23b	-0.0014239022
155	0xbcc52d65	-0.024069497
156	0x3cf6fd11	0.030149968
157	0xbd31d8e9	-0.043419752
158	0xbe098d94	-0.13432914
159	0xbbf4ff29	-0.0074767065
160	0x3e608774	0.21926671
161	0xbd96210b	-0.07330521
162	0xbd4e115a	-0.050309516
163	0x3d1b23b2	0.03787584
164	0xbc18aa97	-0.009318016
165	0x3ddce7ed	0.10786424
166	0xbd19b455	-0.037525494
167	0x3d8cbcc3	0.06871941
168	0x3a818f28	0.0009884583
169	0xbbea8907	-0.007157448
170	0x3cc151d4	0.023598589
171	0xbdff1b97	-0.12456434
172	0x3d264ae7	0.040598776
173	0x3e2a9d92	0.16661671
174	0xbd64fd61	-0.055905703
175	0x3ded7589	0.11594684
176	0xbe38fab6	-0.18064389
177	0x3e2018e9	0.15634502
178	0x3d8fccd8	0.07021493
179	0xbe46ff81	-0.19433405
180	0x3cde9030	0.027168363
181	0xbceab95e	-0.028652843
182	0xbc95d0b4	-0.018287994
183	0x3e20d627	0.15706693
184	0x3d1f6694	0.038916185
185	0x3dae1d8e	0.08501731
186	0x3e6f51f7	0.23371111
187	0x3e933b86	0.2875635
188	0x3d0c4af6	0.034251176
189	0xbc49cb4b	-0.012316535
190	0xbdd4d2ce	-0.1039177
191	0xbd221062	-0.039566405

actor_linear.bias f4 [6]
0	0xbd0e6455	-0.034763653
1	0x3de398d0	0.11113131
2	0x3e62858b	0.22121255
3	0x3dceb166	0.1009243
4	0x3d27b517	0.040944185
5	0x3e050232	0.12989119
