spaceinvaders-v0-bottom-7fskip_latent32/model.142.tar (torch, 223035 bytes, 13 tensors)

conv1.weight f4 [32, 4, 3, 3]
000000 fa a0 1d 3d 43 8d c9 3b 3d af f1 3c d8 50 41 be
       0.038483597 0.006150873 0.029502505 -0.18878496
000010 d9 e2 13 bf e8 a1 e0 3d f5 75 33 3e fc a2 66 3e
       -0.5776802 0.10968381 0.17525466 0.22523111
000020 85 90 29 3d c2 ee 9f 3b db c2 26 3e 9d ba 5e 3d
       0.04139759 0.004880757 0.16285269 0.054377187
000030 f5 c8 c1 3b ff 9a 03 bd f1 1a ea bd f2 45 31 3e
       0.0059138485 -0.032130238 -0.1143092 0.17311838
000040 56 f5 c7 3d 9e a6 b0 3c 41 15 48 3d 1c a5 76 3e
       0.09763591 0.021563824 0.048848394 0.24086422
000050 9a 5d 72 bd 74 45 8f bd bc 64 1c be 20 4b 5b be
       -0.059171297 -0.06995669 -0.15272802 -0.21415377
000060 7e 78 6a 3e 2a 9e 37 bd 9e ee 50 3e b5 9c 52 3d
       0.22897527 -0.04482857 0.20403525 0.05141898
000070 40 1b 02 bf 4e 90 ff bb 07 0e 19 3e 5c 3d 31 3f
       -0.5082283 -0.007799185 0.14946757 0.6923425
000080 16 60 a2 3e 6f b3 ee be 7a 66 56 be 4b c4 a9 be
       0.31713933 -0.46621272 -0.20937529 -0.33157572
000090 75 ca 49 bd 0e da be bc 89 dd 30 3e 5c af f7 bd
       -0.049265344 -0.023297336 0.17272009 -0.12093994
0000a0 6c eb 16 3e 89 c8 21 3e 73 ed 21 3e b7 9e 02 be
       0.14738244 0.15799154 0.15813236 -0.12755857
0000b0 42 a5 2b be 40 5a 96 3d 2c a2 90 bd 2b 81 4f bd
       -0.1676226 0.073414326 -0.07062182 -0.050660294
0000c0 54 13 ba 3c 80 44 74 bc ae e4 9e bd 41 ce 68 bb
       0.022714294 -0.01490891 -0.07758461 -0.0035523328
0000d0 d3 4c 94 bc 88 9f 9e 3c 23 7a bc bd ce 8b 7e 3e
       -0.018103039 0.01936318 -0.09202983 0.24858019
0000e0 2d 96 04 be 6e 9d fc bd 7a 02 ed 3d 6e 94 25 3d
       -0.12947913 -0.12334715 0.11572738 0.040424757
0000f0 e4 55 df 3d 63 38 49 bd 75 a2 9b 3d d3 19 ed 3e
       0.10905054 -0.04912604 0.075993456 0.46308765
000100 67 c8 c1 be 48 e8 c0 bd 3c 6d 4d 3d ed 89 98 be
       -0.37848207 -0.09419304 0.050153002 -0.2979273
000110 bc e5 37 bd 4e 7d ae be df 9d e2 3e 23 fc 6b bd
       -0.044896826 -0.34079975 0.4426107 -0.057613503
000120 cc 93 f8 3d cb 6e 2c be c2 df 3a 3e e4 f4 1c bb
       0.12137565 -0.16839139 0.1824942 -0.0023949677
000130 8f f1 03 3e 72 c8 53 3e c2 4e a7 be fb 01 2d 3d
       0.12885116 0.20681933 -0.32677275 0.042238217
000140 34 c6 0d be 6e fb 66 be f1 02 bc 3c f2 39 0d bd
       -0.1384514 -0.2255685 0.022950621 -0.03447909
000150 be a7 eb 3c f6 4a 28 be a9 68 3a be e4 cf 84 3d
       0.02876651 -0.16434845 -0.18203987 0.064849645
000160 18 48 2d bd c0 5e 80 3e 3f 16 be 3d 87 c4 d0 bd
       -0.042305082 0.2507229 0.09281587 -0.101937346
000170 17 69 97 3e b8 a6 17 3e 0e 15 b4 bd ca c8 5b 3d
       0.29572365 0.14809692 -0.08793078 0.053658284
000180 9a af 35 3e 89 7c f7 bb 90 02 e4 bd 22 85 b6 bd
       0.17742768 -0.0075526875 -0.11133301 -0.08912112
000190 76 e0 65 3e 8b 62 16 be e6 fd 4d 3d 8c 3f 54 be
       0.22448906 -0.14686029 0.050290965 -0.20727366
0001a0 94 e1 88 be 6a 78 b9 bd d7 dd 93 3e 8e db be 3c
       -0.26734602 -0.0905617 0.28880188 0.023298051
0001b0 e9 81 97 3e f0 ab 16 3e d4 7a 70 3d d6 25 1d 3e
       0.295913 0.14714026 0.058710888 0.15346465
0001c0 01 11 5f 3e 94 01 db 3c e0 45 0f 3e 21 d1 fd 3e
       0.2178383 0.026734151 0.13991499 0.49573615
0001d0 4e b3 d5 3d df 43 02 3e ec 68 78 be ab 8a e2 bd
       0.1043459 0.12721203 -0.24258775 -0.11061605
0001e0 a7 19 00 be 49 48 ab bd 84 b3 e5 3d ae 9f 82 3b
       -0.12509786 -0.08363397 0.112158805 0.0039863205
0001f0 c0 43 0c 3e 4d 1f 29 be e4 d8 a4 bb d1 f1 28 be
       0.1369772 -0.16515847 -0.005030738 -0.16498496
000200 2f 8c d0 3d 5c 2c c9 3d e8 7e 8e be ef c0 11 3d
       0.10182988 0.09822914 -0.27831197 0.035584386
000210 d7 70 6b 3e f1 93 45 3e 67 13 46 3e 7f 8c 5c 3e
       0.22992264 0.19294716 0.19343339 0.2153797
000220 ca bf 62 3d b5 e5 20 3e 6c 64 98 be 55 a3 6c bf
       0.055358686 0.15712626 -0.29764116 -0.92436725
000230 03 81 95 be 80 65 47 bd 56 0a 61 be 8b 0c e2 3c
       -0.2919999 -0.048680782 -0.21976599 0.027593872
000240 84 f5 07 be fd 4e 0b be 93 8e 7e 3e 49 32 5a 3e
       -0.1327725 -0.1360435 0.24859075 0.21308245
000250 ac 61 ad 3d b4 6e d4 3d 5e dc d0 bc cd 8e e2 3e
       0.08465895 0.103726774 -0.025495704 0.44249573
000260 e0 e2 0d be c2 b5 9f bd 75 e1 6b be ac ec 28 be
       -0.13856077 -0.077983394 -0.23035224 -0.16496533
000270 b9 c2 1a be 99 af 07 be 9a f6 21 bd 68 10 e8 bd
       -0.15113343 -0.13250579 -0.03954182 -0.11331254
000280 80 98 4b 3d 87 e0 c2 3c fd 2a ee bc 4e e0 c3 3d
       0.049705982 0.023788704 -0.029073233 0.09564267
000290 b1 f2 75 bb ad 2b d7 bd bb 95 a5 be 8c da 16 be
       -0.0037528689 -0.10506377 -0.32340798 -0.14731807
0002a0 63 b5 19 be 8d a9 5b be 4d f1 5a be 60 41 94 3e
       -0.150106 -0.21451397 -0.21381111 0.28956127
0002b0 fa 77 93 bb 75 57 42 be ab d2 02 3e 6a 7e dd 3e
       -0.0045003863 -0.18978675 0.12775676 0.4326051
0002c0 d1 ab a5 3e 53 3a 4d bc 11 db ef bd b6 29 bf 3e
       0.32357648 -0.012526113 -0.117117055 0.3733651
0002d0 7d 7c 41 be f8 55 85 be 09 8f 5e be 22 19 9e be
       -0.18895145 -0.2604215 -0.21734251 -0.3087855
0002e0 9f 63 10 bf 63 bb 1b be ba fd ba be e4 53 f8 be
       -0.5640201 -0.15208201 -0.36521703 -0.48501503
0002f0 2b 51 6b be 06 94 82 bd 71 04 ca bc 19 69 bf bd
       -0.22980182 -0.063758895 -0.024660321 -0.09346218
000300 76 24 70 be da fc 22 be 00 69 a1 bd b1 02 5a be
       -0.23451409 -0.15916768 -0.07881355 -0.21290089
000310 12 d6 9d bc c4 72 4f 3c 50 cd 85 3e fc 73 d8 bc
       -0.019267116 0.01266164 0.26133204 -0.026422493
000320 59 73 be 3d 97 0e 21 be ce 11 42 3e ec 6c 30 be
       0.092993446 -0.15728222 0.18952104 -0.1722905
000330 c2 3d b7 3d 49 5c ce 3d 89 95 00 be 14 03 cc 3e
       0.08947326 0.10076196 -0.12557043 0.39846098
000340 48 50 08 3f 5d 2a e3 3e a6 5b 38 3d f7 6d 8d 3e
       0.532475 0.44368258 0.045009278 0.2762296
000350 19 69 fd bd d3 61 cd 3e 00 33 fd 3e eb 39 af 3e
       -0.123735614 0.40113696 0.49452972 0.34223875
000360 9c cd b1 3e 58 e7 f9 bd c4 81 63 bd 51 94 a9 3e
       0.3472718 -0.122023284 -0.055543676 0.3312097
000370 8c 94 8a 3d 70 72 bb 3e 00 73 cb be e8 6c f9 be
       0.06766614 0.36610746 -0.39736176 -0.487159
000380 06 bb 70 bd 73 9a 1a bc 0d 1c 03 3d 78 e5 7a 3e
       -0.05877211 -0.009436238 0.032009173 0.24501598
000390 62 3c 5f 3e ec fd d0 3d e8 8b ad 3d 2c 02 36 be
       0.21800378 0.10204682 0.084739506 -0.17774266
0003a0 df 44 02 3d df f2 1d be 70 c3 dd 3c 09 72 e8 bd
       0.03180396 -0.15424679 0.02707073 -0.113498755
0003b0 5d 03 5e 3d 86 00 1c 3e 3f fa 82 3d ac c9 8b bd
       0.054202426 0.15234575 0.06395387 -0.06825575
0003c0 4a 1a e1 bd eb 0e 58 3d 3c 4d 94 3d bb fb 8e bd
       -0.10991342 0.052748602 0.07241294 -0.069816075
0003d0 74 c9 b2 be d2 14 a5 bd 4f 5d 96 be 54 58 e0 be
       -0.34919322 -0.08060612 -0.29368064 -0.4381739
0003e0 ac ac 35 be 20 2b 98 3e 12 50 03 3f e4 28 bc 3d
       -0.1774165 0.29720402 0.5129405 0.09187487
0003f0 33 b5 0d 3d 04 34 93 bd 4a 5e 8a bd 5b 53 e7 be
       0.034596633 -0.071876556 -0.067562655 -0.45180783

conv1.bias f4 [32]
000000 59 a3 64 ba 4f 9e d5 3b fe 35 b6 ba 58 90 f8 bb
       -0.00087218505 0.006519116 -0.0013901589 -0.0075855665
000010 76 4c 1a bb cd 30 52 3c 87 9e 0b 3b a4 7b 2b bc
       -0.002354411 0.012829018 0.0021304206 -0.01046649
000020 c3 df 67 bb 2a 82 8f 3b a5 43 97 bb a1 67 75 3a
       -0.0035381175 0.0043795304 -0.004616218 0.000936145
000030 c0 ac 92 3b ed 72 cf 3a f6 be e0 bb 2e a0 85 3d
       0.00447616 0.0015827097 -0.006858702 0.065246925
000040 2e 5b 70 3b b6 f7 62 bb 9f 50 26 3d aa 89 bf b9
       0.003667544 -0.003463251 0.04060423 -0.00036532927
000050 ca cc 10 3b 3c 04 22 3b 96 5e fa ba 1c 8e e6 b9
       0.002209472 0.0024721762 -0.0019101675 -0.00043974898
000060 aa 3e 42 bb 6f 69 f5 ba 28 86 d8 bb 1d 80 cc bb
       -0.0029639401 -0.0018723438 -0.0066077895 -0.006240858
000070 72 f2 07 39 45 2a 53 bb b3 01 86 ba 12 98 64 3b
       0.00012964921 -0.003222124 -0.0010223895 0.003488068

conv2.weight f4 [32, 32, 3, 3]
000000 40 96 9c be 12 30 de bd ed d7 59 3e 9a 7b 1c 3e
       -0.30583382 -0.108490124 0.21273775 0.15281525
000010 ee e9 36 3e 86 39 48 be 44 6a 4d be 81 66 08 3a
       0.17862675 -0.19553193 -0.20060068 0.00052032626
000020 34 a1 03 bd fb 49 18 3c cc 30 8b be 1a 99 8c 3d
       -0.032136157 0.009294982 -0.27185667 0.06865139
000030 a3 ab 54 3e 16 58 62 bd 97 14 31 3d 7d 71 b4 3d
       0.20768599 -0.055259787 0.043232527 0.08810709
000040 25 9b 06 be 0b da 35 3e 2f 93 56 bd 09 97 88 3c
       -0.1314512 0.17758958 -0.05238646 0.016673582
000050 f8 60 88 be fa f7 1c be 74 2e ba 3d c9 ee 5a 3d
       -0.2663648 -0.1532897 0.090908915 0.05345038
000060 07 e8 ed 3c b8 b8 86 3d 8f 29 81 3d f2 25 7d be
       0.029041303 0.06578201 0.06306755 -0.24721506
000070 f4 26 65 be 09 0d fc bd 9e f0 56 be ce 0c e8 be
       -0.2237814 -0.12307174 -0.20990226 -0.4532227
000080 a0 b5 9b 3e ac 97 5e bd 36 7d 12 3e 5d f7 a9 3e
       0.30412006 -0.054343864 0.14305577 0.33196536
000090 1b c6 4a 3e 2b 44 88 3d 37 ab a8 3d a7 54 13 3e
       0.19802134 0.06653627 0.08235782 0.14387761
0000a0 e7 d0 17 3e 38 aa 36 be e3 94 d8 bd 06 e6 54 bd
       0.14825784 -0.17838371 -0.10575273 -0.05197718
0000b0 94 d2 4b 3e 53 26 00 3e 98 a2 e4 bd c5 5b d6 be
       0.19904548 0.1251462 -0.11163825 -0.4186689
0000c0 ae 8a cf 3d c8 96 89 3d 58 88 81 bd 91 c4 0f 3e
       0.10133873 0.06718212 -0.06324834 0.14039828
0000d0 9e 73 ab 3e 58 a6 27 3e ff a5 cb 3e 7e 6c b7 3d
       0.33486646 0.16372049 0.39775082 0.0895624
0000e0 4e 1a b1 be 95 4e 76 bd 02 f3 06 3e 05 d9 16 3d
       -0.3459038 -0.060133535 0.13178638 0.03682806
0000f0 33 8e 30 bd 32 25 f9 bc 93 22 86 be a1 40 3a be
       -0.04310436 -0.030413244 -0.26198253 -0.18188716
000100 fc b3 6a bd c6 a0 85 3d f1 7e b0 3e 50 17 2f bd
       -0.057300553 0.06524806 0.3447185 -0.042746842
000110 07 48 e3 bd 13 62 b8 bc ee 7c d1 3d 87 f6 f0 3d
       -0.110977225 -0.022507703 0.102289066 0.11765771
000120 04 0c ea bd dd f9 cd 3d 3c b5 9f 3e 56 3a 65 3b
       -0.11428073 0.10057423 0.31192958 0.0034977398
000130 20 33 8a 3d 16 d9 24 bc ed 0d c8 bd 8a 74 57 be
       0.067480326 -0.010061523 -0.09768281 -0.2104055
000140 63 3f f1 bd cf 90 4c 3e fc 84 08 be fa d9 6e 3d
       -0.11779668 0.19977115 -0.1333198 0.058313347
000150 38 8b 0d bd 30 55 c7 3d 8c c8 8d be 8e 71 04 3d
       -0.034556597 0.09733045 -0.27692068 0.032334857
000160 e9 23 a3 3e c9 21 84 bc fe 59 3d 3e 5b ed 3c bc
       0.31863335 -0.016129391 0.1849136 -0.011531199
000170 75 92 e4 bd 49 44 9e 3d 73 24 eb 3e fe ef dc be
       -0.11160747 0.07727868 0.45926246 -0.4315185
000180 1d be 22 3d 43 0d 27 3d 28 14 e6 bd 4d 9b 3f 3e
       0.039732087 0.04078413 -0.11234313 0.18711586
000190 b0 00 31 3c 63 19 13 bd 25 d8 99 3e e2 c9 15 3d
       0.010803387 -0.035912883 0.30047718 0.036569484
0001a0 97 69 18 be a3 b9 8e bd 5e 84 11 be c8 fd 30 bd
       -0.1488403 -0.06969001 -0.1421065 -0.043210775
0001b0 21 a5 c1 bd 5c 4a 74 bd aa 82 0d 3e 27 ae dd 3e
       -0.09455324 -0.059641227 0.13819376 0.4329693
0001c0 b8 2c 4d 3e d6 86 44 be b9 84 0b be 80 08 64 be
       0.2003659 -0.19192061 -0.13624848 -0.22268867
0001d0 13 b3 14 be 7d c8 f1 bd 07 66 5f 3d 73 1f 33 3f
       -0.14521436 -0.11805818 0.05454066 0.6996986
0001e0 4a de 8d 3e e7 4e 68 3c 5d c9 07 3e 9c 30 45 3d
       0.27708656 0.014178968 0.13260408 0.04814206
0001f0 3d 9b d3 be 63 c1 d4 bd 14 f3 02 3e 47 75 ec 3d
       -0.41329375 -0.10388448 0.1278804 0.115458064
000200 25 f9 9f 3d 1f d7 73 3e 84 06 08 be 91 b2 b2 3d
       0.078111924 0.23812531 -0.13283736 0.08725465
000210 35 63 f0 3c 53 9d 04 be b1 6a 8d 3d b9 73 30 be
       0.02934418 -0.1295064 0.069051154 -0.17231645
000220 73 b7 ba bd 80 d6 a0 bd 02 10 4c bc 6b 16 36 3e
       -0.091170214 -0.07853413 -0.012454988 0.1778199
000230 e4 af d3 3e b7 3e d6 bd 27 60 ab bd 48 79 85 bd
       0.4134513 -0.10461181 -0.08367949 -0.06517273
000240 ef 63 64 be 42 5d d7 bd 45 33 07 be 0e 1e 19 3e
       -0.22303747 -0.105158344 -0.13203152 0.14952871
000250 e9 15 b6 3c 71 62 21 be 31 63 92 3d ed 15 ad bc
       0.022227244 -0.15760209 0.071478255 -0.02112862
000260 75 75 b2 3c 54 2d d6 bd ad c8 17 3e 0b 19 3a bd
       0.021784524 -0.104578644 0.14822645 -0.04543404
000270 b7 ac f7 be 1d da 2d 3e e7 01 5e be a7 60 48 3e
       -0.48373958 0.16977735 -0.21680413 0.1956812
000280 72 a7 95 bd 98 0d 91 3d 13 b0 c8 bd bd 5b dc bd
       -0.07307328 0.07082671 -0.097992085 -0.10759685
000290 9a a5 a7 bc 85 9d 25 3d 56 50 07 3e bb f9 8f 3e
       -0.020464707 0.040433425 0.1321424 0.28120217
0002a0 2d dc 12 be 2a 60 fb bd ee 6b a2 bd 27 64 29 3e
       -0.14341803 -0.12274201 -0.07930742 0.16542111
0002b0 73 65 27 3a 0d f6 97 bd ac a1 c1 3d ba 3d 94 3d
       0.00063856615 -0.07419977 0.094546646 0.07238336
0002c0 bd 94 29 3d c1 6b 9e be 95 e1 14 be 44 34 09 be
       0.041401614 -0.30941585 -0.14539178 -0.13398844
0002d0 19 94 d7 bd 2f f8 10 bd 9d 41 ed 3c 45 10 a1 3c
       -0.10526294 -0.035392936 0.02896195 0.019661078
0002e0 b7 12 3c 3e 6f c4 73 be 67 3a 13 be ac 31 e9 3d
       0.18366514 -0.23805402 -0.14377747 0.11386427
0002f0 28 37 32 3d 0f 2d 13 3e 79 f6 a4 be b0 57 18 3d
       0.043509632 0.14372657 -0.32219294 0.037193
000300 05 3c c2 bd 87 33 fd bc 07 28 90 bc 09 42 47 bd
       -0.09484104 -0.03090836 -0.017597212 -0.04864696
000310 de ec 00 be bc 3f f4 3d 6e 7f 14 be 01 76 bc 3d
       -0.12590358 0.11926219 -0.14501736 0.09202195
000320 90 c4 0f be 82 86 d4 3e a0 52 4e 3e 12 37 62 3c
       -0.14039826 0.4150887 0.20148706 0.013807075
000330 a5 af 5f be 3c a6 25 bc e2 99 91 bd c3 2f ae bd
       -0.21844347 -0.010110434 -0.07109429 -0.085052036
000340 07 f9 eb bd 74 be aa 3e bc e3 a3 be 67 6d 61 be
       -0.115221076 0.3334843 -0.32009685 -0.2201439
000350 4d 1e f9 bd 6a 5e 66 3e 67 42 04 3e 0e b2 dd bc
       -0.121639825 0.22496954 0.12915955 -0.027062442
000360 73 14 db 3d 3b b1 40 3d 2d d3 4f 3e 7a f1 80 3c
       0.1069726 0.04704402 0.20295401 0.015740145
000370 61 37 fa bd 7d 1c c4 bc 12 f6 f2 3d 57 2c a4 be
       -0.12217594 -0.023939366 0.118633404 -0.3206508
000380 b9 b2 34 be 32 0b 82 3e e4 e7 f5 3d d8 f3 d8 3d
       -0.17646302 0.25399166 0.1200712 0.105933845
000390 45 cd f1 3d 23 c1 34 3d c7 9a 4d be 87 2a 8e be
       0.1180673 0.044129502 -0.20078574 -0.2776682
0003a0 48 96 c1 3d 82 f8 25 3d d7 53 b0 3d 87 c9 03 3d
       0.09452492 0.0405202 0.08609741 0.032174613
0003b0 1e f3 16 be 97 01 41 3d 74 1a 1b 3e 27 76 5f be
       -0.1474118 0.047120657 0.1514681 -0.21822415
0003c0 57 91 0c be 5b 2b b4 3e b7 4a 8a bd 20 2f a5 bc
       -0.13727318 0.35189328 -0.06752532 -0.020164073
0003d0 84 f3 05 be 8c 07 18 bd 74 10 04 be 64 51 7f be
       -0.13081175 -0.037116572 -0.12896901 -0.24933392
0003e0 3d a3 fd 3d 35 1c d4 3c 34 6b 11 3e d2 ff 4b 3e
       0.12384651 0.025892356 0.14201051 0.19921806
0003f0 56 ad c3 3e 6e 01 56 3e 76 52 9c be bf 43 b1 be
       0.38218182 0.20898983 -0.30531663 -0.34622

conv2.bias f4 [32]
000000 2e a9 b2 bb 6b 33 bc 3a b1 a3 ea ba ec c5 3f bc
       -0.0054522967 0.0014358585 -0.0017901567 -0.011704903
000010 de e6 82 bd 57 9e 6e bc 1f 93 15 3a b4 35 45 bb
       -0.06391691 -0.014564118 0.00057058217 -0.0030091824
000020 99 35 0d 3c db 5a 98 bc 6e 11 f2 bc 44 c7 7c bc
       0.008618736 -0.01859801 -0.029549327 -0.015428368
000030 c4 54 00 3d 56 8d dd bc 2d 39 f5 bc 23 77 b6 bb
       0.03133084 -0.027044933 -0.02993449 -0.0055684014
000040 f6 95 cc 3a 39 25 12 bc 2b 6f cc 3c 67 d3 8a 3a
       0.0015608657 -0.008920007 0.024955353 0.0010591567
000050 a8 24 bc bb 34 98 1e bc ce 1c c6 bc 9d 68 05 bc
       -0.0057416745 -0.009679843 -0.024183657 -0.0081426175
000060 3c f3 96 bb ac ee 84 bc 7d 42 29 bc 8c 3e 8b bb
       -0.0046066325 -0.016227089 -0.010330793 -0.0042493995
000070 ba 3e 24 bb 5f 4b 43 bc bd 80 e9 3b d7 b8 4b bc
       -0.0025061802 -0.011919825 0.0071259425 -0.012434206

conv3.weight f4 [32, 32, 3, 3]
000000 8e 40 8f bd e1 b6 ab bc 43 3a 8f be a9 eb f2 3c
       -0.06994735 -0.020961227 -0.27974138 0.029653387
000010 83 2b 94 3d 8c c2 01 3e 1d b3 42 3d 7c 06 4d be
       0.07234862 0.1267187 0.047534097 -0.20022005
000020 49 e1 8e bd da 5a 42 3d 2a 46 24 bd 59 34 22 3e
       -0.069765635 0.047449924 -0.040105976 0.15840282
000030 4f ac 2c be bb 0e 41 be df 05 1c 3e 2d 1a 92 3d
       -0.16862606 -0.18853275 0.15236615 0.07133899
000040 05 1e a5 bd 73 c2 94 be 46 64 f3 bd 2d 32 cf bc
       -0.080623664 -0.29054603 -0.1188436 -0.02529248
000050 55 16 16 3e fb 5e 56 3e 7c d3 07 3e e7 f8 97 bc
       0.14656956 0.2093467 0.13264269 -0.018551303
000060 6d a3 bf bd 46 0c cb bc fc e6 95 3a 23 42 d4 bc
       -0.09357343 -0.024786126 0.0011436637 -0.025910443
000070 8f b6 66 be b9 dc d9 be 4c d6 1c 3e ef 38 65 be
       -0.22530578 -0.4255121 0.15316123 -0.22385
000080 2f a5 4a be 7a 4a d9 3e c2 e0 36 3c e6 31 c1 be
       -0.19789575 0.42439634 0.011161985 -0.37733382
000090 16 8f 1f 3e 38 e0 5f 3b 5b b3 ac be 55 13 11 3c
       0.15581927 0.0034160744 -0.33730587 0.008854707
0000a0 9a 68 15 be b8 94 0d be 94 f3 0c 3e 63 27 fe bd
       -0.14590684 -0.13826263 0.13764793 -0.12409856
0000b0 d7 0e b1 bb 5d 8b c3 bc ab cc 05 bd c2 c8 3e bd
       -0.0054033804 -0.023870165 -0.03266589 -0.046578176
0000c0 4e 01 20 3e ff 56 04 3e c6 d9 48 be e0 ab 95 be
       0.15625498 0.12923811 -0.19614324 -0.29232693
0000d0 1c 9d d4 3c 9f 71 18 3e fe 51 0e 3e e5 03 c8 bc
       0.025953822 0.14887093 0.13898465 -0.02441592
0000e0 d2 00 31 be eb 11 19 3e a2 a3 11 be 77 bf 9e 3d
       -0.17285469 0.14948241 -0.14222577 0.07751363
0000f0 11 de b0 bd 08 89 2d 3e a1 56 a7 3d 9f 14 ec bd
       -0.08636106 0.16946805 0.0817082 -0.11527371
000100 1c b6 53 be 64 19 eb bd a2 22 76 3e dc 42 39 be
       -0.20674938 -0.11479452 0.24036649 -0.18091911
000110 67 3e a1 bd 35 48 08 be 40 07 2e bd c3 6e 40 3c
       -0.078732304 -0.13308795 -0.042487383 0.011745158
000120 f3 e9 38 3d c0 29 02 be 4c df 27 3e 38 9f 16 3e
       0.045144986 -0.12711239 0.16393775 0.14709175
000130 d7 82 ec bb 5c 2d 66 3e 1b f1 5d bd 08 ca 4e 3e
       -0.0072177458 0.2247824 -0.054185014 0.20194256
000140 d6 24 a8 bd 85 32 0f 3e 97 55 f1 bd e1 e4 db bd
       -0.08210151 0.13984115 -0.11783903 -0.107370146
000150 f4 3c 91 3c 0f 5c 7f bd 8d 1f 98 bd 30 31 3a be
       0.01772926 -0.062343653 -0.07427893 -0.18182826
000160 fa 5d df be cb 83 c2 3e 7f 27 61 be be eb aa bd
       -0.43626386 0.37991175 -0.21987723 -0.083457455
000170 24 d4 b9 bd e3 04 b2 3d be 3f 82 3e e6 7d 96 be
       -0.09073666 0.08692338 0.25439256 -0.29392928
000180 ea ab 33 be a3 2d 5c be ad db 87 3e eb a9 16 3e
       -0.17546049 -0.21501784 0.26534787 0.14713256
000190 03 98 ca 3d 8b 19 01 be cd 2f 90 3e 68 12 75 3e
       0.09892275 -0.126074 0.2816147 0.23932803
0001a0 d4 0a f1 ba f0 85 c7 bc cf 72 36 3e 56 15 3e be
       -0.0018390068 -0.024355859 0.17817234 -0.18562827
0001b0 fd 15 13 be 64 35 87 3e 56 50 18 3e ca 5f 13 be
       -0.14363857 0.2640792 0.14874396 -0.1439201
0001c0 d8 7e f0 3d ab 08 17 3c 7a c7 62 3d 1f c4 39 3e
       0.117429435 0.009218375 0.055366017 0.1814122
0001d0 34 ec 88 bd 97 bb c6 bd 55 5d 8d 3d 8f c6 60 3e
       -0.06685677 -0.09703749 0.06902567 0.21950744
0001e0 c3 9e 16 3d c0 a5 06 3d 9b 3e d4 3d 24 f0 c9 bd
       0.0367725 0.032872915 0.103635035 -0.09860256
0001f0 84 6a 87 3d 95 1c 1a 3f 5f f0 e1 bc 2d 29 82 3e
       0.06612113 0.6019986 -0.027580438 0.2542204
000200 3e 66 b9 ba 67 e6 9d bd 74 70 a7 3d 14 1b 21 be
       -0.001414485 -0.077099614 0.081757456 -0.15732986
000210 3a e4 dd bd e0 81 94 3d d1 86 e2 3d c0 61 65 3e
       -0.108345464 0.07251334 0.110608704 0.2240057
000220 6f 96 ad bd 03 0a bf bc b0 1a 56 be 64 c4 65 3c
       -0.084759586 -0.023320204 -0.20908618 0.014023874
000230 8c fb 89 3e 25 e0 b6 3d ef 59 87 3d ff ea fc be
       0.26949728 0.08929471 0.0660895 -0.49398038
000240 8e 0c 87 bb 57 94 63 bd 17 9e 3d 3e 7b e0 2d be
       -0.0041213697 -0.05556139 0.18517338 -0.16980164
000250 57 63 8f 3e 5b ea 16 be 76 36 e3 3a 24 92 10 3e
       0.28005478 -0.14737837 0.0017334956 0.14118248
000260 37 ca c4 be c8 36 c2 be ac 3b 87 be b7 ba 39 3e
       -0.38435528 -0.3793242 -0.26412714 0.18137632
000270 52 50 58 be 80 46 ad 3d a2 0b 25 3e 06 3f 81 3d
       -0.2112439 0.084607124 0.16117719 0.06310849
000280 ca 63 b3 bd 27 c6 20 3e 9a 52 d9 3d 2c 04 48 bd
       -0.08759268 0.15700589 0.10611458 -0.048832104
000290 85 86 8e be f0 0b bd 3d ea 76 aa bc 20 17 16 be
       -0.27837005 0.092307925 -0.020808656 -0.14657259
0002a0 45 d9 25 3d 11 d0 1f 3e bf 61 90 be 44 1a 2b bd
       0.040490407 0.15606715 -0.28199574 -0.041773096
0002b0 0f 6a 20 3e e8 aa ab 3d f9 be 85 be ab 47 28 be
       0.15665458 0.08382207 -0.26122263 -0.16433589
0002c0 ae e4 a7 bd ea dc 01 be fb b6 0e be 7d 6a 48 bd
       -0.08197914 -0.12681928 -0.13936989 -0.04892968
0002d0 30 9e 09 3e 4f 60 a4 be 28 ef 74 be 26 61 de bd
       0.1343925 -0.32104728 -0.23919356 -0.10858373
0002e0 02 e3 db 3e 3a 8a bb bd f5 7b 9a bd c3 4f d7 bd
       0.4294663 -0.09157224 -0.07543174 -0.1051326
0002f0 52 ac 29 be ad 44 29 3e df 6d b8 bd 1f a1 4b be
       -0.16569641 0.16530104 -0.09005331 -0.19885682
000300 e1 f3 10 3d 0d 18 ff bd e3 03 bc bd 62 0b 18 3e
       0.03538883 -0.12455759 -0.09180429 0.14848092
000310 67 6c 26 3e f6 ce d0 bb 77 b9 de 3d 13 f5 8d bc
       0.1625229 -0.006372328 0.10875218 -0.017328775
000320 18 c5 a1 be 47 53 36 be 2a 53 7d 3c 4e 85 5b bc
       -0.31595683 -0.17805205 0.015461722 -0.0133984815
000330 05 61 93 bd 5e 28 a3 3e 02 bc 30 bd d7 5a 5a 3e
       -0.071962394 0.31866735 -0.04314805 0.21323715
000340 45 f2 68 3d c4 b2 c3 be 0e 91 a2 3e ce c5 b1 be
       0.05687167 -0.38222325 0.31751293 -0.34721226
000350 2f b7 fb bd 6b ae 6b 3c e3 3c fe bd f4 8e b0 bd
       -0.12290799 0.014384846 -0.12413957 -0.08621016
000360 8e 2c d1 3d 2b 7e c5 bc 44 a0 4a 3e b4 75 d2 bd
       0.10213576 -0.024108013 0.19787699 -0.10276356
000370 d6 35 9c bd fc 16 15 3e 19 36 85 be 23 0a f7 3d
       -0.07627456 0.14559549 -0.26017836 0.1206248
000380 c8 0a 80 3e bb 05 6e bc 8c cf 18 be 45 5b 78 3e
       0.25008225 -0.014527733 -0.14922923 0.24253567
000390 ec b2 12 bd c0 7f b6 bd 50 3f cc 3d 97 80 ad 3b
       -0.035815164 -0.08911085 0.099730134 0.00529487
0003a0 4a 61 10 3e 30 8d bd bd b0 cb aa be e0 de 83 3e
       0.14099613 -0.09255445 -0.33358526 0.25755978
0003b0 a3 36 51 3e af 84 82 bd fe 3d 0c be c6 15 75 3c
       0.20430999 -0.06372964 -0.13695523 0.0149588045
0003c0 49 88 1d 3e 31 c4 4f bd 5a cf 3a 3e 44 95 81 3d
       0.1538402 -0.050724212 0.18243161 0.06327298
0003d0 7f 0b c6 3d e6 57 74 3e c8 bc 16 3e 0f 20 eb bd
       0.096701615 0.23861656 0.14720452 -0.11480724
0003e0 99 4c 3e be c3 85 8d 3c 0a de e7 be 11 0b 83 bd
       -0.18583907 0.017275697 -0.4528659 -0.06398595
0003f0 6b 16 3b be eb 7e 4b 3c ea a8 27 3e a6 65 95 be
       -0.1827027 0.012420396 0.1637303 -0.29179114

conv3.bias f4 [32]
000000 87 73 d8 bd 92 df 14 be f2 9c 9f 3b 50 f8 de bd
       -0.1056891 -0.1453841 0.0048710043 -0.108872056
000010 46 7f 93 bd 3a d1 cd be dc f9 cb bd 17 e7 0f be
       -0.0720201 -0.4019869 -0.09959766 -0.14052998
000020 b5 7c d6 bd e5 05 1c bd ff b7 11 be 8c 26 11 be
       -0.10473005 -0.03809156 -0.14230345 -0.1417486
000030 f7 c2 62 bd b4 2d d0 bd d7 00 0a be 4f 6e 11 bd
       -0.055361714 -0.10164967 -0.13476883 -0.03550559
000040 af 83 b3 bd 42 d2 2c bd fc 6a bb be c5 c3 a7 bd
       -0.08765351 -0.042192705 -0.3660506 -0.08191637
000050 b5 3c 55 be 70 54 11 bd a7 d9 30 be a4 b5 72 be
       -0.20823939 -0.035480917 -0.17270528 -0.23702103
000060 82 dc 97 bd 0e 80 07 be e9 e3 fd 3c a6 1c b8 bd
       -0.074151054 -0.13232443 0.030992465 -0.08989839
000070 9c b3 af bd b8 05 d8 bd 46 b4 3f 3d fb 5d 09 be
       -0.0857918 -0.10547966 0.04680278 -0.13414757

conv4.weight f4 [32, 32, 3, 3]
000000 ef 26 9d 3e fb eb f4 bd 2c c3 8b 3d cc 29 12 be
       0.30693766 -0.11959072 0.068243355 -0.14273757
000010 96 a4 1b 3d 80 8d 95 bd 11 bc 60 be 3b 75 40 be
       0.03799876 -0.073023796 -0.21946742 -0.1879472
000020 eb a1 8c be b7 ed 20 be 1d e0 89 be fd fb 62 3d
       -0.27467284 -0.15715681 -0.26928797 0.055416096
000030 c0 af 99 bd 48 2b 75 3d e7 eb 0f be 8e 7b b5 bc
       -0.07504225 0.05985573 -0.14054833 -0.022153642
000040 9c 38 01 3e 03 ec c1 3a 04 e6 8d be 47 69 31 3e
       0.12619251 0.0014795068 -0.2771455 0.17325316
000050 26 c2 12 3d 61 53 1d be 44 d6 ef bd 2c 08 3b 3d
       0.035829686 -0.15363838 -0.1171079 0.04566209
000060 67 c7 5a 3d b1 1b 0c bc a8 09 4b ba 21 2c 60 3e
       0.05341282 -0.008551524 -0.00077452743 0.21891834
000070 d9 94 52 3d c7 e2 64 bd 51 e6 3b 3e ee 4a 82 be
       0.051411483 -0.055880334 0.18349577 -0.25447792
000080 e9 f5 88 bd b4 1e bc bd 51 c6 12 be ee e8 65 3d
       -0.06687529 -0.09185544 -0.14333464 0.056130342
000090 12 59 0b 3e d7 a4 51 be 44 a2 2b be df 54 b5 3d
       0.13608196 -0.20473038 -0.16761118 0.088540785
0000a0 0e 5d 3e be 05 77 19 3e 17 7a 12 3e bc 5a fe bd
       -0.18590185 0.14986809 0.14304386 -0.1241965
0000b0 20 8e 14 3d 24 ec a3 3e d2 5f eb bd ab 40 bf 3d
       0.036268353 0.32016098 -0.11492886 0.09338506
0000c0 d1 13 57 bd a7 4d e2 3c 75 ad 0e 3e 98 5a f6 bd
       -0.052509133 0.027624918 0.13933356 -0.12028998
0000d0 c2 33 b0 3b 28 34 67 bd f4 51 68 3e 8c b0 9a be
       0.0053772638 -0.056446224 0.22687513 -0.3021282
0000e0 2a 98 8c bd be 28 44 bd 96 58 02 3d 6e ba 21 3d
       -0.068649605 -0.047890417 0.031822763 0.039484434
0000f0 b2 99 10 be ae 0e 3b 3e cc 33 23 3d e9 e5 c5 3d
       -0.1412113 0.18267319 0.03984432 0.096629925
000100 d0 ea a9 bd 55 2f 0f 3e fa 92 fb 3d ba 3d f8 3c
       -0.0829674 0.139829 0.12283893 0.030302871
000110 47 f4 18 3e bf 0b a3 bd 13 fd 04 3d ef b0 83 3e
       0.14936934 -0.07961225 0.032467913 0.25720927
000120 f0 6d ae 3d ff e0 80 bc e3 39 a4 bd a5 3d fe 3c
       0.08517063 -0.015732286 -0.080188535 0.031035254
000130 1d 8b 89 3e 28 09 1e bd 55 f5 8f bd 86 38 fe 3d
       0.26863948 -0.03858295 -0.07029215 0.12413125
000140 c8 04 92 bd d2 f3 91 3d 02 09 d1 be 30 30 31 3d
       -0.07129818 0.07126583 -0.40827185 0.043258846
000150 88 78 4d be 8f 1a a3 3e 09 38 02 3e 37 9d 33 be
       -0.2006551 0.318562 0.12716688 -0.17540441
000160 bc 8a 33 3e ef a9 3b 3e c8 9f 2f 3e f5 ac 5b 3d
       0.17533392 0.18326543 0.17150795 0.05363174
000170 3e 10 dc 3d f5 13 e5 bd a3 1b 02 3e d5 20 5b be
       0.107452855 -0.11185447 0.12705855 -0.21399243
000180 ac 92 21 3d 24 62 61 be ae b1 ad 3e 55 5c fd bd
       0.039446518 -0.22010094 0.3392462 -0.123711266
000190 34 05 29 3e c7 40 b3 3c 88 01 a4 3e 37 6e ac be
       0.16505891 0.021881474 0.32032418 -0.33677837
0001a0 8a f0 7a be 48 89 bd 3d b3 e2 bb 3c c0 0b 66 bd
       -0.24505821 0.092547 0.022935247 -0.05616355
0001b0 f8 a4 0c be 0c 93 4b 3d 3e e1 8c 3e b0 8a 69 bd
       -0.13734806 0.04970078 0.27515596 -0.05701703
0001c0 b0 18 35 bd 81 cb 74 3d 3c 89 8d bd f1 21 63 3c
       -0.044212997 0.05976439 -0.06910941 0.013863073
0001d0 65 21 1c 3c 17 c6 c7 3e f8 eb ec be 25 59 9a 3d
       0.009529446 0.39018318 -0.4627378 0.07536534
0001e0 bd a4 38 3e 11 6a b9 be 0d 5d 39 3e b6 be 50 bd
       0.18031593 -0.36213735 0.18101902 -0.050963126
0001f0 b8 18 17 be e0 2f 03 be b7 e8 33 3e 29 4a ba bd
       -0.14755523 -0.12811232 0.17569242 -0.09096176
000200 3f 36 77 bd 39 d0 d5 ba d1 bb 8f bd 93 c3 cb 3d
       -0.060354467 -0.0016312666 -0.07018245 0.09949412
000210 1c 0d fb bd c8 ae 23 3e f1 34 9f bd 81 67 d2 3c
       -0.1225836 0.15984643 -0.0777377 0.02568412
000220 c8 b3 18 bd 0c 8c 61 3e 63 b7 77 be df c4 a8 3e
       -0.037280828 0.2202608 -0.2419105 0.329627
000230 3e 49 06 be d7 8e 94 be 0b 58 25 3e 38 31 5b bd
       -0.13113877 -0.29015228 0.16146867 -0.053513736
000240 68 ba fa bd 39 de 96 bd 99 22 1b be a8 fc 86 bd
       -0.122425854 -0.07366604 -0.15149917 -0.06591159
000250 a8 5b b9 3e 41 c0 2c 3e bc f2 81 3e 6a aa a6 be
       0.3620274 0.16870214 0.25380504 -0.3255189
000260 06 78 19 3b c6 89 53 be 23 90 39 3d 95 c2 b9 bd
       0.0023417487 -0.20658025 0.045303475 -0.09070317
000270 9a 87 ff bd 63 92 51 be 31 41 10 3e 2e 6c 99 bd
       -0.12477036 -0.20465998 0.14087369 -0.07491337
000280 00 3b 71 be fa 3d 32 3d 42 35 4b 3e a1 fe 85 bd
       -0.23557663 0.043516137 0.19844535 -0.06542707
000290 4f 9a 46 bd 67 3d 0f 3d de bd 15 bd 9c 02 54 be
       -0.048487004 0.034970667 -0.036558025 -0.2070412
0002a0 0a d8 a4 bd 9d 5e ed bd 2a 42 47 3e dd ac 0e be
       -0.08049019 -0.11590312 0.19458833 -0.1393313
0002b0 f6 ca 87 3c 54 29 94 bd 16 b4 ca bd a5 42 3c 3e
       0.016576272 -0.07234445 -0.0989763 0.18384798
0002c0 55 57 fb bd 1d 7d 1e 3e 43 db 74 be 0b 38 91 bd
       -0.12272517 0.15477414 -0.23911767 -0.070907675
0002d0 d8 25 80 bc a7 30 98 3d 50 a0 7c 3e 27 c9 53 3e
       -0.015643045 0.07431155 0.2467053 0.20682202
0002e0 e7 c2 c9 bd 60 fd 99 be 83 a1 19 be e2 00 d0 bd
       -0.09851628 -0.30076122 -0.15003018 -0.101564184
0002f0 5a 57 d8 bb 5a 52 f3 bc a0 af 55 be fd 82 e4 bd
       -0.00660221 -0.029702354 -0.20867777 -0.111577965
000300 b9 3b 7e 3d a8 c2 90 bc 5c 7c a2 3d c3 2c 8b 3e
       0.062068675 -0.017670944 0.07933876 0.27182588
000310 d5 a1 1c 3e 73 df 95 be bd 6e c5 3d ca 83 ab 3e
       0.15296109 -0.2927204 0.09640262 0.33498985
000320 a5 c4 32 be 62 bc 81 be 03 8b 1c 3f f2 a1 94 bd
       -0.17457826 -0.25339037 0.61149615 -0.07257451
000330 ed 9c 92 3d db 12 ac be a5 51 0d 3d 9e 5c 55 bd
       0.071588375 -0.33608136 0.03450169 -0.05209028
000340 78 98 34 be a9 93 fe bd 78 d7 8f 3d 04 de aa bd
       -0.17636287 -0.12430508 0.07023519 -0.08343127
000350 9f f1 b5 bd c4 e0 f7 bd 6d bf e1 bc f1 a3 32 3e
       -0.08883976 -0.121034175 -0.0275571 0.17445351
000360 af ee 08 3d 1a 2c 12 3e 7a 0c 68 3c 6c f2 b1 be
       0.03343075 0.14274636 0.014163131 -0.34755266
000370 95 6a ac 3c ba d0 28 3e a2 41 2d bd 68 0e 12 3e
       0.021046916 0.16485873 -0.04229892 0.14263308
000380 ae cd f1 3d e2 3c 1f 3c 88 5d a9 be 2e c8 8e 3d
       0.118068084 0.009719105 -0.3307917 0.06971775
000390 cf e7 17 be a5 d9 6e 3d 9f 65 c6 3d 47 85 20 be
       -0.14834522 0.05831303 0.096873514 -0.15675841
0003a0 54 0c db 3e eb 61 4e be 0f 8d f7 bc 7f 4f 80 bd
       0.42782843 -0.2015454 -0.03021863 -0.06265163
0003b0 53 39 01 3e af 1d 80 3e cc d7 b8 3e 0b 3a 09 3c
       0.12619524 0.25022647 0.3610214 0.008375655
0003c0 60 3a 36 be e2 9f e0 bd 19 87 87 3e 77 bc 23 3e
       -0.17795706 -0.10967995 0.2647026 0.15989862
0003d0 ca 1c 83 be f4 e6 15 3e 55 d5 ad bc c9 4d e9 bd
       -0.25607902 0.14638883 -0.021219889 -0.113917895
0003e0 14 32 39 3e c2 50 a5 bd b7 a4 43 3e 4b 6f 84 be
       0.1808551 -0.08072044 0.19105802 -0.2586616
0003f0 40 30 10 3c cc 1a c2 3c 76 9e 23 3e cd b2 bf be
       0.008800566 0.023694418 0.15978417 -0.37441102

conv4.bias f4 [32]
000000 57 f4 06 bf b0 76 af be 22 cb 18 be 76 d4 81 be
       -0.52716583 -0.3427024 -0.14921239 -0.25357407
000010 d5 68 0a bf 21 87 ac be be 6c 93 be e7 4b 74 be
       -0.5406621 -0.33696845 -0.287939 -0.2385708
000020 26 3c 58 be d0 24 92 be 3d 29 52 be d7 24 cf be
       -0.21116695 -0.2854371 -0.20523544 -0.40457794
000030 57 f8 a1 be ef d4 8a be fb 90 be be f2 d2 02 bf
       -0.3163478 -0.2711558 -0.37219986 -0.51103127
000040 2f 61 b2 be 6d 7e e0 be ed ae c2 be 5f f8 19 be
       -0.3483977 -0.43846455 -0.38024083 -0.15036152
000050 ce 75 cb bd 82 55 9e be fe 5d b6 be 20 e5 de be
       -0.09934579 -0.30924612 -0.35618585 -0.43534184
000060 29 8c 04 be ec ce 8b be 2d 3a a6 be f1 75 1d bf
       -0.12944092 -0.27306306 -0.3246626 -0.6150809
000070 2c c8 5c be ad be 1a be 18 38 93 be a9 a4 f7 be
       -0.21560735 -0.151118 -0.28753734 -0.48367813

linear.weight f4 [32, 800]
000000 1a b8 b6 bc f4 b9 ea 3d b1 fd e6 bc 39 24 ec bc
       -0.022304583 0.11461249 -0.028197141 -0.028825866
000010 2d a2 d9 bc 24 b3 8b be 9c f0 0b 3e 64 22 00 3d
       -0.02656659 -0.2728511 0.13666004 0.031282797
000020 dd b6 26 3b 91 3e 9c 3d e5 76 44 3e 6a 2d 31 be
       0.0025438585 0.07629121 0.1918598 -0.1730248
000030 4d a0 b3 bd b7 37 f9 bc 5c 1f 97 3e d1 b4 4b 3e
       -0.08770809 -0.030422075 0.29516113 0.19893195
000040 a1 7e 31 3e 9d 46 9c bd e3 ce 90 bb 57 af 6b bd
       0.17333461 -0.07630656 -0.004419194 -0.057540264
000050 50 4c bb bd f0 7b 49 bd 3f 1b a9 bd 29 75 7e bd
       -0.09145415 -0.04919046 -0.0825715 -0.06212345
000060 f4 e0 79 bd 7c d7 9d 3e 7e 3e 64 bd eb 59 bd 3d
       -0.061005548 0.30828464 -0.05572366 0.09245666
000070 b0 f7 ad bd 13 cc 06 3d 89 e8 df be b8 ee 53 3d
       -0.08494508 0.032909464 -0.43732098 0.05174133
000080 a0 0e 5d bd 38 09 0c bd 2c 12 60 3e a7 31 52 3e
       -0.053969026 -0.03418848 0.21881932 0.20526753
000090 78 8e b7 3d 1c ad 95 bd 69 d9 96 bd a3 fb 2b bb
       0.08962721 -0.073084086 -0.073656864 -0.0026242516
0000a0 79 4c c9 3d 3c fa ba be 87 16 b7 bd 05 e9 0e bd
       0.09829039 -0.3651904 -0.089398436 -0.034890193
0000b0 3a 1b a1 3d 2d 08 a8 bd ab 96 6b bd 21 8e ea 3a
       0.07866521 -0.082046844 -0.057516735 0.0017895141
0000c0 2c 47 90 bc 63 a5 ff bc d2 2b ec bd 4a 6d b9 bc
       -0.017612062 -0.031206792 -0.115317956 -0.02263512
0000d0 dc cc d1 3c 6d b3 ac bd e8 b4 c8 3c 8b 98 9a 3e
       0.02561038 -0.0843266 0.024500325 0.30194506
0000e0 de 7e bd 3d 07 bb da 3b 24 e6 35 bb ef 24 01 bd
       0.092527136 0.0066751274 -0.0027755583 -0.031529363
0000f0 3f 04 41 3d 5e 63 18 3d a6 26 f1 3c 93 e9 1f bc
       0.04712319 0.03720414 0.029437374 -0.009760278
000100 7d 42 9d bc 4e ef c0 bd ee c2 9b 3c 8c f8 6d 3d
       -0.019196743 -0.09420644 0.019013848 0.05809836
000110 3c 71 95 bd 3d e9 be bd a1 63 a2 bd 6d 50 76 bc
       -0.07296988 -0.093218304 -0.07929159 -0.015033823
000120 22 92 14 3c 05 92 c8 bc 10 bb a1 3c 57 b9 aa 3e
       0.009068044 -0.02448369 0.019742519 0.33344528
000130 75 46 65 bd be 3a f1 3d 1e 4e 73 bc c7 2a 64 be
       -0.055975396 0.11778782 -0.014850168 -0.22281943
000140 34 f3 79 be 02 18 71 3d fa 34 d1 bd 9f 89 03 be
       -0.24409181 0.058860786 -0.102151826 -0.12845467
000150 2e 4d 1f 3e ae f2 a6 3c a2 18 ff bc 5a 9f 84 bd
       0.15556785 0.02037939 -0.031139676 -0.064757064
000160 79 55 51 3d a0 f0 c8 bd dd 02 36 3e eb b3 b4 bc
       0.051106904 -0.098115206 0.1777453 -0.022058448
000170 14 74 21 3e fe bd 97 3d ac 4a 06 3e a1 b9 4d 3c
       0.15766937 0.07409285 0.13114423 0.012556464
000180 0c 6d 76 bd d3 10 8b bd f7 4d ac bd 13 82 c6 bd
       -0.06016259 -0.06790318 -0.08413308 -0.096927784
000190 89 65 9b be bd f8 94 3e 31 10 6e 3c 6d f0 bd 3d
       -0.30350903 0.29096022 0.0145302275 0.09274373
0001a0 eb de 10 3e 52 24 89 be d2 08 ba 3e 11 8b 0e 3e
       0.14147536 -0.26785523 0.36334854 0.13920237
0001b0 9c 9d 0e 3e ab 04 42 3e 97 28 87 be 7f 13 0f 3f
       0.1392731 0.18947093 -0.26398155 0.55889124
0001c0 57 4b 61 3e 2a a2 c5 3d ab 7d d0 3e 95 02 a2 be
       0.22001396 0.09650071 0.40720877 -0.31642595
0001d0 51 c9 95 be 61 16 7c be 44 2a 62 be 81 a7 be be
       -0.29255155 -0.24617912 -0.22086436 -0.3723717
0001e0 d6 fe ac be 3e d1 cc be 4c 1d bb be 9e ee c8 be
       -0.33788174 -0.4000339 -0.3654579 -0.3924455
0001f0 42 52 d4 be 23 fa db bc af 2e 87 3b 52 e3 77 3d
       -0.41469008 -0.026852673 0.004125438 0.060519524
000200 01 01 20 bd 69 95 4c 3e b0 7f bb 3d 11 7f 8b 3e
       -0.039063457 0.1997887 0.09155214 0.2724538
000210 2e 58 17 bd b3 f0 d8 bd bb 47 81 bd 16 be 10 be
       -0.03694933 -0.10592785 -0.063125096 -0.14135012
000220 e3 8c f7 be 04 c5 0c 3d a5 4e b4 3d 94 69 10 3e
       -0.48349676 0.034367576 0.08804063 0.14102775
000230 b9 13 40 be 85 9d cf bd 2c 7d ce bd b8 cd 02 be
       -0.18757524 -0.10137466 -0.100824684 -0.12773788
000240 32 9b c5 bd 41 ff bf bc 0c ca ca 3d 19 ae 80 3d
       -0.09648742 -0.023437144 0.09901819 0.062832065
000250 c4 0c 53 3d 90 d4 e5 3d 14 04 ee bd 92 3a 4e 3d
       0.051525846 0.11222184 -0.116218716 0.050348826
000260 54 1f 2e be 5f 69 70 bb 76 79 61 3e 68 d8 a1 3e
       -0.17004138 -0.00366839 0.2201899 0.31610417
000270 8a 36 4c 3e 3d f4 f9 bd 4a d2 1f be e8 df 3f 3e
       0.1994268 -0.12204788 -0.15607563 0.18737757
000280 48 20 85 be 4f 4d da 3d 91 43 05 bd d0 3a 18 bd
       -0.2600119 0.10659277 -0.03253514 -0.037165463
000290 17 1a f1 bd 27 f6 ef bc 0a 9d 23 3c 1b 78 9d 3c
       -0.11772554 -0.02929218 0.0099861715 0.01922231
0002a0 cd 94 64 3e e5 89 a9 3d c0 93 45 3e e8 5b 13 bd
       0.22322388 0.082782544 0.19294643 -0.03597632
0002b0 10 a1 16 bd 5d 74 b6 bd 85 34 8b bd ab d0 b0 3e
       -0.036774695 -0.08908913 -0.06797127 0.345342
0002c0 c2 79 3a be d6 08 05 3d 31 8c a0 bb c3 1b 68 bd
       -0.1821051 0.03247913 -0.0048995246 -0.0566671
0002d0 eb ce 8c be b1 74 31 3e a7 7d 26 3d 21 fe d5 39
       -0.27501616 0.1732967 0.040647175 0.00040815867
0002e0 b2 ba 9e 3d 5a 4e 82 3c 07 36 98 bd 01 8f 0d bd
       0.07750453 0.015906502 -0.0743218 -0.034560207
0002f0 4e 94 19 bc d2 38 85 3e ca a1 1a bd d3 98 0a 3d
       -0.0093737375 0.26019913 -0.03775195 0.03383715
000300 9c e8 3f 3e 61 56 91 3d e0 99 8f be 28 f0 d5 3b
       0.18741077 0.070965536 -0.28047085 0.006528873
000310 b7 ec 66 ba 93 9d ee bc 0a 78 0d bd 88 7c cb 3a
       -0.0008809077 -0.029127872 -0.034538306 0.0015524784
000320 1f ed 8c bd 4c 30 bc bb fa df 20 bc 74 8a 36 3e
       -0.06881165 -0.005743062 -0.009819025 0.17826253
000330 b1 18 66 bc 60 61 a1 bc a9 21 da 3d e6 6a 84 bd
       -0.014043973 -0.019699752 0.106509514 -0.06465702
000340 ce ff 3d bd 13 45 55 3e db 34 41 3e db 4e dc 3c
       -0.046386532 0.20827131 0.18867819 0.02689307
000350 1c d3 63 bd 58 ab e1 3c 15 dc 8b 3e 35 a8 da bb
       -0.05562125 0.027547523 0.27316347 -0.006672884
000360 b7 7e 19 3d 28 67 41 3e 63 59 6b be da 87 8d be
       0.03747436 0.18887007 -0.22983317 -0.2764271
000370 4e 7a 8d bb 6d 1a 9b bd 2b 97 30 bd f0 34 a4 bd
       -0.0043175584 -0.075734 -0.043112915 -0.080179095
000380 31 d7 40 bd e7 c1 a4 3d 9e 17 5b 3e 5e d8 75 bd
       -0.047080223 0.080447964 0.21395728 -0.060020797
000390 b7 34 16 be d3 6f 08 3c 8c c2 46 be d3 cf 53 3d
       -0.14668547 0.008327442 -0.19410151 0.05171187
0003a0 96 b7 85 bb 29 62 47 be 06 27 2a 3d 13 e5 ad 3d
       -0.004080723 -0.19471039 0.041541122 0.08490958
0003b0 c2 d0 7d 3e 98 40 4d bd e1 69 11 bd 66 82 af 3c
       0.24786666 -0.05011043 -0.035501365 0.021424484
0003c0 5b 8a a2 3d 86 44 ca bd 9c bc 5d 3d 80 bd 30 3d
       0.079365455 -0.09876351 0.05413495 0.04314947
0003d0 99 40 24 bd e0 f6 4b 3d 87 03 89 bd b9 1f b2 bd
       -0.040100668 0.049795985 -0.06690126 -0.08697457
0003e0 13 af 31 bd 97 ef 83 bd 37 7c 61 bd 9e 65 8e bd
       -0.043379854 -0.064421825 -0.0550501 -0.06952976
0003f0 a2 22 4e 3d 91 8c d4 3d 09 2b 1d bd f4 be 15 3e
       0.050325997 0.103783734 -0.03837112 0.14623624

linear.bias f4 [32]
000000 79 15 0e 3f 1f 5e 85 be 57 9e b5 be 3a 5c b4 3c
       0.55501515 -0.2604837 -0.35472366 0.022016633
000010 39 be 17 bd 05 68 a5 3d a7 8d 62 be 39 45 95 3d
       -0.037046645 0.08076481 -0.22124349 0.07288594
000020 6f e7 40 3a 79 5e 85 bc 44 44 02 bc ea 1a 90 be
       0.0007358705 -0.0162804 -0.007950846 -0.28145534
000030 b8 da 51 bd 30 21 3f 3e fe 57 8f be 0c b5 91 3d
       -0.051233977 0.18665004 -0.2799682 0.0711461
000040 81 ec 8a bd 1b a5 30 3e 5a 4b 8e 3d 1e ca 25 bf
       -0.06783391 0.17250483 0.06947966 -0.6476153
000050 01 f7 65 3d 1e c6 6c 3c d7 42 9c 3c b8 d0 e1 bd
       0.056143764 0.014451532 0.01907484 -0.11026138
000060 58 9d b9 bd f8 05 e3 3c 1e 8f 19 bc cc 54 6e 3e
       -0.09063214 0.027712807 -0.009372501 0.23274535
000070 55 40 93 3c 43 c5 06 3d 9d 62 81 be 0f cc 85 bc
       0.017975012 0.032902967 -0.25270548 -0.016332654

critic_linear.weight f4 [1, 32]
000000 b0 a9 6f 3d 06 f2 74 bb 2a 87 f0 bb 82 27 13 bb
       0.058511436 -0.0037375703 -0.0073403316 -0.0022453968
000010 ad 46 ba ba ba 81 c0 bb 6e 87 f1 ba 3b 86 e4 39
       -0.0014211737 -0.0058748396 -0.0018427202 0.00043587558
000020 0a 14 86 3b 68 ea 68 3b 1a de b9 3a 0b c9 bd 38
       0.0040917443 0.0035540108 0.0014180571 9.0496695e-05
000030 aa 4d 7b 3a 04 44 85 bb 8b 9b b8 ba 4b c7 f8 bb
       0.0009586463 -0.004066946 -0.0014084441 -0.007592117
000040 c4 2f ab ba c1 70 fc 3b a0 37 b6 b6 ff 92 22 be
       -0.00130605 0.007703871 -5.4304983e-06 -0.15876387
000050 99 68 95 bb 6e 88 b2 ba f6 ca a8 3b 34 bb 22 bb
       -0.004559588 -0.0013620981 0.005151148 -0.002483082
000060 82 e9 44 3b 69 98 35 3b 82 f3 22 3b 29 c9 97 bb
       0.0030046408 0.0027709252 0.002486438 -0.0046321345
000070 c5 3a f1 b9 a4 5c 90 3b ec 0c eb 39 cf 8a c0 ba
       -0.0004601089 0.004405575 0.0004483232 -0.0014689806

actor_linear.weight f4 [6, 32]
000000 19 06 b8 3e 3a a6 6b be f1 6d db be 48 8f 97 3c
       0.35942152 -0.23012629 -0.42857316 0.018500939
000010 2a 56 e6 3c d3 ff bc 3d aa c9 c7 bd 17 18 47 3d
       0.028117258 0.09228482 -0.09755261 0.04860696
000020 39 d6 94 bb 0a 0a 39 bc 59 06 dd b9 eb 11 a6 bd
       -0.004542139 -0.011293897 -0.00042157134 -0.08108886
000030 5b de d6 3c 9b 6d 23 3e 7b b3 ad be 7e ba f3 3d
       0.026229074 0.1595978 -0.33925995 0.11900805
000040 9e 8d 4a be 87 3a b8 3d 4c ec 63 3d 77 17 fc be
       -0.19780585 0.08995538 0.055645272 -0.49236652
000050 c1 82 63 3d 9d 54 71 bc 90 e8 1a bc 5e d4 02 3e
       0.05554462 -0.014729646 -0.009454861 0.12776324
000060 d8 2a 9c 3c c0 fb 63 3d 76 5c 1d 3e 03 1e 65 3e
       0.019063398 0.05566001 0.15367302 0.2237473
000070 0f 62 83 3d 79 67 29 bc e6 cf 0b be 11 b2 a9 bb
       0.064151876 -0.010339611 -0.13653526 -0.005178698
000080 ae 82 d4 3e c1 3a 80 be 15 7f da be 37 12 eb 3c
       0.4150595 -0.25044826 -0.4267508 0.028695209
000090 e5 50 4b bc 79 6f b0 3d be e5 90 bd 9b b9 5b 3d
       -0.0124094235 0.08615012 -0.0707507 0.053643804
0000a0 3a 68 39 3c 9a 5b b4 bc ba b6 b1 3c e8 be c6 bd
       0.011316353 -0.022016335 0.021693576 -0.09704381
0000b0 ae 58 2f 3d 69 c5 42 3e 33 82 d0 be d4 51 21 3e
       0.04280918 0.19020618 -0.40724334 0.15753871
0000c0 2c b9 23 be 32 98 ee 3d b2 89 47 3d 80 6c f9 be
       -0.15988606 0.11650123 0.0487153 -0.4871559
0000d0 ff c0 85 3c af 2a 13 bd 2f 96 32 3d 61 b5 8a 3d
       0.01632738 -0.035929378 0.043600257 0.067728765
0000e0 2d bf 61 ba 0d ce 87 3d b0 f5 21 3e 86 b6 95 3e
       -0.0008611556 0.06631098 0.15816379 0.29240817
0000f0 c4 1e 52 3d 41 cd b6 bc 57 45 3f be 2f e9 af bc
       0.05129887 -0.02231467 -0.18678795 -0.021473495
000100 09 d2 bf 3e 10 80 61 be ba d5 ec be f1 ce 4f 3c
       0.37464932 -0.22021508 -0.4625681 0.012683616
000110 c9 42 ad 3b 9d 7a b9 3d 9e 70 9f bd 8c 5c 52 3d
       0.0052875024 0.0905659 -0.07785152 0.05135779
000120 f5 42 e1 3c aa 94 51 bc f1 a1 00 bc c6 ad e1 bd
       0.027497748 -0.012791792 -0.00785111 -0.11019473
000130 5c ed 4f 3d 88 17 5e 3e e7 4d 9b be 2d 39 27 3e
       0.050763473 0.21688664 -0.30332872 0.16330405
000140 99 e0 32 be a7 0a cd 3d a1 ac 55 3d 21 4d f3 be
       -0.1746849 0.100117974 0.052166585 -0.47519782
000150 f7 0f 12 3d 4d 63 9b bc 74 7b e2 3c 74 19 aa 3d
       0.035659757 -0.018968249 0.027646758 0.08305636
000160 2a 3a 03 bc c6 f6 9f 3d 89 19 12 3e ed 3b 1b 3e
       -0.008009473 0.0781074 0.14267553 0.15159579
000170 a7 05 b4 3c 05 51 5d bc 66 02 28 be 3e ae e3 bc
       0.021975351 -0.013508086 -0.16407165 -0.027793046
000180 54 8c f1 3e 9d 8d 73 be 5d c6 e3 be ca bb c7 3b
       0.47177374 -0.2378449 -0.44487277 0.0060953842
000190 1b 9b b8 bb 0b 84 a7 3d 6c f2 c8 bd f9 b4 60 3d
       -0.0056337244 0.08179482 -0.09811863 0.05486009
0001a0 23 69 35 3c 44 3a 20 bd fc 53 2e 3c 6d 08 ba bd
       0.01107243 -0.039118066 0.010640141 -0.09083638
0001b0 7c 01 0f 3d 5a 33 37 3e b7 67 89 be d0 71 f8 3d
       0.034913525 0.17890683 -0.2683694 0.12131083
0001c0 87 b9 16 be e1 11 14 3e 23 ba f7 3c aa 8f cb be
       -0.1471921 0.14459945 0.030240124 -0.39758044
0001d0 3b f5 b8 3c 5d d9 87 bc 55 fd 6f 3c 6e 4f 32 3e
       0.022577872 -0.01658314 0.014647801 0.17413113
0001e0 3d 5b 3a 3c d1 c0 c8 3d f0 01 30 3e 6d 3d a9 3e
       0.011374292 0.09802402 0.17188239 0.33054677
0001f0 cc 50 b2 3c c6 0c 8d bc a7 d7 0d be 0b ac 6a 3c
       0.021767043 -0.017218005 -0.13851796 0.014323245
000200 4e 22 e9 3e 89 9a 80 be a9 c1 df be 64 3f a5 bb
       0.45533985 -0.251179 -0.43702438 -0.005042957
000210 3e 30 2e bc b5 94 ab 3d 0c b4 c0 bd 9a ac 4a 3d
       -0.010631619 0.08377973 -0.09409341 0.049481012
000220 13 52 9d 3c 66 28 94 bc 66 af 32 bc 36 1e 00 be
       0.019204175 -0.01808567 -0.010906076 -0.12511525
000230 da ee e3 3b ce 7a 1d 3e bf 1c a9 be 59 8e dc 3d
       0.0069559636 0.15378878 -0.33029744 0.10769338
000240 a8 44 2f be c9 dd 04 3e 57 6a 38 3d 1e 7c e6 be
       -0.17116034 0.1297523 0.04502329 -0.4501657
000250 aa 36 1f 3d a2 05 09 bc f5 fd 9d 3b 87 16 14 3c
       0.03887049 -0.008363159 0.004821534 0.009038574
000260 ad 02 a0 3b d4 14 b6 3d 91 c0 31 3e 5c 41 00 3e
       0.0048831315 0.088906914 0.17358615 0.12524933
000270 8b 7c 05 3d 8f a5 3f bc 81 6d f4 bd fc fb 48 3b
       0.032589477 -0.011697187 -0.11934949 0.0030667773
000280 66 11 fa 3e 57 66 62 be 96 13 c1 be 4f e3 bd 3c
       0.488414 -0.22109352 -0.37710255 0.023179678
000290 6c d8 97 bb 12 09 b7 3d dd b1 e8 bd bc 5e 1b 3d
       -0.004633954 0.08937277 -0.1136205 0.037932143
0002a0 59 0c a7 3c 5a 41 c8 bc e4 a4 32 bc 2e 67 25 be
       0.02039163 -0.024445225 -0.010903571 -0.16152641
0002b0 28 f6 33 3b 98 f7 55 3e 75 e1 8d be f3 cc 05 3e
       0.0027459953 0.20895231 -0.27711073 0.13066463
0002c0 56 aa 3b be d6 ed e1 3d f0 18 54 3d 8d fb e1 be
       -0.18326697 0.11031692 0.051781595 -0.4413723
0002d0 65 22 45 3d 9f a9 ac bc 8e 06 9b 3b cf 67 9b 3d
       0.048128504 -0.021076975 0.004731006 0.07588159
0002e0 f5 c9 97 bc 46 c0 9f 3d cb 1f 2c 3e 43 a3 c4 3e
       -0.018528918 0.07800345 0.16809003 0.3840581
0002f0 b7 1c 18 3d 4b 04 3f bd 5e e7 2d be 1a 83 98 bc
       0.03713676 -0.046634953 -0.16982791 -0.018617202

actor_linear.bias f4 [6]
000000 04 f1 fb 3d 33 d0 d2 3e d2 c5 85 3e d7 52 58 3e
       0.123018295 0.41174468 0.26127487 0.21125351
000010 33 3b a9 3e 22 d2 ad 3e
       0.33052978 0.3394938
