spaceinvaders-v0-bottom-7fskip_latent32/model.144.tar (torch, 223035 bytes, 13 tensors)

conv1.weight f4 [32, 4, 3, 3]
00000000: a435 013d 4591 1a3c 2648 2a3d f799 49be
00000010: d926 12bf 753c f43d 99a4 2f3e ff2d 5e3e
00000020: d281 5d3d 0b8f a2b9 fd1d 243e 86bf 813d
00000030: 073b 073c c187 f9bc 0c09 e1bd a553 2c3e
00000040: e7f6 a63d 0f14 013d 129f 2a3d 7d0d 743e
00000050: a255 3dbd 976d 8cbd d9a7 1abe 3806 5abe
00000060: 9340 5f3e 5bf9 29bd bd26 4f3e 2724 f53c
00000070: 5a88 04bf 1858 283c 14d0 0a3e eaf4 2f3f
00000080: 5890 ac3e 998d f4be 1b37 5cbe b8ae a2be
00000090: 5344 55bd 2301 12bd 1ae7 1f3e 8f75 c3bd
000000a0: b586 183e cbc3 113e 23ac 1f3e edae 0dbe
000000b0: c2ee 31be 26a7 a33d b75a 9cbd a008 71bd
000000c0: 08b2 0f3d fd5c 833c a916 94bd 955d 393a
000000d0: c8f7 7cbc 6892 823c 4852 cebd 2b23 7d3e
000000e0: ef5a f5bd 8af8 f4bd f8e4 0f3e 80a9 303d
000000f0: bc0e d13d 5404 42bd 11e2 803d 4bd1 ed3e
00000100: b4d8 c7be 7592 9fbd d74f 473d 35e1 91be
00000110: c71f 0bbd e5b9 b3be c1d3 e43e d8a0 9fbd
00000120: 31e3 063e 0817 2ebe 0bf3 293e b4ab 5e3c
00000130: c136 fe3d 4c47 5b3e ff03 a6be 5a0d 3c3d
00000140: 3931 1dbe dacd 5cbe 4c9e 073d c123 3fbd
00000150: f361 533d 87b7 1ebe 7565 41be 8767 813d
00000160: f93d 1abd 6d79 6c3e 0655 b73d fa39 cdbd
00000170: 7eb2 923e 1be6 1d3e 3cf3 abbd beb4 403d
00000180: 70f6 253e 21fe 83bc 5702 04be 8e2c d3bd
00000190: bfac 5b3e e959 18be 6d8e 273d a2da 58be
000001a0: 6db7 8abe bd29 e9bd e1bc 8a3e bbd2 233b
000001b0: d925 983e fa0e 133e b231 6d3d a3a4 1b3e
000001c0: 14c1 593e 6807 233d 21fe 193e 5853 fb3e
000001d0: 9b04 e13d e18c 043e e1db 76be 856a f9bd
000001e0: bc9d 00be 5f49 a5bd 6b60 e73d 0c07 893c
000001f0: f32f 043e 0a5c 2fbe 7348 68bc fd6e 27be
00000200: 2a02 b63d 3b38 b43d 88ed 8ebe 5ca9 ea3c
00000210: ed37 743e 6358 403e bb57 433e 792c 583e
00000220: eb60 623d 1a3b 0c3e 5d23 9ebe a22f 6cbf
00000230: 86b2 9bbe 43a9 1dbd 6e16 5ebe 7366 793c
00000240: e8da 0ebe 63f2 d4bd 57f6 873e 4db1 5f3e
00000250: 8d91 cf3d 0690 d63d a407 e2bc 2545 e53e
00000260: b3dc 0dbe d9cc 95bd f605 64be 6378 17be
00000270: 5a48 01be e622 00be 68cb 3bbd eddc c9bd
00000280: b7cc 743d 4ebc b03c f14c b6bc 8df4 c23d
00000290: 1ab4 bf3c a06b a8bd f545 a1be f763 1fbe
000002a0: c7cd 19be e1a6 50be 5dd1 6dbe 5294 983e
000002b0: 28bd d2bb 154c 2bbe 5c4d 0e3e ab65 e43e
000002c0: f1a3 a43e 8e24 b5bc d2e1 d4bd 59dc bd3e
000002d0: ad31 3fbe 6a5d 83be edd2 5cbe 513a 99be
000002e0: 278b 0ebf 0543 24be 2165 b8be b72b f5be
000002f0: 327c 71be fbb6 65bd ec88 01bc 8afc c2bd
00000300: ec1d 62be 6adf 19be fe85 a9bd 85d0 51be
00000310: d486 66bc 32ea 1dbb dbdf 853e 66e9 89bc
00000320: 003d c93d f472 20be 327b 4e3e 2af2 30be
00000330: ddcb b63d 7314 de3d eedf 0fbe 06f4 d03e
00000340: 7b38 0a3f b022 e63e 0647 593d 8bf2 903e
00000350: 8437 fbbd 881f d23e 8049 013f 8dde ae3e
00000360: d802 ac3e 1f94 0abe c310 55bd 9f5d b63e
00000370: f69c 863d 86d3 ba3e 5c9c c8be b322 f2be
00000380: a8e8 83bd c0c4 babc 72ae cd3b a901 803e
00000390: ea5d 5e3e 1b2f d83d 5c4b b63d 5f9d 4cbe
000003a0: 93e3 4e3d 508c 17be 8964 f93c 2bd2 06be
000003b0: 695b 853d f745 293e 66a8 823d 769f 7fbd
000003c0: 79b2 eebd a941 673d 9664 a43d 00e3 96bd
000003d0: 029e bcbe 3eb4 72bd 581a 99be 80c2 e1be
000003e0: 0a48 28be ceef 8c3e b178 033f 5715 e83d
000003f0: b62f 133d d9bd a5bd a91f a7bd bd9f e1be
0.031545296 0.009434049 0.041572712 -0.19687639 -0.57090527 0.11925594 0.17152633 0.21697234
0.054078884 -0.00031005623 0.16027065 0.06335358 0.008253819 -0.03046024 -0.10988054 0.16828783
0.08152562 0.03151327 0.041655608 0.2383327 -0.046224244 -0.0685684 -0.15103091 -0.21291435
0.21801977 -0.04149757 0.20229621 0.029924465 -0.51770556 0.010274909 0.13555938 0.68733084
0.33703876 -0.4776428 -0.21505396 -0.31773925 -0.052067112 -0.035645615 0.15615502 -0.09543907
0.14895137 0.14234845 0.15593009 -0.1383626 -0.17376235 0.079908654 -0.0763449 -0.058846116
0.035081893 0.016035551 -0.072308846 0.0007071135 -0.015439935 0.015938953 -0.10074288 0.24720447
-0.11980235 -0.119614676 0.14052188 0.043130398 0.102078885 -0.04736741 0.06293119 0.4644874
-0.3903252 -0.07791606 0.048660126 -0.28492132 -0.033965852 -0.35102764 0.44692805 -0.077943504
0.13172604 -0.17000973 0.1659662 0.013590742 0.12412787 0.21413916 -0.32424924 0.04591117
-0.15350808 -0.21562901 0.033109948 -0.046664957 0.051607084 -0.15499698 -0.18886359 0.063185744
-0.037656758 0.23093195 0.08951764 -0.10020824 0.28651804 0.1541981 -0.08396003 0.04704737
0.1620729 -0.016112389 -0.12891518 -0.103112325 0.21452616 -0.14878048 0.040907312 -0.21177152
-0.27093068 -0.11384914 0.27097228 0.0024997431 0.29716375 0.14361182 0.05790872 0.15199523
0.2126506 0.039801985 0.15038349 0.49087024 0.109872065 0.12944366 -0.24107315 -0.1217852
-0.12560171 -0.08070635 0.11297687 0.016726993 0.12908916 -0.17124954 -0.0141774295 -0.16350932
0.088871315 0.087997876 -0.27915597 0.02864521 0.23849459 0.18783717 0.19076435 0.21110715
0.05526821 0.1369442 -0.30886355 -0.9226018 -0.3040964 -0.0384915 -0.21688244 0.01522218
-0.13950694 -0.10397794 0.2655513 0.21844979 0.101351835 0.10476689 -0.027591534 0.44779316
-0.13853721 -0.07314462 -0.22267899 -0.14792018 -0.12625256 -0.12513313 -0.04584828 -0.098565914
0.059765544 0.021574166 -0.022253485 0.095193006 0.023401309 -0.08223653 -0.31498685 -0.15565477
-0.15019904 -0.20376159 -0.23224397 0.2980066 -0.0064312406 -0.16728242 0.13896698 0.44608817
0.32156327 -0.022112157 -0.10394634 0.37082174 -0.18671294 -0.25657207 -0.21564837 -0.29927304
-0.5568108 -0.16041191 -0.36014655 -0.47884914 -0.23582533 -0.056082707 -0.00790618 -0.09520824
-0.22081727 -0.15026632 -0.0827751 -0.204897 -0.0140702315 -0.002409589 0.2614735 -0.016834926
0.09826088 -0.15668851 0.20164183 -0.17279878 0.089256026 0.10843744 -0.14050266 0.40811175
0.5399243 0.4494834 0.05304625 0.28310046 -0.12266448 0.4103968 0.5050278 0.34154168
0.3359592 -0.13533066 -0.05201794 0.35618302 0.06572907 0.36489505 -0.39181793 -0.47292098
-0.0644086 -0.022798896 0.006276899 0.25001267 0.21715513 0.1055586 0.089010924 -0.19981907
0.05051 -0.14799619 0.030443447 -0.1316611 0.06511576 0.16530596 0.06379776 -0.062407933
-0.11655135 0.056459103 0.08026998 -0.073675156 -0.368393 -0.059253924 -0.2990291 -0.44093704
-0.1643373 0.27526706 0.51356035 0.11332195 0.035934173 -0.08092851 -0.081603356 -0.44067183

conv1.bias f4 [32]
00000000: e474 e7b8 b568 ccb9 7a56 4b3a a080 b2bb
00000010: ccb5 d4b8 6db8 ec3b 4dcb d33a d504 343a
00000020: a5b7 0fba b485 adb9 b7f4 6b3a ebb9 6abb
00000030: 29f6 033b de57 013b c382 faba d623 893d
00000040: c1c9 913b 23dd babb a8d3 283d f3bb df3a
00000050: e1c6 7abb e02d c43a a506 2dbb 3f99 38bb
00000060: 4c72 cebb 98a5 8dba 40bb 21bb 8f5e 64bb
00000070: be7d 07bb 9515 8e38 758f 9abb b516 7b39
-0.00011036711 -0.00038987925 0.00077567215 -0.005447462 -0.0001014281 0.0072241337 0.0016158611 0.0006867175
-0.0005482382 -0.00033096748 0.0009001004 -0.0035816382 0.0020135737 0.001973621 -0.0019112456 0.06696288
0.0044491 -0.005702631 0.041217476 0.0017069563 -0.0038265514 0.0014967285 -0.0026401666 -0.0028167514
-0.0063002463 -0.0010806797 -0.002467826 -0.00348464 -0.0020674313 6.7751076e-05 -0.0047168084 0.00023945684

conv2.weight f4 [32, 32, 3, 3]
00000000: cfe3 9abe 7d72 0abe 88fb 4f3e 02ae 393e
00000010: fe67 1f3e acc1 48be e2e3 5cbe a01b b53c
00000020: 9c66 fdbc b813 2a3d 01ce 84be 9970 933d
00000030: 7e46 6f3e 27cf 94bd f5e9 b13c 9ea9 8e3d
00000040: 0cc1 01be b331 473e 435c 87bc 23eb 8a3d
00000050: 44d9 75be 7947 2abe 74a2 ed3d 1936 713d
00000060: f061 813a df9d 053d 5a51 1c3d 3cae 6fbe
00000070: 2205 58be 0f48 ffbd 2420 66be dff7 e5be
00000080: 74de 933e cd05 3ebd 45be 1d3e 2de7 9d3e
00000090: 8ef6 103e 5146 a13d 7c0a 7c3d 0274 153e
000000a0: 710f 303e 7118 25be 2c03 91bd ac05 8abd
000000b0: 9b41 253e ae83 203e 205f c4bd 1439 c7be
000000c0: e19f 013e 38f9 973d 4c76 21bd 7aab 013e
000000d0: 64f6 a53e 94f1 373e 60f7 d73e 72cb e93d
000000e0: 519b b0be acf5 7dbd 2640 c23d ef71 6b3c
000000f0: 3115 a2bd 8e7b 61bd 51c2 81be f752 2abe
00000100: e09a 1dbd d921 563d 3b98 be3e 0594 82bc
00000110: 780e 93bd 9184 52bc 6efb cd3d 9d24 de3d
00000120: e7a8 32be 9a62 6e3d 558c 9f3e c8d7 693c
00000130: 0628 983d d872 11bc dfea 47bd 823c 5fbe
00000140: c6e2 03be bfa8 543e b0dc 16be bb41 8b3d
00000150: 3123 8439 56a1 b33d fa63 8bbe 10ad fa3c
00000160: 7d8b a13e 61b2 ccb9 3655 313e 9f02 9fbc
00000170: b3c5 b2bd 3698 cb3d 2168 e13e 6708 d1be
00000180: d63e 5e3c be2e ee3c ec2e e6bd 7462 433e
00000190: 5167 923c 04a4 99bd 609a 983e a615 673d
000001a0: 9874 2dbe 8d1b bcbd fdbc 18be b620 dabc
000001b0: 19d5 a3bd 0537 58bd ae5e 013e 958d de3e
000001c0: bb7a 423e 63e4 33be 7760 e9bd c0e4 67be
000001d0: 4848 0ebe a9c8 26be d309 3e3d 850f 373f
000001e0: 7529 923e 0ccd a93c d8a4 203e e0bf 8d3d
000001f0: 678a c9be 6925 97bd f466 f63d f5a3 c33d
00000200: 13e7 753d 240d 823e 67f3 16be c5d9 803d
00000210: 04c7 873d a0e6 18be 989d 953d c0e6 13be
00000220: 6210 adbd 0320 a4bd 9c5d 20b9 bab6 3d3e
00000230: 037c d83e b648 00be eace c1bd 6045 47bd
00000240: f2ad 39be cf6e a5bd b41e 00be 03eb 003e
00000250: 2882 b63c 447f 19be 1423 7d3d e863 adbb
00000260: 546e 003d cfa6 e0bd 450e f83d 3628 6dbd
00000270: b507 fbbe 877d 423e 6501 4cbe 3308 453e
00000280: e919 a2bd ec65 903d 1a06 88bd 146a bfbd
00000290: 46b3 f3bc f35f 433d b4ce 0c3e 3fc1 8e3e
000002a0: 48c9 29be 285c 13be ec90 94bd 9fac 3e3e
000002b0: dc7f 2f3b ca88 94bd e3f5 c03d 4b5b 3b3d
000002c0: 7b9a f23c ed38 9cbe f5e7 11be 1ca2 08be
000002d0: f44b ebbd 1166 7cbd 6aef 04bc 4a8c fdbc
000002e0: c9bb 2c3e 1ad0 4fbe 1381 35be e2db 1a3e
000002f0: 782b 853d 00af 2c3e cb97 acbe f6a6 ad3c
00000300: 1f20 e0bd ef25 aebc af7c 30bc fd96 77bd
00000310: fd18 b8bd ddc9 163e 2f64 19be 343e b53d
00000320: 0c0e e9bd 1552 cd3e 9312 1d3e e00a b73c
00000330: 8ea1 57be dcc4 c83b 4cc7 9bbd bc5c a8bd
00000340: 5183 f8bd b779 9e3e bf48 a1be e174 2bbe
00000350: 6b5c 16be 25b1 673e 5f59 053e 80e5 7fbd
00000360: 0b21 b33d de81 563d c036 583e 8ac0 a4bb
00000370: ab53 f6bd 67f1 fbbb b531 dd3d b029 b7be
00000380: 5099 3bbe 1360 963e 1b8b e73d 720d 703d
00000390: 70fd 033e 950c 363d 8e80 64be f41e 88be
000003a0: 7f0c b83d b2ee 4c3d 9c26 3c3d 1f14 723c
000003b0: a66c f6bd ece3 623d be0e 183e a10a 46be
000003c0: 58d3 09be 53a1 af3e 748d 9ebd 2280 3dbc
000003d0: 1a84 fcbd 56e9 b3bc 37cb 11be 5e19 67be
000003e0: 1d91 113e ff5c 2b3d d57a 083e dc88 363e
000003f0: a2b1 c83e 189d 723e 7360 97be 8483 b6be
-0.3025193 -0.13520236 0.20310795 0.18132785 0.15567014 -0.1960513 -0.21571305 0.0221079
-0.030932717 0.04152271 -0.25938419 0.07199211 0.23366734 -0.07266074 0.021718005 0.06965946
-0.12671298 0.19452552 -0.016523486 0.0678313 -0.24008662 -0.16628827 0.11603251 0.058889482
0.0009871107 0.03262126 0.03816352 -0.23406309 -0.21095708 -0.12464916 -0.22473198 -0.44915673
0.28880656 -0.04639225 0.15404613 0.30840436 0.14156553 0.0787474 0.061533436 0.14595035
0.1719339 -0.16122605 -0.07080683 -0.06739363 0.16138308 0.15675232 -0.09588456 -0.38910735
0.12658645 0.074205816 -0.039419457 0.1266307 0.32414544 0.17963248 0.4218092 0.11415757
-0.34493497 -0.06200187 0.094848916 0.014370426 -0.07914198 -0.05504947 -0.25343564 -0.16633211
-0.03847778 0.052278373 0.37225518 -0.015939722 -0.07180494 -0.012848989 0.10057722 0.10846827
-0.17447244 0.058199503 0.31161752 0.014272638 0.07429509 -0.008877479 -0.048807975 -0.21800426
-0.12879476 0.20767497 -0.14732623 0.067996465 0.00025203222 0.08771007 -0.27224714 0.0306001
0.31551734 -0.00039042815 0.17317662 -0.01941043 -0.087291144 0.09941141 0.44024757 -0.40826723
0.013564786 0.029075023 -0.112394184 0.19080526 0.01787153 -0.075019866 0.2980528 0.05641713
-0.16939008 -0.091849424 -0.14915843 -0.026626926 -0.079996295 -0.052786846 0.12633774 0.43467394
0.1899213 -0.17567591 -0.11395352 -0.22645855 -0.1389476 -0.16287483 0.046396088 0.71508056
0.28547254 0.020727657 0.15687883 0.06921363 -0.39363405 -0.07380182 0.120313555 0.09552757
0.060034823 0.2540065 -0.14741288 0.06291536 0.06629756 -0.14931726 0.07305449 -0.14443493
-0.084503904 -0.08013918 -0.00015293661 0.18526736 0.42282113 -0.12527737 -0.09463294 -0.048650146
-0.18132761 -0.08077776 -0.12511712 0.1258965 0.02227886 -0.14989954 0.06180103 -0.005291451
0.031355217 -0.10969316 0.12112097 -0.057899676 -0.49029317 0.18993197 -0.19922407 0.19241409
-0.07915098 0.0705069 -0.06641789 -0.09346405 -0.02974857 0.047698926 0.13750726 0.2788181
-0.16580689 -0.14390624 -0.07254204 0.18620537 0.002677909 -0.07252653 0.09421899 0.04574136
0.029614678 -0.3051218 -0.14248641 -0.1334309 -0.11489096 -0.061620776 -0.008113721 -0.030950684
0.1686851 -0.20294228 -0.17725019 0.15122941 0.06502432 0.16863632 -0.3370956 0.021197777
-0.109436266 -0.021258323 -0.010771914 -0.060446728 -0.08989141 0.14725442 -0.14979623 0.08849755
-0.11379632 0.40101686 0.15339117 0.022344053 -0.21057722 0.006126983 -0.07606372 -0.08220813
-0.121344216 0.30952236 -0.31500813 -0.16743805 -0.14683692 0.22626169 0.13022374 -0.062474728
0.08746537 0.052369945 0.21114635 -0.0050278353 -0.12027677 -0.0076886895 0.108004965 -0.35773993
-0.18320203 0.29370174 0.11305829 0.058606572 0.12889647 0.044445593 -0.22314665 -0.26586115
0.089867584 0.050032325 0.04593526 0.014775305 -0.12032442 0.055393144 0.14849374 -0.19339992
-0.13459527 0.34302768 -0.07741824 -0.011566194 -0.12329884 -0.02196185 -0.14237677 -0.2256827
0.14215513 0.041836735 0.13328107 0.17825645 0.39198023 0.23692739 -0.29565772 -0.35647213

conv2.bias f4 [32]
00000000: 58ad cebb fc75 0fbc 57b9 17bc 5717 0ebc
00000010: 2422 51bd 1b9e 23bb a5c6 cebb bc73 62bc
00000020: 98c5 8d3b 3b9d 72bc 57f1 ecbc 9c8f aebc
00000030: e283 103d e926 aabc b2cc febc a376 09bc
00000040: 02e4 973b 3feb 0bbc 90a6 cc3c dda3 543b
00000050: 405c 71bc bd9e 62bc dec7 ebba ca8e e6bb
00000060: cfd1 acbb 7d5e 3bbc 3d74 53bc 7fc1 acbc
00000070: 5e8a 813c f2e3 ad3a 63f7 7a3c fd4a 8fb9
-0.0063072853 -0.008756157 -0.009260497 -0.008672557 -0.05105795 -0.0024966064 -0.0063103014 -0.013821539
0.0043265335 -0.0148079945 -0.028923674 -0.021308713 0.035282023 -0.020770507 -0.031103466 -0.008390102
0.004635335 -0.008539974 0.024981767 0.0032446303 -0.014731467 -0.0138317915 -0.0017988642 -0.0070360648
-0.0052740346 -0.011436102 -0.012906131 -0.02108836 0.015813049 0.0013266786 0.015317771 -0.00027330956

conv3.weight f4 [32, 32, 3, 3]
00000000: dd5b acbd 20cc 58bd bfa9 8ebe 72b6 143d
00000010: db17 c03d 7fa2 c63d 8f15 bb3d bcea 49be
00000020: 2826 56bd d0dd 843c e90a 38bd 066a 203e
00000030: 8940 28be d23d 41be 87f2 0e3e f03f 833d
00000040: c3e9 b6bd 49d4 98be f1f2 dabd 9ee3 0cbd
00000050: 4c26 243e 678a 703e 1421 3a3e 9d5e 33bd
00000060: 2ba9 76bd 499e 89bd e5ba a83a bc4a 70bd
00000070: 9a73 79be 319d dcbe a594 123e 617a 50be
00000080: f75a 5bbe 2434 e73e a015 283c 93dc bdbe
00000090: fcae 0b3e c0f5 a9bc 712e b4be 1a1f f7bb
000000a0: 5615 26be 349b 06be 9e57 363e ca8a f3bd
000000b0: 5e31 413b 5333 01bd 71d8 6dbd a791 49bd
000000c0: f8e6 2f3e c7bd bf3d 6e41 70be 2856 96be
000000d0: b9c4 dc39 1a3c 1e3e 6211 0b3e 0f9b e8bc
000000e0: 7efa 25be 0cf8 2e3e f10a 1bbe 6e9b c73d
000000f0: 1472 eabd 0f8b 223e bfb9 c63d 44d7 cebd
00000100: 45bc 73be e941 d7bd a43e 3f3e 9db0 17be
00000110: ec31 eebd 3ca4 f4bd 8b88 19bd 44dd f03c
00000120: 10ee d73c 5db7 07be 952b 173e 7076 fc3d
00000130: df04 333c 8b87 873e c5c0 73bd 7db2 473e
00000140: 08cd 6abd 4aaf c03d a685 12be 6f25 debd
00000150: 4afc 64bc 1eda babd e25b c1bd 767f 23be
00000160: 805f e5be 7278 bf3e 60e7 6cbe 5b34 4cbd
00000170: 7f93 cbbd d96e bf3d 0f24 803e b8e0 9dbe
00000180: 91e2 4bbe 66a5 73be aa82 973e 41ba 113e
00000190: 1881 733d cc14 fcbd 444a 7b3e 92c1 813e
000001a0: e572 5dbc 08de 61b9 1a7f 3f3e 5fc8 4ebe
000001b0: 808b 34be 47e4 813e c212 093e 805a 2ebe
000001c0: 8dcd dd3d ce6e 1cbb 933f 3c3d 3af0 473e
000001d0: 347c 86bd bb84 e0bd 05b4 cd3d e024 4e3e
000001e0: e1e1 873c ca64 213c 4fba 6c3d ad0c 82bd
000001f0: d1f5 873d bc9b 193f 2455 72bc 2fb8 873e
00000200: 7b6c 16bb 4a35 a9bd 461d be3d cb08 3bbe
00000210: 8de4 07be be85 993d e64c 123e 1d99 5b3e
00000220: 043a 87bd e57c efbc 7cff 6bbe 9fa7 3c3c
00000230: 4cf8 903e 3592 a43d 9e02 023d 04bc 02bf
00000240: 9d55 d53b 4c47 82bd 82f2 423e 379c 53be
00000250: 9697 923e 014a 26be 1f3c 3fbd bc1e de3d
00000260: e35e b4be 2e88 c1be 20c8 72be 1188 303e
00000270: 567b 33be e15a fa3d 9675 2b3e 3ec3 b23d
00000280: 6991 39bd cee0 1f3e b454 bd3d bc0b 41bd
00000290: 044c 8dbe 2dce 9c3d d1cb 3cbd 4ac3 1dbe
000002a0: f129 293d e2fc 083e 8bb3 8cbe b5f4 f1bc
000002b0: 448f 253e af35 d23d 76d1 75be 0d02 3abe
000002c0: 92cb 41bd dc38 e7bd 0530 02be 02a1 8cbd
000002d0: e16d 163e 506b a4be 613d 7abe 9f24 d2bd
000002e0: 53ab d93e 6722 b9bd dbfc a7bd 7455 e8bd
000002f0: d0ee 22be 0ecd 2c3e 76c8 a3bd 8c3c 4bbe
00000300: 511b c53c c90b fdbd cd30 05be 8a1b e23d
00000310: bd37 123e 6332 8bbc 9361 073e dc22 65bd
00000320: b33c a6be 7a5e 2ebe b1b3 043d d3d2 243c
00000330: ac9c 7abd 7d60 973e 8533 72bd 4976 473e
00000340: d798 f23c 9e80 c0be bfd3 bc3e 6bd4 afbe
00000350: 97de c9bd a79c 0b3d dbc2 15be fe15 e7bd
00000360: cff5 133e 1935 28bc e034 463e 601c 8cbd
00000370: d0e1 aebd 344e 2e3e 3957 88be 5aac 043e
00000380: 45c4 6e3e 7e77 143c f2c0 febd 3541 803e
00000390: 6c57 a4bc 4867 f1bd 8c9d f03d 5030 5abc
000003a0: 5cb9 2d3e aef8 aabd 697b 96be 3c56 813e
000003b0: 59cb 453e 8475 cbbd 9fef f8bd 25db b53c
000003c0: 21c7 fe3d 7a53 a3bb 86db 493e af81 ec3c
000003d0: 4b7d d13d 7fd0 7f3e 21b6 013e 54d9 f9bd
000003e0: 4af1 5cbe 099c c13d 7f0c dcbe 3928 94bd
000003f0: 8ba0 32be e499 eb3c 5fc3 153e 9e68 9ebe
-0.08415959 -0.052929044 -0.2786388 0.036306806 0.0937955 0.096989624 0.09134971 -0.1971845
-0.052282482 0.01621905 -0.04493228 0.15665445 -0.16430868 -0.18871239 0.13959704 0.064086795
-0.08931305 -0.2984946 -0.10690869 -0.03439676 0.16030234 0.23490296 0.18176681 -0.043791402
-0.060219925 -0.067196436 0.0012873082 -0.058665022 -0.24360505 -0.43088678 0.14314516 -0.20359184
-0.21421419 0.45156968 0.010259062 -0.37082347 0.1364097 -0.020747066 -0.35191682 -0.0075415494
-0.16219077 -0.13145143 0.17806861 -0.11891706 0.0029478888 -0.031543087 -0.058067743 -0.04921117
0.17177951 0.09362369 -0.2346246 -0.29362607 0.0004210824 0.15452614 0.1358085 -0.02839425
-0.16208836 0.1708681 -0.15140893 0.09746443 -0.1144754 0.15873359 0.09703397 -0.100996524
-0.23802288 -0.10510618 0.18676239 -0.14813466 -0.116306156 -0.11945388 -0.037483733 0.029402383
0.026358634 -0.13253541 0.14762719 0.12327278 0.010926454 0.264706 -0.05951001 0.19501682
-0.05732444 0.09408434 -0.14308795 -0.10846984 -0.013976166 -0.09123634 -0.094413534 -0.15966591
-0.44799423 0.3739658 -0.23135138 -0.049854618 -0.09940242 0.093473144 0.2502751 -0.3083551
-0.19910647 -0.23793563 0.29591876 0.14231206 0.059449285 -0.12308654 0.24540049 0.25342995
-0.0135161625 -0.00021540385 0.18700829 -0.20193623 -0.1763134 0.25369474 0.13386062 -0.1702671
0.10830221 -0.0023869756 0.045959067 0.19525233 -0.065666586 -0.10962816 0.100441016 0.20131254
0.0165872 0.00985069 0.057794865 -0.06350074 0.06638683 0.60003257 -0.014790807 0.26507708
-0.0022952843 -0.08262117 0.09282927 -0.18265073 -0.13270779 0.074962124 0.14287147 0.21445127
-0.066028625 -0.029234359 -0.23046678 0.011514573 0.28314435 0.08035699 0.031740777 -0.5106814
0.00651045 -0.06361255 0.19037822 -0.2066506 0.28631276 -0.16239168 -0.046688195 0.10845706
-0.35228643 -0.3779921 -0.23709154 0.17239405 -0.17527518 0.12224365 0.16744074 0.08728646
-0.04530469 0.156131 0.092446715 -0.04713033 -0.27597058 0.076565124 -0.046092812 -0.15406528
0.041299764 0.13377717 -0.2748073 -0.02953563 0.16167933 0.102641456 -0.24005684 -0.18164845
-0.04731328 -0.11290142 -0.1271363 -0.06866647 0.14690353 -0.32113123 -0.24437477 -0.10260891
0.42513523 -0.09039765 -0.08202525 -0.11344424 -0.15911412 0.16875097 -0.07997219 -0.19847316
0.024060877 -0.123557635 -0.13006897 0.11040409 0.14279075 -0.0169918 0.13220815 -0.055941448
-0.32468185 -0.17028227 0.03239793 0.01006003 -0.06118457 0.29565802 -0.059131164 0.19478716
0.029613895 -0.37598127 0.368803 -0.3434175 -0.09856909 0.034084942 -0.14625113 -0.112834916
0.14449237 -0.010266566 0.19356108 -0.068413496 -0.08539164 0.1702202 -0.26629046 0.12956372
0.23317058 0.009061692 -0.12439145 0.2504975 -0.020061217 -0.117872775 0.117488 -0.013317183
0.1696524 -0.08348213 -0.2939103 0.25261104 0.19315852 -0.09934524 -0.12155079 0.022199223
0.124403246 -0.0049843164 0.19712648 0.028870432 0.10228976 0.24981879 0.12667133 -0.12199655
-0.2157642 0.094535895 -0.42978284 -0.07234234 -0.17444055 0.028759904 0.1462531 -0.30939192

conv3.bias f4 [32]
00000000: 0455 e6bd 1c5e 1abe 2b3e 1d3a e27d fabd
00000010: 2ed6 90bd 2f07 cebe 00c3 edbd 9342 0bbe
00000020: 6ca3 ccbd d1c1 1ebd 7e04 10be 1887 1cbe
00000030: 4394 65bd 33f9 d3bd f467 0ebe de2d b7bc
00000040: 3568 b3bd c5d5 0ebd 543f bdbe 0580 ccbd
00000050: ea12 4dbe 869c c1bc e4f8 17be a58a 7ebe
00000060: 5b8d 88bd d3a9 02be 640e af3a 984e 9dbd
00000070: 4d60 adbd 3920 e9bd 01f1 473d 84f0 08be
-0.11246684 -0.15074962 0.00059983385 -0.122310415 -0.070721015 -0.40239856 -0.11609459 -0.13599615
-0.09992108 -0.038759056 -0.14064214 -0.15285909 -0.056049597 -0.10350265 -0.13906842 -0.022360738
-0.0876011 -0.034871835 -0.36962378 -0.09985355 -0.20026746 -0.023634207 -0.14841038 -0.24857576
-0.066675864 -0.12760095 0.0013355729 -0.07681006 -0.084656335 -0.11383099 0.048813824 -0.13373

conv4.weight f4 [32, 32, 3, 3]
00000000: a3ed a63e 8810 e2bd 55af ba3d 22b1 f6bd
00000010: e155 9aba ae28 a1bd 4780 4cbe ffe4 1ebe
00000020: c061 81be 2447 04be 574c 88be c6ce 6f3d
00000030: 0cee 68bd 589b 473d 3467 09be 35e8 c73b
00000040: cfcf 073e c86e 81bc 75a3 93be 3f46 1b3e
00000050: 0f25 b73c 04d8 18be 4fbb fabd 70c0 543d
00000060: 8dd0 8e3d 8936 d5b9 29ad 0fbc 2a9b 4d3e
00000070: 1e85 663d 049a 75bd d989 4b3e 688c 88be
00000080: 7bba 91bd 191c d4bd 6821 21be 822b 6c3d
00000090: 4c9a 283e aa38 4bbe 6001 20be ed2d bf3d
000000a0: 01fa 29be 46f7 0c3e e077 0c3e 77c0 c9bd
000000b0: 374e 1b3d 481d ab3e d4b6 15be 9120 f23d
000000c0: 3460 35bd 1f32 5a3c 8658 f33d 7109 00be
000000d0: 7e92 e63c 0d1e 95bd 01e8 633e 5e31 99be
000000e0: 95ab 92bd 54b9 23bd 3d70 cd3c dad5 b23c
000000f0: 13aa 08be b69d 363e bc35 0d3d 7fe5 f23d
00000100: 1298 a6bd 32ad 0b3e c6ba 0e3e b597 053d
00000110: 1258 273e fcec 96bd 7952 803d b889 893e
00000120: 1cca 533d 1005 44bd 4f2d e3bd 3542 5e3d
00000130: 8207 623e 6022 87bd 7e95 c9bd d969 fc3d
00000140: c8cb 93bd ea59 823d e29d cfbe 200c d23c
00000150: 5842 5dbe cb5c 9d3e b98e f73d 4341 31be
00000160: fd38 133e 50b2 0d3e de06 2a3e 292c 303d
00000170: 744e c83d cab5 bcbd a78e f33d 1760 7abe
00000180: 620a afbc 0a32 5dbe 0b0c b53e fb4d a7bd
00000190: 962e 2d3e 8420 413a 383d bd3e 23e0 9dbe
000001a0: 817a 67be 97d2 0a3e 709e be3c 91bd 50bd
000001b0: 1a11 2bbe 7e55 7e3d 48e1 903e cb86 03bd
000001c0: ab4a d7bc da14 833d 8a88 3fbd 7593 2c3d
000001d0: 8fb9 873c 9fdf c23e 109a ebbe d0cf e73d
000001e0: 4013 453e c72d a6be eec9 283e d976 0fbd
000001f0: 8cdd c2bd 57b2 16be 11d1 323e c6c9 b8bd
00000200: d801 aebd c1a6 aebc 674a b1bd 28a5 a73d
00000210: 3a0e a6bd ea42 3a3e b79e 96bd 02b6 10bd
00000220: 6133 90bd cb84 863e 5947 6ebe 796c a53e
00000230: cc4f f6bd 7ccd 8cbe 4583 2f3e 5cb3 f8bc
00000240: 1e3c 01be 27e0 ddbd 287b 28be e0da 4fbd
00000250: a3d9 c23e 446d 053e 21a9 8b3e 2d13 b1be
00000260: cf17 4cbc 45aa 3dbe 15a4 123d 20a2 c4bd
00000270: 9305 c9bd ce9b 40be 5ddf 123e d0f6 adbd
00000280: de7a 8bbe 27b5 b23c b471 643e 7b38 69bd
00000290: 227c 8bbd 0569 873d 339b 59bd ddf6 5bbe
000002a0: de9d b7bd bbed b8bd 6d49 433e f11e 3bbe
000002b0: ba24 bcbc f82c c3bd 4cec 16be 7341 333e
000002c0: 5e0f e3bd 02f5 283e 60ad 5ebe 3406 97bd
000002d0: 1c6c 50bd 51b8 963d aa08 4e3e 743f 803e
000002e0: 974c b8bd 169c 92be 77db 07be 88a3 b4bd
000002f0: b8e5 383d 9883 95bd 5747 45be c90b b9bd
00000300: 14e5 423d 1f3e dfbb cae4 c33d 44f7 853e
00000310: a874 173e d873 9cbe 512c b33d 35b9 9a3e
00000320: b8d3 4ebe 3ed5 79be e29b 1f3f 5818 8ebd
00000330: c8be 813d ddde bcbe c300 c43c 2336 2dbd
00000340: 7734 f4bd 9509 e2bd 50f3 923d 6beb 4dbd
00000350: 4efa 15be 421b e7bd 845b a6bc 8fc1 3c3e
00000360: 7df7 523c 9cce 243e 2294 e33a e05c bbbe
00000370: 59de 38bd 8093 133e cd9c fabc b349 023e
00000380: 88d6 163e c192 023d 1a92 a8be 7fc4 893d
00000390: 72c6 02be 497a 7d3d a7f5 e13d c447 33be
000003a0: 5e40 c73e 7216 4abe 0d25 633b d094 1fbd
000003b0: ea88 fc3d 0f4b 863e a848 af3e f3d5 63bc
000003c0: eab1 3bbe 4998 bebd 81ca 603e 0a96 2f3e
000003d0: 4c9e 86be 1de1 073e 114c 85bc 697b f1bd
000003e0: 88c1 3c3e 9b60 d5bd 1c4d 513e 72a4 8abe
000003f0: cbbb 873c 816c 3f3d 1387 2c3e a8d3 b9be
0.32603177 -0.11038309 0.09115473 -0.12045504 -0.0011774861 -0.07869087 -0.19970809 -0.15517043
-0.2526989 -0.12917763 -0.26620743 0.058546804 -0.056867644 0.04873213 -0.13418275 0.0061006793
0.13262866 -0.015799895 -0.28835645 0.15163516 0.022356538 -0.14926153 -0.122427575 0.051941335
0.06973372 -0.00040667158 -0.008769312 0.20078722 0.056279294 -0.059961334 0.19876803 -0.2666962
-0.071156465 -0.10356922 -0.157354 0.05765868 0.1646511 -0.19845834 -0.15625525 0.093349315
-0.16599275 0.13766202 0.13717604 -0.09851163 0.03791639 0.33420777 -0.14620525 0.11822618
-0.0442812 0.013317614 0.11882119 -0.12503602 0.028146025 -0.07281122 0.22256471 -0.29920477
-0.07161633 -0.039971665 0.025077933 0.021830488 -0.13346128 0.178336 0.034475073 0.11860179
-0.08134474 0.13640288 0.13938436 0.032615382 0.1634219 -0.0736942 0.062657304 0.26862884
0.05170642 -0.04785639 -0.11092626 0.05426236 0.22073177 -0.065983534 -0.098429665 0.12324876
-0.072166026 0.06364806 -0.40550143 0.025640547 -0.2160734 0.30734858 0.12087769 -0.17310052
0.14377208 0.13837552 0.16604182 0.043010864 0.09780589 -0.09214361 0.11892443 -0.24450718
-0.021367256 -0.2160112 0.3536075 -0.081691705 0.16912302 0.0007367211 0.3696077 -0.30835065
-0.22605325 0.13556896 0.023268908 -0.050962035 -0.16705742 0.06209325 0.28296876 -0.03211097
-0.026280722 0.064004615 -0.046761073 0.042132813 0.016567973 0.38061234 -0.46015978 0.11318934
0.19245625 -0.324568 0.1648328 -0.03502545 -0.09514913 -0.14716469 0.17462565 -0.0902286
-0.084964454 -0.021319749 -0.08656769 0.08185798 -0.08108182 0.18189588 -0.07354491 -0.035329826
-0.0704105 0.26273188 -0.23269404 0.3230932 -0.12026939 -0.27500522 0.17139919 -0.030358963
-0.12620589 -0.10833769 -0.1645323 -0.050745845 0.3805667 0.13029963 0.27277473 -0.34584942
-0.012456848 -0.18521984 0.035801012 -0.096012354 -0.09815516 -0.18809435 0.14343019 -0.084943414
-0.27242178 0.021814896 0.22309 -0.05693863 -0.06810786 0.06611828 -0.053126525 -0.2148089
-0.08965658 -0.090297185 0.19070978 -0.18273522 -0.022966731 -0.095300615 -0.14738578 0.17505436
-0.110869154 0.16499713 -0.21745825 -0.0737423 -0.05088435 0.07359374 0.20120493 0.2504841
-0.08998983 -0.2863471 -0.13267313 -0.088202536 0.045140952 -0.0730049 -0.19265495 -0.09035451
0.047581747 -0.0068128253 0.095651224 0.2616521 0.14790595 -0.30557132 0.08748687 0.30219427
-0.20197952 -0.24397752 0.62347233 -0.06938237 0.06335217 -0.3688878 0.023926144 -0.042287957
-0.119240694 -0.11036984 0.071753144 -0.05027334 -0.14646265 -0.11284496 -0.02030731 0.18433212
0.012876389 0.1609444 0.0017362873 -0.36594296 -0.045133922 0.14411736 -0.030592347 0.12723427
0.14730275 0.031878237 -0.32923967 0.06726932 -0.12771013 0.0618842 0.110331826 -0.17507845
0.38916296 -0.19735125 0.0034659535 -0.038960278 0.12330802 0.2622914 0.3423512 -0.01390599
-0.18329588 -0.0930639 0.21952249 0.17147079 -0.26292646 0.13269468 -0.016271623 -0.11791117
0.18433201 -0.10418817 0.20439571 -0.27078587 0.016569039 0.046734337 0.16848402 -0.36294293

conv4.bias f4 [32]
00000000: 527a 06bf cbf6 b1be 1fe5 14be 07f2 78be
00000010: 229b 0abf 76cf a1be 8a9c 95be f580 6dbe
00000020: 8cb0 69be a060 95be 2b98 58be 4118 cebe
00000030: 9a02 a8be 96ec 85be 448f b6be 2e7f 03bf
00000040: 146e b4be 2214 e1be 1ce2 c5be 5713 10be
00000050: d0dd e3bd 1c70 99be 4f47 bdbe 3a50 e5be
00000060: 2b0e ffbd 0777 8bbe 0a7d a2be 7479 1ebf
00000070: 9dac 5dbe 64f6 22be 851a 9cbe a9ac ffbe
-0.52530396 -0.347586 -0.14540528 -0.24311076 -0.54142964 -0.31603593 -0.29220992 -0.23193724
-0.22821254 -0.29175282 -0.21151797 -0.4025288 -0.32814485 -0.26157063 -0.35656178 -0.51365936
-0.35240233 -0.43960673 -0.3864907 -0.14069878 -0.11126292 -0.29968345 -0.36968467 -0.4478777
-0.12453874 -0.27239248 -0.31736022 -0.6190407 -0.21647878 -0.15914303 -0.30488983 -0.49936417

linear.weight f4 [32, 800]
00000000: fb37 e1bc 5bed c33d 18b4 94bc 29c4 33bd
00000010: 3a0c 49bd 1b88 81be a3da 173e 6393 4d3d
00000020: d724 0a3c 8520 a73d e89d 383e 8626 2fbe
00000030: 3653 dabd 0a42 4fbd b37a 913e f8b6 453e
00000040: fce6 3b3e df90 a6bd 40aa 22bb 903f b5bd
00000050: 1b41 bfbd 20ff 45bd 9c5c a7bd 8ff8 7abd
00000060: 2564 76bd 0ee5 9f3e 1823 8ebd 019a d13d
00000070: 3180 85bd b48e 5d3d 687e ecbe dc00 943d
00000080: 03ba 8ebd e4dc 42bd bd21 613e bf59 443e
00000090: 1fad 983d c6c6 9bbd 8800 bcbd 6a4b 9ebb
000000a0: 1c96 c03d 5797 b7be 3b6a e6bd 3877 debc
000000b0: f822 403d 4def bbbd 17d3 3abd 9a60 603c
000000c0: 1ee4 babb 7817 9ebc 026f 07be 91c9 0bbd
000000d0: 4d66 8c3c 1fe3 d8bd 0853 cb3c 3d60 983e
000000e0: 5cd8 b33d 6fe2 d5bb e9d9 6cbc cf04 2bbd
000000f0: e4b4 613d 39bf 5f3d 4565 153d a7ae a2bc
00000100: c871 17bc f36a d6bd 44ee dbba d820 4e3d
00000110: ec0c 87bd 985c 7dbd 7a04 b3bd 6f14 aabc
00000120: dde2 5a3b a57e f7bc af9c 653c 4eaa 9f3e
00000130: ca62 50bd b3cc d63d b984 903b b61f 74be
00000140: 6e02 80be 2b8d e13c 9027 ddbd 39a0 0ebe
00000150: 30f4 153e e444 0d3d 82ac aebc 8d1a 90bd
00000160: 7185 6c3d 5f08 c2bd 7049 383e d306 00bd
00000170: 3f4d 323e b768 dd3d 8938 f93d bb52 583c
00000180: 6e95 63bd eca4 81bd 1ee2 a2bd 1c16 bdbd
00000190: 06d8 9fbe f2f7 923e e597 423c 70f2 a83d
000001a0: 37ca 123e d48d 8dbe 8173 bb3e 5b1e 1a3e
000001b0: a317 143e f7fe 3e3e a4d4 8abe 19ea 0e3f
000001c0: 7d8a 5d3e 9167 e23d a4e9 d53e f886 a6be
000001d0: a214 9abe 3e26 82be 0b16 6cbe d4da c2be
000001e0: 3b82 b1be db54 d1be e9a0 bfbe 3b72 cdbe
000001f0: dfd5 d8be 0c2b 20bd f53c c3ba fceb ff3c
00000200: 9273 66bd 4362 3e3e 119c d93d fb51 873e
00000210: 52ac f9bc 8be3 d0bd 6344 5fbd 950b 11be
00000220: 8834 f5be 9341 6cbb 0075 bb3d 7a6f 193e
00000230: b7f7 48be c7d9 d9bd 1bc8 d3bd b5c8 f5bd
00000240: 2bdc a0bd 7989 b2bc 933b cc3d a41f 823d
00000250: 15ef 553d 1646 e73d 1dbc cbbd bb0c d93c
00000260: 73bc 47be 12aa 0abc 1020 783e aac4 a33e
00000270: 4591 443e 5f10 0dbe 37e0 21be e896 313e
00000280: fb07 82be 1412 fb3d aba5 4cbd 269d 89bd
00000290: eac0 19be 11a8 18bd 116b a4bb d226 ad3c
000002a0: 57bd 563e 2fe4 913d 73b3 483e c518 d1bc
000002b0: 17a3 d7bc 0a0c a1bd 0c9a 6bbd 2e49 b63e
000002c0: 2bc9 57be e4ee 223d 0bf3 18ba bb1f 09bd
000002d0: 2f9f 8fbe 0b5f 363e a272 5b3d 6d3a ffba
000002e0: 3af4 c33d 8b3f 6a3c 06d6 a6bd 59e2 9bbc
000002f0: 654f c43b 0161 7a3e 7bce 9cbc 5c38 de3c
00000300: 51bc 2f3e c4c7 b83d 59b8 8dbe 500b 473c
00000310: 541a 37bb ad49 febc 224e 15bd 7f09 bdb9
00000320: a362 61bd b1a1 71bc 421f cdbc a2bb 443e
00000330: 9a5b b9bb 3da8 0abd 3735 eb3d a8f5 4dbd
00000340: dd5b 85bd ef7f 633e 9b3f 423e a590 ab3c
00000350: 2775 67bd 9f68 ea3b 3ed8 8a3e 3435 8eba
00000360: ce3f 653c c8d3 333e 09bd 64be 934b 8cbe
00000370: 78ae 993b 0e40 87bd d3e2 08bd e75a 90bd
00000380: 0e22 19bd a78b a33d 781e 553e f12c 85bd
00000390: e987 1ebe 4a47 a23c 7e99 4bbe 397a a03d
000003a0: a5f2 16bb 4fd1 42be 71fa 4f3d e8b0 a33d
000003b0: cb04 7b3e 4980 39bd c64f 04bd 068b d23c
000003c0: af2a 8f3d 68ec b4bd 09c5 4c3d 0e4b 773d
000003d0: fc2d 26bc b5d5 5d3d fe33 80bd e34f a9bd
000003e0: b50f 20bd ea3f 76bd 5e9b b2bd e5ef 39bd
000003f0: 6b19 143d d84b de3d b55d 60bd 55f2 1f3e
-0.027492514 0.09566756 -0.018152282 -0.043888245 -0.049083926 -0.25299153 0.14829497 0.050189387
0.008431635 0.081604995 0.18028986 -0.1710454 -0.106604025 -0.05060009 0.28413925 0.19308078
0.18349832 -0.08133101 -0.0024820715 -0.08850014 -0.0933859 -0.04833901 -0.08171961 -0.0612722
-0.0601541 0.31229442 -0.06940287 0.10234452 -0.06518591 0.05409117 -0.4619019 0.072267264
-0.06969073 -0.04757394 0.21985526 0.1917486 0.07454895 -0.076062724 -0.09179789 -0.0048307674
0.09403631 -0.3585765 -0.112507306 -0.027156457 0.04690835 -0.091765024 -0.045611467 0.013694907
-0.005703463 -0.0192983 -0.1322594 -0.034127776 0.017138625 -0.10590195 0.024819866 0.29760924
0.08781502 -0.006527237 -0.014456251 -0.041752633 0.05510415 0.054625724 0.03647353 -0.019858671
-0.009243436 -0.10469618 -0.0016779383 0.05032429 -0.065942615 -0.061855882 -0.08741088 -0.020761697
0.0033399381 -0.030211756 0.014014407 0.3118462 -0.050875463 0.10488262 0.004410353 -0.23840222
-0.25001854 0.027533134 -0.107985616 -0.13928308 0.14643931 0.034489527 -0.021322493 -0.07036314
0.057744447 -0.09474253 0.17996764 -0.031256508 0.1741228 0.108109884 0.12168986 0.013203318
-0.05556243 -0.063302845 -0.07953285 -0.09232733 -0.312195 0.28704792 0.011877035 0.08249366
0.14334951 -0.2764727 0.3661156 0.15050642 0.14462142 0.18651949 -0.27115357 0.55825955
0.2163486 0.1105491 0.41779816 -0.32524848 -0.30093867 -0.254198 -0.23055284 -0.38057578
-0.3466967 -0.40885052 -0.37427452 -0.40126213 -0.4235067 -0.039103553 -0.0014895486 0.031240456
-0.05626256 0.18592171 0.106254704 0.26429734 -0.030477677 -0.101996504 -0.054508578 -0.14164574
-0.4789164 -0.0036049827 0.09153175 0.14983931 -0.19625746 -0.10637241 -0.103409015 -0.120011725
-0.07854494 -0.021794068 0.099723004 0.06353691 0.05222996 0.11292665 -0.09947989 0.026495328
-0.19505481 -0.0084633995 0.24230981 0.3198598 0.19196041 -0.13775776 -0.15808187 0.17342722
-0.25396714 0.122593075 -0.04996268 -0.06719427 -0.15014997 -0.037269656 -0.005017646 0.021136675
0.20970665 0.07123601 0.19599704 -0.025524506 -0.026322884 -0.078636244 -0.057519957 0.35602707
-0.21072833 0.039778605 -0.0005834556 -0.033477526 -0.28051135 0.17809694 0.05357612 -0.0019472368
0.09568067 0.014297376 -0.081462905 -0.01902883 0.00599091 0.24451067 -0.019141426 0.027126484
0.17161681 0.09022477 -0.2767971 0.012148693 -0.0027939277 -0.03104099 -0.036451466 -0.00036055964
-0.055025708 -0.014748023 -0.025039319 0.19212201 -0.0056566717 -0.03385185 0.11484759 -0.050283104
-0.06511662 0.22216772 0.18969576 0.020942995 -0.05650821 0.007153585 0.27118105 -0.0010849596
0.013992263 0.17561257 -0.22337736 -0.2740141 0.0046899877 -0.06604014 -0.03341944 -0.07048588
-0.037385993 0.07985621 0.20812404 -0.065027125 -0.15481533 0.019809384 -0.19882771 0.07835812
-0.002303281 -0.19025157 0.05077595 0.079927266 0.24513547 -0.045288358 -0.03230264 0.025701057
0.06990563 -0.088341534 0.049992595 0.060374312 -0.0101427995 0.054158885 -0.06259917 -0.0826719
-0.03907748 -0.060119547 -0.0872104 -0.045394797 0.036157053 0.1085431 -0.054776866 0.15619786

linear.bias f4 [32]
00000000: 313e 103f 414f 8bbe a6ff babe 80ea d13b
00000010: 320f 61bd fbcc 8c3d 60ae 60be 7a7f a13d
00000020: a1c5 acbb 856b dbbc 339f 16bc 7f85 92be
00000030: 30fa 71bd 6eb2 2b3e 6fa3 87be f5a3 543d
00000040: 363b 82bd ac7d 363e 16cf 593d 1dbd 26bf
00000050: d173 643d 3118 e43c 6abc de3b bb0e eebd
00000060: 9274 96bd c600 1e3d 08fd 5c3a 5dc8 653e
00000070: cc56 283b ca52 413d 62b9 71be 8524 31bc
0.56344897 -0.27208903 -0.3652317 0.0064061284 -0.054946132 0.068750344 -0.21941519 0.07885642
-0.0052725826 -0.026784668 -0.0091932295 -0.28617474 -0.059076488 0.16767284 -0.26491877 0.051914174
-0.0635895 0.17821378 0.05317601 -0.65132314 0.055774514 0.027843567 0.006797363 -0.11623903
-0.07346453 0.038574956 0.00084300386 0.22439714 0.00256865 0.047198094 -0.23605874 -0.01081193

critic_linear.weight f4 [1, 32]
00000000: cbcd 6b3d fefc c2bb 6da2 78bb de79 8c39
00000010: f707 e63a 9851 4b3b 3a32 24bb 3425 70ba
00000020: 2778 46ba 9673 4dbb ce88 6bbb b994 a7ba
00000030: 499b 143b 5684 043b 14f4 663a d207 3d3b
00000040: 53ef 36ba 0a86 3c3b 4481 1abb 5711 27be
00000050: 0ccc 57ba 3c2b 513b aa68 cc3a 78d4 86bb
00000060: 0d5c d9ba 7a67 be3b 9aa3 8b3b 0b06 b5bb
00000070: 348b a03b f079 9fbb 52a5 ea39 f4d3 053a
0.057569306 -0.005950569 -0.003793861 0.0002679368 0.0017549981 0.0031023975 -0.0025054351 -0.0009160817
-0.00075710047 -0.0031349412 -0.0035939696 -0.0012785412 0.0022675565 0.002022048 0.0008810174 0.0028843773
-0.0006978411 0.0028766417 -0.0023575583 -0.16315208 -0.00082320045 0.003191664 0.0015595157 -0.0041146837
-0.0016583219 0.005810675 0.004261446 -0.005524402 0.004899407 -0.004866831 0.0004475513 0.0005105131

actor_linear.weight f4 [6, 32]
00000000: c598 c13e db39 4abe ab82 debe b5b7 d13a
00000010: bf57 8dbb 719e db3d 0156 babd 3824 1d3d
00000020: 6c1a 5bbc 5ad2 b2bc 1653 303a 77e6 cfbd
00000030: 72a3 5d3d 8493 223e 9baf a4be a85f 133e
00000040: 25fc 35be c843 ea3d b4bc 5f3d 9c63 fbbe
00000050: f922 483d 915d 31bc d501 443c 87a1 083e
00000060: ed67 073c 1028 6c3d 80e5 473e 383c 783e
00000070: 30c5 8c3d e89f 89bc e02c 1fbe c027 10bc
00000080: 3fda d23e 9a3a 81be d186 ccbe c4c3 903c
00000090: 7f5b 343c b6ff b13d ffc3 c8bd ab56 263d
000000a0: 9adb 253d 0b59 9a3b 8ce5 58bb a2ff a0bd
000000b0: 680e 893b c417 3c3e 6681 d5be 740a 083e
000000c0: c957 1fbe 6455 f13d d26e 243d f93e fcbe
000000d0: f8b2 053d 049c b7bc 4697 1a3d 023e 623d
000000e0: f65d f0ba 526f bc3d 7477 1d3e e3ac 903e
000000f0: 3377 2d3d 0ef4 a23a 5f31 23be 3121 cbbc
00000100: 1e65 c23e 9b31 83be 6aca f1be ed90 d63b
00000110: fb1b 463c 1fbc 9c3d a20d 92bd f7e7 3b3d
00000120: 1497 063d b2a7 ebbc 249d 313b 69de ffbd
00000130: 49f7 013d 414b 5b3e cf2a 97be 51cb 083e
00000140: d19c 40be e71c f13d 5603 7b3d f022 f5be
00000150: 4380 353d 916c 84bc e527 903c a74f 9a3d
00000160: 26d0 c03c 8072 bf3d cec0 1c3e 2015 1c3e
00000170: 969f 083d 5fa1 00bd 52e8 27be cacf 73bc
00000180: 72b8 fc3e 6ae2 79be 80ca e7be a348 853c
00000190: c434 7a3c c5ec b13d f783 a0bd b8c6 163d
000001a0: dbd9 e23b 755a 26bd bd0a b43b 9c9d d4bd
000001b0: d452 503d 6f01 2e3e f8a1 8cbe 32b9 fe3d
000001c0: 0194 36be 576a f13d e2b2 e13c b90c d6be
000001d0: e12a c43c 76b0 3bbd ad19 983c 829c 203e
000001e0: e70f 5e3c 7b9d 953d 8c4e 193e 3c19 a63e
000001f0: 153c 4a3d 5b7f 22bd b8cf 16be 0025 76bc
00000200: 15df ec3e 3087 74be b86c e0be 3b6c 413c
00000210: 38cf 16bc 5635 a23d e283 cebd 22d9 a63d
00000220: b414 a23c 2556 5bbc 6f1c 543c 3a18 06be
00000230: e49b 493c c8a0 4e3e 9250 b2be f219 113e
00000240: 8170 27be 87ed e43d cb86 5a3d 1abd ebbe
00000250: cb4e 833c b1f3 5fbc 8448 203c adf6 4c3c
00000260: 39bd 1dbc 6eb6 853d 1ff7 213e 24b1 023e
00000270: dcdc 0c3d 7903 1bbd 632a 1bbe 6a07 a1bb
00000280: 624d f43e c5cb 69be 2b91 c5be 3b38 e13c
00000290: 674d b2bb 1da0 ae3d fcdc d3bd 0325 463d
000002a0: 55ce 2aba 279e 20bd 53b8 80bc a2fe 09be
000002b0: 9ff0 9b3c e4c1 353e 6a4b 87be 34fc f13d
000002c0: 6083 3bbe a65b f43d 1640 193d 8437 debe
000002d0: 3018 7f3d 5bc9 a9bc e99e 36bc 2e94 d03d
000002e0: de23 80bc 6e04 9d3d 0995 203e fd99 c53e
000002f0: d409 6d3c 352b 2ebc d269 20be 218d be3b
0.37811866 -0.19748633 -0.43459067 0.0016000184 -0.0043134387 0.1072358 -0.09098435 0.03836462
-0.013372999 -0.021828819 0.0006726248 -0.101513796 0.05411095 0.15876585 -0.32165226 0.14391959
-0.17771967 0.114387095 0.05462332 -0.49099433 0.048861478 -0.010825531 0.011963327 0.13342868
0.008264524 0.057655394 0.19521141 0.24241722 0.06873548 -0.016799882 -0.15544462 -0.00879854
0.41182134 -0.25240022 -0.39946607 0.017671473 0.0110081425 0.08691351 -0.09803008 0.040609997
0.04049263 0.004710322 -0.0033095805 -0.07861258 0.0041826256 0.18368441 -0.41700286 0.13285238
-0.15560831 0.11783865 0.04014475 -0.49266794 0.03264138 -0.022413261 0.03774192 0.055234917
-0.0018338549 0.0920092 0.15377599 0.28256902 0.042350005 0.0012432353 -0.15936802 -0.0247961
0.3796777 -0.25623783 -0.47224742 0.006548038 0.012091632 0.07653069 -0.071315065 0.045875516
0.032858923 -0.028766487 0.002710172 -0.12493593 0.03172997 0.21415426 -0.29524848 0.13358809
-0.1880982 0.11773091 0.06128248 -0.47878218 0.044311773 -0.01616505 0.017597148 0.07534724
0.023536753 0.09348011 0.15307924 0.15242434 0.033355318 -0.031403895 -0.16397217 -0.014881084
0.4935947 -0.24402776 -0.45271683 0.016269987 0.015271369 0.08687738 -0.0783767 0.036810607
0.006922943 -0.04061361 0.005494444 -0.10381624 0.05086024 0.16992734 -0.27467322 0.12437667
-0.17829897 0.11787861 0.027551118 -0.41806582 0.023946228 -0.045822583 0.01856693 0.15684703
0.013553596 0.07305428 0.1497137 0.32441127 0.049373705 -0.039672237 -0.14727676 -0.01502347
0.46263948 -0.23879695 -0.43832946 0.011805589 -0.009204678 0.07920329 -0.100837484 0.081468835
0.019785263 -0.013387238 0.012946232 -0.13095179 0.012305234 0.2017852 -0.34827095 0.14170054
-0.1635151 0.11178117 0.053351205 -0.4604271 0.016028782 -0.01366894 0.009782914 0.012509984
-0.009627634 0.06528936 0.15816925 0.12762886 0.034390315 -0.03784511 -0.15152888 -0.004914214
0.47715288 -0.22831638 -0.38587317 0.027492633 -0.005441356 0.08526633 -0.10344884 0.04837514
-0.0006515731 -0.039213326 -0.015712893 -0.13476041 0.019035636 0.17749745 -0.26424724 0.11815682
-0.18311834 0.11931543 0.037414633 -0.4340173 0.062278926 -0.020725897 -0.011146286 0.10184513
-0.015642103 0.076668605 0.15681852 0.38594046 0.014467675 -0.010630419 -0.15665367 0.0058151637

actor_linear.bias f4 [6]
00000000: c8ae e13d f3aa cc3e 1ad9 853e 63b9 663e
00000010: 1063 b53e 7f45 b03e
0.11019665 0.39974174 0.26142198 0.22531657 0.3542714 0.3442802
