spaceinvaders-v0-bottom-7fskip_latent32/model.134.tar (torch, 223035 bytes, 13 tensors)

conv1.weight f4 [32, 4, 3, 3]
0.018993711 0.008644704 0.018621795 -0.15736194 -0.57641405 0.085277125 0.20047873 0.20669475
0.041454457 0.010140572 0.17738381 0.033880018 0.02215663 -0.016840724 -0.10196678 0.15158595
0.09409992 0.022833748 0.0628205 0.23503688 -0.074439935 -0.041166987 -0.13581315 -0.23135436
0.20348532 -0.03807377 0.19334069 0.04270326 -0.51056355 0.0034737906 0.14168823 0.6696247
0.28519824 -0.49142292 -0.17554799 -0.32813936 -0.040406827 -0.011014577 0.18587974 -0.101946875
0.14094521 0.17015089 0.16490093 -0.11700396 -0.17700668 0.08254526 -0.050672375 -0.035414275
0.022308402 0.012573774 -0.05549052 0.005132167 0.007728502 -0.004634961 -0.10781816 0.2830977
-0.11495477 -0.13779731 0.119337976 0.054778285 0.10903807 -0.030880775 0.061239433 0.43827674
-0.36558306 -0.085977845 0.03836316 -0.28843412 -0.023178896 -0.32741904 0.454976 -0.09569188
0.14062315 -0.15863477 0.20265815 0.0014278628 0.14053205 0.20381196 -0.31953537 0.053943623
-0.13882512 -0.22393145 0.024975056 -0.033794157 0.04643538 -0.1417088 -0.18956412 0.061082482
-0.050201386 0.23400709 0.0888919 -0.09871524 0.29463395 0.15089339 -0.08376298 0.07099959
0.14870544 -0.01769929 -0.11379118 -0.08525364 0.21179797 -0.12966093 0.08456067 -0.19699329
-0.27658975 -0.10098531 0.2542977 0.0154877715 0.29575014 0.15466784 0.04172518 0.16757268
0.22102353 0.011255035 0.13755427 0.48568425 0.08999224 0.124030836 -0.22347721 -0.12175445
-0.12351844 -0.076097585 0.10247653 0.008024923 0.12843601 -0.17416885 -0.017878693 -0.1445485
0.0874583 0.09961072 -0.26440352 0.024826476 0.22497253 0.18348756 0.18255575 0.19933733
0.05431981 0.14445244 -0.3054923 -0.89174205 -0.29868233 -0.05307192 -0.22208028 0.009907275
-0.14145324 -0.108345 0.25406176 0.18232146 0.11262294 0.09825768 -0.04238914 0.46638635
-0.1057501 -0.04752578 -0.19864504 -0.17425084 -0.13684994 -0.10421174 -0.033412185 -0.11704663
0.046331167 0.039820917 -0.016874501 0.10924906 0.0015181071 -0.09385636 -0.29711238 -0.16150732
-0.14320897 -0.18929623 -0.18563509 0.2988275 0.013990824 -0.17884363 0.14679316 0.43543357
0.31569034 -0.015989592 -0.111585334 0.3938752 -0.19737357 -0.25051272 -0.1992611 -0.30187342
-0.5421117 -0.1451576 -0.37290683 -0.46554145 -0.22845 -0.05879807 -0.013027297 -0.07736287
-0.22073779 -0.14947847 -0.06866244 -0.20958455 -0.01020981 -0.0023104444 0.25358146 -0.010152967
0.10323852 -0.15683095 0.19218999 -0.16290432 0.088542014 0.10244256 -0.13762306 0.37720382
0.529686 0.45232728 0.05291845 0.27690342 -0.113504805 0.38587812 0.49054736 0.3233758
0.32663035 -0.12154965 -0.022365449 0.33140582 0.07060967 0.38584584 -0.36632833 -0.49836794
-0.05744854 -0.04209113 0.0053902892 0.2809993 0.19253272 0.1078528 0.09634519 -0.15828493
0.014860494 -0.14163826 0.006545801 -0.111416765 0.07097355 0.15045902 0.04410168 -0.032812245
-0.10151787 0.03984544 0.07345874 -0.08727765 -0.35638362 -0.046077613 -0.2795495 -0.44358453
-0.13129543 0.32423395 0.48048112 0.084180765 0.03581242 -0.09472817 -0.07974742 -0.42204815
00000000: b398 9b3c 84a2 0d3c bc8c 983c 7d23 21be
00000010: df8f 13bf c6a5 ae3d 4c4a 4d3e caa7 533e
00000020: 26cc 293d a424 263c 1aa4 353e c6c5 0a3d
00000030: d281 b53c 8ff5 89bc f6d3 d0bd 5939 1b3e
00000040: 75b7 c03d d70d bb3c 09a8 803d 82ad 703e
00000050: f773 98bd b79e 28bd 9a12 0bbe 28e8 6cbe
00000060: 755e 503e 3ef3 1bbd 1afb 453e 9de9 2e3d
00000070: 4bb4 02bf 89a8 633b b816 113e 866c 2b3f
00000080: 8105 923e c99b fbbe dac2 33be e201 a8be
00000090: a181 25bd 7c76 34bc 4257 3e3e 86c9 d0bd
000000a0: f153 103e 093c 2e3e cadb 283e c69f efbd
000000b0: 3d41 35be 7d0d a93d d68d 4fbd 8f0e 11bd
000000c0: 1cc0 b63c 3b02 4e3c 074a 63bd bd2b a83b
000000d0: 603f fd3b dfe0 97bb c4cf dcbd 2ff2 903e
000000e0: 686d ebbd bd1a 0dbe 7867 f43d 325f 603d
000000f0: 5a4f df3d aef9 fcbc 33d6 7a3d cf65 e03e
00000100: b42d bbbe 2715 b0bd b022 1d3d a3ad 93be
00000110: abe1 bdbc 78a3 a7be 9df2 e83e 1bfa c3bd
00000120: 84ff 0f3e 2771 22be 9e85 4f3e 2027 bb3a
00000130: a2e7 0f3e 15b4 503e 249a a3be fdf3 5c3d
00000140: 2c28 0ebe 494e 65be 7d98 cc3c be6b 0abd
00000150: 0633 3e3d 1d1c 11be 191d 42be a031 7a3d
00000160: f89f 4dbd 8e9f 6f3e f50c b63d 372b cabd
00000170: 43da 963e cc83 1a3e ed8b abbd 3c68 913d
00000180: 3d46 183e 1afe 90bc 5a0b e9bd 7699 aebd
00000190: 91e1 583e d6c5 04be 252e ad3d 9cb8 49be
000001a0: 2c9d 8dbe 63d1 cebd 4f33 823e 6cc0 7d3c
000001b0: 906c 973e 3f61 1e3e 06e8 2a3d 2c98 2b3e
000001c0: fe53 623e 0a67 383c 07db 0c3e 9bab f83e
000001d0: da4d b83d e103 fe3d 36d7 64be 665a f9bd
000001e0: 3cf7 fcbd 0dd9 9bbd 37df d13d f77a 033c
000001f0: bb84 033e 5259 32be 5676 92bc 8604 14be
00000200: 561d b33d b500 cc3d e65f 87be e560 cb3c
00000210: 335f 663e 2ae4 3b3e e5ef 3a3e 161f 4c3e
00000220: 737e 5e3d 57eb 133e 7d69 9cbe 3549 64bf
00000230: e4ec 98be f161 59bd 0369 63be 2052 223c
00000240: 1ed9 10be fce3 ddbd 6214 823e 7ab2 3a3e
00000250: dba6 e63d 533b c93d 3ca0 2dbd 31ca ee3e
00000260: 8293 d8bd 64aa 42bd 9b69 4bbe d06e 32be
00000270: 6422 0cbe f76c d5bd 37db 08bd 25b6 efbd
00000280: c0c5 3d3d 421b 233d 653c 8abc f9bd df3d
00000290: 39fb c63a c337 c0bd 1d1f 98be 2d62 25be
000002a0: 5fa5 12be dfd6 41be 2017 3ebe ebff 983e
000002b0: c539 653c c922 37be f250 163e 26f1 de3e
000002c0: 2aa2 a13e 9bfc 82bc da86 e4bd 03aa c93e
000002d0: 4c1c 4abe 3443 80be 1a0b 4cbe 278f 9abe
000002e0: d5c7 0abf 32a4 14be a5ed bebe 735b eebe
000002f0: ccee 69be 3fd6 70bd 7270 55bc 6d70 9ebd
00000300: 1609 62be e210 19be e59e 8cbd 559d 56be
00000310: 0c47 27bc d36a 17bb 6ed5 813e a158 26bc
00000320: b86e d33d 4b98 20be 74cd 443e 64d0 26be
00000330: 8455 b53d 68cd d13d 0fed 0cbe dc20 c13e
00000340: 8099 073f 7197 e73e 04c1 583d 49c6 8d3e
00000350: 3575 e8bd d191 c53e 0629 fb3e 8391 a53e
00000360: 183c a73e 06ef f8bd bf37 b7bc 06ae a93e
00000370: cd9b 903d 968d c53e 638f bbbe 152a ffbe
00000380: 294f 6bbd c067 2cbd 06a1 b03b 24df 8f3e
00000390: 4c27 453e eee1 dc3d a150 c53d 7215 22be
000003a0: 6e79 733c 9f09 11be 297e d63b 792e e4bd
000003b0: 955a 913d ee11 1a3e f7a3 343d 2266 06bd
000003c0: 9ae8 cfbd f934 233d 8971 963d a0be b2bd
000003d0: ea77 b6be e1bb 3cbd 1d21 8fbe 831d e3be
000003e0: 4f72 06be fe01 a63e 9f01 f63e f766 ac3d
000003f0: 0bb0 123d d800 c2bd 9e52 a3bd b216 d8be

conv1.bias f4 [32]
0.0005110973 -0.0012216945 0.0031427029 -0.009147909 -0.0003957505 0.007778995 -0.0050893105 -0.0028956647
0.00013381604 0.0027667328 0.0036850043 -0.0026325681 0.0047540567 0.005047273 -0.0009217847 0.065843545
0.0042075566 -0.0006644773 0.042758297 0.00013660516 -0.004467302 0.0015465661 0.0037462057 -0.00024977064
0.0010475108 0.001061798 0.0011229727 0.00032491598 -0.0018468725 -0.005607869 -0.001164633 0.0021833424
00000000: 29fb 053a 4421 a0ba cef5 4d3b 1ce1 15bc
00000010: bc7c cfb9 f1e6 fe3b 3bc4 a6bb 31c5 3dbb
00000020: f850 0c39 1352 353b 1d80 713b 2a87 2cbb
00000030: ebc7 9b3b 9863 a53b eda3 71ba fbd8 863d
00000040: 8bdf 893b 5130 2eba 5323 2f3d ab3d 0f39
00000050: 7262 92bb 26b6 ca3a e782 753b a6f3 82b9
00000060: a14c 893a 072c 8b3a b630 933a 7c59 aa39
00000070: c212 f2ba 37c2 b7bb 99a6 98ba 6816 0f3b

conv2.weight f4 [32, 32, 3, 3]
-0.37355927 -0.15774208 0.242171 0.123037145 0.23005621 -0.16074003 -0.19811253 0.014027599
0.05173914 -0.0046063997 -0.26226598 0.060499407 0.2273461 0.005534963 0.10434679 0.10109017
-0.16722266 0.19208577 0.015824923 0.008896619 -0.31776157 -0.1681137 0.05708068 0.09240866
0.0269505 0.1058834 0.0036161875 -0.22811535 -0.20111734 -0.1335847 -0.21815923 -0.4420335
0.27907646 -0.068979055 0.13771433 0.32424262 0.17500502 0.08672036 0.038600948 0.15540098
0.14795285 -0.23847315 -0.06209106 -0.120112464 0.11933326 0.12561852 -0.13458961 -0.39963284
0.12418257 0.039047144 -0.0432049 0.13182051 0.2846049 0.14353687 0.3768856 0.077565014
-0.321092 -0.060854673 0.10320564 0.024225023 -0.060119655 -0.001615606 -0.32728314 -0.18569617
-0.061307337 -0.005580257 0.33929956 -0.00047671938 -0.094307415 -0.035919145 0.097821474 0.0892313
-0.11666275 0.055946972 0.3017776 -0.050578937 0.06568151 -0.026688611 -0.08743351 -0.16489094
-0.083048455 0.199474 -0.17038237 0.06829044 0.0009426494 0.086909555 -0.22304998 0.059215207
0.28497046 -0.042181287 0.09959483 -0.033948947 -0.15520807 0.12349125 0.42308515 -0.44003582
0.050847325 -0.036806062 -0.122382306 0.22146012 0.028216474 -0.045469325 0.28254986 0.04227597
-0.10019898 -0.07546998 -0.12069587 -0.046843003 -0.13058576 -0.04235594 0.090346724 0.43271554
0.23379141 -0.21626322 -0.101892754 -0.2389411 -0.20415433 -0.15709263 0.090909205 0.66900325
0.2510427 0.043663487 0.121789515 0.027326638 -0.38301432 0.00045105896 0.14108032 0.10980754
0.053851835 0.25895795 -0.13922271 0.056933917 0.023034487 -0.19649582 0.015516296 -0.14207138
-0.081558265 -0.082557395 -0.007042175 0.17350288 0.40827703 -0.10466955 -0.098214336 -0.034759454
-0.22516638 -0.10558997 -0.15305057 0.13956073 0.06840104 -0.15018468 0.082722776 -0.005102111
-0.032360338 -0.11108432 0.10936576 -0.084644936 -0.43350497 0.18564476 -0.23646799 0.2226217
-0.072611436 0.039247613 -0.08333594 -0.09945541 -0.026456587 0.03916689 0.13119699 0.28164634
-0.14405708 -0.14093319 -0.05995255 0.15362614 -0.01775089 -0.074235335 0.057592403 0.017338378
0.012731925 -0.2715383 -0.14128838 -0.15786918 -0.08240359 -0.011532838 0.099884555 0.0077650207
0.21428283 -0.17404631 -0.06760343 0.12553169 0.038217492 0.10450465 -0.25677526 0.04714063
-0.102961436 -0.009795539 -0.09046077 -0.023517983 -0.12246699 0.09032709 -0.15309349 0.15539524
-0.079721294 0.40998656 0.16454236 -0.026367122 -0.23054105 -0.0299551 -0.056269202 -0.070707254
-0.12069989 0.2882838 -0.3528575 -0.18885355 -0.052242883 0.19626628 0.17032747 0.019079125
0.08695055 0.0506768 0.18281251 0.016914321 -0.11984627 -0.008476276 0.08776528 -0.33373353
-0.13148892 0.3015096 0.07675974 0.07487248 0.129221 0.027427934 -0.18652572 -0.22547439
0.10374557 -0.0032604039 0.07677615 -0.0048730853 -0.13971822 0.078059554 0.096011996 -0.18686417
-0.14996037 0.26466766 -0.066488825 0.027110673 -0.15640481 -0.05060577 -0.13660839 -0.26020113
0.110776775 0.014292166 0.10885639 0.2038331 0.36891592 0.2698699 -0.28709552 -0.33566147
00000000: 2943 bfbe 2487 21be adfb 773e e6fa fb3d
00000010: db93 6b3e 0999 24be 03de 4abe 04d4 653c
00000020: 6cec 533d 48f1 96bb ba47 86be 3ace 773d
00000030: 6bcd 683e a35e b53b c5b3 d53d 5d08 cf3d
00000040: 6b3c 2bbe 22b2 443e 45a3 813c 20c3 113c
00000050: a5b1 a2be ff25 2cbe 6ecd 693d c040 bd3d
00000060: 4cc7 dc3c 65d9 d83d 8ffd 6c3b 1297 69be
00000070: b4f1 4dbe 6dca 08be 2265 5fbe 3752 e2be
00000080: 1ce3 8e3e e444 8dbd fc04 0d3e 2103 a63e
00000090: 8434 333e 729a b13d 071c 1e3d 6f21 1f3e
000000a0: f480 173e 4e32 74be 3253 7ebd 86fd f5bd
000000b0: ff64 f43d 24a2 003e dcd1 09be ad9c ccbe
000000c0: 6e53 fe3d e6ef 1f3d 9ff7 30bd f5fb 063e
000000d0: bcb7 913e 54fb 123e 26f7 c03e 68da 9e3d
000000e0: 2c66 a4be c042 79bd 7b5d d33d 8e73 c63c
000000f0: 0740 76bd bec2 d3ba a891 a7be 2327 3ebe
00000100: 671d 7bbd 97da b6bb acb8 ad3e 31f0 f9b9
00000110: 3f24 c1bd f41f 13bd a056 c83d e6be b63d
00000120: e1ec eebd a728 653d 9882 9a3e dc2b 4fbd
00000130: 0784 863d 13a2 dabc 5710 b3bd 2cd9 28be
00000140: 4f15 aabd ea42 4c3e b778 2ebe dcdb 8b3d
00000150: 211c 773a a3fd b13d 3767 64be a58b 723d
00000160: a6e7 913e 49c6 2cbd 60f8 cb3d 0d0e 0bbd
00000170: ddee 1ebe fbe8 fc3d 9e9e d83e 604c e1be
00000180: 4945 503d f4c1 16bd 93a3 fabd 71c6 623e
00000190: 3c26 e73c 0b3e 3abd 60aa 903e 9129 2d3d
000001a0: 1f35 cdbd 0190 9abd 652f f7bd 73de 3fbd
000001b0: 46b8 05be 6c7d 2dbd b407 b93d e48c dd3e
000001c0: 0467 6f3e 1b74 5dbe 26ad d0bd faac 74be
000001d0: d50d 51be e4dc 20be 9b2e ba3d cc43 2b3f
000001e0: ab88 803e 7cd8 323d c86c f93d 1ddc df3c
000001f0: 741a c4be 1c7c ec39 5c77 103e c7e2 e03d
00000200: be93 5c3d 2396 843e 6690 0ebe 8a33 693d
00000210: d2b2 bc3c 3336 49be 1038 7e3c 297b 11be
00000220: 0508 a7bd da13 a9bd 0cc2 e6bb bdaa 313e
00000230: b009 d13e fd5c d6bd 9924 c9bd ee5f 0ebd
00000240: 0492 66be 8e3f d8bd 4ab9 1cbe 02e9 0e3e
00000250: d815 8c3d 03ca 19be 8f6a a93d 9c2f a7bb
00000260: 468c 04bd 2d80 e3bd 28fb df3d 535a adbd
00000270: 5df4 ddbe a919 3e3e aa24 72be f1f6 633e
00000280: 4eb5 94bd 1bc2 203d 09ac aabd 47af cbbd
00000290: 7cbb d8bc 766d 203d 8158 063e f333 903e
000002a0: b383 13be ca50 10be ce90 75bd 2c50 1d3e
000002b0: 516a 91bc b208 98bd 03e6 6b3d 3709 8e3c
000002c0: 9099 503c 1107 8bbe e7ad 10be 75a8 21be
000002d0: 37c3 a8bd 3bf4 3cbc 4690 cc3d b771 fe3b
000002e0: f56c 5b3e 3239 32be ab73 8abd 618b 003e
000002f0: f289 1c3d 8906 d63d 0c78 83be 8916 413d
00000300: 72dd d2bd 787d 20bc 7f43 b9bd c9a8 c0bc
00000310: f9cf fabd 69fd b83d 8ac4 1cbe ee1f 1f3e
00000320: eb44 a3bd c2e9 d13e cb7d 283e ddff d7bc
00000330: f412 6cbe 6664 f5bc 897a 66bd f7ce 90bd
00000340: 8131 f7bd ef99 933e bda9 b4be d362 41be
00000350: a2fc 55bd 07fa 483e 536a 2e3e d34b 9c3c
00000360: 2113 b23d 7a92 4f3d 3433 3b3e e78f 8a3c
00000370: f671 f5bd 14e0 0abc 48be b33d 1fdf aabe
00000380: 08a5 06be 775f 9a3e 3634 9d3d be56 993d
00000390: 8352 043e 8cb0 e03c 9900 3fbe c2e2 66be
000003a0: 8f78 d43d 80ac 55bb d03c 9d3d 67ae 9fbb
000003b0: 4b12 0fbe b0dd 9f3d f0a1 c43d 5259 3fbe
000003c0: 368f 19be 8582 873e 4b2b 88bd 3417 de3c
000003d0: 9528 20be ff47 4fbd 12e3 0bbe 1539 85be
000003e0: efde e23d b029 6a3c 19f0 de3d a0b9 503e
000003f0: 8ce2 bc3e 632c 8a3e 2ffe 92be d2db abbe

conv2.bias f4 [32]
-0.009008654 0.0048386757 -0.002466581 -0.0051749405 -0.0537811 -0.0100118965 -0.0019052633 0.006169746
0.007953652 -0.003809683 -0.030561754 -0.020459108 0.027809773 -0.0087163625 -0.038558155 -0.0066243187
-0.0030961272 -0.0049548247 0.017474582 -0.006119168 -0.009526697 0.0012755073 -0.010230592 0.0047297305
-0.0062534846 -0.0092735 -0.021083122 -0.01844381 0.004020833 -0.005258056 -0.007103799 -0.00033278466
00000000: 0999 13bc c18d 9e3b 5da6 21bb 8c92 a9bb
00000010: 9249 5cbd f008 24bc 07ba f9ba 952b ca3b
00000020: 0950 023c e0ab 79bb a55c fabc dc99 a7bc
00000030: 52d1 e33c 13cf 0ebc 28ef 1dbd d010 d9bb
00000040: 65e8 4abb 155c a2bb db26 8f3c 4d83 c8bb
00000050: dd15 1cbc ec2e a73a 379e 27bc dbfb 9a3b
00000060: 08ea ccbb e1ef 17bc 83b6 acbc 7917 97bc
00000070: 31c1 833b c54b acbb fcc6 e8bb 9a79 aeb9

conv3.weight f4 [32, 32, 3, 3]
-0.12509383 -0.018150114 -0.21391237 0.0003886851 0.122569695 0.09280544 0.08946953 -0.17828913
-0.0500998 0.07351071 -0.002192726 0.18639614 -0.18460034 -0.18201919 0.12033144 0.083408624
-0.04370437 -0.2610158 -0.07074475 -0.01798913 0.16586676 0.16974245 0.14932759 -0.048028015
-0.012171944 -0.08290001 0.053816482 -0.014736761 -0.22615488 -0.4431195 0.07289135 -0.2172787
-0.22934835 0.4233407 0.03132298 -0.3839048 0.22083835 0.019026862 -0.30702502 -0.010638737
-0.14446871 -0.15763202 0.18090709 -0.11356742 0.0058020265 -0.07893957 0.01936805 -0.052786402
0.12785088 0.106135204 -0.16542596 -0.29260123 0.018915508 0.10478019 0.09100424 0.036036834
-0.14274436 0.15754606 -0.06256042 0.032736175 -0.08790765 0.15928608 0.041518025 -0.08328251
-0.21877217 -0.08755104 0.18242367 -0.147398 -0.09690183 -0.054966778 -0.007384364 -0.01888149
0.041595344 -0.14540784 0.11834962 0.16881943 -0.01654895 0.21838613 -0.064224854 0.20272373
-0.14080551 0.1198767 -0.08309998 -0.12067606 -0.02632636 -0.10422698 -0.0933059 -0.097499385
-0.38280135 0.36998853 -0.23687467 -0.08430722 -0.1509308 0.12405897 0.22995251 -0.22120246
-0.1880668 -0.18293552 0.20507413 0.17484407 0.10089938 -0.13017204 0.27653503 0.2576462
0.015715394 -0.009961201 0.16280065 -0.12454647 -0.16239995 0.21807642 0.11935681 -0.14802103
0.091382414 0.008849055 0.04873614 0.16993622 -0.065901466 -0.13799086 0.05055952 0.22280125
-0.023392463 0.030830605 0.058393247 -0.10888011 0.031375382 0.558761 -0.0030732178 0.26648265
-0.027788054 -0.08098458 0.07191914 -0.1672211 -0.11948112 0.10080974 0.10850174 0.22034429
-0.07445184 -0.004759463 -0.22598626 0.05339872 0.27032685 0.09685948 0.007398477 -0.4577924
-0.013832517 -0.043752283 0.10522608 -0.24705206 0.21705608 -0.15544853 -0.018063543 0.13009423
-0.337969 -0.33929953 -0.21842681 0.21660714 -0.16736501 0.14263375 0.15347837 -0.029876601
-0.0636608 0.052906875 0.008048215 -0.02315241 -0.27809384 0.04327978 -0.039924715 -0.16318223
-0.009112906 0.118273936 -0.3175341 -0.010231904 0.13736875 0.07008432 -0.23778601 -0.118380256
-0.09361454 -0.1329257 -0.13884059 -0.06321041 0.13457347 -0.31305566 -0.23767228 -0.12071866
0.3874515 -0.07514255 -0.036256835 -0.051051646 -0.12897883 0.13152727 -0.034748923 -0.22980618
0.05657728 -0.08019566 -0.13762748 0.14470823 0.17977858 -0.034446105 0.11789768 -0.0068839462
-0.3131032 -0.18386786 -0.026650172 -0.016950274 -0.08516695 0.31076854 -0.052998707 0.15080817
0.13379481 -0.37047973 0.32953945 -0.3248688 -0.09504994 0.030140758 -0.11451262 -0.15306406
0.08341961 -0.018926471 0.14753777 -0.153912 -0.073591225 0.1082825 -0.29008898 0.0537216
0.24603353 -0.013788875 -0.10714695 0.23624723 -0.022775464 -0.08086024 0.11685725 -0.02152284
0.102283545 -0.07416504 -0.3175504 0.24465515 0.18417202 -0.11860896 -0.12560946 -0.014280963
0.12057131 -0.026236769 0.19172627 0.09527368 0.063528895 0.28146145 0.040650487 -0.10409165
-0.20187505 0.12787336 -0.41102457 0.025111098 -0.18729289 0.026750756 0.1589772 -0.2348313
00000000: 9918 00be 8caf 94bc d80b 5bbe 6ec8 cb39
00000010: d205 fb3d c710 be3d cd3b b73d 6d91 36be
00000020: 7335 4dbd c88c 963d d6b3 0fbb a1de 3e3e
00000030: df07 3dbe 3d63 3abe 5470 f63d 24d2 aa3d
00000040: 5a03 33bd dda3 85be a0e2 90bd f15d 93bc
00000050: fad8 293e f7d0 2d3e 55e9 183e 06b9 44bd
00000060: d56c 47bc 7bc7 a9bd ac6e 5c3d 7572 71bc
00000070: 2595 67be 8fe0 e2be 0f48 953d 4f7e 5ebe
00000080: 4bda 6abe 1dc0 d83e 864c 003d 2c8f c4be
00000090: 7323 623e 39de 9b3c 6232 9dbe 194e 2ebc
000000a0: 9bef 13be 4a6a 21be b53f 393e 0996 e8bd
000000b0: ed1e be3b 12ab a1bd bfa9 9e3c 8e36 58bd
000000c0: 57eb 023e 6a5d d93d 6c65 29be d4cf 95be
000000d0: b2f4 9a3c ff96 d63d 6e60 ba3d 5c9b 133d
000000e0: 942b 12be c153 213e ad1f 80bd 5e16 063d
000000f0: ed08 b4bd e41b 233e ce0e 2a3d 0590 aabd
00000100: d005 60be f64d b3bd 45cd 3a3e 80ef 16be
00000110: 7774 c6bd d824 61bd 89f8 f1bb 5bad 9abc
00000120: e15f 2a3d cbe5 14be 4961 f23d 00df 2c3e
00000130: aa91 87bc 9da0 5f3e 5288 83bd cf96 4f3e
00000140: 522f 10be ea81 f53d 5330 aabd 0325 f7bd
00000150: 61aa d7bc f474 d5bd 2a17 bfbd c2ad c7bd
00000160: 8afe c3be 236f bd3e 468f 72be 44a9 acbd
00000170: 9b8d 1abe a112 fe3d ac78 6b3e e682 62be
00000180: 9594 40be 7353 3bbe f4fe 513e 530a 333e
00000190: 56a4 ce3d d24b 05be 0096 8d3e 34ea 833e
000001a0: 92bd 803c 4e34 23bc 37b5 263e 3812 ffbd
000001b0: 2c4c 26be 6d4f 5f3e 5871 f43d d392 17be
000001c0: b426 bb3d a0fb 103c 8c9f 473d c303 2e3e
000001d0: 59f7 86bd 7a4d 0dbe 8017 4f3d 0326 643e
000001e0: 8da1 bfbc 7790 fc3c c22d 6f3d 89fc debd
000001f0: 7983 003d f60a 0f3f 0a68 49bb 6a70 883e
00000200: c6a3 e3bc 3edb a5bd 584a 933d 023c 2bbe
00000210: 84b2 f4bd 5675 ce3d 2936 de3d efa1 613e
00000220: 357a 98bd 45f5 9bbb f168 67be 9eb8 5a3d
00000230: 4868 8a3e 435e c63d ec6e f23b c463 eabe
00000240: c8a1 62bc 9835 33bd c580 d73d 37fb 7cbe
00000250: f343 5e3e e62d 1fbe fff9 93bc 6c37 053e
00000260: 460a adbe abb8 adbe 47ab 5fbe 43ce 5d3e
00000270: bc61 2bbe 950e 123e 6f29 1d3e c6bf f4bc
00000280: 9860 82bd e1b4 583d a9dc 033c 1faa bdbc
00000290: 5162 8ebe 2346 313d 1988 23bd 3e19 27be
000002a0: 4c4e 15bc 9b39 f23d d493 a2be b7a3 27bc
000002b0: 65aa 0c3e 5e88 8f3d 2d7e 73be 5971 f2bd
000002c0: fbb8 bfbd ad1d 08be 3a2c 0ebe 7674 81bd
000002d0: a1cd 093e d548 a0be 5d60 73be 583b f7bd
000002e0: 0b60 c63e 56e4 99bd 0c82 14bd 881b 51bd
000002f0: 0713 04be 16af 063e e354 0ebd 5052 6bbe
00000300: 94bd 673d 9f3d a4bd 38ee 0cbe 652e 143e
00000310: e017 383e 5c17 0dbd 5774 f13d ba92 e1bb
00000320: 104f a0be db47 3cbe 7651 dabc 4ddb 8abc
00000330: 036c aebd 0e1d 9f3e 2c15 59bd 756d 1a3e
00000340: 8201 093e 85af bdbe 65b9 a83e 3455 a6be
00000350: 8ba9 c2bd c0e9 f63c 9885 eabd d3bc 1cbe
00000360: e7d7 aa3d b00b 9bbc 2414 173e 1b9b 1dbe
00000370: ffb6 96bd 37c3 dd3d 8b86 94be 2e0b 5c3d
00000380: 37f0 7b3e bcea 61bc dc6f dbbd cbea 713e
00000390: 9c93 babc 0e9a a5bd db52 ef3d ab50 b0bc
000003a0: 097a d13d d7e3 97bd f795 a2be e186 7a3e
000003b0: 9797 3c3e 41e9 f2bd c49f 00be b3fa 69bc
000003c0: 17ee f63d 7eee d6bc e453 443e d91e c33d
000003d0: 701b 823d b71b 903e 2081 263d 012e d5bd
000003e0: 55b8 4ebe 3cf1 023e d071 d2be cab5 cd3c
000003f0: b5c9 3fbe 6724 db3c ebca 223e 9e77 70be

conv3.bias f4 [32]
-0.099020615 -0.13997565 0.018109577 -0.10095886 -0.06992471 -0.39549568 -0.10859013 -0.1490777
-0.123366736 -0.021362916 -0.12773257 -0.122433834 -0.026989471 -0.12607934 -0.13369921 -0.053047754
-0.05638038 -0.029876024 -0.31941432 -0.109829046 -0.17007077 -0.031378046 -0.15698667 -0.24766544
-0.062143307 -0.13851625 0.0014965093 -0.08416506 -0.06765915 -0.08929829 0.021663945 -0.13635145
00000000: 52cb cabd c755 0fbe 895a 943c 85c3 cebd
00000010: b034 8fbd 697e cabe 8164 debd d3a7 18be
00000020: b3a7 fcbd 4801 afbc 54cc 02be 97be fabd
00000030: 0619 ddbc f11a 01be 72e8 08be 9a48 59bd
00000040: 1def 66bd 90be f4bc 468a a3be 0dee e0bd
00000050: 0827 2ebe 4486 00bd 1dc1 20be 029c 7dbe
00000060: fb89 7ebd 34d7 0dbe 8526 c43a bb5e acbd
00000070: e190 8abd 06e2 b6bd 9678 b13c b79f 0bbe

conv4.weight f4 [32, 32, 3, 3]
0.3189616 -0.078249805 0.09208288 -0.13413657 0.10067417 -0.03226386 -0.17927821 -0.15450907
-0.26088408 -0.12599589 -0.1985952 0.038295362 -0.070759065 0.08862192 -0.17338055 -0.024631098
0.058979876 -0.0113082165 -0.22617337 0.17831345 0.08324412 -0.16989838 -0.11190714 0.10815764
0.08934853 0.00012213294 0.01883182 0.19452551 0.07837214 -0.036573064 0.19634658 -0.2609233
-0.098285824 -0.05536772 -0.122704625 0.14312969 0.13395524 -0.22459105 -0.13218014 0.065689646
-0.20975055 0.116979375 0.16485019 -0.123777255 0.06747224 0.2715283 -0.11127432 0.07765751
-0.055753253 -0.0064275647 0.12924868 -0.06341352 -0.0033630524 -0.075719625 0.2263498 -0.2384709
-0.06509418 -0.024549898 0.019809764 0.007311435 -0.12860744 0.22009566 0.06604191 0.102309264
-0.03730807 0.12725233 0.13536276 0.047493994 0.11999394 -0.044970218 0.056884903 0.2303551
0.046587132 -0.04913581 -0.1107067 0.027069142 0.24760716 -0.021498522 -0.0660152 0.13130146
-0.08958133 0.16170272 -0.3736252 -0.039263837 -0.16657199 0.27826917 0.08539552 -0.14389949
0.14021432 0.12757628 0.1709464 0.06537459 0.13667153 -0.101616055 0.12587453 -0.19611955
0.067218915 -0.22803561 0.2874507 -0.095129855 0.21848984 0.08470439 0.3586508 -0.32938546
-0.27734697 0.10874014 -0.0013289851 -0.02599454 -0.19980606 0.024539132 0.28401384 -0.045260094
-0.040230278 0.07572423 -0.05560028 0.068148494 0.03550453 0.37346458 -0.40254408 0.12158922
0.11406097 -0.3086753 0.21125029 -0.034763683 -0.1296124 -0.12751676 0.14172962 -0.082589254
-0.10819337 0.051423922 -0.11314586 0.16902076 -0.11579255 0.23171821 -0.052380856 0.042716995
-0.046220712 0.1961063 -0.25176415 0.34260118 -0.14137429 -0.23491354 0.14946568 -0.104461424
-0.110045224 -0.10405378 -0.13716453 -0.08024912 0.34227097 0.14629108 0.21680064 -0.372471
-0.032387245 -0.19721484 0.030001823 -0.03395561 -0.08715855 -0.16103949 0.12284707 -0.06381653
-0.2147327 0.084289335 0.2069224 -0.030325305 -0.05637359 0.036235176 -0.057318624 -0.22584707
-0.0747246 -0.13442504 0.18730032 -0.12573853 0.026660742 -0.016085418 -0.080841444 0.2082183
-0.087072566 0.2371704 -0.22570026 -0.06278958 -0.028429346 0.11480039 0.24134803 0.15234192
-0.06297217 -0.351158 -0.13930975 -0.049138803 0.0190476 -0.086363055 -0.23554279 -0.07985355
0.08902833 -0.051840637 0.14696869 0.24485232 0.17304483 -0.23708828 0.07139167 0.2632181
-0.23069392 -0.20135768 0.5953004 -0.08005201 0.03354857 -0.3909518 0.057244137 -0.05954035
-0.11325124 -0.13536815 0.11522208 -0.12083039 -0.12149433 -0.12488743 -0.08221427 0.19475093
0.07208718 0.12013652 0.01523719 -0.319533 -0.046761885 0.17164086 0.011812608 0.20789756
0.10424001 0.07071738 -0.3015027 0.048852477 -0.12848687 0.072037086 0.12265851 -0.10400106
0.4187866 -0.1991237 -0.052417453 -0.0705582 0.0966238 0.254604 0.28034943 0.02063255
-0.18415427 -0.09084256 0.26080686 0.14353903 -0.30873165 0.17188632 -0.027827885 -0.087847084
0.17721948 -0.13300332 0.15703824 -0.3011896 0.04472513 0.011473868 0.13517651 -0.3105427
00000000: ef4e a33e 6f41 a0bd f395 bc3d 195b 09be
00000010: 422e ce3d 1c27 04bd b594 37be a037 1ebe
00000020: 9992 85be 1105 01be 8a5c 4bbe 99db 1c3d
00000030: 21ea 90bd 697f b53d ac8a 31be 28c7 c9bc
00000040: e294 713d 1946 39bc fe99 67be cd97 363e
00000050: e57b aa3d d7f9 2dbe 922f e5bd c181 dd3d
00000060: 5dfc b63d d010 0039 3045 9a3c b231 473e
00000070: 9381 a03d a3cd 15bd 140f 493e bd97 85be
00000080: 144a c9bd 43c9 62bd 904c fbbd 9790 123e
00000090: 902b 093e 32fb 65be 3b5a 07be 4b88 863d
000000a0: d9c8 56be e292 ef3d 7dce 283e ee7e fdbd
000000b0: e32e 8a3d c205 8b3e cae3 e3bd e70a 9f3d
000000c0: 865d 64bd 529e d2bb c459 043e f3de 81bd
000000d0: a866 5cbb e412 9bbd 3ec8 673e b731 74be
000000e0: 1950 85bd de1c c9bc 1648 a23c c394 ef3b
000000f0: abb1 03be c260 613e fb40 873d 8587 d13d
00000100: 59d0 18bd 6f4e 023e 899c 0a3e 1089 423d
00000110: 62bf f53d b132 38bd 2500 693d 35e2 6b3e
00000120: 26d2 3e3d a242 49bd 32ba e2bd 1bc0 dd3c
00000130: bb8c 7d3e ab1d b0bc fa32 87bd e473 063e
00000140: 6b76 b7bd 6695 253e cd4b bfbe 1ed3 20bd
00000150: d991 2abe 4c79 8e3e d9e3 ae3d 635a 13be
00000160: 5894 0f3e 5ba3 023e 930c 2f3e 1de3 853d
00000170: 9ff3 0b3e 141c d0bd 41e5 003e 90d3 48be
00000180: 12aa 893d 2b82 69be bd2c 933e 71d3 c2bd
00000190: cdbb 5f3e 7f79 ad3d 14a1 b73e 36a5 a8be
000001a0: 6c00 8ebe 27b3 de3d 5731 aeba 80f2 d4bc
000001b0: f699 4cbe 4a06 c93c 436a 913e a662 39bd
000001c0: 81c8 24bd 4e15 9b3d 1fbd 63bd 7091 8b3d
000001d0: 336d 113d c036 bf3e 421a cebe c503 f93d
000001e0: cc98 e93d b00a 9ebe ff51 583e 5d64 0ebd
000001f0: 1db9 04be c193 02be 9221 113e 8e24 a9bd
00000200: 7c94 ddbd e4a1 523d 04b9 e7bd c713 2d3e
00000210: a524 edbd 8a47 6d3e 4f8d 56bd 04f8 2e3d
00000220: ee51 3dbd 17d0 483e 3be7 80be 6c69 af3e
00000230: 6cc4 10be 2d8d 70be 880d 193e dfef d5bd
00000240: 645f e1bd 261a d5bd dc74 0cbe a759 a4bd
00000250: 243e af3e 54cd 153e fd00 5e3e 85b4 bebe
00000260: 7da8 04bd b0f2 49be 62c6 f53c 0a15 0bbd
00000270: 2f80 b2bd 89e7 24be 3f97 fb3d 3eb2 82bd
00000280: e4e2 5bbe e39f ac3d 77e3 533e c66c f8bc
00000290: fee7 66bd 566b 143d efc6 6abd 7444 67be
000002a0: 3609 99bd b8a6 09be a8cb 3f3e 9ac1 00be
000002b0: a167 da3c 91c5 83bc 3390 a5bd 2e37 553e
000002c0: 1a53 b2bd ccdc 723e f81d 67be d397 80bd
000002d0: a9e4 e8bc 781c eb3d f023 773e 85ff 1b3e
000002e0: 8ef7 80bd fbca b3be 37a7 0ebe c545 49bd
000002f0: b609 9c3c 1ddf b0bd 2132 71be 428a a3bd
00000300: 7c54 b63d d956 54bd f67e 163e 91ba 7a3e
00000310: aa32 313e 45c7 72be cc35 923d 86c4 863e
00000320: 073b 6cbe b530 4ebe 9b65 183f 4ff2 a3bd
00000330: 3a6a 093d d62a c8be d478 6a3d 95e0 73bd
00000340: 44f0 e7bd f39d 0abe 8ef9 eb3d ec75 f7bd
00000350: 05d2 f8bd fbc4 ffbd f55f a8bd ca6c 473e
00000360: 72a2 933d 230a f63d 68a5 793c d499 a3be
00000370: 6489 3fbd 9fc2 2f3e ab89 413c 19e3 543e
00000380: c97b d53d 46d4 903d 905e 9abe 8919 483d
00000390: 1092 03be 2e88 933d 6334 fb3d 82fe d4bd
000003a0: 326b d63e 15e7 4bbe afb3 56bd d180 90bd
000003b0: b3e2 c53d 755b 823e f689 8f3e 9805 a93c
000003c0: f092 3cbe aa0b babd 7a88 853e e5fb 123e
000003d0: 1312 9ebe f802 303e 4ef7 e3bc 2ce9 b3bd
000003e0: 0679 353e 0632 08be a2ce 203e 8635 9abe
000003f0: b331 373d e4fc 3b3c b66b 0a3e 74ff 9ebe

conv4.bias f4 [32]
-0.49248722 -0.34292483 -0.14585534 -0.24840656 -0.537909 -0.33190495 -0.27347815 -0.24785767
-0.17399274 -0.2794353 -0.18664673 -0.38279912 -0.30841598 -0.23721802 -0.34308216 -0.49234658
-0.3211012 -0.40317166 -0.35003352 -0.13840282 -0.1053008 -0.27556804 -0.36122298 -0.41104692
-0.13264555 -0.27827817 -0.32683033 -0.6087835 -0.1662401 -0.13211669 -0.304413 -0.46753424
00000000: 4927 fcbe d893 afbe 1a5b 15be 4a5e 7ebe
00000010: 67b4 09bf 72ef a9be 5405 8cbe 67ce 7dbe
00000020: 272b 32be 2512 8fbe 5220 3fbe 3ffe c3be
00000030: b3e8 9dbe 48e9 72be 77a8 afbe da14 fcbe
00000040: 6067 a4be 846c cebe 9837 b3be 78b9 0dbe
00000050: f2a7 d7bd 4117 8dbe 38f2 b8be be74 d2be
00000060: 3cd4 07be 7a7a 8ebe 4e56 a7be 3cd9 1bbf
00000070: d83a 2abe 9949 07be 05dc 9bbe a660 efbe

linear.weight f4 [32, 800]
-0.023611797 0.10819499 -0.038994566 -0.04212741 -0.028438237 -0.26768568 0.12422744 -0.0032769865
-0.0152551215 0.044038657 0.17637143 -0.12334714 -0.106202714 -0.074627995 0.23701999 0.19696447
0.16252406 -0.04371638 -0.060442336 -0.12491525 -0.06646088 -0.050897438 -0.08427967 -0.063830875
-0.062713355 0.28263584 -0.09077738 0.071143545 -0.09556792 0.006180446 -0.4058339 0.05395512
-0.09859149 -0.007397403 0.2503857 0.19751483 0.07296671 -0.06582062 -0.08108047 -0.005562213
0.092762746 -0.3708447 -0.08123462 -0.05287827 0.10459523 -0.07566976 -0.027633168 0.0316722
0.012292619 -0.0013023228 -0.12790649 0.00037028335 0.022105327 -0.055134743 -0.00024787907 0.2943118
0.068560526 -0.007087971 -0.0190558 -0.021933336 0.06009688 0.05515205 0.025609165 0.012419653
-0.00017399399 -0.08737959 -0.020916143 0.039490476 -0.06143427 -0.11959242 -0.09450008 -0.009956298
0.014145989 -0.019406097 0.024820907 0.2993811 -0.042533096 0.12373898 0.01380405 -0.22163357
-0.23191333 0.059631743 -0.10496329 -0.10160583 0.09894679 0.054300785 -0.05556622 -0.08023309
0.042962547 -0.114897974 0.14196077 -0.046048075 0.16728175 0.085462674 0.11117256 -0.003228731
-0.03949496 -0.04723528 -0.06346757 -0.07626213 -0.31811184 0.2825878 0.00847821 0.097900085
0.11013923 -0.28112167 0.3517346 0.15060307 0.15923886 0.14139506 -0.27913833 0.5455345
0.18952939 0.10928179 0.3344991 -0.32729864 -0.3042865 -0.26034284 -0.23535837 -0.3844459
-0.34885043 -0.4104765 -0.3759005 -0.40288812 -0.42513263 -0.04087552 0.02882987 0.03709602
-0.07116706 0.12684017 0.065441616 0.26045355 -0.032792684 -0.10993805 -0.0294578 -0.14270264
-0.4816738 0.039222598 0.08412889 0.12550317 -0.17678443 -0.1137562 -0.103309296 -0.1523326
-0.13066101 -0.006773753 0.10872467 0.07253896 0.06123183 0.121927194 -0.13586016 0.09293003
-0.1539381 -0.021857504 0.19443464 0.28794217 0.22528493 -0.1231051 -0.15673342 0.16129681
-0.24882449 0.13411485 -0.04132941 -0.08042966 -0.13849841 -0.034143463 0.004904043 -0.034889948
0.1624778 0.037285116 0.1500527 0.010573228 0.009774895 -0.042538673 -0.02141899 0.33053738
-0.1873024 0.053837784 -0.01610262 -0.07435774 -0.25796974 0.15810305 0.025911015 0.03886201
0.11130986 0.036253482 -0.067738846 -0.052091435 -0.013159018 0.25099137 -0.03878794 0.03999517
0.14334221 0.03226222 -0.2314151 -0.0051716063 0.009926644 -0.018320441 -0.023730833 0.012360154
-0.06754214 -0.017018279 -0.045565955 0.14500979 -0.009119951 -0.023706041 0.097073935 -0.04616124
-0.05671861 0.235115 0.16156101 0.020960592 -0.026140556 0.005824327 0.22669326 0.00053380505
-0.01753094 0.16522805 -0.18578841 -0.29095414 0.0134712495 -0.04156327 -0.008942269 -0.046008445
-0.012930063 0.07151076 0.17657194 -0.06059689 -0.15607952 0.024583522 -0.1961685 0.052028544
-0.015340213 -0.19426294 0.054262873 0.082848884 0.2307618 -0.08158592 -0.050434638 0.022626279
0.08200549 -0.1020152 0.030769965 0.04576893 -0.007944095 0.041938677 -0.051045004 -0.0711167
-0.02752243 -0.048565716 -0.03910197 -0.06772136 0.08355262 0.062273875 -0.027907705 0.13551994
00000000: 876d c1bc 5695 dd3d c4b8 1fbd cb8d 2cbd
00000010: 4ef7 e8bc 190e 89be f56a fe3d b6c2 56bb
00000020: 9ef0 79bc e161 343d b69a 343e 6d9d fcbd
00000030: cf80 d9bd 90d6 98bd 5eb5 723e 0eb1 493e
00000040: b56c 263e f20f 33bd 6292 77bd 91d3 ffbd
00000050: a41c 88bd d579 50bd d29a acbd c3b9 82bd
00000060: dc6f 80bd a5b5 903e 7ee9 b9bd b5b3 913d
00000070: 1db9 c3bd 5785 ca3b 76c9 cfbe 0b00 5d3d
00000080: 56ea c9bd ea65 f2bb 8e32 803e 5441 4a3e
00000090: 926f 953d f6cc 86bd 840d a6bd 3943 b6bb
000000a0: 65fa bd3d 5bdf bdbe 565e a6bd e396 58bd
000000b0: 0636 d63d bff8 9abd f45e e2bc b5ba 013d
000000c0: fb66 493c b4b2 aaba ebf9 02be 9722 c239
000000d0: 3b16 b53c f8d4 61bd c4f5 81b9 09b0 963e
000000e0: 7669 8c3d 3642 e8bb e91a 9cbc 8aad b3bc
000000f0: 2528 763d 1ee7 613d 50ca d13c cd7b 4b3c
00000100: 2872 36b9 12f4 b2bd 5558 abbc c4c0 213d
00000110: 80a2 7bbd dfec f4bd 4289 c1bd be1f 23bc
00000120: 94c4 673c 89f9 9ebc 3755 cb3c 7b48 993e
00000130: 2f37 2ebd dd6a fd3d 622a 623c e9f3 62be
00000140: b07a 6dbe 6a40 743d fef6 d6bd b816 d0bd
00000150: 9da4 ca3d 806a 5e3d 6899 63bd 3f51 a4bd
00000160: 7ff9 2f3d a14f ebbd 2a5e 113e e89c 3cbd
00000170: e84b 2b3e 0e07 af3d 70ae e33d 1e99 53bb
00000180: 78c5 21bd c879 41bd 49fb 81bd 522f 9cbd
00000190: 8edf a2be 59af 903e 31e8 0a3c d77f c83d
000001a0: ad90 e13d 2eef 8fbe 8f16 b43e b137 1a3e
000001b0: 830f 233e dec9 103e 38eb 8ebe 26a8 0b3f
000001c0: fe13 423e 22cf df3d 7743 ab3e b093 a7be
000001d0: 71cb 9bbe a84b 85be c901 71be 18d6 c4be
000001e0: 869c b2be fa29 d2be 0876 c0be 5a47 cebe
000001f0: fcaa d9be 176d 27bd 9f2c ec3c fff1 173d
00000200: 09c0 91bd 64e2 013e 4106 863d 2b5a 853e
00000210: 9f51 06bd 3327 e1bd 7c51 f1bc a420 12be
00000220: f39d f6be e0a7 203d c44b ac3d e783 003e
00000230: fa06 35be 03f9 e8bd d393 d3bd 14fd 1bbe
00000240: 00cc 05be 5cf6 ddbb 0aab de3d 4e8f 943d
00000250: 3ace 7a3d f7b4 f93d ed1e 0bbe 1952 be3d
00000260: f3a1 1dbe 820e b3bc e019 473e 286d 933e
00000270: 18b1 663e 871e fcbd ba7e 20be fe2a 253e
00000280: d9cb 7ebe 6755 093e 0749 29bd 4eb8 a4bd
00000290: 87d2 0dbe 04da 0bbd 18b2 a03b c3e8 0ebd
000002a0: 9560 263e 47b8 183d 6aa7 193e 553b 2d3c
000002b0: e226 203c 083d 2ebd e176 afbc 323c a93e
000002c0: 33cc 3fbe 0285 5c3d a4e9 83bc df48 98bd
000002d0: 9c14 84be c4e5 213e 5643 d43c c52d 1f3d
000002e0: 6df6 e33d 887e 143d aaba 8abd d45d 55bd
000002f0: ec98 57bc f181 803e 1ae0 1ebd fad1 233d
00000300: 4dc8 123e 6425 043d 14f8 6cbe 9476 a9bb
00000310: 5da3 223c c014 96bc 2a67 c2bc 3e82 4a3c
00000320: 8953 8abd eb69 8bbc 5ea3 3abd 727d 143e
00000330: d96b 15bc 2c33 c2bc b3ce c63d 9213 3dbd
00000340: c651 68bd fdc1 703e 4070 253e 8cb5 ab3c
00000350: b824 d6bc ffd9 be3b 4722 683e 0def 0b3a
00000360: 0c9d 8fbc 8b31 293e 513f 3ebe f1f7 94be
00000370: 84b6 5c3c 3f3e 2abd 9882 12bc 5a73 3cbd
00000380: 9dd8 53bc 3c74 923d 46cf 343e 7234 78bd
00000390: 4fd3 1fbe 6263 c93c 65e0 48be e21b 553d
000003a0: 8455 7bbc ddec 46be bf42 5e3d adac a93d
000003b0: d24c 6c3e 8516 a7bd 8d94 4ebd bf5a b93c
000003c0: 7ff2 a73d 58ed d0bd 4b11 fc3c 3478 3b3d
000003d0: f327 02bc e4c7 2b3d 9114 51bd a2a5 91bd
000003e0: b876 e1bc d8ec 46bd 6329 20bd 7fb1 8abd
000003f0: a31d ab3d e412 7f3d b39e e4bc bdc5 0a3e

linear.bias f4 [32]
0.56605804 -0.28622907 -0.35471052 0.006875222 -0.045323446 0.0718614 -0.21212943 0.08670972
0.0075891595 -0.017448645 0.00044071386 -0.27478158 -0.062043805 0.17967603 -0.29373315 0.053485222
-0.07686115 0.19442151 0.054807145 -0.6337213 0.047006827 0.017195752 -0.00032357723 -0.10459749
-0.07763037 0.037353974 -0.0037776732 0.2320232 -0.0011547565 0.035592694 -0.24201214 -0.016183669
00000000: 2ee9 103f 9e8c 92be 9e9c b5be 8b49 e13b
00000010: 14a5 39bd 122c 933d 7538 59be de94 b13d
00000020: 7cae f83b 76f0 8ebc 9d0f e739 2cb0 8cbe
00000030: a521 7ebd fefc 373e 3164 96be 5213 5b3d
00000040: 6169 9dbd 6f16 473e 757d 603d 8f3b 22bf
00000050: 3b8a 403d 1bde 8c3c cda5 a9b9 3537 d6bd
00000060: acfc 9ebd 7b00 193d d792 77bb 7d97 6d3e
00000070: 335b 97ba a5c9 113d 08d2 77be 9d93 84bc

critic_linear.weight f4 [1, 32]
0.073812015 -0.004355535 -0.011815485 0.0018005398 0.0054909023 -0.00033736756 -0.0064452407 0.00020372751
-0.0055079763 -0.0054214713 0.0040170476 6.2478364e-05 -0.0033755507 -0.007530562 -0.0017472864 0.000727439
0.0029237284 0.00082418596 0.0021694207 -0.16263427 0.0021961976 -0.0014106088 -0.0027253584 -0.0045531313
0.002885035 0.00088267337 0.0025976156 -0.006027022 -0.0022669956 -0.0032312723 -0.0032226485 -0.004897512
00000000: c12a 973d e0b8 8ebb bc95 41bc 1700 ec3a
00000010: 07ed b33b b5e0 b0b9 9932 d3bb b09f 5539
00000020: 417c b4bb 99a6 b1bb 70a1 833b d106 8338
00000030: 5838 5dbb efc2 f6bb 3405 e5ba 9bb1 3e3a
00000040: 069c 3f3b 2f0e 583a d72c 0e3b 9989 26be
00000050: 15ee 0f3b 2de4 b8ba ed9b 32bb 6f32 95bb
00000060: db12 3d3b 3563 673a c23c 2a3b 537e c5bb
00000070: e091 14bb c1c3 53bb 1233 53bb 4f7b a0bb

actor_linear.weight f4 [6, 32]
0.3467624 -0.22147778 -0.4644423 0.023531817 -0.022174954 0.08983813 -0.056665864 0.051281884
-0.0071591106 -0.04521435 0.0162901 -0.08311024 0.051658094 0.16227132 -0.31939313 0.15330565
-0.1521749 0.10455716 0.040986184 -0.46691224 0.048583727 -0.031071128 0.004279503 0.12553695
0.0027046101 0.07093984 0.14802785 0.24871573 0.021547427 -0.02811219 -0.13180877 -0.032686967
0.3844883 -0.2400203 -0.38195673 0.037497934 0.0076579303 0.07043994 -0.09117686 0.052304722
0.024288867 -0.0037070303 0.008211584 -0.1050521 -0.005696309 0.17994586 -0.40595403 0.12527889
-0.18808788 0.102974094 0.05669525 -0.473093 0.033926304 -0.0031258634 0.015434876 0.092918746
-0.010943462 0.053985246 0.1518719 0.28388244 0.021961544 -0.029335268 -0.17748916 -0.010885361
0.3516522 -0.23336437 -0.4868893 0.013934641 0.0045297095 0.08550356 -0.09754016 0.06333831
0.020607857 -0.034784976 -0.021340117 -0.10712831 0.035478808 0.19581506 -0.26432282 0.14588217
-0.17323165 0.12732728 0.04482265 -0.45672497 0.03565715 -0.026727099 0.017581811 0.05826982
-0.006151704 0.09592899 0.15184867 0.15314223 0.037528466 -0.013838434 -0.14883028 0.012280717
0.46713912 -0.2283648 -0.43831572 0.006680957 0.0061013014 0.10097151 -0.08609794 0.03887099
0.0031086204 -0.032487527 0.000991247 -0.109236546 0.0024158608 0.16670439 -0.24170633 0.13725735
-0.1656792 0.11272291 0.061849438 -0.38157618 0.03638011 -0.024558794 0.018489245 0.17606485
-0.006108207 0.10501281 0.18406163 0.31523725 0.039604366 -0.025009735 -0.14711967 -0.016534131
0.45119253 -0.24066468 -0.4488551 0.022985648 -0.015836772 0.08831864 -0.09240066 0.05351019
0.015459918 -0.010718078 -0.0013122294 -0.15495451 0.032744028 0.19808951 -0.35435015 0.12164979
-0.17512275 0.10909261 0.046586663 -0.42586747 0.039744865 -0.0145378355 0.0023066516 0.009584349
-0.0039338893 0.06383519 0.1476033 0.14005503 0.050925847 -0.027013022 -0.1450758 -0.016494796
0.45657727 -0.25140074 -0.3854639 0.0017732319 0.013331726 0.100319214 -0.08858406 0.051299106
0.030626483 -0.014547626 -0.0017485016 -0.113710836 0.033270754 0.19027705 -0.26085398 0.14276636
-0.17814633 0.12955767 0.035894323 -0.4199902 0.03324363 -0.021394407 0.019072264 0.08677117
-0.0062250565 0.076636344 0.16773926 0.36782888 0.052771382 -0.007392428 -0.1715373 0.008064837
00000000: d78a b13e 12cb 62be 62cb edbe ccc5 c03c
00000010: 40a8 b5bc 0efd b73d 771a 68bd f40c 523d
00000020: f996 eabb af32 39bd d172 853c b435 aabd
00000030: 7097 533d 742a 263e 7f87 a3be 28fc 1c3e
00000040: bdd3 1bbe 1022 d63d 21e1 273d 1f0f efbe
00000050: bbff 463d e188 febc 133b 8c3b c28c 003e
00000060: d43f 313b e848 913d 9d94 173e 56af 7e3e
00000070: 3b84 b03c 894b e6bc e1f8 06be c5e2 05bd
00000080: a7db c43e e2c7 75be d58f c3be 6f97 193d
00000090: 60ef fa3b d142 903d efba babd 7a3d 563d
000000a0: 72f9 c63c a6f1 72bb e189 063c 8e25 d7bd
000000b0: 1aa8 babb ba43 383e 35d9 cfbe 1c49 003e
000000c0: 1c9a 40be 15e4 d23d 4739 683d 3f39 f2be
000000d0: 4ff6 0a3d 49db 4cbb 90e2 7c3c 2f4c be3d
000000e0: 354c 33bc a21f 5d3d 4f84 1b3e 0a59 913e
000000f0: b2e8 b33c 8450 f0bc b8bf 35be 8358 32bc
00000100: c20b b43e 12f7 6ebe 8e49 f9be 1f4e 643c
00000110: f56d 943b 7e1c af3d 23c3 c7bd 84b7 813d
00000120: cfd1 a83c b17a 0ebd 78d1 aebc 1666 dbbd
00000130: 3a52 113d be83 483e 5255 87be 2362 153e
00000140: a363 31be 1562 023e f497 373d dbd7 e9be
00000150: 3b0d 123d caf2 dabc bb07 903c 56ac 6e3d
00000160: 3c94 c9bb 6b76 c43d 387e 1b3e 51d1 1c3e
00000170: 73b7 193d 99ba 62bc f766 18be 0f35 493c
00000180: dc2c ef3e 76d8 69be eb6a e0be eeeb da3b
00000190: 6ded c73b 27ca ce3d 1e54 b0bd 3037 1f3d
000001a0: ffb9 4b3b a411 05bd bbec 813a 69b7 dfbd
000001b0: 6b53 1e3b 8eb4 2a3e dd81 77be 318d 0c3e
000001c0: cfa7 29be 45db e63d d655 7d3d f45d c3be
000001d0: 4f03 153d 862f c9bc c276 973c 584a 343e
000001e0: 5b27 c8bb f510 d73d a77a 3c3e c766 a13e
000001f0: 3038 223d 37e1 ccbc 8aa6 16be 9672 87bc
00000200: b502 e73e cd70 76be 56d0 e5be 664c bc3c
00000210: 1ebc 81bc 67e0 b43d 8f3c bdbd 802d 5b3d
00000220: 994b 7d3c e19a 2fbc 1dff abba 65ac 1ebe
00000230: 9a1e 063d fad7 4a3e 626d b5be 8623 f93d
00000240: 6153 33be f26b df3d a8d1 3e3d 4d0b dabe
00000250: 83cb 223d 1a30 6ebc 312b 173b ac07 1d3c
00000260: dbe7 80bb 06bc 823d 5225 173e 966a 0f3e
00000270: 9f97 503d 6a4a ddbc c08e 14be 1820 87bc
00000280: 7fc4 e93e 99b7 80be 865b c5be ca6b e83a
00000290: 506d 5a3c 2974 cd3d 8f6b b5bd 031f 523d
000002a0: 64e4 fa3c 2a59 6ebc fa2d e5ba 3ae1 e8bd
000002b0: ea46 083d fdd7 423e a78e 85be 5831 123e
000002c0: fe6b 36be c4aa 043e ed05 133d f508 d7be
000002d0: 792a 083d 5343 afbc 703d 9c3c 15b5 b13d
000002e0: 8ffb cbbb 84f3 9c3d d7c3 2b3e 1154 bc3e
000002f0: ce26 583d 2e3c f2bb 79a7 2fbe 6122 043c

actor_linear.bias f4 [6]
0.09027716 0.4243821 0.26121894 0.22645839 0.30475658 0.3026862
00000000: 3be3 b83d 9c48 d93e 7dbe 853e b5e4 673e
00000010: 0e09 9c3e b0f9 9a3e
