spaceinvaders-v0-bottom-7fskip_latent32/model.112.tar (torch, 223035 bytes, 13 tensors)

conv1.weight f4 [32, 4, 3, 3]
000000 b7 cf 84 3b 88 04 91 3c ec 13 04 3c 02 63 0d be
       0.004053082 0.017702356 0.00806139 -0.138073
000010 ec 51 0d bf de aa b7 3d 5e 48 3f 3e 9b e4 3a 3e
       -0.5520313 0.08968137 0.1867995 0.18251269
000020 d6 3e 76 3d 89 d8 30 bb 4a 50 1b 3e d5 0e 87 3c
       0.06011852 -0.0026984534 0.15167347 0.016486565
000030 f7 a2 a5 bb 1b b0 59 bc 70 12 a9 bd d1 b7 09 3e
       -0.0050548273 -0.013286616 -0.0825547 0.13449027
000040 0c 09 08 3e 60 0b 86 3c b6 3a 88 3d 5c a2 57 3e
       0.13284701 0.016362846 0.06651823 0.21058029
000050 65 3c 4c bd 04 ad 91 bd 17 ac f9 bd 04 7b 4b be
       -0.049862284 -0.07113078 -0.12191027 -0.19871145
000060 bc 3d 35 3e e6 6a 48 bc c4 13 58 3e 84 1e fb 3c
       0.17699331 -0.012232518 0.2110129 0.0306542
000070 97 a8 ec be 60 b8 06 3d 4a 30 0e 3e 1c 39 18 3f
       -0.46222374 0.032890677 0.13885608 0.5946214
000080 36 a0 74 3e 27 37 e6 be 95 aa 20 be 0e ef 9b be
       0.2388924 -0.44963953 -0.15690072 -0.30455822
000090 c8 55 19 bd ec 8b 61 bd 5a a2 52 3e fa a9 c7 bd
       -0.037435323 -0.05506508 0.20569745 -0.09749217
0000a0 56 d4 e5 3d 60 74 12 3e f1 cd 4b 3e 16 e6 f8 bd
       0.112221405 0.14302206 0.19902779 -0.121532604
0000b0 75 62 36 be 41 93 95 3d 63 af 6f bd 9c fd 04 bd
       -0.17810996 0.07303477 -0.05851687 -0.032468423
0000c0 4c 83 0c bb c2 58 d1 3c f5 f9 8e bd af 17 1c bd
       -0.0021440564 0.025555018 -0.06981269 -0.038108524
0000d0 27 ef 92 3b 83 12 b2 3c a8 de fa bd d5 be 89 3e
       0.0044840756 0.021737343 -0.122494996 0.26903406
0000e0 e3 a7 d6 bd 2f 7c 16 be 71 af 15 3e f4 43 3f 3d
       -0.104812406 -0.1469581 0.14617707 0.046695665
0000f0 ea e0 86 3d b0 87 81 bc bd 53 a7 3d 7a c7 d3 3e
       0.06585868 -0.015811771 0.08170269 0.41363126
000100 0e d8 bd be 53 ed 06 be 56 fe 9f 3d 84 38 8f be
       -0.370789 -0.1317647 0.078121826 -0.27972806
000110 58 f0 73 bd 3a f6 9a be db f4 db 3e 7d c1 b6 bd
       -0.05955538 -0.3026598 0.42960247 -0.08923624
000120 a9 e0 1d 3e 15 00 19 be ce 47 80 3e d5 ad 76 bb
       0.15417732 -0.14941438 0.25054783 -0.0037640233
000130 b0 bb b8 3d 48 62 36 3e 59 a9 95 be 00 6b 53 3d
       0.090201735 0.17810929 -0.29230765 0.051615715
000140 6f fc 14 be 19 d6 56 be f4 35 bc 3c d6 af 88 bc
       -0.14549421 -0.2098011 0.022974946 -0.016685408
000150 c3 78 65 3d 09 8b 2c be df 37 22 be 6c 98 96 3d
       0.05602337 -0.16849913 -0.15841626 0.07353291
000160 f4 bf 91 bd 8c 4b 6e 3e f7 94 97 3d 35 2a d5 bd
       -0.0711669 0.23271006 0.0740146 -0.10408441
000170 d8 3a 7e 3e a9 d9 01 3e 84 8a f1 bd 73 44 09 3d
       0.24827135 0.12680687 -0.11793998 0.033512544
000180 a4 00 0f 3e 9e 74 b2 3c 46 01 e0 bd 51 f9 ba bd
       0.13965088 0.021784123 -0.10937743 -0.091295846
000190 ca b2 49 3e 4d fb 15 be 66 ac e2 3d 23 11 2a be
       0.19697109 -0.14646645 0.11068039 -0.166081
0001a0 00 57 97 be 6e 08 a7 bd d2 20 8a 3e 92 32 4e 3d
       -0.29558563 -0.08155905 0.26978165 0.050341196
0001b0 e6 05 93 3e 2d 47 f2 3d 70 4f 25 3d 5b c9 1a 3e
       0.28715438 0.11829982 0.04035896 0.15115874
0001c0 09 a5 4c 3e ea 8d f7 3b dc 23 11 3e 49 0b 01 3f
       0.19984831 0.0075547593 0.14173836 0.50407845
0001d0 4a 7b e6 3d a8 d8 05 3e f5 d8 79 be 74 9c 04 be
       0.11253984 0.13070929 -0.24399169 -0.12950307
0001e0 f1 d7 08 be fa b3 a8 bd 72 9a f9 3d 2a 8b 1e bc
       -0.13363625 -0.08237453 0.12187661 -0.009676734
0001f0 15 ee 16 3e 1c 0b 1d be ba 96 07 bd c3 14 28 be
       0.14739259 -0.15336269 -0.03310273 -0.1641417
000200 ec 39 a3 3d 88 4f be 3d 99 28 82 be 97 34 22 3d
       0.07970032 0.09292513 -0.254216 0.039600935
000210 92 05 4d 3e df 94 3f 3e bc a5 34 3e 7e aa 40 3e
       0.20021656 0.18709134 0.17641348 0.18815038
000220 64 ec 9f 3c e1 19 08 3e 7d e2 98 be d0 86 58 bf
       0.0195219 0.13291122 -0.29860297 -0.8458071
000230 23 01 88 be 60 76 83 bd c6 90 52 be 34 60 c3 3c
       -0.26563367 -0.064190626 -0.20563039 0.023849584
000240 7f 1b 10 be 7b 12 06 be 9e f1 65 3e 59 22 0d 3e
       -0.14072989 -0.13092987 0.22455451 0.13782634
000250 a6 3c 9a 3d 46 7d df 3d 1e 15 3a bd f3 d0 e4 3e
       0.07531099 0.10912566 -0.045430295 0.44690666
000260 23 bf 05 be 4b 2d 8a bd 19 de 24 be 1c e5 22 be
       -0.13061194 -0.0674692 -0.16100349 -0.15907711
000270 58 5a 1b be c7 3e 04 be a8 97 18 3d ae ff db bd
       -0.15171182 -0.12914573 0.037254006 -0.107421264
000280 9b ac d3 3b b9 c3 1b 3d b9 6f f5 bc 03 23 e5 3d
       0.006459785 0.038028453 -0.0299605 0.111883186
000290 ce 4d a0 bc bd b9 a6 bd 71 1b 95 be c5 25 37 be
       -0.01956835 -0.081408955 -0.291225 -0.17885502
0002a0 eb 7d 01 be 1b 47 4e be cc d6 4f be 30 e3 88 3e
       -0.1264569 -0.20144312 -0.20296782 0.2673583
0002b0 81 9c 73 3c e6 b7 25 be b4 84 1e 3e 93 d1 c4 3e
       0.014868856 -0.16183433 0.1548031 0.38441142
0002c0 68 dd 91 3e a1 6c bf 3b a9 ed e8 bd 7d ec be 3e
       0.28489232 0.005841807 -0.11373455 0.372898
0002d0 60 79 2a be 61 71 63 be 89 32 45 be 3a d1 8c be
       -0.16647863 -0.2221122 -0.19257559 -0.27503377
0002e0 fd 30 02 bf bb aa eb bd 78 a2 aa be 7e 90 ee be
       -0.50856 -0.11507174 -0.3332708 -0.46594614
0002f0 01 e2 5a be a9 cf 3a bd d8 c6 17 bc d4 3e 89 bd
       -0.21375276 -0.045608196 -0.009263717 -0.06701437
000300 c8 fd 5a be 25 1c f7 bd bb 04 66 bd 2f 4f 37 be
       -0.21385872 -0.12065915 -0.056156855 -0.179013
000310 c1 a5 54 38 83 11 bf 3c 14 38 77 3e 5e bf 43 bc
       5.069911e-05 0.02332378 0.24142486 -0.011947481
000320 68 02 df 3d 74 df 2b be fa 7d 2f 3e ff 91 19 be
       0.10889131 -0.1678446 0.171379 -0.149971
000330 f7 3c c1 3d c1 74 d2 3d 6a 54 e6 bd 7e fc a4 3e
       0.09435456 0.10276175 -0.112465695 0.32223886
000340 80 82 e8 3e 84 99 d9 3e e5 35 2a 3d 55 6a 7b 3e
       0.45412064 0.42499936 0.041555304 0.24552281
000350 3d 6d e1 bd e0 0f b3 3e 56 41 e2 3e 2d ba a0 3e
       -0.11007164 0.3497305 0.44190472 0.3139204
000360 a0 89 aa 3e f3 ec f6 bd e1 a8 0d 3b d6 b7 b1 3e
       0.33308125 -0.12056913 0.0021615552 0.34710568
000370 e2 6e 9c 3d 9c 27 9c 3e ec ea b9 be 9f cb dd be
       0.07638337 0.3049897 -0.36312044 -0.43319413
000380 8e 91 0e bd bc 63 22 bd 3b 22 a0 3c ec 55 8e 3e
       -0.03480678 -0.039645895 0.019547572 0.27799928
000390 79 37 3f 3e b3 3c cb 3d 81 df 6f 3d 32 03 32 be
       0.18673505 0.09923687 0.05856276 -0.17384031
0003a0 75 c0 9c 3c a9 04 d3 bd 52 00 1c 3c 99 8f d0 bd
       0.01913474 -0.10303623 0.009521561 -0.10183639
0003b0 23 c7 56 3d 4a 7a 1c 3e 03 46 93 3d e6 e9 3f bd
       0.052436005 0.15281025 0.07191088 -0.046853922
0003c0 8b 95 09 be 65 94 5a 3d d4 5b 90 3d 18 1f bf bd
       -0.13435952 0.053364176 0.07048765 -0.093321025
0003d0 46 27 c7 be 23 ac 82 bd ea b9 72 be 67 a4 e0 be
       -0.3889715 -0.06380489 -0.23703733 -0.4387543
0003e0 9c 4e 24 be 63 3a 92 3e 5a ef d9 3e c4 6c 8b 3d
       -0.16045612 0.2856017 0.42565423 0.06807855
0003f0 89 4a 87 3c b4 1a a1 bd f0 2c 8c bd 2b 64 df be
       0.016515033 -0.07866421 -0.06844509 -0.4363111

conv1.bias f4 [32]
000000 5f 02 1e bb 5b e2 87 3b fd db a1 bb f2 68 19 bc
       -0.00241103 0.0041468567 -0.0049395547 -0.0093634
000010 f4 a1 a2 ba c0 a0 f1 3b 32 1d b5 3b 71 4c 5b 3a
       -0.0012407885 0.007373899 0.005527162 0.00083655777
000020 01 74 00 bb 97 23 49 3b 24 2f 34 3b 85 20 8a 3b
       -0.0019600394 0.003069138 0.0027493918 0.0042153024
000030 a7 2d 1e 3b e2 fd 70 3b aa 3b 95 3a 2e 1c 9b 3d
       0.0024136098 0.003677242 0.0011385579 0.07573734
000040 bc 69 06 39 e0 07 63 bb c4 94 59 3d 6a 58 02 3a
       0.00012818625 -0.0034642145 0.05312039 0.0004972281
000050 d9 16 9a 3a 79 de f2 3a e2 57 5c bb f9 6a 1a bb
       0.0011756077 0.0018529437 -0.0033621718 -0.0023562296
000060 04 f6 a4 3b e8 ab 60 ba 9c 4d b7 bb 54 5b be bb
       0.00503421 -0.0008570538 -0.0055939686 -0.005809227
000070 aa da f4 39 64 e6 1c bb 97 41 f1 3a b0 8e 77 bb
       0.00046702224 -0.0023941034 0.0018406388 -0.0037774257

conv2.weight f4 [32, 32, 3, 3]
000000 88 af a1 be 05 4c 3e be 51 5b 78 3e 0c 2b 12 3e
       -0.31579232 -0.18583687 0.24253584 0.14274234
000010 92 05 73 3e 86 a6 47 be 81 9e f1 bd e5 a4 54 bd
       0.23732594 -0.19497117 -0.1179781 -0.05191507
000020 09 2d 3f 3d ff f1 41 bd e2 2e 75 be bd 94 8c 3d
       0.04667381 -0.047349926 -0.23943666 0.06864307
000030 7e d9 64 3e 04 84 5a 3c 42 d3 fe 3d ed 2c 05 3e
       0.22348592 0.013337139 0.12442638 0.13005419
000040 0b 77 37 be 35 13 34 3e a9 17 e0 bc d0 9d 91 bd
       -0.17916505 0.17585452 -0.027355032 -0.071101785
000050 e7 67 55 be e8 51 32 be 28 d3 d1 3b 9a 1b a9 3c
       -0.20840417 -0.17414057 0.0064033456 0.020643044
000060 59 93 0d bc 72 08 ed 3d ad 1b 2d 3c 19 a7 4b be
       -0.008641087 0.115738764 0.01056568 -0.19887961
000070 9f 28 61 be e2 ba 16 be 3a 82 41 be 81 b2 f4 be
       -0.21988152 -0.14719728 -0.18897334 -0.47792438
000080 93 88 57 3e 89 e7 9c bd 13 33 00 3e c6 98 98 3e
       0.21048193 -0.07661349 0.12519483 0.29804057
000090 09 68 4c 3e 51 8b 6f 3d 13 bb cf 3c af 4d d6 3d
       0.19961561 0.05848247 0.025357759 0.10464036
0000a0 43 7c 36 3e 06 35 56 be 33 0a c4 bd f6 03 3b be
       0.1782084 -0.20918664 -0.09572258 -0.1826323
0000b0 ca 24 f8 3d cc 48 1a 3e a3 93 c0 bd ad 88 a9 be
       0.12116392 0.15066832 -0.094031595 -0.33112088
0000c0 19 5a 63 3d 84 f0 a0 3c 29 05 72 bd 48 c2 fc 3d
       0.055505846 0.019645937 -0.059086952 0.12341744
0000d0 9c d9 7b 3e 72 08 2a 3e cd 88 90 3e cf 60 f1 3d
       0.2459473 0.16604784 0.2822937 0.11786043
0000e0 85 d8 aa be 99 60 85 bc 3c 0f 9b 3d 93 16 ba 3b
       -0.33368316 -0.016281413 0.07571265 0.0056789606
0000f0 5a 67 e3 bc c9 4a e6 3c 99 2c 89 be 99 e2 58 be
       -0.027759243 0.028111832 -0.26791838 -0.2118019
000100 15 c3 c5 bc 9e 92 67 3d d7 42 9c 3e 3a 16 a2 3d
       -0.024140874 0.05653631 0.30519745 0.07914396
000110 e0 2b af bd 17 42 15 bd bc 03 49 ba b7 11 fd 3d
       -0.0855329 -0.03643998 -0.0007668098 0.123568945
000120 c1 37 a7 bc ca 72 00 3e 3a 4c 9a 3e 2c a6 1b bd
       -0.020412328 0.12543789 0.3013628 -0.03800027
000130 18 2c c4 3d d8 dc a9 3b 86 44 17 be 40 0f 5a be
       0.09578723 0.0051837973 -0.14772233 -0.2129488
000140 06 cf fe bd a7 e3 45 3e 91 d9 00 be ef e8 79 3d
       -0.1244183 0.19325124 -0.12582995 0.06101316
000150 79 50 9d 3a 2b 00 c6 3d 7c 69 2a be 4b 0c ef 3c
       0.0012002132 0.09668001 -0.16641802 0.029180666
000160 6b f4 8b 3e 2b 7d 05 3c d9 f9 3a bc 88 9c a6 bb
       0.27334914 0.008147518 -0.011412107 -0.005084578
000170 ff 8c 61 bd ed 52 5c 3e 03 21 f8 3e 6b 70 c7 be
       -0.055066105 0.21516009 0.48462686 -0.38952956
000180 be 77 bc 3d c6 71 0a bc 78 22 a3 bd c1 9c 42 3e
       0.092025265 -0.008449977 -0.07965559 0.1900511
000190 a1 bc 07 3d 35 a2 ad 3c f1 05 91 3e 41 e8 1e 3b
       0.033138875 0.02119551 0.28324845 0.002424732
0001a0 96 a0 9b bd 24 c9 ea bd d0 cc 6e bd eb 17 05 be
       -0.07598989 -0.11464146 -0.058300793 -0.12997405
0001b0 87 d2 dd bd 93 ff 86 bd a8 76 a8 3d a2 74 eb 3e
       -0.108311705 -0.06591716 0.08225757 0.4598742
0001c0 66 e8 54 3e 06 7c 2d be b8 78 4a bd b5 c4 94 be
       0.20791778 -0.16941842 -0.049431533 -0.29056326
0001d0 01 8e 05 be d1 04 29 be 2c ff 04 3e c3 4a 16 3f
       -0.13042451 -0.16505744 0.12987965 0.5870783
0001e0 5b a4 77 3e ff 8f 2e 3d 37 d3 b6 3d 6e 03 6e 3d
       0.2418379 0.042617794 0.08927005 0.05810874
0001f0 71 ed dc be 33 1e cd bc 39 ac 14 3e 09 77 ac 3d
       -0.43149903 -0.025038814 0.14518823 0.08421142
000200 00 eb 3d 3c b6 3a 75 3e 3a fa 9e bd 7c f1 48 3d
       0.011591673 0.23948178 -0.07762571 0.049058422
000210 c6 ab 82 bb 71 62 36 be a5 85 11 bd 9e c9 f9 bd
       -0.003987762 -0.1781099 -0.035527844 -0.121966586
000220 85 83 98 bd c9 32 c4 bd fe fb 86 3c 46 00 33 3e
       -0.0744696 -0.09579999 0.016477581 0.17480573
000230 53 68 b2 3e e8 5b ac bd 6c 99 91 bd 7f b8 3a bd
       0.34845218 -0.08415967 -0.07109341 -0.045586105
000240 94 2c 81 be 88 f1 1d be 21 59 15 be e0 b4 14 3e
       -0.25229323 -0.15424168 -0.14584781 0.14522123
000250 9f a0 32 3b 20 58 0b be 55 ca 9a 3d 79 29 f1 bc
       0.0027256382 -0.13607836 0.07558123 -0.029438721
000260 bb 18 bb 3d a4 0c bb bc 3e 0b a8 bc f6 24 a9 bd
       0.09135576 -0.022833176 -0.020513173 -0.08259003
000270 70 da d5 be 69 02 21 3e a6 b7 13 be 19 8f 33 3e
       -0.41768217 0.15723576 -0.14425525 0.17535056
000280 6d 0b c3 bd a0 d3 68 bc 34 16 9b bd 46 f3 a0 bd
       -0.09523664 -0.014210612 -0.07572594 -0.07858901
000290 1f 69 41 bd eb 1e 67 3d b9 2c 0f 3e b5 60 87 3e
       -0.047219392 0.05642597 0.13981904 0.2644097
0002a0 c7 c2 f4 bd d0 9a dd bd f1 5e 2c bd 05 d4 36 3e
       -0.11951213 -0.10820544 -0.04208273 0.17854317
0002b0 bd 50 9c 3b 38 08 c4 bd 11 0f c4 3d 50 ca 14 3d
       0.004770367 -0.0957188 0.09573186 0.036325753
0002c0 01 d3 9a 3d 8b 2a 6c be a8 f6 4a bd 70 17 f0 bd
       0.07559777 -0.23063104 -0.049551636 -0.1172322
0002d0 40 d5 0d 3d 61 fe 32 bd 5a 93 3b 3d 11 01 ac bd
       0.0346272 -0.043699626 0.045794822 -0.08398641
0002e0 64 df ca 3d 14 b8 07 be 9f 25 0c be 88 12 9f 3d
       0.0990589 -0.13253814 -0.13686226 0.077672064
0002f0 79 4d 6f bd b8 12 7f 3e c6 7c 35 be 58 3f 5a bb
       -0.058423493 0.24909484 -0.17723379 -0.0033301916
000300 cc ed 2a bd 7b f4 ac bd 53 2f 89 3d 29 e8 aa 3c
       -0.041730687 -0.084450684 0.066984795 0.020862656
000310 90 61 6f bd a6 54 33 3d 01 00 e7 bd 00 2a ee 3d
       -0.058442652 0.0437819 -0.112792976 0.116291046
000320 8b 44 26 bd 11 04 b9 3e 24 9f 2d 3e 53 9c d0 bd
       -0.04059271 0.36135915 0.16955239 -0.101860665
000330 2d 18 06 be f2 62 59 bc 1e 89 82 bb 57 c1 07 be
       -0.1309516 -0.013268219 -0.003983631 -0.13257347
000340 70 9f bd bd 2d 9b 9e 3e f9 28 b6 be d9 a4 00 be
       -0.09258926 0.30977765 -0.35578135 -0.12562884
000350 a3 1a 22 bd ff 9d 0f 3d e0 3b 2a 3e 91 db 2b bd
       -0.039576184 0.035062786 0.16624403 -0.04195744
000360 89 60 f4 3d 23 56 53 3d 21 45 11 3e e2 a7 94 bc
       0.11932475 0.05159582 0.14186527 -0.018146459
000370 a3 cc b8 bd 6c 8e 07 bd da 92 a9 3d 69 76 b1 be
       -0.09023406 -0.03309481 0.08279963 -0.34660652
000380 41 c3 07 be 02 84 9c 3e 92 52 0d 3d 2c 72 0f 3c
       -0.13258077 0.30569464 0.034502573 0.008755248
000390 fe ec 55 3e 5d 70 9a 3d cb d3 1b be 3f a4 34 be
       0.20891187 0.07540963 -0.15217511 -0.1764078
0003a0 e7 5e 00 3e bf 91 14 3d db 4e a7 3d 6c 93 05 bd
       0.12536202 0.036271807 0.08169337 -0.032611296
0003b0 ef 2b 08 be 37 be da 3d 76 e0 a3 3d 86 83 5a be
       -0.1329801 0.10680812 0.08001797 -0.21339235
0003c0 16 34 14 be ae 58 83 3e 25 9e 2f bc b2 25 b7 3c
       -0.14472994 0.25653595 -0.010718857 0.022356842
0003d0 b6 1a 4a be a6 b2 90 bd cd fa 0e be 4c fb 6a be
       -0.19736752 -0.070653245 -0.1396286 -0.22947425
0003e0 f8 9d 0b 3e fc fc 72 bb 6c 61 1e 3e f2 a3 56 3e
       0.13634479 -0.003707706 0.15466851 0.20960978
0003f0 62 c8 c8 3e 82 1b 70 3e af 51 9b be e5 c8 a8 be
       0.3921538 0.23447993 -0.30335757 -0.3296577

conv2.bias f4 [32]
000000 3e c7 87 bc f8 d9 19 bb 12 df 81 bc 8b 36 f9 bb
       -0.016574498 -0.0023475867 -0.015853439 -0.007605379
000010 d5 24 32 bd c3 3b 48 bc e6 0d 4a bc c6 54 57 bc
       -0.043492157 -0.01222128 -0.012332415 -0.01314277
000020 c0 da 2d 3b c6 98 42 bc 5e d5 ad bc b4 32 f5 bc
       0.002652809 -0.011877244 -0.021219905 -0.029931404
000030 71 02 d1 3c 85 5a f0 bb 28 29 16 bd 73 af 1b bc
       0.02551386 -0.0073350095 -0.036660343 -0.00950228
000040 46 10 2d ba 77 0b e8 3b a3 20 6f 3c bd c7 3e 3c
       -0.0006601851 0.007081445 0.014595184 0.011644301
000050 b0 47 16 bc 70 f3 9c bb dc 77 7f bc 47 47 39 3c
       -0.009172365 -0.004789762 -0.015592542 0.011308498
000060 0a f2 4a 3b 4d a1 6c bc 24 1e 13 39 04 49 b2 bc
       0.003096702 -0.014442754 0.0001403024 -0.021763332
000070 10 91 b0 3c dd 5c 6a bc 1c 21 1a ba c7 69 4c bc
       0.021553546 -0.014304367 -0.00058795675 -0.012476391

conv3.weight f4 [32, 32, 3, 3]
000000 9e 98 ee bd 49 0b 88 bd 09 cf 49 be c0 ae 76 3c
       -0.11650203 -0.066427775 -0.19707884 0.015056312
000010 25 ae b2 3d 13 85 3d 3e ff b9 c4 3d ba 96 10 be
       0.08724622 0.18507795 0.096057884 -0.14119998
000020 4d b5 dc 3c c4 bf 0b 3e 7c ad 4e bc 5d 84 e0 3d
       0.02694192 0.13647372 -0.012614604 0.10962746
000030 db 22 56 be 2f 89 19 be 01 f9 34 3e 1b 24 e5 3d
       -0.20911734 -0.14993738 0.17673112 0.11188527
000040 65 c0 a9 bd 41 71 36 be 72 97 a5 bd 87 be 66 bb
       -0.082886495 -0.1781664 -0.080855265 -0.0035208778
000050 70 06 29 3e ea 94 93 3d 8f 21 dd 3d a0 85 00 be
       0.16506362 0.072061375 0.107974164 -0.12550974
000060 1a 93 69 3c 9f 1b 49 bd 93 c6 a1 3c 3c 77 7e bd
       0.014256263 -0.049098607 0.019748008 -0.06212543
000070 f4 5f 4d be de 75 c6 be ff d6 7a 3c 85 0f 27 be
       -0.20056134 -0.387618 0.015310048 -0.16314514
000080 0b 47 7f be b7 b4 bc 3e b6 fe 08 3d 61 57 bd be
       -0.24929444 0.36856624 0.033446036 -0.36980727
000090 b4 97 0b 3e c2 f5 73 bd 0a 01 a4 be df f8 58 3d
       0.13632089 -0.059560545 -0.32032043 0.052971717
0000a0 70 62 52 be fa d5 f3 bd 41 ae 56 3e 53 99 8d bd
       -0.20545363 -0.11906047 0.2096491 -0.0691401
0000b0 e9 0d 1a bb f8 6b 04 be 37 23 1f 3d 55 a9 ae 3c
       -0.0023506826 -0.12931812 0.038851943 0.021320978
0000c0 e8 7b 20 3e 2c 92 a8 3d 4a ed 5f be 99 56 18 be
       0.15672266 0.08231005 -0.21867862 -0.14876784
0000d0 ed 5d ad 3c c7 36 f4 3d aa 5d 94 3d 49 ac 09 3d
       0.021162951 0.119245104 0.072444275 0.03361157
0000e0 92 ac c5 bd cb ab 0c 3e 2a 4f aa bd 47 26 51 3d
       -0.09652056 0.13737409 -0.083158806 0.051061895
0000f0 36 be 16 bd da 91 b9 3d d0 8a 75 3c b5 da 1e be
       -0.036802493 0.09061022 0.014986709 -0.15513118
000100 f4 d1 b9 bd df 21 87 bd 77 00 1d 3e 10 31 37 be
       -0.090732485 -0.06598257 0.15332209 -0.1788981
000110 e6 3f 23 be b7 17 8d bd fa 70 bc 3d 14 a7 91 bb
       -0.15942344 -0.06889289 0.09201236 -0.004444966
000120 72 34 a7 3d 6d be f1 bd f8 f6 d3 3d e4 bb 57 3e
       0.081643 -0.11803899 0.1034984 0.21067768
000130 5e aa 22 bd 1a 85 f0 3d d4 f8 90 bd cd 39 01 3e
       -0.039713256 0.11744137 -0.0707871 0.12619705
000140 bd 29 25 be 2a ce 38 3e f5 47 c3 bd 36 59 bd bd
       -0.16129203 0.18047395 -0.09535209 -0.09245531
000150 e2 06 33 3b 6e c3 fa bd d7 b5 a9 bd 85 67 32 bd
       0.0027317335 -0.122443065 -0.08286636 -0.043555755
000160 33 b9 ac be 49 8a a7 3e b3 e8 80 be c4 f6 07 bd
       -0.33735046 0.3272269 -0.25177535 -0.03319432
000170 e8 73 1f be 01 27 d1 3d d6 56 3c 3e de cd 2b be
       -0.15571558 0.102125175 0.183925 -0.16777751
000180 f7 98 23 be 37 f5 26 be a0 af 2c 3e 38 5a 2f 3e
       -0.1597632 -0.1630448 0.1686387 0.1712426
000190 c0 6e 45 3d 6b e3 68 be eb a0 71 3e d5 19 bc 3d
       0.048201323 -0.22743003 0.23596542 0.091846146
0001a0 6e e9 a2 3c 83 2b 7f bc b8 13 3e 3e cc 19 d7 bd
       0.019886699 -0.015574339 0.1856221 -0.10502967
0001b0 66 ec f4 bd 44 1d 38 3e 11 92 84 3d 8b 0d f1 bd
       -0.11959152 0.17979914 0.064731725 -0.11770161
0001c0 3a 50 6c 3d 55 c7 79 bc f5 be a9 3d 7e 5b 16 3e
       0.057693698 -0.015245278 0.08288375 0.14683339
0001d0 52 c5 c1 bd 3d 92 79 bd 42 74 ba 3c 66 d3 74 3e
       -0.09461464 -0.06093048 0.022760514 0.23908767
0001e0 ab 9e 8c bd 70 fc 0c bd fd c7 13 bc 53 a9 85 bd
       -0.06866201 -0.03442043 -0.009019849 -0.06526437
0001f0 45 91 ba 3c 37 3a ce 3e 8a 0f a6 3d 74 bc 96 3e
       0.022774348 0.4027879 0.081084326 0.29440653
000200 b8 71 18 bd 14 e8 5f 3c d5 88 84 3d 02 5e f5 bd
       -0.037217826 0.013666172 0.06471411 -0.11980821
000210 fa c9 9d bd 37 58 06 3e 2d 19 ca 3d 17 29 0d 3e
       -0.077045396 0.13119589 0.09868083 0.13785206
000220 e8 db ac bc ed c6 d6 bc bb b7 0d be 48 ae a1 3a
       -0.021100953 -0.026217902 -0.13839619 0.0012335265
000230 f6 d9 72 3e 26 bf b6 3d 3a db a6 bd 4b 56 c1 be
       0.23715958 0.089231774 -0.08147283 -0.3776115
000240 a0 d3 8f 3d 84 41 90 bd 6b bd 35 3e 31 64 60 be
       0.07022786 -0.07043746 0.17748038 -0.2191322
000250 2a a4 07 3e 4d 7f 3d be 70 2c f3 3d fe a4 f3 3d
       0.13246217 -0.18505593 0.1187371 0.11896704
000260 ca 55 af be 9d fa b6 be 06 0e 36 be d9 05 81 3e
       -0.3424514 -0.35738078 -0.17778787 0.25199774
000270 3a 23 29 be 70 21 f8 3d 09 5e 2a 3e a6 26 a3 bd
       -0.16517344 0.12115753 0.16637434 -0.07966356
000280 4a 9d f3 3c c5 ad 1f 3d cc 9a f1 3c 99 cd 74 bd
       0.029738087 0.03898408 0.029492758 -0.059766386
000290 3b b9 e3 bd 70 b8 7d 3d 4e ee 95 bc 62 1b 40 be
       -0.11119314 0.06194347 -0.01830211 -0.18760446
0002a0 55 2e 10 3d eb 33 ee 3d b0 fe 77 be 6f bc b2 3d
       0.035200436 0.11630996 -0.2421825 0.08727347
0002b0 ea be 9a 3d aa d5 6a 3d 4b fe 17 be 56 3a 3f be
       0.07555945 0.057332672 -0.14843099 -0.18674597
0002c0 de 9a f7 bd 80 19 09 be 2d 2f 1c be 7f 22 12 bd
       -0.120900854 -0.13388634 -0.15252371 -0.03567743
0002d0 e2 ca b8 3d 66 51 81 be fb 41 47 be 03 39 ac bd
       0.09023072 -0.25257415 -0.19458763 -0.084093116
0002e0 13 bf d6 3e 4a b0 c6 bd 21 8c ab bd ce e5 e7 bd
       0.41942653 -0.09701593 -0.08376337 -0.11323129
0002f0 db 09 60 be 65 ed e6 3d 22 7b ad bc 46 97 3b be
       -0.2187876 0.11275748 -0.021176878 -0.18319425
000300 96 e5 a4 3d 2a 34 e1 bd 54 e3 07 be 3c 69 bd 3d
       0.080516025 -0.10996278 -0.13270313 0.092485875
000310 b2 b8 5d 3e 5f f9 2a bd ce ab 19 3e 75 e2 29 3b
       0.21652487 -0.041741725 0.15006945 0.0025922332
000320 70 11 ac be 1f 66 11 be 73 94 1b 3d ce 1e cc bc
       -0.33607054 -0.14199112 0.03798337 -0.024917033
000330 eb f0 ad 3c a0 f4 5b 3e cb 13 81 bd ad b2 1d 3e
       0.021233043 0.21480036 -0.06302603 0.1540019
000340 44 f0 1b 3e 8b 83 c0 be bb 8f b5 3e 34 b9 bd be
       0.15228373 -0.3760036 0.3546122 -0.3705536
000350 8a ec a7 bc 68 e7 01 3c 77 9c 53 bd 4d 84 97 bd
       -0.020498533 0.007928707 -0.05166289 -0.07398281
000360 61 20 b7 3d 57 18 a0 3d 8c 5c 82 3e d3 e4 09 be
       0.08941723 0.078171425 0.25461233 -0.13466196
000370 4a eb c0 bd 8c 0a 92 3d 88 a9 3c be fe f6 3b 3d
       -0.09419878 0.07130918 -0.18424046 0.045889847
000380 2f 27 85 3e a4 64 4d 3d 22 ba 00 be 32 2b 54 3e
       0.26006457 0.050144807 -0.12571004 0.20719603
000390 a2 9f 49 bd 81 65 c0 bc 68 3e 8a 3d 85 2b 63 bd
       -0.049224503 -0.0234859 0.06750184 -0.055461425
0003a0 22 26 01 3e 62 ac 97 bd 37 52 90 be e9 a9 86 3e
       0.12612203 -0.07405926 -0.28187725 0.26301506
0003b0 da 95 59 3e da 60 bd bc 2b a8 b9 bd 9e 48 04 bd
       0.2124857 -0.023117471 -0.090652786 -0.032295816
0003c0 90 f5 b6 3d 91 48 32 b9 b2 1e 2f 3d f7 5d 8e 3d
       0.08933556 -0.00017002436 0.042753883 0.06951516
0003d0 b6 d6 54 3d b4 92 6a 3e 84 95 eb 3c 12 6b 04 be
       0.051962577 0.22907525 0.028757818 -0.12931469
0003e0 d4 11 4d be 53 5b eb 3c 77 5e 93 be f7 6a a0 bb
       -0.20026332 0.02873007 -0.28783008 -0.0048955637
0003f0 ec d3 4d be 67 76 71 3d 15 3a 43 3e 30 4c 84 be
       -0.20100373 0.058950808 0.19065125 -0.25839376

conv3.bias f4 [32]
000000 38 c6 9a bd de a6 07 be ff dd 28 3c 7f c5 b2 bd
       -0.075573385 -0.13247249 0.010306834 -0.08729076
000010 2c c1 ee bc 9a 48 af be 89 49 ee bd b7 1e 21 be
       -0.029144846 -0.34235078 -0.116351195 -0.15734373
000020 7e 65 e1 bd 9e 9f ac bc 11 bf 04 be ed 55 bf bd
       -0.11005686 -0.021072205 -0.12963511 -0.09342561
000030 70 00 95 bb 97 75 be bd f1 fa df bd 5e bb c8 bc
       -0.0045471713 -0.09299772 -0.10936535 -0.024503406
000040 40 99 3e bd a7 88 bb bb 34 7d 87 be 37 35 d8 bd
       -0.04653287 -0.0057230773 -0.2646271 -0.10557025
000050 89 86 12 be 2a d2 78 3b 6f 7d d1 bd 70 41 42 be
       -0.14309134 0.0037967064 -0.10229003 -0.18970275
000060 58 91 d6 bc 71 4b 11 be 24 04 ab 3c 8e 6c 15 bd
       -0.026192352 -0.14188935 0.020875998 -0.03648048
000070 46 36 e8 bc 12 d3 06 bd 4b 0a f4 3c 5d 61 1c be
       -0.028346192 -0.032916136 0.029790064 -0.15271516

conv4.weight f4 [32, 32, 3, 3]
000000 c1 6e 86 3e 7c fc 38 bd 58 a8 ae 3d 9c 47 18 be
       0.26256374 -0.045162663 0.08528203 -0.14871067
000010 db 52 5d bc 73 c2 b5 bd e3 17 0d be f8 c9 d0 bd
       -0.013508524 -0.08874979 -0.13778643 -0.101947725
000020 13 e6 87 be dd a6 15 be 80 bb 3a be a8 fb 4a 3d
       -0.2654272 -0.14614435 -0.18235588 0.049556404
000030 bf 06 d6 bd 38 8f 7d 3d a5 84 00 be 41 a4 91 bd
       -0.104505055 0.061904162 -0.125506 -0.07111407
000040 7d 3b 92 3d 24 77 55 3d 43 b2 c4 bd 0a 44 3e 3e
       0.07140253 0.052115574 -0.09604313 0.18580642
000050 db 9a 60 3d 51 95 bb bd d7 09 b3 bd f5 5f dc 3d
       0.05483518 -0.09159339 -0.08742111 0.1076049
000060 d5 a8 c8 3d f8 9a 16 3e 87 eb 2e 3d b4 9a 1f 3e
       0.09797827 0.14707553 0.042705085 0.15586358
000070 1e 39 1b 3d 69 84 dc b9 99 29 52 3e bd 4f 11 be
       0.037896268 -0.00042060323 0.20523681 -0.14190574
000080 4e 54 ba bd c1 97 2a bd a4 22 a3 bd 67 c6 9e 3d
       -0.09098111 -0.04164863 -0.079655915 0.07752686
000090 df 79 39 3e 3f 45 10 be 44 e8 50 bd 7f 84 91 3d
       0.18112896 -0.14088915 -0.051002756 0.0710535
0000a0 a2 76 18 be a3 9a ea 3d 15 8d 05 3e 29 f1 1f be
       -0.14889005 0.11455276 0.130421 -0.15619339
0000b0 b5 65 94 3c 79 91 a9 3e 0d 6c cd 3a 9a f9 1d 3c
       0.018114904 0.331188 0.001567246 0.009642029
0000c0 2e 89 7f bd c4 c7 54 bc f7 aa ce 3d b5 e2 0a be
       -0.062386684 -0.012987081 0.10091203 -0.13563044
0000d0 9e 14 30 bd 21 83 3b 3b 06 5e 62 3e b2 0d 97 bd
       -0.042988412 0.0028612094 0.2210618 -0.07375659
0000e0 6a 03 87 bc 46 59 92 bd 3b cd 87 bd 76 fb a9 bd
       -0.01648112 -0.07145934 -0.066309415 -0.082999155
0000f0 fe a8 78 bd a0 75 45 3e ad db 3e 3b 56 c4 92 3d
       -0.06070804 0.19283152 0.0029122636 0.07166354
000100 f6 99 25 bd 4c 50 03 3e 7e 60 16 3e 3b c8 95 3d
       -0.04043003 0.128236 0.14685246 0.073135816
000110 a5 49 b6 3d 05 11 99 bd 0e aa 9b 3d 77 34 4a 3e
       0.08900765 -0.07473949 0.07600795 0.19746576
000120 3b 41 90 3d 72 cf 58 bc d7 16 9d bd 52 59 c4 3c
       0.07043692 -0.013233053 -0.07670372 0.023968372
000130 85 70 7a 3e 76 e9 29 bd b3 6d c7 bd c8 d5 30 3c
       0.24456985 -0.04148241 -0.0973772 0.010793157
000140 28 cb af bc 3b 5b 17 3e f1 34 8f be 13 17 38 3d
       -0.021459177 0.14780895 -0.2797008 0.04494388
000150 3b a7 d4 bd 85 68 95 3e 1a 49 94 3c 46 91 08 3d
       -0.10383459 0.29181305 0.018101264 0.03334167
000160 cf 4a 1e 3d b0 36 e8 3d 81 40 00 3e 21 f1 99 3d
       0.03864556 0.11338556 0.12524606 0.07516695
000170 3f ff 09 3e d5 1c a6 bd eb 20 72 3d 6c 3c 46 be
       0.13476275 -0.08110968 0.059113424 -0.19358987
000180 8e bd f6 3c c3 e8 54 be 1e ba 72 3e 5d f9 f9 bc
       0.030119684 -0.20791917 0.2370381 -0.030514413
000190 d0 11 55 3e 06 9e a5 3b 83 3e 90 3e c7 12 8a be
       0.20807576 0.0050542383 0.28172693 -0.2696745
0001a0 a8 ba 88 be fd 71 fc 3d 70 64 46 bd d0 6e 39 bd
       -0.26704907 0.12326429 -0.04843563 -0.045271695
0001b0 45 e9 3d be 7c d2 0b 3d bc a4 89 3e e6 79 cc 3d
       -0.18546017 0.03413628 0.26883495 0.09984188
0001c0 c9 22 79 bd 81 4c d9 3d e3 09 ba bd 2c b1 9d 3d
       -0.06082419 0.10610295 -0.09083917 0.076998085
0001d0 47 bc 51 3c 76 bc a3 3e e0 85 8a be f2 a9 69 3d
       0.0128012365 0.31979722 -0.27055264 0.057046838
0001e0 33 a9 0a bd 6b 9a 87 be 8d 74 4b 3e 74 f0 71 bd
       -0.033852767 -0.26485 0.1986868 -0.059067205
0001f0 a4 75 12 be 3f 03 a2 bd c0 75 9f 3d 45 e7 ee bd
       -0.14302689 -0.079107754 0.07786131 -0.11665205
000200 02 c8 ee bd eb a4 c8 bb c4 77 0d bd bc 2b 4e 3e
       -0.11659242 -0.0061231754 -0.034538046 0.20133871
000210 ca e9 e0 3b 1e 9a 3a 3e ea b6 48 3b 09 8b 96 3d
       0.0068638073 0.18222854 0.0030626603 0.073507376
000220 9b ab 8d 3d d1 8a 24 3e f5 f8 6c be a5 33 85 3e
       0.06917497 0.1606858 -0.23141845 0.26015964
000230 7c 0b 46 be 2e 7f 6c be ff 14 e1 3d 0a 38 12 be
       -0.19340318 -0.2309539 0.10990333 -0.1427919
000240 64 8d d1 bd f0 28 8a bd ba 5c 72 bd 72 c2 20 bd
       -0.10232046 -0.067460895 -0.059170462 -0.039247938
000250 48 7a 86 3e 4e 3c f3 3d 3f 3d 1b 3e 1e dc 96 be
       0.26265168 0.118767366 0.15160082 -0.2946481
000260 e5 bc 87 3c 00 a8 06 be 78 93 e2 bb be d4 80 bd
       0.016569564 -0.13150024 -0.0069145523 -0.06290577
000270 60 f9 be bc 77 51 fe bd f7 a4 ed 3d 2c e3 35 be
       -0.02331227 -0.12417882 0.1160373 -0.1776244
000280 66 97 30 be 48 43 b7 3d 10 2f 17 3e c5 2c 78 bd
       -0.17245254 0.0894838 0.14764047 -0.06058957
000290 cb 80 d9 bd 2e df 7b 3d 09 07 81 bc 9f 02 69 be
       -0.106202684 0.061492138 -0.015750425 -0.22754906
0002a0 e9 3f 60 bd 97 be 0b be 5d eb 0b 3e 67 a0 ea bd
       -0.05474845 -0.13646923 0.13664003 -0.114563756
0002b0 f2 df a3 bd 32 c4 9c bd cf 57 e0 3c 6d 0e 89 3d
       -0.080016986 -0.07654609 0.02738562 0.066922046
0002c0 c3 8b ec bd 9d 9d 59 3e 5d f7 8b be 29 00 d9 bc
       -0.11550095 0.21251531 -0.2733716 -0.026489334
0002d0 ed 1d 77 bd f2 a2 37 3e e7 e6 89 3e fd 3f 64 3e
       -0.060331274 0.17933252 0.26933977 0.22290035
0002e0 19 82 d6 bd 1f 77 6d be d0 25 5c bd 64 9c 6f bd
       -0.10474033 -0.23189972 -0.053747 -0.058498755
0002f0 79 0c 8b bd 11 b1 04 be a8 01 4c be 8c 99 8b bd
       -0.06789488 -0.1295817 -0.19922507 -0.06816396
000300 95 4d 05 3e 41 7c f1 bd 37 2e 69 3d 32 10 b1 3e
       0.13017876 -0.11791278 0.05692884 0.3458267
000310 b2 6e 65 3e 82 89 b2 be 41 7d 56 3d 51 62 5d 3e
       0.22405508 -0.34870535 0.052365545 0.21619536
000320 3d c6 33 be 3a 4b 25 be e4 bc 05 3f 55 5e a2 bd
       -0.1755609 -0.16141978 0.5224135 -0.07928149
000330 c8 9a 8b 3d df 2e 53 be 22 47 12 bd c9 86 99 bc
       0.068166316 -0.20623349 -0.03571237 -0.018741028
000340 c4 d0 53 be a4 a8 14 be 38 d2 d4 3d f5 c0 9d bd
       -0.20685107 -0.14517456 0.103916585 -0.07702819
000350 bb 3d 86 bc 69 dd e3 bd cb 26 8f bc 95 f6 ed 3d
       -0.016386857 -0.11126215 -0.017474553 0.116192974
000360 21 bd ae 3d 76 fc 04 3e 90 09 9d 3d 06 d1 8e be
       0.08532167 0.12986931 0.076678395 -0.27893847
000370 98 18 1a bd a3 19 34 3e aa a5 41 bd bd 6b e0 3d
       -0.03762111 0.17587905 -0.04727713 0.109580494
000380 05 6b a7 3d 5f fd fa 3d d2 4a ac be 0e 4d bf 3d
       0.08174709 0.12255358 -0.33650833 0.09340869
000390 68 c5 d6 bd c3 62 5b bc cc 82 12 3e 23 c9 68 3c
       -0.10486871 -0.013390246 0.14307708 0.014208111
0003a0 aa cc c0 3e 1b 44 82 be b9 ef 07 be 26 71 e1 bd
       0.37656146 -0.25442585 -0.1327504 -0.110079095
0003b0 5a ad 65 3d ef c5 63 3e 77 7b 8f 3e c0 0e e3 bc
       0.056073524 0.22243474 0.28023884 -0.027716994
0003c0 86 ef 24 be 2f f1 df bd 3d 5f 53 3e 84 db bb 3d
       -0.16106996 -0.10934674 0.206418 0.09172729
0003d0 e6 43 8f be 0b e0 6a 3e 2a e7 b1 bc 4c 1e bf bd
       -0.2798149 0.22937028 -0.021716673 -0.093319505
0003e0 90 46 59 3e 02 cc 4c be 90 f3 a3 3d 56 2d 85 be
       0.21218324 -0.19999698 0.0800544 -0.2601115
0003f0 4d b5 a2 3c f6 24 91 bd 48 36 0c 3e 16 88 78 be
       0.019861842 -0.07087128 0.13692582 -0.24270663

conv4.bias f4 [32]
000000 fe 6a d7 be 54 e5 88 be ad 45 e1 bd f5 dc 2a be
       -0.42073816 -0.26737463 -0.10999618 -0.16685851
000010 31 2f 06 bf 0c 9d a4 be eb 2e 84 be 13 60 52 be
       -0.5241576 -0.32151067 -0.25817046 -0.20544462
000020 54 c7 0b be 30 dd 8e be f8 f8 31 be aa a6 95 be
       -0.13650256 -0.27903128 -0.1738013 -0.29228717
000030 7b f0 97 be e3 40 0d be 2a e8 9f be 22 02 ce be
       -0.2967566 -0.13794284 -0.31231815 -0.40236002
000040 ce 63 9a be 53 b7 ab be 86 b7 9e be 8e ee 80 bd
       -0.3015427 -0.33538303 -0.30999392 -0.06295501
000050 11 4f ac bd 0f 86 5b be 8a 77 91 be 2e e0 b1 be
       -0.08413518 -0.21437858 -0.28411514 -0.34741348
000060 dc 14 e3 bd b2 a5 91 be 4b 87 91 be 01 8a 0f bf
       -0.11087963 -0.28446728 -0.28423533 -0.5606995
000070 32 a6 0d be d7 12 c5 bd 95 19 52 be 98 99 db be
       -0.1383293 -0.09622734 -0.20517571 -0.4289062

linear.weight f4 [32, 800]
000000 25 01 2f bd 12 8b 01 3e 39 65 82 bd b1 9f ea bd
       -0.0427257 0.12650707 -0.06366963 -0.1145624
000010 34 01 fe bc 92 d8 a5 be a8 58 73 3d 48 04 a0 bc
       -0.031006433 -0.32391793 0.05941072 -0.019533291
000020 94 bf c6 bc e1 53 2c 3d f4 b0 29 3e 44 df b0 bd
       -0.024261273 0.04207218 0.16571409 -0.086363345
000030 a4 05 aa bd 37 1c f5 bb 0f 4c 43 3e d0 7a 5e 3e
       -0.08301857 -0.00748017 0.19071983 0.21726537
000040 6a 10 37 3e ea b2 7f bd 8c c9 80 bc 98 35 f2 bd
       0.17877355 -0.062426485 -0.015721105 -0.118266284
000050 40 3f ab bd 98 e9 d7 bc 9e b0 74 bd 0e ee 20 bd
       -0.08361673 -0.026356503 -0.059738748 -0.039289527
000060 17 40 1c bd a3 51 66 3e 21 64 9d bd a4 56 7b 3d
       -0.03814706 0.2249208 -0.07685114 0.061361924
000070 1d 09 a8 bd 1c 1b 1a 3d d4 b4 af be d9 f3 20 3d
       -0.08204863 0.03762351 -0.34317648 0.03929505
000080 42 8a 9a bd 89 f5 65 bd 81 40 63 3e 37 5b 43 3e
       -0.07545902 -0.056142364 0.22192575 0.19077764
000090 9e e7 88 3d 86 0c b2 bd 38 66 21 bd c7 23 78 bc
       0.066848025 -0.08693795 -0.039404124 -0.015145249
0000a0 90 67 cb 3d dd f3 b6 be 24 91 2d bd 04 e5 cf bd
       0.09931862 -0.35732928 -0.042374745 -0.10151103
0000b0 34 03 05 3e ec d2 d5 bd 8c d6 d7 3b cb f0 86 3d
       0.12989503 -0.10440621 0.0065868553 0.06588896
0000c0 ab 98 3e 3d 7e eb 06 3d 81 bd 0d be 5c c0 1c bd
       0.046532314 0.032939427 -0.13841821 -0.038269386
0000d0 07 32 f4 3c 07 89 95 bd 11 bd 12 3d e0 82 92 3e
       0.029809011 -0.073015265 0.03582484 0.28615475
0000e0 a8 69 5b 3c 66 4f 37 ba f4 1c f8 3c 34 23 40 bd
       0.01339189 -0.0006992727 0.030287243 -0.046908572
0000f0 bc a2 2a 3d c9 3a 91 3d 0d ad 0b 3c 22 68 d0 bc
       0.0416591 0.070912905 0.008525145 -0.02544028
000100 65 ef 4f bb 95 a7 6e bd 06 12 98 3c 45 d5 43 3d
       -0.0031728384 -0.058265287 0.018563282 0.04781081
000110 86 6c 8c bc f1 34 fc bd ad 4b 8d bd 0e 27 0b bc
       -0.017141592 -0.12314785 -0.068992 -0.008493198
000120 af c0 7f 3c e1 fb 92 bc 26 53 d7 3c 94 ba 7e 3e
       0.015609904 -0.01794237 0.026284765 0.24875861
000130 3e 4b 2c bd 83 51 1f 3e 6f 3b a8 3c c1 ef 5b be
       -0.042063944 0.15558438 0.020536153 -0.21478178
000140 0b a3 48 be 19 e8 7b 3d 62 1c 18 bd 7c f2 cd bd
       -0.19593446 0.061500642 -0.037136443 -0.10056016
000150 95 c0 b0 3d 9d a5 31 3c 89 06 09 bd 5f 29 92 bc
       0.08630482 0.010842708 -0.033453498 -0.017841993
000160 7c ab 9c 3d fa 1e e2 bd 35 3c e8 3d 49 9e 79 bd
       0.076498955 -0.110410646 0.113396086 -0.060941968
000170 ea 57 13 3e 0b 1e 03 3e ff aa c2 3d f1 5e 9d b9
       0.14389005 0.12804429 0.09505271 -0.0003001611
000180 63 12 9f ba 23 b2 12 bc 75 55 ce bc cd 91 1b bd
       -0.0012136217 -0.008953604 -0.025187233 -0.037980843
000190 51 bd a0 be ca 62 7a 3e 60 db fd bc e9 77 99 3d
       -0.31394437 0.24451748 -0.030988395 0.07493574
0001a0 e1 a0 8c 3d 5c 90 8e be 9f 79 a0 3e bd 35 1e 3e
       0.06866623 -0.27844512 0.3134279 0.15450187
0001b0 cd b2 24 3e 71 89 ea 3d 67 30 92 be 0b 38 f8 3e
       0.16083832 0.11451996 -0.28552553 0.48480257
0001c0 a2 72 2a 3e e8 6e c8 3d 7b d3 7b 3e 96 f4 a3 be
       0.16645291 0.09786779 0.24592392 -0.32022542
0001d0 31 4b 9a be a1 82 82 be 65 9b 80 be d4 48 c2 be
       -0.30135491 -0.25490287 -0.25118557 -0.37946188
0001e0 10 f8 ae be 3d 5f cd be 4b ab bb be a0 7c c9 be
       -0.34173632 -0.40111724 -0.36654124 -0.39352894
0001f0 41 e0 d4 be ab c9 31 bd 69 5c 28 bc 75 18 49 3b
       -0.41577342 -0.043405216 -0.010275939 0.0030684744
000200 69 b0 6a bd 99 3a e7 3d a2 a8 45 3d d4 ee 8a 3e
       -0.057297144 0.112904735 0.048256524 0.27135336
000210 aa 2f 90 bc d2 e5 01 bd 0c ca eb bb ad 40 3f bc
       -0.017600853 -0.031713314 -0.0071957167 -0.011673135
000220 cf 59 e7 be eb 32 69 ba 1b 2a 20 3d 3e f1 ce 3d
       -0.45185706 -0.0008895832 0.039102655 0.10104607
000230 56 2e 04 be 22 ed c0 bd db a2 a1 bd 26 dd 27 be
       -0.12908301 -0.094202295 -0.0789239 -0.16392955
000240 d4 c9 dc bd 61 89 3b bb 4f 04 d1 3d 21 ea 86 3d
       -0.10780683 -0.002861582 0.102059 0.06587625
000250 21 83 5f 3d 3b 0e ec 3d 64 b1 12 be 2f 4f e3 3d
       0.054568414 0.11526152 -0.14325482 0.110990874
000260 47 f8 2d be 4c 43 e5 bc a4 2a 44 3e e4 27 6e 3e
       -0.16989242 -0.027986191 0.19156891 0.23257405
000270 92 2e 74 3e 7e 73 1a be e2 a7 01 be 60 b9 14 3e
       0.2384589 -0.1508312 -0.12661698 0.1452384
000280 32 c0 2f be de 9e 06 3e 46 af 68 bd e8 2c ab bd
       -0.1716316 0.1314654 -0.05680778 -0.083581746
000290 df 76 28 be d9 56 66 bc c3 0a e6 3c b4 77 51 bd
       -0.16451596 -0.014058792 0.028081303 -0.05113955
0002a0 7b d2 d8 3d 1a 66 81 bd df e1 19 3e e9 d4 41 39
       0.10587021 -0.063183025 0.15027569 0.0001848523
0002b0 8a df 20 ba 65 c8 58 bd 88 45 02 bd aa 4c 93 3e
       -0.00061368255 -0.052925486 -0.03180459 0.28769428
0002c0 71 70 53 be 41 3b 6d 3d c8 9c 9e bc cc 2a 12 bd
       -0.20648362 0.057917837 -0.019361869 -0.035685346
0002d0 c8 22 56 be ae ce ed 3d 47 1a d8 3c 63 20 be bc
       -0.20911705 0.11611687 0.026379718 -0.023208803
0002e0 21 5e 4a 3d b5 96 09 3d 22 95 e5 bc ed 43 e8 bc
       0.049406175 0.03359099 -0.028025214 -0.028352702
0002f0 c4 0b a2 3c ad 44 16 3e 6e b1 6e bd 05 b2 80 3c
       0.019781 0.14674635 -0.05827468 0.015709886
000300 68 64 b1 3d cd 8c 00 bc 6d ae 50 be 81 26 18 bd
       0.08661729 -0.0078460695 -0.20379038 -0.037146095
000310 5b fb 30 3d 6a 23 75 3c a1 7a 1c 3c 94 f3 3a 3d
       0.04320846 0.014962057 0.009550721 0.04564245
000320 a9 d3 a9 bd 72 32 e2 bc 8e ea 24 bc 66 a5 b0 3d
       -0.08292324 -0.027611945 -0.010065688 0.08625297
000330 4b 34 0a 3d 95 c6 80 3d 99 bb 6c 3d 5a 79 f7 bc
       0.033741277 0.062878765 0.057796095 -0.030209232
000340 b1 b9 0f bd ba 1b 22 3e 09 dd 09 3e 0f b8 0a 3d
       -0.0350892 0.1583089 0.13463224 0.03386694
000350 86 62 5e bd 7a d1 16 bd ce 1e 24 3e b3 05 48 bc
       -0.054293178 -0.036820866 0.16027376 -0.01220839
000360 ef b6 94 bc cb 61 1f 3e 8a 1a ee bd 9c 10 2e be
       -0.018153636 0.15564649 -0.11626156 -0.16998523
000370 39 b3 03 3d 92 88 08 bd 3a c4 3a ba 21 be 1a bd
       0.032153342 -0.03333337 -0.0007124577 -0.037778977
000380 9e 02 9a bb 14 e5 b0 3d 63 3d 23 3e 73 97 de bd
       -0.004700019 0.08637443 0.15941386 -0.108687304
000390 d7 36 1f be 58 a3 a4 3d 7a 3a 54 be fa 82 ea 3c
       -0.15548263 0.08038968 -0.20725432 0.028626908
0003a0 62 24 28 bd 9a b8 23 be b5 32 3f 3d ee c3 aa 3d
       -0.041050322 -0.15988389 0.046679217 0.08338152
0003b0 92 9d 80 3e b9 7a da bc 4c a5 1d bd 95 99 20 3b
       0.25120217 -0.026669847 -0.038487718 0.0024505605
0003c0 e5 eb df 3d a6 6c e4 bd 86 f4 34 bd 33 17 bc 3b
       0.10933665 -0.111535355 -0.04417851 0.0057400702
0003d0 1a f1 c5 3b d3 12 c9 3c d9 9d 27 bc 87 36 f8 bc
       0.0060407044 0.024545109 -0.010230505 -0.030299438
0003e0 55 cb 59 3c 98 fc fd bb 96 55 7b bc 33 15 6b bd
       0.013293107 -0.007751059 -0.0153402295 -0.057393264
0003f0 7a 9c d5 3c f5 d3 02 3c a9 66 dc bc 60 70 7c 3d
       0.02607559 0.007985105 -0.02690442 0.061630607

linear.bias f4 [32]
000000 5e 86 0e 3f f0 de 97 be 09 f8 d1 be bb 58 33 bc
       0.5567378 -0.29662275 -0.41009548 -0.010946448
000010 fa a0 0e bd 66 c4 ad 3d 0a c6 4b be 81 db cd 3d
       -0.034821488 0.08484726 -0.19899765 0.10051633
000020 92 d7 47 bb b3 80 22 bd c5 2a cc bb 08 4f 8a be
       -0.003049348 -0.03967352 -0.0062306845 -0.2701342
000030 fa 7f 83 bd 14 0d 20 3e d4 2b 88 be c5 00 88 3d
       -0.06420894 0.15629989 -0.26595938 0.06640772
000040 60 af 77 bd c1 ab 4b 3e 08 29 29 3d b2 99 14 bf
       -0.060469985 0.19889738 0.041298896 -0.5804702
000050 fd 33 25 3d dd ee b2 3b 98 81 95 3c 8a 68 c0 bd
       0.040332783 0.0054606036 0.018250272 -0.09394939
000060 6a 78 c0 bd 8f 3d 31 3d 10 4b 17 bc c1 71 79 3e
       -0.09397967 0.043271597 -0.009234205 0.243598
000070 5e 3f dc 3c dc 49 e9 3c 7c fa 69 be 65 93 63 bc
       0.026885685 0.028477602 -0.22849458 -0.013890122

critic_linear.weight f4 [1, 32]
000000 a0 10 c9 3d 65 61 d4 3a 18 9a 53 bd cf 9a 12 3b
       0.09817624 0.0016203342 -0.051660627 0.0022370105
000010 8d 9b c9 3b 4d bf b5 ba 9a 23 cc ba 34 90 1f 3b
       0.0061525763 -0.0013866216 -0.0015574575 0.0024347426
000020 3f 96 8e 3a 27 77 70 bb a9 1d b9 3a e0 35 77 bb
       0.0010878517 -0.0036692114 0.0014123219 -0.003772132
000030 8c 33 a6 bb 2b b8 3c bb 7d 95 00 bb f7 e7 31 3b
       -0.005072063 -0.0028796296 -0.0019620352 0.0027146318
000040 8b 72 61 3b 77 ef 3c 3b c0 3e 90 ba f5 c7 1e be
       0.0034400548 0.0028829256 -0.0011005029 -0.15505965
000050 4c 07 14 bb bf 7d 64 3a bd cc b0 3b 37 c7 23 bb
       -0.0022587357 0.00087162474 0.0053955005 -0.0024990567
000060 8f af a5 bb 2c c1 a7 3a 36 42 56 3b e9 77 a2 bb
       -0.0050563286 0.0012798659 0.0032693273 -0.004958142
000070 f2 cf 42 ba 97 dc 18 bb 93 37 ee bb a8 6e 43 bb
       -0.0007431499 -0.0023324841 -0.0072698086 -0.0029820595

actor_linear.weight f4 [6, 32]
000000 e5 54 94 3e 7c 84 71 be 60 f6 cf be ad 98 85 bb
       0.2897102 -0.23585695 -0.40617657 -0.0040770383
000010 32 f6 6f bb 96 6a d0 3d b5 bf 63 bd ab 07 af 3d
       -0.003661525 0.1017658 -0.055602748 0.085463844
000020 d2 6d 6b bc 00 73 11 bd 85 27 bd b9 75 4c e8 bd
       -0.014369445 -0.035510063 -0.00036078334 -0.11342708
000030 25 36 92 3c 22 09 2f 3e f1 de 96 be d0 14 01 3e
       0.017848084 0.17093328 -0.29466966 0.12605596
000040 40 b7 3e be 9c 1c c6 3d 6e f9 57 3d 9a d3 d8 be
       -0.18624592 0.096734256 0.05272811 -0.4234894
000050 48 26 c0 3c c2 d7 74 3b 07 60 23 3d 11 92 e2 3d
       0.023455754 0.0037360047 0.0398865 0.11063016
000060 7f c9 d0 ba 5c 66 b4 3d ac fb 1a 3e 5b 10 73 3e
       -0.0015929191 0.08808586 0.15135068 0.23736708
000070 52 d9 ff 3c fa 02 8a bc 4b 05 0e be cd 94 8b bc
       0.031231556 -0.016847122 -0.13869207 -0.017038727
000080 e5 ed b5 3e 05 e2 82 be 4f 87 b9 be ff aa ff 3c
       0.35533062 -0.25563064 -0.36236045 0.031209467
000090 65 53 02 3b 3b 1e a6 3d 81 54 9d bd 20 52 75 3d
       0.0019886133 0.08111235 -0.076821335 0.059892774
0000a0 21 d6 8e 3c 92 eb 4a bc 8f 6e ae 3c a3 37 f4 bd
       0.017436089 -0.012385266 0.021292953 -0.11924674
0000b0 44 ba e9 3c ef 7c 53 3e d5 da c8 be 4b 2e 0f 3e
       0.028531201 0.20653127 -0.39229456 0.13982503
0000c0 f0 bb 23 be 15 1f ff 3d 13 3b 24 3d 03 41 d7 be
       -0.15989661 0.124571 0.0400954 -0.42041788
0000d0 ca 30 1f 3d b5 95 df bc 67 07 43 3b 33 27 ba 3d
       0.03886489 -0.027293066 0.002975905 0.09089508
0000e0 5b ca b0 3b 96 f6 58 3d 94 87 13 3e a8 30 8a 3e
       0.0053952164 0.052969538 0.14407188 0.26990247
0000f0 c3 72 b8 3c d3 e1 01 bc 60 26 2c be 72 a7 7a bc
       0.02251566 -0.007927376 -0.16811514 -0.015298711
000100 07 93 88 3e 3d 51 67 be ab 4f fa be 7b 00 df 3c
       0.26674673 -0.22589584 -0.48888907 0.027221909
000110 ea f4 90 3c 46 7f a5 3d b4 49 b5 bd f9 27 91 3d
       0.01769491 0.08080916 -0.088519484 0.07087702
000120 f1 32 97 bb 3c 81 53 bd 14 99 92 bc 3f 9c b8 bd
       -0.004614227 -0.05163692 -0.017895259 -0.090141766
000130 dc 24 15 3d e7 60 42 3e 59 78 91 be ca b1 e6 3d
       0.036412105 0.18982278 -0.2841213 0.11264379
000140 44 bb 22 be d8 33 d4 3d 1e 6c 42 3d 0d 17 c1 be
       -0.15891749 0.10361451 0.04746639 -0.377129
000150 69 d2 9d 3c c0 4b 26 bd 4f 75 b1 3b 1e 1f 37 3d
       0.01926537 -0.040599585 0.0054155956 0.04470741
000160 03 e0 c0 bc 80 e3 65 3d 2f 39 19 3e f1 d0 2e 3e
       -0.023544317 0.056125164 0.1496322 0.17071892
000170 ee 3f d0 3c fb df 71 bc 07 d8 1b be 96 db 1e 3b
       0.025421109 -0.014762874 -0.15219127 0.002423977
000180 0c 26 ca 3e 7e 23 70 be 07 3f de be 92 16 f1 3c
       0.39482152 -0.23451039 -0.4340746 0.029429708
000190 a2 a2 79 bc 97 0f dd 3d 43 9e bd bd bb b8 20 3d
       -0.015236529 0.10793989 -0.09258702 0.039238673
0001a0 9f c4 e7 3c 24 08 48 bd 95 b6 83 3b f0 c2 00 be
       0.028291998 -0.04883589 0.004019568 -0.12574363
0001b0 ad 92 b2 3c 11 fa 12 3e 07 8c 63 be ed 15 fd 3d
       0.021798456 0.14353205 -0.22221385 0.12357698
0001c0 6a 72 23 be 94 05 d8 3d bd c1 1c 3d 55 e9 99 be
       -0.15961614 0.10547939 0.0382707 -0.3006083
0001d0 c2 56 84 3c 55 38 38 ba 5a b8 ed 3b 03 d7 44 3e
       0.01615465 -0.0007027437 0.0072546424 0.19222645
0001e0 b8 af e7 3c 6a 35 d1 3d 95 89 1e 3e a0 09 ab 3e
       0.028282031 0.10215266 0.15482171 0.3340578
0001f0 c2 e2 e1 3c ea 2f 37 bc fe 73 01 be e4 aa e3 b8
       0.027573947 -0.011180857 -0.12641904 -0.00010856034
000200 35 98 c8 3e b5 b8 79 be 47 d6 db be 25 6b c0 3c
       0.39178625 -0.24386866 -0.42936918 0.02348859
000210 76 f4 c1 bc b1 75 9e 3d fd 15 c2 bd 89 69 53 3d
       -0.023676138 0.077372916 -0.0947685 0.051614318
000220 ce 17 f8 3c 4e c8 14 bd 62 f2 52 bc f8 67 0f be
       0.030284788 -0.036323838 -0.012875171 -0.14004505
000230 7a 1f 50 bc db 79 39 3e e9 76 9a be 5f 5f 0f 3e
       -0.012702817 0.1811289 -0.30168846 0.14001225
000240 71 b2 41 be 66 cb c1 3d 23 24 71 3d b4 39 be be
       -0.18915726 0.09462623 0.058872353 -0.371534
000250 17 bd 8e 3d e7 f0 07 bd 80 8c 04 3b dc 69 8b bc
       0.0696966 -0.033188727 0.0020225346 -0.017018251
000260 04 7b c3 bc 63 4e aa 3d 17 ca 15 3e a0 09 fa 3d
       -0.02386237 0.08315732 0.14627872 0.12208867
000270 06 4e 40 3d e8 fc f4 bc 38 b4 33 be b8 76 19 bc
       0.04694941 -0.029905751 -0.17549217 -0.009366684
000280 25 19 d4 3e 67 cd 5d be aa 25 9e be 52 df b5 3c
       0.41425434 -0.21660386 -0.3088811 0.022201214
000290 3b 49 f4 bc 46 2c d2 3d 75 f9 cc bd 22 e1 87 3d
       -0.029820075 0.10262351 -0.10008518 0.066347376
0002a0 e3 c4 1e 3c 03 c2 35 ba 73 f2 54 bc 9a f7 14 be
       0.009690496 -0.0006933512 -0.0129972575 -0.14547578
0002b0 d6 dc c8 3c 62 d8 3a 3e 63 73 62 be aa 2e 0f 3e
       0.024519365 0.18246606 -0.22114329 0.13982645
0002c0 d5 d4 45 be d4 df 09 3e 87 47 57 3d ab 71 c3 be
       -0.1931947 0.1346429 0.05255845 -0.3817266
0002d0 60 67 28 3d af 48 eb bc c9 f0 10 bc 09 87 e2 3d
       0.04111421 -0.028721182 -0.00884647 0.11060912
0002e0 42 14 42 3b 95 9b 99 3d b2 d3 1c 3e f0 b9 b5 3e
       0.0029614125 0.07500378 0.1531513 0.35493422
0002f0 e7 3b c3 3c 43 fa dc bc 16 00 1d be 01 5e fe bb
       0.023832275 -0.026974803 -0.15332064 -0.007762671

actor_linear.bias f4 [6]
000000 9d b6 41 3d a1 5b bc 3e 73 8a 85 3e b4 ef 50 3e
       0.047293294 0.36788657 0.2608219 0.2040394
000010 3c 58 82 3e 9b c4 89 3e
       0.25457942 0.2690781
