spaceinvaders-v0-bottom-7fskip_latent32/model.48.tar (torch, 223035 bytes, 13 tensors)

conv1.weight f4 [32, 4, 3, 3]
0.009043021 -0.0870237 0.0042861593 -0.052411295 -0.34111917 0.06139196 0.11170551 0.10011936
0.027342858 -0.06642787 0.15503709 0.034315027 -0.027931726 0.05199691 -0.06347697 0.06468961
0.11345832 0.003671032 0.03808531 0.12333565 -0.056642514 -0.080736615 -0.011409687 -0.11568203
0.11214195 -0.0046007647 0.13945395 0.15648742 -0.30025554 0.047826115 0.074782364 0.317044
0.13993865 -0.33149317 -0.1381788 -0.19944465 0.013328287 -0.09186614 0.13662238 -0.06516891
0.12750447 0.0012943771 0.20685916 -0.07265621 -0.15485263 0.013202388 -0.067574956 -0.06768618
-0.052101243 0.054024547 -0.13278392 -0.037804056 0.08300728 0.06611688 -0.008986361 0.17731458
-0.05113796 -0.12072887 0.0857917 0.084458224 0.005155192 0.037186716 0.065443866 0.36665818
-0.28760657 -0.14833693 0.06203142 -0.18777324 -0.028355468 -0.33501577 0.25752455 -0.062663026
0.09176414 -0.015295664 0.22335328 -0.06953131 0.07609526 0.15918522 -0.24552792 -0.064636655
-0.09289531 -0.1426421 0.022665653 0.023889577 0.014512613 -0.11101744 -0.09963893 0.07629945
-0.102879666 0.19672339 0.08593799 -0.07762546 0.19418654 0.045641903 -0.124595195 -0.035338067
0.13569914 0.077144854 -0.14632964 -0.08618527 0.15907793 -0.1290103 0.08452653 -0.06746624
-0.27686548 -0.07908089 0.28953698 0.014499554 0.17925735 0.11943893 -0.021433525 0.13486423
0.25972357 -0.060412835 0.12152182 0.35819885 0.101209044 0.06985262 -0.20170517 -0.1424003
-0.11887075 -0.035031017 0.14423688 -0.017590793 0.06043684 -0.14079612 -0.047202848 -0.04165242
0.13286278 0.159406 -0.215065 0.044364326 0.16451779 0.101668335 0.085905045 0.086638466
0.039006516 0.17859042 -0.19450308 -0.573896 -0.20138495 -0.035116307 -0.23611924 0.014665609
-0.105736434 -0.11007926 0.16542144 0.074470185 0.103581704 0.00017610278 -0.015806517 0.3315207
-0.077560425 -0.091755174 -0.13158335 -0.15868165 -0.1361256 -0.0692051 0.00259159 -0.0568715
-0.0648033 0.0076040523 -0.08019271 0.14051244 -0.085890464 -0.043113634 -0.18102027 -0.13815892
-0.11386709 -0.17966297 -0.12115813 0.21450226 0.11181185 -0.08892092 0.17810012 0.25803253
0.20537305 0.02446759 -0.1609718 0.27813858 -0.14051685 -0.15894097 -0.19797261 -0.15874562
-0.37040266 0.006832058 -0.2479968 -0.35157073 -0.15697289 -0.046354648 0.043054745 -0.048224755
-0.13941897 -0.051203217 0.058944102 -0.13625546 0.058111537 0.053158436 0.18872364 -0.07040191
0.08443868 -0.16259092 0.1300955 -0.09171788 0.118909165 0.08012246 -0.071430884 0.17619437
0.2849452 0.2516164 0.017605029 0.16121343 -0.07870939 0.23284681 0.36021367 0.2668858
0.2887472 0.008860767 0.0040102783 0.27748364 0.07276495 0.2272943 -0.25639257 -0.32808328
0.035273764 -0.021094479 -0.039113462 0.18841408 0.1534659 0.11593616 0.010937194 -0.13991307
0.049422152 -0.07096964 0.011749815 -0.088566236 0.01856379 0.14228871 0.06623298 -0.029111264
-0.13077329 0.04118963 0.07040423 -0.10371534 -0.35575706 -0.09543401 -0.16012508 -0.31854677
-0.13798755 0.2466012 0.36633325 0.02004039 -0.044795558 -0.038699802 -0.083000116 -0.3413872
00000000: 2e29 143c 7b39 b2bd e972 8c3b 3aad 56bd
00000010: 2ca7 aebe 2376 7b3d dcc5 e43d 610b cd3d
00000020: 21fe df3c 560b 88bd 0bc2 1e3e ea8d 0c3d
00000030: 13d1 e4bc b6fa 543d 3700 82bd fc7b 843d
00000040: d65c e83d b295 703b 58ff 1b3d 6797 fc3d
00000050: fb01 68bd 3d59 a5bd b2ef 3abc b3ea ecbd
00000060: aeaa e53d 03c2 96bb 04cd 0e3e 3d3e 203e
00000070: 18bb 99be 51e5 433d 7f27 993d 9753 a23e
00000080: 144c 0f3e 79b9 a9be be7e 0dbe 383b 4cbe
00000090: e35e 5a3c 5124 bcbd bde6 0b3e 4777 85bd
000000a0: 8890 023e 17a8 a93a e3d2 533e c7cc 94bd
000000b0: b091 1ebe d44e 583c bd64 8abd 0d9f 8abd
000000c0: 1d68 55bd d848 5d3d 82f8 07be 6dd8 1abd
000000d0: b9ff a93d 4968 873d 883b 13bc f491 353e
000000e0: 0a76 51bd b340 f7bd 8fb3 af3d 6ff8 ac3d
000000f0: e3ec a83b 1951 183d 6f07 863d 9fba bb3e
00000100: 2b41 93be a3e5 17be a914 7e3d a147 40be
00000110: ba49 e8bc 3087 abbe 42da 833e 7955 80bd
00000120: d6ee bb3d aa9a 7abc b9b6 643e 6e66 8ebd
00000130: d5d7 9b3d 7301 233e ac6b 7bbe 3960 84bd
00000140: e53f bebd c510 12be 52ad b93c 13b4 c33c
00000150: 50c6 6d3c 1d5d e3bd 7f0f ccbd e342 9c3d
00000160: 93b2 d2bd db71 493e 4200 b03d 19fa 9ebd
00000170: d6d8 463e 01f3 3a3d c42b ffbd a6be 10bd
00000180: b7f4 0a3e 1ffe 9d3d 70d7 15be e781 b0bd
00000190: 53e5 223e 471b 04be 3f1c ad3d bd2b 8abd
000001a0: 50c1 8dbe 29f5 a1bd 313e 943e 8a8f 6d3c
000001b0: 3d8f 373e 669c f43d 5c95 afbc d919 0a3e
000001c0: 7dfa 843e 7373 77bd 6fe0 f83d d765 b73e
000001d0: b046 cf3d e40e 8f3d cd8b 4ebe 62d1 11be
000001e0: 8272 f3bd af7c 0fbd d5b2 133e 911a 90bc
000001f0: 9f8c 773d dc2c 10be c657 41bd ba9b 2abd
00000200: 2e0d 083e 543b 233e 003a 5cbe 5eb7 353d
00000210: 5a77 283e 7d37 d03d fcee af3d 826f b13d
00000220: 4cc5 1f3d 68e0 363e d12b 47be d9ea 12bf
00000230: db37 4ebe 1ed6 0fbd 3ec9 71be 0648 703c
00000240: 588c d8bd 3c71 e1bd 3d64 293e d383 983d
00000250: a522 d43d 3ba8 3839 ab7c 81bc 15bd a93e
00000260: 00d8 9ebd 23ea bbbd c9bd 06be 717d 22be
00000270: 8264 0bbe 67bb 8dbd aad7 293b 17f2 68bd
00000280: 98b7 84bd 6a2b f93b 133c a4bd 7ee2 0f3e
00000290: 57e7 afbd ec97 30bd 615d 39be 8879 0dbe
000002a0: 2633 e9bd 92f9 37be c121 f8bd 7ba6 5b3e
000002b0: 9cfd e43d 2c1c b6bd e15f 363e d71c 843e
000002c0: 504d 523e 4170 c83c cbd5 24be 2e68 8e3e
000002d0: a6e3 0fbe 6cc1 22be 55b9 4abe 368e 22be
000002e0: 6ba5 bdbe 75df df3b e0f2 7dbe 1401 b4be
000002f0: 80bd 20be 5fde 3dbd 2c5a 303d 5287 45bd
00000300: d9c3 0ebe 77ba 51bd 5f6f 713d 8d86 0bbe
00000310: 5d06 6e3d a9bc 593d c540 413e e02e 90bd
00000320: 30ee ac3d 3c7e 26be c137 053e 95d6 bbbd
00000330: a686 f33d 3f17 a43d 5b4a 92bd 4c6c 343e
00000340: 56e4 913e ddd3 803e 6c38 903c 2215 253e
00000350: 6332 a1bd 656f 6e3e ed6d b83e 41a5 883e
00000360: acd6 933e c02c 113c a768 833b 5612 8e3e
00000370: ca05 953d d6bf 683e e345 83be 88fa a7be
00000380: 397b 103d 54ce acbc 7035 20bd 9fef 403e
00000390: 2a26 1d3e f06f ed3d eb31 333c 5f45 0fbe
000003a0: e26e 4a3d 8858 91bd 4c82 403c 3762 b5bd
000003b0: 1713 983c 22b4 113e 28a5 873d bf7a eebc
000003c0: 6fe9 05be 75b6 283d 1830 903d b568 d4bd
000003d0: ca25 b6be e872 c3bd d4f7 23be 9018 a3be
000003e0: 9c4c 0dbe 0685 7c3e 0890 bb3e be2b a43c
000003f0: 8c7b 37bd af83 1ebd f7fb a9bd 4eca aebe

conv1.bias f4 [32]
0.002086799 0.005119408 0.0046651866 -0.0092892675 -0.0024512832 -0.0013092026 -0.0069025406 -0.00018842833
-0.0073853554 0.0053800694 0.005794365 0.0010991009 0.003701273 -0.00038970067 -0.0010486438 0.092796855
0.0046267067 0.0003728092 0.064835496 -0.0043524844 0.00040351768 0.00017258253 0.00061718497 -0.0059113437
-0.005894892 0.0053284825 -0.0064545944 -0.004253026 -0.0059739966 -0.010462942 -0.0027942415 -0.012522431
00000000: adc2 083b b5c0 a73b 6cde 983b 0332 18bc
00000010: b5a5 20bb 8d99 abba b52e e2bb d894 45b9
00000020: da00 f2bb 4b4b b03b a8de bd3b b50f 903a
00000030: 0e91 723b bd50 ccb9 a672 89ba 470c be3d
00000040: a19b 973b 9b75 c339 79c8 843d 499f 8ebb
00000050: 3a8f d339 45f7 3439 95ca 213a f2b3 c1bb
00000060: f029 c1bb 8d9a ae3b 1081 d3bb f85c 8bbb
00000070: 84c1 c3bb c26c 2bbc 981f 37bb e22a 4dbc

conv2.weight f4 [32, 32, 3, 3]
-0.12606868 -0.09342964 0.18403308 0.22278446 0.36984897 -0.045765735 -0.12587465 -0.1765321
0.08654598 0.08156685 -0.24765323 0.01736965 0.12954633 0.23064356 0.0379065 0.08968358
-0.13037062 0.013672366 0.052414678 -0.13789055 -0.09265663 -0.038872752 -0.05259695 0.09362129
-0.04179639 0.06884113 -0.0150949685 -0.013605145 -0.12380365 -0.004395965 -0.1601737 -0.2857407
0.06943133 -0.08048387 0.06288709 0.030229602 -0.009856374 -0.00038314014 0.11442454 0.17442857
0.21129185 -0.054848906 -0.0034600166 -0.21517129 -0.03362204 0.16765173 -0.061174333 -0.25055254
0.037966855 -0.084848374 -0.1008739 0.03301432 0.0414268 0.109237716 0.12723757 0.047201376
-0.20504114 -0.18482435 0.009489141 0.068895824 -0.024420915 -0.05695827 -0.2354074 -0.13912395
-0.07243693 0.02376483 0.21213633 0.17741139 -0.14310639 -0.055017613 -0.02409552 0.20035253
-0.0996607 0.19438149 0.14575225 0.096267365 0.09575064 0.009082668 -0.26742232 -0.18953317
0.042605795 0.09995217 -0.042790987 -0.030361013 0.027583221 0.14767118 -0.06669533 -0.04669574
0.20238656 0.050480764 -0.08011257 -0.021450253 0.037493765 0.24049951 0.44913825 -0.17996746
0.07080268 -0.055891164 -0.08666948 0.11410159 0.025504176 0.008203616 0.13113484 0.021013146
0.05733072 -0.10129332 -0.15431362 -0.25916764 -0.10739226 0.0018613089 0.06535031 0.29780585
0.16913234 -0.09857649 -0.029510848 -0.29362234 -0.009009609 -0.07719346 0.0564679 0.30064014
0.13911818 0.018202381 -0.03962866 0.13440493 -0.26336262 0.079161175 0.09479923 -0.07123944
-0.14919731 0.12876396 -0.06543919 0.07513207 0.015761819 -0.1430208 -0.07797343 -0.028186837
-0.07039715 -0.07853397 0.011034046 0.14759599 0.1681801 -0.011373183 -0.05689936 -0.07273859
-0.06152761 -0.109662816 -0.088169664 0.08741702 -0.036657598 -0.114207655 0.12229389 0.038001824
0.13695905 -0.14130169 0.03777008 0.0009457391 -0.007978311 0.11738813 -0.04621619 0.18381673
-0.062232047 -0.06900161 -0.009514351 -0.057976723 -0.047128763 0.016047526 0.113409236 0.17004111
-0.06693279 -0.08462771 0.0066939946 0.1141426 -0.04301259 -0.0122508565 0.010575459 -0.08295922
-0.012099092 -0.10899722 -0.2034215 -0.019660551 0.06353515 -0.16974974 0.10979207 0.06961026
0.13408957 -0.07592037 0.13872978 -0.053665638 -0.043004062 0.19328807 -0.0009075066 -0.05373562
-0.12720041 -0.08966352 0.03678949 0.107668646 -0.07750853 -0.0070169386 -0.052796207 0.068219036
0.08153115 0.11021313 0.058921684 -0.088400796 -0.06932987 -0.08319494 0.018041542 -0.10915578
0.03609676 0.16432302 -0.14713587 0.026895516 -0.017465452 0.01650295 0.19766259 -0.102025546
0.09823628 0.05065077 0.04785855 -0.01447957 -0.1107421 -0.13138524 0.0522839 -0.22027239
-0.088314645 0.11494298 0.02626149 0.03804823 0.052637767 -0.031471442 -0.08037257 -0.18806928
-0.009252337 0.016888129 -0.059543606 -0.18625362 -0.025627058 0.12326901 0.073606946 -0.2621322
-0.15084922 0.22427608 0.039999787 0.19957344 -0.24229877 -0.10615498 -0.04283443 -0.24482788
-0.031172609 0.076468304 0.15264684 0.1874904 0.17457044 0.26325396 -0.17547268 -0.3617413
00000000: 2618 01be 0a58 bfbd 2b73 3c3e 9c21 643e
00000010: d85c bd3e da74 3bbd 49e5 00be d5c4 34be
00000020: 053f b13d 850c a73d cf98 7dbe cc4a 8e3c
00000030: cba7 043e d32d 6c3e d943 1b3d 06ac b73d
00000040: e07f 05be 0f02 603c c6b0 563d 2e33 0dbe
00000050: c2c2 bdbd 0939 1fbd e66f 57bd 85bc bf3d
00000060: b132 2bbd 94fc 8c3d e350 77bc 1de8 5ebc
00000070: c58c fdbd 070c 90bb 9304 24be 9b4c 92be
00000080: 0332 8e3d bad4 a4bd f2ca 803d 12a4 f73c
00000090: a17c 21bc 33e0 c8b9 6a57 ea3d 679d 323e
000000a0: e45c 583e 3fa9 60bd 72c1 62bb dd55 5cbe
000000b0: 44b7 09bd e5ac 2b3e f091 7abd 6c48 80be
000000c0: 2283 1b3d fcc4 adbd fa96 cebd 063a 073d
000000d0: 26af 293d 06b8 df3d 914a 023e 3b56 413d
000000e0: 4ef6 51be 9842 3dbe 5878 1b3c 4119 8d3d
000000f0: 5f0e c8bc 134d 69bd a30e 71be 8276 0ebe
00000100: d059 94bd 76ae c23c 443a 593e 55ab 353e
00000110: 7b8a 12be 265a 61bd f863 c5bc 3729 4d3e
00000120: e91a ccbd f10b 473e 1440 153e d327 c53d
00000130: e918 c43d 79cf 143c 94eb 88be fc14 42be
00000140: 6a83 2e3d b9b3 cc3d 9a45 2fbd a9b7 f8bc
00000150: 35f6 e13c 1d37 173e 9097 88bd 0844 3fbd
00000160: 6c3e 4f3e ebc4 4e3d 0f12 a4bd 71b8 afbc
00000170: 1093 193d 8145 763e 73f5 e53e 6449 38be
00000180: ff00 913d 22ee 64bd c57f b1bd 18ae e93d
00000190: 22ee d03c 7668 063c 3648 063e c323 ac3c
000001a0: 9ed3 6a3d df72 cfbd 6404 1ebe 9fb1 84be
000001b0: 79f0 dbbd 2af7 f33a 62d6 853d 027a 983e
000001c0: 0731 2d3e 79e2 c9bd bcc0 f1bc ab55 96be
000001d0: 0a9d 13bc 9b17 9ebd e24a 673d 81ed 993e
000001e0: ff74 0e3e 291d 953c a951 22bd 72a1 093e
000001f0: 77d7 86be 411f a23d 1926 c23d fce5 91bd
00000200: 2ec7 18be b3da 033e fb04 86bd d8de 993d
00000210: ee1e 813c 0b74 12be 89b0 9fbd 15e8 e6bc
00000220: 622c 90bd 6bd6 a0bd 25c8 343c 6723 173e
00000230: 6737 2c3e 9656 3abc 4e0f 69bd f8f7 94bd
00000240: 6004 7cbd e696 e0bd 4c92 b4bd b207 b33d
00000250: 4726 16bd b4e5 e9bd 3875 fa3d cda7 1b3d
00000260: fe3e 0c3e 64b1 10be cdb4 1a3d 7aeb 773a
00000270: 76b7 02bc 3069 f03d 304d 3dbd 743a 3c3e
00000280: 08e7 7ebd b750 8dbd 15e2 1bbc 0079 6dbd
00000290: 170a 41bd 1a76 833c 1a43 e83d 421f 2e3e
000002a0: 0f14 89bd 4b51 adbd 4c59 db3b 98c3 e93d
000002b0: f82d 30bd d1b7 48bc b144 2d3c 86e6 a9bd
000002c0: 453b 46bc ef39 dfbd ba4d 50be 2a0f a1bc
000002d0: b71e 823d e0d2 2dbe aada e03d d38f 8e3d
000002e0: c74e 093e 247c 9bbd 2e0f 0e3e 80d0 5bbd
000002f0: 0725 30bd 4fed 453e bde5 6dba e219 5cbd
00000300: d340 02be 82a1 b7bd 94b0 163d 6181 dc3d
00000310: cbbc 9ebd 59ee e5bb d640 58bd 6cb6 8b3d
00000320: cef9 a63d 6cb7 e13d dd57 713d 7a0b b5bd
00000330: d2fc 8dbd 1c62 aabd dbcb 933c 118d dfbd
00000340: 32da 133d 4b44 283e c9aa 16be fc53 dc3c
00000350: b513 8fbc 3231 873c 1068 4a3e c5f2 d0bd
00000360: 1a30 c93d 2f77 4f3d 5407 443d b83b 6dbc
00000370: c1cc e2bd da89 06be a527 563d 168f 61be
00000380: 4fde b4bd 3a67 eb3d 5622 d73c 76d8 1b3d
00000390: b39a 573d 33e8 00bd 609a a4bd 3c95 40be
000003a0: 1d97 17bc f958 8a3c ffe3 73bd 45b9 3ebe
000003b0: d6ef d1bc 7674 fc3d 3dbf 963d 3136 86be
000003c0: 3878 1abe a1a8 653e d1d6 233d fb5c 4c3e
000003d0: 2b1d 78be c867 d9bd 2873 2fbd 29b4 7abe
000003e0: b35d ffbc 6a9b 9c3d 744f 1c3e 7cfd 3f3e
000003f0: 98c2 323e 39c9 863e 1caf 33be 2836 b9be

conv2.bias f4 [32]
-0.012887025 -0.015558748 -0.015957376 -0.019553265 -0.031619832 -0.006986981 -0.004018164 -0.0020423764
-0.00712609 -0.013646166 -0.021550894 -0.013756477 0.0115293 -0.0031684171 -0.00308262 0.008600252
0.0011761924 0.002425581 0.006767583 -0.0018231032 -0.008263281 -0.0044140937 -0.003541271 0.0041599674
0.006328168 0.006762055 0.0011788433 -0.022129526 -0.0010908461 0.009405029 0.0037879755 0.0018298057
00000000: 1a24 53bc 1eea 7ebc 0bb9 82bc 2b2e a0bc
00000010: cc83 01bd 0bf3 e4bb cdaa 83bb 64d9 05bb
00000020: fa81 e9bb 2b94 5fbc 808b b0bc d962 61bc
00000030: 64e5 3c3c 38a5 4fbb c805 4abb 12e8 0c3c
00000040: 782a 9a3a 7ff6 1e3b 9ac2 dd3b 31f5 eeba
00000050: b662 07bc 1aa4 90bb ab14 68bb 5650 883b
00000060: 855c cf3b 3b94 dd3b 6b83 9a3a fb48 b5bc
00000070: b9fa 8eba 8d17 1a3c af3f 783b 17d6 ef3a

conv3.weight f4 [32, 32, 3, 3]
-0.05484061 -0.056854986 -0.020723209 0.14143465 0.09958893 0.15412575 0.11653078 0.05411032
0.026327446 0.20009024 0.0012735887 -0.094085224 -0.1996501 -0.06598854 0.084734805 0.17590745
-0.014888143 -0.102058016 -0.07972872 -0.08400129 -0.008088371 0.1224849 -0.04745849 -0.060778983
0.05027781 0.10538465 -0.01479207 0.023706831 -0.041643407 -0.14161633 -0.015723946 -0.00638407
-0.19326045 0.13648945 -0.0024230701 -0.050873898 -0.020171905 0.061332777 -0.20387737 0.007978387
-0.013179369 -0.060989987 0.15567745 0.11286319 -0.04181657 -0.04114048 -0.025862733 0.06780276
0.11321604 0.094699204 -0.11008893 -0.15011047 -0.029485637 0.025427407 -0.09373688 -0.052224115
-0.12418899 0.07396204 -0.029885713 0.09169299 -0.058521107 -0.0018099514 0.0667063 -0.10220661
-0.20024821 0.046677046 0.23776416 -0.1658354 -0.062462885 -0.13433714 0.018554399 0.15856276
-0.00097411126 -0.09630118 -0.028978508 0.035153236 -0.072801106 -0.024829794 -0.009606929 0.049645405
-0.09865829 0.108169846 0.009902286 -0.15524802 -0.059795942 0.012392418 -0.04669339 0.06450255
-0.06667472 0.029325947 -0.04840784 -0.03378807 -0.018414926 0.23179257 0.05882434 -0.047889862
-0.011434055 -0.20063138 0.023529587 0.06888832 -0.0031687166 -0.06558398 0.16070127 0.109640606
-0.058771916 -0.010126576 0.11528099 -0.052381463 -0.01229379 0.078142524 0.02014758 -0.12796861
-0.029895153 -0.04478085 -0.02887256 0.09031937 -0.0620402 -0.031682983 -0.0022312275 0.11109007
-0.07404433 0.008741471 -0.09654637 0.044064716 -0.058002003 0.20354027 0.07952461 0.12220955
-0.17599629 0.025182735 0.17171296 0.0015448441 0.09141916 0.13627882 0.040660337 0.0157818
0.01688401 -0.08124558 -0.13549906 -0.14570935 0.112301275 0.14086312 -0.0130919395 -0.111932166
0.0021265657 0.0035862746 0.104668595 -0.15081228 -0.09863336 -0.13847943 0.10889198 0.10339097
-0.18084413 -0.12126496 -0.01853037 0.11360186 -0.040117264 -0.004893703 0.04651626 -0.03485507
0.057828408 -0.06139241 -0.029078001 -0.09651468 0.032057296 0.12913264 -0.13409236 -0.06590054
0.01115733 -0.0094383685 -0.052373234 0.019335961 0.067162946 0.115901545 0.07269215 -0.12563868
-0.019149687 -0.1619277 -0.05862317 0.022577045 -0.04697108 -0.1533274 -0.105324015 -0.07450555
0.124066405 0.0065683564 -0.07764395 -0.053303264 -0.010585193 -0.01339927 0.0050424067 -0.0066219424
-0.044012673 -0.25589928 -0.056937173 -0.024374904 0.0032797665 0.044382587 0.0148454085 -0.026096025
-0.14241137 -0.06619734 0.047504004 0.058649376 -0.02502477 -0.0012152545 -0.08802488 0.031207114
-0.0028495486 -0.23714022 0.15796305 -0.14324792 -0.0368391 -0.007234555 -0.100803174 -0.07625443
-0.12710129 0.09240062 0.20091446 0.041239083 0.0103291385 -0.016599199 -0.056850344 -0.09085497
0.2680423 -0.01990323 -0.027367532 0.05265531 -0.1725358 -0.1560516 0.06424578 0.04333303
-0.01790588 -0.1240565 -0.17740163 0.16196431 0.12851997 0.08714314 -0.0010327919 -0.025197145
-0.016118184 0.009254273 0.021923153 0.036175422 -0.06564434 0.08619474 0.10103538 -0.076083556
-0.130037 0.004274018 -0.1516744 0.0072604935 -0.08914429 -0.07532597 0.26419586 -0.062179174
00000000: 8ca0 60bd c6e0 68bd b8c3 a9bc 3fd4 103e
00000010: 48f5 cb3d 24d3 1d3e b1a7 ee3d c8a2 5d3d
00000020: a8ac d73c 75e4 4c3e 8cee a63a c1af c0bd
00000030: 1371 4cbe 0025 87bd 7189 ad3d 1521 343e
00000040: 66ed 73bc cb03 d1bd d048 a3bd de08 acbd
00000050: 1685 04bc 5dd9 fa3d d563 42bd 62f3 78bd
00000060: 1bf0 4d3d e8d3 d73d 705a 72bc d434 c23c
00000070: 4792 2abd df03 11be 81cf 80bc 7631 d1bb
00000080: 11e6 45be e4c3 0b3e 5fcc 1ebb 2661 50bd
00000090: 8d3f a5bc 1438 7b3d 3bc5 50be c8b7 023c
000000a0: 48ee 57bc a3d0 79bd e969 1f3e d124 e73d
000000b0: da47 2bbd ec82 28bd 15de d3bc 2cdc 8a3d
000000c0: d0dd e73d a8f1 c13d 4e76 e1bd 8fb6 19be
000000d0: dd8b f1bc 234d d03c 1ff9 bfbd f4e8 55bd
000000e0: cc56 febd 6979 973d e2d2 f4bc 89c9 bb3d
000000f0: d4b3 6fbd e43b edba 509d 883d b351 d1bd
00000100: de0d 4dbe 6e30 3f3d 7378 733e c1d0 29be
00000110: 15d9 7fbd ad8f 09be 65ff 973c 475e 223e
00000120: 805b 7fba 8e39 c5bd 5664 edbc d7fc 0f3d
00000130: bf18 95bd da67 cbbc 6166 1dbc fb58 4b3d
00000140: 5c0d cabd 2788 dd3d 333d 223c 56f9 1ebe
00000150: 97ec 74bd 9209 4b3c 9141 3fbd ea19 843d
00000160: c18c 88bd f83c f03c 4d47 46bd 5c65 0abd
00000170: e6da 96bc 085b 6d3e cbf1 703d 2928 44bd
00000180: e755 3bbc 5072 4dbe 1fc1 c03c 5215 8d3d
00000190: 3eaa 4fbb e550 86bd e08e 243e 418b e03d
000001a0: d2ba 70bd f0e9 25bc 7118 ec3d f28d 56bd
000001b0: e46b 49bc 3009 a03d 8a0c a53c 340a 03be
000001c0: aee6 f4bc 206c 37bd 2686 ecbc 5df9 b83d
000001d0: dd1d 7ebd 04c6 01bd c939 12bb 3183 e33d
000001e0: 8ea4 97bd 6338 0f3c 1aba c5bd 347d 343d
000001f0: 8293 6dbd dc6c 503e ccdd a23d 0049 fa3d
00000200: 5f38 34be 064c ce3c 86d5 2f3e 5e7c ca3a
00000210: f839 bb3d ad8c 0b3e 748b 263d d548 813c
00000220: 5650 8a3c 1564 a6bd 44c0 0abe d534 15be
00000230: 36fe e53d 6c3e 103e 937f 56bc b13c e5bd
00000240: da5d 0b3b b407 6b3b 7d5c d63d 896e 1abe
00000250: 4900 cabd 8dcd 0dbe c202 df3d a5be d33d
00000260: 342f 39be c359 f8bd 01cd 97bc 18a8 e83d
00000270: 0052 24bd 5b5b a0bb d587 3e3d 31c4 0ebd
00000280: 7bdd 6c3d 9c76 7bbd fd34 eebc 7da9 c5bd
00000290: 834e 033d 593b 043e 824f 09be ddf6 86bd
000002a0: 3ccd 363c 63a3 1abc 5185 56bd 7366 9e3c
000002b0: ba8c 893d ca5d ed3d 9fdf 943d 6da7 00be
000002c0: cedf 9cbc 60d0 25be d91e 70bd 7ff3 b83c
000002d0: bf64 40bd dc01 1dbe 1eb4 d7bd 5e96 98bd
000002e0: 8716 fe3d 5e3b d73b cb03 9fbd 8654 5abd
000002f0: 846d 2dbc 9d88 5bbc c63a a53b e1fc d8bb
00000300: a246 34bd 3b05 83be f436 69bd e1ad c7bc
00000310: 5af1 563b 84ca 353d 283a 733c 55c7 d5bc
00000320: 49d4 11be 7992 87bd 8f93 423d 543a 703d
00000330: bf00 cdbc 2d49 9fba 6346 b4bd 10a6 ff3c
00000340: 7ebf 3abb e3d4 72be 11c1 213e 95af 12be
00000350: 99e4 16bd d90f edbb e571 cebd 482b 9cbd
00000360: d726 02be 893c bd3d 85bc 4d3e 50ea 283d
00000370: 8c3b 293c 0bfb 87bc e8db 68bd 2c12 babd
00000380: d73c 893e 190c a3bc e031 e0bc 18ad 573d
00000390: 3aad 30be fecb 1fbe 4b93 833d fa7d 313d
000003a0: 5aaf 92bc 5611 febd c6a8 35be f9d9 253e
000003b0: bd9a 033e 1a78 b23d bf5e 87ba 3e6a cebc
000003c0: 480a 84bc 3c9f 173c 2f98 b33c ae2c 143d
000003d0: 8a70 86bd de86 b03d a3eb ce3d b2d1 9bbd
000003e0: 6b28 05be 100d 8c3b 8950 1bbe 6fe9 ed3b
000003f0: 4891 b6bd 8144 9abd ae44 873e 97af 7ebd

conv3.bias f4 [32]
0.0050566103 -0.018044123 -0.019935412 0.014908754 -0.01244026 -0.18664552 -0.019280218 -0.15703773
-0.023177238 -0.008144677 -0.0597081 -0.037756097 -0.014392602 -0.009646439 -0.0010248456 -0.016618391
0.018366123 0.0092399055 -0.15399815 -0.016552579 -0.011735573 0.015888356 -0.02439489 -0.04487836
-0.0049617584 -0.15052709 -0.0045284815 0.015573225 -0.019857608 0.115174934 -0.009486553 -0.030683504
00000000: ecb1 a53b 45d1 93bc 974f a3bc d943 743c
00000010: 3bd2 4bbc 0120 3fbe 8cf1 9dbc 80ce 20be
00000020: 31de bdbc 4071 05bc 7b90 74bd 23a6 1abd
00000030: f3ce 6bbc 190c 1ebc 1d54 86ba 4b23 88bc
00000040: 8d74 963c f962 173c b1b1 1dbe 4699 87bc
00000050: 9046 40bc 4c28 823c cbd7 c7bc 5fd2 37bd
00000060: 3f96 a2bb c623 1abe a863 94bb d726 7f3c
00000070: 6cac a2bc d6e0 eb3d 7d6d 1bbc f95b fbbc

conv4.weight f4 [32, 32, 3, 3]
0.06657721 -0.023875624 0.020502996 -0.020431615 -0.12572148 -0.10600436 -0.01214989 0.0434454
-0.093930066 0.018363683 -0.10797894 0.047308568 -0.019218093 0.018852688 0.005139795 -0.12419235
0.038918585 0.0024345363 -0.058421943 0.116519876 0.19613376 0.03144196 -0.15733562 -0.013694056
-0.07246848 0.23369451 0.023498554 0.22097379 -0.105080135 -0.047154445 0.02181384 0.033542294
-0.07916999 -0.0052649966 0.08225143 0.082615525 -0.048503727 -0.05554437 0.10217545 -0.024125531
-0.024533132 0.014203673 0.029693123 -0.15994367 -0.06222181 0.15111883 0.09545362 -0.14347605
0.089431874 -0.20850673 -0.051277995 -0.054153316 -0.082850456 -0.05685155 0.17177394 -0.019166522
-0.0660015 -0.099770226 -0.12088697 -0.123937994 -0.07759721 0.12673928 0.003014888 -0.041213904
-0.03360289 0.09432129 0.056884952 0.21564892 0.056852482 -0.09136479 0.008053517 0.092266195
-0.0050780536 -0.09153627 -0.097934045 0.05893579 0.07225466 -0.011632091 -0.13187395 -0.11892949
0.15949191 0.10511707 -0.07508693 -0.00074243476 -0.03680744 0.13157386 -0.14323968 -0.02921064
-0.04729912 0.044902597 0.03871694 -0.003906844 0.13333733 0.07711209 -0.098044455 -0.03560391
-0.087449 -0.07668972 0.11086615 -0.038841695 0.07237077 0.008011915 0.070365004 -0.039153587
-0.1471544 0.09526027 0.12178765 -0.116070926 -0.09515395 -0.1905882 0.06761644 0.1674279
-0.040972795 0.10309527 0.014778545 -0.08471618 -0.027012944 0.19686879 -0.16360874 -0.05579383
-0.026574459 -0.07865909 0.18149328 0.04273939 -0.03312477 -0.04897423 0.07768066 -0.0826531
-0.047305692 -0.1658351 -0.10762851 0.1772719 0.055841174 -0.019117288 -0.025932116 0.071113035
0.040469483 -0.09351795 -0.044419475 -0.05055109 -0.047461692 -0.05990609 0.15226007 -0.18439999
-0.04279302 0.10159195 -0.037428368 -0.07440018 0.048431184 0.03840513 0.0133448 -0.18553993
-0.037566688 -0.22769415 0.18259555 -0.07346769 -0.1366319 0.2007 0.07810677 -0.035041887
0.008802659 0.16418873 -0.06334563 -0.06141757 -0.04905165 0.07055031 0.13912791 -0.10020029
-0.044395767 -0.12605788 0.0016976257 0.07427594 -0.044966675 -0.068459615 0.11198696 -0.022977576
-0.073072515 -0.006807611 -0.17921194 0.050367504 0.04531918 -0.026897965 0.07602152 0.20420122
-0.06540228 -0.104684725 -0.12944776 0.028817257 -0.004883137 -0.1390297 0.1413952 0.0077714
0.08205159 -0.053371806 -0.025327915 0.05225332 0.13731097 -0.19340807 -0.15608712 0.29316425
-0.13244358 0.041138552 0.07078149 0.11075408 0.021085199 -0.056009322 0.06371933 0.111098625
-0.055550355 -0.11080175 -0.16385376 0.08290273 0.014258697 -0.008851801 -0.028041113 0.07412787
-0.04003662 -0.018997796 0.04907311 -0.17894126 0.0407068 0.11925286 -0.12242272 0.043971863
0.08076815 -0.031465515 -0.22560182 0.1328427 0.015532736 -0.040596478 0.055682525 0.031558637
0.23525578 -0.27178463 0.05068018 -0.08239563 0.053913355 -0.030353356 0.16836476 -0.053003315
0.0486744 -0.16858628 0.01685756 0.01898213 -0.03960037 0.024981624 -0.15380871 -0.043543972
0.1670957 -0.17473508 0.028631536 -0.03395378 0.096191876 -0.10114292 0.003506801 -0.072281435
00000000: a259 883d d096 c3bc e6f5 a73c 3460 a7bc
00000010: 22bd 00be d018 d9bd 5510 47bc cef3 313d
00000020: 685e c0bd 6f6f 963c 1024 ddbd a1c6 413d
00000030: 436f 9dbc f470 9a3c ba6b a83b 8f58 febd
00000040: 1869 1f3d be8c 1f3b d94b 6fbd f9a1 ee3d
00000050: 4ad7 483e 49c9 003d 971c 21be 095d 60bc
00000060: 5b6a 94bd 9d4d 6f3e 0a80 c03c f446 623e
00000070: 4134 d7bd 0525 41bd f0b2 b23c a563 093d
00000080: e023 a2bd fe85 acbb 7073 a83d 5432 a93d
00000090: d8ab 46bd 7e82 63bd 5d41 d13d e8a2 c5bc
000000a0: b5f9 c8bc 86b6 683c fe3e f33c 46c8 23be
000000b0: 4cdc 7ebd e5be 1a3e 307d c33d 63eb 12be
000000c0: 0f28 b73d ca82 55be e008 52bd decf 5dbd
000000d0: 80ad a9bd 2cdd 68bd 82e5 2f3e 1c03 9dbc
000000e0: cb2b 87bd 5554 ccbd 9693 f7bd 34d3 fdbd
000000f0: 49eb 9ebd f1c7 013e 6d95 453b e9cf 28bd
00000100: 2fa3 09bd 852b c13d 3200 693d 12d3 5c3e
00000110: 26de 683d 771d bbbd e6f2 033c 0ff6 bc3d
00000120: cd65 a6bb 5e77 bbbd a591 c8bd a866 713d
00000130: 40fa 933d 8794 3ebc f709 07be 4e91 f3bd
00000140: d951 233e 9e47 d73d 2dc7 99bd f49f 42ba
00000150: 66c3 16bd 4cbb 063e 6cad 12be 274b efbc
00000160: b9bc 41bd c9eb 373d a795 1e3d fc04 80bb
00000170: 9589 083e f2ec 9d3d 88cb c8bd 68d5 11bd
00000180: 7618 b3bd 800f 9dbd cb0d e33d 7818 1fbd
00000190: 2037 943d 6844 033c 871b 903d 835f 20bd
000001a0: a5af 16be d117 c33d ce6b f93d 98b6 edbd
000001b0: 13e0 c2bd 8e29 43be 7d7a 8a3d 3872 2b3e
000001c0: 17d3 27bd 9d23 d33d b621 723c ad7f adbd
000001d0: 404a ddbc f997 493e 0d89 27be 1288 64bd
000001e0: aeb2 d9bc 0418 a1bd 60d9 393e 800f 2f3d
000001f0: d7ad 07bd 3499 48bd 0a17 9f3d 0746 a9bd
00000200: 9dc3 41bd add0 29be 566c dcbd c486 353e
00000210: b7b9 643d dc9b 9cbc 976f d4bc b6a3 913d
00000220: 54c3 253d 5786 bfbd 32f1 35bd a90e 4fbd
00000230: 3167 42bd 1760 75bd 10ea 1b3e 5ad3 3cbe
00000240: bc47 2fbd 710f d03d 7d4e 19bd 1f5f 98bd
00000250: c75f 463d b34e 1d3d 26a4 5a3c 2efe 3dbe
00000260: 87df 19bd a828 69be 54fa 3a3e 3a76 96bd
00000270: 3ce9 0bbe 4d84 4d3e 71f6 9f3d 1588 0fbd
00000280: 0739 103c 1721 283e 5bbb 81bd fd90 7bbd
00000290: 62ea 48bd ae7c 903d 8c77 0e3e cf35 cdbd
000002a0: 56d8 35bd 5115 01be de82 de3a fc1d 983d
000002b0: fa2e 38bd 8e34 8cbd 6b59 e53d 783b bcbc
000002c0: 0ba7 95bd 6112 dfbb 5683 37be 284e 4e3d
000002d0: 9ba0 393d 1f59 dcbc 2cb1 9b3d 201a 513e
000002e0: a1f1 85bd f264 d6bd f48d 04be 2b12 ec3c
000002f0: b902 a0bb cd5d 0ebe e7c9 103e 3aa7 fe3b
00000300: aa0a a83d 659c 5abd 7d7c cfbc 9407 563d
00000310: 3f9b 0c3e c40c 46be 4dd5 1fbe a019 963e
00000320: 4a9f 07be e680 283d e3f5 903d 09d3 e23d
00000330: deba ac3c 086a 65bd 487f 823d ad87 e33d
00000340: c588 63bd 07ec e2bd 48c9 27be e8c8 a93d
00000350: 4f9d 693c 2507 11bc 7ab6 e5bc 5ad0 973d
00000360: 70fd 23bd 44a1 9bbc e300 493d 613c 37be
00000370: 2cbc 263d d83a f43d c3b8 fabd d71b 343d
00000380: c669 a53d fce1 00bd 2a04 67be eb07 083e
00000390: 047d 7e3c 7e48 26bd 5c13 643d a143 013d
000003a0: e4e6 703e 5b27 8bbe 0596 4f3d 0abf a8bd
000003b0: 40d4 5c3d 9aa7 f8bc d067 2c3e 011a 59bd
000003c0: cf5e 473d e2a1 2cbe de18 8a3c 6980 9b3c
000003d0: ff33 22bd 43a6 cc3c 0880 1dbe 2a5b 32bd
000003e0: 231b 2b3e c1ed 32be af8c ea3c 1e13 0bbd
000003f0: 3f00 c53d 0524 cfbd 5cd2 653b 4a08 94bd

conv4.bias f4 [32]
-0.11976649 -0.035790723 -0.032577302 -0.041194405 -0.34642026 -0.13943519 -0.12227253 -0.076991126
-0.029395172 -0.117644176 -0.078909166 -0.119060755 -0.15049903 -0.04039327 -0.14976865 -0.12967438
-0.11026325 -0.10622342 -0.09731514 -0.05614114 -0.027505366 -0.0159328 -0.05017636 -0.16004422
-0.03840549 -0.22532006 -0.17037 -0.39146343 -0.011281443 -0.0041231546 -0.080610216 -0.16402903
00000000: 2248 f5bd 4b99 12bd c76f 05bd 77bb 28bd
00000010: ff5d b1be 19c8 0ebe 056a fabd 86ad 9dbd
00000020: 25ce f0bc 6eef f0bd 219b a1bd 20d6 f3bd
00000030: 6b1c 1abe 6a73 25bd f45c 19be 5cc9 04be
00000040: b3d1 e1bd aa8b d9bd 294d c7bd 41f4 65bd
00000050: ef52 e1bc 8185 82bc ba85 4dbd a2e2 23be
00000060: 134f 1dbd 4dba 66be 7975 2ebe e56d c8be
00000070: cdd5 38bc 871b 87bb f816 a5bd 3af7 27be

linear.weight f4 [32, 800]
0.030471925 0.09771063 -0.010014837 -0.05084889 -0.0049477275 -0.29455662 0.026786966 -0.024812711
0.006408034 0.07954648 0.020330602 -0.025622223 -0.058349375 -0.03022357 0.016095107 0.1528286
0.07847557 -0.073191404 0.006514647 -0.07179027 0.09240664 -0.014109108 -0.047496613 -0.02704652
-0.025913583 0.15032656 -0.062237747 0.08250359 0.0012545357 0.04914279 -0.3162151 0.051699053
-0.035904955 -0.05462624 0.085931696 0.14209002 -0.0014373716 -0.023577867 0.035929337 -0.0051184217
0.00328591 -0.25505596 -0.06621343 -0.049112964 0.12129416 -0.08860394 -0.006198547 0.053104118
0.033891212 0.020296153 -0.13250956 -0.011031948 -0.018332284 0.019975457 -0.009287096 0.16515608
-0.04540402 -0.03306872 0.04879914 -0.044528436 -0.0034067093 0.0490197 0.021186218 -0.0008555128
-0.035174374 -0.01710757 0.0674473 0.023083705 0.005638061 -0.04458844 0.03601592 -0.030607717
-0.0065506534 -0.04010376 0.004124054 0.13208477 -0.060045164 0.10299461 -0.0032927245 -0.056300834
-0.08066121 0.07188882 -0.0163565 -0.047673933 0.02600502 0.019104844 -0.021987211 0.004561181
0.02737074 0.006437292 0.07177751 -0.08494413 0.0843271 0.047619667 0.0580275 -0.07182111
0.034044534 0.026303582 0.010069547 -0.0027216647 -0.16245112 0.09672625 -0.09109556 0.000650609
0.008242278 -0.14458226 0.14821726 0.090776145 0.078695744 0.018938737 -0.1789039 0.17061168
0.102024235 0.03617333 0.10866843 -0.17177457 -0.15390152 -0.14820828 -0.1660593 -0.22609556
-0.19140425 -0.2387666 -0.20418312 -0.23117794 -0.2534199 0.05623333 -0.060323127 0.053486746
-0.035566825 0.048398886 0.034885623 0.16820943 0.01916756 -0.02637335 -0.01421035 -0.00027259788
-0.25590637 0.005061186 0.030608645 0.08849032 -0.07361391 -0.0649453 -0.049995843 -0.11515155
-0.104186304 -0.10148897 0.054977078 0.018800605 0.00748835 0.06818088 -0.14873886 0.07072163
-0.08980098 -0.0008869427 0.08686557 0.07325449 0.09790199 -0.12780418 -0.04233988 0.052484743
-0.1490121 0.060817093 -0.017341878 -0.0615277 -0.01042301 0.022068638 -0.017522214 0.0032520832
-0.0087612085 -0.025444286 0.107950516 -0.014746052 -0.015544877 -0.067854896 -0.046738178 0.20493573
-0.15443562 0.035421066 0.010622067 -0.061830726 -0.22608101 0.06536974 -0.0080043925 -0.019445663
0.062897265 0.068582356 -0.009565179 -0.02185059 -0.005097228 0.06125662 -0.0370811 0.031939253
0.012456884 0.030633334 -0.133236 -0.06439143 0.03451245 0.0062671644 0.0008561184 0.03694477
-0.04526049 0.040272735 -0.012892608 -0.03323711 0.04576672 0.06523495 -0.011957529 -0.0096928105
-0.057530943 0.056580465 0.024383252 -0.023732074 -0.055527553 -0.0057040607 -0.0038115121 -0.0032963902
-0.02116199 0.017148823 0.028623333 -0.025358882 0.09954166 -0.026975561 0.0056463713 -0.031420898
0.001762412 0.104741335 0.081166536 -0.06823635 -0.11754304 0.08364797 -0.31883317 0.0047352067
-0.045884598 -0.039448563 -0.046652425 0.08371507 0.10032832 -0.044479847 0.048037253 -0.0050981
0.12927929 -0.1415859 -0.05113182 -0.017560473 -0.043730695 0.011669957 0.01564451 -0.004424419
0.039166108 0.018124051 -0.017024448 -0.05932606 0.04404386 0.007868848 0.048143778 -0.014772397
00000000: 42a0 f93c 831c c83d 4515 24bc ed46 50bd
00000010: 8c20 a2bb 20d0 96be 5770 db3c 0744 cbbc
00000020: 7cfa d13b 44e9 a23d 5d8c a63c b2e5 d1bc
00000030: c1ff 6ebd 6c97 f7bc e3d9 833c 1a7f 1c3e
00000040: cdb7 a03d 60e5 95bd d278 d53b c706 93bd
00000050: b13f bd3d e329 67bc cf8b 42bd aa90 ddbc
00000060: b948 d4bc 35ef 193e 02ed 7ebd a4f7 a83d
00000070: 3c6f a43a f349 493d f2e6 a1be 63c2 533d
00000080: 1311 13bd c4bf 5fbd f5fc af3d 0c80 113e
00000090: 3066 bcba 5f26 c1bc a42a 133d 6fb8 a7bb
000000a0: 6c58 573b b296 82be e89a 87bd ad2a 49bd
000000b0: 1369 f83d fc75 b5bd 2e1d cbbb b483 593d
000000c0: 83d1 0a3d 1e44 a63c 96b0 07be 58bf 34bc
000000d0: 962d 96bc 92a3 a33c e728 18bc ad1e 293e
000000e0: 91f9 39bd 1173 07bd 9be1 473d 7363 36bd
000000f0: 1943 5fbb e2c8 483d b88e ad3c 7e44 60ba
00000100: 0113 10bd 2d25 8cbc cf21 8a3d 0a1a bd3c
00000110: 7cbf b83b 5ea2 36bd 6e85 133d 09bd fabc
00000120: dda6 d6bb d743 24bd 1323 873b 3b41 073e
00000130: ebf1 75bd d7ee d23d c0ca 57bb b49b 66bd
00000140: b431 a5bd 723a 933d 11fe 85bc be45 43bd
00000150: 7b08 d53c c381 9c3c 861e b4bc f675 953b
00000160: 9a38 e03c ebef d23b 1600 933d 30f7 adbd
00000170: b0b3 ac3d d70c 433d 3eae 6d3d f216 93bd
00000180: 4872 0b3d 9c7a d73c befa 243c f55d 32bb
00000190: 9659 26be 6a18 c63d 4f90 babd a28d 2a3a
000001a0: 9f0a 073c 5f0d 14be 44c6 173e d8e8 b93d
000001b0: 3c2b a13d 6925 9b3c 9532 37be d4b4 2e3e
000001c0: 15f2 d03d 7c2a 143d 8e8d de3d ace5 2fbe
000001d0: 5c98 1dbe e9c3 17be 730b 2abe 9885 67be
000001e0: 7aff 43be 3b7f 74be 6115 51be e9b9 6cbe
000001f0: 41c0 81be ec54 663d 6215 77bd eb14 5b3d
00000200: 85ae 11bd e93d 463d 3ae4 0e3d 183f 2c3e
00000210: 4905 9d3c ec0c d8bc 87d2 68bc 78eb 8eb9
00000220: 2906 83be 4ed8 a53b fbbe fa3c 6a3a b53d
00000230: e4c2 96bd 0b02 85bd 71c8 4cbd 93d4 ebbd
00000240: a15f d5bd 73d9 cfbd a52f 613d ba03 9a3c
00000250: d560 f53b 6ba2 8b3d 004f 18be 80d6 903d
00000260: 94e9 b7bd b881 68ba 93e6 b13d 7306 963d
00000270: d780 c83d 19df 02be 956c 2dbd 3efa 563d
00000280: a196 18be 581b 793d 8e10 8ebc 7804 7cbd
00000290: 46c5 2abc 4ac9 b43c bf8a 8fbc e720 553b
000002a0: 2c8b 0fbc 8970 d0bc 2915 dd3d 6d99 71bc
000002b0: f1af 7ebc 82f7 8abd 8870 3fbd acda 513e
000002c0: 5f24 1ebe ae15 113d 2e08 2e3c 3742 7dbd
000002d0: c881 67be 92e0 853d db24 03bc 834c 9fbc
000002e0: 48d0 803d e874 8c3d 45b7 1cbc 0200 b3bc
000002f0: a606 a7bb 39e8 7a3d 5ae2 17bd bcd2 023d
00000300: f517 4c3c c2f2 fa3c 056f 08be a7df 83bd
00000310: ed5c 0d3d c95c cd3b 226d 603a 6653 173d
00000320: 1063 39bd 06f5 243d 843b 53bc a323 08bd
00000330: e275 3b3d e799 853d 83e9 43bc 98ce 1ebc
00000340: 91a5 6bbd ebc0 673d 63bf c73c c469 c2bc
00000350: dc70 63bd 21e9 babb 90ca 79bb 4008 58bb
00000360: e95b adbc b07b 8c3c 7b7b ea3c 6ebd cfbc
00000370: 7fdc cb3d dafb dcbc 3205 b93b 33b3 00bd
00000380: bc00 e73a a082 d63d a43a a63d 80bf 8bbd
00000390: 68ba f0bd a04f ab3d 1a3e a3be cb29 9b3b
000003a0: 7df1 3bbd d194 21bd 9d16 3fbd ce72 ab3d
000003b0: ef78 cd3d 8030 36bd b6c2 443d f60d a7bb
000003c0: ca61 043e e5fb 10be 996f 51bd fbda 8fbc
000003d0: f51e 33bd 5933 3f3c ea28 803c b7fa 90bb
000003e0: a46c 203d e478 943c db76 8bbc e2ff 72bd
000003f0: 5667 343d 57ec 003c 6932 453d ec07 72bc

linear.bias f4 [32]
0.38642362 -0.31812873 -0.31604248 -0.038428333 -0.012593499 0.083118744 -0.2109151 0.088681564
-0.0045294953 -0.027980309 0.0055890717 -0.25987643 -0.06747937 0.15636484 -0.24274024 0.074250616
-0.083030276 0.20328176 0.03400884 -0.3766091 0.05191314 0.0113464175 -0.005509156 -0.058599643
-0.0981255 0.034449723 0.0075844303 0.284376 0.0417162 0.022091756 -0.23749411 -0.023469666
00000000: 51d9 c53e c5e1 a2be 52d0 a1be 0767 1dbd
00000010: f754 4ebc 293a aa3d 21fa 57be ae9e b53d
00000020: 296c 94bb f636 e5bc 8824 b73b 860e 85be
00000030: a032 8abd 1b1e 203e e690 78be b510 983d
00000040: c70b aabd 1829 503e da4c 0b3d e8d2 c0be
00000050: dfa2 543d 53e6 393c 2686 b4bb 2e06 70bd
00000060: 06f6 c8bd 271b 0d3d d086 f83b bb99 913e
00000070: 9bde 2a3d c5f9 b43c a831 73be 7543 c0bc

critic_linear.weight f4 [1, 32]
0.13676208 -0.1243403 -0.1625436 -0.003682142 2.4316541e-05 -0.00012807825 -0.0015874157 0.0017330007
0.0026051924 -0.001816063 0.005297134 -0.02921545 0.0006140289 0.000705946 -0.0481049 -0.0017817627
-0.0009341571 0.018842796 0.004194298 -0.16378151 -0.0027592187 0.0010237311 -0.00080488174 -0.0069355424
-0.00068053725 -0.0019161662 -0.0071892296 0.07596494 -0.0019810013 0.0019000313 -0.0026910342 -0.0023878769
00000000: 5c0b 0c3e 21a6 febd d471 26be 1750 71bb
00000010: 60fb cb37 be4c 06b9 d510 d0ba db25 e33a
00000020: e0bb 2a3b f608 eeba 9593 ad3b 3d55 efbc
00000030: c8f6 203a 3c0f 393a a509 45bd 098a e9ba
00000040: 39e2 74ba 355c 9a3c 5270 893b 57b6 27be
00000050: 02d4 34bb b72e 863a b3fe 52ba 8c43 e3bb
00000060: 1566 32ba de27 fbba a193 ebbb 8293 9b3d
00000070: b0d3 01bb 790a f93a 105c 30bb ed7d 1cbb

actor_linear.weight f4 [6, 32]
0.13817038 -0.067623496 -0.26067096 0.05017408 -0.047854304 0.11073831 -0.06539487 0.097618714
-0.030178959 -0.009710003 -0.00293858 -0.06749297 0.0085339295 0.195462 -0.27677485 0.10909249
-0.1574927 0.06903915 0.063100666 -0.26718396 0.0025969779 -0.023348054 0.032240417 0.13716525
0.010983386 0.058092307 0.16047801 0.10220301 0.03890639 -0.00072437414 -0.13042486 -0.008628485
0.18193285 -0.17723098 -0.16616894 0.03306434 0.013181393 0.1036372 -0.10772108 0.06260965
0.008621666 -0.03899658 -2.663019e-05 -0.07374337 -0.010140357 0.17079836 -0.31861955 0.12317311
-0.13842687 0.07168341 0.061997306 -0.23010239 0.03320633 -0.038365487 0.0018818207 0.07157041
-0.013621042 0.08770039 0.1268907 0.23353057 0.003966839 -0.012668468 -0.17458141 -0.01965993
0.1260286 -0.14792281 -0.3188929 0.012366193 -0.03281855 0.08770984 -0.09520919 0.078308046
-0.014815676 -0.009313063 -0.01641146 -0.077866904 0.008923147 0.18292753 -0.09746065 0.15030454
-0.15767726 0.14841436 0.05486662 -0.2064364 0.046695337 -0.028975481 0.010111864 0.004194618
0.00082004064 0.07763651 -0.038133685 -0.0136134 0.034216102 -0.011756024 -0.12849832 -0.006489288
0.16952398 -0.102939256 -0.24217093 0.022654073 -0.0050442675 0.082977705 -0.05990102 0.042210206
0.030313004 -0.011389337 0.019277226 -0.16245326 0.11431425 0.1455062 -0.11028378 0.10552945
-0.15114066 0.13674682 0.062429253 -0.10382635 0.020499397 -0.009889549 0.012217235 0.19443004
0.055556126 0.09314246 0.18327634 0.22350872 -0.018224087 -0.012928072 -0.13538784 -0.018582141
0.21246402 -0.13953204 -0.3043629 0.021497011 -0.026241118 0.09961254 -0.1266092 0.063046545
-0.009308551 -0.0345253 0.009203233 -0.21856642 -0.0375491 0.13332614 -0.19545701 0.12075689
-0.17350978 0.08682794 0.059346113 -0.20901789 0.024959821 -0.02710553 0.010671988 -0.026335344
-0.055791423 0.07927671 -0.0018182027 -0.0072747134 0.03237785 -0.03923187 -0.1452086 -0.009132471
0.2561543 -0.11036485 -0.088223115 -0.0016242819 -0.022609068 0.09282835 -0.08087388 0.061054096
0.00059720624 -0.00019431686 -0.012740292 -0.15405142 0.026282625 0.142068 -0.08228379 0.1258157
-0.19728112 0.16508982 0.04391255 -0.22870454 0.04162593 0.002775808 -0.013107269 0.13927971
0.009945431 0.07357095 0.2281135 0.31440282 0.039779928 -0.029803004 -0.1226403 -0.016714368
00000000: 897c 0d3e 307e 8abd aa76 85be 5683 4d3d
00000010: e002 44bd c4ca e23d bfed 85bd 52ec c73d
00000020: dd39 f7bc b416 1fbc 3195 40bb c139 8abd
00000030: e5d1 0b3c 3127 483e 6fb5 8dbe e26b df3d
00000040: c445 21be 6664 8d3d ec3a 813d 56cc 88be
00000050: 0f32 2a3b 6b44 bfbc 870e 043d 0c75 0c3e
00000060: a9f3 333c 33f2 6d3d 5954 243e d04f d13d
00000070: 4f5c 1f3d ede3 3dba 188e 05be 7d5e 0dbc
00000080: 9b4c 3a3e 0a7c 35be 3128 2abe 796e 073d
00000090: c5f6 573c be3f d43d df9c dcbd 7d39 803d
000000a0: e341 0d3c e1ba 1fbd e663 dfb7 c406 97bd
000000b0: bd23 26bc c4e5 2e3e 1a22 a3be 2f42 fc3d
000000c0: c6bf 0dbe c0ce 923d e3f0 7d3d f69f 6bbe
000000d0: 5c03 083d 2125 1dbd 6da7 f63a 8293 923d
000000e0: ca2a 5fbc 439c b33d a3ef 013e a322 6f3e
000000f0: 42fc 813b 688f 4fbc 78c5 32be dd0d a1bc
00000100: a40d 013e 1479 17be ee45 a3be 939b 4a3c
00000110: be6c 06bd 37a1 b33d 09fd c2bd f85f a03d
00000120: 73bd 72bc d195 18bc 5371 86bc af78 9fbd
00000130: 6432 123c 5b51 3b3e 7399 c7bd 6fe9 193e
00000140: 2676 21be eff9 173e d2bb 603d 1064 53be
00000150: 9c43 3f3d fd5d edbc 3bac 253c 0273 893b
00000160: fff7 563a e4ff 9e3d 1132 1cbd bd0a 5fbc
00000170: 2f26 0c3d 579c 40bc 1095 03be 18a4 d4bb
00000180: b297 2d3e d1d1 d2bd a8fb 77be 0995 b93c
00000190: 624a a5bb 37f0 a93d c65a 75bd 9ce4 2c3d
000001a0: fa52 f83c 579a 3abc 46eb 9d3c 265a 26be
000001b0: 971d ea3d 94ff 143e 76dc e1bd d31f d83d
000001c0: 9ec4 1abe 5c07 0c3e d1b5 7f3d e9a2 d4bd
000001d0: 5aee a73c c607 22bc cc2a 483c ab18 473e
000001e0: d28e 633d 79c1 be3d cbac 3b3e 78df 643e
000001f0: ae4a 95bc 44d0 53bc 1ca3 0abe 9339 98bc
00000200: 2b90 593e 7de1 0ebe 74d5 9bbe 801a b03c
00000210: 9df7 d6bc a901 cc3d d8a5 01be 8c1e 813d
00000220: e582 18bc 676a 0dbd 28c9 163c e0cf 5fbe
00000230: 16cd 19bd a686 083e e225 48be 634f f73d
00000240: 8cac 31be d9d2 b13d e914 733d c908 56be
00000250: 8a78 cc3c 6b0c debc 90d9 2e3c 38bd d7bc
00000260: 8c85 64bd d45b a23d c250 eeba b860 eebb
00000270: a39e 043d 99b1 20bd 90b1 14be 5ca0 15bc
00000280: a826 833e f706 e2bd 52ae b4bd dbe5 d4ba
00000290: a736 b9bc ca1c be3d 34a1 a5bd dc13 7a3d
000002a0: d58d 1c3a 89c1 4bb9 a8bc 50bc a8bf 1dbe
000002b0: a94e d73c 467a 113e 6784 a8bd d5d5 003e
000002c0: 1004 4abe 4e0d 293e a5dd 333d 8631 6abe
000002d0: f47f 2a3d 55ea 353b dfbf 56bc 579f 0e3e
000002e0: 29f2 223c 5eac 963d 9696 693e 68f9 a03e
000002f0: 47f0 223d 6e25 f4bc d62a fbbd 92ec 88bc

actor_linear.bias f4 [6]
-0.0069202143 0.15076579 0.24918808 0.054291297 0.07789702 0.1949415
00000000: f7c2 e2bb 5962 1a3e 292b 7f3e 8d60 5e3d
00000010: 7988 9f3d bf9e 473e
