spaceinvaders-v0-bottom-7fskip_latent32/model.2.tar (torch, 223035 bytes, 13 tensors)

conv1.weight f4 [32, 4, 3, 3]
000000 10 b1 9e 3d 5a a4 d5 bd e3 aa 80 bd c7 0e 79 3d
       0.07748616 -0.10431738 -0.06282594 0.06080511
000010 40 95 35 be e8 a3 87 3d df 55 00 bd 7f d1 8b 3d
       -0.17732716 0.066230595 -0.031331893 0.068270676
000020 85 5d de 3b 7b 6d bd bc c1 73 5d 3c d0 f6 b0 bc
       0.0067860507 -0.023123493 0.013516367 -0.021602064
000030 43 33 43 3d ba 1d a3 bd e3 76 e1 bc f5 32 54 bc
       0.04765631 -0.07964654 -0.02752251 -0.012951602
000040 f7 77 0c 3d b8 bd a6 3b b2 45 25 3e 18 0e ce 3c
       0.034294095 0.005088534 0.16139868 0.025153205
000050 6e 87 a8 bd 49 01 c9 bd e0 60 ef bc 67 f4 8d bd
       -0.08228956 -0.09814698 -0.029220998 -0.06931382
000060 3d c1 40 bd f3 f5 3f 3d b9 68 f9 3d 57 35 15 3e
       -0.047059286 0.046865415 0.121781774 0.14571129
000070 84 06 3a be 15 4e bf 3d 75 ac 9d 3d c8 91 33 3e
       -0.18166548 0.09341065 0.07698909 0.1753608
000080 a2 97 0c 3e 28 3d 15 be e3 5a 99 bd b7 0e 04 bd
       0.13729718 -0.1457411 -0.074880384 -0.032240596
000090 8b 0b d2 3d f8 39 86 bd 82 84 1c 3d 61 56 04 be
       0.10256108 -0.065540254 0.038212307 -0.12923576
0000a0 1b 16 18 3e 87 76 f8 bd f7 fd a9 3d 92 ec 0c bc
       0.14852183 -0.12131982 0.08300393 -0.008601325
0000b0 c9 85 0e be dd 55 80 3d c6 cd 03 be a7 17 e8 3b
       -0.13918222 0.06266377 -0.12871465 0.0070828977
0000c0 51 7c a3 bd 56 38 f7 bc 05 a8 3f be ae a3 f3 bd
       -0.07982696 -0.03017823 -0.18716438 -0.11896454
0000d0 1a 8d e3 3d 26 ab 86 bd 0c 1b 2e 3e 2f 5f c3 3d
       0.11110897 -0.06575613 0.17002505 0.09539639
0000e0 42 2d 17 bd 58 bb 00 be 20 7d ce 3d 9a 79 81 3d
       -0.036908396 -0.12571466 0.100824594 0.06322022
0000f0 64 8b 21 be 62 01 2c 3e ac 9d d6 3d 74 39 4c 3e
       -0.1577583 0.16797403 0.10479292 0.19943792
000100 d3 63 04 be 7e 50 1f bd a2 fd 2a 3c fe 01 1f 3d
       -0.12928705 -0.038895123 0.010436447 0.03882026
000110 6a 29 86 bd 06 a8 43 be 43 41 4e 3e 7d 06 b6 3a
       -0.06550868 -0.19107065 0.20142083 0.0013887432
000120 14 d3 a1 3d 68 77 f8 bb 3e 14 1c 3d 07 ed 26 3d
       0.07901588 -0.0075825937 0.038105242 0.04075339
000130 5e ec 82 3d e6 7b b0 3d 67 70 20 be 09 e5 b2 3d
       0.0639274 0.08617382 -0.15667878 0.08735091
000140 11 e1 b2 bd ae 5a 01 be 9c 64 bf bc 22 46 7d bd
       -0.08734334 -0.12632248 -0.023363404 -0.061834462
000150 9b e5 d2 3d fc 62 e6 bd db c0 21 be 24 58 f2 3d
       0.102977 -0.112493485 -0.15796225 0.11833218
000160 db 15 0b bd 41 1a e9 3d c9 4c 92 3d f6 3f 24 be
       -0.03395639 0.11381961 0.07143552 -0.16040024
000170 57 26 12 bc fc 85 89 3d e9 a3 02 be bb 80 c1 bd
       -0.008920274 0.067150086 -0.1275784 -0.094483815
000180 4a f4 9a 3d fb 30 c0 3c 3b 11 65 bd 94 06 f8 ba
       0.07566126 0.023460856 -0.055924635 -0.0018922859
000190 9d 6c d9 3d 1a 1c d3 bd 43 cc 20 3e 47 d3 4f 3d
       0.106164195 -0.10308094 0.1570292 0.0507386
0001a0 03 d9 11 be 67 d3 b3 bd c6 a1 28 3e 26 05 29 3c
       -0.1424294 -0.08780556 0.16467962 0.010316169
0001b0 77 8c fd 3d 2c e0 20 3d be 7f 7f 3d 36 46 15 3e
       0.12380307 0.039276287 0.062377684 0.14577565
0001c0 c3 c8 15 3e ad 21 e5 bd a9 b1 50 3d ca af 0c 3e
       0.14627366 -0.11188064 0.05095068 0.13738933
0001d0 cb 7f ee 3d 2e cd cd 3d b4 b2 09 be 16 1b c8 bd
       0.11645468 0.100489005 -0.13447076 -0.09770791
0001e0 e2 5a b4 bd 32 5a 69 bc 76 c5 2c 3e 46 09 c6 bd
       -0.08806397 -0.014242696 0.168722 -0.096697375
0001f0 c3 8a 99 3d 30 04 d3 bd 49 7f 22 be b2 ce 93 bd
       0.0749717 -0.10303533 -0.15868868 -0.072171584
000200 44 95 fa 3d cb 06 29 3e 27 77 2a be 00 60 0e 3d
       0.122355014 0.16506498 -0.16647016 0.03475952
000210 e2 56 01 3e 59 b4 8b 3d 17 87 ac 3d e1 c9 d9 3d
       0.126308 0.06821508 0.08424204 0.106342085
000220 61 8d f7 3c d9 0b 99 3d d6 65 e1 bd bb 68 79 be
       0.030218782 0.07472963 -0.11005752 -0.24356358
000230 a9 3b a5 bd 84 93 87 bd 22 e5 32 be 78 be e5 3c
       -0.0806802 -0.06619933 -0.1747022 0.028044924
000240 f0 44 3d 3d 67 29 4e bd 67 7b 7c 3d 48 91 1b 3d
       0.046208322 -0.050332453 0.061641123 0.037980348
000250 0a d5 b6 3d fa b0 c8 3d 59 de 89 bd d7 2f 29 3e
       0.08927353 0.097993806 -0.067318626 0.16522156
000260 b4 72 e6 bc 72 1e a9 bb f9 17 2d be f4 6c fd bd
       -0.028130867 -0.0051611 -0.16903676 -0.12374297
000270 f4 70 de bd 95 9f ac bd 22 ec ca 3d 44 5a 81 bd
       -0.10861388 -0.08428875 0.0990832 -0.06316045
000280 47 d5 f3 bd ab 1c 73 3d 9e b9 88 3d ff 01 d4 3d
       -0.11905914 0.05935351 0.06676029 0.10351943
000290 b7 3b d9 bd 7e 99 0c 3d 6f db 88 bd f4 88 54 bd
       -0.10607093 0.03432607 -0.06682479 -0.05188842
0002a0 48 ea 10 be 06 9b 89 bd 4a 04 2c bd f4 0a e6 3d
       -0.14151871 -0.067190215 -0.041996278 0.11232558
0002b0 46 a0 26 3d 5d e8 85 3c bd 87 41 3e f1 96 30 3e
       0.040680192 0.016346151 0.18899436 0.1724508
0002c0 7d db e1 3d df 08 94 3b 41 6d bd bd 5c 96 27 3e
       0.11028192 0.004517659 -0.09249354 0.16365951
0002d0 a3 ae 36 bd f9 95 43 bd f3 d9 2f be 75 36 8d bd
       -0.04460014 -0.047750447 -0.17172985 -0.068951525
0002e0 3f 0f 32 be 14 49 d7 3d cf 92 2b be 7c 3d 4a be
       -0.17388628 0.105119854 -0.16755222 -0.19750017
0002f0 b4 4d 72 bd 25 e4 9f bd 6c 49 3e 3d 74 cf 86 bd
       -0.059156135 -0.07807187 0.04645674 -0.06582537
000300 59 b9 cb bd 2b 97 b5 bc 54 70 e0 3d c5 82 06 be
       -0.09947462 -0.022166809 0.10958925 -0.13135822
000310 62 ff 57 3d cf 55 bb 3d f8 af 3b 3e ee 4b e9 bd
       0.052733786 0.09147226 0.18328846 -0.113914356
000320 84 ab 82 3d 8e 22 10 be 98 ce 09 3e 60 91 34 bd
       0.0638037 -0.14075682 0.13457716 -0.044083953
000330 e0 b9 b0 3d 36 9a 39 3c be 70 69 3b 6d 53 13 3d
       0.08629203 0.011328271 0.0035620178 0.035968233
000340 0e b9 65 3d bb 2d 0c 3e 52 41 87 3c ce 08 a1 3d
       0.056084685 0.1368932 0.01651064 0.078630075
000350 3a 14 ac bd a3 9b d8 3d 04 e1 45 3e 44 08 51 3e
       -0.084022954 0.1057656 0.19324118 0.2041331
000360 30 fb 03 3e 26 47 e6 bd ff 1c 51 bd 2d b8 29 3e
       0.12888789 -0.11244039 -0.051053043 0.16574164
000370 5d bc ea bd 53 0b 42 3e 1e 40 00 be a6 20 e5 bd
       -0.11461709 0.18949632 -0.12524459 -0.11187868
000380 e4 bf de 3d 6a f6 f3 bd e3 04 6b bd f2 f7 02 3e
       0.10876444 -0.11912234 -0.057377707 0.12789896
000390 00 ed 14 3e 72 25 19 3e 32 93 0f ba 3b 54 f5 bd
       0.14543533 0.1495569 -0.0005476951 -0.11978956
0003a0 d7 ce 25 3e 89 07 0c bc 42 59 94 bd 87 45 9d bb
       0.16192184 -0.008546718 -0.07243587 -0.004799548
0003b0 02 78 f7 bd 38 93 03 3e e9 76 b0 3d 26 fd d0 bd
       -0.120834365 0.12849128 0.0861643 -0.10204534
0003c0 05 d1 e3 bd 58 5a 26 bc 55 b0 e2 3d 52 78 34 bc
       -0.11123852 -0.010153376 0.11068789 -0.011015015
0003d0 80 82 27 be 1e 21 e1 bc a8 e8 f5 bd 46 f3 18 be
       -0.16358376 -0.027481612 -0.12007266 -0.14936551
0003e0 0b 02 c1 bd 6f af 48 3e b7 d8 27 3e dd 20 97 bb
       -0.09424218 0.19598173 0.16391264 -0.004612072
0003f0 64 5a 64 bc 5b 07 51 3d d6 05 b6 bc 59 c2 08 be
       -0.013937566 0.051032405 -0.02221958 -0.13355388

conv1.bias f4 [32]
000000 af 44 26 bd fc e0 61 bd ee 04 aa 3b 62 df 32 bd
       -0.040592846 -0.055146202 0.005188576 -0.043670066
000010 f8 8e 02 3e 57 a9 b5 bc cc 69 7a bd 05 23 d2 bb
       0.12749851 -0.022175474 -0.061136052 -0.006412866
000020 90 fc 72 bd 32 1c 16 3c d4 af ce 3d 14 bd 96 bc
       -0.059322894 0.009161996 0.1009213 -0.018400706
000030 08 4a 03 bd 99 17 db 3d 22 65 da bd 50 39 69 3d
       -0.032053024 0.1069786 -0.10663821 0.056939423
000040 e8 11 b6 bd be ad c2 bd a4 e5 42 3c ef 73 56 bd
       -0.08890134 -0.09505795 0.011895571 -0.052356657
000050 d1 8c 6f 3d a8 40 15 bd 62 09 a4 bc 2d 79 4a bd
       0.058483902 -0.036438614 -0.020024005 -0.04943197
000060 54 52 b2 3c 9c f8 90 3d 1c 52 f4 bc 96 55 9b bd
       0.021767773 0.070786685 -0.029824309 -0.075846836
000070 f7 5a 04 bc 60 12 df 3d 20 ee 0e 3d 30 5d 9f bb
       -0.008078328 0.10892177 0.034895062 -0.0048634037

conv2.weight f4 [32, 32, 3, 3]
000000 1f 14 1e bc 75 59 f7 bc 4b 77 a5 3c 47 ef 14 3d
       -0.009648352 -0.030194024 0.020198485 0.036361005
000010 cb df 2f 3d 7b 19 4a 3c f7 29 84 3c fd 01 02 bc
       0.042938035 0.012335177 0.016133292 -0.007935044
000020 ed d4 57 bc c7 f6 65 bc eb 1e 6b bd fc 19 81 3d
       -0.013173324 -0.014035887 -0.057402533 0.06303784
000030 6a 25 26 3d 35 41 f7 3a e9 b7 fd bc ec 37 f4 3a
       0.040563025 0.0018864038 -0.030971484 0.0018632389
000040 21 86 bb 3b b2 03 6b 3d 9c 68 c2 3d d3 83 96 bd
       0.0057227765 0.05737657 0.09492609 -0.07349362
000050 6e ad 94 3d 59 70 45 3d 00 ad 36 bd e8 bd 69 3d
       0.072596416 0.048202846 -0.04459858 0.057065874
000060 63 34 60 bd 2f 5d 83 bc 0d 88 09 bc 8e 45 09 3c
       -0.05473746 -0.016035644 -0.008394253 0.0083784
000070 ee 54 86 bd eb c5 dc bc e3 55 20 3d 97 2b f4 3c
       -0.06559168 -0.026949843 0.039144408 0.029805942
000080 11 c3 23 3d 09 61 f0 bc 06 0d d3 3c bc 34 a4 bd
       0.03998095 -0.029343145 0.025763046 -0.08017871
000090 14 61 a8 bc 17 74 59 bd 18 6a 27 bc ad c6 3e 3d
       -0.020554103 -0.053089228 -0.010218166 0.04657619
0000a0 7a d0 f1 3c da 28 a5 bc 7f aa bb bc e3 fe d3 bc
       0.029518355 -0.020161081 -0.022908447 -0.025878375
0000b0 28 dd a1 bb 54 3d 22 bd f5 5a a1 3c fc f2 d1 b9
       -0.004939694 -0.03960927 0.019696692 -0.00040044624
0000c0 cb 71 c8 3c 74 f1 9a bd 97 58 f5 3c 92 c8 8d bd
       0.024468323 -0.07565585 0.02994947 -0.069230214
0000d0 65 b3 32 bd f1 f1 9f 3c 46 38 2f 3d a7 63 2f bd
       -0.043628115 0.019524546 0.042778276 -0.042819645
0000e0 cc 6a 83 bc 9f 7c 11 bd f3 37 99 3c c4 05 0c bd
       -0.016042136 -0.03551924 0.018703436 -0.034185186
0000f0 6c cf 0d bd b6 05 57 bd 02 31 0b 3c bb 5c 1b bc
       -0.03462164 -0.05249568 0.008495571 -0.009482558
000100 58 b0 92 bd d5 dd 21 bd bb ef 66 3d f4 89 17 3b
       -0.07162541 -0.039518196 0.05638097 0.0023122998
000110 bf 80 b0 3c a8 b2 a8 bd c3 d6 7b 3b 67 77 53 3c
       0.021545766 -0.08237201 0.0038427569 0.012906886
000120 1b 52 67 bd c0 38 13 3d 9f 58 32 3d ca 84 d4 b9
       -0.056474786 0.035942793 0.043541547 -0.00040534727
000130 f4 7d 29 bc 6d c9 42 bc f5 52 3c bd b2 a6 03 bd
       -0.010344971 -0.011888844 -0.04597755 -0.032141395
000140 97 76 26 3d 52 a4 1a 3d dd 54 88 3d 41 f5 63 3d
       0.04064044 0.037754364 0.066568114 0.055653814
000150 35 3a 99 bc fd 1c 29 3c 94 ea f0 3c 1c a2 66 bd
       -0.018704513 0.010321853 0.02940873 -0.056306943
000160 86 f5 d9 3c 50 a9 b8 3d 3e 24 0b bd 67 5c 2f bd
       0.026606333 0.09016669 -0.03397011 -0.04281273
000170 72 81 37 bd 97 b8 2b bd 52 23 89 3d 99 e7 1c bd
       -0.044801183 -0.041924085 0.0669619 -0.038306806
000180 cf 32 33 bb a6 21 a4 3a e8 2a 4a 3d 12 c4 0e 3d
       -0.0027343517 0.0012522235 0.049357325 0.034854956
000190 70 07 e6 bc 12 31 f1 3c a0 2c a9 3d c7 99 06 bc
       -0.028079718 0.029442344 0.08260465 -0.008215374
0001a0 a5 84 63 3c d0 b9 2f 3c 24 f8 b0 3c 37 8c 28 bd
       0.013886605 0.0107254535 0.021602698 -0.041149344
0001b0 cf 3e b0 3c 19 20 cb bc 7a ec 9b 3b c6 95 57 3d
       0.021514324 -0.024795579 0.004758415 0.05263307
0001c0 34 9a 91 bd e0 f1 7a bb 9e f2 4b 3d 92 a2 2d bd
       -0.0710949 -0.0038291141 0.049791925 -0.042391367
0001d0 51 06 36 bc 4f 67 b1 bc d3 95 15 3d df 37 c5 3c
       -0.011109904 -0.021655707 0.036519837 0.024074493
0001e0 35 90 5f 3d d5 3c 7c 3d 38 dc 96 bc e8 00 8d 3d
       0.054580886 0.06158145 -0.018415555 0.068849385
0001f0 fa 41 0b 3c da 9f a5 3c 7e 46 b7 bc 59 24 1d bd
       0.008499617 0.020217825 -0.02237248 -0.038364742
000200 cc a0 4c 3c b4 fb 04 bb a7 7a af bc 65 e2 3e bb
       0.012489509 -0.0020291628 -0.02142079 -0.002912664
000210 4c 03 97 bb 11 bb 41 3c fb 50 d1 bb a6 e6 26 bd
       -0.0046085473 0.011824385 -0.0063878275 -0.040747307
000220 91 8a 2c bd 9d 82 c7 3b b7 8d 8f 3b 0e 32 6c 3d
       -0.042124335 0.0060885684 0.0043809074 0.057664923
000230 92 5c 38 bc fd 17 42 3d af f9 71 bd df 0b bb bd
       -0.011252539 0.04738616 -0.059076007 -0.091331236
000240 a9 ea 33 bc a3 1a 5d bd cf da 12 bd a3 d7 b9 3b
       -0.01098124 -0.05398048 -0.035853203 0.005671458
000250 ef 39 45 bd 73 95 06 3d 39 8e 2f bd 53 7f 40 3d
       -0.048150953 0.03285737 -0.042860243 0.046996426
000260 ef 1c f5 3c c4 6b b7 bc 5d 14 7d bd 59 74 af b9
       0.029921023 -0.022390254 -0.061786998 -0.00033465287
000270 1e 20 38 bd 79 77 5e 3d 92 86 39 bd dc fe 97 bc
       -0.044952504 0.054313157 -0.045294352 -0.018554144
000280 85 85 fb bc 13 81 f9 bc f9 09 64 bc 05 6e 2b bc
       -0.030703316 -0.030457055 -0.013918393 -0.010463242
000290 0a 5d 8a 3c 48 4a c5 3b cf c9 06 3d 73 63 60 bc
       0.016890068 0.006020818 0.032907303 -0.013695586
0002a0 0a 53 00 bd 47 17 56 bd 4e 0f 97 3c 2e 55 1e 3c
       -0.031329192 -0.052268293 0.018439915 0.009663863
0002b0 82 b5 bb bc 2e 3e 85 3d 88 b6 1a 3b bb ce 1d bb
       -0.022913698 0.065060005 0.0023607332 -0.002407952
0002c0 52 95 73 3c 76 86 47 3d 7b 7d 3a bd 4b e9 f1 3c
       0.014867144 0.048712216 -0.045529824 0.029530188
0002d0 68 3d 08 3d d0 5e 11 bd 4e 78 d9 3c a0 f4 1e 3d
       0.033261687 -0.03549081 0.026546624 0.03880751
0002e0 97 58 8b 3d 77 fa be bc 6c 7c aa bc 0b 0c 02 bc
       0.068040065 -0.02331279 -0.020811282 -0.007937442
0002f0 61 78 d7 bb a6 99 20 3c b9 bc 34 3d c5 e2 7f 3d
       -0.0065756296 0.009802258 0.044125292 0.062472124
000300 e5 d8 3e 3c d2 1f 7c bc 5e cd 28 bc e7 45 4d 3d
       0.011648391 -0.015388446 -0.01030287 0.050115492
000310 40 86 ef 3a d1 62 1e bd 21 6e 31 bd d4 f3 f2 3c
       0.0018274263 -0.038668457 -0.043317918 0.029657282
000320 78 0b 2f 3c 56 0d 34 bd 57 42 29 bd b7 97 c9 3c
       0.010683887 -0.04395803 -0.041323032 0.024608476
000330 1e cf 28 3d 92 57 4c bc cd 02 24 3c 43 05 a4 bc
       0.041213147 -0.01247205 0.010010433 -0.02002204
000340 06 1a 2e b8 14 c2 75 3d f9 9a a1 bd 79 0e 0a 3d
       -4.150907e-05 0.05999954 -0.07890887 0.03370521
000350 f9 0e 5a bd 74 2c f2 bc 12 61 b7 bc bd 57 b4 bc
       -0.053236935 -0.029562213 -0.022385154 -0.022014493
000360 e9 75 29 bd 91 c0 a0 3b a4 aa 07 bd 94 05 4a bd
       -0.041372214 0.004905768 -0.03312172 -0.049321726
000370 48 87 5e bd 6d 42 79 bd d9 96 74 3d ef 24 02 bd
       -0.054328233 -0.060854364 0.059714172 -0.031773504
000380 ad 91 5c bd b3 76 4d 3c 67 6d 37 3c 07 34 40 3d
       -0.053849865 0.012540507 0.011195517 0.046924617
000390 ca d4 8c bd 0e aa b6 bd 02 60 1c bd c5 c0 8f bd
       -0.06876524 -0.08919154 -0.038177498 -0.0701919
0003a0 28 29 40 bd a2 d9 06 3d 41 b4 57 bb e2 3d 6e bc
       -0.04691425 0.032922395 -0.0032913836 -0.014541121
0003b0 21 06 7e ba 2e 1e 28 bd cc 80 06 3d 9d ad 0e 3c
       -0.00096902443 -0.041044407 0.032837674 0.008708385
0003c0 f9 e3 60 bc b4 02 3c 3d 9a eb d1 3c 32 67 f0 3c
       -0.013726228 0.045901015 0.025625039 0.029346082
0003d0 10 26 a6 3c 1f 01 5e 3d cf 0d 79 3b ee 39 26 bd
       0.020281821 0.054200288 0.0038002615 -0.04058259
0003e0 fe 42 b1 3b d9 30 a9 3c 60 98 19 3d bb aa a9 bc
       0.0054095974 0.020653175 0.03749883 -0.020711293
0003f0 7a a3 a4 3d 81 20 6b bc 2c 13 b0 bb fa a8 90 bd
       0.08038993 -0.014351011 -0.005373379 -0.0706348

conv2.bias f4 [32]
000000 1e 2b d7 bc 09 ec 9f 3c 69 a1 8f 3c 1b 84 4f bd
       -0.026265677 0.01952173 0.017533021 -0.050663095
000010 2f 1e 53 3d af d8 34 3d e2 0d db 3b 4e 75 d2 bb
       0.051542457 0.044151958 0.0066850046 -0.006422675
000020 43 55 5b bd 72 0e b5 bb a0 80 66 3d cc 9e 12 bd
       -0.05354811 -0.0055254037 0.05627501 -0.03579597
000030 be 67 2c bd d0 f9 da ba 9b 26 46 bd d6 26 f9 3c
       -0.042091124 -0.001670653 -0.04837666 0.030414026
000040 11 c7 37 3d 06 94 20 3d ef 1c 98 bc dd 06 39 bd
       0.04486758 0.039203666 -0.018568484 -0.04517256
000050 23 ad ad bc 3a ec 28 bc 1b 2b 3b 3c c5 f9 1c 3d
       -0.021200722 -0.010310227 0.011423851 0.038324136
000060 67 8e d3 3b 3a c3 6b 3d df 96 48 3d 85 f9 d6 bc
       0.0064561847 0.05755923 0.048972007 -0.026242027
000070 ed ea 82 bd 1a fc 06 bd a5 19 3e bd 47 fc 83 bc
       -0.06392465 -0.032955267 -0.046411175 -0.016111506

conv3.weight f4 [32, 32, 3, 3]
000000 a2 c9 4c bd 6e be c7 bc d6 cf 20 bd 70 58 01 3d
       -0.04999698 -0.024382796 -0.039260708 0.03157848
000010 af 1b d3 3c 2c 7a 4f 3d 89 8a a4 3c 7e cc 11 3d
       0.025770037 0.05065362 0.02008559 0.03559541
000020 3f 55 08 3c d4 ca 19 3c 55 44 49 bc 46 e8 3a bb
       0.0083211055 0.009386737 -0.012284358 -0.0028519793
000030 dc 4c 10 bd 33 36 f3 bc 72 7f b3 bc d8 4b 73 bd
       -0.03522955 -0.02968893 -0.021911357 -0.059398502
000040 1a 37 c4 3c 2c 29 13 3d 87 66 79 bd 85 2b a5 3c
       0.023952056 0.035927936 -0.060888793 0.020162353
000050 ea a5 e8 3c 87 25 8a bc 64 b9 ab bd 3e 04 9d 3b
       0.028399426 -0.016863598 -0.0838497 0.0047917655
000060 f2 8a 20 3d 20 2a 0b 3d f5 12 36 3d b8 6e af 3b
       0.03919501 0.03397572 0.044451673 0.005353775
000070 e1 ab 4f 3d fc 2f f9 bc bc d6 c1 bc c6 ce 1d bd
       0.050701026 -0.030418389 -0.023661964 -0.038527273
000080 83 f3 23 bd 62 ec 1b 3c 96 fa d2 bc 7a ad 59 3d
       -0.040027153 0.009516807 -0.025754254 0.053143956
000090 e6 97 a6 3b 42 8c 4a bd 2f 79 39 bc 39 a7 2c bd
       0.0050840257 -0.049450167 -0.011320396 -0.042151663
0000a0 1d 15 c3 bd cb dd f7 bc 1d 22 60 3d 9a 3b 24 bc
       -0.095255114 -0.030257126 0.054720033 -0.010023976
0000b0 89 a5 f2 bb ce 55 ba 3c cf bc 34 bd 2b e1 0e bd
       -0.0074049872 0.022745993 -0.044125374 -0.034882706
0000c0 04 e3 57 3b 9a d1 83 bd 2c ee e2 bc 2a 23 b9 3c
       0.0032941708 -0.06436463 -0.02770146 0.022599775
0000d0 c3 c3 96 bc 50 aa 2c bc d6 b8 42 3d fc 83 df 3c
       -0.018403893 -0.010538653 0.047539555 0.027284615
0000e0 67 97 34 3d 99 a8 86 bc df dd 1c 3d 97 61 80 3d
       0.0440897 -0.016437816 0.03829753 0.06268614
0000f0 1f 90 23 bc ad 8b 04 3b 24 42 9f 3c 96 26 05 3a
       -0.009983092 0.0020224855 0.019440718 0.0005079297
000100 0e 4d 82 bb 51 0e 0e 3c 53 60 9a 3d 29 e2 98 3c
       -0.003976471 0.0086704055 0.07537904 0.018662529
000110 db b5 1f 3c 4a f0 ca 3c 28 64 8a 3a 3d 89 06 bd
       0.009747948 0.024772782 0.0010558413 -0.032845724
000120 c6 1a f1 3c 38 44 8f 3d 13 b9 5b 3d b0 f5 16 3d
       0.029431712 0.069954336 0.053643297 0.0368554
000130 a1 1c 82 3d 62 04 26 bd 73 54 17 3d 90 3c 7b 3d
       0.06353117 -0.040531524 0.03694577 0.061337054
000140 79 34 c5 bc 22 4c ca bd 6e cf 52 3d 25 55 78 bd
       -0.024072872 -0.098778024 0.05146735 -0.060628075
000150 13 ca 8b bd 17 26 75 bd 32 93 46 bd a5 6e 6d 3d
       -0.06825652 -0.05985078 -0.04848022 0.057966847
000160 85 b4 e4 3c 4f e2 b2 bc fd f3 f6 bb a8 e9 60 bc
       0.02791811 -0.021836428 -0.00753641 -0.013727583
000170 50 e4 02 bd e7 9c b4 3d 7e fa b9 3d 48 b8 24 3d
       -0.031956017 0.08818989 0.09080981 0.040214807
000180 74 9c 95 3b f5 75 8d bd f7 53 86 bd 2b 74 76 bd
       0.00456577 -0.06907264 -0.06558984 -0.06016938
000190 5c f7 93 3c b3 1b d1 3c 73 90 3a bd 95 2f 5c 3c
       0.018062286 0.025525903 -0.045547914 0.013439079
0001a0 6d 69 92 bd 2d e2 c0 3c 49 a8 a1 bc 05 61 dd bc
       -0.071490146 0.023545349 -0.019733565 -0.027023802
0001b0 55 9f 12 bc 63 ba d4 bc a3 58 54 3d 45 97 31 bd
       -0.0089491205 -0.025967782 0.051842343 -0.043357152
0001c0 d7 c3 76 bc 4f 45 5a bd cc 3f a1 3c 9d e8 26 3d
       -0.01506134 -0.053288754 0.019683741 0.04074918
0001d0 d7 24 c7 3a 77 e5 71 bc fe 90 fa 3c 80 ce a2 bc
       0.0015193474 -0.014764181 0.030586716 -0.019873857
0001e0 da 51 16 3d 05 59 b5 bd 29 95 c5 bc 1e dc 91 3d
       0.036699153 -0.0885487 -0.024118977 0.07122062
0001f0 87 96 f7 bb bf 26 70 3d 82 e8 65 3d 09 52 20 3d
       -0.007555786 0.0586307 0.05612994 0.039140735
000200 c3 d1 27 bc 1c 48 22 3d 22 92 8a 3d 23 e6 82 3c
       -0.010242882 0.03961955 0.06766154 0.015978878
000210 5a c4 5b bc e9 a6 dd bc 4c e2 31 bd e5 c1 4d bd
       -0.013413513 -0.027057128 -0.043428704 -0.05023374
000220 15 ae 00 be 48 18 ee bd 98 e7 c2 3b a6 91 f6 3c
       -0.12566407 -0.11625725 0.0059480183 0.030098747
000230 39 b5 86 3d 29 44 96 bd 31 2d ee bd a3 9a 39 bd
       0.06577534 -0.07337219 -0.11629713 -0.04531349
000240 ea 4d 67 bd 14 ab ef bc c5 95 c2 3c 51 a2 07 bd
       -0.05647079 -0.029256381 0.023753056 -0.03311378
000250 79 e8 78 bc 46 4c aa 3b 89 f4 8e 3d c3 b9 69 bc
       -0.015192145 0.005197081 0.06980235 -0.01426548
000260 66 43 0f bd d2 c1 83 3c fa d4 8e bb f4 1b 49 3d
       -0.034976386 0.016083632 -0.004358885 0.049098924
000270 74 d0 b7 bc 27 81 c7 3c a4 71 08 3d 14 55 69 bd
       -0.022438265 0.024353577 0.0333115 -0.056965902
000280 6c 99 9c 3d 3e 98 33 3c 9b 98 80 3d a1 15 09 bc
       0.076464504 0.01096159 0.06279107 -0.008366973
000290 a4 96 5a 3d c9 62 ed 3b 50 1c c6 bc 5c 53 e3 bb
       0.05336632 0.007244442 -0.024183422 -0.0069374274
0002a0 69 10 1b bc 2d 70 15 3c 60 ed 8c 3d e8 07 a8 3c
       -0.009464362 0.009120983 0.06881213 0.020511582
0002b0 2a a4 2e bd d7 11 7f 3c f1 6a 55 bd a4 5b 80 3b
       -0.042637028 0.015568218 -0.05210394 0.0039171744
0002c0 be 37 ea 3c 3a 7c 56 3d 33 a5 b6 bd f0 47 22 3c
       0.028591033 0.052364565 -0.08918228 0.009904847
0002d0 c1 65 98 3b 3e 92 b2 3d 7c 3e c7 bc df 57 3e 3d
       0.004650802 0.087193 -0.024321787 0.04647052
0002e0 71 43 57 3d a8 05 79 3d 03 d2 3b 3d c2 af 17 3d
       0.05255455 0.06079641 0.04585458 0.03703285
0002f0 ee ad a1 3d 23 73 1a 3c be 16 ad 3d 71 ae 11 3d
       0.078945026 0.009426865 0.08451603 0.03556675
000300 f3 e9 b0 3c 1d 61 26 bc 5e d3 55 3d f6 b0 70 bc
       0.02159593 -0.01015499 0.05220353 -0.014690628
000310 8f 06 ff 3c ed dd 24 bd 52 1e 8d 3d ae c3 2e bb
       0.031131057 -0.040250707 0.06890549 -0.0026666927
000320 19 a0 11 3d 82 31 e5 bc 50 ba a5 3d 31 6e ad 3c
       0.03555307 -0.027977709 0.08092177 0.021170707
000330 3e e3 81 bb a7 b7 fa 3c a5 5a 03 3d c7 3b 2b 3c
       -0.003963857 0.03060515 0.032068867 0.010451264
000340 6c 3f 99 3d 84 08 6d bd 7f 2f 26 3d 9a 1d 53 bd
       0.074828 -0.05786945 0.04057264 -0.051541902
000350 55 fa 0c bd b6 db ed bb 08 5d c3 bc 8c 55 76 3c
       -0.034418423 -0.0072588576 -0.023848072 0.015035044
000360 90 3a 73 3d 5d 45 e6 bc b6 82 53 ba 3e 57 9b bb
       0.05938202 -0.028109247 -0.00080684887 -0.0047406247
000370 82 a3 86 3d eb fa bf 3d 6d b2 bb 3c 3b 21 ad 3c
       0.065741554 0.09374031 0.022912228 0.02113401
000380 df f4 99 3d 41 a4 59 bd 9c d3 20 3d 85 3f 8b bc
       0.075174086 -0.05313516 0.039264306 -0.016998062
000390 13 32 ea 3b f4 cf 84 bd fb e7 a2 bc 00 d3 3c 3d
       0.0071470826 -0.064849764 -0.019886008 0.046099663
0003a0 19 7a 34 3d 75 bd 42 bb 53 ec 37 bd 92 f7 8c bc
       0.044061754 -0.0029714976 -0.04490311 -0.017207894
0003b0 df cb 4c 3d fc 8a cd 3c 76 07 0f bc 86 85 7c 39
       0.049999114 0.025090687 -0.008729806 0.00024082334
0003c0 bd e9 e5 3c be 98 64 bd 08 6c e5 bc b6 33 51 3b
       0.028065557 -0.05580973 -0.028005615 0.0031921691
0003d0 b0 ca f9 3c fc 4c 31 3d 16 b5 6f 3d bf 77 22 bd
       0.030492157 0.04328631 0.058522306 -0.03966498
0003e0 b3 7c b4 3c fb 93 72 3c f6 06 f1 3c a9 88 2e 3d
       0.022032117 0.014805789 0.029422265 0.042610798
0003f0 f5 6b 68 bd ae 86 8c bd 5a 99 02 ba 6f a0 8c bd
       -0.05674358 -0.068616256 -0.00049819576 -0.06866538

conv3.bias f4 [32]
000000 75 42 b9 3d fc d7 98 bd eb 3e 79 bb 54 46 9f 3d
       0.09045879 -0.07463071 -0.0038031887 0.07777086
000010 0e bb ca 3c d3 21 b1 bd 0f 98 3a bd 7c cb 0d bd
       0.024747398 -0.086490296 -0.04555517 -0.034617886
000020 c1 e9 66 3c bb d6 55 bd 86 55 a7 3c ca cd 7f bd
       0.014093817 -0.052206736 0.020426523 -0.062452115
000030 b1 6b d6 3c bd 82 3e bd f4 fb a2 3d 75 c0 6d 3a
       0.026174398 -0.0465114 0.079582125 0.0009069511
000040 a8 48 c1 3d 6d e7 de bc f6 48 7b 3c 3a b2 4a bd
       0.09437686 -0.027209962 0.015337219 -0.049486376
000050 ed b6 b0 bc ec b6 5d 3c 30 b8 b8 bc 69 a7 b5 3c
       -0.0215716 0.0135323815 -0.022548765 0.022174554
000060 0b d9 29 3b 3f 53 9b bd 86 86 af 3d 62 3f 4c 3d
       0.0025916721 -0.07584237 0.0857058 0.049865134
000070 f2 b2 0f 3d e9 61 c7 3d 17 df 98 bc cb c8 ac bc
       0.035082765 0.09735472 -0.018661065 -0.02109184

conv4.weight f4 [32, 32, 3, 3]
000000 eb 8c 93 bc 21 0a 25 3c 43 03 51 3c 13 53 6b 3c
       -0.01801153 0.010073216 0.012757125 0.014363068
000010 2d 45 8a bd 63 66 03 3d ce 64 80 bc a3 1f 84 bc
       -0.067514755 0.032080065 -0.015673067 -0.016128367
000020 74 25 00 3d 55 e3 78 3b 22 22 fa bc 6a da 86 bb
       0.031285718 0.0037977297 -0.030533854 -0.0041153925
000030 88 c6 f9 3c 4f e0 00 3d 06 e7 5e bd da 5e 27 3d
       0.030490175 0.031463917 -0.05441954 0.040861942
000040 df 45 43 3b 0b ac b4 bc ae ce 53 bd da a4 52 bd
       0.0029796285 -0.022054693 -0.051710777 -0.051426746
000050 27 51 3b 3c f2 da 64 3d 81 ed b1 bd 37 74 3e 3d
       0.011432922 0.055872865 -0.086878784 0.04649755
000060 b0 f0 0a 3c 1a 2c 8a 3d ca 74 0e 3d e8 5e 9a 3c
       0.008480236 0.06746693 0.034779347 0.018844083
000070 b2 b9 6b 3d 05 14 5b bc 4d 3d 02 3d b1 a8 7f 3c
       0.05755014 -0.013371472 0.031796742 0.015604184
000080 f1 81 0b bd 0e 69 10 bd 27 ce 77 3c 71 50 7b 3d
       -0.03405947 -0.035256438 0.015124834 0.06135601
000090 19 fc f3 3c 0b 66 4e bd 31 30 b8 bb 0d 9e 07 bd
       0.029783295 -0.050390285 -0.0056209792 -0.033109713
0000a0 be 60 47 bb cb 69 e3 bc 49 2e 39 bd f8 dd 0a bd
       -0.0030422653 -0.027760407 -0.045210157 -0.033903092
0000b0 a0 c2 d4 bd 66 d9 60 bd fb 93 1f bd 00 f0 03 bd
       -0.10388684 -0.054894827 -0.038959485 -0.032211304
0000c0 a8 e6 7c bc a3 b6 0f bd bd 08 5b bd 5b a9 dc 3a
       -0.015435852 -0.035086285 -0.05347513 0.001683514
0000d0 6d f1 47 bd 1a 9a c4 bc 4e cb 65 3d e6 73 86 3c
       -0.048814226 -0.023999263 0.05610209 0.016412687
0000e0 ab 6f 93 bd b8 d9 15 3b 84 23 4e b9 49 d3 a4 bc
       -0.07199033 0.0022865366 -0.00019658922 -0.02012028
0000f0 92 84 84 bc 40 77 d5 3c 01 3c 5a 3c f4 d6 22 bd
       -0.016176496 0.02605784 0.01331997 -0.039755777
000100 ba 2d 3f 3d 63 b9 be 3c ad dc f8 bc 91 28 60 3d
       0.046674468 0.023281759 -0.030378664 0.054726187
000110 d4 e5 c1 3b 46 68 05 bd 17 0a 63 bd 61 0d c3 3a
       0.00591729 -0.032570146 -0.055429544 0.0014881307
000120 6a d3 8c bd 2e 56 68 bd b0 f8 20 bd 64 23 1a 3d
       -0.068762615 -0.056722812 -0.039299667 0.037631407
000130 bb 41 73 3d 92 8d f8 3c 0b 88 4a bd 00 36 6c 3c
       0.059388857 0.030340943 -0.049446147 0.0144171715
000140 61 86 fa 3c be 95 98 3c a6 57 4a bd b1 40 96 3d
       0.030581655 0.01862609 -0.049399994 0.07336558
000150 09 3f f9 3c f8 e0 63 bd 08 d8 18 bd 65 1c 7f 3c
       0.030425565 -0.05563447 -0.0373154 0.015570735
000160 d8 74 c8 3c 1a b5 e8 3c db f0 ff 3c 15 84 62 bd
       0.024469778 0.028406668 0.031242779 -0.055301744
000170 08 d8 55 3d 21 fc 4a 3c d1 37 62 bc 2e 1e 07 bd
       0.052207977 0.012389214 -0.013807253 -0.032987766
000180 95 4e be 3c ed 62 11 3c 2c ea 44 3b 7f c5 1d 3d
       0.02323083 0.008873683 0.0030046804 0.038518425
000190 28 ae 65 3d 15 d8 92 bc c9 5d d4 3a 85 cc b0 3c
       0.05607429 -0.017925302 0.0016202267 0.021581898
0001a0 21 8b 00 bd b7 b0 7c bb 38 8b de 3c 05 69 03 bd
       -0.031382684 -0.0038557479 0.027165994 -0.032082576
0001b0 f5 ef 36 bd 97 58 71 bd dd b6 96 3c ce 53 17 3c
       -0.044662435 -0.058922376 0.018397743 0.009236289
0001c0 e6 d3 7e bd 70 ee 51 3d 3c db 4b 3d 37 2b af 3b
       -0.0622138 0.051252782 0.049769625 0.005345728
0001d0 94 7e a8 bc a1 51 c0 ba 7a 41 25 3c 85 ff f2 3c
       -0.02056817 -0.0014672765 0.010086412 0.029662857
0001e0 34 fe 6a 3d e1 a6 9f bc d1 14 46 3d 82 ef 13 bc
       0.057371333 -0.019488754 0.048359696 -0.009029271
0001f0 51 1c 2b bd bb c9 8b bd 3b a0 fc bc 1e 67 7e bc
       -0.04177505 -0.068255864 -0.030838123 -0.015527515
000200 3e 58 96 bb a4 59 61 bd 7e f2 d8 bb 3f c4 67 3d
       -0.004588156 -0.05501713 -0.006620704 0.05658364
000210 7b df 6a 3c ac 47 cf 3c c1 d8 cb 3c d8 5e 01 3d
       0.014335508 0.02530273 0.02488363 0.03158459
000220 d2 db 4e 3d a2 6d 63 bd 71 03 dc bc 25 37 92 3d
       0.050502606 -0.055524476 -0.02685711 0.07139424
000230 8e 0d d1 bd 65 b1 8f bb 3c c0 c6 3c 75 a6 71 bd
       -0.102076635 -0.0043851607 0.024261586 -0.058996636
000240 3b b2 4e 3c 76 2f e5 3c 63 c4 98 bc d9 7f bc 3c
       0.012615736 0.027976733 -0.018648332 0.023010181
000250 75 ea cf bb 1b 61 90 3d 1a f2 37 3d 3b 80 95 bc
       -0.006345088 0.070497714 0.04490862 -0.018249622
000260 e7 be 11 bd e2 09 2b bd 6c 5f 90 ba d3 a2 73 bd
       -0.03558245 -0.04175747 -0.0011014766 -0.059481453
000270 7d f1 d3 3c 49 9a d2 3d d2 16 ed 3b b9 d4 02 3c
       0.025871987 0.10283334 0.0072353864 0.007985287
000280 70 03 e3 bc 8c 51 d3 3c df d6 b4 bc 9d 12 d1 bc
       -0.0277116 0.02579572 -0.022075115 -0.02552157
000290 13 9a 2f bd 7b 07 8c ba d7 06 8a 3d 92 9b 06 bd
       -0.042871546 -0.0010683382 0.06739586 -0.032863207
0002a0 fd 8d 80 bd d3 db 95 bc f2 95 50 bb 1e c0 53 3d
       -0.06277082 -0.018293297 -0.0031827656 0.05169689
0002b0 54 04 08 bd 4d aa 8c bd ec 71 4f 3d 97 88 50 bd
       -0.033207253 -0.0686842 0.050645754 -0.050911512
0002c0 d4 5b 5a 3a 29 d1 d5 3c 36 9c 2e 3c b4 ff 17 3d
       0.00083297235 0.026100712 0.010657361 0.037109092
0002d0 48 d0 45 3d d9 c2 51 3d ff e1 c6 3c f8 a5 50 3c
       0.048294336 0.05121121 0.024277685 0.0127348825
0002e0 64 2c ce 3c 9a 77 14 bc de a7 30 3b a9 c4 13 bd
       0.025167651 -0.009061718 0.0026955525 -0.03607622
0002f0 7c 02 a9 3c 14 75 1e 3b 9d 20 3b bc d7 5d 44 3d
       0.020631067 0.002417867 -0.01142135 0.047941055
000300 bc 66 ab 3c 51 f4 85 bd e0 26 14 bd aa 26 7d bc
       0.020923011 -0.0654074 -0.036169887 -0.015451113
000310 fa 95 07 3d 96 53 15 bd 06 64 b2 bd 48 a8 0a 3d
       0.033102013 -0.036456667 -0.08710484 0.03385189
000320 55 6f 8c bc 26 81 9f 3c 65 b2 90 3c 09 cb 8a bc
       -0.017142931 0.019470762 0.01766319 -0.016942518
000330 fd 16 56 ba b2 14 7d bd a1 0c 15 bd 1b 08 99 3c
       -0.00081668777 -0.061787315 -0.036388997 0.018680623
000340 3b 1d 23 bd 1c a1 cc bc d5 50 88 bd 92 c2 12 3d
       -0.0398228 -0.024979167 -0.066560425 0.035830088
000350 dd 3b a4 3d 43 b1 6c bc 15 7e f0 bc 5d 0a 44 3d
       0.080192305 -0.014446559 -0.029356996 0.047861446
000360 48 98 0f 3d ec c8 ab bd 74 f4 01 3c 94 54 3f bd
       0.035057336 -0.08387932 0.007931817 -0.04671152
000370 94 15 62 bd 8a 9f 8c bc 2a bf 20 3d 26 f9 1f 3c
       -0.05519636 -0.017165918 0.03924481 0.009763991
000380 59 a5 25 3d f2 13 73 bc 10 d5 88 bd b6 0a 98 3c
       0.04044089 -0.014836298 -0.066812634 0.018559795
000390 65 e0 74 bc 22 54 ae bc 58 af 1b 3a 01 6e c5 3c
       -0.014946078 -0.021280352 0.0005938909 0.024100306
0003a0 b3 b2 3c bd 58 9c 3d ba 4e a1 24 38 d8 88 8d bd
       -0.04606886 -0.0007233075 3.9250874e-05 -0.069108665
0003b0 50 a0 3e bc 0d d0 61 3c c5 bf 73 bc ab 2a 20 bc
       -0.011634901 0.013782513 -0.014877264 -0.009775798
0003c0 27 22 82 bd 58 ad 78 3d 9c ef 2d bd 3a e1 81 bd
       -0.0635417 0.06071219 -0.042464837 -0.06341787
0003d0 01 2a 03 3d 80 66 b4 bc 88 bc 95 bc 1c 46 63 bd
       0.03202248 -0.022021532 -0.018278375 -0.055486783
0003e0 1a 99 ed bc 76 6e 39 bd d5 65 48 3d 2e 6f 53 bc
       -0.029003669 -0.04527136 0.04892524 -0.012904925
0003f0 55 fd b5 3c 8b 4a 6e bd 8d 2b b9 bc 0a 0d 8b 3c
       0.022215525 -0.05817656 -0.022603774 0.016973991

conv4.bias f4 [32]
000000 c8 8c 2b 3c be c2 9b 3c d4 52 85 bc 3c f3 0d bd
       0.010470577 0.019013759 -0.016274847 -0.034655795
000010 d6 a1 bf bd eb 5b c9 bc dc d2 59 bd 2a c1 bf 3c
       -0.0935704 -0.024579963 -0.053179607 0.023407537
000020 b8 cb 56 bd 9d 8e 43 3c d8 b6 a4 bd 75 ae 60 bd
       -0.052440375 0.011935857 -0.08042687 -0.054853875
000030 c7 e0 3d bd 79 f7 ae 3d b1 6a 76 bd 73 dd 8e bd
       -0.046356943 0.085432954 -0.060160343 -0.06975832
000040 f4 8b 3d bd 3e d7 3b bd 06 03 94 bd 9d 9c 7d bd
       -0.046276048 -0.045859568 -0.07227139 -0.061916936
000050 a5 97 3d bc d6 08 c1 3c c8 80 8c 3d 15 d5 a3 bd
       -0.011571799 0.023563784 0.068605006 -0.079996265
000060 4e ef 04 bd c6 95 34 bd cb 6f af bd e4 05 fc bd
       -0.03245478 -0.044088148 -0.08566245 -0.12305811
000070 dd b5 09 3d 01 e3 57 bb 58 c9 16 3d 0a b5 1b bd
       0.033620704 -0.0032941701 0.03681311 -0.03801445

linear.weight f4 [32, 800]
000000 86 9c 5c 3d 52 28 94 3c 8d b7 02 bd d1 ce c7 bc
       0.05386021 0.018085632 -0.03191333 -0.02439061
000010 51 6e 89 3c 71 2e 37 3c 64 9c 27 3d c6 79 37 bc
       0.016776236 0.011180506 0.04092063 -0.011198467
000020 5c 91 87 3c 9e da 39 3d 0e 0f 66 bc ed ec 1a bd
       0.016548805 0.045374505 -0.014041675 -0.037823606
000030 a0 f4 b6 bb 12 2a ac bc b9 35 52 bd f3 6a ab 3c
       -0.005583361 -0.021016154 -0.051320765 0.02092502
000040 29 d9 6a bc 02 e9 2d bc e8 84 aa ba ae d5 af bb
       -0.014334002 -0.010614635 -0.001300958 -0.005366049
000050 23 15 66 bc 61 9e 27 ba 9b 5f 0b bd 33 6a 5e bc
       -0.014043125 -0.0006394145 -0.034026723 -0.013575125
000060 2a 12 49 bc a8 d1 56 bb 25 b3 8f bb 11 19 88 bc
       -0.012272397 -0.0032778773 -0.0043853694 -0.016613515
000070 1d c0 9d 3c 16 a6 3b bb 7c 05 23 bd 1c b8 c8 3c
       0.019256646 -0.002863293 -0.039800152 0.024501853
000080 4f db 80 3c 12 6f 96 3c 5f 79 ce bb a0 88 15 3d
       0.015729574 0.01836351 -0.0063010897 0.03650725
000090 de c3 5e 3c 54 f0 69 bd 2d 37 46 bb 12 fe 01 bb
       0.013596503 -0.05711396 -0.003024529 -0.0019835276
0000a0 69 d8 d9 bc f6 c6 49 bd d3 3c 0b bd 6a 12 a5 3c
       -0.02659245 -0.04926201 -0.033993553 0.020150382
0000b0 bb 2a 67 3d e2 cb 47 bc 1e 1d d2 bc 4f d8 09 3d
       0.056437235 -0.012194606 -0.02564865 0.033653554
0000c0 ec 43 6c 3c ae dc 57 3a f5 5c 6e bd 21 e6 74 bc
       0.014420491 0.0008234483 -0.05819412 -0.014947445
0000d0 d5 56 08 3b 87 c3 ed bb a5 55 c0 3c 36 bb cb bc
       0.002080371 -0.0072559747 0.023478338 -0.024869543
0000e0 7f f4 1b bd 5f 34 80 3c 7e a5 a0 bc db 87 54 3d
       -0.038074967 0.015649972 -0.019610163 0.051887374
0000f0 af 1a 56 3b 7c a8 b3 bb 7f fd 19 bd b7 14 6e bc
       0.0032669713 -0.0054827314 -0.03759527 -0.014531306
000100 b1 45 3e 3b 49 e1 0f 3d a3 6e 56 3c d5 3e 39 bb
       0.0029033239 0.035126958 0.013087901 -0.002826621
000110 0d 59 cc b9 27 95 61 3b 82 14 28 3d 52 55 a9 bc
       -0.0003897626 0.0034421177 0.041035183 -0.020670567
000120 20 ce 60 3b 7b c5 f6 bc 8e 18 67 3c 60 78 b0 3c
       0.0034302548 -0.030123463 0.014104975 0.021541774
000130 e6 e8 7b 3c 65 51 01 3d f7 46 2f 3c 42 f6 2f bd
       0.0153753515 0.031571764 0.010698072 -0.04295946
000140 ca e8 d4 3c ee ae e5 bb 59 36 a4 3b d6 fe f0 bb
       0.025989909 -0.0070093786 0.0050113616 -0.0073545976
000150 fa 62 f8 bc 10 79 35 3c 39 7b 14 bd e1 e0 0d 3c
       -0.030320633 0.011076227 -0.036250327 0.008659572
000160 c1 b8 e8 3c 7f 31 77 3c c9 ca 27 3c cd 09 99 bc
       0.02840841 0.015087484 0.010241219 -0.018681431
000170 fa 6c 0a 3d 85 b2 c7 3c 80 99 06 3d 2f be 73 3b
       0.033795334 0.024377117 0.032861233 0.0037192216
000180 5a 9a 55 3d c8 e6 35 3d f7 cb e6 3c fa 0b 7c 3c
       0.052149154 0.044409543 0.02817343 0.015383715
000190 d7 af 3e bd 02 e4 95 bc b7 e8 ca bc 2e 98 f1 3a
       -0.046554413 -0.0182972 -0.02476917 0.0018432194
0001a0 8d 99 97 bc b1 48 09 3c 9d 1f a1 3c 8e 42 ff bc
       -0.018505836 0.008379147 0.019668395 -0.031159665
0001b0 51 e5 08 3c 61 27 24 3d 9b 96 0c bd b9 32 c4 3b
       0.008355455 0.040076617 -0.034323316 0.005987492
0001c0 84 b7 2c 3d 60 13 a8 3c 24 d6 a2 3d cb 33 8a bc
       0.0421672 0.020517051 0.07951 -0.0168704
0001d0 c9 cf c9 bb c5 8f 24 3c 15 6f 0c bd db 7f eb bc
       -0.006158803 0.010044043 -0.034285624 -0.02874749
0001e0 91 d0 c7 bc 2b 6d e9 bc 3b 75 c7 3b e6 44 ab bc
       -0.024391444 -0.028494438 0.006086973 -0.020906877
0001f0 e0 bd 30 bd 54 ca 12 3d a3 e2 4d bb 8f bb c8 bb
       -0.04314983 0.035837486 -0.0031415604 -0.0061258744
000200 1f 26 e8 bc 75 d0 89 bc 87 20 62 3c c3 f9 1e 3d
       -0.02833849 -0.016823033 0.0138017 0.03881241
000210 a3 72 a9 3c e5 75 bc bc 7c fa f4 3c ab b8 00 3d
       0.020684546 -0.023005435 0.029904597 0.031426113
000220 d6 22 0e bd 74 70 39 bc 92 ca f7 3c b7 e9 cb 3c
       -0.03470119 -0.011318315 0.03024796 0.024891717
000230 b6 a7 26 bd 11 b9 b3 3b 7e b3 c3 3c 90 c8 89 bc
       -0.040687285 0.005484708 0.0238893 -0.016819268
000240 32 83 65 bb 4d cb 02 3d dd 79 d4 3c bf c5 27 bc
       -0.0035020825 0.031932164 0.025937015 -0.010240017
000250 c0 89 b0 bc 8f 4d 20 3d 2c a7 87 bd 61 b8 34 3d
       -0.02155006 0.039136466 -0.066236824 0.04412115
000260 79 02 d5 bb eb 9d 9c 3c 49 d6 fb bc e9 a9 4a bd
       -0.006500539 0.01911827 -0.030741828 -0.049478445
000270 2a 54 c7 3c f2 59 70 bd 7b 82 12 bd de df 80 3d
       0.024332125 -0.05867953 -0.035768967 0.06292699
000280 21 ca 48 3c df 5b 07 3d db d2 52 bc 26 ec c8 bc
       0.012255223 0.0330466 -0.012867655 -0.024526667
000290 64 f9 c6 3b ae 84 63 3c 59 ec 04 3d 8d cf 1f bd
       0.00607221 0.013886614 0.03245196 -0.039016295
0002a0 2d 33 51 bc 20 f3 b5 bc 4b ef f4 3c c6 02 b5 3c
       -0.012768549 -0.022210658 0.02989926 0.022096049
0002b0 b0 77 ae 3c 92 0f fe bc e5 27 22 bc 40 e6 1c 3d
       0.021297306 -0.031013284 -0.009897207 0.03830552
0002c0 c1 b6 3e bd 35 3d bc 3c cb 4c 88 3c 57 28 9d bc
       -0.046561006 0.022978405 0.01663818 -0.019184275
0002d0 9e 05 8e bc 41 ba 3c 3c 96 93 06 bd b0 0a 7c bc
       -0.017336663 0.011519016 -0.032855593 -0.0153834075
0002e0 ee b2 92 bc de 4d b0 bb 6e e8 f1 3c 2d b1 b4 bc
       -0.017907586 -0.0053803762 0.029529776 -0.02205714
0002f0 59 0f 78 bc c5 ab f3 3c 9e 06 c7 bc 25 f6 1a 3d
       -0.015140378 0.029744992 -0.024295148 0.037832398
000300 e9 52 9d 3c e8 06 b0 3c 22 7f 09 bd 8f 08 43 bc
       0.019204574 0.021487668 -0.03356851 -0.011903896
000310 e7 76 93 3c 7d d3 27 bc 20 3f 80 bc b7 64 a7 3c
       0.018001033 -0.010243294 -0.0156551 0.020433767
000320 0b 95 aa 3b d2 39 79 3d 15 b2 f3 b9 59 51 43 bc
       0.0052057556 0.060846157 -0.00046481253 -0.01192125
000330 40 6e 7b bd c2 31 9c 3c e5 7e 17 bd 6e dc a6 3c
       -0.06138444 0.019066695 -0.03698625 0.020368781
000340 a9 46 ba bc 8a 3b b6 3c 2d 4e c9 3c e6 6e c5 3a
       -0.022738772 0.022245187 0.02457341 0.0015062958
000350 48 60 b9 bc ff 9c c3 bc 47 52 d8 3c b0 16 25 bc
       -0.022628918 -0.023878573 0.02640642 -0.01007621
000360 83 98 68 bc c2 2e 89 3c 39 ba e7 3c fb 16 03 3d
       -0.014196518 0.016745929 0.02828704 0.032004338
000370 04 b2 b8 3c c1 06 12 bd e3 8b 46 bb 8f 3c 24 bd
       0.022545822 -0.035650972 -0.0030295781 -0.040096816
000380 ec db e7 bb 9f 38 10 bc 83 63 ec 3c 7c 95 b4 bb
       -0.0070757773 -0.008802562 0.028856045 -0.005510984
000390 16 47 41 bd a1 0a 5f 3c b2 c6 12 bd 95 0f a2 3c
       -0.047186933 0.013613374 -0.035834022 0.01978282
0003a0 5e a6 04 bd 99 fe c6 bc 2f 63 b9 3b 3d fa 3f bc
       -0.032385223 -0.024291323 0.0056575756 -0.011717376
0003b0 f1 0a e3 3b 59 86 b0 3c 89 da 0b 3d 80 07 de bb
       0.0069287946 0.021548437 0.03414396 -0.0067757964
0003c0 1d cd f8 3c 24 b4 3f bc 23 1f 60 bc 90 1f fd 3a
       0.030371243 -0.011700664 -0.013679299 0.0019311775
0003d0 ae ae 02 bd d6 46 2a bc f0 4f bb 3b 6d 28 6b bc
       -0.03190487 -0.010392865 0.0057163164 -0.0143529
0003e0 2f 85 ef 3c ed 46 06 3c e0 be 7a bd 3a 65 81 3c
       0.029238312 0.008195621 -0.06121719 0.015795339
0003f0 f2 a3 87 3c 0e da 63 3b e9 52 9e bc 20 f2 06 bd
       0.016557667 0.0034767422 -0.019326644 -0.032945752

linear.bias f4 [32]
000000 58 cb 9e 3d 62 a7 d6 bc 21 96 96 bc 53 ae aa bb
       0.077536285 -0.026202861 -0.018382134 -0.0052087693
000010 6d 31 07 3c de 64 60 3d 77 de 9a bd aa 35 53 3d
       0.00825153 0.054783694 -0.07561963 0.05156485
000020 24 64 fe 3c d6 40 11 bd ca b1 fc bc 10 b4 96 bd
       0.03105361 -0.035462223 -0.030846495 -0.07358563
000030 e7 b1 9d bc 7c 89 83 3d 6b 34 f2 bc ba a1 8e 3d
       -0.01924987 0.064227074 -0.02956601 0.06964441
000040 ea b7 98 bc 93 5c fb 3c 01 06 41 3d 0c 19 52 bd
       -0.018642385 0.030683791 0.047124866 -0.051293418
000050 1c 9e 77 3d d6 33 6b bb bb fc af 3c e7 ac 38 bb
       0.06045352 -0.003588905 0.021482816 -0.002817923
000060 21 f4 33 bd 3d f9 4b 3d 90 86 df 3c 19 fd a3 3d
       -0.04393399 0.04979824 0.027285844 0.08007259
000070 e3 28 28 3d e2 b9 cb 3b 95 9e a4 bd 33 90 b8 bc
       0.041054618 0.0062172273 -0.080380596 -0.022529697

critic_linear.weight f4 [1, 32]
000000 93 b1 ff 3d 95 43 10 be 0f a9 1f be 92 c6 92 bb
       0.124850415 -0.1408828 -0.15591834 -0.004479238
000010 ce 06 55 3c 34 cb 9a 3d 4c 5e d3 bd cc 48 51 3d
       0.013002111 0.07558289 -0.1032072 0.051094815
000020 76 c3 a5 bb f4 0a b3 bd aa 5b 0b bd 75 09 b6 bd
       -0.005058701 -0.087423235 -0.034022965 -0.088885225
000030 68 cd d5 bc f0 d3 ff 3d 4e 52 03 be b6 27 90 3d
       -0.026098922 0.12491596 -0.12824365 0.07038824
000040 24 d9 82 bd 18 39 fd 3d 10 21 78 3d 6c 07 14 be
       -0.063890725 0.123644054 0.060578406 -0.14455956
000050 5b 04 a0 3d 1b 65 9b bd 30 bd c2 ba 01 f5 bc 3c
       0.07813331 -0.07587644 -0.0014857408 0.023066046
000060 e0 be 0f bd 9c e3 be 3d f8 86 7e 3d 86 7a f1 3d
       -0.035094142 0.09320757 0.062140435 0.117909476
000070 21 f9 7c 3d 58 c4 85 3a 1f 32 fa bd af 99 0b bc
       0.061761025 0.001020561 -0.12216591 -0.008520528

actor_linear.weight f4 [6, 32]
000000 3a b7 00 bd 0a 5f e1 3d 1d 7b e3 bd 11 be 90 bd
       -0.03142474 0.110044554 -0.11107466 -0.07067502
000010 d3 ca 93 3d 20 b5 96 3d 6a a0 87 3b 39 ba 44 bd
       0.0721642 0.073587656 0.004138996 -0.04802916
000020 3c b4 94 bd dc 9e 8b 3c cc df 10 3e 6d 34 5a 3d
       -0.072609395 0.017043523 0.14147872 0.053272653
000030 14 d2 0a be 75 9f ca 3d 8f 7d a4 bd e5 f6 1c 3e
       -0.13556701 0.09893695 -0.08031761 0.15328558
000040 fa f5 9b 3d 64 d7 f4 bd 80 09 fc 3c 2d 84 cb bd
       0.07615276 -0.11955145 0.030766249 -0.0993732
000050 54 4c 84 bd 01 7d 98 bd 24 f6 a0 bd f6 82 6b 3d
       -0.06459871 -0.074457176 -0.078594476 0.05749794
000060 26 2f 02 be a9 f8 74 3d d6 95 57 bc a7 78 12 be
       -0.12713298 0.059807453 -0.013158282 -0.14303838
000070 55 d2 b8 ba a6 47 aa bd 77 fd bd 3d 0c e6 14 3d
       -0.001410077 -0.08314447 0.0927686 0.036352202
000080 41 6c 6e 3c 76 2b 97 bc f3 ee d5 3c 10 50 d5 3b
       0.014552177 -0.018453341 0.026114916 0.0065097883
000090 4b 6a 38 3d 80 cc b5 bd 96 c8 d6 3d f2 ee 78 bd
       0.045023244 -0.08876896 0.104874775 -0.06077475
0000a0 66 9c 1c bd 9f a3 b2 bd 64 fa 0d be 1e 9e 0a 3e
       -0.03823509 -0.087226145 -0.13865048 0.1353688
0000b0 59 92 36 bc c1 47 16 3e cf 3f 1a be f7 92 1d 3d
       -0.01114329 0.1467581 -0.15063404 0.038470235
0000c0 00 b3 01 3d ff 48 88 bd 61 23 f2 bd f8 15 5c bd
       0.03166485 -0.06654548 -0.11823154 -0.05373189
0000d0 2d 8f ac 3d 1f f0 a4 bd 83 41 99 3d 40 cb c5 3d
       0.08425746 -0.08053612 0.074831985 0.096579075
0000e0 29 ff d8 3d be 4a db bc 26 01 01 3e 1d 7e 07 3e
       0.10595543 -0.026769038 0.12598094 0.13231702
0000f0 49 aa 74 3c 4d e8 2a 3d 44 0b 58 bd a8 93 b9 bb
       0.014933177 0.041725446 -0.05274512 -0.005663354
000100 1c 44 c1 3c f8 5e 4c bd a7 88 44 be 1a 04 0f 3e
       0.023592047 -0.049895257 -0.19192754 0.13966408
000110 ca 46 05 be fc 7c d9 bd 1d 77 2e bd 80 78 43 3d
       -0.13015285 -0.10619542 -0.042594064 0.04772234
000120 2c 7a bf bd e2 ec 97 3d 4a e9 4e 3d b6 0e c3 3c
       -0.09349474 0.07418229 0.05051545 0.023810726
000130 0f 11 71 3d a0 f7 8e 3d bd 52 7a 3c fb 59 6d 3c
       0.05885416 0.069808245 0.015278515 0.014486785
000140 bf 31 2d bd a9 86 93 3d c5 cb 03 be 27 36 a3 bd
       -0.04228377 0.07203419 -0.128707 -0.07969313
000150 47 a7 54 3d ad 20 17 3d c0 cc 9c bd 6b 33 d1 bd
       0.05191734 0.036896396 -0.076562405 -0.10214885
000160 1d c9 27 3d 43 5b d3 3d 62 c9 16 be 83 c0 fe bd
       0.04096328 0.10320141 -0.14725259 -0.124390624
000170 0a 35 bd 3d 9b 7d 61 bc 71 d7 01 bd 74 7a 8e bd
       0.09238632 -0.013762857 -0.0316996 -0.0695695
000180 66 aa 9d 3c ea 60 2b 3d 9d 83 c8 bd 21 ef 5f 3d
       0.019246291 0.04184047 -0.09790728 0.05467141
000190 af f2 47 3d 70 ab 02 3e 67 54 2c 3e 60 88 d3 3c
       0.048815425 0.1276071 0.16829072 0.025821865
0001a0 bf 27 47 bd 2a 3a 88 bc 63 6e 1e 3e de fa f5 3c
       -0.04862189 -0.016629297 0.15471797 0.03002685
0001b0 72 bb 85 3d de 4d 64 3d e6 5a a5 3c 81 3b 95 bd
       0.06529893 0.055738322 0.020184945 -0.0728674
0001c0 ee 24 9a bd 46 d4 73 bd 9e 72 14 3e ed 8d f1 3c
       -0.07526575 -0.05952861 0.14496848 0.02948662
0001d0 98 a7 e7 bc 6f 47 8b bd 4f 13 e5 3d 48 47 e2 3d
       -0.028278157 -0.06800734 0.111853234 0.11048752
0001e0 e6 7b a7 3d 76 8c 49 3c f1 07 7d 3d ef ea 83 3d
       0.081779286 0.012301555 0.06177515 0.064412944
0001f0 5b f1 b4 bd 7c 59 98 bd 88 5d 2f 3d 3d d6 e1 bd
       -0.088350974 -0.07438943 0.042813808 -0.11027191
000200 5e ff 94 3d 15 d3 41 ba 31 56 44 be 9e 70 4d 3d
       0.0727527 -0.00073938194 -0.19173504 0.05015623
000210 b8 aa d4 bd dd 07 0c 3e ac 9e b6 bd b7 2e 2d 3e
       -0.103841245 0.13674875 -0.08916983 0.16912352
000220 6e 83 c6 bd 24 e6 82 3c 0e 53 92 3d fc 3b d8 bd
       -0.09693037 0.01597888 0.07144748 -0.10558316
000230 7b 9e 1d be 62 30 68 bd 6a b5 ae bd 9a 85 0e 3d
       -0.15392487 -0.056686766 -0.08530696 0.03479538
000240 1c b5 3c be c6 1f 81 bd e8 ce 83 3d 0a 04 b0 bd
       -0.18428463 -0.063048884 0.064359486 -0.085945204
000250 e8 f6 33 bd 42 eb 33 3d 3e 49 e0 3d b7 b5 a3 bb
       -0.04393664 0.04392553 0.1095147 -0.0049960273
000260 67 30 1f be 18 18 02 be b0 5b f2 bc b8 fd 04 be
       -0.15545808 -0.12704504 -0.029584736 -0.12987411
000270 e1 c1 b7 bd 48 bf 2b bd 2c 1e d1 bc c2 95 6d bd
       -0.08972526 -0.041930467 -0.025527082 -0.05800415
000280 ed af c2 3d a2 65 7b 3d 72 6f 99 3d 26 99 e1 3c
       0.095062114 0.06137622 0.0749196 0.027538847
000290 b8 33 87 bd 13 81 69 3d 0f 0c 0c 3e d1 a8 75 3b
       -0.066016614 0.05700786 0.13676475 0.0037484656
0002a0 a6 58 b5 3d bc 4d 22 3e a6 a4 10 bc ea e4 34 bc
       0.08854799 0.15849966 -0.008828318 -0.0110409055
0002b0 1f 8a f9 3d 2d 6d c0 3c c8 31 c9 3d bd 3c 07 3e
       0.12184548 0.02348956 0.09823948 0.13206764
0002c0 38 08 3c be 2c 54 f9 3c 76 a4 7f 3d a8 f1 81 bd
       -0.1836251 0.030435644 0.0624127 -0.063449204
0002d0 f8 11 d0 bd 02 d0 18 3e bb 6f b0 bd aa 56 f9 3d
       -0.10159677 0.14923099 -0.08615061 0.12174733
0002e0 2d cd c8 3d a2 9c c0 3d 3c 1e 2f 3e 2d 60 1c 3e
       0.09804759 0.09404875 0.17101377 0.15271063
0002f0 b4 46 55 3d ad 34 64 3c 43 a6 2a 3d 91 70 17 3d
       0.05206938 0.0139285745 0.041662466 0.036972586

actor_linear.bias f4 [6]
000000 85 21 09 be b4 6c 97 39 e7 e3 10 3e 63 80 c8 bc
       -0.13391693 0.00028881954 0.14149438 -0.024475282
000010 cb 5b 99 bd ca ce 23 3d
       -0.07488211 0.03999213
