spaceinvaders-v0-bottom-7fskip_latent32/model.118.tar (torch, 223035 bytes, 13 tensors)

conv1.weight f4 [32, 4, 3, 3]
000000 da 79 be 3c 7f 65 3c 3c 76 af 57 bb ff 2c 1b be
       0.023251463 0.011498808 -0.003291098 -0.15153883
000010 bc 05 12 bf 0b 37 c1 3d 10 2f 3d 3e 36 5d 35 3e
       -0.5704 0.09434327 0.18474984 0.17711338
000020 47 db 56 3d 7c 89 8e 3b 33 80 1e 3e a7 66 8e 3c
       0.052455213 0.0043498855 0.15478592 0.017382933
000030 06 7d 48 bb 12 8f 86 bb f8 3c 89 bd aa 63 0c 3e
       -0.0030592098 -0.004106411 -0.06701082 0.13709894
000040 82 08 fb 3d 6d 76 13 bb 19 df 7f 3d 30 48 6a 3e
       0.12257482 -0.0022501007 0.062468622 0.228791
000050 79 53 66 bd 2e ca 99 bd 9b e2 de bd 16 cb 43 be
       -0.05623195 -0.07509266 -0.10883065 -0.1912044
000060 59 44 3d 3e a2 75 44 bc de 18 49 3e c3 42 fa 3c
       0.18483104 -0.0119909365 0.19638392 0.030549413
000070 4f 7b eb be 50 11 8d 3c c5 02 0c 3e cf ba 1b 3f
       -0.45992514 0.01722017 0.13672931 0.6083192
000080 34 13 8a 3e fc a7 eb be 5f 15 1e be fe 7d a1 be
       0.26967776 -0.460266 -0.1543784 -0.31541437
000090 92 e4 7c bd aa ad 92 bd 69 00 47 3e ed 6c d7 bd
       -0.06174142 -0.0716203 0.1943375 -0.10518823
0000a0 21 52 fe 3d 82 19 26 3e fc 77 4c 3e de 0f fd bd
       0.124180086 0.16220668 0.19967645 -0.12356542
0000b0 33 ef 24 be 08 58 5c 3d 4d d4 56 bd fd 0b 0c bd
       -0.16106872 0.05379489 -0.05244856 -0.03419112
0000c0 ad 5e 3e 3c 33 ef 14 3d 55 8a 9b bd 54 1a f2 bc
       0.011619252 0.03636093 -0.07594744 -0.02955357
0000d0 52 20 e1 bb 9f 11 ca 3c a4 99 0d be 91 70 85 3e
       -0.006870308 0.024666606 -0.1382814 0.26062444
0000e0 21 c7 b4 bd 91 a0 08 be eb c8 18 3e 6d 06 12 3d
       -0.08827043 -0.13342501 0.14920394 0.03565066
0000f0 2f 1b 95 3d 58 2b 0d bd d3 23 a2 3d a6 5a d4 3e
       0.072805755 -0.034465164 0.07916989 0.4147541
000100 81 3a cc be 50 3f e4 bd 97 dd 88 3d cc af 98 be
       -0.39888385 -0.111448884 0.0668289 -0.29821622
000110 27 25 7e bd a6 a0 9f be 0b fb db 3e e7 ad d6 bd
       -0.06204715 -0.31177253 0.42964968 -0.10482388
000120 b3 07 1d 3e c3 e2 23 be 09 a6 78 3e 26 46 4b bb
       0.15334968 -0.16004471 0.24282087 -0.0031017154
000130 8f a2 e4 3d 62 b9 35 3e aa 8b a6 be a6 25 68 3d
       0.11163818 0.17746499 -0.3252843 0.05667653
000140 9f f0 21 be ce 0d 62 be b9 d2 06 3d c3 f9 19 bb
       -0.15814446 -0.22075579 0.032915805 -0.0023494817
000150 20 80 64 3d 9a 7f 16 be a3 2a 18 be 53 71 48 3d
       0.055786252 -0.14697114 -0.14860015 0.0489362
000160 1f 15 88 bd eb 38 5c 3e 3c 9c a9 3d 8c 88 cf bd
       -0.066446535 0.21506087 0.082817525 -0.10133466
000170 5a ff 8a 3e e3 31 12 3e c7 c5 b1 bd 45 04 99 3d
       0.27147943 0.14276843 -0.08680301 0.074715175
000180 a6 6a 08 3e e8 37 b1 3c 27 67 eb bd db 66 c0 bd
       0.13321933 0.021633103 -0.11494284 -0.09394618
000190 87 1f 44 3e 3c 9b 0c be f9 a3 d7 3d d1 06 22 be
       0.19152652 -0.13731092 0.10529322 -0.15822913
0001a0 47 6e 87 be 7d 13 b9 bd ec f2 86 3e 5f 3e 19 3d
       -0.26451322 -0.0903692 0.2635721 0.037412997
0001b0 ed 89 95 3e ae 56 e4 3d 9e 88 4e 3d e8 46 2b 3e
       0.29206792 0.11149345 0.050423257 0.16726267
0001c0 8c ca 5e 3e 62 f0 99 3c d0 fb 0b 3e e8 50 fb 3e
       0.21756953 0.018791381 0.13670278 0.49085164
0001d0 75 25 ea 3d 3f cf 07 3e 33 17 7e be ae 81 0f be
       0.114329256 0.13262652 -0.24813537 -0.14014313
0001e0 d5 b8 d7 bd 7a 62 ae bd d5 29 e1 3d fa ed 77 bb
       -0.10533301 -0.08514877 0.10994307 -0.0037831054
0001f0 ed 5e 05 3e 55 4b 2c be 55 9b d3 bc 11 01 25 be
       0.13024493 -0.16825612 -0.025830904 -0.16113688
000200 5d e1 bc 3d 83 32 da 3d 08 69 83 be 95 f1 2a 3d
       0.09222672 0.106541656 -0.2566607 0.041734297
000210 4d 0c 4e 3e cc 63 24 3e 03 5f 2c 3e 79 06 49 3e
       0.2012188 0.16053694 0.16833119 0.19631375
000220 6f cf e0 3c 37 0c 10 3e 68 7b 9b be ff 92 5b bf
       0.027442662 0.1406716 -0.3036759 -0.85771173
000230 ee 35 8d be 5c 56 97 bd 40 23 67 be 0a 4c 28 3c
       -0.27580208 -0.073895186 -0.2257204 0.010272035
000240 93 fe 14 be 1b e6 05 be 14 c6 74 3e 80 dc 2d 3e
       -0.14550237 -0.1307606 0.23903686 0.16978645
000250 d3 a8 d0 3d f2 33 cd 3d de 7f 2e bd 6a 7a e4 3e
       0.10188451 0.100196734 -0.042602412 0.44624645
000260 9f 9b 06 be 00 f8 a0 bd e2 0f 4a be 3f 0d 23 be
       -0.13145302 -0.07859802 -0.19732621 -0.15923022
000270 e1 1d 09 be 0a e1 09 be ba 4b 87 3c 7b a4 d5 bd
       -0.13390304 -0.13464752 0.016515601 -0.10431763
000280 9c 17 b9 3b 28 96 d0 3c ab c3 81 bd 1f 69 9f 3d
       0.0056485664 0.025462225 -0.06336149 0.07783722
000290 c5 8e 96 bc e2 7b a1 bd b1 20 98 be b8 e7 3b be
       -0.018378625 -0.07884957 -0.29712442 -0.18350112
0002a0 0c 61 01 be 37 8a 41 be f1 59 6f be 0c 4e 88 3e
       -0.12634677 -0.18900381 -0.23374154 0.26622045
0002b0 d3 34 cd 3b 3b 4b 31 be 31 a0 33 3e 9f 54 cd 3e
       0.0062624007 -0.17313854 0.17541577 0.40103623
0002c0 a7 c9 90 3e 76 97 aa bb 15 cc da bd 43 31 bc 3e
       0.2827885 -0.005206044 -0.10683457 0.36756334
0002d0 86 ec 2c be 80 7d 62 be 77 0e 4d be 6e e6 90 be
       -0.16887102 -0.22118187 -0.20025049 -0.28300804
0002e0 7b 9e 02 bf 96 11 ff bd 02 16 b3 be f0 86 ed be
       -0.5102307 -0.12454526 -0.34977728 -0.46392012
0002f0 5f 0b 5c be b6 b7 30 bd c6 ab 80 3b df 64 a0 bd
       -0.21488713 -0.04314395 0.003926727 -0.0783174
000300 12 a0 5a be 1a ec ea bd bd f2 4f bd 5d e0 47 be
       -0.21350124 -0.11470814 -0.050768603 -0.19519182
000310 4f 0c ca 3a 71 bf c6 3c 08 e6 81 3e c7 da da bb
       0.0015415045 0.024261208 0.25370812 -0.0066789123
000320 45 43 ba 3d dc 41 23 be 69 c9 3f 3e 36 ea 1c be
       0.09094862 -0.15943092 0.18729176 -0.1532372
000330 9d 09 b7 3d 5e 91 db 3d 73 db e8 bd 2c 47 b2 3e
       0.089373805 0.10721086 -0.113699816 0.34819925
000340 59 b7 f7 3e c8 a5 d5 3e 4b 15 52 3d bf c6 86 3e
       0.4838207 0.41728044 0.051289838 0.26323506
000350 57 a9 da bd 11 a7 b8 3e 3e b0 e8 3e fc da a4 3e
       -0.1067683 0.36064962 0.45446962 0.32198322
000360 7f 46 a6 3e 67 9c e6 bd 6c b2 41 3c d6 83 a7 3e
       0.3247566 -0.112603 0.011822324 0.3271777
000370 86 7a a9 3d 3a 34 af 3e 4c d4 c0 be b9 0b e4 be
       0.082753226 0.34219533 -0.3766197 -0.44540194
000380 18 f7 08 bd 99 42 35 bd 15 dc f9 3c 04 09 99 3e
       -0.033438772 -0.044252966 0.030500451 0.2988969
000390 66 79 32 3e 7d a2 d6 3d f6 eb 8f 3d 8b 8e 3d be
       0.17429122 0.10480211 0.07027428 -0.18511407
0003a0 64 24 08 3c 5e 07 d0 bd 77 bd b9 3c 38 32 ce bd
       0.008309457 -0.10157655 0.022673352 -0.10068172
0003b0 b7 d0 98 3d a6 4b 1a 3e 91 99 68 3d b8 49 44 bd
       0.07461684 0.1506792 0.056787077 -0.047921866
0003c0 5d 28 1b be 70 c0 30 3d 36 57 84 3d 40 58 c0 bd
       -0.15152116 0.043152273 0.06461947 -0.09391832
0003d0 5d d9 c4 be 09 c2 4f bd 80 b6 82 be 24 9d db be
       -0.38447085 -0.050722156 -0.2552986 -0.42893326
0003e0 3a f4 15 be 20 3d 8c 3e 19 8d db 3e be a3 86 3d
       -0.14643946 0.27390385 0.42881086 0.065742
0003f0 f3 b2 60 3c 50 92 a6 bd d9 98 9f bd bf 57 dc be
       0.01371454 -0.08133376 -0.07792825 -0.43035695

conv1.bias f4 [32]
000000 ca fc 1d bb 3a 0c d2 3b b2 93 05 bb 46 01 f8 bb
       -0.0024106973 0.006410149 -0.0020382223 -0.007568511
000010 f4 97 93 bb 5f 25 a4 3b 40 96 9c 3b 01 07 23 3b
       -0.004504198 0.005009338 0.0047786534 0.0024876
000020 3b c0 30 bb 6c 0a 41 3b ac 2c dd 3a 1a d8 9e 3b
       -0.0026970047 0.0029455675 0.0016874275 0.0048475387
000030 5c f6 0b bb dc e9 1e bb 39 7e 52 3b 7c d6 93 3d
       -0.0021356558 -0.0024248278 0.0032118692 0.07218644
000040 c4 37 47 3b 64 00 e6 ba 84 e4 4a 3d 94 42 aa 3b
       0.003039823 -0.0017547724 0.049534336 0.005195925
000050 1c a9 23 bc 00 6b 20 3b 27 39 cd bb de 59 d0 3b
       -0.009989049 0.002447784 -0.0062629166 0.0063583693
000060 1e 08 70 bb 92 59 1e 3c 2f 8f ef bb 76 2d fa bb
       -0.0036625932 0.00966491 -0.00731077 -0.007634814
000070 5a ba 02 b9 96 f2 02 bb 70 6a d2 ba 96 74 df 3a
       -0.00012467187 -0.0019981018 -0.0016053449 0.0017048295

conv2.weight f4 [32, 32, 3, 3]
000000 83 5b ae be 7a 57 36 be cd 55 8c 3e fd 54 10 3e
       -0.34054193 -0.17806807 0.2740921 0.1409492
000010 3f 8d 5f 3e 51 6e 04 be ce 23 1c be 10 03 09 bd
       0.21831225 -0.12932707 -0.15248033 -0.033450186
000020 cc c3 1f bb e6 d1 fc bc 72 30 6e be 52 e0 a2 3d
       -0.0024378179 -0.030861806 -0.23260668 0.07952942
000030 b0 3c 4f 3e f0 a2 14 bd bb 49 15 3e 46 24 ed 3d
       0.20237994 -0.0362882 0.14578907 0.11579184
000040 cf c1 15 be f6 2b 3b 3e bf f0 15 bc 6e 7f 66 bd
       -0.14624713 0.18278489 -0.009151637 -0.05627387
000050 da ac 89 be c3 02 12 be 13 0c 2d 3d 0d 04 87 3d
       -0.26889688 -0.14258866 0.042247843 0.065925695
000060 b2 ba 15 3d ce 75 e3 3d 46 43 dd 3c 02 fc 60 be
       0.036555 0.11106454 0.027009618 -0.21971133
000070 95 da 57 be 90 00 09 be 4d ba 56 be d8 c6 ef be
       -0.21079476 -0.13379121 -0.20969506 -0.46831393
000080 01 00 56 3e 19 26 3f bd 0f 8e 14 3e b3 af 8a 3e
       0.20898439 -0.046667192 0.14507316 0.27087173
000090 a0 9d 52 3e ab 93 b2 3d 50 37 77 bc 10 a7 15 3e
       0.20567942 0.08719572 -0.015088871 0.1461451
0000a0 31 a1 13 3e 4e d8 6b be 21 46 76 bc ca 91 25 be
       0.14416958 -0.23031732 -0.0150313685 -0.16168895
0000b0 fc a4 14 3e d3 fe 18 3e 5e 5c 0f be 96 93 b3 be
       0.14516062 0.14940958 -0.14000079 -0.35073537
0000c0 0d aa 8b 3d 2b 0d cc 3c c2 43 6b bc a9 5b 8a 3d
       0.06819544 0.024908623 -0.014359416 0.06755764
0000d0 a1 93 67 3e 5f a6 4e 3e f2 68 9d 3e a7 ba c2 3d
       0.2261491 0.20180653 0.3074413 0.09508257
0000e0 3f e3 a7 be 7b d3 0b bd 25 b9 87 3d bb 41 78 3c
       -0.32790563 -0.03413723 0.066271104 0.01515239
0000f0 2a 00 96 bc a5 13 db 3c aa a6 93 be 0c 89 62 be
       -0.018310625 0.026742766 -0.28838092 -0.22122592
000100 a2 0c 84 bd 08 1a 9d 3c 77 b5 ac 3e 81 ec 44 3d
       -0.06447722 0.019177452 0.33732197 0.04807711
000110 60 95 bd bd 72 13 18 3c ff c1 1e 3d f5 ec 7f 3d
       -0.09257007 0.00928198 0.038759228 0.06248184
000120 63 56 eb bc 3c 49 dd 3d e5 bd 9b 3e 6d 47 b7 bc
       -0.028727716 0.10804984 0.30418316 -0.022372926
000130 a9 d2 c1 3d 10 69 c8 bc 57 85 ed bd 41 c3 7d be
       0.09464008 -0.02446416 -0.11597698 -0.24781515
000140 9e 94 0a be 38 09 59 3e da 0a 20 be 31 a6 8b 3d
       -0.13533255 0.21194923 -0.1562914 0.06818808
000150 d5 f5 27 3c 12 1a be 3d 51 39 19 be 9c 9c b1 ba
       0.010251482 0.09282316 -0.1496327 -0.0013550702
000160 53 a9 89 3e 50 97 4c 3d 45 9e 16 3d aa e4 89 bc
       0.26886997 0.04994899 0.03677203 -0.016832668
000170 7c 53 c1 bd 45 a8 47 3e d1 48 e7 3e 59 ca c3 be
       -0.094397515 0.19497783 0.45172742 -0.38240317
000180 0e 2a b9 3d dd a2 07 3d 6f 8d 66 bd 80 24 60 3e
       0.090412244 0.033114303 -0.056287225 0.21888924
000190 b2 b3 5d 3c 74 df 25 3c 76 e6 9d 3e 2c 1d 82 bc
       0.013531612 0.010124076 0.3083989 -0.01588305
0001a0 f2 ae cd bd 16 1b a3 bd 12 83 a0 bd 6a 7e cb bd
       -0.10043134 -0.079641506 -0.078375 -0.09936221
0001b0 0e f1 01 be f7 ee 91 bd 68 5a 29 3d d5 6d e6 3e
       -0.12689611 -0.07125657 0.041345984 0.4500567
0001c0 0b c4 5e 3e f9 0b 3f be 16 43 bf bd 0f 3f 81 be
       0.21754472 -0.18656911 -0.093389675 -0.25243422
0001d0 ba 04 f9 bd 80 30 29 be e3 ae 0d 3e d7 b9 1a 3f
       -0.12159105 -0.16522408 0.13836245 0.6043982
0001e0 66 d8 7d 3e 1f 32 c9 3a e1 63 97 3d ad 9e 80 3d
       0.2478958 0.001535002 0.07392097 0.06280265
0001f0 b4 fe d7 be fd 36 47 bd c3 f2 14 3e cc 52 a8 3d
       -0.4218651 -0.048636425 0.14545731 0.08218917
000200 4b aa 96 3c 8e a5 6d 3e 46 a0 03 be 0e 2e da 3c
       0.018391749 0.23207685 -0.12854108 0.026633289
000210 25 57 86 3c aa 09 37 be d7 8a 17 bb 21 a6 cf bd
       0.016398976 -0.1787478 -0.0023123526 -0.101391084
000220 1e d8 a5 bd e9 2c c0 bd 2f ca df 3b 61 d2 1f 3e
       -0.08097862 -0.09383566 0.006829522 0.15607597
000230 60 cb b5 3e b5 7a be bd 79 c7 9f bd 1a d6 0d bd
       0.35506725 -0.09300748 -0.07801718 -0.03462801
000240 ff 27 8e be 2f 80 f6 bd d8 9f 3c be 53 ef fc 3d
       -0.2776489 -0.12036168 -0.1842035 0.12350335
000250 d9 38 e5 3c 62 12 dd bd 89 ee 00 3d b1 4d a0 3b
       0.027981209 -0.10794522 0.031477485 0.004892074
000260 1e aa a8 3d 1b d2 7a bd 6c a0 c5 3c 9b 1e fa bd
       0.08235572 -0.06123553 0.024124347 -0.12212869
000270 40 47 e1 be de ca 48 3e 3e 24 1d be d9 26 3b 3e
       -0.43999672 0.19608638 -0.15345857 0.18276538
000280 de d3 87 bd 3d bd 20 3c 6a 97 63 bd f4 0d b8 bd
       -0.06632207 0.009810743 -0.05556432 -0.08987036
000290 ed 79 4f bd e2 d5 3d 3d 8f e8 ef 3d 4e 2d 82 3e
       -0.050653387 0.046346553 0.11714279 0.2542519
0002a0 41 77 05 be 6e c4 f2 bd 40 11 03 bd 79 1f 18 3e
       -0.13033773 -0.11853872 -0.031998873 0.14855756
0002b0 61 14 4d bd e8 0c 89 bd b7 42 e6 3d 65 31 80 3d
       -0.050068263 -0.06691915 0.112431936 0.06259421
0002c0 25 1b a9 3d 44 19 99 be d6 96 8f bd e0 22 bf bd
       0.082571305 -0.2990209 -0.070111915 -0.09332824
0002d0 6b 95 a0 3c ca 40 b8 bc a7 a6 8c 3d 06 a5 74 bd
       0.019602498 -0.022491831 0.06867724 -0.05972769
0002e0 d7 b2 34 3e 78 f2 0c be 3e 69 f4 bd 96 94 ed 3d
       0.17646347 -0.1376437 -0.11934136 0.11600606
0002f0 0b c4 fc bb f2 37 46 3e 21 63 7e be 76 ab 0c bc
       -0.0077138 0.19357279 -0.24842502 -0.008585801
000300 a7 43 8d bd 35 2c 37 bd f8 0c 3e 3c 80 7d 80 bd
       -0.06897669 -0.044719893 0.011599772 -0.06273937
000310 6d 3d 89 bd aa 44 73 3d d9 10 b9 bd d7 52 e2 3d
       -0.06701169 0.059391655 -0.090364166 0.11050957
000320 f2 a7 b7 bc ab d1 cb 3e e4 d7 4e 3e 46 c8 c9 bd
       -0.02241895 0.398084 0.20199543 -0.09852652
000330 fd 02 2c be 27 a3 6a bb 97 71 9d bc 93 20 f1 bd
       -0.16798015 -0.0035802813 -0.019219203 -0.11773791
000340 ac 57 ae bd 3b 96 a7 3e 12 cb bf be 4d 11 da bd
       -0.08512816 0.32731804 -0.37459618 -0.10647831
000350 06 7c 9d bd be 74 01 3e 4d ae 18 3e 24 c7 19 bd
       -0.07689671 0.1264219 0.1491024 -0.03754343
000360 95 00 a9 3d 94 da aa 3c 8c 18 17 3e f3 33 a1 bc
       0.08252064 0.02085618 0.14755458 -0.019678092
000370 f3 97 cb bd be 7c 02 bd a5 dd c1 3d c5 40 af be
       -0.099410914 -0.031857245 0.094661035 -0.34229103
000380 bb e9 dd bd a3 bc 8f 3e 76 35 86 3b 91 7d 2b 3d
       -0.10835596 0.28073606 0.0040957285 0.041867796
000390 79 c4 27 3e 10 a3 8e 3d 6f 6a 5d be 4a 29 58 be
       0.16383542 0.069646955 -0.21622632 -0.211095
0003a0 87 2e 17 3e 86 10 a4 3d 0b c6 b0 3d 87 e2 21 bd
       0.14763843 0.08010964 0.08631524 -0.039522674
0003b0 51 32 18 be af dc 0e 3e 4e b4 ad 3d 62 cf 41 be
       -0.14862944 0.13951372 0.08481656 -0.18926767
0003c0 36 49 d7 bd e7 65 97 3e f8 d5 5e bb 48 e8 d8 ba
       -0.10512011 0.29569933 -0.0034002047 -0.0016548717
0003d0 fe 29 3c be 50 6d 74 bd 77 62 15 be 01 0a 69 be
       -0.18375394 -0.05967456 -0.14588343 -0.22757722
0003e0 75 c8 15 3e d9 62 e6 bc 65 f0 08 3e a6 3b 4e 3e
       0.1462725 -0.028123306 0.13372953 0.20139942
0003f0 bc 1f c5 3e 94 a5 85 3e e3 4f a1 be 4f 33 b6 be
       0.38500774 0.2610289 -0.3150626 -0.3558602

conv2.bias f4 [32]
000000 6d 20 52 bb a5 9a 8e bb 59 61 57 bc 4d 30 1d bb
       -0.0032062784 -0.004351931 -0.013145768 -0.0023985088
000010 31 21 50 bd 1c 43 f0 bb 8e fb 64 bc ba d7 6c bc
       -0.050812904 -0.007332219 -0.013975991 -0.01445573
000020 06 32 bf 3a 76 a5 c1 bc c7 74 ec bc 6d 96 c4 bc
       0.0014587052 -0.023638468 -0.028864278 -0.02399751
000030 4b ef d6 3c e5 60 6c ba 11 f0 ed bc 18 ef ce bb
       0.02623715 -0.0009017124 -0.029045137 -0.0063151233
000040 b5 d6 38 3a 83 ec e1 3a aa 14 16 3c 6e 39 c3 3b
       0.0007051037 0.0017236624 0.0091602 0.005957774
000050 9c 1c 5d ba 06 a2 47 bb 19 04 eb bb c7 20 71 ba
       -0.0008434744 -0.0030461564 -0.0071721193 -0.00091983046
000060 91 cd 39 b9 d8 a4 66 bc 9d 76 41 bc e4 00 cd bc
       -0.00017719554 -0.014077388 -0.011808065 -0.025024839
000070 cc 63 b0 3c 65 d8 82 bc 6d b7 c9 bb 32 f9 1e bb
       0.021531962 -0.015972326 -0.0061558993 -0.0024257419

conv3.weight f4 [32, 32, 3, 3]
000000 a5 bf 03 be e5 07 0b bd 77 c3 3d be f2 c8 ad 3c
       -0.12866075 -0.033943076 -0.18531595 0.021213982
000010 e8 a6 b0 3d 05 c0 2e 3e 54 c9 d9 3d a4 69 20 be
       0.08625585 0.17065437 0.106341034 -0.15665299
000020 ad 8f 8b bc cd 0d df 3d 1d 2d 8b bc 59 3f 2c 3e
       -0.017036283 0.10891304 -0.016989285 0.1682104
000030 20 0d 4c be ed 35 24 be 1e bb 0c 3e ff 21 d8 3d
       -0.19926882 -0.16036196 0.13743255 0.10553359
000040 2f 3c d6 bd a8 69 4b be 0c 58 86 bd c9 68 83 3c
       -0.10460698 -0.19864523 -0.06559762 0.016041176
000050 65 1e 48 3e 5a 52 f6 3d 59 a0 d1 3d 26 b8 cf bd
       0.19542845 0.12027426 0.10235662 -0.101425454
000060 9b 42 9c bc 6d 9a d3 bd c9 3d 0f 3d da 1f 9f bd
       -0.019074729 -0.10332189 0.034971032 -0.07769747
000070 53 8f 83 be 24 de d8 be 2b 6f 87 3c af f9 13 be
       -0.25695285 -0.4235698 0.016532501 -0.14450715
000080 1e 7f 76 be 7f 4e d1 3e 81 1b 0f bc ee 2e b8 be
       -0.24071929 0.408802 -0.008734585 -0.35973305
000090 f4 60 45 3e 58 64 2e bd 9f 24 99 be 51 f8 9a 3c
       0.19275266 -0.042576164 -0.29910752 0.018917235
0000a0 a3 49 33 be 89 12 f8 bd b9 75 4e 3e 0d 3e 97 bd
       -0.17508559 -0.1211291 0.20162095 -0.07384882
0000b0 bc c7 9c bb c4 f6 ca bd 50 15 09 3d 31 b6 0e bd
       -0.0047845524 -0.09910348 0.03346759 -0.03484172
0000c0 ad 0b 1e 3e 13 50 93 3d c5 d2 50 be 4a 87 2a be
       0.15434141 0.07193007 -0.20392902 -0.16653171
0000d0 75 67 5a 3c 3b 00 07 3e fc b8 9b 3d 7f 88 39 3c
       0.01333033 0.13183682 0.07603642 0.011324047
0000e0 59 c1 9e bd e6 b7 28 3e 07 9d 8d bd 11 e9 5b 3d
       -0.07751722 0.16476402 -0.06914716 0.053689066
0000f0 a4 fc 25 bd d1 4d 19 3e 45 38 59 3d 89 10 23 be
       -0.04052414 0.14971091 0.05303218 -0.15924276
000100 56 6d bb bd 35 2e 29 bb 43 71 b0 3d d2 91 18 be
       -0.091517136 -0.0025814895 0.08615353 -0.14899376
000110 c6 cf 21 be c8 29 84 bd b3 51 de 3d 71 f0 91 3c
       -0.15801916 -0.06453282 0.10855427 0.017814847
000120 e7 de 8d 3d 85 87 d6 bd c9 e7 91 3d f8 7d 2f 3e
       0.06927281 -0.10475067 0.07124288 0.17137897
000130 43 a6 24 bd 60 6e d3 3d 93 18 92 bd 88 6a 02 3e
       -0.040197622 0.10323787 -0.071335934 0.12735951
000140 8a 87 10 be de 7a 1d 3e 4c 31 82 bd 16 a5 9d bd
       -0.14114204 0.15378901 -0.06357059 -0.07697503
000150 d7 3d e6 3c c3 bc b4 bd 60 2e c3 bd be a3 9e bd
       0.02810566 -0.08825066 -0.0953033 -0.07746075
000160 2c a0 ab be 81 7a a4 3e bd 40 69 be 3b 47 2c bd
       -0.3352064 0.32124713 -0.22778602 -0.04206012
000170 28 f0 24 be 74 96 b1 3d 8e 16 4d 3e 91 3e 5b be
       -0.16107237 0.08671275 0.20028135 -0.21410586
000180 0b 2a fd bd be 13 34 be a3 8f 60 3e 3d e3 31 3e
       -0.12361535 -0.17585656 0.21929793 0.17371841
000190 fd d9 a6 3d 51 8c 4a be ee 99 81 3e c0 e8 48 3e
       0.08147047 -0.19780089 0.25312752 0.19620037
0001a0 2b 06 8e 3d 55 b6 0b 3b e6 40 2f 3e 45 56 2e be
       0.0693477 0.0021318395 0.171146 -0.17025097
0001b0 02 c0 09 be 46 fa 3c 3e 6f bd 7e 3d 05 90 03 be
       -0.13452151 0.18454847 0.062192377 -0.12847908
0001c0 7d 58 8c 3d 68 91 d8 bc 1e 57 99 3d 43 8c 29 3e
       0.06852815 -0.026436523 0.074873194 0.16557412
0001d0 d2 84 a1 bd 6e c6 81 bd 96 0c 93 3d a7 16 5b 3e
       -0.078866616 -0.063366756 0.07180135 0.2139536
0001e0 5e 7a d9 bc 8d 83 48 bd 15 04 c5 3c 78 71 46 bd
       -0.026547607 -0.04895358 0.024049798 -0.048448056
0001f0 69 e8 39 3d 41 da e8 3e 24 65 c3 3d d5 91 83 3e
       0.04538766 0.45479015 0.095407754 0.256972
000200 03 75 62 bd 88 73 0e 3c 95 40 bb 3d 9c da db bd
       -0.055287372 0.008694537 0.091431774 -0.10735056
000210 8b 29 2d bd 9c 59 0a 3e e3 6c 1a 3e b8 de 1a 3e
       -0.042275947 0.13510746 0.150806 0.15124023
000220 57 7d 5d bc b7 ca 6c bc ee d7 2b be 6c f5 5d 3d
       -0.013518653 -0.014452628 -0.1678159 0.05418913
000230 70 14 82 3e 89 f8 61 3d 88 74 6b bd 7c 0f c9 be
       0.25406218 0.055168662 -0.05748418 -0.39269626
000240 50 48 8b 3d cd 05 5b bd 32 b3 4e 3e 83 c2 61 be
       0.06800902 -0.05347233 0.20185545 -0.22046857
000250 74 93 17 3e 51 b2 1f be 8f 9b 44 3d f3 44 43 3d
       0.14802343 -0.15595366 0.047999915 0.047673177
000260 62 e0 93 be c0 62 bc be d0 de 2a be 13 28 65 3e
       -0.28882128 -0.3679409 -0.16686559 0.22378568
000270 7d 69 33 be a0 31 0e 3e 7f 27 de 3d ab f7 53 bd
       -0.1752071 0.13886118 0.10847377 -0.051749866
000280 c7 22 12 3c 4a ec 68 3d e2 d4 a3 3c b3 e4 ba bd
       0.008919424 0.056865968 0.019998971 -0.09125652
000290 59 bd f5 bd a7 14 ab 3d 28 e8 cd bc 8f 42 1e be
       -0.11999006 0.083535485 -0.025135115 -0.15455078
0002a0 a5 94 b0 3c 36 e1 13 3e 4c f8 87 be 88 4d 1f 3d
       0.021555254 0.1444138 -0.26556623 0.0388923
0002b0 26 85 a3 3d 69 e6 4e 3d e7 a2 57 be 12 fb 43 be
       0.079843804 0.050512705 -0.21058236 -0.19138744
0002c0 0a 54 01 be 41 cf 2c be 27 68 12 be 97 92 6c bd
       -0.12629715 -0.16875936 -0.14297543 -0.057756986
0002d0 bb f7 4e 3d 06 fa 7b be 53 55 8c be 4d 08 9f bd
       0.050529223 -0.24607095 -0.27408847 -0.07765255
0002e0 bc f7 cb 3e a7 a1 98 bd 0e 3d 44 bd da cd bf bd
       0.39837444 -0.07452708 -0.04790979 -0.09365435
0002f0 82 d2 35 be 1e 0d 9a 3d 1e fe 0a 3c ce 4a 31 be
       -0.17756084 0.07522033 0.008483438 -0.17313692
000300 bb d1 93 3d c5 15 c2 bd da 49 01 be d7 80 b8 3d
       0.07217737 -0.094768085 -0.12625828 0.09008949
000310 43 93 47 3e 3d 91 0f bd ec 6b 48 3e b8 90 67 3c
       0.1948977 -0.03505062 0.19572419 0.014133625
000320 2a 2b a9 be eb 97 0b be 28 36 85 3c 3e ce 0d bd
       -0.33040744 -0.13632171 0.016261175 -0.034620516
000330 b8 0a 73 3b c4 96 77 3e b7 28 06 bd 1c 28 62 3e
       0.0037085246 0.24178606 -0.032753672 0.22085613
000340 b3 85 13 3e 1b 2e b4 be 12 e1 9c 3e 01 0b c5 be
       0.14406471 -0.35191426 0.30640465 -0.38484958
000350 26 b6 55 bc c6 6d ad 3c 5e b1 2e bd 32 9d 95 bd
       -0.013043916 0.021170508 -0.04264962 -0.07305373
000360 12 4b 10 3e 35 be 70 3c 3b 3f 48 3e 8d 85 1d be
       0.14091137 0.014693786 0.1955537 -0.15382977
000370 7a ae cf bd 67 d8 85 3d 35 e0 54 be d9 48 3f 3d
       -0.10140701 0.06535416 -0.20788653 0.046700332
000380 ca 50 76 3e 08 d3 ea 3c b8 6d be bd be ef 2e 3e
       0.24054256 0.02866508 -0.09298271 0.17083642
000390 09 2b 85 bd 03 0e 98 bc c7 b7 d4 3d 2d c1 bf bc
       -0.06502349 -0.018561369 0.10386615 -0.023407543
0003a0 e0 e4 2a 3e ff 3f c8 bd fa f6 8d be c2 96 71 3e
       0.16688871 -0.09777831 -0.2772749 0.23592666
0003b0 f8 40 64 3e 56 d9 a2 bd 62 eb e1 bd f9 c7 99 bc
       0.22290409 -0.0795161 -0.11031224 -0.018772112
0003c0 f2 73 f2 3d 7e a4 d5 3b ff 4c d9 3d 0c 3f c0 3d
       0.11838521 0.006519853 0.10610389 0.09387025
0003d0 ff 74 73 3d a3 1d 6b 3e e0 fe 70 3d 08 4f 0f be
       0.059437748 0.22960524 0.058836818 -0.13994992
0003e0 96 99 53 be 4d 4a 1d 3d f1 82 b1 be 8a cf 72 bd
       -0.20664057 0.038400937 -0.34670213 -0.059279956
0003f0 c7 5a 81 be 1a de 1b 3d 59 ba 3a 3e 6a 5b 77 be
       -0.2526457 0.03805361 0.18235148 -0.24155965

conv3.bias f4 [32]
000000 c2 60 ae bd 3c ea 07 be c9 01 88 3b 19 4e 9d bd
       -0.08514549 -0.13272947 0.0041506034 -0.076809116
000010 fa b2 17 bd 99 14 b9 be 43 d2 d8 bd ae c1 1e be
       -0.03703592 -0.36148527 -0.10586979 -0.1550357
000020 f6 86 dc bd 1c de 4f bd d8 49 f5 bd 4d e1 bf bd
       -0.10767929 -0.05074893 -0.11976975 -0.093691446
000030 c6 9a 04 3b 47 15 c4 bd 36 47 06 be 3e 93 18 bd
       0.0020233854 -0.09574371 -0.13113102 -0.037249796
000040 e2 91 95 bd 1b 1b 3b ba 97 be 91 be 34 81 cc bd
       -0.073032156 -0.0007137523 -0.2846572 -0.09985581
000050 91 4e 21 be 54 ac 3a bc a4 25 04 be aa 8a 59 be
       -0.15752627 -0.011393625 -0.12904984 -0.21244302
000060 ce 20 23 bd fb d7 f5 bd 03 55 9a 3c c7 34 6c bd
       -0.039826207 -0.12004086 0.018839365 -0.05766752
000070 18 5c 41 bd d4 10 30 bd 9b 65 14 3d 56 95 12 be
       -0.047206968 -0.0429848 0.03622971 -0.1431478

conv4.weight f4 [32, 32, 3, 3]
000000 58 a8 af 3e 28 53 99 bc 9f 96 c7 3d d0 7f c4 bd
       0.34308124 -0.01871641 0.097455256 -0.09594691
000010 a4 0a 1b 3d 1a 36 c3 bd b0 10 37 be d6 6b 24 be
       0.037851945 -0.095318034 -0.1787746 -0.16056761
000020 0c 77 b1 be 79 1d 35 be 1e 42 75 be 21 2b 67 3d
       -0.34661138 -0.17687024 -0.23951003 0.056437615
000030 ef 0d c1 bd e8 d2 6f 3d 0a d9 1a be cb 08 6d bd
       -0.09426486 0.058550745 -0.15121856 -0.057869714
000040 48 e8 3f 3d c2 f1 4e 3d 8e 8d ec bd 08 9d 58 3e
       0.04685238 0.050523527 -0.11550437 0.21153653
000050 1d 53 9c 3d b7 7f c7 bd cb a4 b2 bd 5b 11 0e 3e
       0.0763304 -0.097411565 -0.08722838 0.13873808
000060 6d cf 06 3e a0 ed 96 3d a3 e0 7b 3c e7 02 d6 3d
       0.13165064 0.07369542 0.015373382 0.10449772
000070 9e a3 a6 3c 2e 91 e4 ba 6d cb 38 3e dc 7e 3b be
       0.02034169 -0.0017438286 0.18046351 -0.18310112
000080 cb 77 a7 bd 3a 8f af bd fa 82 30 be 53 82 94 3d
       -0.081771456 -0.0857224 -0.17237464 0.0725142
000090 ff d2 26 3e 98 ca 38 be ed 48 ed bd d5 b4 61 3d
       0.16291426 -0.18046033 -0.11586175 0.055104095
0000a0 5d bd 43 be cd c2 e0 3d 0a db 90 3d d4 ab 1f be
       -0.19115205 0.10974655 0.070730284 -0.15592891
0000b0 ff 80 be bc 57 e1 9a 3e 5e 96 3a bc 01 9b 44 bb
       -0.02325487 0.30250046 -0.011388389 -0.0029999616
0000c0 d2 b2 4d bd b2 ea 32 bd e9 7f ce 3d b8 a1 cf bd
       -0.050219364 -0.043680854 0.10082991 -0.10138267
0000d0 82 41 15 bd 9f d6 9a 3b d2 aa 6a 3e d4 39 0f be
       -0.036439426 0.004725292 0.22916725 -0.13986903
0000e0 37 a2 88 3c a8 e9 0b bd 06 0b 3a bd f7 9c 8f bd
       0.016678913 -0.03415838 -0.04542067 -0.070123605
0000f0 e0 f6 89 bd cc aa 52 3e de da f0 3c 41 33 97 3d
       -0.06736541 0.20572966 0.029401239 0.07382823
000100 02 29 44 bd a1 e2 02 3e 5f 51 ff 3d f9 64 77 3d
       -0.04789067 0.12781765 0.12466692 0.06039903
000110 1e 2c c0 3d 4e 2f 99 bd df 15 6e 3d 72 1b 49 3e
       0.09383415 -0.07479726 0.058126327 0.19639376
000120 7d 80 be 3d 5c 67 2f 3c f0 a0 df bd 6e 03 4b 3d
       0.09301851 0.010705795 -0.10919368 0.049563818
000130 88 13 8d 3e f9 2b 9d 3c 5b f4 b5 bd 9f 9c 91 3d
       0.27553964 0.019186007 -0.08884498 0.07109951
000140 b5 a2 25 bc 81 dc 00 3e c0 d9 b0 be 19 94 28 3d
       -0.010109593 0.12584116 -0.3454113 0.041156862
000150 c3 b3 2b be 4e da 6a 3e b2 1c 03 3c 24 28 47 bc
       -0.16767792 0.22934839 0.008002447 -0.012155566
000160 a5 09 2a 3d dc 23 da 3d be 02 18 3e 87 13 ad 3d
       0.041513104 0.10651371 0.14844796 0.0845099
000170 b9 9d 01 3e 6a 8a 7f bd f7 3c 60 3d 84 b2 6c be
       0.12657823 -0.06238786 0.05474564 -0.23114973
000180 dc fc 91 3d 48 71 44 be 3d 45 a6 3e fb 3d 88 bd
       0.07128307 -0.19183838 0.324747 -0.06652447
000190 9a 15 40 3e 03 4d b2 3b ec b1 8d 3e 4f 36 a6 be
       0.1875824 0.0054413094 0.27674806 -0.3246331
0001a0 75 e8 60 be 58 b9 d2 3d a1 ec c3 bb a5 b6 74 bd
       -0.21963675 0.10289258 -0.005979136 -0.059744496
0001b0 a6 83 05 be 37 f9 33 3d 21 d2 86 3e 2e 4c 88 3d
       -0.13038501 0.04393884 0.2633219 0.06655155
0001c0 2c f7 79 bd 0b b0 8d 3d 09 01 7b bd 06 e0 9b 3d
       -0.061026737 0.06918343 -0.061280284 0.076110885
0001d0 65 6a 0f 3d ab a1 b4 3e 36 ea bb be 51 5b fa 3c
       0.035013575 0.35279593 -0.36702126 0.030561121
0001e0 12 0b ad 3b 50 0a ae be 9c c0 14 3e 8a 19 89 bd
       0.0052808607 -0.33992243 0.145266 -0.06694324
0001f0 46 44 07 be 0c 06 1b be 8f 2e 8f 3d a7 e5 19 be
       -0.13209638 -0.15139025 0.06991302 -0.15029012
000200 ca 90 ab bd 2e b3 b1 3c 9f 5b c7 bc 9a cb 3a 3e
       -0.08377226 0.021691885 -0.02433568 0.1824173
000210 e7 af 7c bd fd 1e 2e 3e eb b8 8b bb 3f 9e 48 3d
       -0.06169119 0.17004009 -0.0042639873 0.04897904
000220 e2 d6 85 bb 98 f1 31 3e cb 21 75 be dd 15 56 3e
       -0.004084454 0.17377317 -0.23938672 0.20906778
000230 bb 48 41 be 42 8e 4d be 7c 44 1b 3e de e3 fd bd
       -0.188754 -0.20073798 0.15162843 -0.12396978
000240 87 a7 17 be ec 01 ee bd 94 66 63 bd bf 1d 52 bd
       -0.1481 -0.1162146 -0.055517748 -0.0512979
000250 07 16 86 3e a9 c8 01 3e e5 80 63 3e 8d e1 95 be
       0.2618868 0.12674202 0.22217138 -0.29273644
000260 76 6d 8b 3d e3 4e ec bd 3a fd 58 3d 59 62 87 bd
       0.068079874 -0.11538484 0.05297587 -0.06610555
000270 19 63 6a bd 6c 25 e6 bd f3 ab 0a 3e 87 8f 00 be
       -0.057223413 -0.112376064 0.13542156 -0.12554751
000280 9c 7b 1f be c4 f0 1d 3d 43 fa 01 3e d3 b5 91 bd
       -0.15574497 0.03855969 0.12693124 -0.07114758
000290 9b f8 ac bd e8 9a ba 3c 9a a6 76 bd 5e a6 45 be
       -0.08445855 0.022778943 -0.060217477 -0.19301745
0002a0 89 72 a7 bd c6 33 0b be bf 5a 39 3e 1a 2c 16 be
       -0.08176143 -0.13593969 0.18101023 -0.14665261
0002b0 fc d8 8c bd 0a f1 d6 bd 5a 4f d7 bc 28 cd d9 3d
       -0.06877324 -0.10495193 -0.026282955 0.106348336
0002c0 a5 20 6d bd 10 0c 87 3e 85 28 81 be 96 c1 8a bd
       -0.05789246 0.2637639 -0.25226226 -0.06775205
0002d0 2d 9d 30 bd 77 cc 19 3e 1b c4 7b 3e 80 77 52 3e
       -0.043118645 0.15019403 0.24586527 0.20553398
0002e0 4f 99 96 bd e6 72 76 be 17 0e b9 bd 15 2e af bd
       -0.0735346 -0.24067268 -0.090358905 -0.08553711
0002f0 2a e2 32 bd 6e 6a c7 bd 08 29 4d be 95 ab ae bd
       -0.043672718 -0.09737097 -0.20035183 -0.085288204
000300 4b 93 0e 3e 3a 9b c6 bc e1 53 e4 3d 30 e3 a1 3e
       0.13923375 -0.02424394 0.11148811 0.31618643
000310 53 6b 70 3e 20 6c 87 be 05 32 ca 3d b3 9a 70 3e
       0.23478441 -0.2644968 0.09872822 0.23496513
000320 1d a9 38 be 6d 4c 6c be 05 8a 0b 3f b8 b2 52 bd
       -0.18033262 -0.23076029 0.54507476 -0.05143997
000330 5c 7f 1a 3d 2c f1 8a be b6 4c f5 3c f7 a8 54 bd
       0.037719116 -0.27137125 0.029943805 -0.05191895
000340 12 29 73 be 2c 0a 24 be b7 4d e3 3d f3 16 a0 bd
       -0.23746136 -0.16019505 0.11098807 -0.07816877
000350 57 3b 8d bd 48 0e 01 be a1 d2 98 bd b1 a0 12 3e
       -0.06896084 -0.12603104 -0.07462049 0.14319111
000360 46 51 68 3d dd cd b4 3d 77 ea 82 3d fa 8d 8c be
       0.056718133 0.08828328 0.06392377 -0.2745207
000370 d8 b0 d4 3b 56 d7 41 3e c6 b8 fb bc 9f 55 d7 3d
       0.006490808 0.189298 -0.030727755 0.10514378
000380 6d 21 ab 3d ac da fe 3d ae d3 94 be ef b9 97 3d
       0.08355985 0.12444052 -0.2906775 0.07408511
000390 d7 d0 d4 bd 8e 78 65 3b d8 25 0a 3e e4 56 c9 bc
       -0.103913955 0.0035014483 0.13490999 -0.024577565
0003a0 d2 a0 cb 3e d2 a0 81 be e9 af bd bd 18 3a 21 be
       0.39771134 -0.2531801 -0.09262068 -0.15744817
0003b0 92 bc 25 3d 81 8c 85 3e d1 bc 95 3e 8b 93 21 bc
       0.040463038 0.26083758 0.29245618 -0.009861837
0003c0 2d cb 19 be 0d 1c e5 bd b0 b6 68 3e 1f ee 97 3d
       -0.15018912 -0.11186991 0.2272594 0.07418465
0003d0 8f b2 8e be 59 4d 48 3e f1 70 04 bd 66 2a c4 bd
       -0.27870604 0.19560756 -0.03233427 -0.09578399
0003e0 45 7f 60 3e 5e 9d 43 be 33 19 db 3d cd c0 96 be
       0.2192355 -0.19103 0.10698166 -0.2944397
0003f0 a9 df 16 3c d0 b0 3f bd 75 ca cf 3d dd c7 74 be
       0.009208598 -0.04679948 0.101460375 -0.23904367

conv4.bias f4 [32]
000000 e2 86 dc be 69 28 95 be be cf e5 bd 81 7e 42 be
       -0.43071657 -0.29132393 -0.11221264 -0.1899357
000010 47 c9 08 bf 9e e3 9e be a5 4a 77 be 74 bc 55 be
       -0.53432125 -0.31033033 -0.24149568 -0.2087267
000020 c9 03 0b be f7 ba 95 be b3 ee 3b be 2a 26 a8 be
       -0.13575663 -0.29244205 -0.18352775 -0.32841617
000030 a1 90 9b be 96 b5 1a be a1 2c a9 be 56 0e d9 be
       -0.3038378 -0.15108332 -0.33041862 -0.4239375
000040 15 a1 a1 be 71 a7 bc be cd b2 a4 be 24 0d 99 bd
       -0.31568208 -0.36846498 -0.32167664 -0.074732095
000050 82 17 da bd be c4 76 be 34 a5 a0 be 56 ed d4 be
       -0.10649015 -0.24098489 -0.3137604 -0.41587323
000060 e1 1d 02 be 37 49 92 be d8 f6 9b be 96 34 13 bf
       -0.1270671 -0.28571483 -0.30461764 -0.57502115
000070 72 84 1a be e5 43 d4 bd 9b 7f 78 be d5 18 e6 be
       -0.15089586 -0.10364512 -0.24267428 -0.4494082

linear.weight f4 [32, 800]
000000 bd 98 ed bc f2 bc ce 3d 25 58 88 bd 14 9d ff bd
       -0.029003495 0.10094632 -0.06657437 -0.12481132
000010 ed c8 17 bd 42 31 98 be 38 c9 8c 3d d9 9e 65 bc
       -0.037056852 -0.2972508 0.06874317 -0.014014923
000020 ce 6b 68 bc 40 30 3a 3d 56 b3 1e 3e 96 46 8f bd
       -0.014185859 0.04545617 0.15498099 -0.06995885
000030 6c e3 c5 bd 26 6f 74 bd a1 79 56 3e 36 71 6c 3e
       -0.09662518 -0.059676312 0.20944835 0.23090062
000040 71 de 2a 3e 25 54 84 bd 19 8f bb bc 7f aa d3 bd
       0.16686417 -0.06461362 -0.022895383 -0.10335254
000050 3b 43 bc bd d5 dd 9a bc c0 29 56 bd 87 68 02 bd
       -0.09192511 -0.018904606 -0.05228591 -0.031837966
000060 f5 74 fb bc b9 cb 6a 3e 3d cd ac bd b5 a9 8b 3d
       -0.030695418 0.22929277 -0.084375836 0.068194784
000070 5e 28 a2 bd 41 29 e5 3c 3d aa b9 be d2 88 90 3d
       -0.07917856 0.027973773 -0.36262694 0.070573464
000080 f0 8e c2 bd 54 10 bf bc b6 fd 53 3e f1 fa 30 3e
       -0.094999194 -0.023323216 0.20702252 0.17283227
000090 07 23 89 3d 85 85 7b bd 8f 5b 5e bd ca 82 a4 bc
       0.06696134 -0.06140663 -0.054286536 -0.020081896
0000a0 d1 6a df 3d 06 7d bc be d7 49 2c bd 60 69 cf bd
       0.109090455 -0.36814135 -0.042062607 -0.101275206
0000b0 32 3a fb 3d 00 30 da bd 5d 29 c2 bc a9 d3 11 3d
       0.12266959 -0.106536865 -0.023701364 0.035602245
0000c0 09 c1 84 3c 74 19 2b 3b 7c 79 01 be 05 38 95 bc
       0.016205328 0.00261077 -0.12643999 -0.018215189
0000d0 3f 89 25 3d df f0 a9 bd ac 65 b8 3b a9 e3 98 3e
       0.04041409 -0.08297896 0.0056273546 0.2986119
0000e0 f9 53 c4 3c cc b1 1c bc b3 8c 02 3d 9d 68 06 3c
       0.023965823 -0.009563874 0.031872462 0.008203653
0000f0 68 5f 5a 3d 3a d4 2d 3d bb fc 70 3c 30 22 70 bc
       0.053313643 0.042438723 0.014708693 -0.014656588
000100 50 5e 9a bb e1 d3 94 bd 9b b5 14 bc d6 8b ff 3c
       -0.00471095 -0.07266975 -0.009076501 0.031194609
000110 aa df 56 bb b3 29 e5 bd 9f e3 b0 bd 4c 19 90 3a
       -0.0032787123 -0.11189594 -0.08637165 0.0010993867
000120 e9 74 ce 3c 03 cd 08 bc 3a f4 12 3d ce 14 78 3e
       0.025202231 -0.00834966 0.035877444 0.24226686
000130 e6 52 e5 bc 22 e0 fb 3d 20 9d 83 3c af be 68 be
       -0.02799363 0.12298609 0.016066134 -0.2272899
000140 fd a8 53 be 54 d2 4e 3d 81 46 79 bd 5b 09 f9 bd
       -0.20669933 0.050493553 -0.060858253 -0.121599875
000150 8b ae e7 3d c8 a0 e4 3c e9 44 b6 bc 11 b0 3c bc
       0.11312588 0.027908698 -0.022249656 -0.011516587
000160 10 f2 d7 3d 58 04 e5 bd 80 5a d1 3d 7b f3 73 bd
       0.10544217 -0.11182469 0.1022234 -0.059558373
000170 db a7 07 3e 6d 50 07 3e b1 18 da 3d 40 00 34 bc
       0.13247626 0.13214274 0.10649241 -0.010986388
000180 fb 56 f1 bc e9 5e 18 bd 32 dd 5a bd d1 a1 87 bd
       -0.02946042 -0.03719989 -0.053433605 -0.06622661
000190 ef 2a a1 be 09 6b 80 3e 81 0d 44 bb fc f7 c8 3d
       -0.31478068 0.2508166 -0.0029915276 0.09812924
0001a0 a6 7b a3 3d 89 97 8f be 5e 76 a1 3e a8 1e 1d 3e
       0.079825684 -0.280453 0.3153562 0.15343726
0001b0 c7 e1 23 3e 9c 76 f8 3d 1e 47 93 be 04 05 04 3f
       0.16004096 0.12131998 -0.28765196 0.51570153
0001c0 a8 44 34 3e fb ba 06 3e da db 89 3e bc d6 a5 be
       0.17604315 0.13157265 0.26925546 -0.32390392
0001d0 a6 dc 9b be 1b 58 84 be 37 79 7c be e5 ed c3 be
       -0.3044178 -0.2584847 -0.24655615 -0.38267437
0001e0 be ed b0 be 08 dc cf be 16 28 be be 6a f9 cb be
       -0.34556383 -0.40597558 -0.37139958 -0.39838725
0001f0 0d 5d d7 be eb 1d 4c bd 99 0c 73 3b 88 3d 83 3c
       -0.4206318 -0.04983322 0.0037086366 0.016020551
000200 81 9d 3f bd 03 78 d5 3d fa b6 49 3d d9 82 80 3e
       -0.046781067 0.10423281 0.049246766 0.2509983
000210 94 9e 95 bc 0a 6a 47 bd b8 41 4f 3b f4 93 9d bd
       -0.018264093 -0.04868511 0.0031624865 -0.076942354
000220 47 7a ea be b6 19 dc 3c f9 6b 19 3d f3 76 cc 3d
       -0.45796415 0.026867729 0.037456486 0.09983625
000230 87 f3 31 be 44 3d c6 bd ce 67 b2 bd 8b 0c 36 be
       -0.17378055 -0.09679654 -0.087112054 -0.17778222
000240 be d9 f6 bd 58 6f 9d bc 83 41 cc 3d fb 26 82 3d
       -0.1205325 -0.019218132 0.09973433 0.06355091
000250 00 fd 55 3d 54 4b e7 3d 0e c7 fe bd 62 82 b1 3d
       0.052243233 0.112936646 -0.124403104 0.08667447
000260 50 d4 27 be 8d 6f b4 bc 73 c9 5e 3e ec 59 76 3e
       -0.16389585 -0.022025848 0.21756534 0.2405774
000270 7a c4 7c 3e 7b 27 2c be 65 7e 0f be e3 79 2a 3e
       0.24684325 -0.16811936 -0.1401306 0.16648059
000280 ec 8d 3c be c1 3f 0c 3e ea e8 8e bd 87 6f a1 bd
       -0.18413514 0.13696195 -0.069780186 -0.078826
000290 5c aa 04 be 01 69 97 bc 11 ce f2 3c e9 81 af bd
       -0.12955612 -0.018482687 0.029639276 -0.085697
0002a0 b2 af 0c 3e b6 9d 74 bd 5b ae 1d 3e 20 28 e9 bb
       0.13738897 -0.059720717 0.15398543 -0.007115379
0002b0 43 a9 01 bc 4a af 76 bd 8f 2c 20 bd 5f e8 96 3e
       -0.00791389 -0.060225762 -0.039104994 0.2947416
0002c0 37 3e 3d be 1c d7 84 3d 24 67 f8 bc 73 91 3a bd
       -0.18480764 0.06486341 -0.030322619 -0.045548867
0002d0 06 8b 65 be 55 6e 20 3e d1 58 62 3d 3a 84 e6 3b
       -0.22416314 0.15667088 0.055260483 0.0070348056
0002e0 83 a0 a7 3d c3 63 3d 3d 9f 5b ee bc 75 59 7f bd
       0.08184912 0.04623772 -0.029096423 -0.062341172
0002f0 aa 77 8a 3b 53 41 45 3e ab 0f d5 bc 53 6d f6 3b
       0.004225691 0.192632 -0.026008448 0.0075203567
000300 0c 1d fc 3d af ba 05 3d 8b 18 54 be 04 b8 2f bc
       0.12310228 0.03264874 -0.20712487 -0.010725025
000310 72 c5 03 3d 24 98 80 3b f3 e0 c2 ba 76 bd 0d 3d
       0.03217072 0.0039243866 -0.0014868065 0.034604512
000320 18 3c 95 bd dc 99 16 bd 0a 22 bb bc b0 21 da 3d
       -0.072868526 -0.036767825 -0.02284338 0.10650957
000330 7b 64 90 3c de 97 34 3d 18 e2 b0 3d 1c 4e 7f bd
       0.017626038 0.044090144 0.08636874 -0.06233035
000340 af f5 8a bd 9d 76 41 3e ca 0c fd 3d 11 eb e7 3c
       -0.06785142 0.18892904 0.12355955 0.02831033
000350 d4 92 15 bd db 6e 97 ba e5 ff 33 3e d0 9a e7 bc
       -0.03651698 -0.0011553423 0.17578085 -0.028272063
000360 85 1b fd bc 6e 1b 0c 3e d0 2a db bd b4 70 3d be
       -0.030896911 0.13682339 -0.10701525 -0.18500024
000370 2c d1 ae 3c 4e 63 56 bd e4 8c a1 bc f6 98 68 bd
       0.021339975 -0.052340798 -0.019720502 -0.0567865
000380 e4 d3 c2 bc 97 0f b1 3d 81 cd 29 3e 64 79 b8 bd
       -0.023782678 0.08645552 0.165823 -0.090075284
000390 eb 28 1d be 7d 60 99 3d 38 1f 5a be 07 b3 47 3d
       -0.1534764 0.07489107 -0.21300972 0.04875472
0003a0 3c 82 95 bc 7a 21 25 be 98 da 3c 3c ab 92 78 3d
       -0.018250577 -0.16126052 0.011526726 0.06068675
0003b0 9e 5d 83 3e f7 b3 25 bd bc 6e cd bc 6c 33 21 3b
       0.25657362 -0.04045483 -0.025077216 0.00245973
0003c0 c6 e0 c1 3d d2 f0 f2 bd 19 c6 01 3c 61 af 87 3c
       0.094667 -0.11862339 0.007920765 0.01656312
0003d0 ca 17 cf bc 10 3b c5 3c 96 1c e8 bc 90 42 46 bd
       -0.025279898 0.024076015 -0.028333943 -0.048403323
0003e0 1a a2 9d bb 89 cc d3 bc d2 94 c1 bc c2 42 af bd
       -0.004810584 -0.025854366 -0.023630533 -0.08557655
0003f0 d5 b2 6d 3d 72 b7 09 3c b0 f6 02 bc 65 b9 83 3d
       0.058031876 0.008405553 -0.007993385 0.064318456

linear.bias f4 [32]
000000 b5 70 0f 3f fe 89 94 be 99 1a cd be 2a be f9 bb
       0.5603135 -0.2901153 -0.40059355 -0.0076215463
000010 01 b4 1a bd e6 4e af 3d b2 61 56 be b2 22 b1 3d
       -0.03776932 0.085599706 -0.20935705 0.08649196
000020 c3 a0 51 bb e6 9f 1f bd 89 a1 ff bb 03 09 83 be
       -0.003198669 -0.03897085 -0.007801239 -0.25592813
000030 2b 79 81 bd 7d 6f 35 3e 78 73 8c be ca f7 9b 3d
       -0.06321939 0.1771831 -0.27431846 0.076156214
000040 63 de 71 bd 9f 5f 42 3e 9b fb 5e 3d 24 7b 19 bf
       -0.059049975 0.18981789 0.05443917 -0.5995352
000050 8b 3b 1a 3d a2 a2 43 3c 23 af eb 3b 56 f5 c4 bd
       0.03765444 0.01194063 0.007192509 -0.096171066
000060 0c b4 d7 bd a0 70 57 3d 46 8e e0 3a a8 f3 6e 3e
       -0.10532388 0.052597642 0.0017132245 0.23335135
000070 ff 6c d5 3c a9 05 1e 3d 76 41 68 be d4 a8 75 bc
       0.02605295 0.038579617 -0.22681221 -0.014993865

critic_linear.weight f4 [1, 32]
000000 cf c9 b2 3d a0 d3 8d 3b 9b c5 ed bc c7 01 4d ba
       0.08729898 0.004328206 -0.02902489 -0.0007820394
000010 4a 88 da ba 4a 58 3d 3b 8b 2b 53 bb c1 8c 01 bb
       -0.0016672697 0.0028891736 -0.0032221999 -0.0019767734
000020 be c5 e9 bb ad 9d 97 3a e7 bf bf bb 1a fb ef 3a
       -0.0071341684 0.0011567377 -0.005851734 0.0018309087
000030 3e 7f 70 3b 72 bd a4 b8 db 64 3a bb f1 94 f9 bb
       0.0036696936 -7.855416e-05 -0.0028441462 -0.007616632
000040 e3 42 ab 3b 47 08 8e ba ea 81 07 bb 58 c1 1e be
       0.0052264794 -0.0010836207 -0.00206768 -0.15503442
000050 6d b1 32 bb 42 79 b3 3b 61 c5 9a 3a 9d e8 f6 39
       -0.0027266399 0.0054771015 0.0011808091 0.00047094087
000060 b9 00 38 bb 0f ec 82 bb d2 39 43 bb fe 10 ff bb
       -0.0028076603 -0.0039954255 -0.0029789102 -0.007784008
000070 8e f9 78 3b c8 4f 56 3b 74 a6 92 3b ab 70 d6 ba
       0.0037990543 0.0032701362 0.004475409 -0.0016360482

actor_linear.weight f4 [6, 32]
000000 1e 19 9c 3e e3 67 79 be 71 69 d9 be 29 f9 ae 3c
       0.30487913 -0.24356036 -0.42463258 0.021359043
000010 9c c8 6f 3b 4a ce 91 3d ed 10 92 bd 9f 10 88 3d
       0.0036588078 0.07119425 -0.071321346 0.06643795
000020 05 49 29 3a 0d ae 30 bd 97 b3 92 bb 51 fe b3 bd
       0.0006457719 -0.043134738 -0.004476975 -0.087887414
000030 3e af 9e bc 4a b9 44 3e 9b 16 88 be 87 f2 09 3e
       -0.019370671 0.19211307 -0.26579747 0.13471423
000040 c7 b4 25 be 5d 02 05 3e 05 e4 2c 3d e9 08 e4 be
       -0.16182242 0.12989183 0.042209644 -0.44538048
000050 5f 78 d5 3c d9 4e 21 bd 14 b2 aa ba 69 90 0a 3e
       0.026058374 -0.039381836 -0.0013023042 0.1353165
000060 ae 40 da bc ea 25 b2 3d 41 a3 12 3e c7 7d 79 3e
       -0.02664217 0.08698638 0.14320089 0.24364386
000070 40 df 33 3d bb 8e c3 bc 89 be 0f be 04 ce 95 bb
       0.04391408 -0.02387177 -0.14037527 -0.004571678
000080 24 bd b5 3e 9a 60 80 be 6a 17 c4 be 67 d4 93 3b
       0.35495865 -0.250737 -0.38299114 0.0045114043
000090 03 54 15 bc 87 1e ae 3d 43 87 9e bd 95 95 7e 3d
       -0.009114268 0.085019164 -0.07740643 0.06215437
0000a0 bd 35 af bb ba 07 21 bc f8 4a 0b ba 79 f3 e8 bd
       -0.0053469823 -0.009828502 -0.00053136004 -0.11374564
0000b0 71 be 12 3d ba f6 3f 3e 2b 0b c9 be f5 c0 05 3e
       0.03582615 0.18746462 -0.39266333 0.13061889
0000c0 0a 76 32 be 13 b0 e3 3d 51 97 83 3d db 55 dd be
       -0.17427841 0.11117568 0.06425346 -0.43229565
0000d0 88 5b 00 3d 76 7a c5 bc b0 1f 9e 3c a9 3a c1 3d
       0.03133729 -0.024106245 0.01930222 0.09435017
0000e0 f3 c6 a7 3c 6e ae 9c 3d 53 2c 16 3e a1 6b 8d 3e
       0.020480609 0.07650457 0.14665346 0.27621177
0000f0 5b e3 eb 3c 3d 37 8c ba 6e 01 29 be 28 c8 48 bb
       0.028794935 -0.0010697615 -0.16504452 -0.003063688
000100 50 cf 93 3e f1 57 68 be b6 ad 00 bf 52 ec ed 3c
       0.28869104 -0.22689797 -0.5026506 0.02904335
000110 9e 3d 68 3a 4c c9 be 3d fb 8a b1 bd 7d 87 1c 3d
       0.00088592793 0.09315738 -0.086690865 0.03821515
000120 3c 36 04 3b f6 5c f2 bc 15 4c ac 3b 05 81 9e bd
       0.0020173928 -0.029585343 0.005258093 -0.07739452
000130 1d 1b e1 3c d0 0d 64 3e 48 18 94 be 1a 19 03 3e
       0.027478749 0.22270894 -0.28924775 0.12802544
000140 06 d0 17 be ff 16 e9 3d d3 84 23 3d 7a 9c cd be
       -0.14825448 0.11381339 0.039921593 -0.40158445
000150 8d b9 04 3d 92 13 91 bc 99 40 12 3c 5c b2 81 3c
       0.032403518 -0.017709527 0.008926534 0.015832119
000160 e6 f7 b7 3a ad 20 4e 3d e5 fc fa 3d 98 8f 20 3e
       0.0014035671 0.05032413 0.12255267 0.15679777
000170 6d 5f 1b 3d 5a a3 92 bc ef eb 00 be 2d 3b a5 bc
       0.037932802 -0.017900158 -0.12590002 -0.020169819
000180 e0 be d8 3e 2c 07 75 be df be e6 be 10 64 48 3c
       0.42333126 -0.23928517 -0.45067498 0.012230888
000190 e0 e8 b1 bc 02 bb a3 3d 81 7c be bd 04 78 97 3d
       -0.021717489 0.07994653 -0.09301091 0.07395938
0001a0 eb 53 87 bb 96 e6 fa bc 28 80 9f bc 7c 5c 02 be
       -0.004129877 -0.03062753 -0.01947029 -0.12730592
0001b0 31 aa a0 3b 71 69 2c 3e fa 2f 4c be a6 9c 01 3e
       0.004903101 0.16837098 -0.19940177 0.12657413
0001c0 22 04 2f be 19 e8 f5 3d 6b 02 4e 3d 84 a5 a5 be
       -0.1709142 0.1200716 0.050295275 -0.3235284
0001d0 ef 3b f3 3b 83 ab c2 bc 17 99 05 bc 94 9f 33 3e
       0.007422916 -0.023763424 -0.008154175 0.17541343
0001e0 fc 52 c5 bc 70 1f b1 3d a1 cc 1b 3e ad b9 b0 3e
       -0.024087422 0.08648574 0.15214778 0.3451666
0001f0 8f 77 ca 3c 17 93 87 bc 1f 83 0f be 79 41 d8 bc
       0.024715213 -0.01654963 -0.14014862 -0.026398407
000200 9a e7 d1 3e 28 d2 72 be 58 c4 da be 10 05 c2 3c
       0.4099701 -0.23712981 -0.42727923 0.023684055
000210 2c 38 28 bc a1 c3 ca 3d 78 9d be bd 50 8a 8a 3d
       -0.010267299 0.099005945 -0.093073785 0.06764662
000220 cd 39 ed 3c d3 00 36 bd ca 1d 97 bc 60 c7 27 be
       0.028958226 -0.04443438 -0.018446822 -0.1638465
000230 7b 54 ab 3c 06 43 1d 3e 3a af a8 be 0f 6f e2 3d
       0.020914307 0.15357599 -0.32946187 0.11056339
000240 5c 85 33 be ae fb d8 3d d0 90 6c 3d 96 7b c3 be
       -0.17531341 0.10594879 0.05775529 -0.38180226
000250 33 bb 37 3d 9b 02 17 bc 7b 46 94 3c 8c 90 2b 3c
       0.04485626 -0.00921693 0.018100014 0.010471474
000260 7c b6 48 bc fc 7c ac 3d 5a 93 32 3e 00 4d 12 3e
       -0.012250539 0.084222764 0.17439023 0.14287186
000270 7c c6 d5 3c 54 21 c3 bc 17 19 33 be f3 eb c6 3c
       0.026095621 -0.023819603 -0.1749004 0.024282431
000280 47 91 da 3e 01 1a 62 be c6 a0 a7 be ea 41 c6 3c
       0.42688963 -0.22080232 -0.32739848 0.024201352
000290 10 bd 07 bc d6 03 cc 3d 47 84 cc bd ca 51 42 3d
       -0.008284822 0.09961669 -0.099861674 0.04744128
0002a0 0a fc 23 3d fe 2e 66 bc 89 2d ae 3c 6c 3c 0a be
       0.040035285 -0.01404929 0.021261947 -0.13499612
0002b0 11 46 0b 3d 8d 44 39 3e 6e 34 87 be b9 f6 1e 3e
       0.034002367 0.18092556 -0.26407188 0.15523805
0002c0 46 a1 57 be 3b 02 c3 3d 80 0d 2a 3d 83 e8 c6 be
       -0.21057615 0.0952191 0.04151678 -0.38849267
0002d0 9f f1 95 3d cf 90 63 bc 0a d7 01 3c 9b ee ba 3d
       0.07321476 -0.0138895055 0.007924804 0.09127542
0002e0 52 bc 0f 3c c6 a0 89 3d bd 20 21 3e a3 f7 aa 3e
       0.008772926 0.06720118 0.15735145 0.33392057
0002f0 be 92 19 3d af a1 fc bc f2 0c 2c be 81 2d 14 bd
       0.03749346 -0.030838815 -0.16801813 -0.03617621

actor_linear.bias f4 [6]
000000 4b 01 a9 3d de 60 bc 3e 15 f3 87 3e 21 15 54 3e
       0.082522 0.36792654 0.26552644 0.20711185
000010 fd 6c 87 3e e1 00 8d 3e
       0.2645034 0.27539733
