spaceinvaders-v0-bottom-7fskip_latent32/model.30.tar (torch, 223035 bytes, 13 tensors)

conv1.weight f4 [32, 4, 3, 3]
00000000: b78d 49bc a923 f7bd 4b18 87bd 9a37 023d
00000010: 143b 9cbe 41fb 243c 0b6a c63d 1643 ac3d
00000020: d6d5 ab3c 6b9e 8ebd 0f71 cd3d 63ad e13c
00000030: a7b6 b23c 99f8 17bc 002c 4abd 9c9b 7e3d
00000040: a32c e03d 64e2 533c dc13 103d 7cd4 553d
00000050: 3ac9 bdbc ce5a a7bd 8284 ccbc dca3 73bd
00000060: 2b34 a63d a33c b13c b086 063e dfd9 203e
00000070: d010 85be 4a55 af3d a9e1 a43d ea6c 5a3e
00000080: c47e 0d3e 9a9a 89be 1f37 1abe aefe 22be
00000090: e68e b63b 0139 c0bd 841d 0c3e c807 9fbd
000000a0: 5ef1 c03d ae0b 4abb 5ba0 403e 50ec 0fbd
000000b0: 1b8c e5bd db8e a0bb 0956 d8bd 329f 533b
000000c0: 9dd1 3abd 0142 473c 0b0d a3bd 834e e3bc
000000d0: 4cf6 d83d 7168 f33c e882 303d 4dd9 0e3e
000000e0: 9044 fb3b abee b7bd d042 2b3d 2436 da3d
000000f0: c447 18bd 7bdb 293d 1806 5f3d 119a a03e
00000100: 43da 63be c518 d8bd e6a4 143d ba2c 00be
00000110: d59a 56bd 6dd2 99be 1e40 413e 536f 0fbd
00000120: 4864 ed3d f8d6 3abd 6b0f 733e 3ac2 96bd
00000130: c666 7a3d 9ffb 463e 9bbc 73be ae34 6ebd
00000140: 84ff c6bd be13 f0bd 054f 083d 5a8d 003d
00000150: 24d4 28bc 2a80 0abe fd62 91bd 140a c13d
00000160: 82b4 00be ff2a 203e a463 e33d 0aad a4bc
00000170: ef2e 103e 839c 1bbb a195 10be 979b dbbc
00000180: 543a eb3d 1540 d53c cd2b ebbd 20e3 4dbc
00000190: a442 173e 2f3e 01be 68e6 ac3d 9618 86bd
000001a0: cfc4 5dbe 527d ccbd 8a24 8d3e 0ee3 013d
000001b0: 64a0 2a3e e6f3 a83d 1ff5 213c b3eb 0e3e
000001c0: 218c 823e f702 70bd 3c46 de3d b2b2 9b3e
000001d0: 7daf ce3d 6465 b33d b1e1 46be aa52 14be
000001e0: 7238 0abe 6814 07bd f485 243e b1f8 7fbd
000001f0: 5cde 503d 8a3e 18be 186a 95bd 66bb 33bd
00000200: 2938 ed3d c1f8 0d3e 6af2 34be 16d7 393d
00000210: a4f9 0b3e 9d2f c03d 98a3 633d 839b b03d
00000220: 7d4c 9e3b b207 093e 9f5c 3abe d763 f1be
00000230: 6b03 22be a06f babc 9735 52be 23c9 25bc
00000240: fe02 60bd 6b2b d8bd 6a99 503e 64f5 363d
00000250: 125c 3a3d 1674 463c 3432 0bbd 1d29 943e
00000260: 1daf 9bbd cdd8 88bd ec38 31be f4fb e9bd
00000270: 4979 dbbd cf0b 83bd 75c4 503c 5c26 03bd
00000280: 96d3 3bbd fc47 c8ba d6a4 77bd 9ba1 9b3d
00000290: 78c4 aabd 738b bebc ecf0 fbbd 6db6 bebd
000002a0: b188 80bd 3d40 b4bd 4726 09be 9edc 343e
000002b0: 5924 cb3d a369 6fbd 0ae1 143e 9b7c 3d3e
000002c0: ad33 463e d429 ef3c 3b08 45be de88 493e
000002d0: a13c ecbd e2c1 1cbe 1321 5ebe bbba b7bd
000002e0: 503c aabe ba14 50bc 02d6 6dbe 267a a1be
000002f0: 5cd7 25be 0ad9 66bd 628e 813d b47d 4ebd
00000300: bb7d c6bd 3023 5ebd 1fc2 6c3d de53 f6bd
00000310: b2f5 6d3d 1e9c 303d 1771 3a3e b49d 88bd
00000320: 2b2c c73d e0fd 16be 6fd9 f33d 6d26 bbbd
00000330: c1c4 ef3d 438f 2a3d ddde 36bd 9cc3 0c3e
00000340: d35b 673e 20b5 833e 8a1b d43c 8cdb 063e
00000350: 11f7 86bd c664 3b3e 0e6b 973e 1293 863e
00000360: 246c 7d3e a090 49bc 9ecf 413d 3480 553e
00000370: 569a 87bc ef50 463e 7daa 4abe de78 93be
00000380: 95a4 313d 2df7 48bd f147 3fbd b5fe 5b3e
00000390: 1d8e e63d a3e5 ca3d 1610 953c 4196 13be
000003a0: afcb 803d 1050 b3bd 64a6 41bb 6e19 0b3d
000003b0: 999e a6ba 0466 f43d 4197 2c3d 6cb6 43bd
000003c0: a9e6 05be 5279 a6bc 4992 683d 82d4 e7bd
000003d0: 9f5b 9bbe f354 b1bd 545a 42be c9d4 80be
000003e0: a9a1 0dbe 33c3 6e3e 6bda a63e af61 8e3c
000003f0: 6db3 9dbd 74cf 38bd f6fa 6ebd a00c 8abe
-0.012301854 -0.120673485 -0.065964304 0.031791307 -0.30513823 0.010069669 0.09688195 0.08411233
0.020975988 -0.069638096 0.1003133 0.027548498 0.021815611 -0.009275579 -0.049358368 0.06216012
0.10946014 0.012932394 0.03517519 0.052204594 -0.023167241 -0.081716165 -0.024965528 -0.05948244
0.08115419 0.02163536 0.13137317 0.15708111 -0.2598939 0.085611895 0.08050854 0.2133061
0.13817888 -0.26875764 -0.1506009 -0.15917465 0.005571234 -0.09385873 0.13683134 -0.07765156
0.09421037 -0.0030829716 0.18811171 -0.035137475 -0.112083636 -0.004899842 -0.10563285 0.0032290933
-0.04561006 0.012161733 -0.07961472 -0.027747398 0.105938524 0.029712887 0.043093592 0.13950081
0.0076680854 -0.08981069 0.041811764 0.10654858 -0.037177816 0.04146908 0.05444917 0.31367543
-0.22251229 -0.105515994 0.036290072 -0.12517062 -0.052393753 -0.30043355 0.18872115 -0.035018276
0.11591393 -0.045615166 0.2373635 -0.073612645 0.06113317 0.19431923 -0.23802416 -0.058155708
-0.097167045 -0.117225155 0.033278484 0.031384803 -0.0103044845 -0.13525453 -0.07098959 0.094257504
-0.12568858 0.15641402 0.11102989 -0.020102043 0.14080404 -0.0023744411 -0.14119579 -0.02680759
0.114857346 0.026031533 -0.11482964 -0.012566358 0.14771515 -0.12621377 0.08442384 -0.06547658
-0.21657108 -0.099848405 0.2756694 0.031710677 0.16662747 0.08249645 0.009885102 0.139571
0.25497535 -0.058596577 0.1085324 0.3040977 0.100920655 0.08759573 -0.19422032 -0.14484659
-0.13498095 -0.032978445 0.16066724 -0.06249303 0.05099331 -0.14867607 -0.072956264 -0.04387989
0.11582977 0.13864423 -0.17670599 0.045371138 0.13669449 0.093840815 0.055575937 0.086234115
0.0048308955 0.13381842 -0.18199395 -0.47146484 -0.15821616 -0.022758305 -0.20528255 -0.0101187555
-0.054690354 -0.10555156 0.20371023 0.044667616 0.04549796 0.012112638 -0.033983424 0.28937617
-0.076017596 -0.066819765 -0.1730687 -0.11425009 -0.10716493 -0.06398737 0.0127421515 -0.032019004
-0.04585608 -0.0015280242 -0.060459934 0.07599183 -0.08338255 -0.023259854 -0.123018116 -0.09312139
-0.06276072 -0.08801315 -0.13393508 0.17662284 0.09919042 -0.058450352 0.1453897 0.18504564
0.1935565 0.02919475 -0.19241421 0.19681117 -0.115350015 -0.15308335 -0.21692304 -0.08971163
-0.3324914 -0.012700254 -0.23226169 -0.31538504 -0.16195434 -0.05635933 0.063259855 -0.05041285
-0.0969195 -0.054232776 0.057802316 -0.12027715 0.05809564 0.043117635 0.18207203 -0.066707045
0.09725221 -0.14745283 0.119067065 -0.091381885 0.1170745 0.04164053 -0.044646133 0.13746494
0.22593622 0.25724125 0.025892038 0.13169688 -0.06590093 0.18300161 0.29573864 0.2628408
0.24748284 -0.012302548 0.04731714 0.20849687 -0.016553085 0.19366811 -0.19791599 -0.28803152
0.04336985 -0.04906385 -0.046699468 0.21483882 0.11257575 0.09907081 0.018196147 -0.14412786
0.062888496 -0.08755505 -0.002954864 0.0339598 -0.0012712061 0.119335204 0.042136434 -0.047781393
-0.13076271 -0.020321522 0.056780133 -0.113198295 -0.3034334 -0.08658781 -0.1897977 -0.25162342
-0.138312 0.2331665 0.32588515 0.017380564 -0.077002384 -0.045119718 -0.058344804 -0.26962757

conv1.bias f4 [32]
00000000: fd6e b3bb baa0 b03b 55fa e9ba 2712 63bc
00000010: b6f9 c3bb 1539 123c 9dc6 8abb 2ad6 39bc
00000020: d484 d93b ea3d b63b 85e7 183c 94d2 34ba
00000030: 0511 cdba 7553 b13b 8f16 42bb 0025 ae3d
00000040: 8faa ef3b cd98 bf3b 112a 543d c37a 083c
00000050: 04d7 4d3c d37b af3b 45c7 f53b f02d 823b
00000060: 10f0 283b 9632 283b 6ddc fcbb ec5b ddbb
00000070: fb4e 043c a520 8fbc 9e0d 123c 6956 b53b
-0.0054758773 0.005390254 -0.0017851094 -0.013859308 -0.0059806956 0.008924742 -0.0042351023 -0.011342565
0.006638149 0.00556158 0.009332542 -0.00068978337 -0.0015645331 0.00541156 -0.0029615497 0.08503151
0.0073140333 0.0058470727 0.05179793 0.00833005 0.012563471 0.005355337 0.0075005614 0.0039727613
0.0025777854 0.0025664917 -0.0077167065 -0.0067553427 0.008075471 -0.01747162 0.008914379 0.0055339825

conv2.weight f4 [32, 32, 3, 3]
00000000: 0d0a 18bd 91d8 86bd 573c af3d 5dda 763e
00000010: 42ae 8e3e 5efd 1fbe 6573 98bd e0b4 0cbe
00000020: cfc1 3c3c daa4 043d 4c53 40be 3eab b0b9
00000030: 964e 093e 1349 023e c62c 1e3d f6ce ab3d
00000040: 0afb 4fbd 3e99 0abd 3af2 bebc 9319 38be
00000050: f7d6 a3bd d6c1 83bd 2211 6dbd 7805 323e
00000060: 6f2d 113d 6f72 ba3b 83d9 42bc b541 60bc
00000070: bc2b 3abe 38c8 70bd 38de e7bd 64b7 88be
00000080: cb2f 893c 6dee 3dbd 4f16 bf3c 1766 f3bc
00000090: 23ef 2ebc c0df 123d 9e55 e53c 56e5 113e
000000a0: b754 063e 6001 5bbc 9774 6ebe fca3 65be
000000b0: dec8 83bc a231 053e bb56 c3bc f7d0 51be
000000c0: 9bbd ebbb 3e27 c2bd 54eb 95bd be55 c7bc
000000d0: bfec 2d3d 7949 713d 2bb7 943d 08f3 8d3c
000000e0: ac64 9fbd 01b6 1cbe cb2f 163d df0c 063e
000000f0: f1b9 2d3b 7fa8 94bd 9109 01be 2630 b7bd
00000100: 3c09 11bd 7fc1 c9bd 84d2 ef3d daf3 093e
00000110: e64b 0ebe 5af7 07bd f9c8 0dbd 9e1e 563e
00000120: 7bba bfbd fa21 503e cb08 f03d 5d80 b63d
00000130: 7531 b03d 6765 1dbd 643a 25be 44f6 5fbe
00000140: 9fa9 943d 5ad0 8e3d 43d4 44bd c12f 2fbd
00000150: 83c7 38bd bf28 c83d ad8f 86bd 288e 08be
00000160: 3468 083e 740e ae3d 59fc 83bd cb3a f13b
00000170: a231 c1bb 7b55 193e a358 ba3e 7a83 c6bd
00000180: 0653 25bd 0c10 7cbc 79e4 33bd bfc6 e73d
00000190: 0ab9 85bd 6a7a debb ff1d c43d 870e edbc
000001a0: 4561 083e ef8f ecbc 68c2 1fbe 765c 36be
000001b0: a224 0cbd b907 f83d b815 583d f665 8e3e
000001c0: 898b 0d3e 6fbe 6dbd c8e8 53bd 471e 85be
000001d0: de70 793c 00b6 29bd 6909 df3d 6cfc 4e3e
000001e0: 9304 0a3e 8d9a 333d 4e03 b5bc f218 d53d
000001f0: 8d6f 01be 088a 5d3d 7a17 88bb 1360 79bd
00000200: 8d0c d9bd 0d09 013d 0b34 66bd dc4a 843d
00000210: b2a7 52bd 2c04 15bd 1dd7 91bd c72c 75bc
00000220: 2899 9cbd 9bae b0bd 33a3 5dbb 0a9f ea3d
00000230: 0bde e53d 66a9 33bc 24d6 8bbd c8a7 a2bd
00000240: dae0 adbc 198e 15bd f7d0 9bbd 80c6 bc3d
00000250: 6f49 0d3d 3915 5bbd 1ac6 f73d 1ec0 0a3d
00000260: 0c99 d13d 516c 03be 6ea2 043e 4381 793d
00000270: 9071 46bc 7509 273e 72ad f1bc 5144 113d
00000280: c0e2 46bd 9f0c a6bd b1d5 303c 5e57 1fbd
00000290: f982 57bd 6dac 14bc b579 a03d 2d34 003e
000002a0: ccdd abbd 505b b1bd f675 a43c cd65 073e
000002b0: b1ac 06bd 3260 e13c 310c 183d fcd3 8ebd
000002c0: ddf2 583d 6847 d4bd b381 2abe c7c6 c53b
000002d0: b3be bd3b 7ef0 a1bd 1d82 443d ab16 fb3d
000002e0: 5d78 283e 3fed a4ba 2671 4a3d a4ef 77bd
000002f0: 342c d0bd 156a 2a3e 27f7 483d 8ae1 893c
00000300: 43f0 8abd f293 09be c15a c83b 7ae2 b13d
00000310: 3bed 29bc 1e1c a7bc b894 29bd a3c6 193c
00000320: 11b7 833d 51e7 b1bc 559a 0bbd cb71 4fbd
00000330: 2961 303c 7894 a1bc 8ace 613d 885e d8bd
00000340: f18a 35bd 096b 173e e115 2abe 2fac 8d39
00000350: 25f2 e5bd 659e 7f3d 66b9 113e 49d9 6ebd
00000360: 03ee 083d 2161 693d 8650 6d3d adc0 15bd
00000370: c574 fabd e86f ccbd 10fc 683d ea43 0bbe
00000380: 87ee 01be 3390 b13d fee6 55bc ea7a afbc
00000390: 1d99 17bc 28c0 a0bd d645 c2bd 4d6e 2dbe
000003a0: c573 a2bd 1c98 6c3d 81c0 f1bb 9ecb eabd
000003b0: 7bbe 28bd 5e8b 51bc 2bc3 183d 0fc5 56be
000003c0: e784 48be 936b 303e cf17 763d 1e28 563e
000003d0: dcd4 82be a4b3 f2bd 3c30 99bd 9782 6abe
000003e0: 3ff7 2cbd d35b e83d 9962 433e 7ca9 ee3d
000003f0: 8a0e 843d 9507 5f3e 7b71 c7bb d849 a4be
-0.03711896 -0.065842755 0.08556431 0.24106736 0.27867323 -0.15623996 -0.07443885 -0.13740873
0.011520817 0.032383777 -0.18781775 -0.0003369692 0.13408884 0.12723188 0.038616918 0.08389084
-0.05077652 -0.03383755 -0.023308862 -0.17978506 -0.07999986 -0.06433456 -0.057877667 0.17384899
0.03544372 0.005689911 -0.011892679 -0.013687541 -0.18180746 -0.058784693 -0.11321682 -0.26702416
0.016746422 -0.04636996 0.023326067 -0.029711766 -0.010677132 0.035857916 0.027994927 0.14247641
0.13118254 -0.013367027 -0.23286663 -0.22425836 -0.016086992 0.13007215 -0.023845067 -0.2048987
-0.0071942336 -0.09480141 -0.07320276 -0.024332877 0.042462107 0.05890796 0.07261499 0.0173278
-0.077828735 -0.15303804 0.036666673 0.13090847 0.0026508535 -0.072587006 -0.12601306 -0.089447305
-0.035409197 -0.098513596 0.117100745 0.13471928 -0.1389614 -0.033194877 -0.03461549 0.20910117
-0.0936174 0.20325461 0.11720427 0.08911202 0.08603183 -0.038426783 -0.16135556 -0.21871287
0.07258915 0.06973334 -0.04805399 -0.04277015 -0.045112144 0.09773397 -0.06570373 -0.13335478
0.13321 0.084988505 -0.06444616 0.007361745 -0.0058958093 0.14974014 0.3639575 -0.09693046
-0.04036238 -0.015384685 -0.04391906 0.11317205 -0.06529434 -0.0067894952 0.09576034 -0.028937591
0.13318355 -0.028877227 -0.15601504 -0.17808709 -0.034214623 0.12110848 0.052755088 0.27812165
0.1382276 -0.05804294 -0.05173567 -0.25999662 0.015224664 -0.041433334 0.10890467 0.20213479
0.13478307 0.043848563 -0.022096302 0.104051486 -0.1264021 0.054086715 -0.0041531892 -0.06088264
-0.10598097 0.031502772 -0.056201976 0.06459591 -0.051429458 -0.03638093 -0.07121108 -0.014964289
-0.076464 -0.08627053 -0.0033819198 0.114561155 0.11223992 -0.010965681 -0.068279535 -0.07942158
-0.021225382 -0.036512468 -0.07608216 0.09217548 0.03449386 -0.053487036 0.12098332 0.033874623
0.102342695 -0.12834288 0.12952587 0.06091429 -0.012112036 0.16312201 -0.02950165 0.035465542
-0.04855609 -0.08107876 0.0107931355 -0.03890168 -0.05261514 -0.009074313 0.07835714 0.12519903
-0.08391914 -0.086599946 0.02007578 0.13222428 -0.032879535 0.02751169 0.037121 -0.069740266
0.052965987 -0.10365182 -0.16651039 0.006035659 0.0057905554 -0.07907198 0.04797565 0.12260183
0.16452165 -0.0012582912 0.049424313 -0.060531273 -0.10164681 0.1664203 0.049063828 0.016831178
-0.067841075 -0.13435343 0.0061143343 0.08685775 -0.010371502 -0.02039915 -0.041401595 0.009385738
0.064314015 -0.021716746 -0.03408273 -0.05064563 0.010765352 -0.019724116 0.05512861 -0.105649054
-0.044321958 0.14786924 -0.16609909 0.00027021902 -0.11227826 0.062406916 0.1423088 -0.058312688
0.03343011 0.056977395 0.05793812 -0.036560703 -0.12229303 -0.09982282 0.05688101 -0.13600126
-0.12688647 0.08670082 -0.013055561 -0.021420915 -0.009252814 -0.07849151 -0.094859764 -0.16936608
-0.079322375 0.05776225 -0.0073776846 -0.11464618 -0.04119728 -0.012789575 0.0372955 -0.2097361
-0.19581948 0.17228536 0.0600813 0.20913741 -0.25553024 -0.1185067 -0.07479903 -0.22901379
-0.04222798 0.11345639 0.19080581 0.1165342 0.064480856 0.21780236 -0.006086526 -0.32087588

conv2.bias f4 [32]
00000000: 7e5e 58bc c758 3dbc 7f23 83bb f571 24bc
00000010: 99eb 20bc 4f47 a1bb a6f4 f5bb 7b82 2839
00000020: e0b5 383b 3dec 65bc 4521 d3bb f24c 46bc
00000030: e1a6 e33a 6bd7 013a adf1 a6ba 7e67 663b
00000040: 8c86 1fbb 19c5 173b 91e5 7e3b c876 f63b
00000050: 1a87 e43b 0e75 2bbc 3d3e 2f3a 0d71 583c
00000060: 0db5 0cb9 cc00 b83b d168 55ba a443 95bc
00000070: d9a0 08bb 7352 fdbb 7c11 db3b 4d9b 623b
-0.013206122 -0.011556811 -0.004002034 -0.010036935 -0.009821796 -0.0049218307 -0.007505971 0.00016070336
0.0028184578 -0.014033374 -0.006443175 -0.012103306 0.0017368459 0.0004953059 -0.001273682 0.00351569
-0.002434167 0.002315825 0.0038894156 0.007521484 0.006974113 -0.01046492 0.00066849944 0.013210547
-0.00013418887 0.0056153294 -0.0008140924 -0.01822073 -0.0020847826 -0.007730776 0.006685434 0.003457743

conv3.weight f4 [32, 32, 3, 3]
00000000: 700e 5fbd 5820 ef3c b49c 58bc 2397 173e
00000010: efa8 bc3d 9600 033e 42ef 35bc aadf 35bb
00000020: d7fc e03c e788 fc3d 18f9 afbd 5ced f5bc
00000030: 0ebd 32be 3ee7 41bd 0873 783d 6971 2e3e
00000040: 19c4 ffbc 6b6c 06bd 25fe adba 6d5d 41bd
00000050: da5d 5d3c 61a6 7bbc 1b29 adbd fee1 debc
00000060: 6617 ff3d 0526 783c 997c 433b 461a 35bc
00000070: 3a0e e9bb faa7 1fbd 48c3 9dbd b64f 053c
00000080: 4803 05be 7923 cc3d 0a51 ffbc bdb2 d13d
00000090: 9533 9e3b daac 263d c692 11be 252f d43d
000000a0: caf9 563d 80b7 20bb 1d06 963d 9f04 b13d
000000b0: 5851 f3bd 74b9 21bd 19a6 18bd d141 a7bd
000000c0: 6d4d fd3d fc77 ec3d be2a 4abd c514 23bd
000000d0: e763 45bd 0057 673d fcab 6ebd a51b 36bd
000000e0: 8db5 5dbd a14f 3e3b 3274 903b 8383 ca3d
000000f0: 8bfb b8bd cc03 023d 1e2d 903d 4a0a efbc
00000100: f7e2 eebd 1334 573d 261f 543e 5ebb c9bd
00000110: 017b 10bc 8249 94bd 2b32 573c ea69 e73d
00000120: 9e1e 263a 8543 aabd 7186 a23b baef 96bd
00000130: 1e45 3fbd 71d2 023c 0bba 333d 3af3 903d
00000140: 8a41 bdbd 8fa0 073d f83b c8bc 5caa c3bd
00000150: 0a36 a8bd 5c2c 133d 9979 c8bc 0317 823d
00000160: 3d25 52bc 90bd 23bd f44f 923c 1094 f0bc
00000170: c040 383d 0faa 633e 6465 ac3d 6690 05bd
00000180: 2646 02bd a489 04be 7702 81bd 4bed 2dbc
00000190: 592e 253d bda5 b8bc b179 d73d 46ee 6c3d
000001a0: 9985 b73b 344d cb3a c165 c53d 6736 34bd
000001b0: dd38 3d3c ada4 343d fd33 8a3d 6819 00be
000001c0: 7f07 8abd 6d17 72bd 8658 59bd e0cc 0e3d
000001d0: 2576 55bd 0557 803d 18f0 80bd 86a8 633d
000001e0: a703 44bb a7ad fcbc bc0c acbd f050 5d3d
000001f0: 083c bbbd a884 f43d 1db7 cd3d 0319 173e
00000200: 6946 c4bd 53e8 6e3d c90b fd3d 4e50 c43c
00000210: f1e2 183e 8f54 023e f4b3 903d 9337 563d
00000220: c09f a0bd bd32 a0bd 42c0 c7bd 1d92 8abd
00000230: 976c 033e 4b05 bb3d 4f73 43bd 7722 86bd
00000240: 188d 2c3c 1e29 97bc cc12 1b3d 7b3c d6bd
00000250: ec93 903c 1a83 54bd 6fd2 bb3d 330d 2bbd
00000260: b024 98bd 9f3d ebbd 53c2 83bd e287 c73d
00000270: 92fc 81ba a5c3 38bc 3e99 6e3d 4111 26bd
00000280: c75e a43d 7428 8fbd 1c0c 98bc 4aae 59bd
00000290: 0fcc 5c3d 076d 813d 56ad b8bd ad9f 893c
000002a0: 2013 3abd d4a8 adbc eed7 a7bd c8f5 e2bc
000002b0: 2768 7e3d a526 c43d 0f7d ab3b 2f26 b3bd
000002c0: c1da 9a3c c58d 32be 725a 83bd 21f7 823c
000002d0: 77ac 4cbd c408 1bbd 36cb 01be 6898 453d
000002e0: 1d01 823d 3219 d5bc 6ea2 0bbc 28e6 90bc
000002f0: c491 c7bb 27ff 433d c8df d0bb b7e5 823d
00000300: 2f83 69bd e286 29be 5b8e 1b3c 35f4 39bc
00000310: 6382 82bc ac69 be3d f01b 3bbc b51a 7bbc
00000320: f7c2 74bd b0db 8b3c cd7e 0a3d ff6e 983d
00000330: b888 47bd b078 643d 765c 573d b2c3 a7bc
00000340: 22a7 2ebc fbbf 38be 3dd6 d63d bb69 a8bd
00000350: 7712 473c 8f8d 61bc 28cb b8bd f100 d4bc
00000360: 8fff 6abd 07c2 683d 546d 323e b72b 01bd
00000370: 8f21 2e3a 8de2 9b3c 211c 77bd b128 50bc
00000380: 2fef fd3d 32ff ef3c 3458 02bc 0cfa 993d
00000390: b5e1 bcbd 68f8 e1bd 2d08 fc3c 320f bf3d
000003a0: 3345 5a3c 0a4e c5bd d164 7fbd 4626 f23d
000003b0: 864a d33d 505f e23d 372e 903c 9b09 07bd
000003c0: 0a06 30ba 5eaf d23a a469 42bd 02f6 41bc
000003d0: e420 b9bd c0d4 173d 1439 133e fced 40bd
000003e0: c91c bdbd 7465 d7bc 11a8 0dbe 9b7e dc3a
000003f0: 70d9 8bbd 2c6f 70bd 6b99 6a3e 7ef5 61bd
-0.054457128 0.029190227 -0.013220955 0.14803748 0.09211909 0.12793192 -0.011104407 -0.0027751722
0.027464313 0.123307995 -0.08592433 -0.030020408 -0.17454931 -0.04733967 0.060656577 0.1703545
-0.031221436 -0.03281824 -0.0013274594 -0.04720824 0.0135111455 -0.015359492 -0.08455106 -0.02720737
0.12455635 0.015145783 0.0029828905 -0.011053627 -0.0071122916 -0.038978554 -0.077032626 0.00813668
-0.12989533 0.09967703 -0.031166572 0.1023917 0.0048279264 0.040692188 -0.14216146 0.103605546
0.05248431 -0.0024523437 0.07325385 0.086434595 -0.118807495 -0.039483503 -0.037267778 -0.0816685
0.123682834 0.11546323 -0.04935717 -0.03981473 -0.048190977 0.056479454 -0.058269486 -0.044459958
-0.05412822 0.0029039162 0.004408383 0.09888365 -0.09032353 0.031741902 0.070398554 -0.02917971
-0.11664384 0.052539896 0.20715007 -0.098501906 -0.008818389 -0.07240583 0.01313452 0.112994984
0.000633696 -0.083136596 0.0049598743 -0.07369943 -0.046696775 0.007984743 0.043878596 0.07077642
-0.09241016 0.033112105 -0.024442658 -0.09553978 -0.08213432 0.035930976 -0.024472045 0.063520454
-0.012826261 -0.039975703 0.01786039 -0.029367477 0.044983625 0.22232841 0.08417776 -0.032608412
-0.03180518 -0.1294313 -0.06299298 -0.010615657 0.040327404 -0.022539968 0.10521258 0.057844423
0.005600643 0.0015510679 0.09638549 -0.043997195 0.011549202 0.04410236 0.06748197 -0.12509692
-0.06739711 -0.05910437 -0.05306294 0.034863353 -0.052114625 0.06266598 -0.06295794 0.05558064
-0.0029909404 -0.030844523 -0.084008664 0.054032266 -0.091423094 0.11939365 0.10044692 0.14755635
-0.09583742 0.05832703 0.123557635 0.023964074 0.14930321 0.12727569 0.07065573 0.052299093
-0.0784297 -0.078221776 -0.09753467 -0.0676615 0.12834392 0.09131869 -0.04771739 -0.065495424
0.010531686 -0.018452223 0.037859723 -0.104607545 0.01764866 -0.05188284 0.091709964 -0.041760635
-0.074288726 -0.11486363 -0.06433549 0.097427145 -0.0009917191 -0.011277114 0.058251612 -0.0405438
0.0802589 -0.06990138 -0.018560462 -0.05314473 0.053905543 0.063196234 -0.09017436 0.016799772
-0.045428395 -0.021198668 -0.08195482 -0.027705088 0.062111046 0.09577683 0.005233414 -0.08747517
0.018903138 -0.17436893 -0.064137354 0.01598698 -0.049969163 -0.037850156 -0.12675175 0.04824105
0.063478686 -0.02601299 -0.008522613 -0.017687872 -0.0060903747 0.047850754 -0.006374333 0.06391471
-0.057009872 -0.1655536 0.009494389 -0.011349727 -0.015931314 0.09297499 -0.011420235 -0.015326192
-0.059756245 0.017072529 0.033812333 0.07443046 -0.04871437 0.05577916 0.052578412 -0.020479057
-0.010659965 -0.18041985 0.104900815 -0.082232915 0.012150398 -0.01376666 -0.09023124 -0.025879355
-0.057372626 0.056825664 0.17424518 -0.03153583 0.0006642574 0.019028926 -0.06032956 -0.012705014
0.12399136 0.029296491 -0.0079556 0.07518396 -0.09222738 -0.11033708 0.030765617 0.0932907
0.013322162 -0.096340254 -0.062352005 0.11823706 0.103169486 0.11053336 0.017600162 -0.032968145
-0.0006714767 0.0016073992 -0.047464028 -0.011838438 -0.090394765 0.03706813 0.14377242 -0.04710196
-0.09234006 -0.026293494 -0.13833643 0.0016822399 -0.06828582 -0.05869977 0.22910087 -0.05516576

conv3.bias f4 [32]
00000000: 27d8 5c3d 05a5 24bd f047 10bd 7b21 453c
00000010: ba6f 643b 676b 0ebe ee1b daba e75f 16be
00000020: db10 71bd 78f2 7d3b e866 90bc ed0b f8bc
00000030: e38b 28bc 3ef0 06bc 973f 0c3c a44b 26bc
00000040: 857c b53d 3328 a7bb fa48 00be 88e8 f4bc
00000050: 4142 57bc 4027 a33c b0cf 8fbc 6931 c6bc
00000060: 2704 723b 8552 12be c285 563c a0d0 c03c
00000070: b5fb 59bc f5c1 063e d846 9a3c 6057 f1bc
0.053917076 -0.040196437 -0.035224855 0.012031908 0.0034856633 -0.13908158 -0.0016640404 -0.14685021
-0.058853965 0.003874926 -0.017627195 -0.030279124 -0.010287258 -0.008235989 0.008560083 -0.01014987
0.08861641 -0.0051012277 -0.12527838 -0.029896036 -0.013138355 0.019916177 -0.017555088 -0.024193482
0.0036928745 -0.14289291 0.013093414 0.02353698 -0.013304641 0.13159926 0.018832609 -0.029460609

conv4.weight f4 [32, 32, 3, 3]
00000000: c19a 9fbc 12ef 193d 757e ba3d d779 7ebd
00000010: 1a97 c4bd 8561 fcbd 2ab3 f1bc 2542 a83d
00000020: b714 9fbd f5e1 2d3c 65d3 91bd 3a47 603d
00000030: 17a3 ea3c ba2a 3e3b 819b 80bd 49b5 c8bd
00000040: 65ab da3d 2e18 d2bc 294f e0bd dc06 2c3d
00000050: 7ad0 1a3e 24a5 bf3d 1bfd 26be 4a7e b63d
00000060: 3b52 ecba 81b9 913e 86cd f5bc 5c01 083e
00000070: fd82 2dbc 432c e6bd eaee d4bc 17a8 3f3d
00000080: b4e8 77bd def7 a3bc 7ab6 0bbc 5c4f ec3d
00000090: e88d 6bbc 14c4 753a f1af d63d b338 883c
000000a0: ca24 323d 2b0a ccbc d964 50bd c532 ecbd
000000b0: ae8b e9bd 691e c23d e9c9 db3d d4cb 0bbe
000000c0: d6c7 5c3d e2a4 4bbe c475 a8bd 4377 ea3c
000000d0: a6f9 05be c91e 90bc cfc7 163e f0a6 173d
000000e0: b597 13bd 3b3b 1ebd a1db 08be ce53 3cbe
000000f0: aa37 16be 5d57 4a3d 4eef 383d 77a9 53bd
00000100: 1ad9 4ebd ce7b 273d 7ce4 4b3d 7252 3b3e
00000110: d560 fe3c 70a3 733a 97ef 29bc 1f86 b43d
00000120: 9199 a03c 7b83 20be 1497 68bd 26d2 b43d
00000130: e98b 50bb 2fa2 823c e4ba 6abc 54eb a6bd
00000140: 4fd1 303e 80ce 613c 20a2 b2bd 4213 203c
00000150: 6e7b 1b3d d1ec 543d 1609 b8bd 7065 afbc
00000160: 705a 02bd 9aec 8e3d bff3 173d 53d0 9abd
00000170: e46e 063e d052 a03d 2986 ca3a c027 02bd
00000180: 7e38 d2bc bc15 903c 76bb ac3d 7772 b33b
00000190: 5aba 263e 4543 84bc e409 69bd 166d 9d3c
000001a0: 6bf0 c4bc 9f84 dd3d 2ec0 183e e9c7 b4bd
000001b0: ed61 c9bd 42d5 5dbe 13a1 973d 8308 a53d
000001c0: fa38 96bd d133 023e f412 be3c 26fe 39bd
000001d0: e924 34bd a0c2 253e f2d4 91bc 1b86 5fbd
000001e0: 7c55 c8bd 2ba6 f4bd c257 0e3e 4097 b43c
000001f0: 02c9 99bd e484 c1bd 8742 633d b938 d4bc
00000200: f0bb 98b8 b297 8dbd dde4 b5bd 2d76 453e
00000210: 3523 fe3c 16b4 a1bd 5d58 3ebc 1d75 b03d
00000220: b480 123e 66d6 7cbd 81fd 06bd 5599 4fbd
00000230: 49ac 21bd dc51 98bd 8b96 433c 2165 29be
00000240: 25c8 80bd 40a1 063e ca3f 4e3d 9a8c 7d3c
00000250: c76c a33d f899 93bc 0e93 b2bc 4dee 7cbd
00000260: 3119 583c a72f 4abe 1aed cc3d 9290 85bd
00000270: 0eb7 bcbd 8f9f 253e de8d 46bd 56bd e2bc
00000280: 43f8 afbc 4fa5 163e ea44 91bd 7156 9bbd
00000290: 75bf b8bd dff1 9e3d e92c 253e 4a51 75bd
000002a0: 9eba 873c 8cf3 02be 130b 8c3c 568e 8c3c
000002b0: ac35 d9bc b6bf 22bd d653 2d3d 1631 ecbd
000002c0: 3a03 beba 0cc7 8ebd 6c31 25bd e4cc a23d
000002d0: 75f8 2a3d 0e0f 48bd ed9e 583c e4dd 1c3e
000002e0: 95cd 8ebd 4e32 89bd 726e d8bd ee93 cabc
000002f0: a735 9a3c 90e3 b0bd a3dc 883d 779f 99bb
00000300: b577 f23c 71c7 0ebd d2f7 113c 925c 323d
00000310: f426 023e a55d f7bd 532b 24be fd05 783e
00000320: 85ec 09be 73a0 6e3d 53c5 c03d 0001 693d
00000330: 9e4c c43d 704f a7bc 401b 3c3d a405 c73d
00000340: a5fa 65bd b704 cbbc 5670 dbbd 877f f53d
00000350: 304a c7bb 8406 34bc 12e9 6a3c 7a6e 753d
00000360: e8fc 403d daa2 b4bd ad6c 99bb 0232 dcbd
00000370: 7563 3d3d 93c2 fa3d b0d9 c9bd 45a0 b63d
00000380: bc5a 513d fab7 afbd 40d4 3fbe d216 f83d
00000390: c36d fd3c 2ca8 5fbd 4a0e 043d d470 ac3c
000003a0: bb85 533e bc3c 70be 1d84 f5bc ec76 a3bd
000003b0: 570c 1c3d 664f e4bd b1a3 093e 1f73 113d
000003c0: 43c4 3d3c 2490 69bc 2c89 b5bc b115 673d
000003d0: f03b a43c fe45 2dbd 7018 3cbd 5990 0abc
000003e0: f489 f03d 9a20 fdbd 9f4d e93c ac69 2e3c
000003f0: 80a7 043d 4abc f5bd c7fe 693d 4d1d 7abd
-0.019482972 0.03758151 0.09106151 -0.062127914 -0.09599133 -0.12323288 -0.029504377 0.08215741
-0.07767623 0.010612954 -0.071203984 0.054755427 0.02864222 0.0029017166 -0.0627966 -0.098002024
0.10677222 -0.025646295 -0.109525986 0.04199873 0.1511859 0.0935767 -0.1630749 0.089108065
-0.0018029878 0.2846184 -0.030005228 0.13281769 -0.010590312 -0.11238911 -0.02599283 0.046791162
-0.060524657 -0.020015653 -0.0085273925 0.11538574 -0.014377095 0.0009375226 0.10482777 0.016628599
0.043492116 -0.024907192 -0.050877426 -0.11533121 -0.11403595 0.094784565 0.10731871 -0.13651973
0.053901516 -0.19887117 -0.08225587 0.028621322 -0.13083515 -0.017592805 0.14724658 0.03702444
-0.03603335 -0.038630705 -0.13365032 -0.18391344 -0.14669672 0.049399722 0.045150094 -0.051675286
-0.050500013 0.040889554 0.049778447 0.18293169 0.031052032 0.00092940684 -0.010372064 0.08814644
0.019604476 -0.15675156 -0.056784704 0.08829145 -0.0031821674 0.015946476 -0.014326785 -0.08150354
0.17267345 0.013782144 -0.08722329 0.009770216 0.03795951 0.05198366 -0.08986108 -0.021410674
-0.03182453 0.06978722 0.03709769 -0.07559266 0.13128239 0.07828295 0.001545136 -0.03177619
-0.025661703 0.017588489 0.08434193 0.0054762918 0.16282025 -0.016145358 -0.056894198 0.019217055
-0.024040421 0.10816311 0.1491706 -0.08827192 -0.09833131 -0.21663383 0.07403769 0.08058264
-0.07335086 0.12715079 0.023202397 -0.04540839 -0.043980513 0.16187525 -0.017801736 -0.054571252
-0.0978193 -0.119457565 0.13900664 0.022044778 -0.07509042 -0.09449175 0.055483367 -0.025905954
-7.282931e-05 -0.06913699 -0.08881543 0.19283362 0.031022647 -0.07895677 -0.011617747 0.086160876
0.14306909 -0.061727904 -0.032956604 -0.05068334 -0.039470945 -0.074374884 0.011937748 -0.16542484
-0.062881745 0.1314745 0.050353803 0.015475417 0.07979732 -0.018017754 -0.021798637 -0.0617507
0.0131896 -0.1974474 0.10006161 -0.06521715 -0.092146024 0.16174148 -0.04847514 -0.027678173
-0.021480685 0.14711498 -0.070932224 -0.07584847 -0.090208925 0.07760977 0.16130413 -0.059891976
0.016568478 -0.12788218 0.017095124 0.017157715 -0.02651485 -0.03973361 0.04231628 -0.115328
-0.0014496811 -0.06971559 -0.040330335 0.07949236 0.041740853 -0.048842482 0.013221485 0.1531902
-0.069728054 -0.06699048 -0.10567941 -0.024728741 0.018824412 -0.08637154 0.06682708 -0.004688199
0.029598096 -0.03485817 0.008909183 0.043545313 0.12710172 -0.12078408 -0.16032152 0.24221034
-0.13469131 0.058258485 0.094126366 0.05688572 0.09584926 -0.020423621 0.045924425 0.09717873
-0.056147236 -0.024782522 -0.10714786 0.119872145 -0.006081842 -0.010987882 0.014337795 0.05991981
0.04711619 -0.08820124 -0.0046821446 -0.10751726 0.046237428 0.12244143 -0.09855974 0.08917288
0.05111192 -0.085800126 -0.1873331 0.12113728 0.030936128 -0.05460374 0.03224019 0.021049894
0.20656483 -0.23460668 -0.029970223 -0.07981667 0.038097706 -0.111479566 0.1344135 0.03551018
0.011582437 -0.014255557 -0.022160135 0.05641717 0.020048112 -0.042303078 -0.045921743 -0.008457267
0.117450625 -0.12359734 0.028479395 0.010645311 0.032386303 -0.11998804 0.05712774 -0.0610631

conv4.bias f4 [32]
00000000: c98d 59bd 9f4f 06bc df79 59bd b704 e7bc
00000010: 866f 55be 0960 87bd 498b a3bd 4721 39bc
00000020: 7308 b3bc 90ac 1abd 24f8 96bd bc72 93bd
00000030: 79dc 74bd 01a3 febc dcb9 c6bd 1cab c1bd
00000040: ec9a 81bd e087 48bd 4746 fdbc a32c 3dbd
00000050: e121 09bd a0d3 633b 958e 693d 210e ebbd
00000060: 2f7c 45bd ca3b 28be 63ae ccbd 0f7e a8be
00000070: 74a3 17bc 4f4a a9bc 2d19 bebb 2aa0 68bd
-0.053113732 -0.008197694 -0.05309474 -0.02820049 -0.20843324 -0.06610114 -0.07985551 -0.011299438
-0.021854615 -0.037762225 -0.07371548 -0.07199618 -0.05978057 -0.031083586 -0.097034186 -0.09456465
-0.06328377 -0.048957705 -0.0309173 -0.046185147 -0.033479575 0.003476359 0.057020742 -0.11477304
-0.048214134 -0.16429058 -0.09994199 -0.32908675 -0.009255279 -0.020665316 -0.005801341 -0.05679337

linear.weight f4 [32, 800]
00000000: 4e02 863d 8f2c d33d 4cf3 033c 829d 48bd
00000010: a2d5 ebbc 5dfa 7bbe c2ea 3b3d bed3 06bd
00000020: 2f27 78bc eeac da3d 2d3e 14bd c2f4 35bd
00000030: 7a93 00bd 95a8 37bd a722 1ebb 1818 ed3d
00000040: 4c56 983d 0e91 a9bc 0c95 f43b fe18 7dbd
00000050: 8ea1 d33d c96e 43bc d99b 39bd e8b0 cbbc
00000060: 1569 c2bc cc42 993d d56b 6cbd 6a53 7b3d
00000070: 232d 3b3c 0401 1a3d 0112 6fbe d5d7 9c3d
00000080: d821 1cbb 17bb f0bc 0f6b 873d 0672 aa3d
00000090: 5cca a63c 167e 59bd 6d74 e93c 195f b838
000000a0: c5ac adbb cfba 43be 7be1 2bbd 5819 24bd
000000b0: e893 073e 7f8b 20bd 4fbe 9dbc 6909 243d
000000c0: 5281 aa3c 0783 ec3b 7184 19be 758a 533c
000000d0: 2008 16bd d5b5 9d3c f027 11bd a5b1 c93d
000000e0: e4f9 5ebd 818b 0cbc 6e46 85ba b3a7 1bbd
000000f0: 208f 97bc f4c5 8c3c 841e ffbb 05f8 8bba
00000100: 3089 d2bb 73b7 b0bc cf98 ae3d 409b bb3b
00000110: cc35 cc3b dec8 89bc b026 a23d 9d1d eabc
00000120: 382d 94bb 24f5 1bbd c59c c93b 8431 ec3d
00000130: 2627 2cbd 5f22 da3d 994c 38ba 1e6e 6cbd
00000140: b1b7 93bd 8965 5b3d df10 f9bc 9483 35bd
00000150: df7c 1a3c e37d 553c 1356 ffbc 00a0 0f3c
00000160: 5313 f23c cfc1 153d 896c 803d 8762 8cbd
00000170: 5a78 743d d92b 443d edf0 f63c 9412 36bd
00000180: 6d42 103d 801c e13c 923d 383c e9b4 caba
00000190: 7849 ecbd ca43 6a3d cb44 b6bd 5220 1ebd
000001a0: 224c 8cbc 74d8 b9bd 6631 203e 7525 873d
000001b0: 2679 7c3d 142f cd3c 0e31 00be f804 fc3d
000001c0: fda8 be3d 71b2 813c da55 6f3d b827 e6bd
000001d0: b199 bbbd e89b d0bd 8d04 00be b19c 21be
000001e0: a5a0 06be e046 29be 0edd 05be 8e81 21be
000001f0: e047 38be 11c9 6d3d 8541 35bd b5e2 883d
00000200: d27f 0cbd 3ee6 b13c 30ae d93c 8612 0e3e
00000210: bd71 113d fc94 06bd 4628 83bb dab6 f73b
00000220: 0316 13be a91f 0abc 1517 6c3c 47ab ac3d
00000230: 9b83 12bd eaab dbbc 9a0c c5bc 52be adbd
00000240: b963 01be 20ce 37bd 404d 7e3d 2a3d d43c
00000250: 8827 6f3c a92f 9a3d 7d97 1abe ae03 913d
00000260: e53d 02bd 3576 d73c 2464 ed3c 4691 dc3c
00000270: 0619 9b3d 50a2 c0bd 170a 43bd 7100 643d
00000280: 7527 1fbe c3b3 a73d fa4f fcbc a8b9 13bd
00000290: ed1b 61bb 0d61 9d3d e034 8bbc 4aa5 07bd
000002a0: f06c 2dbc 93a6 f83c 96dd 293e 0b49 3dbc
000002b0: 6d5f 4abc f56c 84bd 0a5d 32bd a232 263e
000002c0: b946 04be 463f 443d 8685 5c3c bdae 82bd
000002d0: c70b 6bbe c3ec ed3c 9b94 cfbc eb66 fa3b
000002e0: 2de5 223d 4c41 353d 34fc 69bc 96cb d8ba
000002f0: 87ea 8dbc 961f 8d3d 4234 3ebc e784 1b3d
00000300: fb3a a63c b8ac b73c 7c6f f5bd 1bf7 3bbd
00000310: 8718 453d a4d0 a23c 06f6 6c3c e40e 4f3d
00000320: 05c9 4bbd 4aea 2e3d 673e 02bd 4af5 8ebb
00000330: 7043 7c3b e252 e33d 6084 9ebc 512d 633d
00000340: a910 8bbd 0621 1d3d 87a5 b9bb c143 a33c
00000350: 8861 01bd 18c8 12bc 6e8b e0bc 125f bbbc
00000360: a945 07bd f3c8 9abb 47a5 393c 6513 f7bb
00000370: 177e 8b3d bf0a 1ebd c865 c3bb f940 30bd
00000380: d01a 23bc caa1 983d 3549 653d 5560 23bd
00000390: a47e b3bd 4df5 463d c455 8abe 66cd 8e39
000003a0: f148 8fbc eccb 03bd 2a94 92bd a80c 783d
000003b0: 70f2 493d 6fc2 4fbc d814 7d3d f18d acbc
000003c0: b1c8 123e 3964 02be 968f 3bbd 167d eebc
000003d0: ccd6 02bd ce51 3d3d 3a9d c03c ceb1 613b
000003e0: 20a6 403d e4ec d43c 64f6 3bbd cb68 cfbc
000003f0: 8da9 08ba 3b45 d43c 9826 2e3d 5756 67bc
0.06543408 0.10311233 0.008053612 -0.048978336 -0.028788392 -0.24607225 0.04587818 -0.032916777
-0.015146061 0.10677515 -0.036192108 -0.044422872 -0.031390645 -0.044838507 -0.002412954 0.11576861
0.07438335 -0.02069905 0.007464057 -0.061791413 0.103335485 -0.011928269 -0.045314644 -0.024864629
-0.023731748 0.074834436 -0.057720024 0.061358847 0.011424336 0.037598625 -0.23346712 0.07658354
-0.0023823883 -0.029386086 0.06612217 0.083225295 0.020360164 -0.05309876 0.028497899 8.791517e-05
-0.0053001367 -0.1911423 -0.04196308 -0.040063232 0.13240016 -0.039195534 -0.019255785 0.040048037
0.020813618 0.007217768 -0.14991929 0.012911429 -0.036628842 0.019251743 -0.035438478 0.09848336
-0.054437533 -0.008578182 -0.0010168084 -0.038001727 -0.018500865 0.017184235 -0.00778562 -0.0010678774
-0.0064250454 -0.02157185 0.0852524 0.0057252944 0.006231999 -0.016819414 0.07917535 -0.028578574
-0.004521992 -0.03807558 0.0061527216 0.11532882 -0.042029522 0.10651087 -0.0007030457 -0.057722203
-0.07212771 0.05356363 -0.030403553 -0.044314936 0.009429186 0.013030502 -0.031168973 0.008766174
0.02955023 0.036561783 0.062707014 -0.0685473 0.05968509 0.04789338 0.03014418 -0.04445131
0.0352196 0.02747941 0.011245148 -0.0015465292 -0.115374506 0.057193555 -0.0889984 -0.03860504
-0.017126147 -0.09074488 0.15643844 0.06598941 0.061638974 0.025046863 -0.12518713 0.12305635
0.09309576 0.015832158 0.058431484 -0.112380445 -0.09160174 -0.10185987 -0.12501736 -0.1578243
-0.13147219 -0.16530943 -0.13072607 -0.15772077 -0.17996168 0.05805308 -0.044251937 0.06683866
-0.034301586 0.021716233 0.026572317 0.13874254 0.03550886 -0.032856926 -0.0040026037 0.0075596394
-0.14363866 -0.0084304 0.0144098 0.08431106 -0.03577004 -0.026815373 -0.02405386 -0.08483566
-0.12635697 -0.04487431 0.06208539 0.025908072 0.014596827 0.07528622 -0.1509685 0.0708078
-0.03179731 0.026301483 0.028978415 0.02692474 0.07573132 -0.09405959 -0.047617044 0.055664483
-0.15542395 0.08188584 -0.030799855 -0.036065727 -0.003434892 0.076845266 -0.016992986 -0.033116616
-0.010585055 0.030352866 0.16588435 -0.011553059 -0.012351853 -0.064660944 -0.04354576 0.16230252
-0.12917604 0.047911905 0.013459569 -0.06380985 -0.22953711 0.02904356 -0.025339415 0.0076416633
0.03976934 0.044251725 -0.014281321 -0.0016540166 -0.017323745 0.0689079 -0.011609139 0.037968542
0.020291796 0.022421226 -0.119841546 -0.045889955 0.048119094 0.019874878 0.014462953 0.05055131
-0.049752254 0.042703904 -0.031797793 -0.004362737 0.0038492344 0.11099793 -0.01935023 0.05546314
-0.06790287 0.03836157 -0.0056654844 0.019929769 -0.031587154 -0.008958839 -0.027410235 -0.022872481
-0.033025417 -0.004723662 0.011330909 -0.007540154 0.06811159 -0.038584467 -0.005963061 -0.043030713
-0.009955123 0.07452734 0.05597802 -0.03988679 -0.08764389 0.04857378 -0.2701856 0.00027237384
-0.017490836 -0.032176897 -0.07157166 0.060558945 0.049303472 -0.012680634 0.061787456 -0.021063777
0.1433437 -0.12733544 -0.04579123 -0.02911238 -0.031943128 0.046220593 0.023512471 0.0034438255
0.04703343 0.025991865 -0.045889273 -0.025318524 -0.00052132533 0.025911918 0.042517275 -0.014119706

linear.bias f4 [32]
00000000: 4509 973e 299d 70be e2c5 6fbe e963 d2bc
00000010: 2aa4 75bc a475 c23d 20a3 52be 9cf4 b03d
00000020: 83c9 303c ad3c 32bd f0cf 55bb 751f 7bbe
00000030: ec01 04bd 059b 363e 06c0 53be 0111 983d
00000040: 63d7 94bd 25c9 4c3e f591 453d b66c 8bbe
00000050: 899e 2c3d 8d5e 99bc 9b0d 813c ab63 ccbc
00000060: 7c22 8bbd 3cca 303d 3432 d43c 9af8 713e
00000070: 5ea9 e13c 5323 123d 91e1 83be 8b5a 243b
0.2949926 -0.23497452 -0.2341533 -0.025682406 -0.014992753 0.094950944 -0.2057004 0.086404055
0.010790232 -0.043514896 -0.003262516 -0.24523719 -0.032228395 0.17832573 -0.2067872 0.07425118
-0.07267644 0.19998606 0.0482349 -0.27231377 0.04214338 -0.018721843 0.015753558 -0.02494987
-0.06793687 0.043161616 0.025902845 0.2362999 0.02754658 0.03567822 -0.2575803 0.0025078382

critic_linear.weight f4 [1, 32]
00000000: 9fe8 0d3e 42cf 0dbe 8058 29be 5a41 19bb
00000010: 9ae3 32bb 1633 cb3b 1a07 45bd fe59 753b
00000020: 428c fa3a 8e2f 50b9 3c33 5c39 02dd a2bd
00000030: c637 c03a 1dbc 323d dff0 d2bd 7638 17ba
00000040: 7169 eabb d2bb ba3d e69d 893a f6a2 26be
00000050: 3edf 2abb 06df 36bb abe9 833b 87fd 82b9
00000060: 38fb b6b9 ced0 363b 1024 9f3a 2f81 d83d
00000070: 92ad 8d3a f64f 9b3b 49c3 aebd cf89 bf3a
0.13858269 -0.13848594 -0.16537666 -0.00233849 -0.0027296306 0.0062011583 -0.048102476 0.0037437673
0.0019115286 -0.00019854141 0.00020999921 -0.0795231 0.0014665059 0.04363643 -0.10299849 -0.0005768606
-0.007153683 0.09117855 0.0010499328 -0.16273102 -0.0026073004 -0.0027903928 0.004025658 -0.00024984425
-0.00034900918 0.0027895453 0.0012141485 0.10571515 0.0010809174 0.0047397567 -0.085333414 0.0014613214

actor_linear.weight f4 [6, 32]
00000000: f8ce c43d 7489 8dbc d479 65be 8262 293d
00000010: 505f a13c a686 ed3d 417b bcbd 06ef 443d
00000020: 7b2b 463c 782b 08bd f062 b53c 07fb 83bd
00000030: b49b 093d 0826 793e cb9d 52be df67 ed3d
00000040: 3881 f0bd dc2f 5b3c 46c0 ab3d dc7b 5fbe
00000050: 8f1b ab3c 2ff4 12bd 911b 093c 2f36 033e
00000060: 2767 d13c e4ce d53d 4911 043e 4cb4 ae3c
00000070: 94a5 293d de55 57bb e5f3 22bd a626 adbc
00000080: 894b f83d a4cf eabd 0486 bcbd 9c8d e03c
00000090: bc22 1d3c e2c0 563d f4a6 ebbc 763a ae3c
000000a0: e735 f6bb b6a6 7cba bd6a 873c e755 7a3b
000000b0: 4ab7 35bc c46d 613e 67e2 7fbe 99de f83d
000000c0: 7a8f d5bd 01c6 033d 024b 1c3d 0456 25be
000000d0: db79 0f3d 7344 6d3c 642e f53b dd90 aa3d
000000e0: 7f91 933b f1d4 ab3d b14e 023e 2ef6 4a3e
000000f0: 153e 953b a6fb 09bd 0880 19be adc8 d7bc
00000100: 5fd7 9e3d f360 cdbd 2839 8cbe b269 183c
00000110: bce9 36bd ecbf 9c3d 00d8 eabd 1c15 ab3d
00000120: 932f 77bd 8a79 de3c f600 aa3c bba4 50bd
00000130: 5ae5 c5bc 2d5b d63d 2293 3dbd c6e3 c73d
00000140: b823 e0bd 4ea7 fe3d b2c6 3c3d b429 18be
00000150: 0223 9e3c cc13 c6bb 28aa a33c 9625 42bd
00000160: 28b6 15bd 4ccb a23d 7621 b8bd 2a86 d3bd
00000170: 8f99 ba3b db2e 0bbc e310 9fbd 3bf4 a3bc
00000180: 1259 003e 60b7 88bd 7268 45be a35a 1c3d
00000190: 7b65 46bc 80ab ee3d 1fde 933d 58a1 513d
000001a0: b947 c23c d5b9 f4bc 55cd 133c a7e6 81bd
000001b0: 5d19 e03d b257 393e 2859 9dbd a2e1 e73d
000001c0: 3c28 ebbd 0595 773d 7211 9c3d d5fc 9cbd
000001d0: e525 363c 2f25 97bc 0e83 afbb 9f6b 1e3e
000001e0: ed9f c63d 085d e63d 82a0 173e 8397 3a3e
000001f0: f9e1 cb3c fea8 22bc 6cd3 74bd 4bf4 ad3a
00000200: e216 243e eab4 bfbd 8a9f 87be b987 3c3d
00000210: 22e8 22bd 5d03 083e 04e3 20be 6b07 db3d
00000220: 6fb8 50bd 749a 2ebd 8cc7 183c 016a 36be
00000230: c15e 99bd dcba 073d dce4 2abe cf7a ed3d
00000240: 97c5 54be f94e ae3c d780 953d 5d53 2bbe
00000250: f0e5 ec3c e6e7 2cbd d69f 6738 aace cebc
00000260: 7717 d1bd 916e fb3b e9d6 d23b 9f8e 18bd
00000270: 6a37 9d3c b79a 07bd 6b87 eebd f5c7 01bd
00000280: 2705 523e 281a 6fbd 6618 20bd 9345 b139
00000290: 77de c9bc 60e1 d53d 7361 8239 a618 a83d
000002a0: 5303 823c f98b f6bc 5b16 90bc 4a34 e5bd
000002b0: 2dc6 2d3d 2a40 103e d9f7 0fbd 3add 123e
000002c0: 403a 62be 0a41 0e3e 1e3c 2c3d 2d46 34be
000002d0: 91c9 b83c 692c 19bd 2b1a 3739 fb0c 253e
000002e0: 0316 233d 7922 9f3d 999e 703e 6fc2 8b3e
000002f0: 59c4 bc3c 8b1c c83b 367f b2bd 1604 853c
0.09609789 -0.017277457 -0.22409755 0.04135371 0.019698769 0.11597948 -0.09203196 0.048079513
0.0120953275 -0.03324458 0.022141904 -0.06444364 0.033595756 0.24330914 -0.20568006 0.115920775
-0.117433965 0.01337811 0.083862826 -0.21824592 0.020887164 -0.035877403 0.008368389 0.12813638
0.025561882 0.10439852 0.12897219 0.021326207 0.041417673 -0.0032857577 -0.039783377 -0.021136593
0.12123782 -0.114653856 -0.09205249 0.027411275 0.009590801 0.05243004 -0.028766133 0.02126811
-0.00751375 -0.0009637879 0.016530389 0.0038198174 -0.011091063 0.22014529 -0.2498871 0.12151832
-0.104277566 0.032171253 0.03815747 -0.16146094 0.03502832 0.014481652 0.007482337 0.08328412
0.0045034285 0.08390225 0.12725331 0.19820473 0.00455452 -0.033687256 -0.14990246 -0.026340807
0.077559225 -0.10028257 -0.27387357 0.0093025435 -0.0446565 0.07653794 -0.1146698 0.08353636
-0.060348105 0.027157564 0.020752411 -0.05093835 -0.024157215 0.10466609 -0.046282895 0.09760241
-0.10944313 0.124342546 0.046087928 -0.14859658 0.019303802 -0.0060448404 0.019978598 -0.047399126
-0.03655067 0.07948932 -0.08990757 -0.10328324 0.005694575 -0.008495058 -0.07766893 -0.02001392
0.12533978 -0.06675601 -0.19278124 0.038172375 -0.012109156 0.11653805 0.072201006 0.05117926
0.02371584 -0.029873768 0.009021123 -0.063428216 0.10942338 0.1809986 -0.07683021 0.11322333
-0.114822835 0.06044485 0.07620515 -0.076654114 0.011117433 -0.018450348 -0.005356199 0.15470742
0.09698472 0.11248213 0.14807323 0.1822186 0.024888026 -0.009927986 -0.05977194 0.0013271658
0.16024354 -0.093606785 -0.26488906 0.046027873 -0.03977216 0.13282533 -0.157116 0.10694774
-0.05095714 -0.042627767 0.009324919 -0.17813875 -0.07488776 0.033137187 -0.16688865 0.115956895
-0.207785 0.021277891 0.07299965 -0.1673102 0.028918236 -0.042213343 5.522355e-05 -0.02524503
-0.10209554 0.0076730927 0.0064343107 -0.03724539 0.019191463 -0.033106532 -0.11646923 -0.031684835
0.20509778 -0.058374554 -0.03908577 0.00033811908 -0.024642212 0.104433775 0.00024868138 0.08207826
0.015870726 -0.030096041 -0.017588785 -0.11191614 0.042425323 0.14086977 -0.035148475 0.14342204
-0.22092533 0.13891998 0.04204952 -0.17604895 0.022557052 -0.03739587 0.00017461988 0.16118233
0.039815914 0.07770247 0.23498 0.2729678 0.023042845 0.006106918 -0.0871567 0.0162373

actor_linear.bias f4 [6]
00000000: a7bd 71bd ff9e a43d 46c2 4d3e f554 b33d
00000010: e64c 363d b4d7 063e
-0.059018757 0.080381386 0.2009364 0.08756439 0.04450693 0.13168222
