spaceinvaders-v0-bottom-7fskip_latent32/model.108.tar (torch, 223035 bytes, 13 tensors)

conv1.weight f4 [32, 4, 3, 3]
000000 71 0f e2 3c 11 8d 25 3d 85 86 d5 bb 16 bd 0e be
       0.027595254 0.040417735 -0.00651628 -0.13939318
000010 7f 76 06 bf 77 d0 be 3d d0 53 2e 3e 20 37 16 3e
       -0.5252456 0.09317105 0.1702416 0.14669466
000020 c6 63 5c 3d 39 2b c3 bb 49 b5 22 3e 5c 5d 90 ba
       0.05380609 -0.0059560803 0.15889467 -0.0011014151
000030 e2 ce 59 bc ca 2f 7a bb f4 52 93 bd e9 05 01 3e
       -0.013293954 -0.0038175457 -0.071935564 0.12599911
000040 2a 8f f5 3d ac cb 37 bb 3c b1 74 3d b8 76 5c 3e
       0.11990197 -0.0028044982 0.059739336 0.21529663
000050 47 bf 66 bd e6 df a6 bd 61 f4 f2 bd 69 46 2b be
       -0.05633476 -0.08148174 -0.11863018 -0.16726078
000060 8c 5f 27 3e 56 68 89 bc a2 bf 50 3e 16 1e 39 3d
       0.16345042 -0.016773384 0.20385602 0.045194708
000070 74 ac f3 be 06 d7 91 3c 2a 36 03 3e 53 9d 13 3f
       -0.4759251 0.017802726 0.1281363 0.5766193
000080 46 00 77 3e a5 3e e8 be 87 a6 17 be 3c e6 a0 be
       0.24121198 -0.45360294 -0.14809619 -0.31425655
000090 80 2d 00 bd 3f 28 29 bd af 6c 55 3e 33 6d f9 bd
       -0.031293392 -0.041298147 0.20842241 -0.12179031
0000a0 8d 50 06 3e 22 a5 16 3e e7 b0 41 3e 15 17 f6 bd
       0.13116665 0.1471143 0.18915139 -0.12016121
0000b0 30 ba 4b be 40 7a 92 3d c8 c5 77 bd d5 24 98 bc
       -0.19895244 0.071522236 -0.060491353 -0.01857225
0000c0 b5 84 aa bc 2b 8c cd 3c 40 b8 95 bd 01 a3 1c bd
       -0.020815233 0.025091251 -0.073105335 -0.03824139
0000d0 5b 2b 31 3c eb ba 9e bb 04 3f d6 bd 8e 03 8a 3e
       0.010813559 -0.0048440597 -0.10461238 0.26955837
0000e0 14 c8 cf bd 90 f3 18 be 84 e8 06 3e cb 18 4c 3d
       -0.10145584 -0.14936662 0.13174635 0.049828332
0000f0 7c 65 96 3d dd a5 96 bc 4c c1 90 3d 65 21 d4 3e
       0.07343575 -0.018389637 0.070681185 0.41431728
000100 63 a3 c5 be 26 9d 00 be 9f 47 85 3d 87 6b 9a be
       -0.38601217 -0.12559947 0.06507801 -0.30160162
000110 ad 67 47 bd e4 74 9e be 72 be d4 3e 57 83 da bd
       -0.048682857 -0.30948555 0.41551548 -0.10669582
000120 79 13 15 3e f1 30 14 be 8b 24 80 3e 05 81 e3 ba
       0.1455821 -0.14471795 0.2502788 -0.0017357176
000130 17 6c a2 3d 45 a3 38 3e 1d 27 9f be 49 d6 5a 3d
       0.07930773 0.18031032 -0.3108453 0.053427014
000140 e1 7c d6 bd 75 2b 52 be 24 c7 a6 3c e0 31 cf bc
       -0.104730375 -0.2052439 0.02035863 -0.025292337
000150 97 5d 7c 3d c2 08 30 be 09 4f 23 be 8f 11 73 3d
       0.06161269 -0.17190841 -0.15948118 0.059342917
000160 1e 19 8c bd 15 2e 7f 3e 9d 98 a3 3d 38 48 e3 bd
       -0.06840728 0.24919923 0.07988093 -0.11097759
000170 96 03 7c 3e 84 bf 0b 3e dc 24 e8 bd 46 c2 15 3d
       0.24610743 0.13647276 -0.11335155 0.036562227
000180 8d f4 06 3e 6e 92 b5 3c 7b c5 bc bd 3d 08 af bd
       0.13179226 0.02216455 -0.09217354 -0.08546493
000190 45 3c 42 3e d1 df 1d be 19 2d e6 3d 5f 63 20 be
       0.18968304 -0.1541741 0.112390704 -0.15662907
0001a0 c0 7f 98 be 31 41 ae bd 3a b7 85 3e d4 8c 5a 3d
       -0.29784966 -0.08508528 0.26116353 0.05335696
0001b0 f3 34 94 3e c6 ed 07 3e 16 c1 68 3d 87 c0 25 3e
       0.28946647 0.13274297 0.056824766 0.16186725
0001c0 2e 3f 59 3e 69 de 45 3c b2 ed 1a 3e 21 c1 fc 3e
       0.21215507 0.0120769525 0.15129736 0.49366096
0001d0 5e 9b df 3d f4 4b 01 3e 7c 4c 76 be da 13 f6 bd
       0.10918306 0.1262663 -0.24052614 -0.12015505
0001e0 78 77 fe bd f0 91 b3 bd 9f d2 f8 3d 6e 50 ff bb
       -0.124251306 -0.0876807 0.12149548 -0.0077915704
0001f0 3c ca 0d 3e dd 92 29 be fb 4c da bc a4 a0 16 be
       0.13846678 -0.1655993 -0.026648035 -0.14709717
000200 d9 fa c6 3d 90 21 e0 3d 77 52 87 be 37 60 39 3d
       0.09715814 0.109439015 -0.26430103 0.045257773
000210 9c 6d 50 3e 1a 0c 3a 3e 72 dc 25 3e ce fe 33 3e
       0.20354313 0.18168679 0.16197374 0.17577669
000220 f2 d7 91 3c f4 0f 13 3e e0 e6 99 be e6 50 58 bf
       0.017803166 0.14361554 -0.30058956 -0.8449844
000230 1c 9e 81 be 93 9d 8a bd 81 12 65 be 45 05 eb 3b
       -0.2531594 -0.06768336 -0.2237034 0.007172259
000240 58 ad 12 be 06 e4 03 be 34 de 69 3e 1a 7e 18 3e
       -0.14323938 -0.12879953 0.2283867 0.14891854
000250 8f fd b1 3d 16 14 e2 3d 66 a3 fd bc 36 4f e1 3e
       0.086909406 0.11038987 -0.030961704 0.44005746
000260 c2 e0 12 be 06 d9 84 bd 0a b7 35 be 83 0e 29 be
       -0.14343551 -0.064867064 -0.17745605 -0.16509442
000270 c0 6d 03 be e0 03 0f be 7b f5 b5 3c 6a a9 ca bd
       -0.12834835 -0.13966322 0.02221178 -0.098955944
000280 42 c5 7b bb 0c e0 05 3c 18 6d f0 bc a6 bf b6 3d
       -0.0038417135 0.008171093 -0.029348895 0.08923273
000290 55 1c 88 bc ca 8b 91 bd 9b 9b 90 be da 3c 31 be
       -0.016615072 -0.07106741 -0.28243718 -0.1730837
0002a0 d6 8e 0f be 51 1a 59 be 31 65 5b be 99 1f 8a 3e
       -0.14019331 -0.21201445 -0.2142532 0.26977232
0002b0 c9 1e ca 3a bc 59 12 be 78 30 1f 3e 59 71 ca 3e
       0.0015420552 -0.14292043 0.15545833 0.39539602
0002c0 38 37 96 3e 50 59 29 bc 53 36 e5 bd c1 4d b5 3e
       0.29339004 -0.010336235 -0.11192002 0.35410884
0002d0 fb d5 27 be 0d 41 59 be 4c 43 47 be 99 53 8d be
       -0.16390221 -0.21216221 -0.19459265 -0.27602842
0002e0 76 43 01 bf 19 49 e2 bd 2a eb a6 be 7a a4 e9 be
       -0.5049356 -0.110490985 -0.3260129 -0.45633298
0002f0 59 10 4b be 03 0a 27 bd 01 40 e7 3a 7c 60 91 bd
       -0.19830455 -0.040781032 0.0017642976 -0.07098481
000300 8f 96 58 be 8a 5a e5 bd a3 ca 3e bd 83 cb 2e be
       -0.21151184 -0.111989096 -0.04657997 -0.17069821
000310 04 d9 4b 3c f9 89 49 3d 6f eb 73 3e c4 fe 17 bb
       0.012441877 0.049203847 0.2382028 -0.0023192624
000320 d8 28 d8 3d c9 95 29 be a1 4f 30 3e bb e7 0d be
       0.10554665 -0.16561045 0.17217876 -0.1385793
000330 20 22 d0 3d f6 a6 d3 3d 86 0b af bd 3e 8a a0 3e
       0.10162759 0.1033458 -0.0854712 0.3135547
000340 c0 10 ea 3e 3a 2e d2 3e a7 aa 2c 3d c6 26 7e 3e
       0.45715904 0.41050893 0.042154934 0.24819478
000350 0c eb e2 bd 64 d3 b7 3e dd 8a e7 3e d4 2a aa 3e
       -0.11079988 0.35903466 0.45223132 0.332358
000360 60 c3 b1 3e d0 2b f4 bd 3c 6a 9f 3c 6b f0 a9 3e
       0.34719372 -0.11922419 0.019459836 0.33191237
000370 7c e1 70 3d 96 a9 a6 3e bb 7d bd be 3f 19 df be
       0.05880879 0.3255126 -0.37009987 -0.4357395
000380 54 7e ac bc c3 88 da bc 61 00 12 3c b5 67 97 3e
       -0.021056332 -0.026676541 0.008911223 0.2957131
000390 cc 43 2b 3e 62 66 91 3d 57 58 5e 3d 0c a3 3f be
       0.16725081 0.07099606 0.054283466 -0.18714541
0003a0 15 f1 e3 3b c0 30 de bd e7 67 aa 3c b7 26 e1 bd
       0.0069562295 -0.10849142 0.020801498 -0.109937124
0003b0 11 ce 95 3d 1c ce 11 3e 20 34 81 3d e3 52 6a bd
       0.07314695 0.1423878 0.0630877 -0.057207953
0003c0 dd 2d 09 be 0e 72 84 3d 6c 95 94 3d ac 68 c9 bd
       -0.13396402 0.06467067 0.072550625 -0.09834418
0003d0 91 42 cd be 9c 1a 3f bd 91 e1 85 be 21 12 e6 be
       -0.4008985 -0.046656236 -0.26148656 -0.44935706
0003e0 44 69 24 be e4 35 8c 3e 1a 43 da 3e dc 54 a3 3d
       -0.1605578 0.27384865 0.4262932 0.0797517
0003f0 52 bf dd ba f3 df 7c bd 52 e9 df bd 2c c7 d6 be
       -0.001691798 -0.061737012 -0.10933174 -0.4194883

conv1.bias f4 [32]
000000 d3 f5 0a bb 7f 83 9f 3b 62 8f 97 3a 03 d4 35 bb
       -0.0021203652 0.0048679705 0.0011563117 -0.0027744777
000010 65 a8 6b ba 6c 28 1e ba f0 0e 7c bb b7 69 9d ba
       -0.00089896313 -0.0006033245 -0.0038461052 -0.0012009655
000020 2a 48 28 3b 8a e7 e4 bb cd 6c c4 3a df 8b 2c 3b
       0.0025677779 -0.0069856094 0.0014986038 0.0026328487
000030 7a 32 8d 3a 95 2b d6 3b a0 6f 47 3a c8 18 9e 3d
       0.001077249 0.006535957 0.0007607881 0.077195704
000040 9c 96 04 bc 42 6c c8 bb c8 d2 60 3d 2b e8 30 b9
       -0.008092549 -0.006116421 0.054888517 -0.00016871157
000050 95 6e 0b 3b be 16 e9 b9 e0 2b a8 3b 27 5f 78 3b
       0.0021275629 -0.00044458167 0.0051321834 0.0037898512
000060 0f 30 01 3c b4 d6 62 3a 2d 23 e6 bb 90 4f 16 bc
       0.007884993 0.0008653209 -0.0070232362 -0.009174243
000070 6f 4d 0a 3b 12 ca 07 bc 76 36 83 3b 3c d1 2d bb
       0.0021103283 -0.008287923 0.004004295 -0.0026522418

conv2.weight f4 [32, 32, 3, 3]
000000 5d 96 a2 be 92 34 6c be 15 08 81 3e 99 37 0e 3e
       -0.31755343 -0.23066929 0.2520148 0.13888396
000010 aa 3e 80 3e d6 95 36 be cd aa cd bd 2e e2 61 bd
       0.2504781 -0.17830595 -0.10042343 -0.055147342
000020 d9 7c 0c 3c 58 04 65 bd 20 1e 84 be 5e de da 3d
       0.008574688 -0.055912346 -0.25804234 0.106869444
000030 9d 2f 2e 3e 95 0c e1 3c 72 ce bb 3d 6f 75 33 3e
       0.1701035 0.02747182 0.09170236 0.17525266
000040 f8 94 4a be 54 50 42 3e 38 c2 3b bb 16 d9 70 bd
       -0.1978339 0.18975955 -0.00286497 -0.05880078
000050 11 b6 68 be 14 67 35 be 09 15 ed 3b 2e 6b e4 3c
       -0.22725703 -0.17715102 0.0072351736 0.027883139
000060 db ac bc 3c 32 4f 11 3e 19 9a 6e bb 86 b6 47 be
       0.023031643 0.14190367 -0.0036407767 -0.19503221
000070 9d 6c 4a be 95 3c 18 be 20 2d 37 be de 0b e4 be
       -0.19767995 -0.1486686 -0.17888308 -0.44540304
000080 1f 4b 4c 3e 25 f6 53 bd 49 00 10 3e 54 7b 97 3e
       0.19950531 -0.051748414 0.14062609 0.2958628
000090 d4 46 30 3e c4 d0 6b 3d 7d d9 34 3d 3c c6 d4 3d
       0.17214519 0.05757214 0.044152725 0.10389373
0000a0 0a f7 50 3e 84 90 3e be fc 2d 05 bd 00 1e 13 be
       0.20406738 -0.18609816 -0.032514557 -0.14366913
0000b0 85 d2 05 3e 07 07 17 3e 54 96 ba bd e6 6b a2 be
       0.13068588 0.14748774 -0.09110704 -0.31722945
0000c0 e4 d5 97 3d 1d 01 8f bb 92 a1 7c bd 39 fe 00 3e
       0.07413843 -0.0043641464 -0.061677523 0.12596978
0000d0 f0 a8 71 3e 32 93 20 3e 4a 5c 8e 3e 05 7b fb 3d
       0.23599601 0.1568115 0.27804786 0.122793235
0000e0 f9 71 a6 be bf 37 69 bd 39 6e 06 3d 45 b1 bb bb
       -0.3250883 -0.05693793 0.03281996 -0.0057279193
0000f0 68 48 ed bc 02 f7 01 3d dc 90 98 be 6c 27 3d be
       -0.02896519 0.031729706 -0.2979802 -0.1847207
000100 70 1f 9a 3c 26 ab 77 3d 3b b7 88 3e 48 76 ed 3d
       0.018813819 0.060465954 0.26702294 0.11594826
000110 67 c5 9e bd 9f 91 eb bc 25 5d a0 3c f2 0a e1 3d
       -0.07752495 -0.028755961 0.019575665 0.10988416
000120 75 3b 65 bd 0f b2 14 3e fe e1 9a 3e e5 da 59 bc
       -0.055964906 0.14521049 0.30250543 -0.013296817
000130 9a 44 01 3e fe ab c0 3c 5a ae 2c be 66 c4 63 be
       0.12623826 0.023519512 -0.16863385 -0.22242889
000140 2e 04 0f be c6 d2 29 3e ef 13 0e be 58 80 87 3d
       -0.13966438 0.1658431 -0.13874792 0.066162765
000150 9f 11 c3 3c bf 28 b5 3d 4e a4 2c be c6 d9 54 3d
       0.023812113 0.08845662 -0.16859552 0.051965497
000160 3d ff 89 3e 0b b9 96 3c 09 82 49 3c c9 54 a1 3b
       0.26952544 0.018398782 0.012299069 0.0049234373
000170 f6 70 88 bd c8 d3 2c 3e be 92 e2 3e f2 19 c3 be
       -0.066621706 0.16877663 0.4425258 -0.38105732
000180 04 c7 f4 3d 7c 2d 84 bc d1 1a b2 bd ef 8b 2f 3e
       0.11952022 -0.01613497 -0.08696521 0.17143224
000190 cf d0 88 3d 94 44 2c 3d b1 bd 91 3e 89 25 be 3c
       0.06680452 0.04205759 0.28465036 0.023211258
0001a0 03 d9 a4 bd a9 1d db bd e2 4e 97 bd dc a0 08 be
       -0.08049204 -0.106990166 -0.073880926 -0.13342613
0001b0 17 15 b7 bd ba 8b a0 bd c9 d0 68 3d 21 14 d9 3e
       -0.089395694 -0.07839151 0.056839738 0.4239817
0001c0 f1 0f 49 3e 3d e0 25 be 30 84 8a bd cf df 9f be
       0.19634987 -0.16198821 -0.06763494 -0.3122544
0001d0 0f 17 02 be ac c5 00 be a5 7f 02 3e ee e8 18 3f
       -0.12704109 -0.12575406 0.12744005 0.5973042
0001e0 b8 c2 60 3e 48 c9 4d 3d 6a d8 bc 3d 36 e9 13 3c
       0.2194928 0.050240785 0.09220965 0.00902777
0001f0 31 e5 e8 be 31 77 b1 bc b5 0b 28 3e 2b 2f c0 3d
       -0.4548736 -0.02166328 0.16410716 0.093839966
000200 7a bc a2 bb 85 26 61 3e 55 db 86 bd ce 6d 41 3d
       -0.004966316 0.2198735 -0.06584803 0.04722386
000210 6c 70 22 bd 33 51 30 be b9 5f c8 bc 9e e8 d6 bd
       -0.039657995 -0.17218475 -0.024459707 -0.10493587
000220 d5 67 80 bd 2a 56 cb bd 43 64 db 3b cc 6e 2d 3e
       -0.062698044 -0.09928544 0.0066953017 0.16936797
000230 fe dc a8 3e cd 3b c4 bd 6d bf b3 bd dc c6 82 bd
       0.32981104 -0.095817186 -0.08776746 -0.06385586
000240 cb b3 73 be c3 49 27 be ce 74 2a be e7 b3 04 3e
       -0.23799054 -0.16336732 -0.1664612 0.12959252
000250 e8 2d 5e bc 0f d2 15 be 7c 9f 3b 3d 86 fb b9 bc
       -0.01356075 -0.14630912 0.045806393 -0.022702944
000260 a3 6a 0a 3e 7a a0 f1 bc af a7 63 bd 2b cd ee bd
       0.13517241 -0.029495467 -0.055579837 -0.116602264
000270 16 8d cf be ae 27 07 3e 5d 9d e1 bd 7b 78 38 3e
       -0.40537328 0.1319873 -0.11016343 0.1801471
000280 5a e1 ec bc d3 22 39 bc 98 17 90 bd 5c c2 8b bd
       -0.02891605 -0.011299807 -0.0703575 -0.068241805
000290 0e f8 44 bd 0d b6 2c 3d 94 6a 04 3e e0 77 7f 3e
       -0.048088126 0.042165805 0.12931281 0.24948072
0002a0 a6 9b 04 be 3f 62 04 be cf e1 69 bd 99 b0 22 3e
       -0.1295 -0.12928103 -0.057100113 0.15887679
0002b0 bb 1a 85 ba 92 42 a5 bd 5e a7 df 3d d6 52 3e 3d
       -0.0010155061 -0.08069338 0.10920595 0.046465717
0002c0 5f ea 83 3d 38 61 4b be bc ba ad bd 23 99 b1 bd
       0.06441187 -0.19861305 -0.084828824 -0.08671787
0002d0 09 70 da 3c 13 83 c2 bd 0c 3c 90 3d 62 96 be bd
       0.02666475 -0.09497657 0.07042703 -0.09306027
0002e0 1e 02 ff 3d 81 b4 17 be b2 8f b8 bd b1 6e 84 3d
       0.12451576 -0.1481495 -0.09011783 0.06466425
0002f0 4f 72 18 bd bf 94 3f 3e ba 09 51 be c9 ab 3f 3c
       -0.03721839 0.18709086 -0.20413867 0.011698672
000300 98 f6 b3 bd 4d f4 e0 bd 63 e2 66 3d 72 b2 aa 3c
       -0.087872684 -0.10984097 0.056368243 0.020837042
000310 9e 61 99 bd 87 d6 12 3d 61 29 c0 bd 62 e8 1b 3e
       -0.07489322 0.03584912 -0.093828924 0.15225366
000320 0e 66 43 bd 42 c2 b5 3e 39 2e 1f 3e 12 3a ac bd
       -0.04770475 0.3549977 0.15544976 -0.084095135
000330 9c 6b 19 be cd 5c aa bd 65 2e 49 bc 4b 02 3f be
       -0.14982456 -0.083184816 -0.012279128 -0.18653218
000340 ae 96 d6 bd fe ac a2 3e 22 e2 b5 be 4e 58 82 bd
       -0.104779586 0.31772608 -0.35524088 -0.06364499
000350 e3 9d 08 bd 38 b0 87 3d e2 2b 0e 3e ac e6 34 bd
       -0.033353698 0.06625408 0.13883927 -0.0441653
000360 44 37 bd 3d 5a 76 7e 3d 0d 30 20 3e 1f dd 91 bc
       0.09239057 0.062124588 0.1564333 -0.017805634
000370 46 ea b6 bd 39 96 41 bd a1 23 86 3d 54 10 ba be
       -0.08931403 -0.047262404 0.065497644 -0.36340582
000380 d5 11 14 be 62 1b 9b 3e f5 5e 59 3c 2e 57 08 bc
       -0.14459927 0.3029433 0.013267268 -0.0083215665
000390 a2 b0 70 3e 56 fd 88 3d b6 dc 39 be f9 05 19 be
       0.2350488 0.06688945 -0.18150601 -0.14943685
0003a0 e8 55 f5 3d 97 29 2f 3d 31 a7 aa 3d 83 b4 01 bc
       0.11979276 0.042764273 0.083326705 -0.0079165725
0003b0 14 bb 0f be e6 19 c9 3d 25 df 74 3d 8f 6e 5d be
       -0.14036208 0.09819393 0.05978312 -0.21624206
0003c0 eb 1c 07 be e1 f0 8c 3e 0e 90 04 bd 87 43 cd 3b
       -0.13194625 0.27527526 -0.032363944 0.0062641534
0003d0 bc 55 47 be 1a 4a 74 bd 7e 10 f6 bd 0c 02 57 be
       -0.19466299 -0.05964098 -0.120148644 -0.20996875
0003e0 32 c1 f4 3d cc f7 8a 3c fd dc 2e 3e 8e 2a 70 3e
       0.119509116 0.016963862 0.17076488 0.23453733
0003f0 2b c1 bd 3e f7 f4 81 3e 97 5b 9a be 4e ca b4 be
       0.37061438 0.25382206 -0.30148003 -0.35310596

conv2.bias f4 [32]
000000 5b 2a 17 bc a9 d4 f4 bb 43 35 33 3b 4e 02 06 bb
       -0.009226407 -0.00747164 0.002734498 -0.002044815
000010 2c 99 2c bd 94 88 29 3b d0 d3 38 bc 08 11 60 ba
       -0.042138264 0.002586876 -0.011280969 -0.000854746
000020 92 4a 35 bc fc 83 43 bc fe 84 c4 bc 0c 6e 32 bd
       -0.011065142 -0.011933323 -0.023989197 -0.04356198
000030 ba c7 d0 3c 9c 91 71 bc 7a bb 03 bd b7 7a 20 bc
       0.025485862 -0.014744189 -0.032161213 -0.0097948825
000040 4c e4 a3 ba a5 15 4e 3c 22 8d 2a 3c a5 17 1e 3b
       -0.0012503951 0.012578403 0.010409625 0.002412298
000050 ca 2f 23 bc 02 96 96 bc 43 20 c3 bb 93 2d 70 3c
       -0.009960124 -0.018382076 -0.0059547736 0.014659303
000060 5f dc e9 b8 24 e0 af bc a6 16 12 bc c2 1a e0 bc
       -0.00011151353 -0.021469183 -0.008916533 -0.02735651
000070 58 dd 51 3c 67 55 24 bc c9 4a 41 bc 3c c1 ab ba
       0.01280912 -0.010030127 -0.011797615 -0.0013103853

conv3.weight f4 [32, 32, 3, 3]
000000 79 84 2d be f6 f9 d0 bc e8 93 38 be 47 bb 41 3d
       -0.16945066 -0.025509816 -0.18025172 0.047297742
000010 4b 25 08 3e 04 d4 33 3e 20 be 50 3d 9e e0 05 be
       0.13295476 0.17561346 0.050962567 -0.13073966
000020 07 ba b1 bb 63 0c 0a 3e e8 02 01 3c bd b1 9f 3d
       -0.0054237875 0.13481288 0.007874228 0.07797573
000030 61 13 4b be 6e ab 10 be 56 8d 14 3e 40 5d 00 3e
       -0.19831611 -0.14127895 0.1450704 0.12535572
000040 aa ad a1 bd 7f 13 51 be 61 87 e8 bc dd c7 31 3c
       -0.07894452 -0.20417593 -0.028384866 0.010850874
000050 28 53 e8 3d 12 22 0f 3e b6 96 d7 3d c8 33 f9 bd
       0.11343986 0.1397784 0.10526793 -0.121680796
000060 57 86 a4 3c 2c e9 3e bd a8 30 f1 38 4a 51 ae bd
       0.02008359 -0.04660909 0.000115008384 -0.085115984
000070 a9 ab 11 be 6a a4 c7 be 77 c7 8d bb 1c 5b 10 be
       -0.1422564 -0.38992625 -0.0043267566 -0.14097255
000080 39 0b 81 be e7 ae b2 3e af 24 15 3d 52 cb b8 be
       -0.25203875 0.34899065 0.036411937 -0.3609262
000090 6f d5 32 3e 97 04 6a bd 62 1e 91 be 04 25 95 3d
       0.17464231 -0.057133283 -0.28343493 0.07282451
0000a0 7f 68 5c be 21 cc bd bd a2 fe 56 3e 7d 32 c2 bd
       -0.21524237 -0.0926745 0.20995572 -0.09482286
0000b0 88 d3 d5 bb d4 68 f7 bd 8c d7 12 3d 79 30 3b 3d
       -0.0065254606 -0.12080541 0.035850093 0.045700524
0000c0 d7 7a 4a 3e b1 f4 08 3e b5 96 32 be ee 64 20 be
       0.19773422 0.13374592 -0.17440303 -0.15663502
0000d0 90 e1 04 3c 78 d2 b9 3d ce e4 99 3d 61 38 46 3c
       0.008110419 0.09073347 0.07514344 0.012098403
0000e0 d7 1f 03 be 9a 65 e1 3d 29 c3 ea bd ac e8 e5 3c
       -0.12805115 0.11005707 -0.11463005 0.028065048
0000f0 a5 eb 0f 3d e3 a9 b3 3d c0 2f 2a 3d 3b d3 4b be
       0.035136838 0.08772638 0.041549444 -0.19904797
000100 f5 0e 2a bd 73 1e ad bd 93 0f 28 3e 45 ed e6 bd
       -0.04151817 -0.08453073 0.16412191 -0.11275724
000110 ba 3e 2e be 02 ce a5 bd 9a 5b b5 3d 72 a2 98 bd
       -0.17016116 -0.080959335 0.08855362 -0.07452859
000120 89 b7 a2 3d 5c 6e bb bd 6f d1 c7 3d 6c 64 4a 3e
       0.07945163 -0.09151909 0.09756743 0.1976487
000130 7f 3b 5a bd ac c5 15 3d b8 3e 88 bd 04 dd e7 3d
       -0.053279396 0.036565468 -0.06652588 0.11321452
000140 66 7e 28 be 96 5b 3e 3e 0b a7 22 bd 3a e7 e7 bd
       -0.16454467 0.18589625 -0.039710086 -0.113234
000150 ce b4 0c 3d 0f b3 10 be fe 5a c6 bd c8 34 66 3a
       0.034352116 -0.14130805 -0.09685324 0.0008781669
000160 6a 02 ae be 04 47 9e 3e 16 72 27 be 5f 62 89 bd
       -0.33986217 0.30913556 -0.16352114 -0.06708216
000170 c6 49 f7 bd ec 04 d9 3d cf 8e 3e 3e 6d 70 28 be
       -0.12074618 0.10596642 0.18609165 -0.16449137
000180 40 fd e7 bd 0e a8 2c be b1 5e 23 3e 50 0f 34 3e
       -0.113276005 -0.16860983 0.1595409 0.17583966
000190 a5 65 a2 3d 2c 3f 88 be 16 c4 75 3e a5 18 fd 3d
       0.079295434 -0.26610696 0.24000582 0.12358216
0001a0 14 b1 12 bd 44 32 c9 bb 0d 7d 1f 3e e7 2c fa bd
       -0.035813406 -0.0061400253 0.15575047 -0.12215596
0001b0 fe ba 0b be ca 48 29 3e eb 15 53 3d 41 ee 0c be
       -0.1364555 0.16531673 0.051534574 -0.13762762
0001c0 ed d3 43 3d 52 9f ec bc 82 03 90 3d 8e 36 15 3e
       0.04780953 -0.028884564 0.07031919 0.14571592
0001d0 bf c6 dc bd cd c8 1a bd 76 5f 7d 3d 4a 77 6d 3e
       -0.10780095 -0.037789155 0.061858617 0.23190036
0001e0 51 0c 69 bd 60 4f 8e bc 9d e9 03 bd 6c 01 28 bd
       -0.05689651 -0.017371833 -0.032205213 -0.04101698
0001f0 cd ab f6 3b 76 a3 e4 3e f0 91 19 3d b1 44 74 3e
       0.0075278045 0.4465596 0.037492692 0.23854329
000200 fd 92 bc bd 78 e9 b7 bc 79 ed 89 3d 5a 3b 16 be
       -0.09207723 -0.022450194 0.067347474 -0.14671078
000210 f4 cc a2 bd 8f 1c ee 3d 09 8a 87 3d 45 68 0b 3e
       -0.07949248 0.11626541 0.06618125 0.13613994
000220 13 02 78 bb 69 2d 93 bc 8e ec e9 bd 31 87 66 3c
       -0.0037843033 -0.01796599 -0.11422072 0.014070318
000230 7b 34 6b 3e 14 a2 cd 3d d4 81 aa bd 04 5b 96 be
       0.22969238 0.100406796 -0.08325544 -0.29366314
000240 03 fa 42 3d 19 f3 93 bd d9 47 59 3e 87 a8 79 be
       0.04760171 -0.072241016 0.21218814 -0.24380694
000250 06 c0 12 3e 3a 03 17 be 5a 46 c0 3d 60 6d 02 3e
       0.14331064 -0.14747325 0.093884185 0.12737036
000260 09 bc b9 be da 98 bf be 42 a9 32 be 67 ca 6b 3e
       -0.36276272 -0.37421304 -0.17447379 0.23026429
000270 32 b9 15 be c2 b6 92 3d a5 f9 23 3e 68 30 8f bd
       -0.14621428 0.071637645 0.160132 -0.06991655
000280 1f f3 43 bc 5a 5e 01 3d 7c 4f 21 3d 0f 38 78 bd
       -0.01195982 0.03158412 0.039382443 -0.060600337
000290 b5 e7 4c bd 1e 9d f1 3d 4f 2a 1a bd f8 1f ad bd
       -0.05002566 0.11797546 -0.037638005 -0.08453363
0002a0 c2 a6 e2 3b 24 1b cf 3d f1 9c 5c be 12 68 ce 3d
       0.0069168517 0.101125985 -0.21544243 0.100784436
0002b0 ee 1f f9 3d 29 cf 0e 3d 28 93 1b be 6d 6c 27 be
       0.12164293 0.034865532 -0.15192854 -0.16349955
0002c0 e5 41 db bd 29 15 e7 bd db 2f 1d be eb 2d d3 bc
       -0.10705928 -0.11283333 -0.15350287 -0.025778731
0002d0 8c 36 fd 3d a1 6e 5f be ee 69 29 be 2e 0e b8 bc
       0.123639196 -0.21819545 -0.16544315 -0.022467699
0002e0 91 49 d6 3e 50 ab aa bd 19 15 5b bd 92 54 ce bd
       0.41853002 -0.083334565 -0.053486917 -0.10074724
0002f0 ba 8c 52 be 8d 36 97 3d 11 17 d4 3c 99 33 1b be
       -0.20561495 0.073834516 0.025889905 -0.15156402
000300 dd 82 a0 3d b2 cf 15 be be be 0d be 8a 64 8f 3d
       0.0783746 -0.1463001 -0.13842294 0.07001598
000310 74 5c 6c 3e 15 d3 8a bd 85 05 0d 3e fa 21 83 3c
       0.23082143 -0.06778542 0.13771637 0.016007412
000320 5b d2 a4 be 26 99 21 be e2 df 87 3d 52 b7 8f 3c
       -0.32191738 -0.15781078 0.06634499 0.017543469
000330 a7 12 56 3d c4 bd 5f 3e 69 55 1c bd 1c eb 45 3e
       0.052263882 0.21849734 -0.03816739 0.19327968
000340 37 cb 10 3e 99 71 a5 be 96 25 ad 3e 08 8d d4 be
       0.1414002 -0.3231323 0.33817738 -0.41513848
000350 99 cc ad 3c 1e b9 b2 3c ed 60 c8 bd ba d0 ab bd
       0.021215724 0.021816786 -0.09784112 -0.08389421
000360 ec 5f 07 3e 3b 2b 49 3d 0c ce 8a 3e 72 53 11 be
       0.13220185 0.049113493 0.27110326 -0.14191988
000370 6e 80 9a bd 43 8d 8a 3d 62 e7 0e be ec be da 3b
       -0.07544027 0.06765225 -0.13955453 0.0066755917
000380 f9 db 8a 3e c7 cc a7 3d 89 4e 11 be cd 6c 3d 3e
       0.2712095 0.08193355 -0.14190115 0.18498535
000390 94 a2 02 bd c7 e6 43 3d 4b 09 1a 3d f2 bc 81 bc
       -0.031893328 0.04782751 0.03760652 -0.015837166
0003a0 ee 84 c1 3d bb 40 b2 bd d9 f2 9b be f8 f9 63 3e
       0.094491825 -0.087037526 -0.30458716 0.22263324
0003b0 f0 60 7b 3e 08 41 26 bd 1d cb 80 bd 08 76 35 bb
       0.24548697 -0.040589362 -0.06288741 -0.002768876
0003c0 b7 c3 5b 3d 55 20 3d bd 82 3d 2c 3d c8 a1 3e 3d
       0.053653445 -0.046173412 0.042050846 0.046541005
0003d0 cb 2e 50 3d 27 39 43 3e b2 71 34 3d b7 6c 06 be
       0.050825875 0.1906477 0.04405374 -0.13127409
0003e0 0c ed 4f be cb a5 4a 3d 45 64 88 be 1e 5c b4 3c
       -0.2030527 0.04947452 -0.26639 0.022016581
0003f0 a2 34 32 be 65 33 73 3d 80 2d 58 3e b8 97 6d be
       -0.1740289 0.059375186 0.21111107 -0.23202407

conv3.bias f4 [32]
000000 7c 11 93 bd aa d2 f6 bd e4 75 82 3b 9e 7e 88 bd
       -0.07181069 -0.120519 0.003981339 -0.06664775
000010 9c 82 67 bc 10 d6 ac be 46 7f c0 bd 23 d6 21 be
       -0.014130261 -0.33757067 -0.093992755 -0.15804343
000020 c5 eb c6 bd 7e f0 8f bc ba d0 f4 bd 4f 3d 9c bd
       -0.09712938 -0.01757073 -0.11953874 -0.07628881
000030 d2 73 8d bc 18 68 b2 bd bd a2 da bd 10 fe 40 bc
       -0.017267141 -0.087112606 -0.10675571 -0.011779323
000040 bc fc 25 bd 93 2a 2c 3c cb f9 81 be fd a4 a6 bd
       -0.04052423 0.010508197 -0.2538589 -0.08136938
000050 03 e1 03 be d7 2a 4d bc a1 ed da bd 54 fd 41 be
       -0.12878804 -0.012522421 -0.10689855 -0.18944293
000060 3e 65 ad bc 8c 39 0c be ee 06 95 3c f4 ba 12 bd
       -0.02116644 -0.13693827 0.01819178 -0.035822824
000070 c2 2f db bc 1f 3e b6 bc d3 eb 0d 3d 29 a9 0f be
       -0.026756171 -0.022246419 0.034648728 -0.14029373

conv4.weight f4 [32, 32, 3, 3]
000000 36 ad 80 3e 21 9b 8d bd 4c eb ad 3d 12 48 e1 bd
       0.2513215 -0.06914354 0.08492145 -0.110000744
000010 2e 0d 31 bd 1c 91 96 bd bc c3 cd bd 24 d8 03 be
       -0.04322546 -0.07351896 -0.10047099 -0.1287542
000020 7e 78 94 be 3a 20 13 be 43 bf 36 be d3 9e 27 3d
       -0.28998178 -0.14367762 -0.17846398 0.04092295
000030 da b2 e7 bd 18 55 e9 3c 34 d3 c1 bd ba b1 74 bd
       -0.1131341 0.028482959 -0.09464112 -0.059739806
000040 1b 6e 74 3d d4 65 93 3d 48 69 e5 bd 41 0f 3a 3e
       0.059675317 0.071971565 -0.112017214 0.18169881
000050 b6 69 e9 3c 8c d3 b0 bd d6 8c b0 bd a2 0c 0b 3e
       0.02849279 -0.08634099 -0.08620612 0.13579038
000060 b2 4d 03 3e 66 43 be 3d 0d a7 55 3c d2 69 03 3e
       0.12822607 0.09290199 0.013040316 0.12833336
000070 f8 3c ac 3c 3a 3f 42 bc 50 da 29 3e 1a 70 01 be
       0.021025166 -0.011855895 0.16587186 -0.1264042
000080 40 b0 c1 bd fc d5 9e bd 21 b3 4f bd 72 d9 7f 3d
       -0.09457445 -0.07755658 -0.05070794 0.06246323
000090 9a 0d 22 3e 5d 8c 26 be 7e 4d d7 bc a7 55 b3 3c
       0.15825501 -0.16264482 -0.026282068 0.021891428
0000a0 0c f8 2d be 6b ff 05 3e 48 18 05 3e 55 52 03 be
       -0.16989154 0.13085715 0.12997544 -0.12824376
0000b0 f8 e3 eb 3b b3 62 b6 3e 27 82 a5 bb 50 8c b8 3c
       0.007198807 0.35622177 -0.0050509158 0.022527844
0000c0 51 63 e1 bc dd dd 77 bd 5f 15 d0 3d 6b 39 d1 bd
       -0.027513178 -0.06051432 0.10160326 -0.1021603
0000d0 d5 87 98 bd 70 fe 77 3c 5b c8 82 3e 0b 7a e1 bd
       -0.07447783 0.015136346 0.25543484 -0.11009606
0000e0 da db 75 bd 3f 74 5f bd a1 49 22 bd af 38 ec bd
       -0.06002412 -0.05455422 -0.039621 -0.11534249
0000f0 56 88 86 bd 93 5f 51 3e af 71 98 3d a6 d6 a8 3d
       -0.06568973 0.20446615 0.074435584 0.08244066
000100 d7 2b 10 bd 46 45 0e 3e e1 c7 07 3e 97 26 5c 3d
       -0.03519806 0.13893613 0.13259842 0.05374774
000110 27 7c 9c 3d 92 a9 d7 bd 91 9e 4b 3d 44 2c 3c 3e
       0.07640868 -0.1053039 0.049711768 0.18376261
000120 d7 7e 80 3d 16 2b a7 bc 3f 38 01 be e4 98 91 3c
       0.06274193 -0.020406287 -0.12619112 0.0177731
000130 3d dd 83 3e 2b d6 3d bc 23 5c fd bd c4 60 0a 3d
       0.2575473 -0.011586706 -0.12371089 0.03378369
000140 91 eb 0e bc c2 a5 fe 3d fd c7 93 be 20 9a 47 3d
       -0.008723156 0.124339595 -0.28863516 0.04873097
000150 7c 37 ec bd 4e 2a b4 3e d0 89 e6 3c 27 9a 83 39
       -0.1153402 0.35188526 0.028141886 0.0002510112
000160 e7 dc ce 3c c4 fa df 3d 74 1a 02 3e fd f8 7c 3d
       0.025251819 0.109365016 0.12705404 0.06176089
000170 70 e9 26 3e 21 6f 83 bd 93 95 9a 3c 36 ac 4e be
       0.16299987 -0.064176805 0.01887015 -0.20182881
000180 ab 13 e5 3d 86 71 46 be e8 f8 2c 3e 53 a7 43 bd
       0.11185392 -0.19379243 0.16891825 -0.047766995
000190 f0 82 4f 3e 3e 61 d7 3c 74 21 8a 3e 58 d8 82 be
       0.20264792 0.026291486 0.26978648 -0.25555682
0001a0 b7 0c 8f be 79 ee 18 3e d2 31 a8 bc cd 9f 4d bd
       -0.27939388 0.1493472 -0.020531569 -0.050201226
0001b0 5d aa e8 bd 5d a3 9a bb 03 5f 5e 3e 63 24 2d 3e
       -0.11360619 -0.0047191815 0.21715932 0.16908412
0001c0 b2 d5 5e bd ed 4b e0 3d 96 3a b2 bc 7b 9f 5a 3d
       -0.054403014 0.10951982 -0.021756452 0.05337475
0001d0 70 72 02 bd 9e 96 b1 3e 89 ff 8f be 1f f9 b0 bc
       -0.031847417 0.34685224 -0.28124645 -0.021603165
0001e0 93 d6 71 3b 85 58 8d be b2 3f 40 3e 52 25 f2 bc
       0.0036901578 -0.27606598 0.18774298 -0.029558811
0001f0 15 0a f5 bd a6 74 48 bd b4 94 cf 3d 1a ab ee bd
       -0.119648136 -0.04893937 0.10135785 -0.11653729
000200 63 a4 ab bd 1c ad 2c bd 85 95 11 3c 5f 25 4f 3e
       -0.08380964 -0.042157277 0.008885746 0.202291
000210 c5 02 69 3c af f4 34 3e fc 7e c8 bc f0 30 3f 3d
       0.014221852 0.17671464 -0.024474613 0.04667753
000220 f7 e1 7c 3d 47 55 14 3e 7b c3 67 be 94 e1 7d 3e
       0.061738934 0.14485656 -0.22633164 0.24793082
000230 c1 0d 27 be 23 4d 2d be 1b aa cb 3d f1 ed 39 be
       -0.1631384 -0.16923957 0.099445544 -0.18157174
000240 4c 40 e0 bd 0b 6b d1 bd 3f 8d 6c bd 3d 8e 46 bd
       -0.10949764 -0.10225495 -0.05775189 -0.048475493
000250 14 99 78 3e 75 1d 06 3e fe 56 49 3e bd b1 84 be
       0.24277145 0.13097174 0.19662091 -0.25916854
000260 44 b4 f8 3c c9 49 01 be fc 34 83 3d 96 b0 97 bd
       0.030359395 -0.12625803 0.0640659 -0.07406728
000270 99 3b 2b bb b5 b8 d5 bd dd 93 f4 3d fe 29 52 be
       -0.0026128052 -0.10435621 0.11942265 -0.20523831
000280 30 48 14 be ed bc fb 3d f7 fa f0 3d 55 07 69 bd
       -0.14480662 0.12291894 0.11766618 -0.056891758
000290 69 e2 d9 bd d5 46 8c 3d 11 b1 06 bc 6d 31 7e be
       -0.106388874 0.06849448 -0.008220927 -0.24823542
0002a0 75 e8 82 bd 43 46 2f be 22 b3 b9 3d 40 7c 95 bd
       -0.06391994 -0.17116646 0.0906737 -0.072990894
0002b0 1a aa 43 bd 40 7d b2 bd fc 24 0d 3d ea be 60 3d
       -0.047769643 -0.08715296 0.0344591 0.05486957
0002c0 0c 0b 07 be 81 43 82 3e 00 94 82 be 59 52 9c bc
       -0.13187808 0.25442126 -0.2550354 -0.019082235
0002d0 ab 73 df 3c a3 cc 60 3e 57 22 7a 3e ae ad 70 3e
       0.027276834 0.21953063 0.24427162 0.23503754
0002e0 7f 4d ae bd 29 b6 85 be f2 01 0b bd 02 37 62 bd
       -0.08510875 -0.2611554 -0.033937402 -0.05522824
0002f0 40 0e 67 bd 57 29 ec bd 0f 01 43 be 27 d7 cd bd
       -0.056410074 -0.115313224 -0.19043373 -0.10050803
000300 22 8e 1c 3e 43 f5 8b bd 05 d9 6a 3d 99 24 ab 3e
       0.15288594 -0.06833889 0.057335872 0.3342636
000310 ae d0 87 3e c0 85 9b be 05 ae 5b 3d 35 ef 52 3e
       0.26526397 -0.3037548 0.053632755 0.20599063
000320 74 21 4b be 43 73 18 be ae a7 fb 3e 55 a8 ce bd
       -0.1983698 -0.14887719 0.49151367 -0.100907005
000330 bf c1 17 3d 56 e8 2f be 11 8f bc bc 2f e8 15 3d
       0.037050005 -0.17178473 -0.023017438 0.03659838
000340 e9 43 69 be 0c c4 04 be 91 29 d5 3d 14 cd 94 bd
       -0.22779812 -0.12965411 0.10408319 -0.07265678
000350 13 c3 1c bd cf 42 0f be 20 15 a5 3c f4 31 29 3e
       -0.038271975 -0.13990329 0.020151675 0.16522962
000360 c5 89 93 3d cc 83 db 3d 29 95 06 3d 97 c1 79 be
       0.07204012 0.10718498 0.032857094 -0.24390255
000370 ce 9e cd 3b 4c 0f 1d 3e 27 b7 29 bc 1b 7c f0 3d
       0.0062750345 0.15337867 -0.010358608 0.11742421
000380 a8 88 f0 3d 90 65 0f 3e ce dd b1 be 09 0a d5 3d
       0.11744815 0.14003587 -0.34739536 0.10402305
000390 87 ee e2 bd 21 f7 17 bc 14 8e 1c 3e 85 51 d0 bb
       -0.11080652 -0.009275229 0.15288574 -0.006357374
0003a0 28 89 b5 3e d5 31 42 be 43 d5 7d bd 2d 10 ff bd
       0.35456204 -0.18964322 -0.06197096 -0.12454257
0003b0 e7 cb a5 3d 01 63 81 3e 41 54 88 3e 9f cf 03 bc
       0.08095532 0.25270846 0.2662678 -0.008045106
0003c0 34 3b 16 be 79 e4 b9 bd 73 a5 5a 3e 83 16 67 3d
       -0.14671022 -0.09076781 0.21352176 0.056417953
0003d0 a0 0b 6c be b0 d5 68 3e d7 e1 17 bd b5 7b 9a bd
       -0.2305131 0.22737765 -0.037080612 -0.075431265
0003e0 85 7a 90 3e 4f 6c 49 be db b0 c3 3d ee 87 65 be
       0.28218475 -0.19670223 0.09555217 -0.22415134
0003f0 43 4d 14 3b ed 56 8a bd 32 ba 03 3e 4a 4d 66 be
       0.002262906 -0.06754861 0.12863997 -0.22490421

conv4.bias f4 [32]
000000 e8 17 d0 be fc 4e 82 be e3 df a2 bd 49 5d 13 be
       -0.4064324 -0.25450885 -0.07952859 -0.14391054
000010 73 40 07 bf 72 5d 9e be f5 1a 72 be e2 03 52 be
       -0.52832717 -0.30930668 -0.23643096 -0.20509294
000020 f0 11 d7 bd 1f 4e 85 be b1 10 1e be 66 99 9b be
       -0.10501468 -0.26036164 -0.15436055 -0.3039047
000030 b9 fb 9e be 90 1c 04 be 25 dc 8e be 37 ff c5 be
       -0.31051424 -0.1290152 -0.27902332 -0.38671276
000040 95 d6 9c be 54 ac b0 be 8b a0 96 be b8 a0 27 bd
       -0.30632463 -0.34506476 -0.2941936 -0.040924758
000050 52 20 d1 bd 63 d4 46 be b5 69 8f be 7c d0 a9 be
       -0.10211243 -0.19416957 -0.28010336 -0.33166873
000060 6b a1 cd bd fc 35 93 be 1d 51 95 be 35 80 0d bf
       -0.10040554 -0.28752124 -0.29163447 -0.55273753
000070 28 40 06 be 53 7f 93 bd 0a 2a 37 be 80 e7 d2 be
       -0.13110411 -0.072020195 -0.1788713 -0.41192245

linear.weight f4 [32, 800]
000000 0e e3 bb bc 0c 54 de 3d d7 fa 8e bd 65 3b d7 bd
       -0.022935417 0.108558744 -0.06981438 -0.105093755
000010 ac 18 93 bc 40 8e 9a be fd 2a 35 3d 98 b2 31 bb
       -0.0179561 -0.30186653 0.04423045 -0.0027114507
000020 93 b0 f6 bc c8 ef 40 3d 3b 13 15 3e 0d d5 b0 bd
       -0.030113494 0.047103673 0.14558117 -0.08634386
000030 19 49 80 bd b5 81 ca bb ca 9f 1d 3e 7c e2 50 3e
       -0.06263942 -0.006180013 0.15392986 0.20398897
000040 8d d6 23 3e 75 4c 3f bd d6 88 46 bc 74 f4 e1 bd
       0.15999813 -0.046703774 -0.012117585 -0.11032954
000050 12 ae c3 bd 4f a1 7f bc da a4 48 bd 47 c4 e9 bc
       -0.09554686 -0.015602424 -0.04898534 -0.028535975
000060 08 68 e0 bc 25 2d 69 3e 93 bf b1 bd e5 9a 98 3d
       -0.027393356 0.22771128 -0.08679118 0.07451419
000070 d2 f7 b5 bd d8 9d 0f 3d f4 e2 ab be 36 f9 19 3d
       -0.088851586 0.03506264 -0.3357159 0.03759118
000080 8c b6 60 bd 6a b0 49 bd e9 33 67 3e 50 86 32 3e
       -0.05486159 -0.049240507 0.22578396 0.17434049
000090 dc 2f 54 3d b4 48 72 bd 69 cc 50 bd aa a7 b3 3b
       0.051803455 -0.059151366 -0.05097619 0.0054826336
0000a0 a9 a2 a1 3d 2d 8e b8 be 93 6d 19 bd 08 c7 b3 bd
       0.07892353 -0.36045972 -0.037458014 -0.087781966
0000b0 44 64 f9 3d 0c ab 09 be b9 04 45 3a 99 fa 75 3d
       0.12177327 -0.13444155 0.00075156573 0.06005344
0000c0 c6 4f 27 3d d5 44 df 3c 19 85 03 be f0 fd ae bc
       0.040847562 0.027254501 -0.12843741 -0.021361321
0000d0 ab d4 1a 3d b9 7c 87 bd c6 b6 18 bb cf 3b 8c 3e
       0.037800472 -0.06615586 -0.00233023 0.2738938
0000e0 74 99 27 bc a7 c1 45 3c 44 19 64 3d fa 87 66 bd
       -0.010229457 0.012070096 0.055688158 -0.05628202
0000f0 2c fc 58 3d 11 d9 84 3d 82 65 3b 3d 35 70 0a bd
       0.052974865 0.06486715 0.045751102 -0.033798415
000100 8d f1 fa bc f4 d7 24 bd 8a f2 e3 3c 10 72 1b 3d
       -0.030632759 -0.04024501 0.027825613 0.037950575
000110 91 a9 cc bc c3 e5 b6 bd 28 e7 98 bd 5a 72 97 bc
       -0.0249832 -0.08930542 -0.074659646 -0.018487144
000120 99 02 b8 3b 6f db e4 bc 1d 73 85 3c b4 f5 6c 3e
       0.005615544 -0.027936665 0.016290242 0.23140603
000130 08 6a 36 bd 32 ac 0a 3e 61 7f b6 3c 8c 35 4e be
       -0.044534713 0.1354225 0.022277536 -0.20137614
000140 f2 e1 43 be 84 ec 9b 3d 39 e9 95 bc 02 e1 a9 bd
       -0.1912916 0.07613471 -0.018299686 -0.0829487
000150 3b 57 d8 3d e6 41 45 3c fe cd d7 bc e7 1c f3 bc
       0.10563513 0.012039637 -0.026343342 -0.029676868
000160 45 15 5f 3d 53 e6 a0 bd 44 29 c2 3d 81 e7 93 bd
       0.054463644 -0.07856431 0.09480527 -0.0722189
000170 c5 64 01 3e 16 c4 0d 3e 9a 10 db 3d 56 41 ad ba
       0.12636097 0.13844332 0.10696526 -0.0013218324
000180 23 f0 85 bc 65 58 c5 bc 44 2a 25 bd 54 91 59 bd
       -0.016349858 -0.024090001 -0.04032351 -0.05311711
000190 17 93 9e be 29 b4 79 3e bd d5 c1 bc 49 07 9d 3d
       -0.30971596 0.24385132 -0.023661489 0.07667405
0001a0 39 a4 69 3d b2 8a 8c be 5e 84 97 3e 32 ee 19 3e
       0.05704138 -0.27449566 0.29593176 0.1503227
0001b0 ca 27 16 3e 14 78 cc 3d 86 e8 92 be e0 dd ea 3e
       0.14663616 0.099838406 -0.28693026 0.45872402
0001c0 a2 01 2c 3e 19 c0 f5 3d 20 20 6f 3e 66 b7 a1 be
       0.16797498 0.1199953 0.23352098 -0.31585234
0001d0 d5 99 98 be 9e 27 82 be 76 8a 7f be 02 a9 bf be
       -0.29804865 -0.2542085 -0.24955162 -0.3743363
0001e0 aa 82 ac be 49 f0 ca be 57 3c b9 be ad 0d c7 be
       -0.3369344 -0.39636448 -0.36178848 -0.3887762
0001f0 4d 71 d2 be a3 4e 2c bd a5 66 0a bc 6a 47 bd 3c
       -0.41102067 -0.04206718 -0.008447324 0.023105342
000200 b9 7f 8b bd 96 d4 ba 3d 1a 7d 15 3d 6a df 7a 3e
       -0.068114705 0.09122579 0.03649626 0.24499288
000210 34 96 06 3c af 5e a9 bc d5 53 10 3c d8 9c 7f bc
       0.008214522 -0.020675031 0.00880905 -0.015601359
000220 65 a4 de be 64 dc 88 3c f9 6e ab 3d 18 fd af 3d
       -0.43484798 0.016706653 0.08370776 0.08593196
000230 41 89 ea bd c9 59 6c bd a5 54 83 bd b0 3b 24 be
       -0.1145196 -0.057702813 -0.06412629 -0.16038394
000240 bb f5 dd bd fd de 25 bc 15 5e c1 3d 02 86 6e 3d
       -0.10837885 -0.010123965 0.09441773 0.05823327
000250 6b 34 40 3d f5 67 dc 3d ec ab 15 be 11 0d bb 3d
       0.04692499 0.10762016 -0.14616364 0.091333516
000260 87 2f 43 be 56 d0 a3 bc d3 74 4a 3e ba 89 63 3e
       -0.19061099 -0.019996803 0.19771127 0.22220507
000270 db 02 5f 3e de 6c 14 be 82 2b d7 bd 57 6f 30 3e
       0.21778433 -0.14494655 -0.10506345 0.17229973
000280 93 da 3f be 42 e2 da 3d 65 2b 35 bd ff c0 4f bd
       -0.18735723 0.106876865 -0.044230837 -0.050721165
000290 3e 2a 11 be 53 bd aa bc 86 f6 31 3d 10 0d 65 bd
       -0.1417627 -0.02084223 0.043447994 -0.05592066
0002a0 7c 66 e0 3d 9f f8 9a bd 73 b1 15 3e 92 ab a8 ba
       0.10957047 -0.07566952 0.14618473 -0.0012868515
0002b0 21 ac 08 bb c4 ce 5e bd df 4c 08 bd 7e 0b 92 3e
       -0.002085455 -0.054396406 -0.033276435 0.28524393
0002c0 6c 26 4d be 1e 53 a2 3d 15 0b 04 bd 85 57 b1 bc
       -0.20034188 0.079260096 -0.03223713 -0.021648178
0002d0 f8 1c 40 be 9e 15 ed 3d 0d c1 f7 3c 4b d6 f8 bc
       -0.1876105 0.11576389 0.030243421 -0.03037562
0002e0 f2 c0 41 3d 45 f1 0b 3c 25 49 0c bd 1d d9 83 bd
       0.047303148 0.00854141 -0.034249444 -0.064378954
0002f0 46 97 9f 3c 69 f8 f0 3d 15 c2 7a bd 6f 18 58 3c
       0.019481312 0.117661305 -0.061220247 0.013189419
000300 b9 84 bc 3d e5 4c 4f bc 66 c9 27 be b0 82 cc bc
       0.09205002 -0.01265261 -0.16385421 -0.02496466
000310 74 ab 06 3d 77 cd 97 3b 99 19 4c ba ab a3 10 3d
       0.032878354 0.0046326476 -0.0007785797 0.035312336
000320 02 8b b2 bd 25 b0 83 bb 1c db ec bc f3 ac d9 3d
       -0.0871792 -0.004018801 -0.028913073 0.106286906
000330 f6 ef da 3c 34 8b 8b 3d a6 ef 69 3d ae 78 21 bd
       0.02672575 0.0681366 0.057113312 -0.03942173
000340 f5 a4 e4 bc 05 ca 38 3e 44 63 f3 3d fa 25 3b 3d
       -0.027910689 0.18045814 0.11884168 0.045690514
000350 24 a4 2e bd 74 30 8f bc 5a 1a 2c 3e 42 59 27 3b
       -0.042637005 -0.017479159 0.16806927 0.002553538
000360 0e 55 a0 bc 91 1c 11 3e 00 a5 e2 bd 55 e8 29 be
       -0.019571807 0.14171053 -0.110666275 -0.16592534
000370 f2 58 a1 3c eb d5 2b bd 7a e1 18 bc 96 0b 3e bd
       0.019695733 -0.041952055 -0.009331102 -0.046397768
000380 20 37 5a bc da 02 d0 3d fc 5a 19 3e 9d 37 db bd
       -0.013318807 0.10156794 0.14976114 -0.10703967
000390 eb 16 10 be 93 2e 18 3d 8c 01 57 be de f3 d4 3c
       -0.14071243 0.03715379 -0.20996684 0.025995191
0003a0 cf 2b 9e bc da 80 05 be 9a 6a 5b 3d 6d a2 8a 3d
       -0.019307999 -0.13037434 0.05356846 0.067692615
0003b0 b9 ae 85 3e 12 3e bc bc d9 1b 7e bc 6b c2 61 bc
       0.26109865 -0.022978816 -0.015509569 -0.013779263
0003c0 0f 36 00 3e 2b 07 f4 bd ff bf 44 bd 51 6d 80 3c
       0.12520622 -0.1191543 -0.048034664 0.015677126
0003d0 b3 2f b4 3c 76 27 e1 3c c5 be a7 bc 7f 13 26 bd
       0.021995401 0.027484637 -0.020476708 -0.040545937
0003e0 eb b0 47 3b e3 6e 93 bc b0 4e 60 bc 0f d2 c6 bd
       0.0030470442 -0.01799721 -0.013690636 -0.09708034
0003f0 69 e2 22 3d 70 e3 ba bb 72 4c e8 39 13 a8 ff 3c
       0.039766703 -0.005703382 0.00044307444 0.031208074

linear.bias f4 [32]
000000 73 5c 0d 3f 1a ea 98 be 8f 5c d4 be 55 74 8f 3b
       0.5521919 -0.29866105 -0.41476867 0.0043778815
000010 64 cb 2b bd 0a d7 a0 3d 1c 03 51 be ac c8 bc 3d
       -0.041942015 0.078535154 -0.20411342 0.092179626
000020 32 b1 61 3b 9a da 70 bd c6 ac 85 3c 12 2f 8e be
       0.0034437892 -0.058802225 0.016317736 -0.27770287
000030 af 7d 72 bd fb 83 28 3e 5a b4 8c be 2d da 59 3d
       -0.059201892 0.16456597 -0.27481347 0.053186584
000040 79 5b 48 bd 9d 70 49 3e e8 7a 6c 3d 2e 69 12 bf
       -0.04891536 0.19671865 0.0577344 -0.5719174
000050 44 3c 2d 3d 69 e6 34 bc be 94 cc 3c 62 05 e3 bd
       0.042293802 -0.011041262 0.02497327 -0.11085011
000060 6e 29 ef bd c1 17 24 3d 42 b7 ec bb 00 f5 74 3e
       -0.11677824 0.040061716 -0.0072239945 0.23921585
000070 06 a8 27 3d ff 90 93 3c 3b 63 6b be c9 a4 a3 bb
       0.040931724 0.018013475 -0.22987072 -0.004994009

critic_linear.weight f4 [1, 32]
000000 bc 48 c7 3d 93 14 a0 3b ef 25 5e bd dc 59 77 bb
       0.0973067 0.004885265 -0.054235395 -0.003774277
000010 d7 07 8e 37 fa 3e f4 bb dd b1 b3 bb 36 c7 a9 3a
       1.693137e-05 -0.0074537965 -0.0054838494 0.0012953046
000020 5e 1c 01 3a 2b ec 99 3a da 17 ac 3b d9 79 b4 3a
       0.00049251865 0.0011743357 0.0052518668 0.0013769224
000030 11 80 38 ba 95 db 91 3a d8 33 97 bb c6 3e 39 bb
       -0.00070381264 0.0011128063 -0.0046143346 -0.0028266176
000040 07 a9 8c 3b 10 cc 03 b9 b4 46 af ba 58 e7 1a be
       0.0042926106 -0.00012569153 -0.0013372512 -0.15127313
000050 4d d3 09 bb 4d 0b 54 bb d9 73 8a 3b b8 19 4d bb
       -0.0021030486 -0.0032355369 0.004225236 -0.0031295847
000060 fd 09 9a bb a3 e8 33 3a e3 93 0d 39 0d 37 04 bc
       -0.0047008977 0.00068629737 0.000135019 -0.008069766
000070 37 89 4c 3b 97 99 a6 bb 96 c3 c7 3a 8d 22 97 3a
       0.0031209716 -0.0050842273 0.0015240784 0.0011530683

actor_linear.weight f4 [6, 32]
000000 30 09 8e 3e 4e fc 86 be ff 19 c5 be e9 cf fd 3b
       0.27741385 -0.26364368 -0.38496396 0.007745732
000010 ca b3 c2 3c b6 6c 08 3e 3f b9 6b bd b9 e7 95 3d
       0.02376737 0.1332272 -0.05754971 0.07319588
000020 77 46 fe 3b 0d 4c 0f bd be a7 90 bc 62 64 b8 bd
       0.007759865 -0.034984637 -0.01765811 -0.090035215
000030 b1 a5 a1 bb 8a 37 21 3e ad 6e 98 be bd cb 10 3e
       -0.004933082 0.15743843 -0.2977194 0.1414022
000040 3e e6 30 be a8 08 c0 3d 12 18 0f 3d 77 e5 ce be
       -0.1727533 0.09376651 0.034935065 -0.40409443
000050 9f e5 01 3d b7 87 f8 bb 95 a1 42 3b ea 81 0a 3e
       0.031713124 -0.007584538 0.0029698361 0.13526121
000060 69 68 7b 3c c0 7b cc 3d e8 c2 13 3e af 22 84 3e
       0.015344718 0.09984541 0.1442982 0.2580771
000070 85 7d 8c bb 89 f9 3b 3b 14 e5 34 be c3 d4 f9 bb
       -0.004287424 0.002868267 -0.17665511 -0.00762424
000080 bd e3 af 3e 80 5a 57 be d5 8b b6 be 71 0d 32 3c
       0.34353438 -0.21030617 -0.35653558 0.0108674625
000090 09 c6 a3 bc e9 75 a6 3d 6b 46 bc bd 0f 58 77 3d
       -0.019991891 0.08127958 -0.09193119 0.060386714
0000a0 3f 22 27 3c 08 2a 32 39 42 4c 5c bb c2 54 c9 bd
       0.010201036 0.0001699106 -0.003361479 -0.098306194
0000b0 72 85 26 3b e8 35 3e 3e df 85 bc be 45 2a 0c 3e
       0.002540913 0.18575251 -0.36820886 0.13688
0000c0 d6 65 2b be e0 90 e9 3d f6 aa 26 3d 7e 82 d3 be
       -0.16738066 0.11404586 0.040690385 -0.41310495
0000d0 af bb 4d 3d d2 c8 6f 3c 50 33 de 3c 9e d0 c0 3d
       0.050227817 0.014635282 0.027124077 0.094147906
0000e0 c9 cd 5e bb 8d d7 99 3d c3 3b 1d 3e 2d fd 88 3e
       -0.003399717 0.07511816 0.15354829 0.26755658
0000f0 3e b3 85 3c 28 07 bb bc 1a f9 f9 bd 4e bc 8d bc
       0.01632082 -0.02283056 -0.122057155 -0.017301705
000100 89 8e 89 3e b6 09 83 be f3 a5 f7 be 1a ca 25 3c
       0.26866558 -0.25593346 -0.48368797 0.010118986
000110 c7 1d 91 3c a1 8f c9 3d 43 51 8a bd 68 c8 9e 3d
       0.017714394 0.09841848 -0.06753781 0.07753068
000120 df d1 d5 3c 52 ca 23 bd 14 c8 1a 3d f6 8d d0 bd
       0.02610105 -0.03998787 0.037788466 -0.10183327
000130 c7 c4 a4 3c bc eb 39 3e a6 7d 77 be d1 92 b0 3d
       0.020113362 0.18156332 -0.24169025 0.08621753
000140 ac 29 0e be e4 57 05 3e f4 bf 2f 3d 6e 3c c0 be
       -0.13883084 0.13021809 0.04290767 -0.37546104
000150 70 a3 1f 3d 9d 65 fa bc f0 23 e1 3c 91 ce 48 3d
       0.038974226 -0.030566031 0.027482957 0.049025122
000160 07 ab 3a bc fc fa a0 3d d9 d5 01 3e 27 77 2c 3e
       -0.011393315 0.078603715 0.12679233 0.16842328
000170 0d 24 91 3d 8b 29 4f bc dd 21 19 be 91 4a 60 bb
       0.07086954 -0.012644182 -0.14954324 -0.0034224133
000180 31 3d ba 3e 9f 4e 60 be 51 25 cc be a8 6a 6f 3c
       0.3637481 -0.21904992 -0.3987222 0.014612831
000190 26 ed 32 bc bb ca 8a 3d 6d 81 b1 bd b8 e3 7f 3d
       -0.010920798 0.06776949 -0.08667264 0.06247303
0001a0 50 0c 81 3c af 29 f3 bc de 81 ac bc 1c e7 f6 bd
       0.015752941 -0.029682962 -0.02105802 -0.12055799
0001b0 76 2a c1 3c 1f f9 39 3e 81 21 42 be 4d 24 23 3e
       0.023579817 0.18161438 -0.18958093 0.15931816
0001c0 91 3c 46 be 91 20 ed 3d c7 31 79 3c 1b ab 8c be
       -0.19359042 0.11578477 0.015209622 -0.27474293
0001d0 3e 33 81 bb 67 8d d9 bc 42 0b 43 bc c4 b3 47 3e
       -0.003942876 -0.026556684 -0.01190454 0.19502169
0001e0 e1 2e 08 3c 37 f7 97 3d 6a db 27 3e a0 db a4 3e
       0.008311958 0.07420199 0.16392294 0.3219881
0001f0 ae e4 67 3c 27 1f c0 bc 43 8c 20 be 9d d9 bf bc
       0.014153643 -0.023452355 -0.15678506 -0.023419196
000200 8d 04 be 3e 0a c6 75 be c5 0d d7 be 33 07 0c 3d
       0.37112847 -0.24001327 -0.42002693 0.034186553
000210 3c 61 6f bc 0d d9 d8 3d 39 42 c6 bd d7 a2 54 3d
       -0.014610585 0.10588274 -0.096806 0.05191311
000220 4c 95 22 bc 37 c8 19 bd 99 d3 b6 bc 4a dc 2c be
       -0.00992329 -0.037544455 -0.022317695 -0.16880909
000230 60 ad 8d 3c be dc 37 3e a8 a5 a3 be cc fd 03 3e
       0.017294586 0.179553 -0.31962323 0.12889785
000240 b4 c0 33 be 22 ab c7 3d e6 73 92 3d c3 8d b2 be
       -0.17553979 0.09749438 0.07151012 -0.3487378
000250 1a 38 72 3d 68 26 62 bc e7 de e0 bb a0 8f ee bb
       0.059135534 -0.013803102 -0.0068625095 -0.007280305
000260 26 45 3b 3c a4 1f 96 3d 75 c4 09 3e 44 80 ff 3d
       0.0114300605 0.07330254 0.13453849 0.124756366
000270 d3 4d b7 3c fc d4 a2 bc 5b f6 20 be 03 9d 8a 3a
       0.022375977 -0.01987695 -0.15718977 0.0010575358
000280 5c b4 d2 3e 60 92 73 be 75 95 9b be 2f 43 39 3d
       0.41153228 -0.23786306 -0.30387464 0.045230087
000290 dc c5 50 bc 04 c2 90 3d 28 f2 e8 bd 2e e5 41 3d
       -0.012742486 0.070682555 -0.11374313 0.047337703
0002a0 58 71 05 3c 9f 86 07 bd 58 1d 99 3b dc ff 18 be
       0.008144699 -0.03308737 0.0046726875 -0.14941353
0002b0 95 9c 18 3d 3e ba 40 3e bf 9a 84 be 3f c0 f5 3d
       0.037258703 0.18821046 -0.25899312 0.11999559
0002c0 d2 67 39 be 20 52 cc 3d 9a 66 a4 3d ce 4a c3 be
       -0.1810601 0.099766016 0.08027382 -0.3814301
0002d0 a6 9c 36 3d d3 af 3b bd 44 7a ea 3b c2 e6 b5 3d
       0.044582985 -0.045821976 0.0071556885 0.08881904
0002e0 2b c4 f2 bc 98 51 87 3d 16 9c 27 3e a9 7c b3 3e
       -0.029634556 0.0660736 0.16368136 0.35056046
0002f0 18 a4 57 3d 83 1a b3 bc 3c 5a 27 be 31 11 8e 3c
       0.052646726 -0.021863228 -0.16343015 0.017342182

actor_linear.bias f4 [6]
000000 5e ac e6 3c 7d b5 b8 3e b8 f9 86 3e 76 15 3f 3e
       0.028158363 0.36075965 0.26362395 0.1866053
000010 8b 27 7d 3e 45 fa 88 3e
       0.24722116 0.2675344
