spaceinvaders-v0-bottom-7fskip_latent32/model.24.tar (torch, 223035 bytes, 13 tensors)

conv1.weight f4 [32, 4, 3, 3]
000000 d4 5a ae bc 7b 11 da bd b6 57 8d bd b2 eb 6c 3d
       -0.021283545 -0.106478654 -0.06901495 0.057841964
000010 1c 57 8b be 72 2f b7 3b 60 24 cd 3d 2d e8 22 3d
       -0.27214897 0.0055903727 0.100167036 0.0397722
000020 5c cb bc ba f5 0d 89 bd db 3c c8 3d 4f 35 89 3c
       -0.0014403868 -0.06692115 0.09777232 0.016749052
000030 a4 2d 3c 3d f7 d0 85 3c 83 66 1c bd c1 26 90 3d
       0.045941964 0.016334994 -0.0381837 0.07038642
000040 cd 19 c9 3d ed ea b5 3c 78 4f 81 3d a3 d0 6e 3d
       0.09819374 0.022206748 0.063139856 0.05830444
000050 96 58 51 bc 91 d4 6b bd 3b 0f 9e 3c e9 1a 31 bd
       -0.012777468 -0.057575766 0.019294372 -0.043238554
000060 0e bc 6f 3d 2a dd bf 3c 74 2a e5 3d 84 76 2e 3e
       0.058528952 0.023420889 0.11189738 0.17037398
000070 13 b2 85 be ba 6f fa 3d fd ab bc 3d 11 95 73 3e
       -0.26112422 0.122283414 0.09212492 0.23787333
000080 61 06 3b 3e e3 a3 8c be ac 69 08 be ae c5 24 be
       0.18264152 -0.27468786 -0.1332156 -0.16091034
000090 75 5e e5 3c 37 fc 9b bd aa 24 e4 3d 59 4c a6 bd
       0.027999142 -0.076164655 0.111398056 -0.08120031
0000a0 2d da be 3d 91 a3 f3 bc dd b4 39 3e 7c 67 1b bd
       0.093189575 -0.02974108 0.181354 -0.037940487
0000b0 a0 0d c2 bd 85 c7 1a bb 5a 2a fa bd 3e 9d b0 3c
       -0.09475255 -0.0023617458 -0.12215109 0.021559354
0000c0 8a ae 5c bd 41 ca 7a 3b c6 15 bb bd 56 68 0d bd
       -0.05387739 0.0038267525 -0.09135012 -0.03452333
0000d0 81 1c d2 3d b9 5c 4b 3c 44 c0 a4 3d 65 82 0b 3e
       0.10259343 0.0124122435 0.08044484 0.1362396
0000e0 e9 23 83 3c ff ec ab bd 81 69 86 3d 8a 75 c0 3d
       0.016008334 -0.08394813 0.06563092 0.09397419
0000f0 15 b4 2e bd ab b4 69 3d 88 14 34 3d 19 02 9f 3e
       -0.04265221 0.057057064 0.043964893 0.31056288
000100 65 b1 72 be 0f 77 a9 bd 3a c2 c7 3c ef c9 9b bd
       -0.23700483 -0.08274662 0.024384607 -0.07606875
000110 1f 30 42 bd 27 22 9e be f0 61 51 3e 63 ce 2e bd
       -0.047409173 -0.3088543 0.20447516 -0.042677294
000120 a4 dc c1 3d b5 b0 63 bd dc 86 3d 3e d5 6c bf bd
       0.09465912 -0.055588443 0.18508476 -0.0934693
000130 38 75 4e 3d c5 26 3f 3e 3b ec 68 be 4d b5 ef bb
       0.050404757 0.18667133 -0.22746365 -0.007315314
000140 0f c5 a1 bd 30 01 0a be 3e 1d 01 3c d0 20 a3 3c
       -0.07898914 -0.13477015 0.007880507 0.019913107
000150 46 7b 9e bc f2 de 16 be f4 23 84 bd 80 36 02 3e
       -0.01934589 -0.14733484 -0.0645217 0.12716103
000160 dc 81 ad bd e2 8d 1f 3e a4 68 9c 3d 59 38 08 bd
       -0.08472034 0.15581468 0.07637146 -0.033256862
000170 a7 19 de 3d be 2a 66 ba 5d b0 17 be b4 9c 0b bd
       0.108447365 -0.0008780173 -0.14813371 -0.03408499
000180 49 a5 03 3e 8c 8f 13 3d 64 b8 cb bd 37 be e9 bc
       0.1285602 0.03602557 -0.09947279 -0.028533084
000190 30 11 1c 3e 97 b8 2e be 68 b0 b8 3d 40 51 1a bd
       0.15240932 -0.17062603 0.09018022 -0.037675142
0001a0 bd 36 56 be 24 d0 bc bd ea 8a 94 3e 4e 76 0b 3d
       -0.20919318 -0.09219387 0.29012233 0.03404837
0001b0 5f 4b 34 3e 61 11 b3 3d c8 a8 09 3d dc c1 26 3e
       0.17606877 0.08743549 0.033608228 0.16284889
0001c0 c2 67 87 3e 32 67 b4 bd 75 08 02 3e 94 ef 8b 3e
       0.26446348 -0.088087454 0.12698539 0.2733122
0001d0 a1 0d 95 3d d0 03 a3 3d 57 49 40 be d0 de 06 be
       0.0727799 0.079597116 -0.18777977 -0.13170934
0001e0 59 21 00 be ef 54 f4 bc 29 2c 1a 3e cf ac 6a bd
       -0.12512721 -0.029825656 0.15055908 -0.05729371
0001f0 a7 69 73 3d 27 8b 13 be 47 87 b4 bd 46 57 cc bc
       0.05942693 -0.14408551 -0.088148646 -0.024943959
000200 87 10 f6 3d af 68 19 3e d0 10 2a be 17 1d db 3c
       0.12014871 0.1498134 -0.16607976 0.02674727
000210 ab dd 12 3e 56 4a b7 3d e1 70 62 3d 49 21 a1 3d
       0.14342372 0.08949725 0.05528343 0.07867677
000220 a5 63 b0 3c 8b df 08 3e 1b 89 30 be 71 10 de be
       0.02153189 0.13366525 -0.17239802 -0.4337192
000230 d4 24 1f be 29 bd 2c bd b8 9a 5e be cf 3b 67 bc
       -0.15541393 -0.042172585 -0.21738708 -0.014113381
000240 4b 2b 75 bd c2 9b ef bd af bc 34 3e 81 e7 4f 3d
       -0.05985574 -0.1169963 0.17650102 0.05075789
000250 7d f7 81 3d 3a ef a2 3c 49 94 18 bd 13 37 77 3e
       0.06346033 0.019889463 -0.03725079 0.24142103
000260 bd 56 97 bd fe 4d a5 bd 73 b5 3e be b9 b3 d1 bd
       -0.07389591 -0.080715165 -0.18623905 -0.102393575
000270 37 55 ce bd b3 e2 0e bd ce 2f eb 3c 2f 6d 2c bd
       -0.10074847 -0.034884166 0.028709318 -0.042096313
000280 74 9f 79 bd 57 b4 0e 3c 05 56 56 bd d3 35 72 3d
       -0.060943082 0.008709989 -0.05232813 0.059133362
000290 da 80 be bd ed 89 d7 bc 88 ea a4 bd bf c7 bb bd
       -0.0930192 -0.026310885 -0.08052546 -0.09168958
0002a0 fb d9 a9 bd 7b 03 a2 bd 7a 55 ef bd ed 11 2b 3e
       -0.082935296 -0.0791082 -0.11686225 0.16706057
0002b0 43 27 a6 3d 87 29 87 bd 54 f6 18 3e ef 3f 61 3e
       0.08112957 -0.065997176 0.14937717 0.21997045
0002c0 2b f5 2f 3e ee 96 85 3c 85 57 39 be e0 be 42 3e
       0.17183368 0.01630732 -0.18099792 0.19018126
0002d0 db 32 09 be c8 15 09 be 78 5a 71 be 40 e3 cd bd
       -0.13398306 -0.13387215 -0.23569667 -0.1005311
0002e0 5e 0e a1 be e1 20 71 bc 72 3a 81 be ce 38 9d be
       -0.31456274 -0.014717312 -0.25239903 -0.307074
0002f0 28 eb 14 be 84 ec 58 bd 4b be 91 3d c8 50 87 bd
       -0.1454283 -0.052959934 0.07116374 -0.06607205
000300 07 30 b9 bd 46 d9 35 bd 2f 56 7b 3d 7d d0 03 be
       -0.090423636 -0.04439666 0.061361488 -0.128725
000310 74 1d 43 3d 02 54 26 3d 80 93 3b 3e 00 c2 71 bd
       0.04763551 0.04060746 0.18317986 -0.059022903
000320 c1 2a b0 3d a8 0e 19 be 4a 6f 05 3e 25 c1 b3 bd
       0.08601905 -0.14946997 0.13030735 -0.08777074
000330 b8 b0 da 3d f1 9d ee 3c 4b ab 2e bd 98 cd ea 3d
       0.10678238 0.029128047 -0.042643826 0.11464995
000340 b6 23 53 3e 95 85 6f 3e b3 de 74 3c 2f 5e 13 3e
       0.20619091 0.23390801 0.014945674 0.14391397
000350 b6 55 85 bd b3 98 26 3e 9b 28 8c 3e 18 11 84 3e
       -0.06510489 0.16269188 0.2737473 0.25794291
000360 a5 e5 76 3e d9 dc 77 bc 92 48 2c 3d 06 1d 46 3e
       0.2411104 -0.015128338 0.042061396 0.19347009
000370 9a 13 cd bb 69 ee 51 3e b9 0c 2a be bb b7 80 be
       -0.00625844 0.20501103 -0.16606416 -0.25140175
000380 dd 23 70 3d 71 76 26 bd f4 c8 09 bd 49 42 5b 3e
       0.058627952 -0.0406403 -0.03363891 0.21412005
000390 b7 42 d4 3d 27 e5 03 3e 68 21 c3 3c fd da 0e be
       0.10364287 0.12880383 0.02381964 -0.13950725
0003a0 6f 4d 9f 3d 6c 64 a1 bd d1 8a 6d bc 37 49 71 3d
       0.07778441 -0.07880482 -0.014498428 0.058907714
0003b0 f5 dd 6e bc 3a 49 eb 3d 5b ab 87 3d 4e fe 4a bd
       -0.014579286 0.11488576 0.0662448 -0.04955893
0003c0 94 93 f2 bd db 4e a2 bc b3 50 7e 3d 8e 1a de bd
       -0.118445545 -0.019812992 0.06208868 -0.10844909
0003d0 35 17 85 be 23 71 b5 bd 95 46 51 be 8e d3 54 be
       -0.25994268 -0.0885947 -0.20437081 -0.20783827
0003e0 64 04 02 be 11 2e 70 3e 69 40 a0 3e 21 8b 56 3c
       -0.12696987 0.23455073 0.3129914 0.013094694
0003f0 a4 97 cd bd 29 d0 44 bd a3 6a 8f bd 05 d3 75 be
       -0.10038689 -0.04805008 -0.07002761 -0.24006279

conv1.bias f4 [32]
000000 1d fe 2a ba bb 0e cf b9 9b 38 74 bb 5e 51 57 bc
       -0.0006522851 -0.00039493092 -0.0037265185 -0.013141958
000010 6e 1e da 3b 1b 6f cf 3b eb 84 22 bb 57 bc 4e bb
       0.0066564595 0.0063303835 -0.0024798464 -0.0031545365
000020 1e 14 0a 3c 9f 2a 8e 3b 9a 42 a8 3b 4c 29 59 bb
       0.008427648 0.004338577 0.0051348926 -0.0033136187
000030 6e 54 ad 3b 10 0b 14 3c 9b a5 73 bc aa 15 ab 3d
       0.005289606 0.009035841 -0.014871026 0.083537415
000040 18 d8 49 3b 5d 89 40 3a 87 39 47 3d eb 8f bc 3b
       0.0030798968 0.00073446875 0.048638847 0.005754461
000050 57 09 41 3c 7f a1 b4 bb a3 d8 38 bb df 67 1d bc
       0.011782012 -0.005512416 -0.0028205297 -0.009607284
000060 9b 74 a3 bb 64 e6 77 3b 47 97 81 bb ea 36 ca bb
       -0.0049882657 0.0037826532 -0.0039548012 -0.006171097
000070 ba fe ff ba 52 2b 4f bc 54 91 c7 3a af ae 4b bb
       -0.001953087 -0.012644606 0.0015225806 -0.0031079461

conv2.weight f4 [32, 32, 3, 3]
000000 79 dd 8f bd 20 fe ab bd 82 d3 ea 3d b7 60 37 3e
       -0.070246644 -0.0839808 0.11466123 0.17907988
000010 88 88 83 3e 93 ce 1c be 6b e3 fd bc 72 6e 19 be
       0.25690103 -0.15313177 -0.03099223 -0.14983538
000020 9c 19 2d bd cf d9 ca ba a4 d3 3a be 87 67 9b bb
       -0.04226075 -0.0015476289 -0.18244797 -0.004742566
000030 86 df 6a 3d 65 9e 18 3e 88 9d f7 bc 44 b7 a7 3d
       0.057342075 0.14904173 -0.030226484 0.08189252
000040 1c 7d 6f bc 5a dd b9 bc 9d d7 65 bc a8 f5 33 be
       -0.014617231 -0.022688556 -0.014028457 -0.17574179
000050 31 37 4e bd 95 55 89 bd b4 ff e4 bd 96 dc 43 3e
       -0.050345603 -0.067057766 -0.11181584 0.19127116
000060 46 81 d8 3c 28 25 d4 3c 47 fa c5 3b 79 ec 4b bd
       0.02642883 0.025896624 0.0060417983 -0.049786065
000070 a2 7e 19 be db c6 b2 bd 53 e9 0d be 2f 40 6e be
       -0.14989713 -0.08729335 -0.13858537 -0.23266672
000080 87 9a 01 bc 87 97 1b 3c 56 2e b3 3b e1 97 62 bc
       -0.007910377 0.009496576 0.00546817 -0.013830156
000090 4c d4 21 bc 36 c5 50 3b 4b c3 33 3d bd e9 23 3e
       -0.009877276 0.0031855828 0.043887418 0.16007133
0000a0 e4 86 20 3e 4b d4 1e bd f8 c7 07 be 69 39 84 be
       0.15676457 -0.038776677 -0.13259876 -0.2582505
0000b0 df 75 d0 3c 30 77 14 3e c0 06 5a b5 97 95 1b be
       0.02544683 0.14498591 -8.122115e-07 -0.15193783
0000c0 2d b2 b9 39 2e 8d 05 be f3 96 9f bd 54 f6 d0 bd
       0.000354187 -0.13042137 -0.07792463 -0.10203233
0000d0 e2 65 2d 3c af 91 64 bb a7 a6 97 3d 6d e2 46 bc
       0.010583373 -0.0034876873 0.07404833 -0.012138945
0000e0 b0 ae 9f bd 8d a8 0b be 2b c3 3a 3c 72 26 ef 3d
       -0.07796991 -0.13638516 0.011399071 0.11677255
0000f0 f7 7b 70 bc e2 9b 8a 3c b3 5b a5 bd 46 12 84 bd
       -0.014677993 0.016920034 -0.08074131 -0.06448798
000100 ee 3c 32 bd a6 35 92 bd 4a 10 b8 3d f6 c3 96 3d
       -0.04351514 -0.07139139 0.08987482 0.07361595
000110 5d 1f fe bd ff 7c 9e bc 32 b2 9d bd b0 e6 34 3e
       -0.12408326 -0.019346712 -0.07700004 0.17666125
000120 78 9c a0 bd 30 c9 3b 3e 81 c6 19 3e 52 b6 00 3e
       -0.07842344 0.18338466 0.1501713 0.1256955
000130 ee 1c 74 3d 13 e5 8f bc 1d 57 02 be 7e 97 50 be
       0.059597902 -0.017565286 -0.12728544 -0.2037029
000140 44 53 83 3d 8a 10 bc 3d c3 73 14 bc 0f 8a d0 bc
       0.06412366 0.09182842 -0.009060803 -0.025456456
000150 83 19 b1 bb fa 9f b5 3d 40 97 42 bd 9e 12 0d be
       -0.0054046526 0.08868404 -0.047507524 -0.13776633
000160 30 03 bf 3d b5 6a 02 3e bb 49 25 bd 80 06 fc bc
       0.0932678 0.12736018 -0.040353518 -0.030764818
000170 6f d7 8a bc 2d 8a 14 3e 74 f5 9c 3e dc e1 c6 bd
       -0.01694843 0.14505835 0.30656016 -0.09711048
000180 84 af 96 bd 7e 03 73 bb 3d 2d 7b bd f2 aa 9b 3d
       -0.07357696 -0.003708094 -0.06132244 0.076009646
000190 20 ec 20 bd a9 71 71 bc 63 4d ed 3d d6 3c 28 bd
       -0.039287686 -0.014736571 0.11587026 -0.041073643
0001a0 04 bb 03 3e 4d c8 0b 3d 3d ac c3 bd 9a fc e2 bd
       0.1286431 0.03412657 -0.09554336 -0.11083336
0001b0 ae 72 15 bd 8d 8c a4 3d b5 03 60 3d 6e ee 83 3e
       -0.03648632 0.080346204 0.054691035 0.25767845
0001c0 09 0a 11 3e 43 51 81 bc 6e 15 0b 3c c3 2b 65 be
       0.14163984 -0.015785819 0.008488996 -0.22379975
0001d0 88 db 4f bc d2 5d 84 bd 4e b2 ce 3d ed ff 2d 3e
       -0.012686618 -0.06463207 0.10092603 0.16992159
0001e0 6f 8e ae 3d 46 24 cc 3d c0 b1 33 bc 52 ec c3 3d
       0.08523261 0.09967856 -0.010967672 0.09566559
0001f0 ea 94 b1 bd 2a de c3 3c fd 8c e2 bc 78 2f 47 bd
       -0.08670981 0.023909647 -0.02765512 -0.048629254
000200 b6 26 9c bd 77 c2 2a bc 3f 6e 37 bd e9 a8 92 3c
       -0.07624571 -0.010422341 -0.044782873 0.017902808
000210 19 56 24 bc 4f ff ed bc d6 f1 39 bd c7 ae 83 bc
       -0.010030293 -0.029052405 -0.04539665 -0.016074551
000220 92 f0 8a bd fc 30 82 bd 41 58 63 3c fd 61 e1 3d
       -0.067841664 -0.06356999 0.013876022 0.11005018
000230 42 ac fe 3d c5 cc 9e 3c a4 ac a9 bd 72 09 96 bd
       0.12435199 0.019384751 -0.08284882 -0.0732602
000240 4f be 88 bc 39 ca ce bd 33 6b d3 bd f2 26 6c 3d
       -0.016692309 -0.10097165 -0.10323181 0.05765433
000250 4e fa 62 3d 39 e7 8e bc ce 69 c5 3d 7d a5 93 3d
       0.05541449 -0.01744424 0.09639321 0.07209299
000260 c1 c9 a4 3d 87 1a db bd 58 91 84 3d 9e 33 3d 3d
       0.08046294 -0.10698419 0.064730346 0.046191804
000270 4e f3 a4 3c 22 6e 32 3e 82 c8 8b bc ea 99 03 3d
       0.020135548 0.17424825 -0.017063383 0.032129206
000280 99 de 4f bd 96 5d b9 bd cc f2 7c 3c 2c 87 c5 bc
       -0.050749395 -0.09051053 0.015438747 -0.024112307
000290 2a 2a d4 bc 5d 42 fe 3b a0 20 a1 3d f7 d7 01 3e
       -0.025899012 0.007759376 0.07867551 0.1268004
0002a0 de 3e 63 bd 65 75 c2 bd 70 57 e2 3c 01 9d cc 3d
       -0.055479877 -0.094950475 0.027629584 0.099908836
0002b0 66 96 71 bc 8b af e6 3c ed 5d 74 3d eb 3a 13 bd
       -0.01474533 0.028159877 0.059659887 -0.03594486
0002c0 18 b8 8a 3d 35 71 55 bd 9c 43 1d be 1f f3 dd 3c
       0.06773394 -0.052109916 -0.15357822 0.027093468
0002d0 90 8a 11 3d d2 5f ad bd 2c 9e 2d 3d 02 21 ce 3d
       0.035532534 -0.08465542 0.042387173 0.100648895
0002e0 10 e3 31 3e eb 7e 0a bb 90 2b 0b 3d 37 9f 83 bb
       0.17371774 -0.0021132778 0.03397709 -0.0040167826
0002f0 34 cb 82 bd 92 e0 cb 3d d4 33 f1 3c 02 98 a3 bc
       -0.06386414 0.09954943 0.029443659 -0.019969944
000300 7f 36 df bd 3d 3d 9b bd 8d 5c a8 ba 19 e3 9a 3d
       -0.10899066 -0.0758004 -0.0012844965 0.07562847
000310 f8 14 8e bb 9a 6d 4c bb b2 b2 5d bd d2 56 01 bc
       -0.0043359958 -0.0031193257 -0.054125495 -0.007894235
000320 2a 62 8b 3d 26 47 e7 3b a3 26 ab bd 5d e0 09 bd
       0.06805833 0.007058042 -0.08356979 -0.033661235
000330 66 7d 9a 3b a4 b7 2c bd c0 06 08 3a 25 a4 bf bd
       0.0047146557 -0.04216732 0.0005188994 -0.0935748
000340 13 0e 2f bd cf 07 ff 3d 72 33 17 be 8c 9c d8 3b
       -0.04273803 0.12452661 -0.14765719 0.0066104587
000350 8d 41 92 bd 0a ca 4f 3d f0 0a 9a 3d a7 8d 83 bc
       -0.07141409 0.05072979 0.075216174 -0.016058756
000360 02 1a 00 3d f3 11 bb 3d d4 48 b6 3d aa 2c 67 bd
       0.031274803 0.09134283 0.089006096 -0.05643908
000370 0c 86 00 be 9f 27 0c be 1e 54 0f 3d 84 87 19 be
       -0.12551135 -0.13686989 0.03499233 -0.14993101
000380 66 e0 19 be d0 7c c4 3d e2 94 2d 3d 9a f9 20 bc
       -0.15027007 0.095941186 0.042378314 -0.009825135
000390 0b 60 11 3d a5 a0 eb bd 5e 5b c8 bd 7b a7 1f be
       0.035491984 -0.1150525 -0.09783052 -0.15591232
0003a0 0c a0 08 be ae a0 68 3d 0e 0f bb bc 65 23 5b bd
       -0.13342303 0.05679386 -0.022834327 -0.05350055
0003b0 63 97 34 bc 7a 87 79 3b 94 6d 4d 3c f0 1e 40 be
       -0.0110224215 0.0038075135 0.0125383325 -0.18761802
0003c0 38 e2 34 be 88 93 f1 3d e8 c6 47 3d a6 29 47 3e
       -0.1766442 0.117957175 0.048773676 0.19449481
0003d0 1d 11 2f be 1b 10 c3 bd 84 f3 b7 bd bb 4d 55 be
       -0.17096372 -0.09524556 -0.08981994 -0.20830433
0003e0 01 93 89 bd 76 e1 b4 3d a6 38 01 3e 7a 05 94 3d
       -0.06717492 0.08832066 0.12619266 0.07227607
0003f0 89 cb 60 3d 50 ae 19 3e c6 cd d5 bc 1f 33 94 be
       0.054881606 0.15007901 -0.026099097 -0.28945252

conv2.bias f4 [32]
000000 75 b9 ba bc f3 ff 4b bc 86 f9 f9 bb 12 55 5a bc
       -0.02279351 -0.01245116 -0.0076286225 -0.013325946
000010 1a 04 e1 b9 43 24 1e 3a e5 f6 a1 bc 93 d9 40 bc
       -0.000429184 0.0006032625 -0.019771049 -0.011770624
000020 ca 13 4b bc 3d e3 34 bc e4 b4 91 3a ee 5c 57 bc
       -0.012394855 -0.011040506 0.0011116532 -0.013144715
000030 cb 16 fd 39 02 bd 84 3a b1 bf c6 bb 3b 06 3f bb
       0.00048272902 0.001012713 -0.006065332 -0.0029148
000040 d6 2d 2f 3b 59 6b 12 bb 55 77 19 bc 79 e5 fb 3a
       0.0026730201 -0.0022341816 -0.00936683 0.0019218168
000050 0b 09 ad 3b 71 e8 a2 bb dc 27 ab bb 29 7d 02 3c
       0.005280619 -0.004971557 -0.0052232575 0.007964411
000060 45 70 19 3c 30 41 5e 3c 1d b4 5d 3b 36 2c a3 bc
       0.009365146 0.013565347 0.003382928 -0.019918542
000070 e3 e5 a8 ba 04 5a 22 bc 38 98 27 bb e9 a1 db bb
       -0.0012885894 -0.009909157 -0.0025572907 -0.006702651

conv3.weight f4 [32, 32, 3, 3]
000000 0b f8 24 bd 9d 93 52 3d a0 4c 9a bd ed 03 03 3e
       -0.040275615 0.051410306 -0.07534146 0.12794466
000010 c5 8d be 3d b3 8c 2c 3e e3 86 0b bd c8 b5 8d bb
       0.09304384 0.16850547 -0.034064185 -0.0043246485
000020 4e 61 18 bd de 99 e1 3d bc 47 af bd 18 47 9d bc
       -0.037202172 0.11015676 -0.08558604 -0.01919894
000030 2b cb 32 be 10 36 4e bd 80 1a 54 3d 95 c6 fa 3d
       -0.17460315 -0.050344527 0.051783085 0.12244908
000040 c7 56 2c bd 22 cf c0 3c 0a 8b 85 3d a2 96 af bd
       -0.042074945 0.023536269 0.0652066 -0.08573653
000050 70 8e bd 3d 0e 4d 1d bc ac 22 eb bd c0 fc 17 3c
       0.092556834 -0.009600891 -0.114812225 0.009276569
000060 7d 40 1b 3e a6 3f 85 3c 32 b8 21 3d 21 d5 08 3d
       0.15161319 0.016265702 0.039482303 0.03340638
000070 ab e7 0d bc 7b 56 46 bc 32 95 c7 bd d5 fb 3a 3c
       -0.008661191 -0.0121055795 -0.097452536 0.0114125805
000080 2a 35 f3 bd 77 7d eb 3d b8 23 1c bd 18 68 e6 3d
       -0.118753746 0.1149854 -0.03812 0.11250323
000090 fe 5d 16 3c 7a ab 33 3d fd 9c ff bd 3f b4 aa 3d
       0.009177683 0.043864705 -0.12481115 0.083351605
0000a0 01 6e 89 3d 3a b3 ed bc 2e c3 09 3c 28 cb 52 3d
       0.06710435 -0.029016126 0.008408351 0.051463276
0000b0 13 b9 1b be cc 2d 8f bb 2e 5b 19 3c 38 17 ab bd
       -0.15207319 -0.004369473 0.009360118 -0.08354038
0000c0 30 3b ec 3d 48 54 fe 3d 79 f9 a5 bc fa 0b 6b bd
       0.115347266 0.12418419 -0.02026056 -0.05738447
0000d0 4d ca 65 bd fe fc 17 3d 92 7a c9 bc c8 8b ff bc
       -0.056101132 0.037106507 -0.024594579 -0.031194583
0000e0 d8 99 b5 b9 cf 23 93 bc d4 5a 9d 3c 83 f1 f0 3d
       -0.00034637633 -0.01796141 0.01920835 0.11764815
0000f0 f9 da b9 bd 4f 51 ad 3c cb 29 8e 3d 16 f5 52 bc
       -0.09074969 0.021156935 0.06941565 -0.012875816
000100 55 6e cc bd 8f e0 66 3d 0b ff 43 3e bd 8a 9b bd
       -0.09981982 0.0563665 0.1914026 -0.075948216
000110 b6 01 77 3c 30 d5 1a bd ed 81 9e bc 85 8a a7 3d
       0.0150760915 -0.037800968 -0.019349063 0.081807174
000120 72 fc bd bc 18 c5 62 bd 23 b5 a2 ba 21 65 6a bd
       -0.023191664 -0.055363744 -0.0012413602 -0.05722535
000130 3d 47 c3 bc 83 0e 13 3c 33 43 94 3d 28 b6 8a 3d
       -0.02383768 0.008975628 0.0723938 0.06773025
000140 bf 14 86 bd 5a 76 47 3d 71 27 9c bc 25 09 85 bd
       -0.06546926 0.048696853 -0.019061776 -0.06495885
000150 72 71 14 be c7 c7 14 3d 66 48 43 bd 75 1d 91 3d
       -0.14496401 0.036323335 -0.047676466 0.070856966
000160 cb 27 c5 3b 3e 89 62 bd f4 32 f1 ba c8 a4 74 bc
       0.0060167066 -0.055306666 -0.0018402026 -0.014931865
000170 96 34 2e 3d e5 24 4d 3e d3 77 b1 3d c9 bc 86 bc
       0.04253062 0.20033605 0.08665433 -0.016447442
000180 05 f1 1e bd fc 52 bf bd 54 27 ca bd 5d b6 0d 3c
       -0.038804073 -0.09342 -0.098707825 0.008649436
000190 a7 4e 6f 3d ff 94 b5 3d ad e9 d8 3d ef d9 99 3c
       0.058424618 0.088663094 0.10591445 0.018780677
0001a0 cd 69 f0 3a fa 49 c5 39 82 97 c9 3d 40 36 48 bd
       0.0018342078 0.00037629885 0.09843351 -0.04887986
0001b0 2e 06 b8 3c 95 73 0e 3d 6b 63 56 3d e3 56 ec bd
       0.022463884 0.034778196 0.052340906 -0.1154001
0001c0 f0 ee af bd 93 f6 8a bd 4c 98 39 bd 16 02 75 3b
       -0.085904956 -0.067853115 -0.045311257 0.0037385277
0001d0 3a 37 3d bd bc 33 4e 3d 66 64 2e bd 15 bc f1 3c
       -0.046195246 0.050342306 -0.042576216 0.02950863
0001e0 bf 03 2b bd 05 9d 15 bd 6a 3d cf bd 84 29 a5 3d
       -0.04175162 -0.0365267 -0.10119136 0.08064559
0001f0 10 41 47 bd 11 db f7 3d 6a ef 96 3d 6c d4 aa 3d
       -0.048646033 0.121023305 0.07369883 0.083412975
000200 3c cc 52 bd bc 50 c4 3c a5 10 8c 3d ea 4e 73 3b
       -0.051464304 0.023964278 0.06839112 0.0037125894
000210 16 4f bb 3d 5e 39 ae 3d 6c 39 3a 3d 5f e0 36 3c
       0.09145944 0.08507036 0.045464918 0.011161893
000220 01 18 06 be f6 2e a1 bd 5b c7 8a bd e4 53 c4 bc
       -0.13095094 -0.07870285 -0.06776305 -0.023965783
000230 d0 81 d4 3d e1 ac 33 b9 89 f7 3a bd 74 b2 8c bd
       0.10376322 -0.00017135173 -0.045646224 -0.06869975
000240 2e 03 50 3d 74 a1 e5 bd 66 36 0e 3d 03 a6 70 bd
       0.050784282 -0.11212435 0.034719847 -0.05875207
000250 a2 7e 1d 3d 77 11 88 bd 0e f0 98 3d b3 ae a3 bd
       0.038450845 -0.06643956 0.07467662 -0.079923056
000260 3c 71 a0 bd 47 f5 0f be 5c 3d 4a bd 12 f4 1a 3d
       -0.07834098 -0.1405841 -0.049374923 0.03783042
000270 70 38 e3 bc 82 13 9d bc a4 e9 09 3d f4 8e a0 bd
       -0.027736872 -0.019174341 0.033670083 -0.07839766
000280 fa 45 87 3d f9 10 04 bd 14 3d 60 bd 0d f9 04 bd
       0.06605144 -0.03224275 -0.05474575 -0.032464076
000290 4e d0 14 3d 9a 8d 1a 3b 23 03 b5 bd f4 c9 a8 3c
       0.036331467 0.0023582936 -0.08838489 0.020604111
0002a0 3d ec 86 bd 74 20 e3 bc c8 45 67 bd 75 03 17 bd
       -0.065880276 -0.027725436 -0.056463033 -0.03686853
0002b0 51 25 60 3d 3a 0d 21 3d 8d 79 d3 3c 32 a4 45 bd
       0.054723088 0.039319254 0.025814796 -0.048252292
0002c0 93 0b 37 3b 38 11 ed bd 80 f7 86 bd e9 70 8d ba
       0.0027930483 -0.1157555 -0.06590176 -0.0010791096
0002d0 6e 76 12 bd 8b 23 dd 3b 34 be b2 bd a8 36 46 3d
       -0.035757475 0.006748622 -0.087276846 0.048391968
0002e0 5b 95 cb 3c 99 2d 19 bc 6b a3 f9 3c 24 cd 3a bc
       0.024851492 -0.00934925 0.030473432 -0.011401448
0002f0 6a 2e 7f 3a c0 1c 9a 3c 8b 89 b5 bc fa 99 b5 3d
       0.0009734394 0.018812537 -0.022160312 0.08867259
000300 f3 57 28 bd f0 76 10 be 48 92 9e 3a 46 8f e3 bc
       -0.0410995 -0.14107871 0.0012098039 -0.027778279
000310 2d 93 58 bc 31 b7 b6 3d c1 7c 10 bd 44 04 b9 bb
       -0.013218683 0.0892166 -0.035275225 -0.0056462605
000320 f2 9a 95 bd 92 66 7a bb e8 47 29 3d e4 8f 4c 3d
       -0.07304944 -0.003820811 0.04132834 0.049941912
000330 57 55 b4 bd e9 07 50 3d 9a c8 a5 3d 60 b8 4b bd
       -0.0880534 0.050788794 0.08094902 -0.04973638
000340 31 92 a6 3c c4 f0 e0 bd 2f 99 a6 3d 01 b9 b1 bd
       0.020333381 -0.109834224 0.08134686 -0.08677865
000350 ec ec c8 3c 7e 01 4c bd 0a b3 f4 bd 24 aa e0 3b
       0.024527036 -0.04980611 -0.119482115 0.00685622
000360 ef 0e 75 bd d8 1b a3 3d a7 cc c6 3d 03 da 18 bd
       -0.059828695 0.07964295 0.09707003 -0.037317287
000370 03 88 3d 3d 2a 75 17 3d 01 a8 ad bd 65 f8 2a bc
       0.04627229 0.03697697 -0.0847931 -0.010435198
000380 10 61 b9 3d ce 76 b1 bc 29 36 f7 3c af 6c 23 3d
       0.09051716 -0.021663096 0.030177193 0.03989857
000390 73 88 d5 bc 91 47 b5 bd ac 73 ef 3c d5 d8 80 3d
       -0.02606604 -0.08851541 0.029229961 0.062913574
0003a0 b3 05 aa 3c 20 a2 d5 bd 69 91 83 bd ff cf 9f 3d
       0.02075467 -0.104313135 -0.06424219 0.07803344
0003b0 a9 ee 5e 3d 84 6e d7 3d c5 85 79 3d b3 af 25 bc
       0.054426823 0.10519126 0.06091859 -0.010112691
0003c0 be 54 90 3c 85 d8 f7 3c 95 84 38 bd 81 62 4c bc
       0.017618533 0.030254612 -0.045048315 -0.012474657
0003d0 b2 cd 4b bd 17 d0 06 3d 92 73 f4 3d 79 50 3d 3c
       -0.049756713 0.032913294 0.11936106 0.011554831
0003e0 48 88 5e bd 19 2a ca bc 76 27 81 bd b1 95 04 bc
       -0.054329187 -0.024678277 -0.06306355 -0.00809233
0003f0 7d 6e 95 bd a8 a7 0b bd a2 62 6e 3e 91 66 1e bd
       -0.072964646 -0.034095436 0.23279813 -0.038672034

conv3.bias f4 [32]
000000 43 db b1 3d 02 33 95 bd eb f8 4c bd 95 1d c8 3c
       0.08684399 -0.072851196 -0.050042074 0.024428168
000010 e0 2c 85 bb 9e a3 f7 bd 1d 7a 1a bd 37 96 0d be
       -0.0040641874 -0.120917544 -0.037714113 -0.13826834
000020 75 70 33 bd 3d 0d d1 bb f9 70 0f bd 8e 7d 08 bd
       -0.04380842 -0.006379752 -0.03501985 -0.033322863
000030 da ca 97 3b 29 6b c7 bc 29 c4 47 3c 61 2e 12 bc
       0.004632336 -0.02434309 0.012192764 -0.00892219
000040 a2 64 da 3d f2 df cc bc fb 9d e8 bd 4f b2 51 bd
       0.106637254 -0.02500913 -0.113582574 -0.05119544
000050 f1 d7 d5 bc 74 d4 0b 3c 81 62 0e bc 85 d3 ef bc
       -0.026103945 0.0085345395 -0.008690477 -0.029275665
000060 fd 27 81 ba 53 c8 08 be 5f 0d fb 3c 91 80 70 3c
       -0.0009853836 -0.13357668 0.030646024 0.01467909
000070 79 6f a8 bb 97 d3 01 3e 7b 59 b4 3c b8 e1 85 bc
       -0.0051402417 0.12678371 0.022015324 -0.016342983

conv4.weight f4 [32, 32, 3, 3]
000000 ba 6a c3 bc 42 c5 11 3d b2 c8 7f 3d de 24 39 bd
       -0.023854602 0.03558851 0.062447257 -0.045201175
000010 a9 96 89 bd f1 6b ac bd cd a0 68 bc e8 fd 80 3d
       -0.06718189 -0.08419026 -0.014198494 0.06298429
000020 eb e6 7b bd 7a ae cb bc 7b 63 bf bd 8c 0c cc 3c
       -0.061499517 -0.02486347 -0.09345146 0.024908327
000030 f0 7c de 3c 93 b0 37 3d 90 cc c3 bd 46 a0 d2 bd
       0.027159184 0.04484613 -0.095605016 -0.10284476
000040 85 a0 be 3d 0f 69 cf 3b 94 89 e5 bd ea 4f 54 bc
       0.093079604 0.0063296626 -0.112078816 -0.012958506
000050 5a d6 02 3e 0d 7a 27 3d ff a9 29 be e8 88 c6 3d
       0.12777081 0.04088788 -0.16568755 0.096940815
000060 dc 37 07 bd c0 40 93 3e f6 01 a0 bc 60 05 d6 3d
       -0.033012256 0.28760338 -0.019532185 0.10450244
000070 9a 2a 1f 3c 51 33 ef bd ec 6c 5f bd b6 9d 54 3d
       0.009714747 -0.1167971 -0.054547235 0.051908217
000080 4a f2 79 bd 5c 5c 4c bd 1a ca fa 3c 02 8a fa 3d
       -0.06102208 -0.04989277 0.030613948 0.12233354
000090 ca eb b0 bc f6 19 c6 3c 40 c1 e6 3d d6 52 40 3c
       -0.021596808 0.024182301 0.11267328 0.0117385
0000a0 46 f1 2d 3c ff fc d1 bc 06 cf bc bd 9b d7 dc bd
       0.010616606 -0.025633333 -0.09219174 -0.10783311
0000b0 fa 45 cb bd 5d 1c 9b 3d cb ed ed 3d f5 db 02 be
       -0.09925456 0.07573769 0.11617621 -0.1277922
0000c0 a3 95 88 3d e3 b4 18 be ef ec bc bd 11 d4 50 3d
       0.06669166 -0.14912753 -0.09224879 0.050983492
0000d0 48 d4 1b be db 1b b1 bc a6 91 e1 3d 84 99 42 3d
       -0.15217698 -0.021619728 0.11014108 0.047509685
0000e0 c5 11 ae bd a7 e4 45 bd 5d 34 96 bd aa ce 07 be
       -0.08499483 -0.048313763 -0.07334206 -0.1326243
0000f0 33 2b 03 be 46 b0 05 3d c7 4d 5a 3d 78 c7 f9 bc
       -0.12809448 0.03263881 0.05329683 -0.030490622
000100 46 7c 28 3d d6 e4 6a 3d e0 e2 dd 3c b4 d2 56 3e
       0.04113414 0.05734714 0.027085721 0.20978814
000110 49 24 d2 3c 56 5c 27 bd 9f a3 90 bd 89 82 80 3d
       0.025652068 -0.040859543 -0.07062458 0.062748976
000120 bc 58 62 3c 5f 90 13 be 87 92 72 bd ca b1 ec 3d
       0.013815101 -0.14410542 -0.05922177 0.11557348
000130 67 d9 a0 bb 7b b6 5e 3c a7 bb f2 ba 31 e2 b0 bd
       -0.004908729 0.013593311 -0.001851906 -0.086368926
000140 07 be ce 3d 48 f5 42 bc a3 cf dd bd 04 81 8e 3d
       0.100948386 -0.0118993 -0.10830619 0.069582015
000150 e1 c6 7e 3d 24 7d a8 3d 4b 8b 4f bd 75 b0 06 bd
       0.062201384 0.08226994 -0.05066995 -0.032883126
000160 85 67 6e bc 86 9f fd 3c 1b 8d 1b 3d 46 10 57 bd
       -0.014551048 0.030959856 0.037976366 -0.052505754
000170 48 aa bb 3d 9c d0 83 3d e8 94 7b bc 6d 12 4d bd
       0.09163338 0.064362735 -0.015355326 -0.0500664
000180 7c a7 6b bd 7e 4c 58 bd 0d 60 78 3d 8a be b6 bc
       -0.057532772 -0.052807324 0.060638476 -0.022307653
000190 d1 01 45 3e e0 25 5e bc 5f 1f a9 bd 39 cd 5b bd
       0.19238974 -0.013558835 -0.08257937 -0.053662512
0001a0 af 41 8c bc 87 42 b6 3d fc f3 f9 3d 22 3b c0 bd
       -0.017121164 0.08899408 0.122047395 -0.09386279
0001b0 f6 dd 60 bd 10 2b 52 be 66 09 04 3d ed 7c cd 3d
       -0.05489918 -0.2052424 0.032235526 0.10033593
0001c0 8a cd ad bd 16 ef 92 3d 10 d4 42 3c ba 86 88 bd
       -0.08486469 0.07174508 0.01189138 -0.06666322
0001d0 c6 98 80 bd d6 e0 0a 3e 06 c2 1f bb bf 69 54 bd
       -0.06279139 0.1356233 -0.0024377122 -0.05185866
0001e0 bd 79 5b bc fa 51 d5 bd ff 39 94 3d 8b 2a 3c 3c
       -0.013395724 -0.104160264 0.072376244 0.011484752
0001f0 97 1c 8e bd 8a 0f 9a bd 9a cc 83 3c f0 65 09 bd
       -0.06939047 -0.07522495 0.016088773 -0.03354448
000200 d7 a2 76 bc fd 66 a8 bd e6 17 f5 bc 69 f2 fa 3d
       -0.0150534725 -0.082227685 -0.029918622 0.12253267
000210 62 92 b5 3c cb b3 66 bc e6 05 a2 39 b7 86 29 3d
       0.022164527 -0.014080952 0.00030903443 0.04138824
000220 7a 2d fe 3d 3c d0 85 bd 4c 50 46 3c c9 6b 92 bd
       0.12411018 -0.06533858 0.012104105 -0.07149465
000230 cb a8 c0 bd 44 7d 69 bc 86 de 88 3c bc 99 ec bd
       -0.09407195 -0.014251057 0.01670767 -0.1155276
000240 29 ba 7b bd 3b 32 07 3e 06 2e b6 3c a0 2d 51 3d
       -0.061456833 0.13202755 0.022238743 0.051068902
000250 8e 88 61 3d 9f 6b 0b bc 42 2f 92 bc b4 4f 8c bd
       0.05506187 -0.008509546 -0.0178448 -0.0685114
000260 50 ca 74 bd b7 91 20 be e0 8d 61 3d 38 ff d2 bd
       -0.059763253 -0.15680586 0.055066943 -0.10302585
000270 ea 6d 5c bd bd ba 35 3e d3 a9 30 bd 9a ba c0 bc
       -0.05381576 0.17747016 -0.043130707 -0.023526479
000280 a8 5d 1b bd 55 6f d4 3d d5 70 2f bd 4c ce 68 3b
       -0.037931114 0.103727974 -0.042832214 0.0035523353
000290 f3 82 49 bd ae 1d a2 3d d6 60 38 3e 0a 73 8c bd
       -0.04919715 0.07915817 0.1800569 -0.068578795
0002a0 ca b8 98 bb e5 16 32 be 8d a9 a6 3b 0a 36 51 3c
       -0.0046607004 -0.17391546 0.00508613 0.012769232
0002b0 7f 70 5d bd e7 e7 dc bc 3e 87 16 3d b8 c9 b4 bd
       -0.054062363 -0.026966048 0.03675007 -0.08827537
0002c0 e5 43 2f bc ef c9 b6 bd 69 bc 52 3c e7 12 da 3d
       -0.01069734 -0.089252345 0.012862303 0.106481366
0002d0 c0 2d 9c 3d 45 7e 24 bd 95 38 01 bd 65 79 99 3d
       0.076259136 -0.040159483 -0.0315481 0.07493857
0002e0 a8 c4 22 bd ec f8 b5 bc af 98 20 be e8 ec ca bc
       -0.039738327 -0.022213422 -0.15683244 -0.024771169
0002f0 25 b4 a2 3d 2a 0f 86 bd 2f 52 c1 3c fb 5e 81 bc
       0.07944516 -0.06545861 0.023598759 -0.01579236
000300 c2 10 cc 3b 36 62 b1 bd 92 70 d4 bc df ce 18 3d
       0.0062275836 -0.086613104 -0.025932584 0.037306663
000310 43 43 ca 3d cd cc 03 be fa 54 04 be 4c 13 5a 3e
       0.098761104 -0.12871094 -0.12923041 0.21296424
000320 c2 4b 9d bd 5c 69 b0 3d 4a a7 28 3d ab ae c9 3c
       -0.07680465 0.08613846 0.041175164 0.024619421
000330 3f 7b fe 3d e8 ec 46 bd e8 f8 92 3c 23 50 57 3d
       0.12425851 -0.048565775 0.017940953 0.05256666
000340 5f 98 bb bc 5c 54 16 bc 04 06 1e be 36 fd 11 3e
       -0.022899805 -0.009175386 -0.15431982 0.14256749
000350 96 5d a3 b9 b4 4e b4 3b d2 0b 57 3b 75 98 f8 bb
       -0.0003115951 0.005502546 0.0032813442 -0.0075865337
000360 d3 80 83 3d 61 97 9d bd 70 5a ab 3b 5f 69 ad bd
       0.06421056 -0.07694889 0.005229287 -0.084673636
000370 b4 17 f8 3c d6 33 f2 3d c3 1c e7 bd 79 ea a1 3d
       0.03028474 0.11826293 -0.11284783 0.0790605
000380 8b e0 1f 3d e2 ae dd bd d2 df 32 be c7 42 d8 3d
       0.0390325 -0.10824372 -0.17468193 0.10559612
000390 73 16 67 39 f6 fd 3f bd 0e a8 70 3d e8 d3 6b 3d
       0.0002203824 -0.046873055 0.05875402 0.057575136
0003a0 b6 c0 7d 3e 43 f7 29 be 86 6b 7d bd 07 ad 05 be
       0.24780545 -0.16598229 -0.06187012 -0.13054286
0003b0 8b 8e b5 3c 43 84 a4 bd fa f0 bd 3d 6f db 85 39
       0.022162696 -0.080330394 0.09274478 0.00025531228
0003c0 fb d0 35 bc ea 3a 0b 3d 10 79 bb bc 10 cc 66 3d
       -0.011097188 0.03399173 -0.022884876 0.056346953
0003d0 d6 6b 64 3d 5c 85 09 bc 16 f7 82 bd cd e0 31 bc
       0.055766903 -0.008393612 -0.06394784 -0.010856819
0003e0 8e 89 af 3d 0e 83 0b be e3 19 8b 3c de 11 10 bc
       0.08571158 -0.13624212 0.016980117 -0.008793322
0003f0 5c 7e 42 3d 7b 8c f8 bd fa 09 ea 3c 7c 2b b2 bc
       0.047483787 -0.121361695 0.02856921 -0.02174925

conv4.bias f4 [32]
000000 ec ba f6 bc 59 4a 14 3c f9 ab 75 bd a1 e0 a5 bc
       -0.030118428 0.009050929 -0.05997846 -0.020248713
000010 45 69 26 be 96 ac f3 bc d7 05 89 bd 80 e1 01 bc
       -0.16251095 -0.029745381 -0.06690567 -0.007927299
000020 29 88 d1 bc 07 6b d7 bc 67 03 8f bd 3e 36 23 bd
       -0.025577622 -0.026296152 -0.06983071 -0.03984665
000030 ea 92 2b bd a9 1f bc bc 75 19 cc bd 20 0f c1 bd
       -0.041888155 -0.022964315 -0.09965793 -0.09426713
000040 21 64 57 bd f3 cf 68 bd 38 68 81 bb 19 9a 3a bd
       -0.052585725 -0.05683894 -0.0039491914 -0.045557115
000050 44 ee dc bc 09 a0 4c 3b 34 9f b1 3d a8 8b d6 bd
       -0.026969083 0.0031223318 0.08672944 -0.10475856
000060 6e 4a 32 bd ee ea 0a be e5 2c b2 bd 56 57 9d be
       -0.043528013 -0.13566181 -0.08699969 -0.30730695
000070 12 b1 05 bc 84 e6 65 bc f5 cf 5f ba a7 dc 37 bd
       -0.008159893 -0.01403201 -0.0008537763 -0.044888165

linear.weight f4 [32, 800]
000000 19 94 2b 3d df fc a2 3d 9d 8c 54 bc 78 8e 3b bd
       0.041889284 0.079583876 -0.012972978 -0.045790166
000010 47 41 0e 3a 79 fb 5d be b1 53 de 3c 75 8a 69 bd
       0.0005426597 -0.2167796 0.027139517 -0.05701681
000020 42 68 d4 bc d0 a3 d4 3d 9b 9d fc bc e6 9c 8a bd
       -0.02592862 0.10382807 -0.03083687 -0.06768207
000030 cd 4a 27 bd 0c 96 41 bd fd 2b dd bc 3d d6 c1 3d
       -0.04084282 -0.047262236 -0.026998514 0.09464691
000040 c5 12 6c 3d cf 98 17 bc be 25 22 3c e7 c4 4b bd
       0.057635088 -0.009252741 0.009896694 -0.049748328
000050 27 ab c9 3d 45 77 4b bb 89 77 15 bd 00 69 83 bc
       0.09847098 -0.0031046432 -0.03649095 -0.016041279
000060 3a 26 74 bc 30 22 6e 3d ef 5f 83 bd f9 60 26 3d
       -0.014901692 0.058138072 -0.06414782 0.040619824
000070 65 2b b6 bb 28 b7 b4 3c 4e 02 39 be 3a cb a1 3d
       -0.0055593722 0.022059992 -0.18067285 0.079000905
000080 b8 77 b8 bc 2b 4e 1c bd 61 bc bb 3d b3 d3 46 3d
       -0.022518024 -0.038160484 0.0916679 0.048541736
000090 69 1d c9 39 27 cb 1c bd ad e0 12 3d 85 18 30 3c
       0.0003835962 -0.03827968 0.0358588 0.010748033
0000a0 99 fc 8c bc a9 3e 42 be 3d 91 1c bd 24 08 a2 bc
       -0.017210292 -0.18969215 -0.038224448 -0.019779272
0000b0 a9 66 e5 3d d2 46 21 bd eb c5 dc bb d1 4e 57 3d
       0.112012215 -0.03937418 -0.006737461 0.0525654
0000c0 c6 ab 08 3d 6c f6 a1 3c a7 7a 1c be 13 e2 aa 3c
       0.03336694 0.019770823 -0.15281163 0.020859754
0000d0 de b5 59 bc fd f1 a0 3c f5 45 31 bc 89 11 9b 3d
       -0.013287989 0.019646639 -0.010819902 0.07571704
0000e0 49 1c 91 bd f1 25 02 bc a6 2a 3f 3b d7 6e 46 bc
       -0.07085473 -0.007943616 0.0029169708 -0.012111387
0000f0 01 f8 5b bb 26 8b 9f bb 5c 15 4b ba 7f 68 93 bc
       -0.003356457 -0.0048688827 -0.0007747018 -0.017994164
000100 30 9d a8 bc 7f ed 57 bc b8 1b aa 3d f2 0d 80 3a
       -0.020582765 -0.013179182 0.08306068 0.0009769781
000110 03 d9 53 3c 0e 36 81 bd 12 f3 ab 3d f2 ef 9a bc
       0.012930158 -0.06309138 0.08395971 -0.018913243
000120 3a f6 a9 3b b5 62 e8 bc e4 ef 81 3c 0b 14 cc 3d
       0.005186823 -0.02836738 0.01586146 0.099647604
000130 35 ae 7b bd 64 16 a9 3d 6d d1 c1 3c ea 78 5f bd
       -0.061445434 0.08256224 0.023659432 -0.054558672
000140 81 95 bc bd 08 11 3a 3d 78 93 fd bc 3d 59 46 bd
       -0.09208203 0.0454264 -0.030954108 -0.048424948
000150 fb b7 34 3c 74 65 92 3b 50 4b c7 bc f3 bf 64 3c
       0.0110301925 0.0044676606 -0.024327904 0.01396178
000160 71 8f 01 3d a8 07 c3 3c 46 9a 6b 3d cc 9b dd bd
       0.031630937 0.023807362 0.057520173 -0.108207315
000170 05 e6 40 3d 7f 3b 19 3d b9 e7 27 3d 74 0b f2 bc
       0.047094364 0.037410256 0.040992472 -0.029546477
000180 39 74 4b 3d 95 bf 2b 3d 7a 7f d2 3c 90 6b 53 3c
       0.049671385 0.041930754 0.025695551 0.012904063
000190 fd 5e bd bd 73 37 6b 3d d0 31 83 bd 81 a6 45 bd
       -0.09246633 0.057425927 -0.06405985 -0.048254494
0001a0 45 a3 2e bc b0 79 84 bd 9d 7e 1b 3e 76 b8 80 3d
       -0.010659044 -0.064685225 0.15185018 0.06285183
0001b0 3d 20 2c 3d 0f 5b b8 3c 2b 20 d0 bd 08 75 db 3d
       0.042022932 0.022504358 -0.101623856 0.10715681
0001c0 04 86 b2 3d e4 9b a5 3c 97 8d 4a 3d 75 36 b2 bd
       0.08716968 0.020215936 0.049451437 -0.08701793
0001d0 e2 1c 88 bd 47 79 9d bd 3d e8 d4 bd 8c 70 03 be
       -0.06646134 -0.076891474 -0.103958584 -0.12835902
0001e0 6b 53 d8 bd 7b be 09 be 85 a9 cc bd 5d f9 01 be
       -0.10562786 -0.13451569 -0.09993271 -0.12692781
0001f0 82 bf 18 be c8 44 0c 3d b2 ae f1 bc 60 05 61 3d
       -0.14916804 0.034245282 -0.029502247 0.054936767
000200 07 58 f8 bc 2c ad 46 bc 09 2a e3 3b a2 b0 f3 3d
       -0.030315412 -0.012126248 0.006932501 0.118989244
000210 54 85 20 3d ed 52 cf bc fc 94 bb 3b 0f ed d8 39
       0.03918965 -0.025308097 0.0057245474 0.00041375353
000220 3b 9e dd bd 55 bf 75 bc d2 02 17 3c e3 44 77 3d
       -0.10821196 -0.01499923 0.009216981 0.06036843
000230 e7 8a 87 bc 1b f1 46 3b 8b c3 bd bc aa 5b 96 bd
       -0.016545726 0.0030356112 -0.023164531 -0.07341702
000240 be a5 f8 bd 24 fd 08 bc 9e d0 8b 3d 42 73 03 3d
       -0.12140988 -0.008361135 0.068269 0.03209234
000250 31 3d aa 3c 50 d9 a6 3d d3 15 09 be 2e 26 96 3d
       0.020781131 0.08146918 -0.13387232 0.07331501
000260 79 24 1d bc 44 b7 8f 3c a1 77 f3 3c 54 1b 5e bb
       -0.009591215 0.017543443 0.02972013 -0.00338908
000270 8c e1 65 3d 58 4c c0 bd 56 12 d7 bc c8 cb 8c 3d
       0.0561233 -0.093895614 -0.02625386 0.06874806
000280 a2 3d ef bd 66 22 a1 3d 23 a7 0e bd b8 c1 0f bd
       -0.116816774 0.07867889 -0.034827363 -0.035096854
000290 8b 7c 8c 3b 65 cb a4 3d 08 8a 18 bc 6c 69 0a bd
       0.0042873076 0.08046607 -0.009310253 -0.033791944
0002a0 e6 5e 9b bc 0e 19 e9 bc 5c 2b 2c 3e d7 48 fe bb
       -0.01896615 -0.02845433 0.16813415 -0.007760148
0002b0 20 3b 0c bc c1 50 79 bd 23 d4 22 bd c5 4c 01 3e
       -0.008559018 -0.06086803 -0.03975309 0.12626942
0002c0 37 cc 03 be c3 29 1d 3d e8 be af 3c 30 d8 7b bd
       -0.1287087 0.038369905 0.021453336 -0.06148547
0002d0 b2 50 52 be cd 4b 29 3b 33 ed bd bc 81 e2 31 bc
       -0.20538595 0.0025832534 -0.023184394 -0.010857225
0002e0 41 f7 07 3c 0d 61 f9 3c e1 6e c8 bc c8 4e 89 bb
       0.008298696 0.030441785 -0.024466934 -0.0041902997
0002f0 9f fa e8 bb 39 e7 61 3d 8e 70 b7 bb cb 7d 06 3d
       -0.0071099545 0.05515215 -0.0055981344 0.03283481
000300 1c 8a 37 3d da da 36 3d 37 ad c8 bd 7b 82 62 bc
       0.044809446 0.044642307 -0.09798663 -0.013825054
000310 17 cd 52 3d ce 38 be 3c bc e2 91 3c 14 c3 5c 3d
       0.05146512 0.023220446 0.01780831 0.05389698
000320 ad ad 4c bc 71 f3 5d 3d de f5 4d bc 8c 8e 13 bd
       -0.012492579 0.054187242 -0.012570826 -0.036024615
000330 25 6c 14 3c 95 79 e7 3d 67 a3 8b bb b9 cc 20 3d
       0.009058987 0.11302487 -0.0042614224 0.03925774
000340 20 4a 76 bd 4d e2 00 3d c7 28 52 b8 14 87 dd 3c
       -0.060129285 0.031465817 -5.010588e-05 0.02704195
000350 d7 2c 49 bd ab 87 44 bc fa 19 b3 ba d5 ef dd bc
       -0.04911503 -0.011995236 -0.0013664358 -0.0270919
000360 1e 56 3f bd 7d f3 c9 3b b7 37 40 3c 6e 0d c6 bb
       -0.046712987 0.0061630593 0.011732033 -0.0060440814
000370 49 c5 36 3d 14 11 1d bd 2b 99 bb bb 25 47 2f bd
       0.04462174 -0.038346365 -0.005725046 -0.042792458
000380 31 21 1f bc 49 1a 5e 3d 66 c4 25 3d a3 13 b0 3a
       -0.009712503 0.054224286 0.040470503 0.0013433587
000390 1c 39 dd bd 8e 4c 76 3d 9f 43 69 be 69 47 5e bc
       -0.108019084 0.060131602 -0.22779702 -0.01356683
0003a0 dd c4 9c bc 37 61 90 bc 27 5a 7e bd 3d 5f ac 3c
       -0.01913684 -0.01762448 -0.062097695 0.021041507
0003b0 89 c1 76 3d 0e 35 65 bc 06 92 3c 3d fb c1 21 3c
       0.060243163 -0.0139897 0.046037696 0.009872909
0003c0 38 43 e1 3d ac 87 0f be 83 5a 66 bd bc 26 21 bd
       0.10999149 -0.14016598 -0.056238662 -0.03934358
0003d0 35 a3 70 3b 28 ff 60 3d e7 2d 4f 3c e7 42 f3 bb
       0.0036718373 0.054930836 0.012645221 -0.007423747
0003e0 fa 22 14 3d 0d cc 77 3c b4 91 12 bd 15 43 09 bd
       0.03616617 0.015124333 -0.035783485 -0.03351124
0003f0 cc b5 e8 3b 2e 8f 0a 3b f6 1e 67 3d e3 f1 27 3c
       0.00710175 0.002114247 0.05642601 0.010250541

linear.bias f4 [32]
000000 66 e3 80 3e 71 bc 48 be 24 af 48 be d4 a5 a6 bc
       0.2517349 -0.19603135 -0.19598061 -0.020342745
000010 db d6 e9 ba a2 1d ba 3d 12 f5 47 be 59 9e 95 3d
       -0.0017840521 0.09087683 -0.1952708 0.07305593
000020 36 db 3c 3c 70 39 42 bd 59 76 7d 3b 9e 81 58 be
       0.011526873 -0.047418058 0.0038675277 -0.21143195
000030 d4 89 f3 bc f9 4b 3d 3e 50 6f 3a be 72 10 99 3d
       -0.029728808 0.18486013 -0.18206525 0.0747384
000040 72 a5 66 bd fd 38 30 3e 81 ba 51 3d 1e 2d 6e be
       -0.056310125 0.1720924 0.051203255 -0.23259398
000050 79 9e 3d 3d d6 b0 f5 bb ae e8 c1 3c a8 25 b0 bc
       0.04629371 -0.007497887 0.02367052 -0.02150233
000060 8a e5 7d bd fc 22 59 3d 67 1e b1 3c 75 6b 52 3e
       -0.061986484 0.05301188 0.021620942 0.20548804
000070 78 20 a5 3c 88 b5 2b 3c a1 17 6a be 7f c0 04 bc
       0.020157084 0.010480292 -0.22860576 -0.008102535

critic_linear.weight f4 [1, 32]
000000 64 33 0c 3e 6e e5 0f be aa d6 28 be c9 d8 88 3a
       0.13691479 -0.14052364 -0.16488138 0.0010440584
000010 b8 36 19 3a 59 9d 9c 3b eb 04 89 bd 9f 49 aa 3a
       0.00058446405 0.0047794995 -0.06690391 0.0012991911
000020 b8 d8 ca 3a 0b 1a 35 3a 35 33 a1 3b 8b 80 ae bd
       0.0015475964 0.0006908483 0.0049194344 -0.085206114
000030 96 8f 1e 3b 58 fa ab 3d f5 57 f1 bd 95 cb fb ba
       0.002419447 0.08397359 -0.117843546 -0.0019210452
000040 df 14 12 bc b1 98 ca 3d 14 7a e1 3b f5 55 24 be
       -0.008916109 0.09892405 0.006881008 -0.16048415
000050 94 b3 5f 3b a0 b6 48 3b ec eb da 3a 98 a9 01 3b
       0.0034134137 0.003062643 0.001670239 0.0019784924
000060 bd 0e 6c 3a 73 4c c8 ba 1c 53 42 3b 7f 6b e0 3d
       0.0009004882 -0.0015281573 0.0029651588 0.10958003
000070 b4 1e 43 3a ad 41 f7 39 0a c2 c7 bd 50 7d 46 ba
       0.0007443235 0.00047160444 -0.09753807 -0.00075717736

actor_linear.weight f4 [6, 32]
000000 4f 85 a0 3d 3a f6 29 3a 86 4b 56 be eb cb 22 3d
       0.078379266 0.0006483529 -0.20927247 0.039745253
000010 4c 03 2f 3b 49 f4 04 3e b4 f8 9f bd e2 95 99 3d
       0.0026704846 0.12983812 -0.07811108 0.07499291
000020 97 34 e8 b9 93 a0 78 bc f5 87 57 3c b5 97 4b bd
       -0.0004428967 -0.015175003 0.013154973 -0.049705226
000030 70 ae 39 3c 3f b9 5c 3e f1 0e 3d be fe ad f0 3d
       0.011333093 0.21555041 -0.18462731 0.117519364
000040 9c 7a a3 bd 76 21 22 bb 2f 5e 8b 3d f4 ff 4b be
       -0.0798237 -0.0024739183 0.068050735 -0.19921857
000050 e0 67 97 3c 2a 2f ec bc e5 02 8b bb a1 34 dc 3d
       0.018482149 -0.028831083 -0.0042422884 0.10752226
000060 31 94 2a 3a 08 bf af 3d 1b fe d7 3d 84 21 6f bb
       0.00065070676 0.08581358 0.10546514 -0.0036488483
000070 50 0f f3 3b 49 b3 60 ba 34 d8 a9 bc 8b e5 b7 bc
       0.007417597 -0.00085716374 -0.020732976 -0.022448322
000080 dd 97 ce 3d b2 b5 c4 bd 01 a4 9f bd ed 08 4a 3d
       0.10087559 -0.09604968 -0.07794953 0.04932492
000090 2f f3 d6 bc 6e 64 62 3d 7d a1 bc bc b7 70 9e 3d
       -0.026239006 0.05527156 -0.023026222 0.077363424
0000a0 40 76 5c bd bc cc 13 bd 3c 97 92 3b 8e 08 a5 3c
       -0.05382371 -0.03608392 0.004473595 0.02014568
0000b0 8f 47 4f bd 1b e8 4a 3e 69 1c 6d be 3f 82 ea 3d
       -0.050605353 0.19815104 -0.23155369 0.11450624
0000c0 92 da d6 bd d7 93 5b 3c 85 54 ed 3c 30 d3 10 be
       -0.10490908 0.013401947 0.028970966 -0.14143062
0000d0 bf 7b f7 3c 99 9c 4e bd 81 fd 8e bc da f4 2c 3d
       0.030210374 -0.050442312 -0.017454864 0.042225696
0000e0 f9 f3 1d bd 9a 2b 3e 3d fc ec b3 3d b3 cd 2e 3e
       -0.03856275 0.0464283 0.087854356 0.17070656
0000f0 84 31 e4 3b 0c e9 ef bc 9a 1b 06 be 5a f2 5d bd
       0.0069639105 -0.02928593 -0.13096467 -0.054186203
000100 7a ec 8f 3d e0 86 c4 bd 58 cb 86 be a7 5e 4c 3b
       0.07027526 -0.09596038 -0.26327014 0.0031184347
000110 9e d5 1f bd 5b 37 91 3d b7 fd dc bd 74 8f 85 3d
       -0.03902208 0.07090636 -0.1079058 0.06521502
000120 4c 29 bb bd c1 38 91 3c fa 01 4d 3d 32 26 11 bd
       -0.09138736 0.017727258 0.050050713 -0.035436817
000130 1c fc 11 bd 4b 17 f8 3d f1 71 39 bd 11 00 ac 3d
       -0.03564082 0.12113818 -0.04527468 0.0839845
000140 69 96 7d bd 86 08 f0 3d d5 c7 3e 3d 2e d4 10 be
       -0.06191102 0.11720376 0.046577293 -0.1414344
000150 13 7a ba 3b ec 56 5e bc c8 cc c8 3b 58 10 63 bd
       0.005690822 -0.0135705285 0.0061279275 -0.05543551
000160 5e 2d 29 bd 13 f2 c8 3d 59 3e c6 bd ad 7a d2 bd
       -0.04130303 0.09811797 -0.096798606 -0.10277305
000170 d9 50 d1 bc d5 9d 29 bd 6c f3 9a bd d0 9a bf bc
       -0.025551246 -0.041410286 -0.0756596 -0.02338925
000180 a8 33 da 3d 57 41 3f bd 22 9c 2f be b1 0b 06 3d
       0.10654384 -0.046693172 -0.17149404 0.032725994
000190 5d 6e e7 3c d8 64 18 3e 0a cd c6 3d 02 7d 50 3d
       0.028250868 0.14882219 0.09707077 0.050900467
0001a0 1e 82 18 3d 1e 12 07 bc d6 e3 5b 3d 14 6b 48 bd
       0.037233464 -0.008244066 0.05368408 -0.048930243
0001b0 13 71 ec 3d 4b c1 23 3e a4 df 66 bd 73 d3 a8 3d
       0.11545005 0.15991704 -0.056365624 0.08243456
0001c0 35 eb e5 bd 20 2d 16 3d 4d 48 d7 3d ba a1 68 bd
       -0.11226503 0.03666413 0.10511837 -0.05679486
0001d0 77 84 b8 3c b5 06 c1 bc c0 7a a0 bb bb bb 20 3e
       0.022524102 -0.023562768 -0.0048974454 0.15696613
0001e0 bc a6 c9 3d f7 9c e5 3d f6 7e 12 3e 2f 82 28 3e
       0.09846255 0.11211579 0.14306244 0.16455911
0001f0 da 05 fe 3c c3 11 43 38 60 96 22 bd 3d d1 94 bc
       0.03100865 4.6508165e-05 -0.03969419 -0.018166179
000200 28 09 0f 3e 4b 2f 8f bd 43 58 7a be 94 e1 c3 3c
       0.13968337 -0.06991442 -0.24447732 0.023911275
000210 ea 6c 5c bd b7 8d e8 3d bb 3f 11 be 22 39 f8 3d
       -0.053814806 0.11355155 -0.14184467 0.12120272
000220 80 9d 62 bd ed 63 50 bc d3 3e ac bb 1d b4 26 be
       -0.055325985 -0.012719137 -0.0052565127 -0.16279645
000230 27 e3 a0 bd 04 21 5a bb e4 e4 12 be 09 08 d8 3d
       -0.07855826 -0.003328384 -0.14345127 0.105484076
000240 6c 67 67 be 1a ac a5 3a dd 1a 9e 3d be 6a 17 be
       -0.22598046 0.0012639791 0.077199675 -0.14786813
000250 4e e5 70 3c 20 89 91 bc fa 39 97 3c 59 ae ad bc
       0.014703108 -0.017765582 0.018460263 -0.0212013
000260 8b b3 d6 bd f1 56 94 bc 72 4c 3f 3c 9c 88 60 bd
       -0.10483464 -0.018107863 0.011675941 -0.05481778
000270 53 f8 06 3d 90 b7 e9 bb d2 2a be bd 7c 60 32 3b
       0.032951664 -0.007132478 -0.09285511 0.0027218154
000280 2d 28 41 3e 9f 8d 2b bd 0c 8d 9a bc 27 6e 36 ba
       0.18862982 -0.041883107 -0.018866085 -0.0006959163
000290 0e e2 15 bc 20 d2 a7 3d f4 e3 26 3d b9 b0 34 3d
       -0.009148134 0.08194375 0.040744737 0.04411385
0002a0 34 c3 1d 3d 77 ac 18 bc 6d c7 99 bc dd 71 b5 bd
       0.03851624 -0.009318463 -0.018771851 -0.08859608
0002b0 3e d5 80 3d 36 91 0c 3e 75 fb 86 bc 47 af 24 3e
       0.06290673 0.13727269 -0.016477326 0.16082488
0002c0 4f 66 68 be a9 15 fc 3d b1 47 f4 3c f9 69 22 be
       -0.22695278 0.12308819 0.029819341 -0.15860738
0002d0 ae 6f 0d 3d 51 39 9b 3b 9a 6a 6f 3c 27 ec 2f 3e
       0.034530334 0.0047370573 0.014612818 0.17179929
0002e0 91 61 82 3d 12 2e f2 3d bb 66 7b 3e a3 4d 86 3e
       0.063662656 0.118251935 0.24550907 0.26231107
0002f0 f3 4e 23 3d eb 77 fb bb 44 99 8d bd 53 48 e0 3b
       0.039870214 -0.0076742074 -0.06913999 0.006844559

actor_linear.bias f4 [6]
000000 a5 87 4b bd 1c 8f 90 3d d6 b5 4d 3e c2 88 8a 3d
       -0.049689908 0.07058546 0.20088896 0.06764366
000010 06 db de 3b 13 8f e0 3d
       0.006801012 0.10964789
