spaceinvaders-v0-bottom-7fskip_latent32/model.12.tar (torch, 223035 bytes, 13 tensors)

conv1.weight f4 [32, 4, 3, 3]
0	0xbad61399	-0.0016332745
1	0xbdfa5a34	-0.12224236
2	0xbd86cc7b	-0.0658197
3	0x3d54315e	0.051804893
4	0xbe5d0a0a	-0.21585861
5	0xbabef51e	-0.00145689
6	0x3d8a6614	0.06757751
7	0x3cd609d8	0.02612774
8	0xbd1e72d1	-0.038683716
9	0xbd77fcf6	-0.060543977
10	0x3d6b056f	0.05737823
11	0x3c8c2fb0	0.017112583
12	0x3cf08cd8	0.029364035
13	0xbd312d27	-0.04325595
14	0xbd1d830c	-0.038455054
15	0x3d8f5d08	0.07000166
16	0x3cff8061	0.031189146
17	0xbc355ca6	-0.011069452
18	0x3dd81544	0.10550931
19	0x3d5006c6	0.05078771
20	0xbd083af3	-0.033259343
21	0xbdaa5855	-0.08317629
22	0xbba0fb6a	-0.0049127834
23	0xbd6244b8	-0.055241317
24	0x3d17b7e2	0.0370406
25	0x3c39ee0c	0.011348259
26	0x3dbe332a	0.092871025
27	0x3e4a8962	0.1977897
28	0xbe6fe26a	-0.23426214
29	0x3e0fd6be	0.14046761
30	0x3daa6d8f	0.08321678
31	0x3e66997c	0.22519487
32	0x3e557744	0.20846277
33	0xbe5e4a07	-0.21707927
34	0xbd78d2b0	-0.060747802
35	0xbdb73abd	-0.0894675
36	0x3dbaf7f1	0.09129322
37	0xbd69a329	-0.057040367
38	0x3d4d4e4a	0.05012349
39	0xbdc8c2cd	-0.0980278
40	0x3e20cbb9	0.15702714
41	0xbdc08793	-0.09400859
42	0x3e0bf4ef	0.13667654
43	0xbd78c0f2	-0.060730882
44	0xbe0d21b2	-0.13782385
45	0x3d8d9550	0.06913245
46	0xbde4b944	-0.11168149
47	0xbae3b5ee	-0.0017372945
48	0xbd570c9f	-0.05250227
49	0xbc5838ed	-0.013197166
50	0xbe0f629c	-0.1400246
51	0xbd8167ab	-0.06318601
52	0x3d80e787	0.0629416
53	0xbd57e9b9	-0.05271313
54	0x3e13aaa3	0.14420561
55	0x3dfac3e1	0.12244392
56	0xbcb5a738	-0.022174463
57	0xbdf6ecd1	-0.12056888
58	0x3d886c1b	0.066612445
59	0x3da993ba	0.0828013
60	0xbdebc754	-0.11512628
61	0x3d86fab8	0.065907896
62	0x3d88298e	0.06648551
63	0x3ea7c921	0.32770637
64	0xbe395d3e	-0.18101975
65	0xbd8e8485	-0.0695887
66	0x3c46133c	0.012089547
67	0xbc26bc6e	-0.010176761
68	0xbcec9d63	-0.028883642
69	0xbea36963	-0.3191634
70	0x3e72f9b5	0.23728068
71	0xbd08d20b	-0.033403438
72	0x3d6c202f	0.05764788
73	0x3bb2a61d	0.005451931
74	0x3dba0947	0.09083801
75	0xbd954888	-0.07289225
76	0x3d838eff	0.06423759
77	0x3e28ae23	0.16472678
78	0xbe5e7690	-0.21724916
79	0x3d20c441	0.039249662
80	0xbd309ce8	-0.043118387
81	0xbdf955e9	-0.12174589
82	0xbb839624	-0.004015701
83	0x3be650fa	0.007028696
84	0x3c7d5428	0.015461959
85	0xbe11cc3c	-0.14238065
86	0xbd983815	-0.07432572
87	0x3dc0a82b	0.094070755
88	0xbd803909	-0.062608786
89	0x3e1f8ed3	0.15581827
90	0x3d875287	0.06607538
91	0xbdc29a71	-0.095021136
92	0x3d98f115	0.07467858
93	0x3b9b0ab6	0.0047315015
94	0xbe18db81	-0.14927484
95	0xbcfc9019	-0.03083043
96	0x3d946e46	0.072475955
97	0x3c230f52	0.009952383
98	0xbd3d04da	-0.046147205
99	0xbd031adf	-0.03200805
100	0x3dff2385	0.12457947
101	0xbe121049	-0.14264025
102	0x3dcb4942	0.09926082
103	0x3ca3aa01	0.019978525
104	0xbe377287	-0.17914782
105	0xbdfeeb02	-0.12447168
106	0x3e6cbc60	0.23118734
107	0x3cd43883	0.025905853
108	0x3e1912ce	0.1494858
109	0x3dadf64d	0.08494244
110	0x3d608aa2	0.05481971
111	0x3e233374	0.15937597
112	0x3e6fc939	0.23416604
113	0xbde824bc	-0.113351315
114	0x3ddb8f14	0.10720649
115	0x3e8172ff	0.25283048
116	0x3dfbb48b	0.12290295
117	0x3db108ce	0.086442575
118	0xbe188e26	-0.14897975
119	0xbde254e5	-0.110513486
120	0xbe01134b	-0.12605016
121	0xbce0195d	-0.027355844
122	0x3e1a7657	0.15084206
123	0xbd99638c	-0.0748969
124	0x3da6b366	0.08139686
125	0xbdc9a977	-0.09846776
126	0xbe0f09d3	-0.13968591
127	0xbd004fd4	-0.03132613
128	0x3df5b476	0.11997311
129	0x3e06b431	0.13154675
130	0xbe291682	-0.16512492
131	0x3bdf191b	0.0068084127
132	0x3e0d3946	0.1379138
133	0x3da2a5bf	0.0794177
134	0x3db07150	0.08615363
135	0x3da7078b	0.081557356
136	0x3c2455f9	0.010030263
137	0x3df8cac7	0.12148052
138	0xbe2cf5ff	-0.16890715
139	0xbebfaf79	-0.37438563
140	0xbe0f09bc	-0.13968557
141	0xbd81bd05	-0.06334881
142	0xbe675685	-0.22591598
143	0xbafd1baa	-0.0019310613
144	0xbd14d325	-0.036334176
145	0xbdccc1dc	-0.09997913
146	0x3dfac89e	0.12245296
147	0x3d3d898a	0.046273746
148	0x3d83033c	0.06397101
149	0x3d82da4d	0.06389294
150	0xbd49f41c	-0.049305066
151	0x3e2cdad9	0.16880359
152	0xbd6c4e9e	-0.057692163
153	0xbdae216c	-0.085024685
154	0xbe345272	-0.17609575
155	0xbde6ec1c	-0.11275503
156	0xbdcd34e4	-0.10019854
157	0xbd501571	-0.050801698
158	0x3d8bf863	0.068344854
159	0xbce87200	-0.028374672
160	0xbdacd602	-0.08439256
161	0x3ce5ab9b	0.02803593
162	0xbcbf8067	-0.023376657
163	0x3db37221	0.08762003
164	0xbdc75013	-0.0973207
165	0x3c3653fb	0.011128421
166	0xbdaeb348	-0.08530289
167	0xbd8b13b4	-0.067908674
168	0xbdd87c69	-0.10570604
169	0xbdce98c5	-0.10087732
170	0xbdc9bf81	-0.098509796
171	0x3e074d7e	0.13213155
172	0x3d997977	0.07493871
173	0xbd2acab0	-0.041697204
174	0x3e4d5f39	0.20055856
175	0x3e5157d1	0.20443656
176	0x3e2e6112	0.17029217
177	0x3cf99463	0.030466264
178	0xbe3388e2	-0.17532685
179	0x3e38f74d	0.18063088
180	0xbdd6a269	-0.10480196
181	0xbdf55648	-0.119793475
182	0xbe60382c	-0.21896428
183	0xbdc41df1	-0.09576023
184	0xbe88d193	-0.26722392
185	0x3d0d6508	0.03452018
186	0xbe4a9266	-0.19782409
187	0xbe8d1ffc	-0.27563465
188	0xbe0b8a9e	-0.13627097
189	0xbd8986f4	-0.067151934
190	0x3d435cef	0.04769605
191	0xbd72dbe6	-0.059291743
192	0xbda95b1b	-0.0826933
193	0xbd57310c	-0.05253701
194	0x3da182b1	0.078862555
195	0xbde2da2b	-0.110767685
196	0x3d233cf4	0.03985305
197	0x3d01daba	0.031702735
198	0x3e403aed	0.18772478
199	0xbdac2a49	-0.08406503
200	0x3da6d67e	0.0814638
201	0xbe04338f	-0.12910293
202	0x3dfdb3ae	0.12387787
203	0xbd71dba4	-0.059047356
204	0x3de76aad	0.11299644
205	0x3cd43f9b	0.025909236
206	0xbd07539f	-0.03303873
207	0x3d9d2b79	0.076743074
208	0x3e1fc527	0.15602551
209	0x3e4f7ca2	0.20262387
210	0x3d038c42	0.032116182
211	0x3e16a9ee	0.1471326
212	0xbd421b03	-0.04738904
213	0x3e0f7de5	0.14012869
214	0x3e891c12	0.26779228
215	0x3e7d52b8	0.24738586
216	0x3e379742	0.17928794
217	0xbc04e6fa	-0.00811171
218	0x3c5180e5	0.0127870785
219	0x3e2b5af8	0.1673392
220	0xbcddaa6f	-0.027058808
221	0x3e4b89f1	0.19876839
222	0xbe249df7	-0.16075884
223	0xbe4b9c05	-0.19883735
224	0x3dc540b6	0.09631483
225	0xbda0c8c2	-0.078507915
226	0xbd260fd3	-0.040542435
227	0x3e5ffd69	0.21874012
228	0x3de307c6	0.11085467
229	0x3e061cfa	0.13096991
230	0x3bac7adf	0.005263671
231	0xbe19191d	-0.14950986
232	0x3dd03e1d	0.10168097
233	0xbd52a266	-0.051424406
234	0xbd60b568	-0.054860502
235	0x3c586080	0.013206601
236	0xbd3f4db6	-0.04670497
237	0x3dcc871d	0.09986708
238	0x3d700c15	0.058605272
239	0xbdce8acc	-0.10085067
240	0xbe06ef9b	-0.1317734
241	0xbcff5b17	-0.031171365
242	0x3db19863	0.086716436
243	0xbdb438cf	-0.08799898
244	0xbe81a0e6	-0.25318068
245	0xbd9b653d	-0.07587669
246	0xbe4c937d	-0.19978137
247	0xbe397e20	-0.18114519
248	0xbe2c13a1	-0.16804363
249	0x3e4b0633	0.19826584
250	0x3e746a31	0.23868634
251	0xbbc6e643	-0.00606993
252	0xbdb8f750	-0.09031546
253	0xbd125d98	-0.03573379
254	0xbd836352	-0.06415428
255	0xbe3ad50a	-0.1824533

conv1.bias f4 [32]
0	0xbb4467cb	-0.0029969092
1	0x3bce60bd	0.006298153
2	0x3a8bda4e	0.0010669918
3	0xbc4ad905	-0.012380843
4	0x3b818799	0.003952932
5	0x3bafb871	0.0053625633
6	0xbb68ddb8	-0.0035532545
7	0x3b8fc690	0.004387684
8	0x3ac4bf26	0.001501058
9	0x3c20f555	0.009824117
10	0x3c0a7ce3	0.008452627
11	0xbbc4e3da	-0.0060086073
12	0x3a1d0010	0.0005989084
13	0xbb79cf8e	-0.0038118097
14	0xbd2bb5c7	-0.041921403
15	0x3da9706f	0.08273398
16	0x3c3a5fb6	0.011375358
17	0x3c14a1d8	0.00907179
18	0x3d37d108	0.044877082
19	0xbbb88119	-0.005630624
20	0x3b63fe5f	0.0034789068
21	0xbc0aa98a	-0.008463273
22	0xbba61666	-0.005068588
23	0xbbb8fb33	-0.0056451797
24	0xbc2e9235	-0.010654976
25	0x3bb2c507	0.0054556164
26	0xbb34b6ca	-0.002757477
27	0xbc7ffbcd	-0.015623999
28	0xbba42656	-0.005009453
29	0xbc5ced12	-0.013484256
30	0xbb0ba0a1	-0.002130546
31	0xbc0ce028	-0.008598365

conv2.weight f4 [32, 32, 3, 3]
0	0xbc423efd	-0.011855838
1	0xbdd960f0	-0.106141925
2	0x3d67af27	0.056563523
3	0x3e2bd6f9	0.16781224
4	0x3e819f0e	0.25316662
5	0xbd4a331f	-0.04936516
6	0x3cbe8364	0.023256011
7	0xbdb82087	-0.08990579
8	0x3d04931b	0.032366853
9	0xbcfd6a02	-0.030934338
10	0xbe1e8b15	-0.15482743
11	0x3d326342	0.04355169
12	0x3c12ed30	0.008967683
13	0x3dea6c79	0.11446471
14	0xbcbbd266	-0.022927474
15	0x3c237edd	0.009978977
16	0xb8d9f634	-0.00010393225
17	0x3d398dfc	0.045301422
18	0x3c9b2fea	0.018943746
19	0xbdc351a0	-0.09537053
20	0xbd043ac0	-0.03228259
21	0xbd05187b	-0.03249405
22	0xbdc5ce34	-0.09658471
23	0x3dbbb1a3	0.09164741
24	0xbc49edb8	-0.012324743
25	0xbc71c8a6	-0.014757311
26	0xbc81567e	-0.015788313
27	0xbd6b04af	-0.057377513
28	0xbe260d51	-0.16216017
29	0xbdb5e86b	-0.08882221
30	0xbdcbcbde	-0.09950994
31	0xbe27e5d0	-0.1639626
32	0xbccb5be7	-0.024824096
33	0x3cb85d98	0.022505566
34	0x3d90d653	0.07072129
35	0xbd94787b	-0.07249542
36	0xbc0347e5	-0.008012746
37	0x3ca7af1b	0.020469239
38	0x3d79a1fd	0.0609455
39	0x3dfbbe95	0.1229221
40	0x3e12e5dc	0.14345497
41	0xbcb7c319	-0.022431897
42	0xbcc82a2c	-0.024434172
43	0xbe064d74	-0.13115484
44	0x3d3e8502	0.046513565
45	0x3dec4cac	0.115380615
46	0x3d5ab041	0.053390745
47	0xbdc1b9ea	-0.094592884
48	0x3cf76e0e	0.030203845
49	0xbdb835bd	-0.08994625
50	0xbd102159	-0.035188053
51	0xbdfc021f	-0.12305092
52	0xbda04dbd	-0.078273274
53	0x3cb76829	0.022388535
54	0x3ccc88f5	0.02496765
55	0xbc001608	-0.007817753
56	0xbcff4919	-0.031162785
57	0xbdd03a09	-0.10167319
58	0xbd90b8a0	-0.070664644
59	0x3d8d6f84	0.069060355
60	0xbd9168fd	-0.07100103
61	0xbdd7c114	-0.105348736
62	0xbd724fad	-0.059158016
63	0x3c3786d4	0.011201579
64	0xbd9d1094	-0.07669178
65	0xbd7e0757	-0.06201872
66	0x3dcf01bb	0.10107752
67	0x3db2eee6	0.087369725
68	0xbd40a4e4	-0.047032252
69	0xbca8d23c	-0.02060806
70	0xbd30f70f	-0.043204363
71	0x3ddd1e6a	0.10796817
72	0xbdb1c2a4	-0.08679703
73	0x3dda81bd	0.10669277
74	0x3de24403	0.110481285
75	0x3dda00f5	0.10644714
76	0x3ad47e1f	0.0016211903
77	0xbc5ebd02	-0.013594868
78	0xbd8bedd8	-0.068324745
79	0xbdc45f74	-0.09588519
80	0x3cb930c6	0.022606265
81	0x3db61b1e	0.08891891
82	0x3ca55189	0.02018048
83	0x3a878522	0.0010339359
84	0x3c9ab669	0.018885808
85	0x3e0af766	0.13570938
86	0xbb59818e	-0.0033188793
87	0xbdef3ccb	-0.11681517
88	0x3d4b812f	0.049683746
89	0x3e33b806	0.17550668
90	0xbcc46150	-0.023972183
91	0xbc1ca742	-0.009561362
92	0xbcea4ebb	-0.028601995
93	0x3d9b2593	0.07575526
94	0x3e6dd19d	0.23224492
95	0xbd7988ba	-0.06092141
96	0xbd859e6c	-0.06524357
97	0xbd791237	-0.060808387
98	0x3cd586bd	0.026065225
99	0x3d64c076	0.055847608
100	0xbcfe9401	-0.031076433
101	0xbc24f1ab	-0.010067384
102	0x3d2de252	0.042452164
103	0xbc0afd0f	-0.008483185
104	0x3deffe0c	0.117183775
105	0x3d09631f	0.033541795
106	0xbc8098b4	-0.015697815
107	0xbde0173e	-0.10941933
108	0xbd879de0	-0.06621909
109	0x3d5cae69	0.053877268
110	0x3d6540b2	0.0559699
111	0x3e03ec1f	0.12883042
112	0x3d0e9070	0.034805715
113	0x3ce6824b	0.0281383
114	0x3d72f685	0.05931713
115	0xbd849409	-0.06473548
116	0x3bfd2691	0.0077255447
117	0xbdbc6a03	-0.09199908
118	0x3d626fdc	0.05528246
119	0x3e019e0d	0.12657948
120	0x3d0c142f	0.034198936
121	0x3d8121eb	0.063052975
122	0x3c3600ce	0.01110859
123	0x3db59976	0.08867161
124	0xbbf895dc	-0.007586224
125	0x3c7d0fd7	0.015445671
126	0xbcf2fd9f	-0.029661952
127	0xbd694055	-0.056946117
128	0xbcecf2f4	-0.028924443
129	0xbd494c0e	-0.049144797
130	0xbd374be5	-0.044750113
131	0x3bb02905	0.0053759837
132	0xbb9168fd	-0.0044375644
133	0xbbd756fd	-0.006571649
134	0xbbfc4657	-0.007698815
135	0xbd0620ce	-0.03274613
136	0xbdaf215b	-0.08551284
137	0xbd292dd3	-0.041303467
138	0x3a0539f5	0.00050821836
139	0x3da5aa11	0.08089078
140	0x3d8c1a6e	0.068409786
141	0x3d29c4ff	0.041447636
142	0xbd3b7126	-0.045762204
143	0xbd986217	-0.07440584
144	0xbd93ec15	-0.072227634
145	0xbdd9b51c	-0.10630247
146	0xbe095732	-0.13412169
147	0xbc2128ae	-0.009836359
148	0xbbc5ed72	-0.0060402686
149	0x3da42a26	0.08015852
150	0x3c0a059e	0.008424191
151	0x3d895a00	0.06706619
152	0x3dd81c52	0.10552277
153	0xbdc5e5bd	-0.0966296
154	0x3d724d59	0.059155796
155	0x3cc97605	0.024592409
156	0xbd088b47	-0.03333595
157	0x3e043801	0.12911989
158	0xbc79bbb7	-0.015242509
159	0x3c60e120	0.013725549
160	0xbdbf5ec9	-0.09344251
161	0xbd8e3568	-0.0694378
162	0xbc3f79fb	-0.011686797
163	0xbd109b12	-0.035304137
164	0xbafc2388	-0.0019236663
165	0xbc41e3ed	-0.011834127
166	0x3d3b8dca	0.045789517
167	0x3d9417be	0.07231091
168	0xbd2907e7	-0.041267302
169	0xbd86e11b	-0.06585904
170	0x3d05e1dc	0.0326861
171	0x3d7192a8	0.058977753
172	0x3cd045c4	0.025423892
173	0x3d753649	0.059866223
174	0x3d3807e6	0.044929408
175	0xbc379b2e	-0.011206431
176	0x3d4df93d	0.05028652
177	0x3c84799a	0.016171265
178	0xbd2e4e63	-0.042555224
179	0x3d4112b8	0.047136992
180	0x3cb10208	0.021607414
181	0xbcb419d5	-0.021984974
182	0x3d7718f8	0.060326546
183	0x3da4415b	0.08020278
184	0x3e2e138a	0.16999641
185	0xbc2d25f9	-0.010568135
186	0xbc798ac1	-0.015230835
187	0xbcb4e923	-0.022083825
188	0xbd0f232d	-0.034945656
189	0x3dae72b6	0.08517973
190	0x3c479054	0.012180407
191	0x3d7e13d4	0.06203063
192	0xbd86d905	-0.06584362
193	0xbd80e732	-0.06294097
194	0xbcf8d424	-0.030374594
195	0x3d47ecf3	0.048809957
196	0xbbd74ac8	-0.006570194
197	0x3c144842	0.009050431
198	0xbc9b299b	-0.018940737
199	0x3da35206	0.07974629
200	0x3d7f91bc	0.062394843
201	0xbc6bc9f1	-0.014391408
202	0xbd4426eb	-0.047888678
203	0xbd87db54	-0.066336304
204	0x3cd9ef26	0.026603293
205	0xbcf408df	-0.029789386
206	0xbda84bfe	-0.08217619
207	0xbd9ddc96	-0.07708089
208	0xbd751524	-0.059834614
209	0x3ded93ef	0.11600482
210	0xbe0c1f5f	-0.13683842
211	0xbb17b2c7	-0.002314733
212	0xbdace7cb	-0.084426485
213	0x3d1ea669	0.03873292
214	0xbbf70eae	-0.0075395918
215	0x3d188106	0.03723242
216	0xbbe4dda8	-0.0069844313
217	0x3d82afa8	0.0638116
218	0x3d87591c	0.06608793
219	0xbd7a8111	-0.061158244
220	0xbe0ab29b	-0.13544695
221	0xbde88aed	-0.11354623
222	0x3d35f1f2	0.04442019
223	0xbdb82b8d	-0.08992682
224	0xbda96c1d	-0.08272574
225	0x3d0fe67c	0.035131916
226	0x3d82bad5	0.06383292
227	0xbc4ccc9f	-0.012499957
228	0xbcd8f81c	-0.026485495
229	0xbd72d970	-0.059289396
230	0xbd8751a6	-0.0660737
231	0xbdc7c077	-0.09753507
232	0xbda56089	-0.08075053
233	0x3bfb6947	0.007672462
234	0x3db8d908	0.090257704
235	0x3a418daa	0.00073834753
236	0x3c51d4d0	0.012807086
237	0x3ddd7ff3	0.1081542
238	0x3d9cc1ff	0.07654189
239	0xbe1e33db	-0.15449469
240	0xbdc4f8b2	-0.09617747
241	0x3da5a9df	0.08089041
242	0xbb904ff1	-0.004404061
243	0x3e240afe	0.16019818
244	0xbdab869e	-0.083752856
245	0xbc6db556	-0.014508566
246	0xbd260ee0	-0.04054153
247	0xbdea6436	-0.11444895
248	0xbd96cdce	-0.07363473
249	0x3d1ced38	0.038312167
250	0x3e02ac67	0.12761079
251	0x3bb7d787	0.0056104097
252	0x3bd8bc27	0.0066142264
253	0x3e0a2c7e	0.13493535
254	0x3d39267c	0.045202717
255	0xbe921172	-0.28528935

conv2.bias f4 [32]
0	0xbc359fc9	-0.011085459
1	0xbc5e0573	-0.013551104
2	0x3bdce18d	0.006740755
3	0xbc6ca461	-0.014443488
4	0x3c797d40	0.015227616
5	0x3cc3eb23	0.023915833
6	0xbc0bb1cf	-0.00852628
7	0xbc7797e0	-0.015111893
8	0xbcc2f0a3	-0.023796385
9	0xba855605	-0.001017273
10	0x3c858858	0.016300365
11	0xbc00a5eb	-0.007852058
12	0x3abac188	0.0014248351
13	0xb9b1da9e	-0.00033922953
14	0xbb5c3480	-0.0033600628
15	0xbb4c15a2	-0.0031140824
16	0x3c8bec63	0.017080491
17	0x3b429843	0.0029692806
18	0xbc92eee0	-0.01793617
19	0xbc1c8b62	-0.009554716
20	0x3b3160ca	0.0027065747
21	0x3bbf1ada	0.0058320584
22	0x3c9035bc	0.017603748
23	0xbbc4176d	-0.005984238
24	0x3cd23e20	0.02566439
25	0x3c696d97	0.01424732
26	0x3c946b0f	0.018117456
27	0xbd1ed223	-0.03877462
28	0x3bb2f634	0.0054614786
29	0xbd0abb6f	-0.033870157
30	0xbc6ef239	-0.014584118
31	0xbc60a8fd	-0.013712165

conv3.weight f4 [32, 32, 3, 3]
0	0xbdc273a8	-0.09494716
1	0x3d565c88	0.05233434
2	0xbe018c10	-0.12651086
3	0x3d4d8c1f	0.050182458
4	0x3da3db48	0.08000809
5	0x3e219c90	0.1578238
6	0xbc38f9c2	-0.011290016
7	0x3d8402c2	0.064458385
8	0xbd1d7af1	-0.038447324
9	0x3c1ebe73	0.009688961
10	0xbc90d2b8	-0.017678604
11	0xbc846dc4	-0.016165622
12	0xbdec6d74	-0.11544314
13	0xbd5cefa4	-0.053939477
14	0xbc776256	-0.015099129
15	0xbc1dc8ed	-0.009630424
16	0xbcfb47da	-0.03067391
17	0x3cda68c3	0.026661282
18	0x3d45bc52	0.0482753
19	0xbc3a9ffd	-0.011390683
20	0x3d9c0831	0.0761875
21	0xbd495019	-0.049148653
22	0xbd85de86	-0.065365836
23	0xbcbf0254	-0.02331654
24	0x3e213fd6	0.15747008
25	0xbc06ca94	-0.008227009
26	0x3d82ed3d	0.06392906
27	0x3e07ab5b	0.1324896
28	0x3cebb57c	0.028773062
29	0x3d2a3083	0.04155017
30	0xbdb846b0	-0.089978576
31	0xbc98a766	-0.01863451
32	0xbdb9c1d8	-0.09070176
33	0x3dde5d1d	0.10857604
34	0xbd867cf2	-0.065668
35	0x3d8a49e2	0.06752373
36	0xba8796e3	-0.001034465
37	0x3d0e9cb4	0.034817412
38	0xbd690ecf	-0.05689889
39	0x3d5f7630	0.05455607
40	0xbd142fc9	-0.036178384
41	0xbcf7a57b	-0.030230274
42	0x3c862059	0.016372846
43	0x3d25b8c5	0.040459413
44	0xbdf941e9	-0.121707745
45	0x3db76abe	0.08955906
46	0x3c3aa9bb	0.011393006
47	0xbdbc9e28	-0.092098534
48	0x3da77cf3	0.08178129
49	0x3d27c156	0.040955864
50	0xbb90b2b9	-0.0044158367
51	0x3c3319fb	0.010931487
52	0xbb9f729c	-0.0048659574
53	0xbb8e7989	-0.004347984
54	0x3d5a13f4	0.053241685
55	0xbdb4cbe4	-0.088279516
56	0x3cbd1ea5	0.023085902
57	0xbdc48697	-0.095959835
58	0x3b79a40e	0.003809217
59	0x3e1b330e	0.15156195
60	0xbd441447	-0.0478709
61	0xbd5cfe67	-0.053953554
62	0x3d08751b	0.033314805
63	0x3c7a01fb	0.015259261
64	0xbe00cf85	-0.12579162
65	0xbbe93c37	-0.007117774
66	0x3e018d2e	0.12651512
67	0xbc52c379	-0.012863987
68	0x3d7ac685	0.06122448
69	0xbc884943	-0.016636496
70	0xbd811666	-0.063031
71	0x3bb4b225	0.0055144005
72	0x3cb09f23	0.021560257
73	0xbd6c4ceb	-0.057690542
74	0x3c6d46a6	0.014482176
75	0x37890c98	1.6337537e-05
76	0x3c92b34a	0.017907757
77	0xbbb56f70	-0.005536966
78	0x3d4a3f2a	0.049376644
79	0xbc5996fb	-0.013280625
80	0xbd2d8ee6	-0.042372607
81	0xbc85a565	-0.016314218
82	0xbd071f7b	-0.032989006
83	0xbdba82ae	-0.091069564
84	0xbe33d604	-0.17562109
85	0xbd2eec9e	-0.042706124
86	0xbdc67eaa	-0.09692128
87	0x3da90a62	0.082539335
88	0x3ca22a38	0.019795522
89	0xbd9c26d3	-0.07624593
90	0x3c32bb32	0.010908889
91	0xbd1bb4ae	-0.038014106
92	0xbc09fc1d	-0.008421925
93	0x3e069141	0.13141347
94	0x3dfec94e	0.124407396
95	0x3d012d6b	0.031537455
96	0xbc46c88f	-0.012132778
97	0xbd9b9494	-0.075966984
98	0xbd9f97f0	-0.07792652
99	0xbd81b83b	-0.06333967
100	0x3d3daa67	0.046305086
101	0x3d395f25	0.045256753
102	0x3d92c5d1	0.07166637
103	0x3d82802a	0.063721016
104	0xbd2c8630	-0.04212016
105	0x3d4e962d	0.050436188
106	0x3d3141f6	0.043275796
107	0xbd4bae78	-0.049726933
108	0x3c070a01	0.008242131
109	0xbc802a52	-0.01564518
110	0x3d28e315	0.041232187
111	0xbd63cb6d	-0.055613924
112	0xbd341344	-0.043963686
113	0xbd05807a	-0.032593228
114	0xba24dcfe	-0.0006289034
115	0x3c2f3326	0.010693347
116	0xbc67f3ec	-0.014157277
117	0x3dde1e26	0.10845594
118	0xbd129117	-0.0357829
119	0xbca37d59	-0.019957231
120	0xbb872a8c	-0.004124945
121	0xbdb48c50	-0.08815825
122	0xbd327b83	-0.04357482
123	0x3d8d72fb	0.069066964
124	0xbd8ba334	-0.06818238
125	0x3db48e2e	0.08816181
126	0x3d5d9923	0.05410112
127	0x3c8104fc	0.015749447
128	0xbcc92c66	-0.024557304
129	0xbd0ccbc9	-0.034374032
130	0x3d50f651	0.051016156
131	0x3c89d1ab	0.01682361
132	0xbc609107	-0.013706452
133	0xbcee3092	-0.029075895
134	0xbc8ac30d	-0.01693871
135	0x3be330c2	0.0069333026
136	0xbe05ebc4	-0.13078219
137	0xbd5622b7	-0.0522792
138	0xbd49e997	-0.049295034
139	0xbc8a274c	-0.016864441
140	0x3d8ca7df	0.06867956
141	0xbd1369be	-0.035989515
142	0xbdf4ddb2	-0.119563475
143	0xbc17486b	-0.009233574
144	0x3d299285	0.041399498
145	0xbdd64e31	-0.104641326
146	0x3d7fda97	0.062464323
147	0x3c91514b	0.017738959
148	0xbd14b252	-0.036302872
149	0xbd97f73c	-0.07420203
150	0x3dce183c	0.10063216
151	0xbd5e41ad	-0.054261852
152	0xbdd44470	-0.10364616
153	0xbd94bb19	-0.072622485
154	0xbd00343c	-0.031299815
155	0x3ce9b0d8	0.028526708
156	0xbd60109c	-0.05470334
157	0xbcabdb72	-0.020978663
158	0x3d55424c	0.05206518
159	0xbd84d7dc	-0.064864844
160	0x3d81972d	0.063276626
161	0x3d4104dd	0.04712378
162	0xba96d8d1	-0.0011508708
163	0xbc8cacd6	-0.017172258
164	0x3d8c8c1b	0.068626605
165	0xbbe54c52	-0.0069976235
166	0xbdb6ca63	-0.08925321
167	0x39160304	0.00014306238
168	0xbca3706d	-0.01995107
169	0xbce908e7	-0.028446628
170	0x3d41aae1	0.047282103
171	0xbcc22edf	-0.02370399
172	0x3d3bac94	0.04581888
173	0x3ceb4556	0.028719585
174	0x3d043768	0.032279402
175	0xbd827d94	-0.063716084
176	0x3c98295a	0.018574405
177	0xbd13c6f2	-0.0360784
178	0xbd755cc1	-0.05990291
179	0x3cc3c206	0.023896229
180	0xbd37d2a8	-0.04487863
181	0x3d7585ad	0.059941936
182	0xbc9b60ac	-0.018966995
183	0x3d7d5bac	0.061855003
184	0x3ccf6f1b	0.025321534
185	0x3d3a09c1	0.04541946
186	0x3b9eff11	0.0048521836
187	0x3d0bc912	0.034127302
188	0x3d180493	0.037113737
189	0x3cad3e8b	0.021147987
190	0xbd0a54e2	-0.033772357
191	0x3d875d69	0.066096134
192	0xbd570865	-0.05249824
193	0xbdb6ab0d	-0.08919344
194	0x3d927282	0.07150747
195	0xbcb55e7c	-0.02213978
196	0xbd1598ad	-0.036522556
197	0x3c8bd196	0.017067712
198	0x3c7bfc44	0.015379969
199	0xbc8d45b3	-0.01724515
200	0x3d7f66b6	0.062353812
201	0xbd7b6961	-0.061379794
202	0x3d729cfd	0.059231747
203	0x3d777369	0.060412798
204	0xbd49df16	-0.049285017
205	0x3d685fa5	0.05673184
206	0x3d85e655	0.06538073
207	0xbc854f0b	-0.016273042
208	0xbc1ce32c	-0.009575646
209	0xbd9177cd	-0.07102928
210	0x3df15ea2	0.11785628
211	0xbdfe838f	-0.124274366
212	0xbc8e662f	-0.01738271
213	0xbd99fdea	-0.075191334
214	0xbdbb62ec	-0.09149727
215	0x3d3d5d42	0.046231516
216	0xbb9dbf71	-0.0048140814
217	0x3dcb1231	0.09915579
218	0x3d94148a	0.0723048
219	0xbc8415b7	-0.016123636
220	0x3d28d119	0.041215036
221	0x3dcfd9f4	0.10148993
222	0xbc7c1e2d	-0.015388054
223	0x3d9473fd	0.072486855
224	0x3e0cef6e	0.1376321
225	0xbdcdd902	-0.100511566
226	0x3db2e29d	0.08734629
227	0xbcf31050	-0.029670864
228	0x3cdd7c9e	0.027036961
229	0xbdee608f	-0.11639511
230	0xbcb1b8f2	-0.021694634
231	0x3c0b05ff	0.008485316
232	0x3d96e3b6	0.07367651
233	0xbd9e6e21	-0.07735849
234	0xbd98cee1	-0.07461334
235	0x3d380203	0.044923794
236	0x3dba0751	0.09083427
237	0x3db43585	0.087992705
238	0x3d4fc031	0.050720397
239	0x3ca94268	0.020661548
240	0xbb00478a	-0.001957389
241	0x3c09d938	0.008413605
242	0xbdbf90a5	-0.09353761
243	0x3b32387f	0.0027194319
244	0x3d16602e	0.036712818
245	0x3cd350a1	0.025795283
246	0x3d6bd485	0.05757572
247	0x3b4c18e6	0.003114277
248	0xbca20acc	-0.019780539
249	0x3b7cdee2	0.0038584997
250	0x3d26acad	0.04069202
251	0x3c890873	0.016727662
252	0xbcd1b33b	-0.025598159
253	0xbcfd5da4	-0.03092844
254	0x3e1b045d	0.15138383
255	0xbd7b033b	-0.061282378

conv3.bias f4 [32]
0	0x3dde957b	0.10868355
1	0xbdc45723	-0.095869325
2	0xbdafb37f	-0.08579158
3	0x3da5bda5	0.080928124
4	0x3c9a1ebd	0.018813485
5	0xbdcf5cd1	-0.10125125
6	0xbca382a4	-0.019959755
7	0xbdf06104	-0.11737254
8	0xbcefafa7	-0.029258562
9	0xbd8768f8	-0.06611818
10	0xbcbb2f5f	-0.022849737
11	0xbd4daeb6	-0.050215445
12	0x3cce22ea	0.025163133
13	0xbd10df4f	-0.035369214
14	0x3da27460	0.07932353
15	0xbb324711	-0.0027203003
16	0x3dda2854	0.10652223
17	0xbd166d6e	-0.036725454
18	0xbd94d7cd	-0.07267723
19	0xbd7ba4cd	-0.061436463
20	0xbc1662fa	-0.009178871
21	0x3ccda24c	0.025101803
22	0xbc28d34f	-0.010304286
23	0xbc9664e1	-0.01835865
24	0xbc197e1c	-0.009368446
25	0xbdf4d894	-0.119553715
26	0x3daf0d72	0.08547486
27	0x3d3456bd	0.044028033
28	0x3cbb193d	0.022839183
29	0x3dee269a	0.116284564
30	0x3c8dd74e	0.01731458
31	0xbc84e871	-0.016224118

conv4.weight f4 [32, 32, 3, 3]
0	0x3d1e9aaa	0.038721718
1	0x3c52ebab	0.01287357
2	0x3ce84d7f	0.028357266
3	0x3d0fa267	0.03506699
4	0xbdb2f540	-0.08738184
5	0xbb876205	-0.004131558
6	0x3cd399eb	0.02583023
7	0x3bfd4e09	0.00773025
8	0xba816fd6	-0.0009875249
9	0xbd05bfe6	-0.03265371
10	0xbd40fd0b	-0.04711632
11	0xbc7bdfb7	-0.015373162
12	0x3cdfd969	0.027325349
13	0x3cdc8882	0.02692056
14	0xbdba0c53	-0.09084382
15	0xbcaaccec	-0.020849667
16	0x3dca5a09	0.09880454
17	0xbc2707fd	-0.010194776
18	0xbd975e85	-0.07391075
19	0xbcf6394d	-0.03005662
20	0x3d73b3f9	0.059497807
21	0x3d3c2080	0.045929432
22	0xbdc62eee	-0.0967692
23	0x3d93d083	0.07217505
24	0xbcf8de61	-0.030379476
25	0x3e5af6f0	0.21383262
26	0x3a715620	0.0009206254
27	0x3d90f31b	0.07077619
28	0x3d8d82dd	0.06909726
29	0xbd7b8a5c	-0.061411247
30	0xbce18347	-0.027528418
31	0xbd049a18	-0.032373518
32	0xbd51f069	-0.051254664
33	0xbd8c5db5	-0.06853811
34	0xbd08d293	-0.033403944
35	0x3d8db21d	0.06918738
36	0x3c2de6a9	0.010614076
37	0xbd4b73b2	-0.049670883
38	0x3d76c22d	0.060243774
39	0x3c9b733f	0.018975852
40	0x3b503a6e	0.0031773108
41	0xbcac4112	-0.021027122
42	0xbd445a78	-0.04793784
43	0xbd5c47f8	-0.053779572
44	0xbe04a2c8	-0.12952721
45	0xbc2c5da5	-0.0105203735
46	0x3d124282	0.035707958
47	0xbd86e39a	-0.0658638
48	0x3d7370e2	0.059433825
49	0xbd57d0be	-0.052689306
50	0xbd93b70b	-0.07212647
51	0x3d5d1695	0.053976614
52	0xbdf0d194	-0.11758724
53	0x3c01f614	0.007932205
54	0x3d4dc118	0.050232977
55	0x3d156e3b	0.036482077
56	0xbdc9732f	-0.09836423
57	0xbd27ef8d	-0.040999938
58	0xbc3a2f68	-0.011363842
59	0xbd71bf40	-0.05902028
60	0xbd910c2c	-0.070824
61	0x3d8aeb45	0.06783155
62	0x3d8e1710	0.069379926
63	0xbd06b4b6	-0.032887183
64	0x3da6023c	0.08105895
65	0x3d0fe68e	0.035131983
66	0xba1e7a90	-0.0006045485
67	0x3de3531b	0.110998355
68	0x3d41fe13	0.047361445
69	0xbc145ff8	-0.009056084
70	0xbde3e207	-0.11127096
71	0x3d1e96e2	0.03871811
72	0xbd464649	-0.048406873
73	0xbe0f7ebc	-0.14013189
74	0x3c061b13	0.008185166
75	0x3d93c8f1	0.07216061
76	0x3d5c96d5	0.053854782
77	0x3aaae6d5	0.0013038764
78	0xbcd293a9	-0.025705175
79	0xbd722bad	-0.059123684
80	0x3d72c59b	0.059270483
81	0xbca987f1	-0.020694705
82	0xbdb2870f	-0.08717167
83	0x3d5888c6	0.052864812
84	0x3d36aa81	0.0445962
85	0xbca1d56d	-0.01975509
86	0xbc3b63b2	-0.011437343
87	0xbd08ba95	-0.033381063
88	0x3c58fabe	0.013243375
89	0x3d0619db	0.0327395
90	0x3ba860d5	0.0051384964
91	0x3c1787c6	0.0092486795
92	0x3d9ddec4	0.07708505
93	0x3d56fe04	0.052488342
94	0xba560987	-0.0008164872
95	0xbd65d78b	-0.05611376
96	0xbb6e2ebe	-0.0036343778
97	0xbcc4833c	-0.023988359
98	0x3d572785	0.052527923
99	0x3c724bcf	0.014788582
100	0x3df8b0af	0.12143075
101	0xbcc2f238	-0.02379714
102	0xbd190f93	-0.03736837
103	0xbc389445	-0.011265819
104	0xbd40a894	-0.04703577
105	0x3d4838d3	0.048882317
106	0x3dc4f1fe	0.09616469
107	0xbd8a979a	-0.06767197
108	0xbc2cc43a	-0.010544831
109	0xbe447fca	-0.19189373
110	0x3d3069b1	0.043069545
111	0x3d296506	0.04135611
112	0xbdd0a96b	-0.10188564
113	0x3da2d6c1	0.07951117
114	0xbc16d454	-0.009205896
115	0xbd0c2342	-0.034213312
116	0xbd7039c5	-0.058648843
117	0x3dfd4f0f	0.12368595
118	0xbd136927	-0.035988953
119	0xbcfc45ff	-0.030795095
120	0x3d6137f6	0.05498501
121	0xbda42574	-0.08014956
122	0x3dafda20	0.08586526
123	0xbca4b395	-0.020105163
124	0xbd5fb640	-0.054617167
125	0xbd842275	-0.06451885
126	0x3d29a724	0.041419163
127	0x3cea42ad	0.028596247
128	0xbccb1892	-0.02479199
129	0xbd3e04d3	-0.04639132
130	0xbd296829	-0.0413591
131	0x3dce5cea	0.10076316
132	0x3ca35a4a	0.019940514
133	0xbc70bde8	-0.014693715
134	0x3ca6380a	0.020290393
135	0x3d1fc2d3	0.03900416
136	0x3dba419d	0.09094546
137	0x3bb598bd	0.0055418895
138	0x3d53b16d	0.05168288
139	0xbafe0ef1	-0.0019383115
140	0xbdf24023	-0.11828639
141	0x3d378208	0.04480174
142	0x3c7e0e81	0.015506388
143	0xbdbad11a	-0.09121914
144	0xbd05236b	-0.03250448
145	0x3d2f53f4	0.042804673
146	0xbbaf2964	-0.0053455103
147	0x3d3d6add	0.04624449
148	0x3ccc6491	0.024950298
149	0x3be49961	0.006976292
150	0x3cad08e8	0.02112241
151	0xbd126220	-0.03573811
152	0xbd7d1fba	-0.061797835
153	0xbdeab413	-0.11460128
154	0x3ae354a7	0.0017343954
155	0xbde500c9	-0.111817904
156	0xbd5985be	-0.053106062
157	0x3e1c2181	0.15247156
158	0xbd861571	-0.065470584
159	0xbd1fbc50	-0.03899795
160	0xbd17ac53	-0.037029576
161	0x3d973080	0.073822975
162	0xbcd03431	-0.025415512
163	0x3cdb2e3d	0.026755447
164	0xbd0f3c5d	-0.034969676
165	0x3d48fbae	0.049068145
166	0x3dd382f1	0.103277095
167	0xbb886ff3	-0.004163736
168	0xbcd53eaf	-0.026030866
169	0xbe0f9f35	-0.14025576
170	0x3cfcc158	0.030853912
171	0x3d33ce76	0.04389807
172	0xbcd93569	-0.026514726
173	0xbd1ba5c6	-0.03799989
174	0x3d0e3129	0.03471485
175	0xbda8f955	-0.08250681
176	0x3bd6f5b9	0.006560054
177	0x3c910eb9	0.017707216
178	0x3d2248b3	0.039620113
179	0x3d49b7ab	0.049247425
180	0x3d0f6505	0.03500845
181	0x3cb1d277	0.021706803
182	0xbb056d7d	-0.002035945
183	0x3c40a96a	0.011759141
184	0xbc10bbcf	-0.00883384
185	0xbc602c68	-0.013682462
186	0xbdd020fb	-0.101625405
187	0x3c774193	0.015091318
188	0x3d899f58	0.067198455
189	0x3c8f922c	0.017525755
190	0xbc45540d	-0.012043965
191	0x3d2247fa	0.039619423
192	0xbca57ea5	-0.02020199
193	0xbd3bcb47	-0.045848157
194	0xbb3df366	-0.0028984188
195	0xbc48a36a	-0.012245992
196	0x3dc9cc56	0.09853427
197	0xbda1dc39	-0.07903332
198	0xbdae38f8	-0.0850696
199	0x3e083b3d	0.13303848
200	0xbc2a87ec	-0.010408383
201	0x3d76500f	0.060134944
202	0x3c9470bd	0.018120164
203	0xbd52a9b9	-0.05143139
204	0x3de053d6	0.109534904
205	0xbdd053fc	-0.10172269
206	0x3c85cc0a	0.016332645
207	0xbd47363e	-0.048635714
208	0x3d1dc19d	0.038514722
209	0xbd4bfd81	-0.049802307
210	0xbde6caac	-0.11269125
211	0x3df6e02f	0.120544784
212	0x3c811284	0.0157559
213	0xbc848913	-0.016178643
214	0xbce4c4de	-0.027925905
215	0x3d279fee	0.040924005
216	0x3da2731e	0.07932113
217	0xbde277f9	-0.11058039
218	0xbc1afee6	-0.009460187
219	0xbda0002e	-0.07812534
220	0x3b9702ff	0.0046085115
221	0x3da1bab5	0.0789694
222	0xbd96bb1d	-0.07359908
223	0x3db6d272	0.08926858
224	0x3d1ab730	0.037772357
225	0xbdd3d429	-0.10343201
226	0xbdb7f2eb	-0.0898188
227	0x3d0aa370	0.033847272
228	0xbd30fdeb	-0.043210905
229	0xbc851481	-0.016245129
230	0x3c230a54	0.009951193
231	0x3d370212	0.04467971
232	0x3dec0eb2	0.115262404
233	0xbd918908	-0.07106215
234	0xbd118116	-0.035523497
235	0xbd93140f	-0.0718156
236	0x3d1d6049	0.038421903
237	0xbd6af4cf	-0.057362374
238	0x3d03b402	0.03215409
239	0xba375622	-0.0006993731
240	0xbd62ae9c	-0.0553423
241	0x3d0c9208	0.034318954
242	0xbdced6bd	-0.10099552
243	0xbbaa4e1d	-0.0051973
244	0x3dadddfd	0.084896065
245	0xbb20b9a0	-0.0024524704
246	0xbc8afaec	-0.016965352
247	0xbd837c48	-0.06420189
248	0xbcae3a3d	-0.021268005
249	0xbdb45b06	-0.08806424
250	0x3b5cc136	0.0033684499
251	0xbd491f9e	-0.049102418
252	0x3d325bb1	0.043544475
253	0xbdf911fe	-0.12161635
254	0x3d5ca959	0.05387244
255	0xbc90f54f	-0.017695097

conv4.bias f4 [32]
0	0xbbcefd8d	-0.0063168467
1	0x3d81cf8a	0.06338413
2	0xbd70823e	-0.05871796
3	0xbcc54462	-0.024080459
4	0xbdfd576e	-0.123701915
5	0xbc29e7be	-0.010370193
6	0xbd1caf88	-0.038253337
7	0x3c95c3ee	0.018281903
8	0xbcfa9011	-0.030586274
9	0xbc2eda30	-0.010672137
10	0xbd900c26	-0.07033567
11	0xbd1f639a	-0.038913347
12	0xbd217434	-0.03941746
13	0x3cee93d7	0.02912323
14	0xbda61847	-0.08110099
15	0xbdd7d2eb	-0.10538276
16	0xbd8590e7	-0.065217786
17	0xbd413651	-0.04717094
18	0xbd897c04	-0.06713107
19	0xbd807c5d	-0.062737204
20	0xbd23433c	-0.03985904
21	0x3c953af3	0.018216586
22	0x3ddc951d	0.107706286
23	0xbdb0ea7e	-0.08638476
24	0xbd857074	-0.06515589
25	0xbd99d6e2	-0.07511689
26	0xbdcc2258	-0.09967488
27	0xbe80d2d6	-0.25160855
28	0x3c8c3ce2	0.017118875
29	0xbcb449f0	-0.022007912
30	0x3d18f20d	0.037340213
31	0xbd183b4b	-0.03716592

linear.weight f4 [32, 800]
0	0x3d1981ec	0.03747742
1	0x3d8b28c9	0.067948885
2	0xbc9a501b	-0.018837025
3	0xbd081bf4	-0.033229783
4	0x3cc25fd6	0.023727339
5	0xbde4a178	-0.1116361
6	0x3d8252fb	0.063634835
7	0xbd3ad1a9	-0.045610104
8	0x3b5af633	0.0033410906
9	0x3daccd9c	0.084376544
10	0xbd06180d	-0.03273778
11	0xbd9f0f75	-0.0776662
12	0xbd50bfeb	-0.050964277
13	0xbcbef41b	-0.023309758
14	0xbd8d8851	-0.06910766
15	0x3dab1441	0.083534725
16	0x3d67e522	0.056615002
17	0x3c406ad7	0.011744223
18	0x3bee0a62	0.0072644213
19	0xbc4a7955	-0.012358029
20	0x3d852061	0.065003164
21	0xbc1f2ba4	-0.009714995
22	0xbd308c00	-0.043102264
23	0xbcb98ee6	-0.022651147
24	0xbcaee9f5	-0.021351794
25	0x3cf648c2	0.03006399
26	0xbd02eee3	-0.0319661
27	0x3d0c3211	0.034227435
28	0x3c97c8c2	0.018528346
29	0x3a2b9ee4	0.0006546809
30	0xbde79db3	-0.113093756
31	0x3ddd68fa	0.10811038
32	0xbbb01c9e	-0.005374505
33	0xbcd17caf	-0.02557215
34	0x3da255f3	0.0792655
35	0x3c74927c	0.014927503
36	0x3c8e1d3b	0.017347923
37	0xbd5ceea8	-0.053938538
38	0x3d42fed3	0.0476063
39	0x3c82295f	0.015888868
40	0xbb4ee175	-0.0031567488
41	0xbe24b108	-0.16083157
42	0xbc9c2d52	-0.01906458
43	0xbce77ed2	-0.028258715
44	0x3dc0d32b	0.09415277
45	0x3c25d37c	0.010121223
46	0xbd3a8c98	-0.045544237
47	0x3c616c2e	0.013758702
48	0xbbb36a0e	-0.005475289
49	0xbc9c3c9f	-0.019071875
50	0xbe238f21	-0.15972568
51	0x3c4b9fc4	0.012428228
52	0xbbd7b40c	-0.0065827426
53	0x3bd0597a	0.0063583227
54	0x3cb53e0f	0.022124318
55	0x3c073d13	0.008254307
56	0xbdbdff4b	-0.09277209
57	0xbc6c2f6a	-0.014415601
58	0x3bcf46bc	0.006325571
59	0x3c67b8af	0.014143153
60	0xbc009aca	-0.007849405
61	0xbd34df94	-0.044158533
62	0xbcbbc77c	-0.02292227
63	0xbc1d5250	-0.009602144
64	0xbd5897d8	-0.052879184
65	0x3d0bc5e2	0.034124263
66	0x3d90142e	0.07035099
67	0x3bd4011d	0.0064698593
68	0xbc0d4165	-0.008621548
69	0x3c3304a1	0.010926397
70	0x3dc7558b	0.09733113
71	0xbc1e5ec5	-0.0096661495
72	0x3c6c7c65	0.014433955
73	0xbc9ca0b2	-0.019119594
74	0x3ccdb0b9	0.025108682
75	0x3db0c20e	0.08630763
76	0xbd01b2b7	-0.031664576
77	0x3da63989	0.08116443
78	0x3cade293	0.021226203
79	0xbd4d4774	-0.05011697
80	0xbd20a4fd	-0.039219845
81	0x3d457ef6	0.048216783
82	0x3a778174	0.0009441592
83	0xbd578cb8	-0.052624434
84	0x3beb9fb1	0.0071906676
85	0xbbe0337d	-0.0068420754
86	0xbd0c9940	-0.034325838
87	0x3b13361c	0.0022462672
88	0x3c1db3fd	0.009625432
89	0x3d4fbf38	0.05071947
90	0x3d537818	0.051628202
91	0xbdd94757	-0.1060931
92	0x3d410dd0	0.047132313
93	0x3bde0bf3	0.006776327
94	0x3d7272c4	0.05919148
95	0xbd3d4a00	-0.04621315
96	0x3d56732a	0.052355923
97	0x3d36be62	0.044615157
98	0x3ce87be6	0.028379392
99	0x3c7f64eb	0.015588026
100	0xbd9b4c11	-0.07582868
101	0x3d453cdb	0.04815374
102	0xbd53b2d0	-0.0516842
103	0xbd2b7e61	-0.04186857
104	0xbd63fe32	-0.05566234
105	0xbce7d19b	-0.02829819
106	0x3dc77647	0.097393565
107	0x3d17ed48	0.037091523
108	0x3d2ca520	0.042149663
109	0x3d5c63d7	0.053806152
110	0xbd98df21	-0.074644335
111	0x3d9aab5d	0.07552216
112	0x3da7442d	0.081673004
113	0x3d0f010e	0.034913115
114	0x3dcf8bfe	0.10134123
115	0xbd53c8a3	-0.051705014
116	0xbcfbf6a9	-0.030757265
117	0xbd3d0f75	-0.04615732
118	0xbd8df502	-0.06931497
119	0xbdbbe921	-0.09175325
120	0xbd8d9501	-0.06913186
121	0xbdaf1ff3	-0.08551016
122	0xbd509a3d	-0.050928343
123	0xbd9f95f7	-0.077922754
124	0xbdcd2307	-0.100164466
125	0x3cb75f70	0.022384375
126	0xbcf54cdd	-0.029943878
127	0x3d540c08	0.051769286
128	0xbc1116be	-0.00885552
129	0xbb70311b	-0.0036650363
130	0x3c6ede09	0.0145793045
131	0x3dc37781	0.09544278
132	0x3cfbdf49	0.03074612
133	0xbd208b28	-0.03919521
134	0xba2df908	-0.0006636535
135	0x3c09b526	0.008405006
136	0xbd837f99	-0.06420822
137	0xbc21c2a9	-0.009873071
138	0x3b8a52d9	0.004221302
139	0x3d451b7d	0.048121918
140	0xbc32d008	-0.010913856
141	0x3c7d0ed9	0.0154454345
142	0xbc8b1085	-0.01697565
143	0xbcf1aef2	-0.029502366
144	0xbd9cfacd	-0.07665024
145	0x3c0352f1	0.00801538
146	0x3d15bd5c	0.03655754
147	0x39c7d8e6	0.0003811784
148	0xbc33115f	-0.010929435
149	0x3d4bcf13	0.04975803
150	0xbe000d25	-0.12505014
151	0x3dad51b4	0.08462849
152	0x3c0f4b24	0.008745942
153	0x3c48a10b	0.012245427
154	0xbc6708a1	-0.014101178
155	0xbd32f7fd	-0.04369353
156	0x3d7a2efe	0.06107997
157	0xbd6b095e	-0.05738198
158	0xbcbfe74c	-0.02342572
159	0x3da5d0e5	0.08096484
160	0xbd86929b	-0.065709315
161	0x3dc94d01	0.098291405
162	0xbcef35c7	-0.029200448
163	0xbd057ce2	-0.0325898
164	0xbc91883e	-0.01776516
165	0x3d7cb0a1	0.061691884
166	0x3d00e3d3	0.03146727
167	0xbd05aa36	-0.03263303
168	0xbd114708	-0.03546813
169	0xbd1b3172	-0.03788895
170	0x3e03d5fa	0.12874594
171	0x3c3a3bfc	0.01136684
172	0x3c2d2570	0.010568008
173	0xbd2af9af	-0.041742023
174	0xbca8f93b	-0.020626655
175	0x3dd405ce	0.1035267
176	0xbdb3e350	-0.08783591
177	0x3d0691ef	0.032854017
178	0x3d2bf17a	0.041978337
179	0xbd53b23d	-0.051683653
180	0xbdeb154f	-0.11478674
181	0x3c914174	0.017731406
182	0xbbfe96f1	-0.0077694585
183	0xbc86bdeb	-0.016447982
184	0xbac9212e	-0.0015344971
185	0xbbce1bcd	-0.006289935
186	0xbcc832ce	-0.024438288
187	0xbc0fa929	-0.008768358
188	0x3b7175b9	0.003684385
189	0x3cfaf57a	0.03063463
190	0xbd002ce8	-0.031292826
191	0x3d6fdb5e	0.058558814
192	0x3d769ab7	0.06020614
193	0x3d7ee4ac	0.062229797
194	0xbdd98c19	-0.10622425
195	0xbd06e9c2	-0.032937773
196	0x3ced3099	0.028953837
197	0x3a39d4e7	0.0007088915
198	0xbb9a1bf0	-0.0047030374
199	0x3d008ebc	0.031386122
200	0xbd68e976	-0.05686327
201	0x3d9091af	0.07059037
202	0x3c0caba6	0.008585846
203	0xbcc83f7f	-0.02444434
204	0xbcaa3287	-0.020776046
205	0x3d942a0b	0.072345816
206	0xbd0c484e	-0.034248643
207	0x3d18ae36	0.037275515
208	0xbcd4a47b	-0.025957337
209	0x3d1c70cb	0.038193505
210	0x3c10cf85	0.008838539
211	0x3cad63dc	0.02116578
212	0xbcb30d7a	-0.021857012
213	0x3b8a3fda	0.0042190375
214	0xbcd782a5	-0.026307413
215	0x3cedf469	0.029047208
216	0xbd0c2534	-0.034215167
217	0xbc8913cb	-0.01673307
218	0xbc40e5b0	-0.011773512
219	0x3d5a6f83	0.053329002
220	0x3daa6be8	0.08321363
221	0xbd184156	-0.037171684
222	0xbb951c3e	-0.004550486
223	0xbd2a7748	-0.04161766
224	0xbc0cddc4	-0.008597795
225	0xba1ea235	-0.00060513924
226	0x3d65b333	0.0560791
227	0xbc597524	-0.013272557
228	0xbd95ba7b	-0.07310959
229	0x3d39bec4	0.045347944
230	0xbdd9a13c	-0.10626456
231	0x3c72988d	0.014806879
232	0xbbe13049	-0.006872211
233	0x3bce4c2c	0.0062957015
234	0xbc8c2372	-0.017106745
235	0xbc3fe7ed	-0.01171301
236	0x3d2419f3	0.04006381
237	0x3b4d79b2	0.0031353054
238	0x3cfadd98	0.030623242
239	0xbd11c6ee	-0.035590105
240	0x3db46bb5	0.08809606
241	0xbde1f1c6	-0.11032443
242	0xbd48d5bf	-0.04903197
243	0xbcd95701	-0.026530745
244	0xbd8da853	-0.06916871
245	0x3cf96a44	0.03044618
246	0x3d18cea1	0.03730643
247	0x3c8d3513	0.017237222
248	0x3d79262b	0.060827415
249	0x3d22f63d	0.039785612
250	0xbd839b33	-0.06426086
251	0xbbaf93a7	-0.0053581777
252	0x3c89f097	0.016838355
253	0x3b642e2c	0.003481756
254	0x3d4e7f6c	0.050414488
255	0xbcc151c0	-0.023598552

linear.bias f4 [32]
0	0x3e2bd7b2	0.167815
1	0xbdee9ae5	-0.116506375
2	0xbdec42f7	-0.1153621
3	0xbc0044a5	-0.007828866
4	0x3c406155	0.011741956
5	0x3dd0744c	0.10178432
6	0xbe18aaa3	-0.14908843
7	0x3d8a49a9	0.06752331
8	0x3c7d91ef	0.015476688
9	0xbd7b181b	-0.061302286
10	0x3a722f79	0.00092386414
11	0xbe15d59b	-0.14632265
12	0xbd0228bb	-0.031777125
13	0x3e11aad9	0.1422533
14	0xbdf678df	-0.12034773
15	0x3dc49e07	0.09600454
16	0xbd3d2f73	-0.04618783
17	0x3dd82a3c	0.105549306
18	0x3d709186	0.058732532
19	0xbe18ea3d	-0.14933105
20	0x3d823521	0.0635779
21	0xbc95fd50	-0.018309265
22	0x3c7ff67c	0.015622731
23	0xbc8547b6	-0.016269546
24	0xbd7bfc27	-0.061519768
25	0x3d96c1d0	0.073611856
26	0x3cdf40e0	0.027252614
27	0x3e13da7e	0.14438817
28	0x3cce3f57	0.025176687
29	0x3c7cdd14	0.0154335685
30	0xbe26a737	-0.16274725
31	0xbcd6856a	-0.026186664

critic_linear.weight f4 [1, 32]
0	0x3e08c687	0.13356982
1	0xbe110cf9	-0.14165105
2	0xbe269ea1	-0.1627145
3	0x39be4197	0.00036288492
4	0xbaf98282	-0.0019036087
5	0x3d5a28c2	0.053261526
6	0xbdc2085d	-0.094742514
7	0x3ca1f1c4	0.019768603
8	0xbaa66456	-0.0012694697
9	0xbc6350df	-0.013874262
10	0xbbacbd3c	-0.005271582
11	0xbdc28a79	-0.09499068
12	0xbbca2911	-0.0061694463
13	0x3de3407e	0.11096285
14	0xbe050b40	-0.12992573
15	0x3d1251ff	0.03572273
16	0xbd540679	-0.051763985
17	0x3de4fb84	0.11180785
18	0x3c59a2c2	0.013283433
19	0xbe1d836e	-0.15382168
20	0x3b3c5c44	0.0028741518
21	0x39429a1f	0.00018558696
22	0x3b397e0e	0.0028303894
23	0xb9e74e60	-0.00044118147
24	0xbc23f7a4	-0.010007773
25	0x3ceb630c	0.028733753
26	0x3c586394	0.013207335
27	0x3dea1c8e	0.114312276
28	0xba914f07	-0.0011086174
29	0x3b3a9989	0.0028472862
30	0xbdea2d0a	-0.11434372
31	0xb9a7b2f6	-0.00031986058

actor_linear.weight f4 [6, 32]
0	0x3cded0a5	0.027199099
1	0x3d549eb4	0.051909164
2	0xbe2a0310	-0.16602731
3	0xbc4c8599	-0.012483024
4	0x3d8d69cc	0.06904945
5	0x3e07050e	0.13185522
6	0xbd287f0e	-0.041136794
7	0xbc4c1be3	-0.012457821
8	0xbcb186b0	-0.02167067
9	0xbd19332b	-0.037402313
10	0x3dc5ccab	0.09658178
11	0xbae3aabc	-0.0017369608
12	0xbd0fd9d9	-0.035119865
13	0x3e21c56c	0.15797967
14	0xbe0d2c37	-0.13786398
15	0x3e3931c5	0.18085392
16	0x3d10c025	0.035339493
17	0xbd803bc2	-0.06261398
18	0x3db440a8	0.08801395
19	0xbe1f3bb4	-0.15550119
20	0xbcd4bf5a	-0.02597015
21	0xbdcf598d	-0.10124502
22	0x3be4b775	0.0069798776
23	0x3dacf8f5	0.08445922
24	0xbd485102	-0.04890538
25	0x3dcdbab6	0.10045378
26	0x3d373d87	0.04473641
27	0xbd9df54b	-0.077128015
28	0x3b311d1e	0.0027025412
29	0xbd3289bd	-0.04358839
30	0x3d1a01f2	0.03759951
31	0x3c9244b7	0.017855031
32	0x3d88352c	0.06650767
33	0xbd8487e8	-0.064712346
34	0xbd040835	-0.03223439
35	0x3caf01e6	0.02136321
36	0xbc82998c	-0.015942357
37	0xbc474067	-0.012161351
38	0x3d1fd714	0.039023474
39	0x3cfe11d3	0.031014359
40	0xbd68ce07	-0.056837108
41	0xbde06d83	-0.10958388
42	0xbbfc8398	-0.007706117
43	0x3d910bde	0.070823416
44	0xbd7d0af9	-0.061778042
45	0x3e40e4fc	0.1883735
46	0xbe48156b	-0.1953942
47	0x3de4b209	0.1116677
48	0xbd32219a	-0.043489076
49	0xbc672283	-0.014107349
50	0xbc92a4df	-0.017900882
51	0xbddccd11	-0.10781301
52	0x3d905139	0.07046742
53	0xbd78fe99	-0.06078968
54	0xbb10a304	-0.002206982
55	0x3d60441b	0.05475245
56	0xbcb2a87b	-0.021808853
57	0x3ccc12ca	0.024911303
58	0x3e005bff	0.12535094
59	0x3e2b1b3b	0.16709606
60	0x3c4cf023	0.012508425
61	0xbc0b5ae1	-0.008505554
62	0xbdc7f20a	-0.09762962
63	0xbc4ad651	-0.012380199
64	0x3d3e21f8	0.046419114
65	0xbd949305	-0.07254604
66	0xbe63bc82	-0.22239879
67	0x3cf64d31	0.030066105
68	0xbdc427a2	-0.09577872
69	0xbd6dbccc	-0.05804138
70	0xbd9fdf2c	-0.078062385
71	0x3da96120	0.08270478
72	0xbe1355e9	-0.14388241
73	0x3d40650b	0.046971362
74	0x3d51d326	0.051226757
75	0xbbe7d398	-0.0070747845
76	0xbd94894d	-0.072527505
77	0x3db8cd96	0.090235874
78	0xbc8210f0	-0.015877217
79	0x3d4cd1ad	0.05000465
80	0xbd89db61	-0.06731296
81	0x3dbacdd7	0.09121292
82	0xbd313ece	-0.043272786
83	0xbddb7526	-0.10715704
84	0x3cbba95b	0.022907903
85	0x3a1d547c	0.0006001664
86	0x3c6759a6	0.014120495
87	0xbdbf853b	-0.093515836
88	0xbd7e47c9	-0.06208018
89	0x3dccd075	0.100006975
90	0xbdd51b4c	-0.10405597
91	0xbde7c966	-0.113177106
92	0x3b9710c6	0.004610154
93	0xbcc15e95	-0.02360467
94	0xbd60af17	-0.05485448
95	0xbcd4da3a	-0.025982965
96	0x3d85f2bc	0.065404385
97	0xbb081e0d	-0.0020769865
98	0xbe038352	-0.12843063
99	0x3d9106f0	0.07081401
100	0x3c8e1a2a	0.01734646
101	0x3e24813f	0.16064928
102	0x3e0ec3c8	0.13941872
103	0x3d8033c3	0.06259873
104	0x3d5b54e4	0.053547755
105	0xbc4c8bc3	-0.012484494
106	0x3bc97485	0.0061479234
107	0xbc10959a	-0.00882473
108	0x3e0aa60a	0.13539901
109	0x3dd78bcc	0.10524711
110	0xbc803bf9	-0.015653597
111	0xbc5e8aa1	-0.013582856
112	0xbdf4e18e	-0.11957084
113	0xbc373980	-0.011183143
114	0x3e2e5cef	0.17027639
115	0xbc53d0f4	-0.012928236
116	0x3d28c551	0.0412038
117	0x3c2f3baa	0.010695377
118	0x3cd4ade3	0.025961822
119	0x3e200efa	0.15630713
120	0x3e05978d	0.13046093
121	0x3d92314b	0.07138308
122	0x3e11cda7	0.14238606
123	0x3dffcb04	0.12489894
124	0x3d6e39a4	0.05816044
125	0xbbd4a7fc	-0.006489752
126	0xba377eef	-0.00069998106
127	0xbd7e5ec2	-0.062102087
128	0x3dd7ede3	0.1054342
129	0xbd14db20	-0.036341786
130	0xbe67052f	-0.22560571
131	0x3d72970a	0.059226073
132	0xbdc63b92	-0.09679331
133	0x3e0cdf4d	0.13757057
134	0xbdf7e2ee	-0.1210383
135	0x3e35fc9c	0.17772144
136	0xbde7bf1d	-0.11315749
137	0xbca1e1c9	-0.019760983
138	0x3d26a50d	0.04068475
139	0xbe094810	-0.13406396
140	0xbdd88ec7	-0.105741076
141	0xbcb9e00f	-0.022689847
142	0xbdf1da8f	-0.11809265
143	0x3d424d93	0.04743726
144	0xbe4e3a82	-0.20139506
145	0xbce6a028	-0.02815254
146	0x3cd1c1c1	0.025605084
147	0xbdf36a66	-0.11885528
148	0x3cc19017	0.023628278
149	0xbc733748	-0.014844723
150	0x3b2f027e	0.0026704366
151	0xbd3c5041	-0.045974974
152	0xbe0b509b	-0.13604967
153	0xbda479a2	-0.08031012
154	0xbd25b3f0	-0.040454805
155	0xbdcc296b	-0.09968837
156	0x3bde26e8	0.0067795403
157	0xbcdbb931	-0.026821705
158	0xbd7e69b6	-0.062112533
159	0xbd53c2a0	-0.05169928
160	0x3e14436c	0.14478844
161	0x3b9d1d08	0.0047947206
162	0x3cca87c5	0.024722943
163	0x3c9c9bc0	0.019117236
164	0x3b94022f	0.004516862
165	0x3dcd7a44	0.10033086
166	0x3db4189d	0.08793757
167	0x3d2f740d	0.042835284
168	0x3d8de23d	0.06927917
169	0x3d503515	0.050831873
170	0xbd646576	-0.055760823
171	0xbd58a340	-0.052890062
172	0x3dbf26d4	0.09333578
173	0x3da6e776	0.081496164
174	0x3d1f1447	0.038837697
175	0x3e3544ce	0.17702028
176	0xbe6c8f22	-0.23101476
177	0x3da7ca76	0.08192913
178	0x3db45334	0.08804932
179	0xbde49aa7	-0.1116231
180	0x3c35e1f5	0.011101236
181	0x3c91d875	0.01780341
182	0xbb666f42	-0.003516153
183	0x3e2bdf1b	0.16784327
184	0x3daa1a0e	0.08305751
185	0x3e117f6e	0.14208767
186	0x3e6abd1e	0.22923705
187	0x3e5abc67	0.21360932
188	0x3caeb056	0.021324318
189	0xbc596a57	-0.013269982
190	0xbc925715	-0.01786379
191	0xbc527c8e	-0.012847079

actor_linear.bias f4 [6]
0	0xbd71f2ad	-0.059069324
1	0x3d3732c9	0.044726167
2	0x3e25aabc	0.16178411
3	0x3ccfffce	0.025390532
4	0xbd0ec841	-0.034858946
5	0x3d83480c	0.06410226
