spaceinvaders-v0-bottom-7fskip_latent32/model.42.tar (torch, 223035 bytes, 13 tensors)

conv1.weight f4 [32, 4, 3, 3]
0	0xbb15c3ac	-0.0022852225
1	0xbdc8af5c	-0.09799072
2	0xbcde3257	-0.027123613
3	0xbd00817b	-0.031373482
4	0xbea303d0	-0.31838846
5	0x3d354bb8	0.044261664
6	0x3de81dcc	0.11333808
7	0x3dcb8e22	0.09939219
8	0x3ca366c6	0.019946467
9	0xbd7a1049	-0.061050687
10	0x3e248d56	0.1606954
11	0x3cb93e63	0.022612756
12	0xbc66a4d0	-0.01407738
13	0x3d09a5e8	0.033605486
14	0xbd742e64	-0.059614554
15	0x3d93d90e	0.07219134
16	0x3dfa034b	0.12207659
17	0x3c13127f	0.008976578
18	0x3cfa4fa9	0.030555563
19	0x3de4c440	0.11170244
20	0xbd43d94a	-0.047814645
21	0xbda40630	-0.08008993
22	0xbcc18848	-0.023624554
23	0xbdb06209	-0.08612449
24	0x3df19a98	0.117970645
25	0x3bf97d45	0.0076138102
26	0x3e1673d4	0.14692622
27	0x3e1f1a7b	0.15537445
28	0xbe91ef3c	-0.28502834
29	0x3cfee3f0	0.031114548
30	0x3d94b350	0.07260764
31	0x3e8e14ec	0.27750337
32	0x3dea71a9	0.1144746
33	0xbe994295	-0.2993361
34	0xbdfc2775	-0.12312213
35	0xbe42403b	-0.18969814
36	0x3cbc0166	0.022949886
37	0xbdb76088	-0.08953959
38	0x3e08f849	0.13375963
39	0xbd98406a	-0.07434161
40	0x3e0eea7a	0.13956633
41	0x3bbde28a	0.005794828
42	0x3e42fc5c	0.1904158
43	0xbd97712d	-0.073946334
44	0xbe34e2e3	-0.17664675
45	0x3bce4093	0.006294319
46	0xbd8f2ee4	-0.069913656
47	0xbcea19b9	-0.028576719
48	0xbd55f112	-0.052231856
49	0x3d6628d3	0.056191277
50	0xbdd324b2	-0.103097335
51	0xbd3a9973	-0.045556497
52	0x3da24eda	0.07925196
53	0x3cb8d33a	0.022561658
54	0xbc684bd2	-0.014178233
55	0x3e3718e1	0.17880584
56	0x3b8ac4e6	0.004234898
57	0xbe028a45	-0.12748058
58	0x3daaae35	0.083340086
59	0x3e025a82	0.12729838
60	0xba40479a	-0.0007334888
61	0x3ccc7499	0.024957942
62	0x3ca5e032	0.020248506
63	0x3eaf80f0	0.3427806
64	0xbe861339	-0.2618654
65	0xbe094e0f	-0.13408683
66	0x3d174e76	0.03694006
67	0xbe237517	-0.15962635
68	0xbcc18a71	-0.023625584
69	0xbeabda4e	-0.3356499
70	0x3e6f4b6c	0.23368615
71	0xbdc18c7b	-0.09450623
72	0x3db55a20	0.088550806
73	0xbcbb2d41	-0.022848727
74	0x3e5ca124	0.21545845
75	0xbd84a7bc	-0.06477305
76	0x3d981e2c	0.0742763
77	0x3e3478e5	0.17624243
78	0xbe6ce187	-0.23132907
79	0xbd68c442	-0.05682779
80	0xbdc3e023	-0.09564235
81	0xbe117a10	-0.1420672
82	0x3cf65269	0.030068593
83	0x3bd40035	0.0064697512
84	0x3b6e9a3f	0.0036407856
85	0xbde02a27	-0.1094554
86	0xbdbd6374	-0.09247485
87	0x3dc3061a	0.09522648
88	0xbdedf198	-0.11618346
89	0x3e321b23	0.17393164
90	0x3da15116	0.07876794
91	0xbd57eedf	-0.05271804
92	0x3e3c895c	0.18411773
93	0x3c315d0f	0.01082541
94	0xbddc34df	-0.10752272
95	0xbc9114c7	-0.017710103
96	0x3e14904d	0.14508171
97	0x3d9d1880	0.07670689
98	0xbe145743	-0.14486413
99	0xbda11680	-0.0786562
100	0x3e289be4	0.16465718
101	0xbdfb6c30	-0.122764945
102	0x3d891d57	0.06695049
103	0xbd6d120b	-0.057878535
104	0xbe707383	-0.23481564
105	0xbd8c797b	-0.06859108
106	0x3e962bc8	0.29330277
107	0x3cca52ac	0.024697624
108	0x3e265d7a	0.16246596
109	0x3dc158d3	0.0944077
110	0xbc779d5c	-0.015113201
111	0x3e025cc9	0.12730707
112	0x3e7d06ad	0.24709578
113	0xbd87eca3	-0.06636932
114	0x3df9547b	0.121743165
115	0x3eb26deb	0.34849486
116	0x3dc88d6b	0.09792598
117	0x3d88286e	0.06648336
118	0xbe574b28	-0.21024764
119	0xbe136802	-0.14395145
120	0xbe071068	-0.13189852
121	0xbd0596da	-0.032614566
122	0x3e15b386	0.14619264
123	0xbd391a02	-0.04519082
124	0x3d7599a7	0.059960987
125	0xbe0ff864	-0.14059597
126	0xbd41da68	-0.04732743
127	0xbd69afd9	-0.057052467
128	0x3e02178c	0.12704295
129	0x3e1d0f45	0.15337856
130	0xbe46994f	-0.1939442
131	0x3d1bde84	0.038054004
132	0x3e1d01ed	0.15332766
133	0x3dd8ebe7	0.1059187
134	0x3da6ca53	0.08144059
135	0x3dba953c	0.091104954
136	0x3cde4854	0.027134098
137	0x3e164a0a	0.14676681
138	0xbe3e0d14	-0.18559676
139	0xbf078375	-0.5293496
140	0xbe48181f	-0.19540451
141	0xbce81660	-0.028330982
142	0xbe516aef	-0.20450948
143	0x3c54f8e8	0.012998797
144	0xbdcef96f	-0.101061694
145	0xbe14f49c	-0.14546436
146	0x3e398ffb	0.1812133
147	0x3d784465	0.0606121
148	0x3dbd0a9e	0.09230541
149	0x3d0e265d	0.034704555
150	0xbd248ab1	-0.04017133
151	0x3eace819	0.33770826
152	0xbd9fca10	-0.07802212
153	0xbd8ce369	-0.068793125
154	0xbe38a0f9	-0.18030156
155	0xbe25ce05	-0.16191871
156	0xbdee314c	-0.116304964
157	0xbdb3bfb7	-0.08776801
158	0x3c8c0605	0.017092714
159	0xbd60fe6d	-0.05493014
160	0xbd503f2a	-0.050841488
161	0x3b86b849	0.004111324
162	0xbd8d5af6	-0.06902115
163	0x3dc601ff	0.096683495
164	0xbde3c469	-0.11121447
165	0xbca29b9a	-0.019849587
166	0xbe2a1eb2	-0.16613272
167	0xbded8f0b	-0.11599549
168	0xbdb8284f	-0.08992063
169	0xbe0e1682	-0.13875774
170	0xbdf1bd10	-0.11803639
171	0x3e4b3078	0.19842708
172	0x3da4c65d	0.08045647
173	0xbda68adc	-0.08131954
174	0x3e332319	0.17493857
175	0x3e833e1e	0.2563333
176	0x3e5dbf28	0.21654952
177	0x3ca6e50b	0.020372888
178	0xbe187dbd	-0.14891715
179	0x3e8966a7	0.2683613
180	0xbe0667ac	-0.13125485
181	0xbe203c5e	-0.15648028
182	0xbe584909	-0.2112161
183	0xbe164d68	-0.14677966
184	0xbebb002e	-0.36523575
185	0x3b8b2370	0.004246168
186	0xbe833048	-0.25622773
187	0xbeb9a0ec	-0.36255586
188	0xbe27103a	-0.16314784
189	0xbd41eb43	-0.047343504
190	0x3d63aee1	0.0555867
191	0xbd3f3fcd	-0.046691705
192	0xbe042d20	-0.12907839
193	0xbd405ddb	-0.046964508
194	0x3d806226	0.0626872
195	0xbe0756dd	-0.1321673
196	0x3d499fd9	0.04922471
197	0x3d3c80ff	0.046021458
198	0x3e381f41	0.17980672
199	0xbd839c57	-0.06426304
200	0x3dd0a561	0.101877935
201	0xbe2d72eb	-0.16938369
202	0x3e045136	0.12921605
203	0xbdac0f36	-0.08401339
204	0x3dfb1e02	0.12261583
205	0x3d83d24c	0.06436595
206	0xbd9ba7cf	-0.07600366
207	0x3e22f2ec	0.1591298
208	0x3e8aa507	0.2707903
209	0x3e8aa346	0.27077693
210	0x3b9a1103	0.004701735
211	0x3e1863c8	0.14881814
212	0xbd5d0bbc	-0.05396627
213	0x3e59717e	0.212347
214	0x3ea463af	0.32107303
215	0x3e84baae	0.25923675
216	0x3e9bc768	0.30425572
217	0x3d1ef42c	0.03880708
218	0x3caed94a	0.021343846
219	0x3e88f51d	0.26749507
220	0x3d746594	0.059667185
221	0x3e4c08b5	0.19925196
222	0xbe87ad5f	-0.2649946
223	0xbea7b77f	-0.32757184
224	0x3d39f755	0.04540189
225	0xbca1eaca	-0.019765276
226	0xbc36b509	-0.011151561
227	0x3e5afe0f	0.21385978
228	0x3e0c0cfa	0.13676825
229	0x3e0126db	0.12612478
230	0x3c9b25d7	0.018938942
231	0xbe257f83	-0.16161923
232	0x3d3ae487	0.045628097
233	0xbd749fa4	-0.059722558
234	0x3c167e8b	0.009185444
235	0xbd05640a	-0.032566108
236	0x3d0fbb12	0.035090514
237	0x3e0987a9	0.13430656
238	0x3d98748a	0.07444103
239	0xbd0659e4	-0.03280057
240	0xbe268aa4	-0.16263825
241	0x3c80bc9c	0.015714936
242	0x3da1c7b2	0.07899417
243	0xbddd0f21	-0.10793901
244	0xbea29f18	-0.31762004
245	0xbda050b6	-0.078278944
246	0xbe2a6ac3	-0.16642289
247	0xbe997a0a	-0.2997592
248	0xbe0c08a0	-0.13675165
249	0x3e5b17e7	0.21395837
250	0x3eb44fe5	0.35217205
251	0x3d0774b8	0.033070296
252	0xbdac1928	-0.08403236
253	0xbd30cb76	-0.043162785
254	0xbd9a5d0d	-0.07537279
255	0xbea94387	-0.33059332

conv1.bias f4 [32]
0	0x3b71dd58	0.0036905613
1	0x3bd16570	0.006390266
2	0xbb5155b8	-0.0031941961
3	0xbc422f49	-0.011852094
4	0xbadfd8d7	-0.0017078173
5	0x3bc402af	0.005981765
6	0xbbd01218	-0.006349813
7	0xbb0c6f74	-0.0021428736
8	0x3b31424e	0.0027047577
9	0x3c2677ba	0.010160381
10	0x3b7470ce	0.0037298682
11	0x3aaec29a	0.0013333142
12	0x3b7ed5f8	0.003888486
13	0x3bd431e7	0.0064756754
14	0x3a4317bd	0.0007442197
15	0x3dbcc3f4	0.092170626
16	0xb9c8fce4	-0.0003833539
17	0xbae3b292	-0.0017371944
18	0x3d7e9b15	0.062159617
19	0x3add8bad	0.0016902589
20	0x3b1515ef	0.002274867
21	0x399236ef	0.0002788822
22	0xba37ef1c	-0.0007016526
23	0xb767f66f	-1.382605e-05
24	0x39b4e4da	0.00034502783
25	0x3afa4f73	0.0019097164
26	0x3a8d37c0	0.0010774061
27	0xbb96033c	-0.0045780223
28	0xbc12ad43	-0.008952442
29	0xbc25eee0	-0.010127753
30	0x3a68c27c	0.0008879078
31	0x3aec1d39	0.001801408

conv2.weight f4 [32, 32, 3, 3]
0	0xbe0a91d6	-0.13532194
1	0xbd567641	-0.05235887
2	0x3dca571c	0.09879896
3	0x3e786020	0.24255419
4	0x3e9ac5e5	0.30229107
5	0xbdf30ea7	-0.11868029
6	0xbdc4bb64	-0.096060544
7	0xbe205917	-0.15658985
8	0x3cbce2ca	0.02305736
9	0x3d4cb359	0.049975727
10	0xbe762245	-0.2403651
11	0x3cf26feb	0.029594382
12	0x3df02cac	0.117272705
13	0x3e36bd4c	0.17845649
14	0x3c875761	0.016521158
15	0x3db70bd9	0.08937807
16	0xbde7b9ec	-0.11314759
17	0xbbf8c539	-0.00759187
18	0x3cf9a02a	0.03047188
19	0xbe1f6acc	-0.15568084
20	0xbdb2fd2f	-0.08739697
21	0xbd51ef17	-0.051253404
22	0xbd68eb9f	-0.05686533
23	0x3df9d815	0.121994175
24	0xbc4bf035	-0.012447407
25	0x3db2cd25	0.087305345
26	0x3be29a91	0.0069153984
27	0x3bf01797	0.007327031
28	0xbe12330f	-0.1427729
29	0xbc9ee5da	-0.019396711
30	0xbe3b4385	-0.18287475
31	0xbe84d349	-0.25942448
32	0x3d09f171	0.033677522
33	0xbcf25153	-0.029579794
34	0x3d86e588	0.06586748
35	0x3c8184fb	0.01581048
36	0xbd96b961	-0.07359577
37	0x3b27241e	0.0025503705
38	0x3df4af64	0.119475156
39	0x3e3795a6	0.1792818
40	0x3e42073a	0.18948069
41	0xbcbbe533	-0.02293644
42	0xbd8142c3	-0.06311562
43	0xbe5dd058	-0.21661508
44	0xbd2223fc	-0.0395851
45	0x3e03f734	0.1288727
46	0xbd649eba	-0.055815436
47	0xbe84745b	-0.25870022
48	0x3c8fda1a	0.017560054
49	0xbdfe910c	-0.12430009
50	0xbdd61c5f	-0.1045463
51	0x3bdb53ed	0.0066933543
52	0x3d10eeae	0.035383873
53	0x3de9cbfb	0.11415859
54	0x3e198bad	0.14994688
55	0x3d1be55f	0.038060542
56	0xbe0ce1da	-0.1375803
57	0xbe42a26c	-0.19007272
58	0x3cd0cf27	0.025489403
59	0x3ddfa07c	0.10919282
60	0xbd740ae2	-0.05958069
61	0xbd447a38	-0.04796812
62	0xbe49395d	-0.19650789
63	0xbe3752f7	-0.17902742
64	0xbcab1e94	-0.020888604
65	0xbd04468c	-0.03229384
66	0x3e1cd4c2	0.15315536
67	0x3e3ce43b	0.18446438
68	0xbe59b6c2	-0.21261123
69	0x3c04404f	0.008071973
70	0xbc7fb311	-0.015606658
71	0x3e52c88c	0.20584315
72	0xbdd0dbe3	-0.1019819
73	0x3e6c1f4e	0.23058817
74	0x3de56f89	0.11202914
75	0x3df9410b	0.12170609
76	0x3df64b1a	0.12026043
77	0x3b5d447c	0.0033762744
78	0xbe6f6943	-0.23379998
79	0xbe60cc15	-0.21952851
80	0x3c8e51c7	0.017372979
81	0x3d9e4b0d	0.077291586
82	0xbd429995	-0.04750975
83	0xbc49c93e	-0.012316046
84	0x3d1056c9	0.035239015
85	0x3dd78f28	0.10525352
86	0xbd6dbbc9	-0.058040414
87	0xbdd16936	-0.102251455
88	0x3e4b6380	0.19862175
89	0x3d607709	0.05480102
90	0xbdb445a2	-0.08802344
91	0xbc9cf02e	-0.019157495
92	0x3d34c901	0.044137005
93	0x3e61e3cc	0.22059554
94	0x3eb9069d	0.36137858
95	0xbdfe668a	-0.124219015
96	0x3ba220b8	0.004947748
97	0xbd8e24bd	-0.06940601
98	0xbda37ded	-0.07983003
99	0x3dfedec3	0.12444832
100	0x3ba3e301	0.005001426
101	0x3d8fdd41	0.07024623
102	0x3de034d4	0.10947576
103	0x3ce14a1d	0.02750116
104	0x3dd9d77e	0.10636805
105	0xbd33c6c3	-0.043890726
106	0xbe1cbef0	-0.15307212
107	0xbe81b4e3	-0.25333318
108	0xbdcedbd2	-0.10100521
109	0x3cc45697	0.02396707
110	0x3d87778e	0.066146
111	0x3eaa2057	0.33227798
112	0x3e3082d6	0.1723741
113	0xbd98e1ce	-0.07464944
114	0xbd2358a9	-0.039879475
115	0xbe9514f2	-0.29117543
116	0x3c22306c	0.00989924
117	0xbd985167	-0.07437401
118	0x3d965019	0.07339496
119	0x3e89b36c	0.268947
120	0x3e0ee033	0.13952713
121	0x3d0c86e9	0.034308348
122	0xbc91b3b5	-0.017785886
123	0x3e11325a	0.14179364
124	0xbe878137	-0.2646577
125	0x3d9c35c5	0.07627443
126	0x3d8b3910	0.06797993
127	0xbd9e59cd	-0.07731972
128	0xbdc05998	-0.09392089
129	0x3d802b11	0.06258214
130	0xbd3e17f6	-0.04640957
131	0x3dad8bb7	0.08473914
132	0xbc9cb6a8	-0.019130066
133	0xbdf3bd1e	-0.119013056
134	0xbdb25d6a	-0.087092236
135	0xbc86a292	-0.016434941
136	0xbda244cb	-0.079232775
137	0xbdcb0ee2	-0.09914948
138	0xbbbceaac	-0.0057652798
139	0x3e10af01	0.14129259
140	0x3e10fd45	0.14159115
141	0xbc5f31ca	-0.0136227105
142	0xbd42524d	-0.04744177
143	0xbd86d702	-0.06583978
144	0xbd90e0d9	-0.07074136
145	0xbdcef4c4	-0.10105279
146	0xbdc068d7	-0.093949966
147	0x3de7ce15	0.11318604
148	0xbcba2c7a	-0.022726286
149	0xbdeb4361	-0.11487461
150	0x3ddecce3	0.10878923
151	0x3c8c291c	0.017109446
152	0x3e1373ca	0.14399639
153	0xbe29b4fa	-0.16572943
154	0x3d6d5f4e	0.057952218
155	0x3cd2b7d1	0.025722416
156	0x3bea0d54	0.007142702
157	0x3e1d5214	0.15363342
158	0xbd034ccb	-0.032055657
159	0x3dc7996c	0.0974606
160	0xbd330ef1	-0.04371542
161	0xbdb11389	-0.08646304
162	0xbb8a3dd1	-0.004218795
163	0xbd6eefa4	-0.058334008
164	0xbd88d23c	-0.06680724
165	0xbaf8172b	-0.0018927803
166	0x3de0dd9e	0.1097977
167	0x3e15f76c	0.14645165
168	0xbda02f92	-0.07821573
169	0xbd96943d	-0.07352493
170	0x3cb80166	0.022461604
171	0x3defc8f3	0.1170825
172	0xbda4edbf	-0.08053159
173	0x3d2bc6f5	0.041937787
174	0x3d558ada	0.052134372
175	0xbdb32ea7	-0.087491326
176	0x3d2ee113	0.042695116
177	0xbda7e179	-0.08197302
178	0xbe4a780d	-0.19772358
179	0xbca2fac5	-0.019894967
180	0xbd0ba570	-0.03409332
181	0xbe28691d	-0.16446348
182	0x3e076c92	0.1322501
183	0x3df80526	0.12110357
184	0x3df0cbdf	0.11757635
185	0xbd95fe3b	-0.07323881
186	0x3dca5e4e	0.098812684
187	0xbd92d8b8	-0.07170242
188	0xbd825e23	-0.063656114
189	0x3e2cdd81	0.16881372
190	0xbc689d35	-0.014197637
191	0xbcfb162f	-0.030650226
192	0xbdccef6f	-0.10006606
193	0xbdeec54d	-0.11658726
194	0x3c0392bc	0.00803059
195	0x3dbf30fd	0.09335516
196	0xbd9a1f5b	-0.07525512
197	0xbce12f75	-0.02748845
198	0xbd32c47f	-0.043644425
199	0x3d674dbf	0.05647063
200	0x3d9af68c	0.07566556
201	0x3dccb319	0.09995098
202	0xbca3d959	-0.0200011
203	0xbdbb9dc8	-0.09160954
204	0xbc60cf8f	-0.013721361
205	0xbdc23ee8	-0.09484655
206	0x3cafa20d	0.021439577
207	0xbdcac2a3	-0.09900405
208	0x3cee35cf	0.029078392
209	0x3e1e4d7a	0.15459242
210	0xbde45cab	-0.111504875
211	0x3cd4f73c	0.025996797
212	0xbda37407	-0.07981115
213	0x3d7effb5	0.06225558
214	0x3e757121	0.23968937
215	0xbda76096	-0.08172719
216	0x3d2a3a80	0.041559696
217	0x3d5e7ab7	0.05431625
218	0x3d2f3a8f	0.042780455
219	0xbcf0735e	-0.029351886
220	0xbde88f29	-0.11355431
221	0xbe041ac1	-0.12900831
222	0x3d7ad6d6	0.06124004
223	0xbe464a29	-0.19364227
224	0xbd98c800	-0.07460022
225	0x3de0fb57	0.10985439
226	0x3cbb4b3a	0.02286302
227	0x3c5d976c	0.013524871
228	0x3d1fd10e	0.03901773
229	0xbd41acf1	-0.04728407
230	0xbdd5bbcc	-0.1043621
231	0xbe3abea9	-0.18236794
232	0xbccdc9ec	-0.025120698
233	0x3cf24f37	0.029578788
234	0xbc0e9a53	-0.008703786
235	0xbe3e337d	-0.18574329
236	0xbcc460af	-0.023971884
237	0x3d777963	0.060418498
238	0x3d44833d	0.04797672
239	0xbe6cdaee	-0.2313039
240	0xbe232767	-0.15933
241	0x3e766159	0.24060573
242	0x3d44179f	0.04787409
243	0x3e346c21	0.17619373
244	0xbe88b8c7	-0.26703474
245	0xbdfd4a4f	-0.12367689
246	0xbd92ae0b	-0.07162102
247	0xbe7be013	-0.24597196
248	0xbd78f4f9	-0.0607805
249	0x3df69765	0.12040595
250	0x3e3fbbc0	0.18723965
251	0x3e433ecf	0.19066928
252	0x3e01414b	0.12622564
253	0x3e7695b4	0.24080545
254	0xbdfc0015	-0.12304703
255	0xbeb74508	-0.35794854

conv2.bias f4 [32]
0	0xbc4d1b8f	-0.0125187775
1	0xbc902125	-0.01759393
2	0xbad7493e	-0.0016425026
3	0xbc5f8c3e	-0.013644276
4	0xbcd36ad6	-0.02580778
5	0xba7c8a29	-0.00096336246
6	0xbc3882ed	-0.011261684
7	0xbbf02613	-0.0073287576
8	0x3c06cd3d	0.008227644
9	0xbc9f5a44	-0.019452222
10	0xbcbb2a84	-0.022847421
11	0xbba2afab	-0.004964789
12	0x3c2a5f23	0.010398659
13	0xbb9d16d4	-0.004793981
14	0x3bef50de	0.0073033413
15	0x3b9386f5	0.004502172
16	0xbbcd13f5	-0.0062584826
17	0x3c3570a7	0.011074222
18	0xba841319	-0.0010076492
19	0xbb41e919	-0.00295884
20	0xbc47a72d	-0.012185854
21	0xbc028cd9	-0.007968151
22	0x3a105742	0.00055061665
23	0xbb56ade3	-0.0032757453
24	0x3bc80833	0.006104493
25	0x3c182e8c	0.009288441
26	0xbbbac101	-0.0056992774
27	0xbccb9a5d	-0.02485388
28	0xbc2eb753	-0.010663825
29	0xbb0a2614	-0.0021079825
30	0x3b2e3c4b	0.002658623
31	0xbad5f1a7	-0.0016322628

conv3.weight f4 [32, 32, 3, 3]
0	0xbd66da5b	-0.056360584
1	0xbcf39640	-0.02973473
2	0x3bc70297	0.006073307
3	0x3e2f70e4	0.17132908
4	0x3daf1668	0.085491955
5	0x3dca6a9e	0.09883617
6	0x3d2cc0bc	0.042175993
7	0x3d568520	0.05237305
8	0x3d42ec31	0.04758853
9	0x3e108558	0.14113367
10	0xbaba6c77	-0.0014222999
11	0xbdd536e9	-0.10410864
12	0xbe4db33e	-0.20087907
13	0xbd7bfcce	-0.06152039
14	0x3d9f50e1	0.07779098
15	0x3e1a1283	0.15046124
16	0x3a603978	0.00085534854
17	0xbcc81997	-0.024426265
18	0x3c77fa27	0.015135325
19	0xbdd4650b	-0.10370835
20	0xbc166f8e	-0.00918187
21	0x3d87c3c7	0.066291384
22	0xbd77888e	-0.060432963
23	0xbd444c7c	-0.047924504
24	0x3dd0f2b4	0.10202542
25	0x3d48cf8f	0.04902607
26	0xbcddc504	-0.027071483
27	0x3cda596a	0.026653964
28	0xbd5d8bcb	-0.054088395
29	0xbd9ac3f8	-0.07556909
30	0xbc12db92	-0.008963482
31	0x3c52c17d	0.012863514
32	0xbe56651a	-0.20937005
33	0x3e11c939	0.14236917
34	0x3b5cff71	0.003372159
35	0xbaa577e1	-0.0012624228
36	0xbcd044e2	-0.02542347
37	0x3d4f311a	0.050583936
38	0xbe338f17	-0.17535053
39	0x3d6afb46	0.05736854
40	0xbc811d83	-0.015761143
41	0xbbbccebf	-0.0057619507
42	0x3dc60541	0.09668971
43	0x3e12e2e7	0.14344369
44	0xbd88f745	-0.06687788
45	0x3cc7c301	0.024384977
46	0xbd9e4159	-0.07727308
47	0x3caa4d2c	0.020788752
48	0x3dbbd0f2	0.091707125
49	0x3da6fb68	0.08153421
50	0xbdae1876	-0.08500759
51	0xbdee6edf	-0.11642241
52	0xbd5230ac	-0.05131595
53	0x3af30262	0.0018540139
54	0xbdc7d649	-0.097576685
55	0xbd25445b	-0.040348392
56	0xbe18dbdd	-0.14927621
57	0x3cc5e2fb	0.024156084
58	0xbbb5045d	-0.005524202
59	0x3dd17746	0.10227828
60	0xbd8f2781	-0.06989957
61	0x3af05c73	0.0018338099
62	0x3c20c8fa	0.009813542
63	0xbda8ab20	-0.082357645
64	0xbe05dd60	-0.13072729
65	0x3d524dde	0.05134379
66	0x3e6aba84	0.22922713
67	0xbde82a40	-0.113361835
68	0xbdb83373	-0.08994188
69	0xbdc5d04a	-0.096588686
70	0x3c469a3f	0.012121736
71	0x3e1369ea	0.14395872
72	0xbc9cc80e	-0.019138362
73	0xbdfdb332	-0.123876944
74	0xbd7a9546	-0.061177514
75	0xba91d997	-0.0011127469
76	0xbd816ebb	-0.06319948
77	0xbcfc9d00	-0.030836582
78	0x3d74a213	0.05972488
79	0x3d8ecdf1	0.06972874
80	0xbdacc73e	-0.0843644
81	0x3dd2d71c	0.10294935
82	0x3b992d27	0.004674572
83	0xbdd1b508	-0.10239607
84	0xbd9e19a8	-0.07719737
85	0x3c84eba7	0.016225649
86	0xbd4a3326	-0.049365185
87	0x3d4d1c35	0.05007573
88	0xbd63cdd4	-0.055616215
89	0x3bfd9319	0.0077384827
90	0xbbd39d4d	-0.0064579607
91	0xbd02540b	-0.03181843
92	0x3af3e418	0.0018607406
93	0x3e6890a4	0.22711426
94	0x3d194c19	0.037426088
95	0xbd16b8eb	-0.036797445
96	0xbcb2b348	-0.021814004
97	0xbe47aace	-0.1949875
98	0xbc0048fc	-0.007829901
99	0x3d36c4e9	0.044621382
100	0x3d2acedc	0.041701183
101	0xbcef5afe	-0.029218193
102	0x3e0165bc	0.12636465
103	0x3daf8be5	0.08571605
104	0xbb8186a8	-0.00395282
105	0xbbf09bf8	-0.0073428117
106	0x3da986b2	0.08277644
107	0xbd4011a4	-0.046891823
108	0xbc4eb56c	-0.0126164965
109	0x3d51f8a4	0.051262513
110	0x3c02457c	0.007951137
111	0xbdfe5ff6	-0.12420647
112	0xbd489357	-0.04896864
113	0xbdaebd0d	-0.08532152
114	0xbc201b51	-0.009772138
115	0x3db5eefb	0.088834725
116	0xbd4061f8	-0.04696843
117	0xbc99aab4	-0.018758155
118	0x3cf45ceb	0.029829463
119	0x3d932e3d	0.071865536
120	0xbd644e2a	-0.055738606
121	0x3be77551	0.0070635458
122	0xbda09551	-0.0784098
123	0x3d77ed58	0.060529083
124	0xbd4ddeea	-0.050261416
125	0x3e33b5c8	0.17549813
126	0x3d897761	0.06712223
127	0x3dd73562	0.10508229
128	0xbe1b5fea	-0.15173307
129	0x3d8fac21	0.07015253
130	0x3dc56308	0.09638029
131	0x3ae2e3ef	0.0017310361
132	0x3de0ad48	0.10970551
133	0x3e14cb04	0.1453057
134	0x3d70847a	0.05872009
135	0x3d4817c6	0.048850797
136	0xbcdd6067	-0.027023507
137	0xbd2e44b0	-0.042545974
138	0xbe27d8a7	-0.1639124
139	0xbe023ad4	-0.12717754
140	0x3de9cee5	0.11416415
141	0x3e02da2c	0.12778538
142	0x3c94189c	0.01807814
143	0xbdb6e1b0	-0.08929765
144	0x3cc7d6df	0.02439445
145	0xbcc0a295	-0.023515025
146	0x3d4a9749	0.049460683
147	0xbe30f1d2	-0.17279747
148	0xbd2ad39b	-0.04170571
149	0xbd7baa37	-0.061441626
150	0x3e117f2c	0.14208668
151	0x3d96278d	0.073317625
152	0xbe55a8ca	-0.20865169
153	0xbdf297bf	-0.118453495
154	0xbd8f0628	-0.06983596
155	0x3e0e7bd0	0.13914418
156	0xbd4760e6	-0.048676394
157	0xbc92d7ff	-0.01792526
158	0x3c8f42ac	0.017487846
159	0xbd12a45c	-0.035801277
160	0x3da18ffe	0.078887925
161	0xbd066ec0	-0.032820463
162	0xbc1e7dae	-0.009673519
163	0xbda8dedc	-0.08245632
164	0x3d21aebf	0.03947329
165	0x3d6b4c7d	0.05744599
166	0xbdd4f9da	-0.10399218
167	0xbd2a4f0a	-0.041579284
168	0xbc625ce8	-0.013816096
169	0xbc634390	-0.013871089
170	0xbd2993f1	-0.041400854
171	0xbc0f4d01	-0.0087463865
172	0x3d902d13	0.07039847
173	0x3e043a9d	0.12912984
174	0x3d7c4a80	0.061594486
175	0xbd975c4f	-0.07390653
176	0xbb7f01ce	-0.0038910988
177	0xbe2b3db5	-0.16722758
178	0xbd8181d7	-0.06323593
179	0x3cf8c764	0.030368514
180	0xbd9e0ea2	-0.07717635
181	0xbdd530cb	-0.10409697
182	0xbe0914a0	-0.13386774
183	0x3b826045	0.0039787614
184	0x3df27bdc	0.118400306
185	0x3d3caf15	0.04606541
186	0xbd625037	-0.05525228
187	0xbcc6ed42	-0.024283055
188	0x3bd97cad	0.006637177
189	0xbb35d22e	-0.0027743685
190	0x3d4fa86e	0.050697736
191	0x3c64b3dc	0.013958897
192	0xbd9bd9e1	-0.076099165
193	0xbe4f5059	-0.20245494
194	0xbc33f597	-0.010983846
195	0xbbf02a5e	-0.0073292693
196	0xbb06447d	-0.00204876
197	0x3d873433	0.06601753
198	0xbcac52bd	-0.021035546
199	0xbd5ba08c	-0.053619906
200	0xbd97c50c	-0.074106306
201	0xbd92ae1a	-0.071621135
202	0x3c536a8f	0.0129038235
203	0x3d16e344	0.03683783
204	0xbc3573af	-0.011074944
205	0x3cf3405b	0.029693773
206	0xbc8fc541	-0.017550113
207	0xbcd7adb5	-0.026327947
208	0x3b7cf673	0.0038599044
209	0xbe6fc19c	-0.234137
210	0x3dd2a771	0.10285843
211	0xbdde550f	-0.108560674
212	0xbc8858b8	-0.016643867
213	0xbc093250	-0.008373812
214	0xbd7a8756	-0.061164223
215	0xbd096003	-0.03353883
216	0xbde7bbc0	-0.11315107
217	0x3db03901	0.08604623
218	0x3e5948df	0.21219204
219	0x3cc51520	0.024057925
220	0x3b2984a3	0.002586641
221	0xbc6e3034	-0.01453786
222	0xbda88980	-0.08229351
223	0xbd69b536	-0.05705758
224	0x3e6cc122	0.2312055
225	0x3b986b08	0.004651431
226	0xbd9d2f15	-0.07674996
227	0x3ce04376	0.027375918
228	0xbe3eb6f3	-0.18624477
229	0xbdd150b3	-0.1022047
230	0x3da8e0a9	0.082459755
231	0x3dfda1af	0.12384354
232	0xbc1a7978	-0.0094283745
233	0xbdcba176	-0.099429056
234	0xbdd10a1a	-0.10207005
235	0x3df99f8c	0.12188634
236	0x3e02cc5f	0.12773274
237	0x3db0cb7b	0.08632561
238	0x3bcc8c43	0.0062423064
239	0xbbd26b94	-0.0064215157
240	0x3d042cee	0.03226941
241	0x3a93b6e8	0.001126972
242	0xbc9700e9	-0.018433051
243	0x3c1370a3	0.008999023
244	0xbd575a5e	-0.052576415
245	0x3dd687d5	0.10475127
246	0x3e0b32d8	0.13593614
247	0xbdd2b1c0	-0.10287809
248	0xbdf83075	-0.121186174
249	0xbd7e871b	-0.062140565
250	0xbe39a7f8	-0.18130481
251	0xbc65559b	-0.013997461
252	0xbd7c2af4	-0.0615644
253	0xbd6543f0	-0.055972993
254	0x3e934cdd	0.2876958
255	0xbdbc4709	-0.091932364

conv3.bias f4 [32]
0	0x3c54178b	0.012945066
1	0xbcf7ddfd	-0.03025722
2	0xbcba6781	-0.022754433
3	0x3ab940cf	0.0014133694
4	0xbc60d840	-0.013723433
5	0xbe307feb	-0.17236297
6	0xbc90545c	-0.01761835
7	0xbe1bda43	-0.15219979
8	0xbd16491b	-0.036690813
9	0xbccb9f77	-0.024856312
10	0xbd24b628	-0.04021278
11	0xbc4a8785	-0.012361412
12	0xbb10e221	-0.002210744
13	0xbb8beb10	-0.004269965
14	0x3c8055da	0.015665937
15	0x3b66b97d	0.0035205774
16	0x3d051b4b	0.03249673
17	0xbc11c3f1	-0.008896814
18	0xbe10f337	-0.14155279
19	0xbcbb5cb1	-0.022871347
20	0xbcb3a23d	-0.021927947
21	0x3c9b89f4	0.01898668
22	0xbcf6ffa6	-0.0301512
23	0xbd1a28a2	-0.037636407
24	0xbc3d8f43	-0.011569801
25	0xbe16cc92	-0.14726475
26	0x3abe9029	0.0014538813
27	0x3c76dd2f	0.015067383
28	0xbc84fe5f	-0.016234575
29	0x3df48b09	0.11940581
30	0x3b70c172	0.0036736396
31	0xbcbfd8db	-0.023418834

conv4.weight f4 [32, 32, 3, 3]
0	0x3d56ee7d	0.052473534
1	0x3ca06cc5	0.019583115
2	0x3d8497e4	0.06474283
3	0xbb14b21d	-0.0022689172
4	0xbda58c6c	-0.08083424
5	0xbdcdb88d	-0.10044966
6	0xbbbde306	-0.0057948856
7	0x3db223e3	0.08698251
8	0xbdc10101	-0.094240196
9	0x3d00c16b	0.031434458
10	0xbdd0f543	-0.1020303
11	0x3d032e47	0.032026555
12	0xbc56e50a	-0.013116131
13	0x3b435cf8	0.0029810052
14	0xbd25ccbb	-0.04047845
15	0xbdaafa70	-0.083485484
16	0x3da11949	0.07866151
17	0xbd2d7217	-0.042345133
18	0xbdc83d7f	-0.097773544
19	0x3dd15ca4	0.10222748
20	0x3e489253	0.19587068
21	0xbbfb736c	-0.0076736715
22	0xbe3808b9	-0.17972077
23	0x3d0a50da	0.033768512
24	0xbd0a134d	-0.033709813
25	0x3e8a4d05	0.27011886
26	0x3d22e3ce	0.039768033
27	0x3e695874	0.22787648
28	0xbd32cf84	-0.043654934
29	0xbddfce64	-0.10928038
30	0x3c875c69	0.016523557
31	0x3d2c503a	0.042068698
32	0xbd195ca0	-0.03744185
33	0xbd23c03d	-0.039978255
34	0xbcd07821	-0.025447907
35	0x3dbfc2db	0.093633376
36	0xbd0c391c	-0.03423415
37	0xbd4f5c0c	-0.050624892
38	0x3ddb2202	0.10699846
39	0xbd295423	-0.041340005
40	0xbc0c73c2	-0.008572521
41	0x3ca80de2	0.020514432
42	0xbb330d48	-0.0027321149
43	0xbe2cc449	-0.16871752
44	0xbd939f7e	-0.07208155
45	0x3e10c45f	0.1413741
46	0x3dd344b1	0.10315836
47	0xbe0f11c6	-0.13971624
48	0x3d3f4fe1	0.046707038
49	0xbe68bc6b	-0.22728126
50	0xbd9aadb8	-0.075526655
51	0xbd0cf76e	-0.034415655
52	0xbddccb0c	-0.107809156
53	0xbd77a219	-0.060457323
54	0x3e49ff65	0.19726332
55	0x3b32eb0f	0.002730075
56	0xbdbec780	-0.09315395
57	0xbc7b3750	-0.015333012
58	0xbdc768ae	-0.09736763
59	0xbe2062b3	-0.15662651
60	0xbde31745	-0.11088423
61	0x3dc3a664	0.09553221
62	0x3d9bb386	0.07602601
63	0xbd5e04c1	-0.054203752
64	0xbd88f923	-0.06688144
65	0x3d94205e	0.07232736
66	0x3d8d44d1	0.06897891
67	0x3e6a5e8d	0.22887631
68	0x3d551039	0.052017424
69	0xbd753306	-0.059863113
70	0x3cfde157	0.03099124
71	0x3da74f6a	0.08169444
72	0x3bd51335	0.006502534
73	0xbdc407f8	-0.095718324
74	0xbd55519b	-0.05207978
75	0x3d90a965	0.070635594
76	0x3c92c9e4	0.017918535
77	0xbca533bc	-0.02016627
78	0xbdc901fd	-0.09814832
79	0xbde889de	-0.11354421
80	0x3e446fd3	0.19183283
81	0x3d8174c9	0.06321103
82	0xbd541d79	-0.05178592
83	0xbc175286	-0.009235984
84	0x3c56d279	0.013111704
85	0x3dd0c6f3	0.101941966
86	0xbe0a3ff7	-0.13500963
87	0xbd3dbbd8	-0.04632172
88	0xbc74cf4d	-0.0149420025
89	0x3d2c3715	0.042044718
90	0x3d350b40	0.044200182
91	0xbd0c8fad	-0.034316707
92	0x3e136ecd	0.14397736
93	0x3ddee75a	0.108839706
94	0xbd2ba7bd	-0.041908015
95	0xbd6514ae	-0.055927925
96	0xbd1016e9	-0.0351781
97	0xbcfa17eb	-0.030528983
98	0x3dacaec1	0.08431769
99	0xba1ea762	-0.00060521637
100	0x3dd43db0	0.103633285
101	0x3c99fdf3	0.01879785
102	0x3c65337f	0.013989328
103	0xbb08a62f	-0.0020851006
104	0xbdb6a0cb	-0.089173876
105	0x3dc3f2a7	0.09567767
106	0x3e393a11	0.18088557
107	0xbd081b58	-0.033229202
108	0xbdca31b3	-0.098727606
109	0xbe2d71e5	-0.16937979
110	0x3da3b6ee	0.079938754
111	0x3e13c591	0.14430834
112	0xbd9ca10b	-0.07647904
113	0x3daa2fc4	0.08309892
114	0x3cf55f92	0.029952798
115	0xbdc33ed4	-0.09533468
116	0xbd2bc3d0	-0.04193479
117	0x3e341624	0.17586571
118	0xbd9ffad7	-0.07811516
119	0xbd9e438d	-0.07727728
120	0xbd27ec0d	-0.0409966
121	0xbd9e8b59	-0.07741422
122	0x3e2f1484	0.1709767
123	0x3d47aff7	0.048751798
124	0xbd87c12c	-0.066286415
125	0xbd227c79	-0.039669488
126	0x3c27a9d1	0.0102333585
127	0xbd90bba4	-0.070670396
128	0xbc5645c5	-0.013078158
129	0xbe0dd479	-0.13850583
130	0xbd98029a	-0.07422371
131	0x3e32a1e4	0.17444569
132	0x3ce02e2a	0.027365763
133	0xbcda14e0	-0.026621282
134	0xbd53c9d3	-0.051706146
135	0x3df30a57	0.118672065
136	0x3e093d85	0.13402374
137	0xbdc51e62	-0.09624936
138	0xbc823f1d	-0.015899235
139	0xbdc73f7d	-0.09728906
140	0xbc360440	-0.011109412
141	0xbd8ee737	-0.069776945
142	0x3da6bb57	0.08141201
143	0xbe33021c	-0.17481273
144	0xbda95b67	-0.08269387
145	0x3da35916	0.07975976
146	0xbc574d72	-0.013141023
147	0xbd3ef6ef	-0.046622213
148	0x3d725b52	0.05916912
149	0x3ce68b21	0.028142514
150	0x3bea52bc	0.007150976
151	0xbe15b3f8	-0.14619434
152	0x39d6d179	0.0004097333
153	0xbe2ce06d	-0.16882487
154	0x3dcb2b29	0.099203415
155	0xbd736990	-0.059426844
156	0xbde85b73	-0.113455676
157	0x3e69edb6	0.22844586
158	0x3d11df60	0.035613418
159	0xbd3fec9b	-0.046856504
160	0xbce7418a	-0.028229494
161	0x3e1a68e9	0.15079083
162	0xbd66cbfc	-0.05634688
163	0xbd9c05ba	-0.0761828
164	0xbd645f25	-0.0557548
165	0x3dacd245	0.08438543
166	0x3e1958c3	0.14975266
167	0xbda31387	-0.07962709
168	0xbc5e0b84	-0.01355255
169	0xbe0118fd	-0.12607189
170	0xba03fa08	-0.0005034511
171	0x3d40f850	0.04711181
172	0xbd5ba988	-0.053628474
173	0xbd22229b	-0.039583784
174	0x3dcf0dfe	0.10110091
175	0xbd55256f	-0.052037653
176	0xbd305e23	-0.043058526
177	0xbd50858d	-0.050908614
178	0xbe2eb776	-0.17062172
179	0x3d1e83a8	0.038699776
180	0x3ddc689b	0.107621394
181	0xbd3b824e	-0.045778565
182	0x3c90f9fd	0.017697329
183	0x3e76c2a7	0.24097691
184	0xbd85140f	-0.064979665
185	0xbda6cbbe	-0.081443295
186	0xbdc7566f	-0.09733283
187	0xbc22abe4	-0.009928677
188	0xba312144	-0.0006756971
189	0xbd8bf74c	-0.068342775
190	0x3e10daa3	0.14145903
191	0xbbeea713	-0.0072831004
192	0x3d9a913f	0.07547235
193	0xbda02974	-0.078204066
194	0xbb2ac36c	-0.0026056422
195	0x3d70026a	0.058596052
196	0x3de971cc	0.11398658
197	0xbe0d9f54	-0.1383031
198	0xbe1afced	-0.15135546
199	0x3e9c406f	0.3051791
200	0xbdfc4fcf	-0.1231991
201	0xbcb0666b	-0.021533212
202	0x3d873974	0.06602755
203	0x3dd40dee	0.103542194
204	0x3d85940f	0.065223806
205	0xbd1fc206	-0.039003395
206	0x3d72381d	0.059135545
207	0x3db844ee	0.08997522
208	0xbdbadd0c	-0.091241926
209	0xbdaa3772	-0.083113566
210	0xbe02ab85	-0.12760742
211	0x3e007287	0.12543689
212	0xbc573833	-0.0131359575
213	0xbcdab0fe	-0.026695725
214	0xbaf1bf4f	-0.0018443855
215	0x3d287a15	0.04113205
216	0x3b303b76	0.002689091
217	0xbd20a6a0	-0.039221406
218	0x3d2fc46c	0.042911932
219	0xbe24b3c8	-0.16084206
220	0x3cae8593	0.021303928
221	0x3dc254a1	0.09488798
222	0xbdc57020	-0.09640527
223	0x3dc194ee	0.09452234
224	0x3dae3704	0.08506587
225	0xbd035271	-0.032061044
226	0xbe5191bd	-0.20465751
227	0x3df89120	0.121370554
228	0x3cf6835b	0.030091932
229	0xbb70cd12	-0.0036743325
230	0x3d2ec5e7	0.042669203
231	0x3c8e205d	0.017349416
232	0x3e6e8054	0.23291141
233	0xbe7a8da6	-0.24468097
234	0x3d237842	0.03990961
235	0xbdbe05c4	-0.092784435
236	0x3db659fc	0.08903882
237	0xbd646a8b	-0.05576567
238	0x3e274659	0.16335429
239	0xbcad9d93	-0.021193301
240	0x3d22c61b	0.03973971
241	0xbdf6af8b	-0.12045201
242	0x3c953272	0.01821253
243	0x3d721cd5	0.059109528
244	0xbd5eab35	-0.054362494
245	0xbce79386	-0.028268587
246	0xbe184e50	-0.14873624
247	0x3ca70809	0.020389574
248	0x3e2f0f2b	0.1709563
249	0xbe215dd5	-0.1575845
250	0x3d25b198	0.04045257
251	0xbc6c7aff	-0.014433621
252	0x3d68c5ff	0.05682945
253	0xbdfbfc9b	-0.1230404
254	0x3d363792	0.04448659
255	0xbd58b882	-0.052910335

conv4.bias f4 [32]
0	0xbdd21d33	-0.102594756
1	0xbd395728	-0.045249134
2	0xbd1bacc8	-0.038006574
3	0xbd4e54ac	-0.05037372
4	0xbe949d3a	-0.29026204
5	0xbdd29d78	-0.10283941
6	0xbdc5732a	-0.096411064
7	0xbd3091a8	-0.04310766
8	0xbd0effe7	-0.034912016
9	0xbd9e0c65	-0.07717208
10	0xbdb4c0e7	-0.08825856
11	0xbdb0d751	-0.08634818
12	0xbdf65dd1	-0.12029613
13	0xbcd03b42	-0.025418881
14	0xbdf6d25f	-0.12051844
15	0xbdc82c6d	-0.097740985
16	0xbdb946e0	-0.090467215
17	0xbd890ad7	-0.06691521
18	0xbdac3c3b	-0.084099256
19	0xbd10bf86	-0.0353389
20	0xbd0a75df	-0.033803817
21	0xbcd9c45a	-0.026582886
22	0xbce92436	-0.02845965
23	0xbe11f329	-0.14252914
24	0xbd3f7663	-0.04674376
25	0xbe53742e	-0.20649788
26	0xbe1b4cff	-0.1516609
27	0xbebc214a	-0.36744148
28	0x3b272221	0.002550252
29	0x3bad7736	0.005293752
30	0xbd5a0ccd	-0.053234864
31	0xbde86496	-0.1134731

linear.weight f4 [32, 800]
0	0x3d9ffafe	0.07811545
1	0x3ddd5da1	0.10808874
2	0x3b942b8c	0.0045217928
3	0xbd77696b	-0.06040327
4	0xba2e94e1	-0.0006659758
5	0xbe91944a	-0.28433448
6	0x3ccc9547	0.024973525
7	0xbccdc257	-0.025117083
8	0xbbb79fa8	-0.0056037493
9	0x3dc89fb5	0.09796087
10	0x3b97365b	0.004614634
11	0xbcff25e8	-0.031146005
12	0xbd94250c	-0.07233629
13	0xbd3cdb7d	-0.046107758
14	0x3bee84be	0.0072790077
15	0x3e078807	0.13235484
16	0x3d9ab5d1	0.0755421
17	0xbcbe4fe6	-0.023231458
18	0x3ce368bc	0.027759902
19	0xbd74e359	-0.059787128
20	0x3dbd2d6e	0.09237181
21	0xbc6923ad	-0.014229697
22	0xbd4309cb	-0.04761676
23	0xbcde8c1d	-0.02716642
24	0xbcd54447	-0.026033534
25	0x3e075fda	0.13220158
26	0xbd75713c	-0.05992244
27	0x3dae6abb	0.08516451
28	0xbc2cabca	-0.010539005
29	0x3d1db722	0.038504727
30	0xbe952086	-0.29126376
31	0x3d21a00b	0.03945927
32	0xbceef901	-0.029171469
33	0xbccd4b5c	-0.025060348
34	0x3da2bb03	0.07945826
35	0x3e06249f	0.13099907
36	0x3ce53700	0.027980328
37	0xbc1574fc	-0.0091221295
38	0x3c2b5ed1	0.010459618
39	0x3c129752	0.00894721
40	0xbb414f92	-0.002949689
41	0xbe73879b	-0.23782198
42	0xbd6c653d	-0.057713736
43	0xbd1a0a75	-0.03760763
44	0x3df40324	0.119146615
45	0xbd9fee0f	-0.07809078
46	0xbbe25384	-0.0069069285
47	0x3d569dd3	0.052396607
48	0x3d07b835	0.033134658
49	0x3ca0101c	0.019538932
50	0xbe04724d	-0.12934227
51	0x37a1193a	1.9204443e-05
52	0xbcd0f69d	-0.02550822
53	0x3c64dce5	0.013968681
54	0x3aafaf37	0.0013403659
55	0x3e1ec945	0.15506466
56	0xbd3775d5	-0.044790108
57	0xbbe55ecb	-0.0069998256
58	0x3c617a3f	0.013762056
59	0xbcf947ba	-0.03042971
60	0xbc834378	-0.016023383
61	0x3c85afbd	0.01631915
62	0xbb937fb6	-0.0045013083
63	0xbb74c090	-0.0037346222
64	0xbcfbc78d	-0.030734802
65	0xbd05a864	-0.032631293
66	0x3d9783c2	0.07398178
67	0x39fec09f	0.0004859017
68	0x3c4d38e8	0.012525775
69	0xbc4bdc45	-0.012442653
70	0x3d365432	0.04451389
71	0xbce69b5f	-0.028150259
72	0xbb86218b	-0.004093354
73	0xbd1a334b	-0.037646573
74	0x3bd7aa12	0.0065815533
75	0x3dfd09df	0.123553984
76	0xbd0f1b6e	-0.03493827
77	0x3e05267a	0.13002959
78	0x3c12ff31	0.008971975
79	0xbd8bcd1d	-0.06826232
80	0xbd97fdfe	-0.07421492
81	0x3d76edd5	0.060285408
82	0xbd389a04	-0.045068756
83	0xbd39ae82	-0.04533244
84	0x3bddff79	0.0067748395
85	0x3d57b866	0.05266609
86	0xbd01f4ed	-0.03172772
87	0x3c5c9018	0.013462089
88	0x3cb9a341	0.022660853
89	0x3ce35097	0.02774839
90	0x3d9e2220	0.077213526
91	0xbd92a863	-0.071610235
92	0x3d63cb61	0.05561388
93	0x3d0845a3	0.033269536
94	0x3d45bb79	0.04827449
95	0xbd7e93a4	-0.06215252
96	0x3c8948a6	0.016758274
97	0x3c13bf49	0.009017774
98	0xbbec7879	-0.00721651
99	0xbca3e77d	-0.020007843
100	0xbe0ef4a4	-0.1396051
101	0x3dbffd12	0.09374441
102	0xbdb5b869	-0.08873064
103	0xbc0989f5	-0.008394708
104	0x3b6d848e	0.0036242339
105	0xbdfac7dc	-0.122451514
106	0x3e0fcf6c	0.14043969
107	0x3d896b1c	0.067098826
108	0x3d6dc454	0.05804856
109	0x3c17d36b	0.009266715
110	0xbe215175	-0.1575373
111	0x3e249ff2	0.1607664
112	0x3dd9bacb	0.10631331
113	0x3cdfec4b	0.027334353
114	0x3dc2721d	0.09494422
115	0xbe168042	-0.14697364
116	0xbe032bc2	-0.12809661
117	0xbe03ae32	-0.12859419
118	0xbe1a5bb2	-0.15074041
119	0xbe4c73f0	-0.19966102
120	0xbe2a8ba6	-0.16654834
121	0xbe578d8a	-0.21050087
122	0xbe3423b0	-0.17591739
123	0xbe4fc839	-0.20291223
124	0xbe668e88	-0.22515309
125	0x3daff6c0	0.08591986
126	0xbd31a473	-0.04336972
127	0x3d80378d	0.062605955
128	0xbc780277	-0.015137306
129	0x3cf9060c	0.030398391
130	0x3d63159a	0.055440523
131	0x3e1a88ec	0.15091294
132	0x3cf9f5c7	0.030512704
133	0xbd1d2b89	-0.038371596
134	0xbbdc3873	-0.0067205965
135	0x3b3adb92	0.0028512222
136	0xbe63f6a1	-0.2226205
137	0x3c75a4fe	0.0149929505
138	0x3ce4ee2e	0.027945604
139	0x3d7219d0	0.059106648
140	0xbd4938ed	-0.049126554
141	0xbd66eee6	-0.056380175
142	0xbd6f4313	-0.058413576
143	0xbdd21189	-0.10257251
144	0xbdae1e52	-0.08501877
145	0xbd8cbb01	-0.06871606
146	0x3d87e520	0.06635499
147	0x3cf73880	0.030178308
148	0x3c9a8d83	0.018866306
149	0x3da2eec7	0.079556994
150	0xbe1e7fc7	-0.1547843
151	0x3d9bc599	0.07606048
152	0xbd678660	-0.056524634
153	0x3c45c017	0.012069724
154	0x3d8e65a7	0.069529824
155	0x3d913fdd	0.07092259
156	0x3d91bfc6	0.07116656
157	0xbdd2b7f5	-0.10288993
158	0xbcf5f7d5	-0.030025402
159	0x3d66b82c	0.056327984
160	0xbe1ecda3	-0.15508132
161	0x3d6e2f74	0.058150724
162	0xbc584a31	-0.013201282
163	0xbd4f78f3	-0.050652456
164	0xbb0242b5	-0.0019876186
165	0x3d288ac6	0.04114797
166	0xbd218c8c	-0.039440677
167	0x3c86e083	0.016464477
168	0xbb70c27a	-0.003673701
169	0xbbb1978d	-0.0054196776
170	0x3df3dd8e	0.119074926
171	0xbb13ec7d	-0.0022571378
172	0xbb48466d	-0.0030559555
173	0xbd62c65a	-0.055364944
174	0xbd0c4981	-0.034249786
175	0x3e52d05e	0.20587298
176	0xbe120e23	-0.14263205
177	0x3d40249e	0.04690992
178	0xbb90284e	-0.004399336
179	0xbd5afe83	-0.053465378
180	0xbe75608b	-0.2396261
181	0x3d23f8cb	0.04003219
182	0xbbc61cae	-0.0060458994
183	0xbb8b5d72	-0.004253083
184	0x3d850abe	0.064961895
185	0x3da93bf5	0.08263389
186	0xbc934161	-0.017975511
187	0xbc4f5772	-0.012655126
188	0x3c09a698	0.008401535
189	0x3d92c8ee	0.071672305
190	0xbcf6917c	-0.03009867
191	0x3ca71246	0.020394456
192	0x39f57a2c	0.00046821067
193	0x3c9f894a	0.019474644
194	0xbe0c27d1	-0.13687064
195	0xbd72fef7	-0.059325185
196	0x3d4ebda3	0.05047382
197	0x3cb619c0	0.022229075
198	0x3c89c624	0.016818114
199	0x3d58b3fe	0.05290603
200	0xbd7e4844	-0.062080637
201	0x3d4993b8	0.04921314
202	0xbc3fed12	-0.011714237
203	0xbd137402	-0.035999306
204	0x3d17ad29	0.037030373
205	0x3dc3e7ae	0.09565674
206	0xba69c9b9	-0.00089183036
207	0x3b88d8bb	0.004176227
208	0xbd959929	-0.073046036
209	0x3ca16f90	0.019706517
210	0x3bd136d1	0.0063847085
211	0x3b04720d	0.002020958
212	0xbd2f1125	-0.04274096
213	0xbc250a77	-0.010073296
214	0xbc246807	-0.010034568
215	0xbce78925	-0.028263638
216	0xbcd0a884	-0.02547098
217	0x3cb11dbe	0.021620627
218	0x3c0b778c	0.008512389
219	0xbbfb90b3	-0.0076771616
220	0x3da3328c	0.079686254
221	0xbcf9669c	-0.030444436
222	0x3b0eab4a	0.0021769577
223	0xbd0ee941	-0.034890417
224	0xbadfbdc0	-0.00170701
225	0x3dfa6fb4	0.12228337
226	0x3da2541a	0.07926197
227	0xbd8bf776	-0.06834309
228	0xbdd55512	-0.104166165
229	0x3d8f9ec3	0.07012703
230	0xbea16303	-0.31520852
231	0xbb9f676d	-0.0048646242
232	0xbcda0692	-0.026614461
233	0xbccc7b2c	-0.024961077
234	0xbd819340	-0.06326914
235	0x3da82e0d	0.082119085
236	0x3da72ff4	0.08163443
237	0xbcc87735	-0.024470905
238	0x3d45c24b	0.048280995
239	0xbb3dcb84	-0.0028960416
240	0x3e1035b6	0.14082989
241	0xbe1292e1	-0.14313842
242	0xbd5109df	-0.051034804
243	0xbd087f79	-0.033324692
244	0xbd58713a	-0.052842356
245	0x3cd7aca6	0.026327442
246	0x3c7f68ff	0.015588998
247	0xbb92ce1c	-0.0044801366
248	0x3d203199	0.0391098
249	0x3c94044b	0.018068453
250	0xbc504ede	-0.012714116
251	0xbd11dde7	-0.035612013
252	0x3d5780e6	0.05261316
253	0x3ba655b4	0.0050761346
254	0x3d63192b	0.055443924
255	0xbcbca398	-0.023027226

linear.bias f4 [32]
0	0x3eb5aaac	0.35481775
1	0xbe977fef	-0.29589793
2	0xbe97428d	-0.29542962
3	0xbd151ec3	-0.03640629
4	0xbca975d7	-0.020686073
5	0x3d90df3f	0.07073831
6	0xbe552a26	-0.2081686
7	0x3db28a47	0.087177806
8	0xbc2fcb6a	-0.01072965
9	0xbcc32712	-0.023822341
10	0xbbb32857	-0.0054674554
11	0xbe82203e	-0.25415224
12	0xbd728990	-0.05921322
13	0x3e2c4c68	0.16826022
14	0xbe82a2cf	-0.25514838
15	0x3db8aac3	0.09016945
16	0xbd82c94f	-0.06386053
17	0x3e5d645d	0.21620317
18	0x3d270542	0.0407765
19	0xbeb0a126	-0.34497947
20	0x3d4ca1a0	0.049958825
21	0xbc4128ce	-0.011789514
22	0xbb10f492	-0.0022118432
23	0xbd4689e6	-0.048471354
24	0xbdb6a795	-0.089186825
25	0x3d198b79	0.037486527
26	0x3bf790e0	0.0075551122
27	0x3e8aa6f0	0.27080488
28	0x3d3caa99	0.046061132
29	0x3d09857b	0.033574563
30	0xbe8fcb87	-0.28084967
31	0xbca28d61	-0.019842805

critic_linear.weight f4 [1, 32]
0	0x3e0d58bc	0.1380338
1	0xbe05914e	-0.1304371
2	0xbe296d50	-0.16545606
3	0x3acceda8	0.0015634792
4	0xb935babf	-0.00017331073
5	0x3b443963	0.0029941432
6	0xbc5846cb	-0.013200472
7	0xbb2211c2	-0.0024729823
8	0x3920e5d4	0.00015344407
9	0xbab6213c	-0.0013895403
10	0xbaca276b	-0.0015423124
11	0xbd534192	-0.051576205
12	0xbbef9ebf	-0.007312625
13	0x3a8d6a19	0.0010789066
14	0xbd98be06	-0.07458119
15	0x3b9321c7	0.0044901106
16	0xbac57541	-0.0015064852
17	0x3d4aa725	0.049475808
18	0x3addcfaf	0.0016922856
19	0xbe285148	-0.16437256
20	0x3af4705f	0.0018649212
21	0xba6ef674	-0.0009115704
22	0xbb92be5a	-0.004478258
23	0xbbd34c05	-0.006448271
24	0xbc0b5d63	-0.008506152
25	0xba4bea52	-0.0007778752
26	0xbb5664bf	-0.0032713858
27	0x3db431c1	0.08798552
28	0xbb41e9d2	-0.002958883
29	0xba587545	-0.00082572206
30	0xbd232e95	-0.039839346
31	0xb91f6399	-0.00015200525

actor_linear.weight f4 [6, 32]
0	0x3e0095cc	0.12557143
1	0xbd5b8acf	-0.053599175
2	0xbe807e6e	-0.25096458
3	0x3ba88fc6	0.0051440923
4	0xbc3064ab	-0.010766189
5	0x3d8c440c	0.068489164
6	0xbd6a362d	-0.057180572
7	0x3d6f9386	0.0584903
8	0xbba674a9	-0.005079825
9	0xbb5562c7	-0.0032560097
10	0x3c33af13	0.010967034
11	0xbd80d2ad	-0.06290183
12	0x3cabbbc8	0.020963565
13	0x3e679c5f	0.22618245
14	0xbe7a0c45	-0.24418743
15	0x3df69e72	0.1204194
16	0xbe26981b	-0.16268961
17	0x3d1ea183	0.03872825
18	0x3d290073	0.041260194
19	0xbe8045b8	-0.2505319
20	0x3d4d2af4	0.05008979
21	0x3cdde41b	0.027086308
22	0x3c50f245	0.012753074
23	0x3e110237	0.14161001
24	0x3ccd6f90	0.025077611
25	0x3d923e42	0.07140781
26	0x3e1b4062	0.15161279
27	0x3d93cb22	0.07216479
28	0x3ca2acfa	0.019857872
29	0xbd874307	-0.06604581
30	0xbd9fabd1	-0.07796443
31	0xbca629f6	-0.02028368
32	0x3e306c12	0.17228726
33	0xbe255f0d	-0.1614954
34	0xbe122d8f	-0.14275192
35	0x3c1fa3d0	0.009743646
36	0xbd011b3a	-0.031520106
37	0x3d9438fe	0.07237433
38	0xbdc322e3	-0.095281385
39	0x3d8ffef9	0.07031054
40	0xbc94078f	-0.01807001
41	0xbc962671	-0.018328877
42	0xbd17ea54	-0.037088707
43	0xbd4dc28a	-0.050234355
44	0xbd0845db	-0.033269744
45	0x3e1fbf0b	0.15600221
46	0xbe984624	-0.29741013
47	0x3e1191e3	0.14215808
48	0xbe1dba59	-0.15403117
49	0x3d8e3480	0.06943607
50	0x3d0c6d59	0.03428397
51	0xbe5d9a0f	-0.216408
52	0x3c3629ac	0.011118334
53	0xbd93aa19	-0.07210178
54	0xbb8a28c5	-0.004216286
55	0x3dc42996	0.095782444
56	0xbc5a597b	-0.013326998
57	0x3d885099	0.06655998
58	0x3e261968	0.16220629
59	0x3e738d4c	0.23784369
60	0x3d52e1f8	0.05148503
61	0x3ceb7cce	0.028746035
62	0xbe51fe79	-0.2050723
63	0xbc1833b1	-0.009289668
64	0x3ddc7054	0.107636124
65	0xbe083548	-0.13301575
66	0xbe9cacfc	-0.30600727
67	0x3c9e9c43	0.01936162
68	0x3c8faf06	0.017539512
69	0x3da54f51	0.08071769
70	0xbde4400f	-0.11145031
71	0x3d0eb6dd	0.03484236
72	0x3b1a740d	0.0023567707
73	0xbd23b76b	-0.039969843
74	0x3d564401	0.052310947
75	0xbd995584	-0.07487014
76	0x3c7446f2	0.014909493
77	0x3e212d28	0.15739882
78	0xbd7fcac3	-0.062449228
79	0x3dbbdbc4	0.09172776
80	0xbddf06c0	-0.10889959
81	0x3e3303ce	0.1748192
82	0x3d059f8a	0.03262285
83	0xbe3afd7f	-0.18260764
84	0x3c3a906f	0.011386975
85	0x3b127e2a	0.0022353032
86	0xbd0ef37f	-0.034900185
87	0xbd043683	-0.03227855
88	0xb9abb3ee	-0.0003274972
89	0x3dcb075d	0.09913514
90	0xbdb02b2c	-0.086019844
91	0xbd592c7f	-0.05302095
92	0xbc73ef40	-0.014888585
93	0xbd7524dd	-0.05984961
94	0xbdc4a06d	-0.09600911
95	0xbcb90187	-0.022583736
96	0x3e1c28ed	0.15249987
97	0xbdb798fd	-0.08964727
98	0xbe67f1ce	-0.22650835
99	0x3d2192e7	0.039446738
100	0xbcd1c8f2	-0.025608514
101	0x3e0fb592	0.14034107
102	0xbd069619	-0.032857988
103	0x3dca8763	0.09889104
104	0x3c190d1b	0.0093415035
105	0xbcea74f7	-0.028620226
106	0xbcfc2f6c	-0.030784331
107	0xbe03c9cd	-0.1286995
108	0x3dc337da	0.09532137
109	0x3e2f86c9	0.1714126
110	0xbdfae76d	-0.12251172
111	0x3e0941f1	0.13404061
112	0xbe426c33	-0.18986587
113	0x3da115c7	0.07865482
114	0x3dac1b74	0.08403674
115	0xbdc04097	-0.093873195
116	0x3cc38098	0.02386503
117	0xbc9d5e55	-0.01921002
118	0x3d7585aa	0.059941925
119	0x3e4024c3	0.18764023
120	0x3d580369	0.052737627
121	0x3d93e406	0.072212264
122	0x3e3b3f0f	0.18285774
123	0x3e50359b	0.20332949
124	0x3d0247df	0.031806823
125	0xbb7a4761	-0.0038189518
126	0xbdb550e4	-0.08853319
127	0x3cebc6cb	0.028781315
128	0x3e4745e6	0.19460258
129	0xbdfd9ef3	-0.12383833
130	0xbe96a0b1	-0.29419473
131	0x3cad6c57	0.021169825
132	0xbce4cc90	-0.027929574
133	0x3dde9002	0.10867311
134	0xbe158a92	-0.14603642
135	0x3da20b98	0.079123676
136	0xbc4b4731	-0.01240711
137	0xbc268983	-0.010164621
138	0x3c584f2e	0.013202472
139	0xbe54752e	-0.20747826
140	0xbd0d838d	-0.034549285
141	0x3e005240	0.12531376
142	0xbe43698b	-0.1908323
143	0x3dddf96d	0.1083859
144	0xbe27766e	-0.16353771
145	0x3d641bd0	0.055690587
146	0x3d995861	0.0748756
147	0xbe49d63e	-0.19710633
148	0x3c9d7fb3	0.01922593
149	0xbc77bada	-0.0151202325
150	0x3c7b39bb	0.015333588
151	0xbcc4a2e2	-0.02400345
152	0xbd81baef	-0.06334483
153	0x3d755205	0.059892673
154	0xbb5c62d7	-0.003362825
155	0xbc83c10e	-0.016083267
156	0x3c64f9f2	0.013975607
157	0xbcd75d5d	-0.026289636
158	0xbe10fd47	-0.14159118
159	0xbca4eff0	-0.020133942
160	0x3e6a04ac	0.22853345
161	0xbda9e34b	-0.08295306
162	0xbd754b97	-0.05988654
163	0x3d65971e	0.05605232
164	0xbce1f947	-0.027584685
165	0x3dfe136f	0.124060504
166	0xbd82fa97	-0.063954525
167	0x3d8835d8	0.06650895
168	0xbc1d8468	-0.009614088
169	0xbc9b7890	-0.018978387
170	0x3c85718b	0.016289493
171	0xbe10e317	-0.14149128
172	0x3d031c83	0.032009613
173	0x3dff8026	0.12475614
174	0xbd81d036	-0.06338541
175	0x3decdc3c	0.11565444
176	0xbe381b11	-0.17979075
177	0x3e2698d7	0.16269241
178	0x3da5a11a	0.08087368
179	0xbe4e577c	-0.2015056
180	0x3d09dd34	0.03365822
181	0xbd05f3eb	-0.03270332
182	0x3c0e7836	0.008695653
183	0x3e0c25f8	0.13686359
184	0x3c1a58ec	0.009420615
185	0x3dab24ec	0.08356652
186	0x3e5c7521	0.21529056
187	0x3e95eba1	0.29281333
188	0x3c94a0e9	0.018143134
189	0x3b1aac70	0.0023601316
190	0xbdeb4412	-0.11487593
191	0xbd06fdb4	-0.032956794

actor_linear.bias f4 [6]
0	0xbc0cb9ac	-0.0085891895
1	0x3e17aefe	0.14812848
2	0x3e70a6d0	0.23501134
3	0x3d934726	0.07191305
4	0x3d5c96ee	0.053854875
5	0x3e124551	0.14284255
