spaceinvaders-v0-bottom-7fskip_latent32/model.148.tar (torch, 223035 bytes, 13 tensors)

conv1.weight f4 [32, 4, 3, 3]
0	0x3d67a34a	0.05655221
1	0x3cb41aff	0.021985529
2	0x3d0160b6	0.03158637
3	0xbe497893	-0.19674902
4	0xbf13b1df	-0.57693285
5	0x3df2e823	0.11860683
6	0x3e25466c	0.16140145
7	0x3e66f697	0.22555004
8	0x3d5aa91b	0.053383928
9	0x3c0903c2	0.008362712
10	0x3e2f766d	0.1713502
11	0x3d7b6a3e	0.061380617
12	0x39442c6a	0.00018708562
13	0xbd2a7e42	-0.041624315
14	0xbe02e297	-0.1278175
15	0x3e211bc1	0.15733244
16	0x3d997c49	0.07494409
17	0x3d0aaffe	0.033859245
18	0x3d5b3189	0.053514037
19	0x3e7b0c59	0.24516429
20	0xbd84156e	-0.064494
21	0xbd717ada	-0.05895505
22	0xbe1ef510	-0.15523171
23	0xbe63dcb1	-0.22252156
24	0x3e5fdcb3	0.21861534
25	0xbd6411b6	-0.055680953
26	0x3e542767	0.20718156
27	0x3d2919ca	0.04128436
28	0xbf049ddc	-0.51803374
29	0xbb0de953	-0.0021653965
30	0x3e1c71fc	0.15277857
31	0x3f32e60e	0.69882286
32	0x3ea56a63	0.3230773
33	0xbef1901c	-0.4718026
34	0xbe686b9e	-0.22697303
35	0xbea9d1dd	-0.33167925
36	0xbd2c9ef5	-0.04214378
37	0xbc1a3ec2	-0.009414377
38	0x3e2f795c	0.17136139
39	0xbda44a88	-0.08022028
40	0x3e1a38fc	0.150608
41	0x3e1b9dbd	0.15196891
42	0x3e290816	0.16506991
43	0xbe1c7a92	-0.15281132
44	0xbe34ec33	-0.17668228
45	0x3d8979fe	0.06712721
46	0xbd6ffcde	-0.058590762
47	0xbcd21465	-0.02564449
48	0x3d1cc4a5	0.038273472
49	0x3c030011	0.007995621
50	0xbd9178ed	-0.07103143
51	0x3d0e92d1	0.034807984
52	0xbcef474c	-0.029208802
53	0x3c27c6e2	0.010240288
54	0xbdfb9fa7	-0.12286311
55	0x3e7f73a8	0.24946463
56	0xbd9ff0d0	-0.07809603
57	0xbe11d1db	-0.1424021
58	0x3e11348c	0.14180201
59	0x3d78c0fc	0.06073092
60	0x3dd871b3	0.105685614
61	0xbd741ec2	-0.059599645
62	0x3d82372f	0.06358182
63	0x3ef1f0e8	0.4725411
64	0xbecbdfed	-0.3981928
65	0xbd8adc2b	-0.06780275
66	0x3d83edd2	0.06441845
67	0xbe94ebd5	-0.29086176
68	0xbd4ddfd4	-0.050262287
69	0xbeb9780d	-0.36224404
70	0x3ee31064	0.44348443
71	0xbdac3825	-0.08409146
72	0x3de111ee	0.10989748
73	0xbe45ab31	-0.19303586
74	0x3e2ad59f	0.16683052
75	0x3c2c9fcf	0.010536148
76	0x3debd36b	0.11514934
77	0x3e640244	0.2226649
78	0xbea4609b	-0.32104954
79	0x3d20c3bf	0.039249178
80	0xbe0f423b	-0.13990109
81	0xbe62078b	-0.2207319
82	0x3d01c02d	0.031677414
83	0xbd22fa25	-0.039789338
84	0x3d20945d	0.03920399
85	0xbe2374f7	-0.15962587
86	0xbe30e019	-0.17272986
87	0x3d84532e	0.06461178
88	0xbd46d7d3	-0.04854567
89	0x3e7da07e	0.24768254
90	0x3db88eeb	0.090116344
91	0xbdc8d7c0	-0.09806776
92	0x3e93fdea	0.2890466
93	0x3e0ff572	0.14058474
94	0xbdab214f	-0.083559625
95	0x3d78d023	0.06074537
96	0x3e2e85d1	0.17043234
97	0xbbe37c16	-0.0069422824
98	0xbdf1c6be	-0.11805485
99	0xbdcaf01a	-0.09909077
100	0x3e642fe6	0.22283897
101	0xbe1989df	-0.14994
102	0x3d35e0a2	0.04440368
103	0xbe62c070	-0.22143722
104	0xbe7bf236	-0.24604115
105	0xbdbbf2fe	-0.091772065
106	0x3e8b7875	0.2724034
107	0x3c1b201a	0.009468103
108	0x3e8facd8	0.28061557
109	0x3e0abbd5	0.13548215
110	0x3d8b775c	0.06809875
111	0x3e118928	0.14212477
112	0x3e53bbd5	0.20677121
113	0x3d32d26f	0.043657716
114	0x3e12cb57	0.1433538
115	0x3ef1d191	0.472302
116	0x3dd47f96	0.103758976
117	0x3e03c2a5	0.1286722
118	0xbe70c9f2	-0.23514536
119	0xbdd6b863	-0.10484388
120	0xbdfc84bb	-0.12330004
121	0xbdae909c	-0.08523676
122	0x3df6f469	0.12058336
123	0x3c53c8cf	0.0129262945
124	0x3de5a477	0.1121301
125	0xbe36ce06	-0.17852029
126	0xbc7f61d5	-0.01558729
127	0xbe305ca7	-0.17222844
128	0x3dd4e9c7	0.10396152
129	0x3db29b8e	0.08721076
130	0xbe9612b6	-0.2931115
131	0x3cd78427	0.026308132
132	0x3e7d19d7	0.24716888
133	0x3e345fb4	0.17614633
134	0x3e3d8dbd	0.185111
135	0x3e5d7322	0.21625951
136	0x3d60f804	0.054924026
137	0x3e1a012f	0.15039514
138	0xbe99de0a	-0.30052215
139	0xbf6f8fdc	-0.93578887
140	0xbe96c301	-0.2944565
141	0xbd47efbc	-0.048812613
142	0xbe672ebd	-0.22576423
143	0x3c67b31e	0.014141826
144	0xbe182c1c	-0.14860576
145	0xbe01a760	-0.12661505
146	0x3e853f10	0.26024675
147	0x3e5131b9	0.20429124
148	0x3db212ab	0.08694967
149	0x3dd38af4	0.103292376
150	0xbd2ae2f5	-0.04172035
151	0x3ee59500	0.4484024
152	0xbe0f56cf	-0.13997959
153	0xbd9dbf19	-0.077024646
154	0xbe6dec81	-0.2323475
155	0xbe1ad4da	-0.15120259
156	0xbe071b83	-0.13194089
157	0xbe032745	-0.12807949
158	0xbd54f947	-0.051995542
159	0xbde62595	-0.11237637
160	0x3d5886ae	0.052862816
161	0x3cbb14bb	0.022837033
162	0xbcfff6b5	-0.031245569
163	0x3de6b501	0.112649925
164	0x3a3b1b86	0.0007137585
165	0xbda6b350	-0.0813967
166	0xbe9f4b6f	-0.3111224
167	0xbe1e5532	-0.15462187
168	0xbe174fd0	-0.1477654
169	0xbe6a878a	-0.22903267
170	0xbe65f3a3	-0.22456221
171	0x3e975e5c	0.29564178
172	0xbac5378c	-0.0015046461
173	0xbe43eef3	-0.1913412
174	0x3e026a78	0.12735927
175	0x3edf7243	0.43641862
176	0x3ea2b8cb	0.3178161
177	0xbcb353d0	-0.02189055
178	0xbe1baba8	-0.152022
179	0x3ec71f00	0.3889084
180	0xbe52ce2b	-0.2058646
181	0xbe850447	-0.25979826
182	0xbe5619ae	-0.20908234
183	0xbe9a55e2	-0.30143648
184	0xbf0ddde1	-0.55416685
185	0xbe17bf8a	-0.1481916
186	0xbec0b389	-0.37636974
187	0xbef49991	-0.47773412
188	0xbe6fe928	-0.23428786
189	0xbd9ac04f	-0.07556211
190	0xbcc950bb	-0.024574628
191	0xbdcb48fe	-0.099260315
192	0xbe6a7da1	-0.22899486
193	0xbe20271b	-0.15639918
194	0xbdb81ca6	-0.08989839
195	0xbe5bf531	-0.21480252
196	0xbd016728	-0.031592518
197	0xbc9f5a3b	-0.019452205
198	0x3e80187a	0.25018674
199	0xbc8b0e45	-0.016974578
200	0x3de52e0f	0.111904256
201	0xbe1d013a	-0.15332499
202	0x3e5c9e75	0.21544822
203	0xbe28cf61	-0.16485359
204	0x3d9761bb	0.073916875
205	0x3dcaeced	0.09908471
206	0xbe17b7b9	-0.14816178
207	0x3ecdbfe6	0.4018547
208	0x3f0dffe0	0.5546856
209	0x3eef2a3d	0.46711913
210	0x3d837ccb	0.06420287
211	0x3e9a96d8	0.3019321
212	0xbde37632	-0.11106528
213	0x3ed4274e	0.41436237
214	0x3f03607a	0.51319087
215	0x3eb0b9d1	0.34516767
216	0x3ead46d0	0.33843088
217	0xbe066c0d	-0.13127156
218	0xbd3dfcb2	-0.046383567
219	0x3eaf0ff6	0.34191865
220	0x3d8f50ea	0.06997855
221	0x3ec2797c	0.3798331
222	0xbec7c9c2	-0.39021116
223	0xbef87aa6	-0.48531073
224	0xbd8b0808	-0.06788641
225	0xbd03296e	-0.032021932
226	0x3bea3c93	0.0071483343
227	0x3e8c611e	0.27417845
228	0x3e507f07	0.20360957
229	0x3ddb3362	0.1070316
230	0x3dd46e86	0.10372643
231	0xbe449e7b	-0.1920108
232	0x3d22928f	0.03969055
233	0xbe2741ec	-0.16333741
234	0x3d0dfbf4	0.03466411
235	0xbdffa0f3	-0.124818705
236	0x3dae8b7e	0.085227
237	0x3df44571	0.119273074
238	0x3d2b7f90	0.0418697
239	0xbd5bca43	-0.05365969
240	0xbe029bed	-0.12754793
241	0x3d2dedef	0.04246324
242	0x3d93743e	0.07199906
243	0xbd656b3e	-0.056010477
244	0xbeb84ff3	-0.35998496
245	0xbd140614	-0.03613861
246	0xbe9e7e59	-0.3095577
247	0xbee51498	-0.44742274
248	0xbe2a5d49	-0.16637148
249	0x3e96da27	0.29463312
250	0x3f03b8f8	0.51454115
251	0x3dad4d56	0.08462016
252	0x3d18545a	0.03718982
253	0xbdb20b44	-0.08693555
254	0xbd879173	-0.06619539
255	0xbeeaa09f	-0.4582567

conv1.bias f4 [32]
0	0xbb2eb3d0	-0.002665747
1	0xba734d38	-0.0009281221
2	0xbb10d193	-0.0022097572
3	0xbbd0054e	-0.0063482886
4	0x3b91620b	0.0044367365
5	0x3c2a42d3	0.010391909
6	0xbb9bc688	-0.0047538914
7	0x39b77291	0.0003498984
8	0x3b79387d	0.0038028054
9	0x3b8459ed	0.0040390403
10	0x3b8eb080	0.0043545365
11	0xbb0b9efc	-0.002130448
12	0x3bb51ed7	0.005527358
13	0x3ba7c026	0.0051193414
14	0xbaac1cc9	-0.0013131137
15	0x3d7e243e	0.062046282
16	0x3a040bac	0.00050371396
17	0x3bc144bf	0.0058980878
18	0x3d0f46f3	0.03497977
19	0xbb97734c	-0.0046218988
20	0x3a42fa8c	0.0007437847
21	0x3a9beffc	0.0011897082
22	0xbb984628	-0.004647035
23	0x3b5d4737	0.0033764371
24	0x3bd4e518	0.0064970367
25	0xba1e2ea6	-0.0006034173
26	0xbb5ddd10	-0.0033853687
27	0xbbcc48ec	-0.006234279
28	0xba249e3d	-0.0006279683
29	0xba4a5e02	-0.0007719697
30	0x3aa96b2c	0.0012925616
31	0xbbbf66b2	-0.0058410997

conv2.weight f4 [32, 32, 3, 3]
0	0xbe9f4590	-0.3110776
1	0xbe0fa593	-0.14028005
2	0x3e51f843	0.2050486
3	0x3e4d4235	0.20044787
4	0x3e4a406a	0.19751135
5	0xbe3cfbd2	-0.18455437
6	0xbe2da4f2	-0.16957453
7	0x3d0df709	0.03465942
8	0x3bff9797	0.0078000533
9	0x3d4f3c67	0.050594714
10	0xbe76aa53	-0.24088411
11	0x3da4c633	0.08045616
12	0x3e6e0f53	0.23248033
13	0xbd2269cc	-0.039651677
14	0xbcb576b6	-0.022151332
15	0x3d961d6d	0.07329831
16	0xbdbd80d8	-0.092530906
17	0x3e62cf08	0.22149289
18	0x3b6ee079	0.0036449714
19	0x3db5f0b8	0.08883804
20	0xbe7dadcc	-0.2477333
21	0xbdcd1e43	-0.100155376
22	0x3da4847f	0.08033084
23	0x3dc7ea6a	0.09761508
24	0xba3fcba1	-0.0007316415
25	0x3d556f20	0.05210793
26	0x3d121a23	0.035669457
27	0xbe80e3df	-0.25173852
28	0xbe5108d1	-0.2041352
29	0xbddb9591	-0.10721887
30	0xbe52f7e4	-0.20602375
31	0xbee36ad0	-0.4441743
32	0x3ea34a5b	0.31892666
33	0xbd8dad40	-0.069178104
34	0x3e2252de	0.15851924
35	0x3e9941bf	0.29932973
36	0x3e3558e6	0.17709693
37	0x3d8ea4c8	0.06965023
38	0x3d905525	0.0704749
39	0x3e21f30f	0.15815376
40	0x3e34ea2e	0.17667457
41	0xbe228b53	-0.1587346
42	0xbd88951f	-0.066690676
43	0xbdf106c9	-0.11768872
44	0x3e2c9d90	0.1685698
45	0x3e1f6430	0.15565562
46	0xbdda0a4e	-0.10646497
47	0xbed2c8ec	-0.41168916
48	0x3e12e436	0.14344868
49	0x3d96da92	0.07365908
50	0xbd798d1c	-0.060925588
51	0x3e0ab6ff	0.1354637
52	0x3eb04c0e	0.34433025
53	0x3e38e847	0.18057357
54	0x3edbe36f	0.42946956
55	0x3dec6b57	0.11543911
56	0xbeaa4a06	-0.332596
57	0xbd8772a3	-0.06613662
58	0x3dc10d03	0.0942631
59	0x3c90d34e	0.017678883
60	0xbdf82278	-0.121159494
61	0xbbf8272f	-0.0075730304
62	0xbe74acd3	-0.23894052
63	0xbe407dfb	-0.18798058
64	0xbcc93eaf	-0.024566023
65	0x3d81d9e6	0.06340389
66	0x3ec0e6f3	0.376762
67	0xbcb3cc89	-0.021948116
68	0xbd953da8	-0.072871506
69	0xbcc60134	-0.024170496
70	0x3dc50441	0.09619952
71	0x3d852d61	0.06502796
72	0xbe3f7eaf	-0.1870067
73	0x3d50952d	0.050923515
74	0x3ea9f358	0.3319347
75	0xbb0f8219	-0.0021897613
76	0x3dbafe72	0.09130563
77	0x39c33916	0.0003723583
78	0xbd87e6f6	-0.06635849
79	0xbe509158	-0.20367944
80	0xbe0974aa	-0.1342341
81	0x3e802f09	0.25035885
82	0xbe16d560	-0.14729834
83	0x3d8a1739	0.067427106
84	0x3bc9d83b	0.00615981
85	0x3d99f2e3	0.0751703
86	0xbe96460b	-0.29350314
87	0x3c84c858	0.016208813
88	0x3ea596df	0.32341668
89	0xbb72a2c3	-0.0037023283
90	0x3e40c888	0.18826497
91	0xbd46f561	-0.048573855
92	0xbdff8031	-0.124756224
93	0x3dc94bdf	0.098289244
94	0x3ee85f3c	0.45385158
95	0xbee46ab4	-0.44612658
96	0x3cf82278	0.030289873
97	0x3cdd2528	0.026995257
98	0xbdce4f93	-0.10073771
99	0x3e572eab	0.21013896
100	0x3cf85f72	0.03031895
101	0xbd839de2	-0.06426598
102	0x3e8db36b	0.27675948
103	0x3c89a174	0.01680062
104	0xbe4f50b5	-0.20245631
105	0xbe039ae0	-0.12852049
106	0xbe16d0af	-0.14728044
107	0x3c319428	0.010838546
108	0xbdb49303	-0.08817103
109	0xbd37ed06	-0.044903778
110	0x3ddf7fb5	0.1091303
111	0x3ed15c77	0.40890858
112	0x3e3b5b9b	0.18296663
113	0xbe5bc68c	-0.21462458
114	0xbddddcfa	-0.108331636
115	0xbe8171e0	-0.25282192
116	0xbe21e55a	-0.15810147
117	0xbe1edb45	-0.15513332
118	0x3d4ee41f	0.050510522
119	0x3f37adc6	0.7174953
120	0x3e93e914	0.28888762
121	0x3d2b060f	0.041753825
122	0x3e1eae24	0.15496117
123	0x3db56ece	0.08859025
124	0xbed81fda	-0.422118
125	0xbddcf2f0	-0.10788524
126	0x3db85a45	0.090015925
127	0x3da7d2f0	0.0819453
128	0x3d30b01a	0.043136694
129	0x3e6255eb	0.22103088
130	0xbe349d1f	-0.17638062
131	0x3d80b398	0.06284255
132	0x3d8d8c64	0.06911543
133	0xbe30e1dd	-0.1727366
134	0x3dbb8856	0.091568634
135	0xbe348075	-0.17627127
136	0xbdbd570a	-0.09245117
137	0xbd5ec058	-0.054382652
138	0xbcd9199e	-0.026501473
139	0x3e2f6296	0.17127451
140	0x3eda4680	0.42631912
141	0xbe13bf3f	-0.14428423
142	0xbddf9e70	-0.109188914
143	0xbd978bd1	-0.07399715
144	0xbe2e55cf	-0.17024921
145	0xbdc5932a	-0.0964721
146	0xbe161c12	-0.14659145
147	0x3e0deee0	0.13860655
148	0x3ced40b3	0.028961515
149	0xbe1c6d0c	-0.15275973
150	0x3db3c7f1	0.0877837
151	0x3c355bae	0.011069221
152	0x3c9d38aa	0.019192059
153	0xbe1e490f	-0.15457557
154	0x3df52ce1	0.119714506
155	0xbd96a13a	-0.0735497
156	0xbeff2d97	-0.4983947
157	0x3e3a6c52	0.18205383
158	0xbe425753	-0.18978624
159	0x3e7788e7	0.24173318
160	0xbdd70af3	-0.10500135
161	0x3dbaeb5c	0.091269225
162	0xbdc8575a	-0.09782286
163	0xbdcdba5a	-0.10045309
164	0xb8304410	-4.2025058e-05
165	0x3c2e5490	0.010640278
166	0x3dfbd232	0.12295951
167	0x3e8568c9	0.26056507
168	0xbe3f380d	-0.18673725
169	0xbe2105a4	-0.15724808
170	0xbdb82b7a	-0.089926675
171	0x3e5be8a5	0.21475466
172	0x3d012520	0.031529546
173	0xbd663eaf	-0.056212123
174	0x3d617585	0.055043716
175	0x3da6923d	0.081333615
176	0x3c12d95b	0.008962954
177	0xbe9e4f15	-0.3091971
178	0xbe1bb220	-0.15204668
179	0xbdfea980	-0.12434673
180	0xbe31b2d5	-0.17353375
181	0xbd99a2f2	-0.075017825
182	0x3c6ff24b	0.0146451695
183	0x3c170714	0.009217996
184	0x3e338db3	0.17534523
185	0xbe7bdf45	-0.2459689
186	0xbdf1bfd3	-0.11804166
187	0x3e00aca8	0.12565863
188	0x3d82935d	0.063757636
189	0x3e0250d7	0.1272615
190	0xbe7abe8f	-0.24486755
191	0x3c6e9588	0.014562018
192	0xbe0b1582	-0.13582423
193	0x3cfc1301	0.03077078
194	0xbd14df0c	-0.036345527
195	0xbd8b5550	-0.068033814
196	0xbe071d57	-0.13194786
197	0x3e09cf96	0.13458094
198	0xbe5ae447	-0.21376143
199	0x3df8b65f	0.121441595
200	0xbdf1a06e	-0.11798178
201	0x3ed85bcf	0.42257544
202	0x3e44c295	0.19214852
203	0xbaca3f62	-0.0015430267
204	0xbe5adb70	-0.21372771
205	0xbd4b8b87	-0.04969361
206	0xbd80a128	-0.06280738
207	0xbd02a588	-0.031896144
208	0xbdb0bdda	-0.08629961
209	0x3eade497	0.33963463
210	0xbeb4585f	-0.35223672
211	0xbe554411	-0.20826747
212	0xbdcab34c	-0.098974794
213	0x3e61ac85	0.22038467
214	0x3e1df35e	0.15424868
215	0xbd39e6b3	-0.045386028
216	0x3dd73079	0.10507292
217	0x3d744b20	0.059641957
218	0x3e42d117	0.19025074
219	0xb9c0aff0	-0.00036752177
220	0xbe059011	-0.13043238
221	0xbcb8168d	-0.02247169
222	0x3df241a2	0.11828925
223	0xbeb51c68	-0.35373235
224	0xbe321044	-0.17389017
225	0x3e9a8e0b	0.30186495
226	0x3dd09cbc	0.10186145
227	0x3d71558f	0.058919486
228	0x3e05681b	0.13027994
229	0x3c3cf6ec	0.01153348
230	0xbe609241	-0.21930791
231	0xbe84f615	-0.25968996
232	0x3de5c0ce	0.11218415
233	0x3caf0840	0.021366239
234	0x3d958cb5	0.07302228
235	0x3a170f1d	0.0005762445
236	0xbe222f73	-0.15838413
237	0x3dc12b98	0.09432143
238	0x3e090d8d	0.13384075
239	0xbe43acf6	-0.19108948
240	0xbe1f9266	-0.1558319
241	0x3ea8f9e9	0.33003166
242	0xbd91d293	-0.07120242
243	0x3d0cb885	0.03435566
244	0xbe120a90	-0.14261842
245	0xbd59edaf	-0.05320519
246	0xbdf97ee3	-0.12182405
247	0xbe6d9454	-0.23201114
248	0x3e37b6e1	0.17940857
249	0x3d336911	0.04380137
250	0x3e05c4a9	0.13063301
251	0x3e3825d6	0.17983183
252	0x3ec14467	0.377475
253	0x3e6cddc5	0.23131473
254	0xbe9fa9bb	-0.31184182
255	0xbebe52c8	-0.37172532

conv2.bias f4 [32]
0	0xbb6446eb	-0.003483231
1	0x3b9891cf	0.0046560536
2	0xbca3accc	-0.019979857
3	0xbbc82166	-0.006107497
4	0xbd421d16	-0.04739102
5	0xbc4fe048	-0.01268775
6	0xbc0d31bb	-0.008617814
7	0xbc2bf4d9	-0.010495388
8	0x3ac0c053	0.0014705755
9	0xbb88acf2	-0.0041710073
10	0xbcd58952	-0.026066456
11	0xbcd73f96	-0.026275437
12	0x3d06a93e	0.032876246
13	0xbca79251	-0.020455511
14	0xbd0a31b4	-0.033738807
15	0xbc67fed9	-0.0141598815
16	0xbb178298	-0.0023118611
17	0xbc0ce4d2	-0.008599477
18	0x3bc80173	0.0061036884
19	0x3ba7caf0	0.0051206276
20	0xbc568b5d	-0.01309475
21	0xbc6dfb1c	-0.014525201
22	0xbc0cc519	-0.008591914
23	0x3c04cc72	0.008105384
24	0xbbed35b3	-0.0072390675
25	0xbcd46b0a	-0.025929946
26	0xbc67bd38	-0.014144234
27	0xbcd520d3	-0.026016628
28	0x3ca32f2a	0.01991995
29	0xbc1bd194	-0.009510417
30	0xbb64353f	-0.0034821776
31	0xbb63513b	-0.0034685868

conv3.weight f4 [32, 32, 3, 3]
0	0xbd73f930	-0.059563816
1	0xbd668653	-0.056280445
2	0xbe8c4209	-0.2739413
3	0xbbb81ee3	-0.0056189164
4	0x3dbdc230	0.09265554
5	0x3e06ee88	0.1317693
6	0x3dc36c6b	0.095421635
7	0xbe48d5d8	-0.19612825
8	0xbd6ee6c4	-0.058325544
9	0xbb8cb2ef	-0.0042937915
10	0xba8024d8	-0.0009776605
11	0x3e0b7b99	0.13621368
12	0xbe13cbe9	-0.14433254
13	0xbe633650	-0.22188687
14	0x3e21aaf6	0.15787873
15	0x3d535444	0.051594034
16	0xbda40347	-0.080084376
17	0xbe96c372	-0.29445988
18	0xbdc882ce	-0.09790574
19	0xbda88df8	-0.082302034
20	0x3e461965	0.19345625
21	0x3e49b049	0.19696154
22	0x3e108e5c	0.14116806
23	0xbc06fa13	-0.008238333
24	0xbdd2f1df	-0.103000395
25	0xbd2350db	-0.03987203
26	0xbc13a074	-0.009010423
27	0xbd846766	-0.06465034
28	0xbe5f969a	-0.21834794
29	0xbf00d8c0	-0.50330734
30	0x3e2cbec1	0.16869642
31	0xbe4273f9	-0.18989553
32	0xbe456641	-0.19277288
33	0x3edbb519	0.42911604
34	0x3ca3e161	0.02000493
35	0xbed04815	-0.40679994
36	0x3e217929	0.15768875
37	0xbcd4cc5c	-0.025976352
38	0xbeb2486f	-0.34820887
39	0xbc9851df	-0.018593727
40	0xbe1ef41c	-0.15522808
41	0xbe1b7204	-0.15180212
42	0x3e4cc110	0.19995522
43	0xbda375cc	-0.07981452
44	0xbbe252c6	-0.00690684
45	0xbd940699	-0.07227821
46	0xbd8491e5	-0.0647314
47	0xbd650e8d	-0.05592208
48	0x3e25eeb8	0.16204345
49	0x3d804c4f	0.06264555
50	0xbe567a5c	-0.20945114
51	0xbe8fdd1b	-0.28098378
52	0x3d904883	0.070450805
53	0x3e3ce295	0.18445809
54	0x3e001b7a	0.12510481
55	0xbc8a9ef2	-0.016921494
56	0xbe28d6ea	-0.16488233
57	0x3e3c2d16	0.18376574
58	0xbe1c98a2	-0.152926
59	0x3de1348f	0.10996353
60	0xbdb4587e	-0.08805941
61	0x3e293679	0.16524686
62	0x3de4704f	0.11154234
63	0xbd9b2d23	-0.075769685
64	0xbe7d9679	-0.24764432
65	0xbdc3ca17	-0.0956003
66	0x3e1f38ea	0.15549055
67	0xbe205f74	-0.15661412
68	0xbdd197de	-0.102340445
69	0xbe1118c3	-0.14169602
70	0x3bb8112f	0.005617283
71	0x3d1ce124	0.03830065
72	0x3b17f485	0.0023186516
73	0xbdca7aa9	-0.09886677
74	0x3dc5240e	0.096260175
75	0x3df612f4	0.12015334
76	0xbc09b7c0	-0.008405626
77	0x3e8429cb	0.25813136
78	0xbd38b6a6	-0.045096062
79	0x3e80409a	0.25049287
80	0xbcbebd8a	-0.023283739
81	0x3df8660f	0.12128841
82	0xbdeb77cb	-0.11497458
83	0xbdf92a2f	-0.12166249
84	0x3d16e295	0.03683718
85	0xbda768a4	-0.081742555
86	0xbdae7831	-0.085190184
87	0xbe1f5ce4	-0.15562779
88	0xbee59a60	-0.4484434
89	0x3ec9ad9e	0.39390272
90	0xbe71acf3	-0.23601131
91	0xbd34f9c7	-0.04418352
92	0xbe4a7bc0	-0.1977377
93	0x3dc98d1a	0.09841366
94	0x3e64a5c2	0.22328857
95	0xbea18780	-0.3154869
96	0xbe4b14b4	-0.19832116
97	0xbe5a83a9	-0.21339287
98	0x3e85628b	0.26051745
99	0x3e407420	0.18794298
100	0x3d557fff	0.05212402
101	0xbdcc55e1	-0.099773176
102	0x3e9867eb	0.29766783
103	0x3e91934f	0.284327
104	0x3c9ec51b	0.019381097
105	0x3c96707e	0.018364187
106	0x3e4a50d8	0.19757402
107	0xbe415b2f	-0.1888244
108	0xbe33a85e	-0.17544696
109	0x3e878a5c	0.26472747
110	0x3e0db005	0.13836677
111	0xbe2f77c8	-0.17135537
112	0x3e01d647	0.12679397
113	0x3b594781	0.0033154192
114	0x3d431c54	0.047634438
115	0x3e56d2d1	0.20978858
116	0xbd7b82e9	-0.061404143
117	0xbe14c1b6	-0.1452702
118	0x3d927a9b	0.071522914
119	0x3e57fe66	0.21093139
120	0x3cbdc0b4	0.023163177
121	0x3ca494a0	0.020090401
122	0x3dfd6961	0.12373615
123	0xbdc24c9b	-0.094872676
124	0x3da40480	0.08008671
125	0x3f185845	0.5950969
126	0xbd2c3884	-0.042046085
127	0x3e8fbcc1	0.28073695
128	0x3c018061	0.007904143
129	0xbdc79c23	-0.097465776
130	0x3dac0e5f	0.084011786
131	0xbe1dde4c	-0.15416831
132	0xbdb7c229	-0.0897258
133	0x3dbcf874	0.09227076
134	0x3e1d3b13	0.15354566
135	0x3e7baa6f	0.24576734
136	0xbda25d5a	-0.07927962
137	0xbd072fdf	-0.033004638
138	0xbe561ffa	-0.20910636
139	0x3c457648	0.012052126
140	0x3e98625f	0.2976255
141	0x3d3ea2f5	0.046542127
142	0x3cc9a242	0.024613503
143	0xbf0411f2	-0.5158988
144	0xbd110a9d	-0.035410512
145	0xbd06319a	-0.032762147
146	0x3e2d841a	0.16944924
147	0xbe5497ec	-0.20761079
148	0x3ea29684	0.3175546
149	0xbe44b3c6	-0.19209203
150	0xbd50cd83	-0.05097724
151	0x3d8f7dd0	0.07006419
152	0xbec54cee	-0.38535255
153	0xbec7c9cf	-0.39021155
154	0xbe4e41c9	-0.20142283
155	0x3e39b615	0.18135865
156	0xbe57ea9e	-0.21085593
157	0x3e0eef35	0.13958438
158	0x3e01bd48	0.12669861
159	0x3dbbae05	0.09164051
160	0xbdd4739a	-0.10373612
161	0x3e089c21	0.13340808
162	0x3e048e6d	0.12944956
163	0xbd9a30d7	-0.07528847
164	0xbe79b13f	-0.2438402
165	0x3d9cd35e	0.076575026
166	0xbbac466c	-0.0052574184
167	0xbe14a3be	-0.14515588
168	0x3bd12e79	0.006383714
169	0x3dc39cdc	0.09551403
170	0xbea03eb5	-0.31297842
171	0xbd200676	-0.03906866
172	0x3e352104	0.17688376
173	0x3e27d0a2	0.16388181
174	0xbe8f0582	-0.2793389
175	0xbdf098ef	-0.1174792
176	0xbdba8bc8	-0.091086924
177	0xbdfbc2ac	-0.1229299
178	0xbe29d822	-0.16586354
179	0xbcfc39c1	-0.030789258
180	0x3e1ccfb3	0.15313606
181	0xbea322f8	-0.31862617
182	0xbe87dbfa	-0.26535016
183	0xbda4dd91	-0.08050073
184	0x3ecb7cf5	0.39743772
185	0xbd93191d	-0.07182524
186	0xbda7919d	-0.081820704
187	0xbdadd516	-0.084879085
188	0xbe4821de	-0.1954417
189	0x3e1dd909	0.15414824
190	0xbd7ca466	-0.06168022
191	0xbe59f9ba	-0.2128667
192	0xbc75c9c7	-0.015001721
193	0xbd91e14c	-0.0712305
194	0xbdd3a754	-0.1033465
195	0x3db63858	0.088974655
196	0x3e11387a	0.141817
197	0xbc3aacbb	-0.011393721
198	0x3dc99cda	0.0984437
199	0xbcee2b7e	-0.029073473
200	0xbe8a904c	-0.27063215
201	0xbe42f59c	-0.19039005
202	0x3d0aaa04	0.033853546
203	0xbb4a2466	-0.003084445
204	0xbd19c7b5	-0.03754397
205	0x3e9412fe	0.2892074
206	0xbd38abdb	-0.04508577
207	0x3e364987	0.17801486
208	0x3d5bf1d0	0.053697407
209	0xbebba474	-0.36648905
210	0x3ea8ba0e	0.32954448
211	0xbeb2574f	-0.34832236
212	0xbddc596d	-0.10759244
213	0x3c1d7fa3	0.0096129505
214	0xbe1472d6	-0.14496931
215	0xbdccc324	-0.099981576
216	0x3e0bcf5c	0.1365332
217	0xbc520d6c	-0.012820583
218	0x3e457813	0.19284086
219	0xbdfccafa	-0.12343402
220	0xbd54e7a6	-0.05197873
221	0x3e0d07c5	0.13772495
222	0xbe733cd5	-0.23753674
223	0x3dee45fa	0.11634441
224	0x3e95c5ed	0.29252568
225	0xbc957784	-0.018245466
226	0xbe2f1429	-0.17097534
227	0x3e75ee7a	0.24016753
228	0x3d5a855a	0.05334983
229	0xbde3b601	-0.11118699
230	0x3df5a0e9	0.11993582
231	0x3c39d196	0.011341473
232	0x3e1472a9	0.14496864
233	0xbd68aa0e	-0.0568028
234	0xbe8f08fb	-0.2793654
235	0x3e623684	0.22091109
236	0x3e5c86ca	0.21535793
237	0xbdf1df07	-0.11810117
238	0xbda0cb45	-0.078512706
239	0xba88115d	-0.0010381151
240	0x3e23ac5a	0.15983716
241	0xbcb648b7	-0.02225147
242	0x3e38b6df	0.1803851
243	0x3d2cf7da	0.042228557
244	0x3dac0d52	0.08400978
245	0x3e7b6413	0.24549894
246	0x3de93411	0.11386884
247	0xbddeaffd	-0.10873411
248	0xbe4cb141	-0.19989492
249	0x3dfcaa04	0.123371154
250	0xbedf7456	-0.43643445
251	0xbd888c4b	-0.06667384
252	0xbe053480	-0.13008308
253	0x3b69a2a0	0.003564991
254	0x3e0682fa	0.13135901
255	0xbe9bcbc5	-0.304289

conv3.bias f4 [32]
0	0xbe01cf61	-0.12676765
1	0xbe1b2e84	-0.15154463
2	0x3bf0d7e9	0.0073499572
3	0xbe028c77	-0.12748896
4	0xbd8cb638	-0.06870693
5	0xbed26836	-0.41095132
6	0xbde27fdd	-0.11059544
7	0xbe0aab35	-0.13541873
8	0xbdff9588	-0.12479693
9	0xbd2a115c	-0.04152046
10	0xbe03ef54	-0.12884265
11	0xbe20d477	-0.15706049
12	0xbd557edc	-0.052122936
13	0xbddf7c94	-0.10912433
14	0xbe14bcbc	-0.14525121
15	0xbd071fd3	-0.032989334
16	0xbdca6568	-0.09882623
17	0xbd4df339	-0.050280783
18	0xbec59f72	-0.3859821
19	0xbdd4a4c1	-0.10382987
20	0xbe4d2515	-0.20033677
21	0xbceeb988	-0.029141203
22	0xbe30512f	-0.17218469
23	0xbe7ce979	-0.24698438
24	0xbd985c0c	-0.074394315
25	0xbdfbfd4c	-0.12304172
26	0x3c95c65c	0.018283062
27	0xbda6c5e2	-0.08143212
28	0xbdada2f4	-0.084783465
29	0xbdf13bfe	-0.11779021
30	0x3d277158	0.040879577
31	0xbe0aa733	-0.13540344

conv4.weight f4 [32, 32, 3, 3]
0	0x3eac52ff	0.3365707
1	0xbd896824	-0.067093164
2	0x3dbead95	0.09310452
3	0xbde67dc2	-0.11254455
4	0xbb61f101	-0.0034475925
5	0xbd756423	-0.05990995
6	0xbe7f4228	-0.2492758
7	0xbe0ed66b	-0.13948981
8	0xbe7a295e	-0.24429843
9	0xbdae383d	-0.0850682
10	0xbe69a035	-0.2281502
11	0x3de89bde	0.11357854
12	0xbcd79367	-0.026315404
13	0x3d8647d8	0.06556672
14	0xbe0bfc6d	-0.13670512
15	0x3cede9fc	0.029042237
16	0x3dc94eaa	0.09829457
17	0xbc8a44bb	-0.016878476
18	0xbe7602b3	-0.24024467
19	0x3e5d1548	0.2159015
20	0x3d8ca87d	0.06868074
21	0xbe5873dd	-0.21137948
22	0xbdc9f5c7	-0.098613314
23	0x3dc5a0ff	0.09649848
24	0x3ddc7f16	0.10766427
25	0x3c70013d	0.014648733
26	0xbd190957	-0.037362423
27	0x3e5d670d	0.21621342
28	0x3d63d8a0	0.05562651
29	0xbd9307fb	-0.071792565
30	0x3e80bd1b	0.25144276
31	0xbe5f237f	-0.21790884
32	0xbd8ae343	-0.06781628
33	0xbd9855c1	-0.07438231
34	0xbe0a4f00	-0.13506699
35	0x3cc3c9ec	0.023899995
36	0x3e1b24ec	0.15150803
37	0xbe50d668	-0.2039429
38	0xbe0f26f4	-0.13979703
39	0x3e0af6b6	0.13570675
40	0xbe20b31e	-0.15693328
41	0x3e1d85cf	0.15383075
42	0x3dfda8cf	0.12385713
43	0xbdbaab10	-0.09114659
44	0x3dcf932e	0.10135494
45	0x3ead048f	0.3379254
46	0xbe3b42e6	-0.18287238
47	0x3d851f61	0.06500126
48	0xbdc7303c	-0.09725997
49	0x3d461540	0.04836011
50	0x3e3ebc3b	0.18626492
51	0xbde1956b	-0.11014827
52	0x3c942933	0.018086052
53	0xbdc4150d	-0.095743276
54	0x3e7891a2	0.24274305
55	0xbe871fee	-0.26391548
56	0xbdb7ea1e	-0.08980201
57	0xbd60f367	-0.054919627
58	0x3a17b854	0.000578766
59	0x3cf6c083	0.030121094
60	0xbe2d5f52	-0.16930893
61	0x3e080b41	0.13285543
62	0x3d34f9f8	0.0441837
63	0x3e025326	0.12727031
64	0xbdb2fc4e	-0.087395296
65	0x3e1e2206	0.15442666
66	0x3df9ec40	0.12203264
67	0x3b9a34fa	0.0047060223
68	0x3e3a3e10	0.18187737
69	0xbdc80cf0	-0.09768093
70	0x3d21727e	0.03941583
71	0x3e86161b	0.2618874
72	0x3d818d9c	0.06325838
73	0xbb823e57	-0.0039747166
74	0xbdfc93ec	-0.12332901
75	0x3c557dcc	0.013030481
76	0x3e5f5e98	0.21813428
77	0xbdb0f865	-0.086411275
78	0xbdaed7cf	-0.08537256
79	0x3e2686aa	0.16262308
80	0xbd8f57e8	-0.06999189
81	0x3cefbe85	0.029265651
82	0xbeca3bc2	-0.39498717
83	0x3d187c56	0.03722795
84	0xbe6d0e02	-0.23149875
85	0x3e9ccaca	0.30623466
86	0x3e2b01dd	0.1669993
87	0xbe2a018a	-0.1660215
88	0x3e282ea2	0.16424039
89	0x3e5054d0	0.20344853
90	0x3e58f3de	0.21186778
91	0x3d1ff30a	0.03905014
92	0x3dc3014d	0.095217325
93	0xbdb24502	-0.087045684
94	0x3e1d48b5	0.15359767
95	0xbe851869	-0.25995186
96	0x3b5bb409	0.0033524057
97	0xbe510583	-0.20412259
98	0x3e9d41c6	0.30714244
99	0xbdf703a0	-0.12061238
100	0x3dd3bb08	0.10338408
101	0x3a1d1a72	0.00059930154
102	0x3ec603c4	0.38674748
103	0xbea32212	-0.3186193
104	0xbe678434	-0.22609025
105	0x3e164021	0.146729
106	0x3d5f7f7b	0.054564934
107	0xbd3949db	-0.04523645
108	0xbe1186f6	-0.1421164
109	0x3d9bc6dc	0.07606289
110	0x3e849e7f	0.25902173
111	0xbe0a9c36	-0.13536152
112	0xbd12096b	-0.035653513
113	0x3dd1e7d0	0.10249293
114	0xbd4470c4	-0.047959104
115	0x3da53a0e	0.08067714
116	0xba21d275	-0.0006173023
117	0x3ec72420	0.3889475
118	0xbf024d59	-0.50899273
119	0x3da5d17f	0.08096599
120	0x3e562778	0.20913494
121	0xbe934634	-0.28764498
122	0x3dce984c	0.10087642
123	0xbd32e67c	-0.04367684
124	0xbdc5d9f2	-0.096607104
125	0xbdfd7e2e	-0.123775825
126	0x3e49c303	0.19703297
127	0xbd6921b6	-0.056916915
128	0xbd7a414b	-0.061097424
129	0xbc8e0a34	-0.01733885
130	0xbdb695b4	-0.08915272
131	0x3dd9a1f4	0.10626593
132	0xbd16ec10	-0.03684622
133	0x3e350c33	0.17680435
134	0xbdd95c92	-0.106133595
135	0xbcc9d2d4	-0.024636663
136	0xbdd2b797	-0.10288923
137	0x3e6ce66e	0.23134777
138	0xbe89c4a9	-0.26907852
139	0x3eaea5bb	0.34110817
140	0xbe062e36	-0.13103566
141	0xbe9cd24f	-0.30629203
142	0x3e18f036	0.14935383
143	0xbd42def0	-0.04757589
144	0xbe2da06c	-0.16955727
145	0xbd7ae25c	-0.06125103
146	0xbe29a388	-0.16566288
147	0xbd408cb5	-0.04700919
148	0x3ec09fa7	0.37621805
149	0x3de56828	0.11201507
150	0x3e8523f1	0.26003984
151	0xbe90ab02	-0.2825547
152	0xbd255e48	-0.040373117
153	0xbe5ce380	-0.2157116
154	0x3d3698f1	0.04457945
155	0xbd952e4e	-0.072842225
156	0xbd94c614	-0.07264343
157	0xbe4cd87d	-0.20004459
158	0x3e3260b4	0.17419702
159	0xbd6b9bbd	-0.05752157
160	0xbe6f9781	-0.23397638
161	0xbc24b2ef	-0.010052427
162	0x3e58cca2	0.21171811
163	0xbd270530	-0.04077643
164	0xbd1acb44	-0.037791505
165	0x3c956050	0.018234402
166	0xbd5271ae	-0.051377945
167	0xbe4c7138	-0.19965065
168	0xbdf1019b	-0.11767884
169	0xbdbe0b34	-0.092794806
170	0x3e40a5d3	0.18813257
171	0xbe1d86eb	-0.15383498
172	0xbcdc28cc	-0.026874922
173	0xbdc5e365	-0.09662513
174	0xbdfb337f	-0.122656815
175	0x3e4c859e	0.19972846
176	0xbe242111	-0.16028239
177	0x3e0e56ee	0.13900349
178	0xbe28ddf7	-0.16490923
179	0xbddf23db	-0.10895511
180	0x3a602670	0.00085506495
181	0x3dc83ddf	0.09777426
182	0x3e81d461	0.25357345
183	0x3e7a26af	0.24428819
184	0xbdb57e9d	-0.0886204
185	0xbe907783	-0.2821618
186	0xbe164485	-0.14674576
187	0xbde0c829	-0.109756775
188	0x3b3ace4b	0.0028504308
189	0xbdca41e5	-0.0987585
190	0xbe595bd9	-0.21226443
191	0xbd2dd483	-0.042438995
192	0x3caf64a1	0.021410288
193	0xbb87b1c8	-0.004141066
194	0x3e05b660	0.13057852
195	0x3e8c5976	0.27412003
196	0x3e100313	0.14063673
197	0xbe8ae259	-0.27125815
198	0x3e041cc7	0.12901603
199	0x3e9a52e5	0.30141369
200	0xbe37bca0	-0.17943048
201	0xbe80de7d	-0.25169745
202	0x3f1bf2f6	0.60917604
203	0xbd9e4ef1	-0.07729901
204	0x3d733c47	0.059383657
205	0xbeaa045d	-0.33206454
206	0xbd1083ef	-0.03528207
207	0xbd229328	-0.03969112
208	0xbe0941e1	-0.13404037
209	0xbd8e8ca5	-0.069604196
210	0x3d27f38e	0.041003756
211	0xbd8813a0	-0.06644368
212	0xbe23cda4	-0.15996414
213	0xbdf58afe	-0.11989401
214	0xbd9949db	-0.0748479
215	0x3e4f0c7a	0.20219603
216	0xbc3e3b70	-0.011610851
217	0x3e6b0310	0.22950387
218	0xb6f8c710	-7.41415e-06
219	0xbec3c222	-0.3823405
220	0xbd296cb8	-0.041363448
221	0x3dbdd001	0.09268189
222	0xbcd09152	-0.02545992
223	0x3e17d503	0.14827351
224	0x3e2fac4c	0.1715557
225	0x3c107d13	0.0088188825
226	0xbea032a4	-0.31288636
227	0x3d2595c9	0.04042605
228	0xbe241d1e	-0.16026732
229	0x3ce0895e	0.027409252
230	0x3e2c0147	0.16797362
231	0xbe307b96	-0.17234644
232	0x3ec000a9	0.37500504
233	0xbe2b96d5	-0.16756757
234	0x3c0ae22e	0.008476777
235	0xbd5cc568	-0.0538992
236	0x3db09d78	0.08623785
237	0x3e8af82c	0.27142465
238	0x3eb42fd6	0.35192746
239	0xbd6ce887	-0.057838943
240	0xbe5c27fa	-0.21499625
241	0xbdb68929	-0.0891288
242	0x3e42ec6f	0.19035505
243	0x3e59440d	0.21217366
244	0xbe8f7e71	-0.28026155
245	0x3e223572	0.158407
246	0xba8490b6	-0.0010113928
247	0xbdad9e8e	-0.084775075
248	0x3e522e68	0.20525515
249	0xbe024969	-0.12723316
250	0x3e391359	0.18073787
251	0xbe78b2cb	-0.24286954
252	0x3d0ccb68	0.03437367
253	0x3d4e33e6	0.050342463
254	0x3e27f1a2	0.1640077
255	0xbead78dc	-0.3388127

conv4.bias f4 [32]
0	0xbf0a6777	-0.54064125
1	0xbeb6ee0c	-0.3572849
2	0xbe1870fd	-0.14886852
3	0xbe88d54e	-0.2672524
4	0xbf0c8c1f	-0.5490131
5	0xbeafab69	-0.34310463
6	0xbe9d51f9	-0.30726603
7	0xbe770e85	-0.24126633
8	0xbe6b8fb5	-0.23004039
9	0xbe975761	-0.29558852
10	0xbe709360	-0.23493719
11	0xbed956df	-0.4244909
12	0xbea5359d	-0.32267466
13	0xbe91b90b	-0.2846149
14	0xbebf7f37	-0.37401745
15	0xbf083572	-0.5320655
16	0xbeb727fe	-0.357727
17	0xbeebc982	-0.46052176
18	0xbeccf7bf	-0.40032765
19	0xbe1d7f90	-0.15380692
20	0xbdf7fad9	-0.12108392
21	0xbea4a3eb	-0.3215631
22	0xbec00366	-0.37502593
23	0xbee9c063	-0.45654592
24	0xbdee0fc1	-0.116240986
25	0xbe8a43c5	-0.2700483
26	0xbea99c91	-0.33127263
27	0xbf20ef9b	-0.6286561
28	0xbe70b50b	-0.23506562
29	0xbe253e4c	-0.16137046
30	0xbe9b9295	-0.3038527
31	0xbf03de1d	-0.5151079

linear.weight f4 [32, 800]
0	0xbc037168	-0.008022644
1	0x3df8d771	0.12150467
2	0xbca10c35	-0.019659141
3	0xbb1c4732	-0.0023846147
4	0xbd2ce355	-0.04220899
5	0xbe80358b	-0.2504085
6	0x3e0ef357	0.13960014
7	0x3cb8aba9	0.022542791
8	0x3ba36220	0.0049860626
9	0x3de5267b	0.1118898
10	0x3e42e02e	0.1903083
11	0xbe50ca01	-0.20389558
12	0xbde97d0a	-0.114008024
13	0xbd8f3811	-0.06993116
14	0x3ea7b344	0.32753956
15	0x3e522cfa	0.2052497
16	0x3e469cc0	0.19395733
17	0xbdc1cbb3	-0.09462681
18	0xbc0301f6	-0.007996073
19	0xbdb24ec7	-0.08706432
20	0xbda8013d	-0.08203361
21	0xbd933338	-0.071875036
22	0xbdd78f8d	-0.10525427
23	0xbdadafd0	-0.08480799
24	0xbdab65ca	-0.08369024
25	0x3ea30f87	0.31847784
26	0xbd576791	-0.052589003
27	0x3df55771	0.11979569
28	0xbd7ce075	-0.061737496
29	0x3d32f7d2	0.04369337
30	0xbedd2d42	-0.4319859
31	0x3db1b9fc	0.08678052
32	0xbd8330a3	-0.06405761
33	0xbcf05317	-0.029336495
34	0x3e4becf3	0.19914608
35	0x3e67997e	0.22617146
36	0x3d90e0cb	0.07074126
37	0xbdabac79	-0.08382506
38	0xbd907e23	-0.07055309
39	0x3a01db7b	0.00049536646
40	0x3dc9e143	0.098574184
41	0xbeba97f7	-0.36444065
42	0xbddbc316	-0.10730569
43	0x3c497a7e	0.012297271
44	0x3caf1587	0.02137257
45	0xbdd1ad96	-0.10238187
46	0xbd9f9a43	-0.07793095
47	0xbc98911e	-0.018623885
48	0xbd1ba037	-0.03799459
49	0xbd534ff3	-0.051589917
50	0xbe1bdc5c	-0.15220779
51	0xbc517e68	-0.012786485
52	0xbc99882c	-0.01874169
53	0xbdd3308a	-0.103119925
54	0x3c4da06b	0.012550454
55	0x3e94774c	0.28997266
56	0x3d3cbbf7	0.046077695
57	0x3c25be00	0.0101161
58	0xbcf65fcf	-0.030074982
59	0xbd84a34b	-0.06476458
60	0x3d3a0167	0.045411494
61	0x3d5bc8b6	0.05365821
62	0x3d844655	0.06458727
63	0xbd7a4019	-0.061096285
64	0xbc82c654	-0.01596371
65	0xbe05f4ba	-0.13081637
66	0x3bebd91a	0.0071975114
67	0x3d2f51f9	0.042802785
68	0xbd6ab72e	-0.0573036
69	0xbdbad39e	-0.09122394
70	0xbdbcaeec	-0.09213051
71	0xbcbbb2dc	-0.022912435
72	0x3a9be5d9	0.0011894061
73	0xbd048e03	-0.032361995
74	0x3c426211	0.011864201
75	0x3eab413c	0.33448207
76	0xbdaa0f36	-0.083036825
77	0x3deaed8d	0.114710905
78	0xbc2e0428	-0.010621108
79	0xbe7b6e4c	-0.24553794
80	0xbe99c2ef	-0.30031535
81	0x3d099da3	0.0335976
82	0xbdb1a1d3	-0.08673444
83	0xbdd6ae68	-0.10482484
84	0x3e23b8cf	0.15988468
85	0xbc99d3ac	-0.01877769
86	0x3963e87e	0.00021735017
87	0xbd4852cf	-0.048907097
88	0x3d7f9829	0.06240097
89	0xbe1c9660	-0.15291739
90	0x3e335c20	0.17515612
91	0xbce707d4	-0.028201975
92	0x3e2ba40c	0.16761798
93	0x3df4640d	0.11933146
94	0x3e135707	0.14388667
95	0xb9ba7d51	-0.00035570053
96	0xbd8072e3	-0.06271913
97	0xbd904d08	-0.070459425
98	0xbdb18a44	-0.0866895
99	0xbdcbbe49	-0.099484034
100	0xbe9b00bf	-0.30274007
101	0x3e8cc9d4	0.27497733
102	0x3c601351	0.01367648
103	0x3dd39524	0.10331181
104	0x3e1f724e	0.15570948
105	0xbe880fdb	-0.26574597
106	0x3ebeeccc	0.37290037
107	0x3e1bcbd2	0.1521447
108	0x3e0dae1b	0.13835947
109	0x3e3c997d	0.18417926
110	0xbe84f961	-0.2597151
111	0x3f115a50	0.5677843
112	0x3e576298	0.21033704
113	0x3e079af2	0.132427
114	0x3edad9f4	0.4274441
115	0xbea19079	-0.31555536
116	0xbe9551ec	-0.29164064
117	0xbe78d0ad	-0.24298353
118	0xbe5c4d5f	-0.2151389
119	0xbebd7e95	-0.37010637
120	0xbeac8d70	-0.33701658
121	0xbecc854a	-0.3994544
122	0xbebad158	-0.36487842
123	0xbec8a2aa	-0.39186603
124	0xbed4064c	-0.41411054
125	0xbcb3d4fe	-0.021952149
126	0xbd3de094	-0.046356753
127	0x3cb8ccf0	0.02255866
128	0xbd86f8bf	-0.06590413
129	0x3e4f8386	0.20265016
130	0x3dadac28	0.08480102
131	0x3e8ed41a	0.27896196
132	0xbd1a923a	-0.03773711
133	0xbdd38d04	-0.10329631
134	0xbd9cef2c	-0.07662806
135	0xbe1d26f5	-0.15346892
136	0xbef62150	-0.4807229
137	0xbcf65777	-0.030071003
138	0x3dd314d2	0.103067055
139	0x3deb60ff	0.1149311
140	0xbe35ff0a	-0.17773071
141	0xbdbab1c5	-0.09115938
142	0xbdcb6395	-0.09931103
143	0xbe0bfec7	-0.13671409
144	0xbdacefae	-0.08444153
145	0x3c264db8	0.0101503655
146	0x3dc5d919	0.09660549
147	0x3d7778d9	0.060417984
148	0x3d492652	0.04910881
149	0x3de0e38a	0.109809
150	0xbddbeb24	-0.10738209
151	0x3c7a4d4e	0.01527722
152	0xbe4c1e2e	-0.19933388
153	0xbcaea33c	-0.02131807
154	0x3e5b472c	0.21413869
155	0x3eaf0215	0.34181276
156	0x3e20d734	0.15707093
157	0xbddc4712	-0.10755743
158	0xbe0a4c4e	-0.1350567
159	0x3e4b15c3	0.1983252
160	0xbe84e306	-0.25954455
161	0x3ddf3fa9	0.10900814
162	0xbd9360ae	-0.071961746
163	0xbd3107b7	-0.043220248
164	0xbe24dcca	-0.1609985
165	0xbcd24223	-0.025666302
166	0x3c9351d5	0.017983356
167	0x3c2f6f44	0.01070768
168	0x3e821e35	0.2541367
169	0x3db1cf17	0.086820774
170	0x3e51607c	0.20446962
171	0xbd1c5b51	-0.038173024
172	0xbd1fa0bb	-0.038971644
173	0xbdbaf4a9	-0.091286965
174	0xbd8fb5a7	-0.07017069
175	0x3eb6577d	0.35613623
176	0xbe6199f1	-0.2203138
177	0x3cc09da8	0.023512676
178	0x3c173bec	0.009230595
179	0xbd133fc8	-0.0359495
180	0xbe9d4572	-0.30717045
181	0x3e4a08d7	0.19729935
182	0x3dae5979	0.08513159
183	0xbcb8f5f3	-0.022578215
184	0x3df4b5a1	0.119487055
185	0x3c854214	0.01626686
186	0xbd537d4a	-0.051633157
187	0xba8958a7	-0.0010478691
188	0xbc182452	-0.009286003
189	0x3e66a776	0.22524819
190	0xbc4b0a0b	-0.012392531
191	0x3d1ffc5c	0.039059028
192	0x3e2d8c2a	0.16948
193	0x3dae861a	0.085216716
194	0xbe982da1	-0.29722312
195	0x3c95ad0c	0.018270992
196	0xbb11f3e6	-0.002227062
197	0xbcf9a4fe	-0.030474182
198	0xbd12fc05	-0.035884876
199	0x3958548f	0.00020630866
200	0xbd722eae	-0.05912655
201	0x3cd5c947	0.026096953
202	0xbd15d217	-0.03657731
203	0x3e51dfc0	0.2049551
204	0xbbfc192a	-0.0076934295
205	0xbc1ca3e0	-0.009560555
206	0x3dfdf161	0.12399555
207	0xbd756ff4	-0.05992122
208	0xbd17e448	-0.03708294
209	0x3e39a3a3	0.18128829
210	0x3e70e4ed	0.23524828
211	0x3d56b527	0.052418854
212	0xbd6dde08	-0.058073074
213	0x3cb4fe1d	0.022093827
214	0x3e8825eb	0.2659143
215	0xbce1e7b1	-0.0275763
216	0x3d227c9f	0.03966963
217	0x3e273277	0.16327845
218	0xbe6197f7	-0.22030626
219	0xbe9d41cf	-0.3071427
220	0x3c9dfa98	0.019284531
221	0xbd8be7cd	-0.06831322
222	0xbd123319	-0.03569326
223	0xbd950366	-0.07276039
224	0xbd22717b	-0.039659005
225	0x3d6be3e0	0.057590365
226	0x3e834566	0.25638884
227	0xbd769aff	-0.06020641
228	0xbe15c48f	-0.14625762
229	0xbcbe8198	-0.023255154
230	0xbe487a41	-0.19577886
231	0x3da87646	0.08225684
232	0x3cd484d6	0.025942247
233	0xbe23d8ba	-0.16000643
234	0x3cf25628	0.029582098
235	0x3dca7ea0	0.09887433
236	0x3e72613a	0.23669901
237	0xbcd5bf86	-0.026092302
238	0xbd5d7d24	-0.05407442
239	0xbc9e7e85	-0.019347439
240	0x3d84669d	0.064648844
241	0xbddcd32d	-0.10782466
242	0x3d3e40fd	0.046448696
243	0x3d54aa00	0.051919937
244	0xba5d6f66	-0.00084470806
245	0x3d4b529b	0.049639326
246	0xbd97d9f8	-0.07414621
247	0xbdc0f5b8	-0.09421867
248	0xbd4f5b00	-0.050623894
249	0xbd92c610	-0.07166684
250	0xbd9ff613	-0.07810607
251	0xbd41e52d	-0.0473377
252	0x3d92c134	0.07165757
253	0x3dfcebb8	0.12349647
254	0xbd30a6c2	-0.043127783
255	0x3e125c67	0.14293061

linear.bias f4 [32]
0	0x3f0dbe93	0.5536892
1	0xbe8531c3	-0.26014528
2	0xbeb65dbf	-0.35618398
3	0x3a9081e9	0.0011025044
4	0xbd73406a	-0.059387602
5	0x3dab5d34	0.083673865
6	0xbe585315	-0.21125443
7	0x3db373b2	0.087623015
8	0xbbaae054	-0.0052147303
9	0xbcba7aa9	-0.022763567
10	0xbc30beed	-0.010787708
11	0xbe931e4e	-0.28734058
12	0xbd60f79d	-0.054923642
13	0x3e322831	0.17398144
14	0xbe848165	-0.2587997
15	0x3d714ae1	0.0589093
16	0xbd991e4f	-0.07476484
17	0x3e400e33	0.18755417
18	0x3d59f771	0.053214494
19	0xbf282ed6	-0.65696466
20	0x3d778b8d	0.06043582
21	0x3d13f330	0.036120594
22	0x3bee8b4b	0.0072797886
23	0xbe0c80f8	-0.13721073
24	0xbdbbac28	-0.091636956
25	0x3d59f172	0.053208776
26	0xbbba8224	-0.0056917835
27	0x3e6b83fc	0.22999567
28	0x399d8d55	0.00030050674
29	0x3d44e2c4	0.048067823
30	0xbe76bcc3	-0.24095444
31	0xbc3643fd	-0.011124608

critic_linear.weight f4 [1, 32]
0	0x3d3c0adb	0.04590879
1	0xbb1e91b0	-0.0024195723
2	0x3b05e9d4	0.0020433562
3	0x39b93969	0.00035328724
4	0xbabba107	-0.0014314958
5	0x3b9fde2e	0.004878781
6	0x3ab34023	0.001367573
7	0x3b423de2	0.0029638936
8	0x3acd6661	0.001567077
9	0xbb9d84f3	-0.0048071085
10	0x3b0eb99b	0.002177811
11	0xbc0aab73	-0.008463728
12	0x39ed9739	0.00045316832
13	0xba60658b	-0.0008560053
14	0x3ab60ebb	0.0013889888
15	0x3bc1011b	0.0058900244
16	0xbbd9d6f4	-0.006647939
17	0xbb80362b	-0.0039127073
18	0xbbc72cb0	-0.006078325
19	0xbe23a279	-0.15979947
20	0x3b14308b	0.0022611942
21	0xb9cb04cd	-0.00038722754
22	0x3baedc35	0.0053363093
23	0xbb650e64	-0.0034951204
24	0xbb4a4e49	-0.0030869415
25	0x3b4fab08	0.0031687636
26	0x3b180810	0.0023198165
27	0xbb854329	-0.004066844
28	0x3be747b7	0.0070581096
29	0xba7a809d	-0.0009555908
30	0xbb57c7e7	-0.0032925548
31	0xbb3d1235	-0.0028849964

actor_linear.weight f4 [6, 32]
0	0x3ec2d3eb	0.38052306
1	0xbe6b9ebf	-0.23009776
2	0xbedc6992	-0.43049294
3	0x3b45fba5	0.0030209806
4	0x3c0a480c	0.008440029
5	0x3dba6946	0.091021106
6	0xbdc20938	-0.094744146
7	0x3d4f19e0	0.050561786
8	0x3c97dad9	0.018536972
9	0xbd210133	-0.039307784
10	0x3bb1da37	0.0054276246
11	0xbdf3adc2	-0.11898376
12	0x3d3c0696	0.04590472
13	0x3e39badf	0.18137692
14	0xbea73096	-0.32654256
15	0x3e04febe	0.12987801
16	0xbe259bba	-0.16172686
17	0x3df44458	0.11927098
18	0x3d4fa8b1	0.050697986
19	0xbf00e41a	-0.50348055
20	0x3d059f7c	0.0326228
21	0xbd41f55c	-0.047353134
22	0x3cbaa268	0.02278252
23	0x3df978fd	0.1218128
24	0xbb96cc1c	-0.0046019685
25	0x3db0d854	0.08635011
26	0x3e122c98	0.14274824
27	0x3e850cae	0.25986236
28	0x3d193321	0.037402276
29	0xbcbe2cfe	-0.023214813
30	0xbe2688b8	-0.16263092
31	0x3b403f5c	0.002933464
32	0x3ed83c65	0.42233577
33	0xbe80704c	-0.25085676
34	0xbecce335	-0.40017095
35	0x3a933979	0.0011232338
36	0x3c3eacfa	0.0116379205
37	0x3da74ffa	0.08169551
38	0xbdc3b9a1	-0.0955689
39	0x3d1e7e3b	0.0386946
40	0x3c9ab81e	0.018886622
41	0xbc8845cc	-0.016634844
42	0xbc84cd39	-0.016211139
43	0xbdc96bde	-0.09835027
44	0x3d028e8c	0.031874225
45	0x3e405389	0.18781866
46	0xbece5c58	-0.40304828
47	0x3dedd0bf	0.11612081
48	0xbe3a91eb	-0.18219726
49	0x3e09390b	0.13400666
50	0x3d9562d8	0.072942436
51	0xbefe4818	-0.49664378
52	0x3d5dad79	0.054120515
53	0xbd431879	-0.04763076
54	0xbbd19a24	-0.006396549
55	0x3dc1bc40	0.09459734
56	0x3cc2c14f	0.023773817
57	0x3dc18bd4	0.09450498
58	0x3e2c6766	0.16836318
59	0x3e98b81f	0.29827973
60	0x3d19ecd4	0.037579373
61	0xbc5b45ea	-0.013383368
62	0xbe163241	-0.14667608
63	0xbbe75d43	-0.007060678
64	0x3ec98e03	0.3936616
65	0xbe5e27da	-0.2169489
66	0xbef1b4e3	-0.47208318
67	0x3cb484b2	0.02203593
68	0xbbb50892	-0.0055247033
69	0x3dc0cdce	0.09414254
70	0xbdae6628	-0.085155785
71	0x3d9e8005	0.077392615
72	0x391dae76	0.00015037679
73	0xbc24cdc4	-0.010058824
74	0xbaf2cab7	-0.0018523548
75	0xbdab3e93	-0.083615445
76	0x3cc8a1d7	0.024491234
77	0x3e3d14f5	0.18465026
78	0xbe95275c	-0.2913159
79	0x3e15e638	0.14638603
80	0xbe45d2a5	-0.19318636
81	0x3dd4f4d7	0.10398262
82	0x3d653d35	0.055966575
83	0xbefa1810	-0.48846483
84	0x3d1e9b07	0.038722064
85	0x3cd6b735	0.026210407
86	0x3b066376	0.002050606
87	0x3d962954	0.073321015
88	0x3cbb78da	0.022884775
89	0x3da61e23	0.08111217
90	0x3e28ca07	0.16483317
91	0x3e13036c	0.14356774
92	0x3ccb3fa8	0.024810627
93	0xbba6e5d2	-0.0050933147
94	0xbe23f720	-0.1601224
95	0xbc37cd04	-0.011218313
96	0x3f00887e	0.5020827
97	0xbe7a39c0	-0.24436092
98	0xbeeaeb1b	-0.45882496
99	0x3c87b878	0.016567454
100	0xbaeb7b0d	-0.0017965749
101	0x3dacdaf5	0.084402
102	0xbd9b1812	-0.075729504
103	0x3cd100a6	0.025513005
104	0x3c6b447e	0.0143595915
105	0xbd2bd448	-0.041950494
106	0xbba9c3eb	-0.005180826
107	0xbdfbf411	-0.12302411
108	0x3cdfb22d	0.02730664
109	0x3e41e233	0.18933944
110	0xbe8efbee	-0.27926582
111	0x3e24e982	0.16104701
112	0xbe19a990	-0.15006089
113	0x3dc54735	0.09632722
114	0x3c33e984	0.010980967
115	0xbed500dc	-0.41602218
116	0x3cbb883c	0.02289211
117	0xbce21b67	-0.027600957
118	0x3be1bed7	0.006889205
119	0x3e213c27	0.15745603
120	0xbcb4207c	-0.021988146
121	0x3db02149	0.08600099
122	0x3e2c440f	0.16822837
123	0x3e9c51a1	0.30531028
124	0x3d31a94b	0.04337434
125	0xbcb6f511	-0.022333654
126	0xbe2f29c8	-0.17105782
127	0xbc9148b4	-0.017734863
128	0x3ef3930a	0.4757312
129	0xbe6cd3cf	-0.23127674
130	0xbed1a110	-0.40943193
131	0x3c0928fc	0.008371588
132	0x3aa4ead1	0.0012582188
133	0x3db9a5b7	0.09064811
134	0xbddbc6dc	-0.10731289
135	0x3cdcaf3b	0.026939025
136	0x3c7c43f3	0.01539706
137	0xbca9f6bd	-0.020747537
138	0xbb0f3eaa	-0.002185742
139	0xbe0bb0a9	-0.13641609
140	0x3c1de7d2	0.00963779
141	0x3e38a270	0.18030715
142	0xbebc4a28	-0.36775327
143	0x3e0b6010	0.13610864
144	0xbe1c8d6e	-0.15288326
145	0x3de5b86c	0.11216816
146	0x3d1fe008	0.039032012
147	0xbef31b0c	-0.47481573
148	0x3d094282	0.033510692
149	0xbc04afcc	-0.008098554
150	0x3ba28333	0.004959488
151	0x3c9d8f42	0.01923335
152	0xbcbcbd1f	-0.023039399
153	0x3d435fe7	0.04769888
154	0x3e27ec69	0.16398777
155	0x3e0921a4	0.13391739
156	0x3d576878	0.052589864
157	0xbcd3a436	-0.025835138
158	0xbe11966d	-0.14217539
159	0x3c1337f4	0.008985508
160	0x3ef58c86	0.47958773
161	0xbe7814bc	-0.2422666
162	0xbed20451	-0.41018918
163	0x3ccbf5ec	0.024897538
164	0x3a8243e7	0.0009938449
165	0x3dda8f02	0.10671808
166	0xbdc2ddc8	-0.09514958
167	0x3d92b08b	0.07162579
168	0x3c31e377	0.0108574545
169	0xbcb19294	-0.02167634
170	0x3b8dd671	0.004328542
171	0xbdf7562c	-0.12076983
172	0x3cca1d8d	0.024672294
173	0x3e418bb9	0.18900956
174	0xbe8db1c7	-0.27674696
175	0x3e0507fe	0.1299133
176	0xbe4389f8	-0.190956
177	0x3e049b0a	0.12949768
178	0x3d1de924	0.03855242
179	0xbee85f08	-0.45385003
180	0x3ce5fa68	0.028073505
181	0xbca440b1	-0.020050379
182	0x3cf682f1	0.030091735
183	0x3d866167	0.06561547
184	0x3bd5b18e	0.0065214103
185	0x3d92ad57	0.07161968
186	0x3e338861	0.17532493
187	0x3ec36e5f	0.38170144
188	0x3d13acdf	0.036053535
189	0xbc7f6b96	-0.015589615
190	0xbe25db74	-0.16196996
191	0xbc69a850	-0.01426132

actor_linear.bias f4 [6]
0	0x3dfd1b38	0.12358707
1	0x3ec82ed4	0.39098227
2	0x3e84dc85	0.25949493
3	0x3e4323fc	0.19056696
4	0x3ebd6722	0.36992747
5	0x3ec6f6af	0.3886008
