spaceinvaders-v0-bottom-7fskip_latent32/model.106.tar (torch, 223035 bytes, 13 tensors)

conv1.weight f4 [32, 4, 3, 3]
0	0x3cec7e55	0.028868834
1	0x3cbe4279	0.023225056
2	0xbba479b8	-0.005019393
3	0xbdf06cdd	-0.11739514
4	0xbf072853	-0.52795905
5	0x3dce5fc7	0.10076862
6	0x3e27ccea	0.16386762
7	0x3e0ebe2f	0.13939737
8	0x3d4fa930	0.05069846
9	0xbafca202	-0.0019274356
10	0x3e1d9c27	0.15391599
11	0x3bc91039	0.006135967
12	0x3bd791e8	0.0065786727
13	0xbc465732	-0.01210575
14	0xbd7ab669	-0.061209116
15	0x3def5e48	0.116879046
16	0x3df30c46	0.11867575
17	0xbbc97c3a	-0.006148842
18	0x3d4c35b8	0.049855918
19	0x3e549fe5	0.2076412
20	0xbd813c69	-0.063103504
21	0xbd96b7b3	-0.073592566
22	0xbde03030	-0.10946691
23	0xbe1f86e9	-0.15578808
24	0x3e26e753	0.1629918
25	0xbc57f417	-0.013180754
26	0x3e46c786	0.1941205
27	0x3d3dd253	0.04634316
28	0xbee96694	-0.45586073
29	0x3c4ad3cd	0.012379599
30	0x3e0f8f4b	0.14019506
31	0x3f14e9ad	0.5816906
32	0x3e618a62	0.22025445
33	0xbee3236b	-0.4436296
34	0xbe21c4ed	-0.15797777
35	0xbea7648b	-0.32693896
36	0xbc881dae	-0.016615715
37	0xbd809690	-0.062787175
38	0x3e31e69e	0.1737313
39	0xbde16c6f	-0.1100701
40	0x3e1bffe3	0.15234332
41	0x3e091d42	0.13390067
42	0x3e3273dc	0.1742701
43	0xbe0901c4	-0.1337958
44	0xbe3cf02d	-0.18450995
45	0x3d9a32f2	0.07529248
46	0xbd80b374	-0.06284228
47	0xbd04df3b	-0.03243945
48	0xbc210cd8	-0.009829722
49	0x3cc8b8cf	0.024502186
50	0xbda0e018	-0.078552425
51	0xbd633598	-0.055471033
52	0xbb772f4f	-0.0037717407
53	0x3c6e830c	0.014557611
54	0xbdc3ad23	-0.095545076
55	0x3e8820f2	0.26587635
56	0xbdebc6f6	-0.11512558
57	0xbe162b00	-0.1466484
58	0x3e0d3f76	0.1379374
59	0x3d5a055f	0.05322778
60	0x3d59e59d	0.053197492
61	0xbceda18e	-0.0290077
62	0x3da3f9c1	0.08006621
63	0x3eceb315	0.40371004
64	0xbec00d45	-0.37510124
65	0xbe05db6f	-0.13071989
66	0x3d979e96	0.07403295
67	0xbe8c0bc8	-0.27352738
68	0xbd554d2a	-0.052075543
69	0xbea2c7b6	-0.31792992
70	0x3ed992ec	0.42494905
71	0xbde8df4a	-0.11370714
72	0x3e21e935	0.15811618
73	0xbe210df6	-0.15727982
74	0x3e6e8fdf	0.2329707
75	0xbc16c6f3	-0.009202707
76	0x3d9111ce	0.07083474
77	0x3e347c8a	0.17625633
78	0xbe999626	-0.29997367
79	0x3d344dc8	0.04401949
80	0xbdd717e3	-0.10502603
81	0xbe44116b	-0.1914727
82	0x3c97f5d0	0.01854983
83	0xbcfa6a03	-0.030568128
84	0x3d9ef2cf	0.07761156
85	0xbe2c7db5	-0.16844828
86	0xbe258659	-0.16164531
87	0x3d8da1c4	0.0691562
88	0xbd991159	-0.07474012
89	0x3e6f0b70	0.23344207
90	0x3db14d0b	0.08657273
91	0xbde246bb	-0.11048647
92	0x3e75b7c2	0.2399588
93	0x3e265c91	0.16246249
94	0xbde961eb	-0.113956295
95	0x3cba35ea	0.022730786
96	0x3e0d9655	0.13826878
97	0x3c17f206	0.0092740115
98	0xbdf16881	-0.11787511
99	0xbd925d22	-0.0714667
100	0x3e4a6959	0.1976675
101	0xbe16cf76	-0.14727578
102	0x3e05bdd4	0.13060695
103	0xbe1be922	-0.15225652
104	0xbe9b66d3	-0.30351886
105	0xbd924612	-0.07142271
106	0x3e839e8b	0.25706896
107	0x3d21b397	0.03947791
108	0x3e915f78	0.2839315
109	0x3df7bbf7	0.12096398
110	0x3d140f5f	0.03614747
111	0x3e1e4874	0.15457326
112	0x3e586857	0.21133552
113	0xba3b60d1	-0.00071479107
114	0x3e1891ec	0.14899415
115	0x3efaeecc	0.49010313
116	0x3de41771	0.111372836
117	0x3e04ccb0	0.12968707
118	0xbe6b29fe	-0.22965237
119	0xbe017dac	-0.12645596
120	0xbdf2e7e7	-0.11860638
121	0xbdaad52c	-0.083414406
122	0x3ddb94eb	0.10721763
123	0xbbe849db	-0.0070888824
124	0x3e040114	0.12891036
125	0xbe2b3a05	-0.16721351
126	0xbcc68d75	-0.024237374
127	0xbe015835	-0.12631305
128	0x3dd9d756	0.10636775
129	0x3df0cb2f	0.11757504
130	0xbe821963	-0.25409994
131	0x3d2b464a	0.04181508
132	0x3e54acc8	0.20769036
133	0x3e338df5	0.17534621
134	0x3e2bdecd	0.1678421
135	0x3e3bf942	0.18356803
136	0x3d075dca	0.03304843
137	0x3e140ab3	0.14457206
138	0xbe97a413	-0.29617366
139	0xbf572b9d	-0.84050924
140	0xbe865dd4	-0.2624346
141	0xbd894345	-0.06702284
142	0xbe634dd1	-0.22197653
143	0x3bcf3aa8	0.006324131
144	0xbe08c566	-0.13356552
145	0xbe0e842a	-0.13917604
146	0x3e589e2c	0.21154088
147	0x3e1fcdf0	0.15605903
148	0x3d9e1976	0.077197
149	0x3dc63182	0.096774116
150	0xbd20c24c	-0.039247796
151	0x3edcdd5e	0.4313764
152	0xbdf73d9e	-0.120722994
153	0xbd87e493	-0.06635394
154	0xbe2e4cde	-0.1702151
155	0xbe2984fa	-0.16554633
156	0xbdf32b2f	-0.11873471
157	0xbe134936	-0.14383397
158	0x3c5fe46b	0.013665299
159	0xbdba0423	-0.0908282
160	0xbbfa7dff	-0.0076444144
161	0x3caa94e1	0.020822944
162	0xbcd5921f	-0.026070653
163	0x3db5ab4a	0.088705614
164	0xbcd4d6d5	-0.025981346
165	0xbd744a07	-0.05964091
166	0xbe96ba7c	-0.2943915
167	0xbe2a01e1	-0.16602279
168	0xbe135a21	-0.1438985
169	0xbe57a398	-0.210585
170	0xbe49000b	-0.19628923
171	0x3e814df8	0.25254798
172	0xbbb06eff	-0.0053843255
173	0xbe1d4775	-0.1535929
174	0x3e2cf15c	0.16888946
175	0x3ebe7460	0.37198162
176	0x3e93c8f0	0.2886424
177	0x3b5b38ec	0.0033450676
178	0xbdfc44fa	-0.12317844
179	0x3eb36cb6	0.35043877
180	0xbe21f53d	-0.15816207
181	0xbe62c389	-0.22144903
182	0xbe517081	-0.20453073
183	0xbe877425	-0.264558
184	0xbf002da3	-0.50069636
185	0xbde241a8	-0.11047679
186	0xbea1d398	-0.31606746
187	0xbee99fe6	-0.45629805
188	0xbe51f251	-0.20502593
189	0xbd19960f	-0.037496623
190	0xbb0569b6	-0.0020357198
191	0xbdab00a9	-0.08349735
192	0xbe52bed6	-0.2058061
193	0xbde5ed31	-0.11226881
194	0xbd50e887	-0.051003005
195	0xbe316b87	-0.17326175
196	0x3c531754	0.01288398
197	0x3d0fe5ff	0.03513145
198	0x3e74f7ac	0.23922604
199	0xbcc866d2	-0.024463091
200	0x3da4ff97	0.080565624
201	0xbe24fc33	-0.16111831
202	0x3e26cb98	0.16288602
203	0xbe16d92a	-0.14731279
204	0x3dc12ec9	0.09432752
205	0x3dd22aea	0.102620915
206	0xbdd05ca2	-0.10173918
207	0x3e9f7a75	0.31148115
208	0x3ee5d604	0.44889843
209	0x3ecc31c7	0.39881727
210	0x3d199454	0.037494972
211	0x3e7e0e8d	0.24810238
212	0xbdeab42d	-0.11460147
213	0x3eaf738c	0.34267843
214	0x3ee603f6	0.44924897
215	0x3ea00f7c	0.31261814
216	0x3eb00f3b	0.3438662
217	0xbdd4bcde	-0.10387586
218	0x3c4335d5	0.01191469
219	0x3eaa6635	0.33281103
220	0x3da7cf17	0.08193796
221	0x3ea4b493	0.32169017
222	0xbeb194b5	-0.34683767
223	0xbedb618a	-0.42847854
224	0xbce3a221	-0.02778727
225	0xbcefdcb9	-0.029280053
226	0x3b30bf70	0.0026969574
227	0x3e8fa3a0	0.28054523
228	0x3e3f889f	0.1870446
229	0x3dae677d	0.085158326
230	0x3d8072ce	0.06271897
231	0xbe26cbf2	-0.16288736
232	0x3bff1833	0.007784867
233	0xbdd92774	-0.10603228
234	0x3cff2921	0.031147541
235	0xbdd475be	-0.1037402
236	0x3d6cf525	0.057850976
237	0x3e256751	0.16152693
238	0x3d94bc06	0.07262425
239	0xbd62121e	-0.05519306
240	0xbdfa423d	-0.12219665
241	0x3d30101e	0.04298412
242	0x3d7796d9	0.060446594
243	0xbda72951	-0.08162177
244	0xbed29401	-0.41128543
245	0xbd3ccec0	-0.04609561
246	0xbe6ca506	-0.23109826
247	0xbee1e778	-0.4412191
248	0xbe07ea1c	-0.132729
249	0x3e9a3b27	0.30123255
250	0x3ed4152a	0.41422397
251	0x3dadaaf8	0.08479875
252	0x3c06537b	0.008198614
253	0xbd969425	-0.07352475
254	0xbe02ff97	-0.12792812
255	0xbed2a0a5	-0.41138187

conv1.bias f4 [32]
0	0xbb27e2cd	-0.0025617362
1	0xbbb28d99	-0.0054490087
2	0x3b27cb90	0.002560351
3	0xbc17f06c	-0.00927363
4	0x3bc5eb63	0.006040023
5	0x3c3fb715	0.011701365
6	0xbbdad367	-0.006678033
7	0x3b91a800	0.004445076
8	0x3a00da0c	0.0004915304
9	0x3ba674a8	0.0050798245
10	0x3b5d21b0	0.0033742003
11	0x3a3a12ea	0.00070981553
12	0x3be995fb	0.007128475
13	0x3b5d91fd	0.003380894
14	0x3ae8ef2c	0.0017771474
15	0x3dab3dc7	0.083613925
16	0x3b5272b9	0.0032111837
17	0x3a2e90c6	0.0006659146
18	0x3d7ceb14	0.061747625
19	0xbb4c9c75	-0.0031221185
20	0xba86e251	-0.0010290836
21	0xba31b336	-0.00067787187
22	0x3bc386f0	0.0059670135
23	0xbbb6aab7	-0.00557455
24	0x3c0556e1	0.008138389
25	0x3bc892e4	0.0061210264
26	0xbaa8bc56	-0.0012873511
27	0xbc001de1	-0.007819624
28	0x3bf30c99	0.0074172732
29	0xbc2dcaa0	-0.010607392
30	0x3bb5940d	0.0055413307
31	0xbb3463b0	-0.0027525239

conv2.weight f4 [32, 32, 3, 3]
0	0xbe96e219	-0.29469374
1	0xbe5598bd	-0.20859046
2	0x3e883092	0.26599556
3	0x3ddfdb96	0.109305546
4	0x3e84669f	0.25859544
5	0xbe46aa56	-0.19400916
6	0xbdd50c24	-0.10402706
7	0xbd3406b2	-0.043951698
8	0xbb727bb8	-0.0037000012
9	0xbd76d37f	-0.060260292
10	0xbe86f837	-0.26361248
11	0x3d83b218	0.06430453
12	0x3e38a037	0.18029867
13	0x3c81a993	0.01582793
14	0x3ddfbb95	0.1092445
15	0x3e1dfcd6	0.1542848
16	0xbe3a841d	-0.1821446
17	0x3e2d3585	0.16914947
18	0xbcaeb0a7	-0.021324469
19	0xbda507de	-0.08058141
20	0xbe62ea16	-0.22159609
21	0xbe2dde2e	-0.16979286
22	0x3cc9301c	0.024559073
23	0x3d3832b1	0.044970218
24	0xbc6e193f	-0.014532386
25	0x3de4cee7	0.11172276
26	0xba86b2a3	-0.0010276627
27	0xbe3440eb	-0.17602889
28	0xbe527dd7	-0.20555817
29	0xbe1b4829	-0.15164246
30	0xbe3ffb79	-0.18748273
31	0xbeed33ce	-0.46328586
32	0x3e441790	0.19149613
33	0xbd92fca8	-0.071770966
34	0x3e00285c	0.12515396
35	0x3e83946d	0.25699177
36	0x3e0a7526	0.13521251
37	0x3db89ce4	0.090142995
38	0x3cecdbaa	0.028913338
39	0x3dfa1b4e	0.12212239
40	0x3e53dbd2	0.20689324
41	0xbe40b0b4	-0.18817407
42	0x3c7ce548	0.015435524
43	0xbe121004	-0.14263922
44	0x3dd5cb74	0.10439196
45	0x3e07a539	0.13246621
46	0xbdd60694	-0.104504734
47	0xbeab60fe	-0.33472437
48	0x3d7e21f8	0.062044114
49	0x3bf61c41	0.0075106923
50	0xbd9b4ec3	-0.07583382
51	0x3e14878a	0.14504829
52	0x3e754d33	0.2395523
53	0x3e38f165	0.18060835
54	0x3e86e7c4	0.26348698
55	0x3de9b0ea	0.11410697
56	0xbea5ac37	-0.32357952
57	0xbd37f078	-0.044907063
58	0x3d929176	0.07156651
59	0x3ca75b6f	0.020429341
60	0xbd85a9d9	-0.065265365
61	0xbc5ee2f4	-0.0136039145
62	0xbe89d10a	-0.26917297
63	0xbe42f3c2	-0.19038299
64	0xba5e4a55	-0.0008479704
65	0x3d1b40b4	0.037903503
66	0x3e86224c	0.2619804
67	0x3dc7c122	0.09753634
68	0xbdbf7c41	-0.093498714
69	0xbb3cb973	-0.002879706
70	0x3c91182f	0.017711727
71	0x3dd78ad9	0.1052453
72	0xbd3a11e9	-0.045427237
73	0x3e356bc7	0.17716895
74	0x3e9d37b8	0.30706573
75	0x3b064b57	0.0020491683
76	0x3dee018e	0.1162139
77	0x3ca38917	0.01996283
78	0xbe0b38bb	-0.1359586
79	0xbe660cbc	-0.22465795
80	0xbe03b113	-0.12860517
81	0x3e1bf621	0.1523061
82	0xbe0ade62	-0.13561395
83	0x3d2ef05a	0.042709686
84	0x3d103b05	0.035212535
85	0x3de98e6a	0.114041165
86	0xbe3a3559	-0.18184413
87	0x3d5561af	0.05209511
88	0x3e950d67	0.29111788
89	0x3d1cf3fb	0.038318615
90	0xbcc6920e	-0.024239566
91	0xbcbd4a5d	-0.023106748
92	0xbd362fee	-0.044479303
93	0x3e2cf861	0.16891624
94	0x3eec5854	0.4616114
95	0xbebd6ff5	-0.3699948
96	0x3e04792a	0.12936845
97	0xbd2ec5a5	-0.042668957
98	0xbd96e670	-0.07368171
99	0x3e40bcc7	0.18822013
100	0x3d669cc9	0.056301866
101	0x3c32a6a6	0.01090399
102	0x3e8572c2	0.26064116
103	0x3d794469	0.060856257
104	0xbdaf9478	-0.0857324
105	0xbe253dc0	-0.16136837
106	0xbd654b0e	-0.05597978
107	0xbe0ed9fc	-0.13950342
108	0xbe032543	-0.12807183
109	0xbd86fcda	-0.06591196
110	0x3d88ec6f	0.06685721
111	0x3ed42cec	0.41440523
112	0x3e416c42	0.18888953
113	0xbe188a94	-0.14896613
114	0xbd90817e	-0.07055949
115	0xbe9e8a10	-0.30964708
116	0xbdf84ab2	-0.12123622
117	0xbe0ac22f	-0.13550638
118	0x3de48d82	0.11159803
119	0x3f171d4a	0.59029067
120	0x3e6c30d7	0.23065506
121	0x3c9e0e6f	0.019293992
122	0x3da5ca9e	0.08095287
123	0x3d00ab9a	0.031413652
124	0xbed6653d	-0.41874114
125	0xbd15e2e1	-0.03659332
126	0x3e466b81	0.19376947
127	0x3daae3fb	0.08344265
128	0xbd5fc6fb	-0.054633122
129	0x3e74226a	0.23841253
130	0xbdce1df6	-0.10064308
131	0x3d5175ca	0.051137723
132	0x3ac6669f	0.0015136785
133	0xbe4f8104	-0.2026406
134	0xbd1e1a9e	-0.038599603
135	0xbdbe1e98	-0.09283179
136	0xbd73b56c	-0.05949919
137	0xbdcafdea	-0.099117115
138	0x3c36ff7f	0.011169313
139	0x3e38b8a5	0.18039186
140	0x3ea3350c	0.3187641
141	0xbddf9043	-0.109161876
142	0xbdb349c8	-0.08754307
143	0xbd51058f	-0.05103069
144	0xbe82a852	-0.25519043
145	0xbe2c0f4f	-0.16802715
146	0xbe180d0f	-0.14848731
147	0x3dfc91fd	0.123325326
148	0xbbf4ae6f	-0.007467083
149	0xbdff4f30	-0.12466276
150	0x3d345988	0.044030696
151	0xbc3cb5f1	-0.011517988
152	0x3e0d689a	0.13809434
153	0xbd330344	-0.043704286
154	0xbae8deb1	-0.0017766563
155	0xbda74457	-0.08167332
156	0xbebbc42e	-0.3667311
157	0x3e1896bc	0.1490125
158	0xbdf1c884	-0.118058234
159	0x3e4359a7	0.19077168
160	0xbd21e6a9	-0.039526615
161	0x3c638946	0.013887709
162	0xbd75289f	-0.059853192
163	0xbd749812	-0.059715338
164	0xbd4cab2f	-0.04996794
165	0x3d2a60df	0.04159629
166	0x3e132802	0.1437073
167	0x3e7c0023	0.24609427
168	0xbe0e9691	-0.13924624
169	0xbe0baea5	-0.1364084
170	0xbd168c80	-0.036755085
171	0x3e148d16	0.14506945
172	0xbc5b9e25	-0.013404404
173	0xbd95cdb3	-0.07314625
174	0x3d8a4272	0.06750955
175	0x3d3ac1e1	0.045595054
176	0x3dadfb1d	0.08495162
177	0xbe5f3ac6	-0.21799764
178	0xbd877b2b	-0.06615289
179	0xbdb3f196	-0.08786313
180	0x3d53b159	0.051682804
181	0xbd6e2f94	-0.058150843
182	0x3daa0a09	0.08302695
183	0xbdf6c744	-0.12049726
184	0x3e06349a	0.13106003
185	0xbe19b331	-0.15009762
186	0xbdbe8b2a	-0.09303887
187	0x3e01092e	0.12601158
188	0xbd0ba815	-0.034095842
189	0x3e20e2cf	0.1571152
190	0xbe28a8eb	-0.16470687
191	0x3cc83239	0.02443801
192	0xbde50e4a	-0.11184366
193	0xbe12d9d0	-0.14340901
194	0x3d88cab1	0.06679285
195	0x3c6e7681	0.014554621
196	0xbd765326	-0.06013789
197	0x3b4772fb	0.0030433524
198	0xbdc31ebe	-0.09527348
199	0x3e18c090	0.14917207
200	0xbcd5f284	-0.026116617
201	0x3e8aa224	0.27076828
202	0x3df00e57	0.11721485
203	0xbdfe1a5f	-0.12407374
204	0xbde927d1	-0.113845475
205	0xbdcef6e5	-0.10105685
206	0xbd5d50e6	-0.05403223
207	0xbe068a24	-0.13138634
208	0xbdbbb082	-0.091645256
209	0x3e9cca64	0.30623162
210	0xbe9c4ad9	-0.30525854
211	0xbda3a15b	-0.079897605
212	0xbcbdd5fd	-0.023173327
213	0x3cb4b735	0.022060016
214	0x3e17fe11	0.14843012
215	0xbd738b13	-0.059458803
216	0x3dd91163	0.105990194
217	0x3d6ad398	0.057330698
218	0x3e036458	0.12831247
219	0xbd2df0d2	-0.042465992
220	0xbe02afdf	-0.12762402
221	0xbd3fa34f	-0.046786603
222	0x3da4bad7	0.08043449
223	0xbebf3bf7	-0.37350437
224	0xbe17aa75	-0.14811118
225	0x3e8fb99a	0.2807129
226	0x3c6239bc	0.01380771
227	0xbcf1936f	-0.029489247
228	0x3e507526	0.20357189
229	0x3d879932	0.066210166
230	0xbe0d0739	-0.13772286
231	0xbe143b1d	-0.14475675
232	0x3e180983	0.14847378
233	0x3d925c3b	0.07146498
234	0x3d957cf5	0.07299224
235	0xbd419bba	-0.047267653
236	0xbe164a51	-0.14676787
237	0x3dd29e7f	0.10284137
238	0x3dad7af2	0.084707156
239	0xbe80dd83	-0.25169
240	0xbdfb00d5	-0.12256018
241	0x3e8c9a46	0.2746145
242	0xbcb84081	-0.022491695
243	0x3cc24bf3	0.023717856
244	0xbe68d13e	-0.2273607
245	0xbd8f2eba	-0.06991334
246	0xbe061068	-0.13092196
247	0xbe6ef2a8	-0.23334754
248	0x3df82b77	0.12117665
249	0x3c8b4411	0.01700023
250	0x3e438d32	0.1909683
251	0x3e5719f1	0.2100599
252	0x3ea3cb6c	0.31991136
253	0x3e8f6289	0.28004864
254	0xbe9d4703	-0.3071824
255	0xbea3e366	-0.3200943

conv2.bias f4 [32]
0	0xbcc820dd	-0.024429733
1	0xbb8e98b1	-0.0043516983
2	0xbbb34468	-0.005470801
3	0x3b2d3d1c	0.002643413
4	0xbd3c20e5	-0.04592981
5	0xbc13246d	-0.008980853
6	0xbc4b4698	-0.012406968
7	0xbc22018c	-0.009888064
8	0xbba93370	-0.0051636025
9	0xbc9dd684	-0.019267328
10	0xbd0e50f2	-0.034745164
11	0xbc724031	-0.014785812
12	0x3cf7fe3e	0.0302726
13	0xbc901e1e	-0.017592486
14	0xbd139e3f	-0.036039587
15	0x3b292ee1	0.0025815296
16	0x3b9a674c	0.004712021
17	0x3b95b205	0.0045683407
18	0x3c490afb	0.012270684
19	0x3aa1d347	0.0012346291
20	0xbcb70c02	-0.022344593
21	0x3b4e943a	0.0031521455
22	0xbbeafef2	-0.007171505
23	0xbb024976	-0.0019880212
24	0xbb4ad1da	-0.0030947835
25	0xbc9f3ef8	-0.019439206
26	0xbc474b92	-0.012164013
27	0xbcff14a2	-0.031137768
28	0x3c93a5c5	0.018023381
29	0xbba2e371	-0.004970961
30	0xba855dd7	-0.0010175061
31	0xba97a02b	-0.001156812

conv3.weight f4 [32, 32, 3, 3]
0	0xbe25ec4b	-0.1620342
1	0xbd0e701c	-0.034774885
2	0xbe28e8be	-0.16495034
3	0x3d8d651e	0.06904052
4	0x3e00633d	0.12537856
5	0x3e779bd0	0.24180532
6	0x3d80958d	0.062785245
7	0xbe19e089	-0.1502706
8	0xbbdb4f3c	-0.006692795
9	0x3e2ee770	0.17080474
10	0xbba70dff	-0.005098104
11	0x3db4cdf8	0.08828348
12	0xbe3b76e1	-0.18307067
13	0xbe27fe45	-0.1640559
14	0x3e1d5319	0.1536373
15	0x3e025275	0.12726767
16	0xbda97f6f	-0.08276259
17	0xbe552137	-0.20813452
18	0xbc90ecfd	-0.01769113
19	0x3c56af88	0.013103373
20	0x3de304b7	0.11084884
21	0x3df33e3e	0.11877106
22	0x3d7faea4	0.06242241
23	0xbde0eecc	-0.10983047
24	0x3bb15a41	0.0054123704
25	0xbc863339	-0.016381847
26	0x3c72f9d4	0.0148300715
27	0xbd639eae	-0.05557125
28	0xbdffdc9f	-0.12493252
29	0xbed073b0	-0.40713263
30	0xbc7f8c67	-0.015597439
31	0xbe378ead	-0.1792552
32	0xbe694519	-0.22780265
33	0x3eb81f2b	0.3596128
34	0x3d2152b5	0.039385516
35	0xbeacf7c9	-0.33782795
36	0x3e3c1ac7	0.1836959
37	0xbcd00607	-0.025393499
38	0xbe972c91	-0.2952619
39	0x3d844419	0.06458301
40	0xbe4b1cba	-0.19835177
41	0xbe032840	-0.12808323
42	0x3e570f31	0.21001889
43	0xbddbd146	-0.10733275
44	0xbab576f8	-0.001384466
45	0xbdca5039	-0.098785825
46	0x3c585d54	0.013205845
47	0x3cb68cb7	0.022283895
48	0x3e324684	0.17409712
49	0x3e1edad7	0.15513168
50	0xbe40f837	-0.18844686
51	0xbe0894f5	-0.13338073
52	0xbd065964	-0.032800093
53	0x3db632b7	0.08896392
54	0x3d9f1c1a	0.07769032
55	0x3d429ed5	0.047514755
56	0xbdf22765	-0.1182392
57	0x3dc04a39	0.09389157
58	0xbd5bfc8a	-0.053707637
59	0x3c739360	0.01486668
60	0x3d578ca1	0.05262435
61	0x3df980f3	0.12182798
62	0x3d719840	0.058983088
63	0xbe35f2d2	-0.1776841
64	0xbdb15e4f	-0.08660566
65	0xbdb96616	-0.090526745
66	0x3e08d00b	0.13360612
67	0xbe09090d	-0.13382359
68	0xbe162de6	-0.14665946
69	0xbdd2bb5f	-0.102896444
70	0x3da4a464	0.080391675
71	0xbd5991cf	-0.05311757
72	0x3dae95be	0.08524655
73	0xbdac8a7c	-0.08424851
74	0x3dde29da	0.10847826
75	0x3e672c80	0.22575569
76	0xbd9ea2b6	-0.077458784
77	0x3d6ae161	0.057343844
78	0xbd6d361a	-0.057912923
79	0x3e081dbc	0.13292593
80	0xbe343db3	-0.17601661
81	0x3e5735cf	0.2101662
82	0xbc13c79d	-0.0090197595
83	0xbe0939be	-0.13400933
84	0x3d786269	0.060640726
85	0xbddcbb4f	-0.10777914
86	0xbdd3a16f	-0.103335254
87	0xbb53f258	-0.0032340493
88	0xbeb6048e	-0.3555035
89	0x3ea9779a	0.3309906
90	0xbe182af0	-0.1486013
91	0xbdb10117	-0.08642786
92	0xbe161604	-0.14656836
93	0x3d5dfdb1	0.054197017
94	0x3e616b6f	0.22013639
95	0xbe409c45	-0.18809612
96	0xbdd4e071	-0.10394371
97	0xbe1f57a2	-0.15560773
98	0x3e223c57	0.1584333
99	0x3e2d49f4	0.16922742
100	0x3cf1ab55	0.029500643
101	0xbe849939	-0.2589815
102	0x3e8ed8c3	0.2789975
103	0x3dc1ea16	0.094684765
104	0xbd1c926b	-0.038225573
105	0xbcb04652	-0.021517906
106	0x3e1ee8f1	0.15518548
107	0xbda787d8	-0.08180207
108	0xbde520d0	-0.11187899
109	0x3e3d32c7	0.18476401
110	0x3d4599d5	0.04824241
111	0xbdfc9d67	-0.123347096
112	0x3d8ad05e	0.06778024
113	0xbc397eda	-0.011321748
114	0x3d95a2b6	0.07306425
115	0x3e180489	0.1484548
116	0xbdc9c5c7	-0.09852176
117	0xbd16835c	-0.036746368
118	0x3d0ea0d9	0.034821365
119	0x3e73ba00	0.23801422
120	0xbd8bc62e	-0.06824909
121	0xbd083cd2	-0.033261128
122	0xbd4938a2	-0.049126275
123	0xb89c4bff	-7.452815e-05
124	0xbba373cc	-0.0049881693
125	0x3ef6574a	0.4811347
126	0x3d932caf	0.07186257
127	0x3e820b8a	0.2539943
128	0xbd926c87	-0.07149606
129	0xbcc39fb7	-0.023879869
130	0x3d97a888	0.07405192
131	0xbdfcc7ac	-0.12342772
132	0xbd3e9c59	-0.046535823
133	0x3e101c01	0.14073183
134	0x3db6627e	0.08905505
135	0x3de72569	0.11286432
136	0xbc142415	-0.009041806
137	0xbd0f037c	-0.034915432
138	0xbdcd56bd	-0.1002631
139	0xbcbef1ad	-0.0233086
140	0x3e5fc615	0.21852906
141	0x3ddde927	0.10835486
142	0xbd9e6f92	-0.07736124
143	0xbea6985d	-0.3253812
144	0x3d526266	0.05136337
145	0xbda5c056	-0.08093326
146	0x3e38f4c6	0.18062124
147	0xbe50bfca	-0.20385662
148	0x3dd8b7b1	0.10581911
149	0xbe0d8329	-0.13819565
150	0x3db61d6d	0.08892331
151	0x3e227afb	0.15867226
152	0xbeb8d195	-0.36097398
153	0xbea0f2cf	-0.31435248
154	0xbe49dff0	-0.19714332
155	0x3e80d8c9	0.25165394
156	0xbe06c62a	-0.13161531
157	0x3dd12e7a	0.10213943
158	0x3e2bfd64	0.1679588
159	0xbd950d4f	-0.07277929
160	0xbd0d1b3e	-0.03444981
161	0x3c7c793e	0.015409766
162	0xbc8231be	-0.01589286
163	0xbcd62f0d	-0.026145482
164	0xbd2b22c7	-0.041781213
165	0x3dc4b93a	0.09605642
166	0x3c64a589	0.013955482
167	0xbdc8e56f	-0.09809386
168	0xbbeaac95	-0.0071616867
169	0x3dec444c	0.11536464
170	0xbe534733	-0.20632629
171	0x3dc96a75	0.09834758
172	0x3df9e0f9	0.12201113
173	0x3c96ea27	0.0184222
174	0xbda4ed99	-0.08053131
175	0xbe2a168f	-0.16610168
176	0xbdcadfb2	-0.09905948
177	0xbe0870ef	-0.13324331
178	0xbe430616	-0.1904529
179	0xbd0e0367	-0.034671213
180	0x3db5b59e	0.08872531
181	0xbe56ae53	-0.20964937
182	0xbe3a5eab	-0.18200175
183	0xbd193221	-0.037401322
184	0x3ec0970a	0.37615234
185	0xbd96e0c8	-0.07367092
186	0xbd5bc040	-0.05365014
187	0xbdd23854	-0.1026465
188	0xbe52b49f	-0.20576714
189	0x3db73f2a	0.089475945
190	0x3cab53ed	0.020914042
191	0xbe19c41d	-0.15016218
192	0x3cc83670	0.02444002
193	0xbe1f9c63	-0.15587
194	0xbe1f48de	-0.1555514
195	0x3da1278a	0.078688696
196	0x3e893d0b	0.26804385
197	0xbd76440c	-0.06012349
198	0x3e2760c1	0.16345502
199	0x3cdfc9b4	0.02731786
200	0xbe9b0589	-0.3027766
201	0xbe2adcad	-0.16685744
202	0x3d30517c	0.04304646
203	0x3b81115d	0.0039388374
204	0x3dbb9c08	0.0916062
205	0x3e4bf0b5	0.19916041
206	0xbc9ada23	-0.018902844
207	0x3e3fc138	0.18726051
208	0x3e1d25ea	0.15346494
209	0xbea3fdb7	-0.32029507
210	0x3e91b475	0.2845799
211	0xbecd2793	-0.40069255
212	0x3cd312c1	0.025765778
213	0xbb40003f	-0.0029297022
214	0xbdd0a331	-0.10187376
215	0xbdb2ce3c	-0.08730742
216	0x3ded9a62	0.11601712
217	0x3d330f16	0.04371556
218	0x3e83a791	0.2571378
219	0xbdf533fe	-0.11972807
220	0xbd832914	-0.064043194
221	0x3d8aa380	0.067694664
222	0xbe144c4b	-0.14482228
223	0x3be478fc	0.0069724303
224	0x3e7df70d	0.24801274
225	0x3db6eded	0.089320995
226	0xbe3c30da	-0.1837801
227	0x3e1c12ca	0.15241542
228	0xbd37cbe3	-0.044872176
229	0x3d1718cb	0.03688888
230	0x3d799808	0.060936004
231	0xbc23a961	-0.009989114
232	0x3dea82f9	0.11450762
233	0xbdaf5148	-0.08560425
234	0xbe930f10	-0.2872243
235	0x3e4b03ef	0.1982572
236	0x3e78581a	0.24252358
237	0xbc9606f0	-0.018313855
238	0xbd78cef4	-0.06074424
239	0x3ae46ac5	0.0017426839
240	0x3d86ff95	0.06591717
241	0xbcadff56	-0.021239918
242	0x3caa5302	0.020791534
243	0x3d67c48b	0.056583922
244	0x3d292781	0.04129744
245	0x3e4153e5	0.1887966
246	0x3d17fc0a	0.037105598
247	0xbdf2d4dd	-0.11857007
248	0xbe51fe41	-0.20507146
249	0x3d6a94f9	0.057270978
250	0xbe8c3e91	-0.27391484
251	0x3d0a00dc	0.033692226
252	0xbe17b5e8	-0.14815485
253	0x3c61a933	0.01377325
254	0x3e69f13f	0.22845934
255	0xbe652391	-0.22376849

conv3.bias f4 [32]
0	0xbd6ede2a	-0.05831734
1	0xbdf43061	-0.1192329
2	0x3b5255eb	0.0032094668
3	0xbd96dd39	-0.073664136
4	0xbd0186e6	-0.03162279
5	0xbea73c0d	-0.32663003
6	0xbdc85c7b	-0.09783264
7	0xbe1e4c53	-0.15458803
8	0xbdb26f90	-0.08712685
9	0x3ba84630	0.00513532
10	0xbe06ac56	-0.13151678
11	0xbd9388ef	-0.072038524
12	0xbcac9525	-0.021067211
13	0xbdb338eb	-0.087510906
14	0xbdc48a9e	-0.09596752
15	0xbd084768	-0.033271223
16	0xbcea5c07	-0.028608335
17	0x3cb24573	0.021761632
18	0xbe7ee0f5	-0.24890502
19	0xbda797d9	-0.081832595
20	0xbe11edca	-0.14250866
21	0x3c11b681	0.00889361
22	0xbdcc532c	-0.09976801
23	0xbe3ce772	-0.18447664
24	0xbc4e8eaf	-0.012607261
25	0xbde8685d	-0.11348031
26	0x3c142d04	0.009043936
27	0xbd15f958	-0.036614746
28	0xbd088da0	-0.03333819
29	0xbcae44e4	-0.021273084
30	0x3d451d22	0.048123486
31	0xbe200a0e	-0.15628836

conv4.weight f4 [32, 32, 3, 3]
0	0x3e692d79	0.22771253
1	0xbd1b95df	-0.037984725
2	0x3dcc0498	0.09961814
3	0xbda0dde5	-0.07854823
4	0xbd1eac4e	-0.03873854
5	0xbdbc035c	-0.09180328
6	0xbd81eb71	-0.06343735
7	0xbdea77db	-0.11448642
8	0xbe84ae4a	-0.25914222
9	0xbe090585	-0.13381012
10	0xbe4b59af	-0.1985843
11	0x3d6d58a7	0.057945874
12	0xbe0a5cbe	-0.13511941
13	0xbc2e5a3e	-0.010641633
14	0xbdd1f989	-0.10252673
15	0xbddb1b4c	-0.10698566
16	0x3d635d54	0.055508927
17	0x3da25aba	0.07927461
18	0xbdfff21b	-0.1249735
19	0x3e3257e7	0.17416345
20	0x3d36478b	0.044501822
21	0xbddf3705	-0.10899166
22	0xbe115202	-0.1419144
23	0x3de94b3a	0.113913015
24	0x3ddcb902	0.10777475
25	0x3db83f24	0.08996418
26	0xbca34f5d	-0.019935304
27	0x3e2e4fbc	0.17022604
28	0x3cdf2c5b	0.02724283
29	0x3b440ee0	0.0029916093
30	0x3e13baa7	0.14426671
31	0xbde1452e	-0.10999523
32	0xbdb3eb6b	-0.08785137
33	0xbe0a9a02	-0.13535312
34	0xbd2ebb9c	-0.042659387
35	0x3d8014ec	0.062539905
36	0x3e0ca0e3	0.13733248
37	0xbe06bdcf	-0.13158344
38	0xbd07c8c2	-0.033150442
39	0x3d142f44	0.03617789
40	0xbe2ff95d	-0.17184968
41	0x3dcafe72	0.09911813
42	0x3e086a34	0.13321763
43	0xbe1d76d3	-0.15377359
44	0xbc0b77a5	-0.008512412
45	0x3eb71569	0.35758522
46	0xbca1b9ea	-0.019741971
47	0xbc849a33	-0.01618681
48	0xbc698450	-0.014252737
49	0xbda1ecca	-0.07906492
50	0x3de80f6b	0.11331066
51	0xbdc63357	-0.09677761
52	0xbda03ada	-0.07823725
53	0xbc881b83	-0.016614681
54	0x3e8c7b7b	0.27437958
55	0xbdcd18c4	-0.10014489
56	0xbd72b06f	-0.05925029
57	0xbd785cc2	-0.060635336
58	0xbcb9b396	-0.022668641
59	0xbdc8a0be	-0.09796284
60	0xbd7b799c	-0.061395273
61	0x3e4b99a1	0.19882824
62	0x3daeed69	0.08541376
63	0x3d91e5e5	0.07123927
64	0xbd43df0a	-0.04782013
65	0x3e125544	0.14290339
66	0x3e161640	0.14656925
67	0x3d8c82f3	0.06860914
68	0x3d916e2e	0.07101093
69	0xbdb34bc8	-0.087546885
70	0x3d891ca0	0.06694913
71	0x3e341ee8	0.17589915
72	0x3d57713d	0.052598227
73	0xbc9e91ec	-0.01935669
74	0xbe1a98f2	-0.15097407
75	0x3d749c47	0.05971935
76	0x3e7af408	0.24507153
77	0xbbe50070	-0.0069885775
78	0xbe1c9d48	-0.15294373
79	0x3cd81d82	0.026381258
80	0xba700804	-0.0009156468
81	0x3e071a30	0.13193583
82	0xbe97050c	-0.29496038
83	0x3d25cb63	0.040477168
84	0xbe075cb7	-0.13218962
85	0x3eb41e27	0.35179254
86	0x3d238dd2	0.039930172
87	0xbcf8bbbe	-0.03036296
88	0x3bd1185b	0.006381077
89	0x3e07376c	0.13204736
90	0x3df169e9	0.11787779
91	0x3d77e5c0	0.06052184
92	0x3e1a2cee	0.15056202
93	0xbd10a631	-0.035314742
94	0xbc3e9670	-0.011632547
95	0xbe50d00b	-0.20391862
96	0x3dcb3d96	0.09923856
97	0xbe307922	-0.17233709
98	0x3e27709c	0.16351551
99	0xbd72e71d	-0.059302438
100	0x3e457757	0.19283806
101	0x3d006a41	0.03135133
102	0x3e7a9202	0.2446976
103	0xbe744778	-0.23855388
104	0xbe9a3032	-0.30114895
105	0x3e1a6e03	0.15081029
106	0x3cb39c27	0.021925045
107	0xbd0ecd54	-0.034863785
108	0xbdeac8fa	-0.114641145
109	0xbd3e19eb	-0.046411436
110	0x3e349b40	0.17637348
111	0x3e163544	0.14668757
112	0xbd598447	-0.053104665
113	0x3e0007ae	0.1250293
114	0xbc91ff46	-0.01782192
115	0x3d4557df	0.048179504
116	0xbd2f5862	-0.042808898
117	0x3eb07f6e	0.3447222
118	0xbe829805	-0.25506607
119	0x3cb81699	0.022471713
120	0xbbfe9684	-0.0077694077
121	0xbea21938	-0.31659865
122	0x3e1946ad	0.14968367
123	0xbc98efd0	-0.018669039
124	0xbe127201	-0.14301302
125	0xbd80751d	-0.062723376
126	0x3dbe3f5d	0.09289429
127	0xbdb4a3ec	-0.08820328
128	0xbdcadaa6	-0.09904985
129	0xbd3904db	-0.045170646
130	0xbc7452b1	-0.014912293
131	0x3e2dbb86	0.16966066
132	0x3ce5bc0a	0.028043766
133	0x3e14b493	0.14522009
134	0xbd4c6ca3	-0.04990829
135	0x3c9116cf	0.017711071
136	0x3d2274cb	0.039662164
137	0x3dfd77d2	0.123763695
138	0xbe696e4b	-0.2279598
139	0x3e56b11b	0.20965998
140	0xbe4d0c97	-0.20024334
141	0xbdff9123	-0.124788545
142	0x3da4c58b	0.08045491
143	0xbe324846	-0.17410383
144	0xbdcbeab6	-0.09956877
145	0xbddbebb0	-0.10738313
146	0xbda4685c	-0.080277175
147	0xbdadc26e	-0.0848435
148	0x3e5d5522	0.21614507
149	0x3e014f5d	0.12627931
150	0x3e0dcc1a	0.1384739
151	0xbe85f708	-0.26165032
152	0x3d03172c	0.03200452
153	0xbdf5af5b	-0.11996337
154	0x3df6a433	0.12043037
155	0xbd8833be	-0.06650494
156	0x3b91c62d	0.004448673
157	0xbdc5e04c	-0.09661922
158	0x3debce55	0.11513964
159	0xbe6b6b2d	-0.22990103
160	0xbe29e160	-0.1658988
161	0x3e03b087	0.12860309
162	0x3dc693f6	0.0969619
163	0xbd9b7dfe	-0.075923905
164	0xbdd56174	-0.10418978
165	0x3d56b452	0.05241806
166	0xbca82557	-0.020525618
167	0xbe752e2c	-0.23943394
168	0xbd7a53fb	-0.061115246
169	0xbe1a1fb2	-0.15051153
170	0x3db021d8	0.08600205
171	0xbd649bdb	-0.055812698
172	0xbdc544c1	-0.096322544
173	0xbdd9c7ee	-0.10633837
174	0x3bb7cd68	0.005609203
175	0x3cb952ed	0.02262255
176	0xbe0ccbad	-0.13749571
177	0x3e56365a	0.20919171
178	0xbe8c6c82	-0.27426535
179	0xbb423342	-0.0029632603
180	0xbb5b2dbb	-0.0033444006
181	0x3e1e38f2	0.1545141
182	0x3e751c85	0.2393666
183	0x3e763cef	0.24046682
184	0xbd965a76	-0.07341473
185	0xbe7d26d8	-0.24721849
186	0xbc3b1b1e	-0.011420039
187	0xbd1d4b2f	-0.03840178
188	0xbca64892	-0.020298276
189	0xbde9c724	-0.11414936
190	0xbe393482	-0.18086436
191	0xbdd29af9	-0.10283465
192	0x3e00fe9f	0.1259713
193	0xbd82e594	-0.06391445
194	0x3d2851f3	0.041093778
195	0x3e9a77c3	0.30169496
196	0x3e844c81	0.25839618
197	0xbea71a89	-0.32637432
198	0x3d8b6f31	0.068083175
199	0x3e4f42a7	0.2024027
200	0xbe4697db	-0.19393866
201	0xbe24dfdb	-0.16101019
202	0x3f031fc5	0.5122035
203	0xbda802bb	-0.08203646
204	0x3d460aa0	0.048349977
205	0xbe15bf05	-0.1462365
206	0x3cb9bf22	0.022674147
207	0x3cc750a9	0.024330454
208	0xbe57b574	-0.21065313
209	0xbe16d5e0	-0.14730024
210	0x3da10133	0.07861557
211	0xbd618b5d	-0.055064548
212	0xbd83f0a9	-0.06442387
213	0xbe0027b0	-0.1251514
214	0x3b954bd0	0.0045561567
215	0x3e29ae48	0.1657039
216	0x3d633f12	0.05548007
217	0x3db30cc2	0.08742668
218	0x3c8638c1	0.016384484
219	0xbe63cd92	-0.22246388
220	0x3bbe40b1	0.0058060517
221	0x3e16ea04	0.14737707
222	0xbd36e11e	-0.044648282
223	0x3d92a6d5	0.07160727
224	0x3e030ac9	0.12797083
225	0x3e301b9a	0.17198029
226	0xbea1730a	-0.3153308
227	0x3de3f642	0.11130954
228	0xbdcd7253	-0.10031571
229	0x3c526a83	0.012842777
230	0x3e19f430	0.15034556
231	0x3ccdfa66	0.025143813
232	0x3ebab429	0.36465576
233	0xbe5b5214	-0.21418029
234	0xbcccbd3d	-0.02499258
235	0xbda3c97a	-0.07997413
236	0x3da32b9a	0.07967301
237	0x3e8c420e	0.27394146
238	0x3e8eec2a	0.27914554
239	0xbc076ad4	-0.008265216
240	0xbe1b5e87	-0.15172778
241	0xbd731b48	-0.05935219
242	0x3e71e9bd	0.2362432
243	0x3d38eed8	0.045149654
244	0xbe8d02a3	-0.27541074
245	0x3e4d43ca	0.2004539
246	0xbc9efd91	-0.01940802
247	0xbdae6319	-0.08514995
248	0x3e811e99	0.25218657
249	0xbe379523	-0.17927985
250	0x3e0e3a5c	0.1388945
251	0xbe39fe15	-0.18163331
252	0xbcc42ac9	-0.023946183
253	0xbd83e06d	-0.0643929
254	0x3e0d26d7	0.13784347
255	0xbe642142	-0.22278312

conv4.bias f4 [32]
0	0xbec2b492	-0.3802839
1	0xbe7a1e94	-0.24425727
2	0xbdb1ff00	-0.086912155
3	0xbe121ced	-0.14268847
4	0xbf049ad2	-0.5179874
5	0xbe9a85b0	-0.3018012
6	0xbe718599	-0.2358612
7	0xbe558f73	-0.20855503
8	0xbe0022b8	-0.12513244
9	0xbe8a2f1f	-0.26989076
10	0xbe0e4ebf	-0.13897227
11	0xbe8e1cd5	-0.27756372
12	0xbe9b4442	-0.30325514
13	0xbdf6c45e	-0.12049173
14	0xbe8a671c	-0.2703179
15	0xbec55789	-0.38543347
16	0xbea04f90	-0.313107
17	0xbeab629d	-0.33473673
18	0xbe92f0f2	-0.28699452
19	0xbd860ec5	-0.06545786
20	0xbdaad625	-0.08341626
21	0xbe48f789	-0.19625677
22	0xbe94ceb0	-0.2906394
23	0xbea71a45	-0.3263723
24	0xbdd454c1	-0.10367728
25	0xbe93118b	-0.28724322
26	0xbe936d82	-0.28794485
27	0xbf0b93aa	-0.5452219
28	0xbe02bfcc	-0.12768477
29	0xbd88a45c	-0.06671974
30	0xbe38d4a3	-0.18049864
31	0xbed0d961	-0.40790847

linear.weight f4 [32, 800]
0	0xbd2dff66	-0.042479895
1	0x3e05c446	0.13063154
2	0xbd990d7a	-0.074732736
3	0xbdcb582b	-0.09928926
4	0xbd4c1844	-0.04982783
5	0xbe92df70	-0.28686094
6	0x3d007270	0.031359136
7	0xbcac81ac	-0.021057926
8	0xba3bdbb7	-0.0007166224
9	0x3cfb8168	0.030701354
10	0x3e127451	0.14302184
11	0xbd9d4102	-0.07678415
12	0xbd700452	-0.05859787
13	0xbcc966c4	-0.024585135
14	0x3e1ae144	0.15124995
15	0x3e45f265	0.19330747
16	0x3e18e26f	0.14930128
17	0xbd42bb47	-0.047541883
18	0xbcd87403	-0.026422506
19	0xbdc09d9a	-0.0940506
20	0xbdbee533	-0.0932106
21	0xbc3574c5	-0.011075203
22	0xbd361987	-0.04445794
23	0xbcc4ae26	-0.024008822
24	0xbcbb5246	-0.02286638
25	0x3e52c842	0.20584205
26	0xbdc15be6	-0.09441356
27	0x3d9ea6e6	0.07746677
28	0xbdb39719	-0.08769054
29	0x3d290536	0.041264735
30	0xbea9e54a	-0.33182746
31	0x3c4f960c	0.012670051
32	0xbd882470	-0.06647575
33	0xbda5ed4f	-0.08101904
34	0x3e6b89c5	0.23001774
35	0x3e314f79	0.17315473
36	0x3d0e27e5	0.034706015
37	0xbd9ba255	-0.07599322
38	0xbd58c0b2	-0.052918144
39	0x3c5e3a87	0.013563759
40	0x3d9dfca5	0.07714204
41	0xbebf6970	-0.3738513
42	0xbd2ce787	-0.04221299
43	0xbdb6c821	-0.0892489
44	0x3df37d12	0.1188909
45	0xbe06b4f8	-0.13154972
46	0xbc18cc99	-0.009326124
47	0x3d4cb302	0.049975403
48	0x3cfc111a	0.030769873
49	0x3c8cb5d5	0.017176548
50	0xbe028061	-0.12744285
51	0xbd5437a2	-0.051810868
52	0x3cf24b8a	0.029577035
53	0xbd77596f	-0.060388025
54	0x3bc58ff0	0.0060291216
55	0x3e8ca0f4	0.27466547
56	0xbcf63627	-0.030055119
57	0x3ca7efaa	0.020500023
58	0x3d104865	0.03522529
59	0xbda3a00d	-0.07989512
60	0x3d76cdc0	0.060254812
61	0x3d6b808b	0.057495635
62	0x3cf2e4e9	0.029650168
63	0xbd2fa8a0	-0.042885423
64	0xbcd0cfc2	-0.025489692
65	0xbce7940f	-0.028268842
66	0x3c879825	0.01655204
67	0x3d030eb1	0.031996433
68	0xbca24772	-0.019809458
69	0xbdabb168	-0.08383447
70	0xbd89c51b	-0.06727048
71	0xbcb53f17	-0.02212481
72	0x3b01a0a7	0.0019779594
73	0xbd01544e	-0.03157454
74	0x3c4f4cc6	0.012652582
75	0x3e5ed17b	0.21759598
76	0xbd58d34d	-0.052935887
77	0x3dde56ea	0.10856421
78	0x3c3db920	0.011579782
79	0xbe5cf539	-0.2157792
80	0xbe42f9eb	-0.19040649
81	0x3da0ac05	0.0784531
82	0xbd2af4cf	-0.041737374
83	0xbdc341f0	-0.09534061
84	0x3ddb4a65	0.10707549
85	0x3c9d4ba1	0.019201102
86	0xbcbd9e4a	-0.023146767
87	0xbd08b74e	-0.033377938
88	0x3d88c649	0.06678445
89	0xbdaced29	-0.08443672
90	0x3db9c482	0.09070684
91	0xbd9c99d1	-0.07646526
92	0x3dbac7d9	0.09120149
93	0x3dea3fdf	0.11437964
94	0x3dc9d797	0.098555736
95	0x3c87a4a9	0.016558008
96	0xbcaa3c76	-0.020780783
97	0xbce9a4f6	-0.028521042
98	0xbd375080	-0.044754505
99	0xbd6bb787	-0.057548072
100	0xbe9cd91f	-0.306344
101	0x3e6df8f5	0.23239501
102	0xbc49140f	-0.012272849
103	0x3db8655f	0.0900371
104	0x3d815ce1	0.06316543
105	0xbe8b50fb	-0.2721022
106	0x3e980a06	0.29695147
107	0x3e2debf1	0.16984536
108	0x3e23c2d0	0.15992284
109	0x3dc5da9a	0.096608356
110	0xbe924619	-0.28569105
111	0x3ee67dad	0.45017758
112	0x3e420b3a	0.18949595
113	0x3dbf0a3a	0.093281224
114	0x3e66d3ef	0.22541784
115	0xbea0515a	-0.31312066
116	0xbe97034f	-0.29494712
117	0xbe824e8b	-0.2545055
118	0xbe7e2759	-0.24819697
119	0xbebe65ac	-0.37186944
120	0xbeab1bfa	-0.33419782
121	0xbec984fb	-0.3935927
122	0xbeb7d109	-0.3590167
123	0xbec5a25f	-0.38600442
124	0xbed105ff	-0.40824887
125	0xbd35e2c2	-0.044405706
126	0xbcd82902	-0.026386742
127	0x3ce94ec7	0.028479947
128	0xbd90a4a2	-0.07062651
129	0x3dbf8c2d	0.09352908
130	0x3caf8bca	0.021428961
131	0x3e847711	0.2587209
132	0xbc6772bc	-0.014126476
133	0xbcfc7e82	-0.030822042
134	0xbce5a6a7	-0.028033568
135	0xbcb8a857	-0.022541208
136	0xbee6d856	-0.45086926
137	0x3b7826a4	0.0037864828
138	0x3da607ff	0.08106994
139	0x3de75d0f	0.112970464
140	0xbddaf869	-0.10691912
141	0xbd43986a	-0.047752775
142	0xbd93d770	-0.07218826
143	0xbe195e79	-0.14977445
144	0xbdd98097	-0.1062023
145	0xbc31f4dc	-0.010861602
146	0x3dd5424d	0.104130365
147	0x3d8b2781	0.06794644
148	0x3d67fc61	0.05663717
149	0x3df04c31	0.11733282
150	0xbe0faf0f	-0.14031623
151	0x3dafdbe9	0.085868664
152	0xbe3d64d0	-0.18495488
153	0xbca1feca	-0.019774813
154	0x3e3f7604	0.18697363
155	0x3e55ff0d	0.20898075
156	0x3e5d2bdc	0.21598762
157	0xbe183f55	-0.14867909
158	0xbdf02699	-0.11726112
159	0x3e1924a6	0.14955387
160	0xbe530744	-0.2060824
161	0x3df4ca71	0.11952675
162	0xbd5b06fd	-0.05347346
163	0xbd89c8fb	-0.06727787
164	0xbe077a93	-0.13230352
165	0xbc0db97f	-0.008650183
166	0x3cf4cbe1	0.029882373
167	0xbd8f431c	-0.06995222
168	0x3dd41278	0.10355085
169	0xbd86e8d6	-0.06587379
170	0x3e0dfb25	0.13865335
171	0xbc8b1d9d	-0.016981894
172	0xbc91a875	-0.017780522
173	0xbd8f8c09	-0.070091315
174	0xbd489632	-0.048971362
175	0x3e86864d	0.26274338
176	0xbe3fc78b	-0.18728463
177	0x3d9a91c3	0.07547333
178	0xbcb10b54	-0.021611847
179	0xbc609107	-0.013706452
180	0xbe46543e	-0.19368073
181	0x3dd98e11	0.106228
182	0x3c1ba1ff	0.009499072
183	0xbcdef374	-0.027215697
184	0x3d4d55cd	0.050130654
185	0x3cab05aa	0.020876724
186	0xbceb2fe5	-0.028709361
187	0xbd689c3a	-0.056789614
188	0xbac30497	-0.0014878687
189	0x3ddbb9b3	0.10728779
190	0xbda753bd	-0.08170269
191	0x3cbca309	0.02302696
192	0x3db66aa4	0.08907059
193	0xbc8bf0aa	-0.017082531
194	0xbe35a5ea	-0.17739072
195	0xbd199f6c	-0.037505552
196	0x3cd24c3b	0.025671115
197	0xbb28c046	-0.002574937
198	0xbc02d85b	-0.0079861535
199	0x3ce63c49	0.028104918
200	0xbd9f6f1b	-0.077848636
201	0xbc1a8596	-0.009431263
202	0xbc850d62	-0.016241733
203	0x3dc33233	0.09531059
204	0x3cbfc69b	0.023410132
205	0x3d276ee6	0.040877245
206	0x3d26399b	0.04058228
207	0xbd49c488	-0.049259692
208	0xbd1e1882	-0.03859759
209	0x3e3b2165	0.18274458
210	0x3dd0cbda	0.101951316
211	0x3d30c433	0.04315586
212	0xbd706502	-0.05869008
213	0xbbc56ed8	-0.0060251765
214	0x3e198baa	0.14994684
215	0xbbd0366e	-0.006354145
216	0xbcd3c697	-0.025851531
217	0x3e11fdd8	0.1425699
218	0xbddc8c2e	-0.10768925
219	0xbe2da7c3	-0.16958527
220	0x3cdf852d	0.027285183
221	0xbd36ff2a	-0.044676937
222	0xbc4587d7	-0.0120563125
223	0xbd4934e3	-0.049122702
224	0xbc83643c	-0.016039006
225	0x3d9d2bc5	0.07674364
226	0x3e0ca1ca	0.13733593
227	0xbdd2bc04	-0.102897674
228	0xbe102086	-0.14074907
229	0x3d81b45c	0.06333229
230	0xbe52303f	-0.20526217
231	0x3c6bd094	0.014392991
232	0xbd4f04d8	-0.05054173
233	0xbe0a694e	-0.13516733
234	0x3d399cac	0.04531543
235	0x3d70e9aa	0.05881659
236	0x3e889ebb	0.26683602
237	0xbc97b078	-0.018516764
238	0x3b0ef5f5	0.0021814082
239	0xbcb49232	-0.022042368
240	0x3e020da6	0.12700519
241	0xbdfabc3d	-0.12242935
242	0xbd9b7f3d	-0.07592628
243	0x3b325ca9	0.0027215874
244	0x3c87a193	0.016556537
245	0x3c646e25	0.013942276
246	0xbcce0a5d	-0.025151426
247	0xbd393985	-0.04522087
248	0xbad55468	-0.0016275765
249	0xbcb9ba6e	-0.022671904
250	0xbc9934e7	-0.018701984
251	0xbde99258	-0.11404866
252	0x3d25f1ee	0.040513925
253	0xbbf2539e	-0.007395222
254	0x3cbfa7e6	0.02339549
255	0x3cf44782	0.029819254

linear.bias f4 [32]
0	0x3f0c9a91	0.5492335
1	0xbe987848	-0.29779267
2	0xbeda55a1	-0.42643455
3	0xbc4d13bb	-0.012516911
4	0xbd133693	-0.035940718
5	0x3da89cc4	0.08233026
6	0xbe541209	-0.20710005
7	0x3dd573a8	0.1042245
8	0x3b807772	0.003920489
9	0xbd378efe	-0.044814102
10	0x3be369d6	0.006940107
11	0xbe8539d7	-0.2602069
12	0xbda93414	-0.08261886
13	0x3e22fd65	0.15916975
14	0xbe869694	-0.26286757
15	0x3d7d16fa	0.06178949
16	0xbd6c93c5	-0.05775811
17	0x3e4fe152	0.20300797
18	0x3d2db190	0.042405665
19	0xbf115a06	-0.5677799
20	0x3d21d32d	0.039508034
21	0x3b35d843	0.002774731
22	0x3c93bcfd	0.018034453
23	0xbdd976a1	-0.1061833
24	0xbdbedff2	-0.09320058
25	0x3d7a3488	0.061085254
26	0xbc86109a	-0.016365338
27	0x3e6fa86b	0.2340409
28	0x3c75abc0	0.014994562
29	0x3bff5603	0.007792236
30	0xbe7766be	-0.24160287
31	0xbca42fcb	-0.02004232

critic_linear.weight f4 [1, 32]
0	0x3dd62d73	0.104578875
1	0xbbd20657	-0.006409447
2	0xbd7b14e0	-0.061299205
3	0xba927ffd	-0.001117706
4	0x3b477870	0.0030436777
5	0x3b8e41f9	0.0043413606
6	0x3a1aec5d	0.00059098547
7	0xbb935892	-0.0044966424
8	0x3b1a1739	0.0023512377
9	0x3b39e65c	0.0028366065
10	0xbb97c9a6	-0.0046321927
11	0xba970db9	-0.0011524475
12	0x3a9c2ee8	0.0011915835
13	0x39ddf2be	0.00042333262
14	0xb99703dd	-0.00028803843
15	0xba24853d	-0.00062759576
16	0x3a4bda92	0.0007776405
17	0x3920c12c	0.00015330751
18	0x3b8ad67a	0.0042369934
19	0xbe20561f	-0.15657853
20	0x3a3b4e58	0.0007145158
21	0xbb5a7489	-0.003333362
22	0x382129a9	3.842419e-05
23	0xb9faf8b6	-0.0004786902
24	0x3a6ec7d8	0.00091087585
25	0x3b155bc6	0.0022790297
26	0xb8de6990	-0.000106054475
27	0xbb63d070	-0.003476169
28	0xbaf1ca0c	-0.0018447055
29	0x3bcb0c8e	0.006196565
30	0xba51fdc0	-0.0008010529
31	0x3bb7a84c	0.0056047793

actor_linear.weight f4 [6, 32]
0	0x3e8e4b84	0.2779199
1	0xbe6e38e0	-0.23263884
2	0xbec9579f	-0.39324662
3	0x3c2bafca	0.010478923
4	0xbd206fef	-0.03916925
5	0x3e0a9a3b	0.13535397
6	0xbd81e24f	-0.06341993
7	0x3dad236d	0.084540226
8	0x3c6d9e29	0.01450304
9	0xbd33e097	-0.043915357
10	0xbce63e20	-0.028105795
11	0xbdd36a20	-0.10322976
12	0x3d494796	0.049140535
13	0x3e31398d	0.1730711
14	0xbe9ffe78	-0.31248832
15	0x3e0b3060	0.13592672
16	0xbe46dd28	-0.19420302
17	0x3d3a26e5	0.04544725
18	0x3d392406	0.04520037
19	0xbece13f6	-0.40249604
20	0x3cc31f17	0.023818536
21	0xbd52a635	-0.05142804
22	0xbd19b865	-0.037529368
23	0x3e00032a	0.12501207
24	0x3c797e10	0.01522781
25	0x3d8127fa	0.06306453
26	0x3e211ef9	0.15734471
27	0x3e7f5eb1	0.24938466
28	0x3c66ca02	0.014086248
29	0x3cfe8cc9	0.031072991
30	0xbe271dea	-0.16320005
31	0xbc5925f3	-0.013253677
32	0x3eacfd9f	0.33787248
33	0xbe6d5948	-0.2317859
34	0xbead9187	-0.3390009
35	0x3cd0885c	0.025455646
36	0x3b23bddd	0.0024984994
37	0x3da952bd	0.08267734
38	0xbdf7f97c	-0.12108132
39	0x3d7851fd	0.060625065
40	0x3a6a0780	0.0008927509
41	0xbb43687b	-0.0029816914
42	0x3b16fefa	0.0023040161
43	0xbe012e00	-0.12615204
44	0xbb92711f	-0.0044690515
45	0x3e4b5fd2	0.19860771
46	0xbec00ea4	-0.3751117
47	0x3df01410	0.117225766
48	0xbe22dc9a	-0.15904465
49	0x3e0ce63c	0.13759702
50	0x3d3fe041	0.046844725
51	0xbecde0a3	-0.40210447
52	0x3d4d5671	0.050131265
53	0x3b5d1249	0.0033732823
54	0x3cd2688e	0.025684621
55	0x3da73312	0.08164038
56	0xbca5d92b	-0.020245155
57	0x3d9c8a21	0.076435335
58	0x3e1631ac	0.14667386
59	0x3e8ad1f5	0.2711331
60	0x3d0da1e4	0.03457822
61	0xbce6b92e	-0.028164472
62	0xbe1668fb	-0.14688484
63	0xbc6fbed3	-0.014632898
64	0x3e83ee55	0.2576777
65	0xbe7b1ad9	-0.2452196
66	0xbeee4b44	-0.46541798
67	0x3c9a31cd	0.018822575
68	0x3bb6bf4f	0.005577005
69	0x3dd1761f	0.10227608
70	0xbd981322	-0.07425524
71	0x3d80799c	0.06273195
72	0x3c97e1aa	0.018540222
73	0xbc4bd906	-0.012441879
74	0x3c3ef576	0.011655202
75	0xbda35f72	-0.07977189
76	0x3c9556a3	0.018229788
77	0x3e441150	0.19147229
78	0xbe7c4953	-0.24637346
79	0x3e061567	0.13094102
80	0xbe249d34	-0.16075593
81	0x3df9fbb1	0.122062095
82	0x3ce42859	0.02785127
83	0xbebb7201	-0.36610416
84	0x3ccf7060	0.02532214
85	0xbc15686e	-0.009119136
86	0x3ce9ddbc	0.028548114
87	0x3d01bdfc	0.031675324
88	0x3d0784e3	0.033085715
89	0x3d92fb32	0.07176818
90	0x3de6f0e2	0.112764135
91	0x3e284b02	0.16434863
92	0xba8bbdc0	-0.0010661408
93	0xbcecf36b	-0.028924664
94	0xbe2dc17d	-0.16968341
95	0xbca19966	-0.019726466
96	0x3ebaef8b	0.36510882
97	0xbe59591d	-0.212254
98	0xbecaa87a	-0.39581662
99	0x3cf50b06	0.029912483
100	0x3c43e57f	0.011956572
101	0x3d7f5bff	0.062343594
102	0xbda8ca82	-0.0824175
103	0x3d04ad53	0.032391857
104	0x3be04b83	0.006844939
105	0xbc915486	-0.0177405
106	0x3ccd0e3d	0.025031203
107	0xbe0a3220	-0.13495684
108	0x3ca0dcf1	0.019636603
109	0x3e42e76c	0.19033593
110	0xbe4093d8	-0.18806398
111	0x3e1caa9d	0.15299459
112	0xbe181ccd	-0.14854737
113	0x3de14610	0.109996915
114	0x3cf9140c	0.030405067
115	0xbe8e46ee	-0.2778849
116	0x3d36c646	0.044622682
117	0xbb9c763e	-0.0047748378
118	0x3d089e7a	0.03335426
119	0x3e339a92	0.17539433
120	0xbc75318e	-0.014965428
121	0x3d95b3d7	0.07309692
122	0x3e07e4e9	0.13270916
123	0x3ea413f2	0.32046467
124	0x3d6b9454	0.057514504
125	0xbd2637d3	-0.040580582
126	0xbdfee8ca	-0.12446745
127	0xbbfa585b	-0.0076399273
128	0x3eb9cb2d	0.36287823
129	0xbe8024cf	-0.25028083
130	0xbed955a8	-0.42448163
131	0x3ca4c2f0	0.020112485
132	0x3bff4acc	0.007790899
133	0x3d9bdc61	0.07610393
134	0xbdc36e27	-0.09542494
135	0x3d3bc5a1	0.04584277
136	0x3b868f63	0.0041064485
137	0xbd46fc25	-0.048580308
138	0xbba6ad35	-0.005086566
139	0xbe1e36bc	-0.15450567
140	0x3c199cb2	0.009375738
141	0x3e3d34c3	0.18477158
142	0xbe9c43dc	-0.30520523
143	0x3dee11c0	0.11624479
144	0xbe324b64	-0.17411572
145	0x3df0f13d	0.117647626
146	0x3db2a2e0	0.08722472
147	0xbeb1fafc	-0.34761798
148	0x3d2c5d92	0.042081423
149	0xbc82c060	-0.015960872
150	0x3b00a428	0.0019629095
151	0x3c776c66	0.015101528
152	0xbc8761d5	-0.016526142
153	0x3dc097a4	0.09403923
154	0x3e29cdf9	0.16582479
155	0x3e012005	0.1260987
156	0x3ceb26d3	0.028705036
157	0xbcbdc3cc	-0.023164652
158	0xbe1baa23	-0.15201621
159	0x3c970756	0.018436115
160	0x3ed02fd5	0.40661493
161	0xbe823bee	-0.25436348
162	0xbe993446	-0.29922694
163	0x3c8564d8	0.016283438
164	0xbc2e6e92	-0.010646479
165	0x3dd2f963	0.10301473
166	0xbd9c42c1	-0.0762992
167	0x3d9ca76a	0.07649119
168	0x3c2a3ef6	0.010390988
169	0xbd1792d7	-0.03700527
170	0xbc74d299	-0.0149427885
171	0xbe12ef59	-0.14349116
172	0x3c41bd05	0.011824851
173	0x3e1664e6	0.14686927
174	0xbe6acd84	-0.2292996
175	0x3df85e6a	0.12127383
176	0xbe39b5e3	-0.1813579
177	0x3dce3665	0.10068969
178	0x3d4e02bf	0.050295588
179	0xbebe42fa	-0.37160474
180	0x3d10a3cd	0.035312463
181	0xbca01adc	-0.019544058
182	0x3b829c48	0.0039859153
183	0x3debf69d	0.11521647
184	0x392f103b	0.00016695347
185	0x3da4c7c5	0.080459155
186	0x3e2197a9	0.1578051
187	0x3eb85b4f	0.36007163
188	0x3d0343bf	0.03204703
189	0xbc492469	-0.012276747
190	0xbe297c2c	-0.16551274
191	0xbb681f91	-0.0035419206

actor_linear.bias f4 [6]
0	0x3cfd4113	0.030914819
1	0x3eafef72	0.3436237
2	0x3e89c053	0.26904544
3	0x3e42eac7	0.19034873
4	0x3e7bcef0	0.24590659
5	0x3e838baf	0.25692508
