spaceinvaders-v0-bottom-7fskip_latent32/model.88.tar (torch, 223035 bytes, 13 tensors)

conv1.weight f4 [32, 4, 3, 3]
0	0xbc8c454d	-0.017122889
1	0x3c990625	0.018679688
2	0xbbe0adf2	-0.0068566734
3	0xbdcce812	-0.100052014
4	0xbefe14db	-0.49625286
5	0x3db7bf4e	0.08972035
6	0x3e14c240	0.14527225
7	0x3dc14a90	0.0943805
8	0x3d1864a1	0.037205342
9	0xbcafe344	-0.021470673
10	0x3e016287	0.12635241
11	0x3c2d74ec	0.010586958
12	0xbae44bb9	-0.0017417587
13	0xbd434732	-0.04767532
14	0xbdf02026	-0.11724882
15	0x3dc61292	0.09671511
16	0x3dd86f05	0.1056805
17	0xbd38a908	-0.045083076
18	0x3d1d7306	0.038439773
19	0x3e33452c	0.17506856
20	0xbda9835a	-0.082770064
21	0xbd9b071a	-0.07569714
22	0xbdc4ca52	-0.09608902
23	0xbe2e9809	-0.17050184
24	0x3e0e7cdc	0.13914818
25	0x3c0d32a2	0.008618029
26	0x3e4af9a0	0.19821787
27	0x3db94af2	0.09047498
28	0xbeccf47e	-0.40030283
29	0x3ce7e014	0.028305091
30	0x3e0ad6b0	0.1355846
31	0x3f02cdd1	0.510953
32	0x3e348dfc	0.17632288
33	0xbed1472e	-0.40874618
34	0xbe198bd3	-0.14994745
35	0xbe888dca	-0.26670676
36	0x3c00d454	0.007863123
37	0xbd663460	-0.056202292
38	0x3e2c4f01	0.16827013
39	0xbdd80d47	-0.105494075
40	0x3e332a7b	0.17496674
41	0x3e017883	0.12643628
42	0x3e5af6a0	0.21383142
43	0xbdc94b47	-0.09828811
44	0xbe332820	-0.17495775
45	0x3cf4b3e8	0.029870942
46	0xbd9d59b0	-0.07683122
47	0xbcd1a58c	-0.025591634
48	0xbd8c60d7	-0.06854408
49	0x3d0c8d35	0.034314353
50	0xbdc4a997	-0.09602659
51	0xbcdfe8c1	-0.027332665
52	0xbc09df7c	-0.008415099
53	0xbbcfe5ef	-0.006344549
54	0xbdaccf45	-0.08437971
55	0x3e75b9b3	0.2399662
56	0xbdb558da	-0.08854838
57	0xbe1d5580	-0.15364647
58	0x3e05c75a	0.13064328
59	0x3da682bb	0.081304036
60	0x3d99f37f	0.07517146
61	0x3beaebf9	0.0071692434
62	0x3d9bd8b4	0.07609692
63	0x3edb0c09	0.4278262
64	0xbeb9b906	-0.36273974
65	0xbdfb17a5	-0.12260369
66	0x3d458d4d	0.048230458
67	0xbe8d6e31	-0.27623132
68	0xbd74f7c4	-0.0598066
69	0xbea6a38c	-0.3254665
70	0x3ec00f79	0.37511805
71	0xbdde9237	-0.10867732
72	0x3e2edbed	0.17076083
73	0xbdd3ef0e	-0.103483304
74	0x3e83ad8e	0.2571835
75	0xbd2de10d	-0.042450953
76	0x3d8b9811	0.06816114
77	0x3e2c2c9c	0.16813892
78	0xbe91cb34	-0.28475344
79	0x3d349edf	0.044096824
80	0xbe011c36	-0.12608418
81	0xbe3501d8	-0.17676485
82	0x3c158359	0.009125554
83	0xbc963362	-0.018335048
84	0xba75ec58	-0.0009381226
85	0xbe3d7bef	-0.18504308
86	0xbded5fbb	-0.11590525
87	0x3d83469f	0.06409954
88	0xbdc467d2	-0.09590115
89	0x3e4e4d1c	0.20146602
90	0x3d9970b9	0.07492203
91	0xbe04e50a	-0.12977996
92	0x3e69a83c	0.22818083
93	0x3dc5123c	0.096226186
94	0xbe032237	-0.1280602
95	0x3cf1ee22	0.029532496
96	0x3dfa2f1b	0.12216016
97	0x3d3e21bf	0.0464189
98	0xbe123288	-0.14277089
99	0xbd7e3e44	-0.0620711
100	0x3e21cab9	0.15799989
101	0xbe108e9a	-0.14116898
102	0x3de6b83a	0.11265607
103	0xbe15270b	-0.14565675
104	0xbe9b3cdb	-0.30319867
105	0xbd8727ce	-0.06599389
106	0x3e832bdb	0.25619397
107	0x3c948285	0.018128643
108	0x3e8a2f30	0.26989126
109	0x3df9f035	0.12204019
110	0x3bb4ace2	0.0055137733
111	0x3e0e0db6	0.13872418
112	0x3e7c7b07	0.24656306
113	0xbc9480a2	-0.018127743
114	0x3e1439c4	0.14475161
115	0x3ef22499	0.47293547
116	0x3dd368f2	0.10322751
117	0x3dee128f	0.116246335
118	0xbe7b7dc9	-0.24559702
119	0xbe110fbd	-0.1416616
120	0xbe04c835	-0.12966998
121	0xbd867dd4	-0.065669686
122	0x3e015e30	0.12633586
123	0xb9c2a04b	-0.0003712199
124	0x3df5b215	0.11996857
125	0xbe1943f5	-0.1496733
126	0xbd4cccd0	-0.050000012
127	0xbe0657c6	-0.1311942
128	0x3dd57569	0.10422785
129	0x3df44330	0.119268775
130	0xbe7eb50a	-0.24873748
131	0x3d070c20	0.032970548
132	0x3e3c0b71	0.1836374
133	0x3e1f3431	0.15547253
134	0x3e0af76f	0.13570951
135	0x3e327af5	0.17429717
136	0x3cafc652	0.021456871
137	0x3e24023d	0.16016479
138	0xbe8b3ae9	-0.27193382
139	0xbf4a9ac0	-0.7914238
140	0xbe833b84	-0.25631344
141	0xbd5f3a76	-0.054499112
142	0xbe5fb35d	-0.21845765
143	0x3c93dec7	0.018050564
144	0xbe0a9422	-0.1353307
145	0xbe0b640c	-0.13612384
146	0x3e40978b	0.18807809
147	0x3e1df577	0.15425669
148	0x3da37ae0	0.07982421
149	0x3da3bd5d	0.079951026
150	0xbb496f2f	-0.0030736437
151	0x3ec4110f	0.38294265
152	0xbdef2479	-0.116768785
153	0xbdbde7f0	-0.09272754
154	0xbe29d5e4	-0.16585499
155	0xbe1d9b40	-0.15391254
156	0xbe05fe32	-0.13085249
157	0xbe0080da	-0.12549153
158	0x3cc69fe6	0.024246167
159	0xbdd2148c	-0.10257825
160	0xbd064c86	-0.032787822
161	0x3d263247	0.040575292
162	0xbd3399a4	-0.043847695
163	0x3da95537	0.082682066
164	0xbd743d1e	-0.0596286
165	0xbd8ded99	-0.06930084
166	0xbe8812f6	-0.26576966
167	0xbe3663a2	-0.17811444
168	0xbe24345e	-0.16035601
169	0xbe575a3f	-0.2103052
170	0xbe3181f9	-0.17334737
171	0x3e53fc4a	0.2070171
172	0x3c8b15b4	0.016978122
173	0xbe1eafb6	-0.15496716
174	0x3e2d58b1	0.16928364
175	0x3eaddf1e	0.33959287
176	0x3e92297a	0.2854727
177	0x3b8a9d9c	0.0042302143
178	0xbdeffde6	-0.11718349
179	0x3eada614	0.3391577
180	0xbe2eea0e	-0.17081472
181	0xbe4638d1	-0.19357611
182	0xbe4bd406	-0.199051
183	0xbe810328	-0.2519772
184	0xbef1481f	-0.47125337
185	0xbd7075af	-0.05870598
186	0xbe9ed0ae	-0.31018585
187	0xbedea2b4	-0.43483508
188	0xbe2b47a7	-0.16726552
189	0xbd35dd62	-0.04440058
190	0x3c562496	0.013070246
191	0xbd8efa02	-0.06981279
192	0xbe51524c	-0.2044155
193	0xbdba781c	-0.0910494
194	0xbb978bd5	-0.0046248236
195	0xbe28c77a	-0.16482344
196	0x3cb63d79	0.02224611
197	0x3d1376f0	0.0360021
198	0x3e6ee9a7	0.23331319
199	0xbcc58748	-0.024112359
200	0x3dc31111	0.095247395
201	0xbe273306	-0.16328058
202	0x3e130543	0.14357476
203	0xbde1e9b9	-0.11030907
204	0x3dc7511e	0.09732269
205	0x3dd8f6e1	0.105939634
206	0xbd94f4d9	-0.072732635
207	0x3e88cc92	0.26718575
208	0x3eca8e43	0.39561662
209	0x3eb0b619	0.3451393
210	0x3c025479	0.00795471
211	0x3e6afe4a	0.22948566
212	0xbdc3389b	-0.09532281
213	0x3e9c2775	0.30498853
214	0x3ed6e1eb	0.41969237
215	0x3e9a9c91	0.30197576
216	0x3ea4fcf8	0.3222425
217	0xbda6ada6	-0.081385896
218	0x3cb3138f	0.021859912
219	0x3e97f7a0	0.2968111
220	0x3d98e265	0.07465056
221	0x3e95a1da	0.29225045
222	0xbe98ddbc	-0.2985667
223	0xbecaf837	-0.39642498
224	0x3b3fc44f	0.0029261296
225	0xbd0288db	-0.031868797
226	0xbc8f1e73	-0.017470574
227	0x3e874940	0.26423073
228	0x3e2d844d	0.16945
229	0x3da572d5	0.08078543
230	0x3d6578ed	0.056023527
231	0xbe267167	-0.16254197
232	0x3c868993	0.016423022
233	0xbd9b4848	-0.07582146
234	0x3ca5a154	0.020218529
235	0xbde5fce3	-0.11229875
236	0x3d5bb4c4	0.05363919
237	0x3e1f849e	0.15577933
238	0x3d5516fa	0.052023865
239	0xbd9494bd	-0.07254932
240	0xbe0191c6	-0.12653264
241	0x3d0ac351	0.033877674
242	0x3d81aea1	0.06332136
243	0xbdcf9164	-0.10135153
244	0xbed56f5b	-0.4168652
245	0xbd44b857	-0.048027363
246	0xbe738224	-0.23780113
247	0xbed83f6f	-0.42235896
248	0xbe1c9dc8	-0.15294564
249	0x3e723d39	0.23656167
250	0x3ec9d23f	0.39418218
251	0x3d9de7da	0.07710238
252	0x3b48dda0	0.0030649677
253	0xbcf88b42	-0.03033984
254	0xbd92180c	-0.07133493
255	0xbec5a5f2	-0.3860317

conv1.bias f4 [32]
0	0x3b8380e5	0.004013168
1	0x3bb38cba	0.0054794224
2	0x38a42830	7.827615e-05
3	0xbb6264ee	-0.0034545022
4	0xba1951ed	-0.0005848695
5	0x3b700561	0.00366243
6	0xbb992263	-0.0046732887
7	0x3bac8f08	0.005266074
8	0x3b772a18	0.0037714299
9	0x387f4dd3	6.0869217e-05
10	0x3a8f0e78	0.0010914346
11	0x3abafb95	0.0014265651
12	0x3be76622	0.0070617357
13	0x3badfa1d	0.005309357
14	0x3afcd1ac	0.0019288561
15	0x3dbb2a0a	0.09138878
16	0x3b18951b	0.0023282233
17	0x3a402dfd	0.00073310715
18	0x3d8cc46f	0.06873404
19	0xbb948ad1	-0.00453315
20	0x3b6849fc	0.0035444489
21	0x3a664319	0.0008783802
22	0x39bdf996	0.00036234845
23	0x3b4a400f	0.0030860936
24	0xb8c5a9d2	-9.4253235e-05
25	0x3b9bce69	0.0047548306
26	0xbc0a161c	-0.008428123
27	0xbbf4b108	-0.007467393
28	0x38474540	4.750979e-05
29	0xbbe39a28	-0.006945867
30	0xbb34b2e6	-0.0027572452
31	0x3af071c1	0.0018344448

conv2.weight f4 [32, 32, 3, 3]
0	0xbeadcd61	-0.33945754
1	0xbe452bec	-0.19255036
2	0x3e5b0b36	0.21390995
3	0x3e9952da	0.29946023
4	0x3edbb788	0.4291346
5	0xbdc2ad0f	-0.095056646
6	0xbdd90b2d	-0.10597835
7	0xbcff91fd	-0.031197542
8	0x3daf778a	0.08567722
9	0xbdb675ff	-0.08909225
10	0xbe87989f	-0.26483628
11	0x3d6412b9	0.055681918
12	0x3e16a3de	0.14710948
13	0x3da61300	0.08109093
14	0x3dd0c3a5	0.10193566
15	0x3e15f78f	0.14645217
16	0xbe567bbb	-0.20945637
17	0x3e25dd96	0.1619781
18	0x3c4c7b46	0.012480563
19	0xbdfc879a	-0.123305514
20	0xbe5fba42	-0.21848395
21	0xbe2893d4	-0.16462642
22	0xb971ebfd	-0.00023071464
23	0x3d78841a	0.060672857
24	0xbd80183c	-0.06254622
25	0x3e05a89f	0.13052605
26	0x3c49190e	0.01227404
27	0xbe04e8e5	-0.12979467
28	0xbe4532f4	-0.19257718
29	0xbe1aaf60	-0.15105963
30	0xbe7afef5	-0.24511321
31	0xbedcdca3	-0.43137082
32	0x3e12bf38	0.14330757
33	0xbdf79bc4	-0.12090257
34	0x3d88a004	0.066711456
35	0x3e6bd1bb	0.23029225
36	0x3df44962	0.11928059
37	0x3c31fc70	0.010863408
38	0x3d1a6b33	0.03769989
39	0x3e0de91a	0.13858452
40	0x3e620af4	0.22074491
41	0xbe0feba3	-0.14054732
42	0xbd2040f9	-0.039124463
43	0xbe5b65ff	-0.21425627
44	0x3de5eed8	0.112271965
45	0x3e1de894	0.15420753
46	0xbe142dd3	-0.14470606
47	0xbeacbdd6	-0.33738583
48	0x3d99c6fe	0.07508658
49	0xbd172352	-0.03689892
50	0xbda6dd94	-0.081477314
51	0x3de6dff6	0.11273186
52	0x3e8302cd	0.25588074
53	0x3e2c7585	0.16841705
54	0x3e787a54	0.24265414
55	0x3df7a592	0.12092127
56	0xbe94d272	-0.29066807
57	0xbddca8f4	-0.10774413
58	0x3d1f47c6	0.038886808
59	0x3cb7a845	0.022419104
60	0xbe060b9a	-0.13090363
61	0xbd5a1d0f	-0.05325037
62	0xbe9fb606	-0.3119356
63	0xbe6df196	-0.23236689
64	0xbc75268a	-0.014962802
65	0x3cf1590e	0.02946141
66	0x3e884901	0.26618198
67	0x3e290108	0.165043
68	0xbda96d6a	-0.08272822
69	0xbd365c4e	-0.044521622
70	0xbc962331	-0.018327327
71	0x3e30ff2c	0.1728484
72	0xbd5d6876	-0.0540547
73	0x3e457226	0.19281825
74	0x3eac6ca3	0.33676633
75	0x3d273bd5	0.040828545
76	0x3e398a06	0.18119058
77	0x3cd346d1	0.025790604
78	0xbe7045a5	-0.23464067
79	0xbe735642	-0.23763373
80	0xbd824009	-0.0635987
81	0x3e10ea21	0.14151813
82	0xbe1ef11c	-0.15521663
83	0xbc207246	-0.00979287
84	0x3d28419d	0.0410782
85	0x3e0be4ac	0.1366145
86	0xbe29716a	-0.1654717
87	0xbc58854d	-0.013215375
88	0x3e96059e	0.2930116
89	0x3d85396b	0.06505092
90	0xbd2d957f	-0.0423789
91	0xbcc41f45	-0.023940692
92	0xbdcc048c	-0.09961805
93	0x3e6a72ff	0.2289543
94	0x3eeb7262	0.45985705
95	0xbe9ea204	-0.30982983
96	0x3da1502b	0.07876619
97	0x3c4a9b23	0.012366089
98	0xbddf9841	-0.10917712
99	0x3e217aa3	0.15769438
100	0x3d7688ea	0.060189165
101	0x3c2a986a	0.010412315
102	0x3e4c487c	0.19949526
103	0x3d35e591	0.044408385
104	0xbd6194d2	-0.055073567
105	0xbe522973	-0.20523624
106	0xbdec65d7	-0.11542862
107	0xbe3d4d51	-0.18486525
108	0xbe2ba6e9	-0.1676289
109	0xbd24eebf	-0.04026675
110	0x3dc22fb9	0.094817586
111	0x3ed19401	0.4093323
112	0x3e808059	0.25097921
113	0xbdd1de51	-0.102474816
114	0xbd983ac5	-0.074330844
115	0xbeb177c2	-0.3466168
116	0xbddca68a	-0.10773952
117	0xbe0e1c86	-0.13878068
118	0x3dd0f755	0.10203425
119	0x3f070f2e	0.5275754
120	0x3e66e9d8	0.22550142
121	0x3d1fa7f5	0.038978536
122	0x3d807a3c	0.06273314
123	0x3dcd8411	0.10034955
124	0xbedbf2ca	-0.4295867
125	0xbbd84048	-0.00659946
126	0x3e082d71	0.13298585
127	0x3d8bed6a	0.068323925
128	0xbd0fbfd4	-0.03509505
129	0x3e3490bd	0.17633338
130	0xbdd6049b	-0.10450097
131	0x3d17eb81	0.03708983
132	0xbd064d1d	-0.032788385
133	0xbe9cd641	-0.30632213
134	0xbd55ab1a	-0.05216513
135	0xbdc8395d	-0.09776566
136	0xbd808319	-0.06275005
137	0xbdeee244	-0.116642505
138	0xbc1b28c1	-0.009470166
139	0x3e2e8e34	0.17046434
140	0x3e8ce4c6	0.2751829
141	0xbdd547cb	-0.10414084
142	0xbd8cebdb	-0.06880923
143	0xbd39610f	-0.045258578
144	0xbe559fc2	-0.20861724
145	0xbe25fcbc	-0.16209692
146	0xbe07049a	-0.13185349
147	0x3de13a3b	0.10997435
148	0xbd3d0167	-0.046143916
149	0xbdc7625d	-0.09735558
150	0x3dc937a9	0.098250695
151	0x3bbee49a	0.0058255913
152	0x3e1981aa	0.14990869
153	0xbb787e0c	-0.0037916927
154	0xbc098711	-0.008394019
155	0xbda6201c	-0.08111593
156	0xbe6174b0	-0.22017169
157	0x3e2af406	0.1669465
158	0xbdcf6669	-0.10126955
159	0x3e446a3c	0.1918115
160	0x3ca7a74d	0.020465517
161	0xbcbffcd6	-0.023435991
162	0xbd8bd2af	-0.06827294
163	0xbd751989	-0.059838805
164	0xbd8aa52c	-0.06769785
165	0x3ca3945c	0.019968204
166	0x3e0663fd	0.1312408
167	0x3e69cbaf	0.22831605
168	0xbe102d53	-0.1407979
169	0xbdecae21	-0.1155665
170	0xbc95206e	-0.01820394
171	0x3e1a2a3a	0.1505517
172	0x3a57d656	0.00082335377
173	0xbd6b1104	-0.057389274
174	0x3d450ba9	0.048106823
175	0x3c78a491	0.015175954
176	0x3d103c79	0.03521392
177	0xbe37cd49	-0.17949404
178	0xbd82df14	-0.06390205
179	0xbe03793b	-0.12839215
180	0x3bd16496	0.0063901646
181	0xbd2f555c	-0.042806014
182	0x3dde07e8	0.10841352
183	0xbd514376	-0.051089726
184	0x3e14f82e	0.14547798
185	0xbe1c0af1	-0.15238549
186	0xbd392e98	-0.04521045
187	0x3e029096	0.12750468
188	0xbd1f65e5	-0.038915534
189	0x3e5119ab	0.20419948
190	0xbe0d8198	-0.13818967
191	0xbc97213b	-0.018448463
192	0xbe0d2acd	-0.13785858
193	0xbe2c56d7	-0.16830002
194	0x3dc2acad	0.095055915
195	0x3dd77e33	0.105221175
196	0x3bc3c4bf	0.0059743817
197	0xbd15727c	-0.036486134
198	0xbe166080	-0.1468525
199	0x3de2b5ea	0.110698536
200	0xbd08453e	-0.03326916
201	0x3e80c4aa	0.25150043
202	0x3dfddb22	0.12395312
203	0xbe05c425	-0.13063104
204	0xbdd0972f	-0.10185086
205	0x3d058138	0.032593936
206	0x3c81b7df	0.015834747
207	0xbdec0ac1	-0.11525489
208	0xbd1b601b	-0.03793345
209	0x3e4ae08a	0.19812217
210	0xbe67f44e	-0.22651789
211	0xbd07f2b3	-0.03319044
212	0x3bb566f9	0.005535957
213	0x3d6a576c	0.05721228
214	0x3e1f742c	0.1557166
215	0xbd6d5498	-0.057942003
216	0x3dad6e24	0.08468273
217	0x3d060246	0.032717012
218	0x3e0cc92e	0.13748619
219	0xbd35a70b	-0.044348758
220	0xbe30766d	-0.17232676
221	0xbd9d3aff	-0.07677268
222	0x3dacbda7	0.08434611
223	0xbea9f08f	-0.33191344
224	0xbe08c0ee	-0.13354847
225	0x3ea39c57	0.31955215
226	0x3d12478b	0.03571276
227	0xbc66d2d0	-0.014088348
228	0x3e65d77b	0.2244548
229	0x3d14a021	0.036285523
230	0xbe34c6f4	-0.1765402
231	0xbe20336a	-0.15644613
232	0x3dcdf635	0.10056726
233	0x3cead8e2	0.02866787
234	0x3c4cb832	0.012495087
235	0xbe114a9b	-0.14188616
236	0xbe079782	-0.1324139
237	0x3d85c0fd	0.0653095
238	0x3d8b58e5	0.06804065
239	0xbe927f33	-0.2861267
240	0xbe584671	-0.21120621
241	0x3e71c987	0.23612033
242	0x3cde523d	0.027138824
243	0x3d455089	0.048172507
244	0xbe7bd45d	-0.24592729
245	0xbdaf2e9e	-0.085538134
246	0xbe0f6612	-0.1400378
247	0xbe8dc74e	-0.2769112
248	0x3dba779d	0.09104846
249	0x3da0a1b8	0.078433454
250	0x3e102800	0.14077759
251	0x3e80f2d9	0.25185278
252	0x3ea6b983	0.3256341
253	0x3e983b80	0.29732895
254	0xbe8b05d4	-0.27152884
255	0xbed294e3	-0.41129217

conv2.bias f4 [32]
0	0xbc4d8028	-0.012542762
1	0xbc91e7cd	-0.017810727
2	0xb9e07790	-0.0004281369
3	0xba7067d5	-0.00091707456
4	0xbd534100	-0.05157566
5	0xbb57c0cc	-0.0032921312
6	0xbbf627f8	-0.007512089
7	0x3b809344	0.0039238054
8	0xbb86f38c	-0.0041183885
9	0xbc930df9	-0.017950999
10	0xbced110a	-0.028938789
11	0xbcd49613	-0.025950467
12	0x3cbf4731	0.023349376
13	0xbc249ad2	-0.010046678
14	0xbce3fee3	-0.0278315
15	0xbc2e7888	-0.010648854
16	0xbb2a0e29	-0.0025948382
17	0x3bb95d38	0.0056568645
18	0x3bbe90ed	0.0058156163
19	0xbae36d3e	-0.0017351282
20	0x3ba97c20	0.0051722676
21	0xbab46e90	-0.001376586
22	0xbb8d4838	-0.0043115877
23	0x3c5e3588	0.0135625675
24	0x3bffbdca	0.007804607
25	0xbc6f247e	-0.014596103
26	0xbb5661ab	-0.0032712023
27	0xbce69564	-0.028147407
28	0x3ca2ec03	0.01988793
29	0xba7f6e60	-0.0009743925
30	0xbba28b71	-0.0049604704
31	0x3a43e221	0.00074723555

conv3.weight f4 [32, 32, 3, 3]
0	0xbe020c9f	-0.12700127
1	0xbcd78758	-0.026309654
2	0xbdf8a324	-0.121404916
3	0x3e137772	0.14401034
4	0x3db023a5	0.08600549
5	0x3e857f1e	0.26073545
6	0x3e163690	0.14669251
7	0xbdf737fa	-0.120712236
8	0xbd9ceef9	-0.07662768
9	0x3e1f215e	0.15540072
10	0xbc3d5449	-0.01155574
11	0x3d48053d	0.04883312
12	0xbe3843b7	-0.17994581
13	0xbe2db0b6	-0.16961941
14	0x3e2024eb	0.15639083
15	0x3e8e0efb	0.27745804
16	0xbdadfc1e	-0.08495353
17	0xbe161865	-0.14657743
18	0xbd1e383b	-0.038627844
19	0x3d74296b	0.05960981
20	0xbc087ae8	-0.008330084
21	0x3e234184	0.15942961
22	0x3a625284	0.00086335116
23	0xbd55bd4e	-0.05218249
24	0x3d6725d8	0.056432575
25	0x3dc48915	0.09596459
26	0xbd41a9ce	-0.04728108
27	0xbae9f422	-0.0017849247
28	0xbe202a7c	-0.15641207
29	0xbea112dd	-0.31459704
30	0xbc53af4e	-0.012920214
31	0xbe348efd	-0.1763267
32	0xbe2d7df8	-0.16942585
33	0x3e8979df	0.26850793
34	0xbbe73f67	-0.0070571187
35	0xbe9ebf19	-0.3100517
36	0x3e49ac26	0.19694576
37	0xbc46d97d	-0.012136814
38	0xbe9d0106	-0.30664843
39	0x3baadd35	0.005214358
40	0xbe373b89	-0.17893805
41	0xbdbd2f42	-0.09237529
42	0x3e430120	0.19043398
43	0xbd537575	-0.051625688
44	0xbc0d12b7	-0.008610419
45	0xbd81cf23	-0.06338336
46	0x3d9b8ba8	0.07594997
47	0xbce5da62	-0.028058235
48	0x3e8ee62d	0.27909985
49	0x3e4ce3e9	0.20008816
50	0xbde7ae4b	-0.113125406
51	0xbdd968a7	-0.10615664
52	0xbd260117	-0.040528383
53	0x3db17eaa	0.086667374
54	0xbd5c8b16	-0.05384358
55	0x3d94936f	0.07254683
56	0xbdb7beae	-0.08971916
57	0x3d50ef8c	0.0510097
58	0xbd54f533	-0.051991653
59	0x3c749355	0.014927705
60	0x3c6721cc	0.014107179
61	0x3d9f5010	0.077789426
62	0x3dc7d5d1	0.09757579
63	0xbe5990f7	-0.21246706
64	0xbe0c5d9b	-0.13707583
65	0xbd7ac1ce	-0.061219983
66	0x3e61b489	0.22041525
67	0xbdcb216d	-0.09918485
68	0xbdf449dd	-0.11928151
69	0xbe29584b	-0.16537587
70	0x3def113c	0.11673209
71	0x3d1b6967	0.037942316
72	0x3db18849	0.086685725
73	0xbe0d0877	-0.1377276
74	0x3e0f8b1c	0.1401791
75	0x3e26becb	0.16283719
76	0xbd9cf66e	-0.0766419
77	0x3ce4afb2	0.02791581
78	0x3c4c8e46	0.0124850925
79	0x3e292d5f	0.16521214
80	0xbe3f7a5d	-0.18699022
81	0x3e667107	0.22504054
82	0xbc73b8f9	-0.014875644
83	0xbe24868c	-0.1606695
84	0xbd716953	-0.058938336
85	0xbdb24caf	-0.087060325
86	0xbd27de60	-0.040983558
87	0x3d2890ce	0.04115372
88	0xbe9d123a	-0.30677968
89	0x3e60ffbc	0.21972555
90	0xbdba1e68	-0.09087831
91	0xbdd86e93	-0.10567965
92	0xbe1747f6	-0.14773545
93	0x3dd5d4db	0.104409896
94	0x3dee1ea2	0.116269365
95	0xbe0d82a9	-0.13819374
96	0xbe003dad	-0.12523527
97	0xbe198da4	-0.14995438
98	0x3db18786	0.08668427
99	0x3db0e87c	0.08638093
100	0x3c73c321	0.014878065
101	0xbe4fd55d	-0.20296235
102	0x3e82cd32	0.25547177
103	0x3e500967	0.20316087
104	0xbca266e6	-0.019824456
105	0x3d074585	0.033025283
106	0x3e28c138	0.16479957
107	0xbd0f3475	-0.034962136
108	0xbd9fd02e	-0.07803379
109	0x3e283465	0.16426237
110	0xbc2b08e3	-0.0104391305
111	0xbdedeff9	-0.11618037
112	0x3d626918	0.055276006
113	0xbcf41029	-0.029792862
114	0x3d49088e	0.049080424
115	0x3e00a18c	0.12561625
116	0xbe075cb6	-0.1321896
117	0xbca6ac44	-0.020345815
118	0xbd1a6764	-0.037696257
119	0x3e1e415b	0.15454619
120	0xbd7d5688	-0.0618501
121	0x3bb52a05	0.0055286908
122	0xbdf02b84	-0.1172705
123	0x3d51c593	0.051213812
124	0x3beb6e15	0.0071847537
125	0x3eb94f56	0.3619334
126	0x3dc4a25b	0.09601279
127	0x3e398e6e	0.18120739
128	0xbe08ce1a	-0.13359872
129	0x3c5e00fc	0.013550039
130	0x3d67e2d7	0.056612816
131	0xbdf16424	-0.117866784
132	0xbc954bd7	-0.01822464
133	0x3e733878	0.2375201
134	0x3bafca08	0.00536466
135	0x3d8c6edf	0.068570845
136	0x3d36c1ff	0.044618603
137	0xbdb79db4	-0.08965626
138	0xbdcc5dda	-0.09978838
139	0xbe1bf019	-0.15228309
140	0x3e11d042	0.142396
141	0x3de74722	0.112928644
142	0xbe0b639d	-0.13612218
143	0xbe677fef	-0.22607397
144	0x3ca795c3	0.020457154
145	0xbdb5038a	-0.08838566
146	0x3e2b614a	0.16736332
147	0xbe574ee7	-0.21026193
148	0xbb6d5186	-0.0036211922
149	0xbe4b949f	-0.19880913
150	0x3dd10861	0.10206676
151	0x3db3b9ef	0.087756984
152	0xbe9c7bed	-0.30563298
153	0xbe66f79b	-0.22555391
154	0xbe3f7854	-0.18698245
155	0x3e2f23d5	0.17103513
156	0xbd96baf8	-0.0735988
157	0x3bb7932c	0.005602261
158	0x3e0a7d11	0.13524272
159	0xbdb9e740	-0.090773106
160	0x3d85fd62	0.065424696
161	0xbd9de962	-0.0771053
162	0x3b902eeb	0.0044001243
163	0xbd10ee49	-0.035383496
164	0xbd0f77fa	-0.035026528
165	0x3e3cb39b	0.18427889
166	0xbd690670	-0.056890905
167	0xbe422295	-0.18958504
168	0x3cc50690	0.02405098
169	0x3dd1de9a	0.10247536
170	0xbe286a3f	-0.1644678
171	0x3dc63b6c	0.096793026
172	0x3e1e61ae	0.1546695
173	0xbd9c6392	-0.07636179
174	0xbb801728	-0.0039090104
175	0xbe0b3dac	-0.13597745
176	0xbd370f9b	-0.044692617
177	0xbdce845f	-0.100838415
178	0xbe05ac2e	-0.13053963
179	0xbd49ae9d	-0.04923879
180	0x3e06cff1	0.13165261
181	0xbe1e8a56	-0.15482458
182	0xbd8ae1db	-0.0678136
183	0xbdd08d2b	-0.10183176
184	0x3eafec81	0.34360126
185	0xbd855324	-0.065099984
186	0xbdb18c05	-0.08669285
187	0xbd0bbfb0	-0.034118354
188	0xbe30b9fa	-0.17258444
189	0x3d946bfa	0.072471574
190	0xbcad1e37	-0.021132572
191	0xbd9a9a24	-0.07548931
192	0x3d695b44	0.056971803
193	0xbe6ad552	-0.22932938
194	0xbe4f6ca3	-0.20256285
195	0x3ba40095	0.005004952
196	0x3e77a488	0.24183857
197	0xbcc5bb02	-0.024137024
198	0x3e177670	0.14791274
199	0xbb1e1fe0	-0.0024127886
200	0xbe94d5c2	-0.29069334
201	0xbe0fe74a	-0.14053074
202	0x3c2cf4a7	0.010556377
203	0xbcf1eeee	-0.029532876
204	0xbc37c394	-0.011216063
205	0x3e190034	0.14941484
206	0xbd814dff	-0.06313705
207	0x3e2a866d	0.16652842
208	0x3db09494	0.08622089
209	0xbec011a1	-0.3751345
210	0x3e952095	0.2912642
211	0xbec4c7fa	-0.3843382
212	0x3aa6710e	0.0012698488
213	0xbc46b2b9	-0.012127572
214	0xbde866be	-0.113477215
215	0xbd9712ab	-0.073766075
216	0xbce32a52	-0.02773014
217	0x3e1c6b57	0.15275322
218	0x3e64efeb	0.22357146
219	0xbd767df0	-0.060178697
220	0xbd6eea37	-0.058328833
221	0x3dd190e5	0.102327146
222	0xbddade6a	-0.10686953
223	0xbd9519c1	-0.07280303
224	0x3e7a0905	0.24417503
225	0x3cc9ab39	0.024617778
226	0xbd15f0d8	-0.03660664
227	0x3ddf6565	0.10908011
228	0xbdae7e61	-0.085201986
229	0x3d1e0dc5	0.03858735
230	0x3dac8211	0.08423246
231	0xbd502d30	-0.050824344
232	0x3dd76143	0.10516598
233	0xbda21d4b	-0.079157434
234	0xbeadee83	-0.33971033
235	0x3e09a62e	0.13442299
236	0x3e50f763	0.2040687
237	0x3d80a0e1	0.06280685
238	0xbcdbfe07	-0.026854528
239	0xbd0c2dd2	-0.034223385
240	0xbc64470c	-0.0139329545
241	0x3c1108fa	0.008852238
242	0x3d001f6e	0.031279974
243	0x3d0fcb11	0.03510577
244	0xbbe96572	-0.007122689
245	0x3e0d02e6	0.13770637
246	0x3d975eba	0.073911145
247	0xbdcd1377	-0.10013478
248	0xbe2b8cc3	-0.16752915
249	0x3c513f76	0.012771478
250	0xbe93991a	-0.28827745
251	0x3cc1bf15	0.023650685
252	0xbe3f5081	-0.18683054
253	0xbd496611	-0.049169604
254	0x3e6dc554	0.23219806
255	0xbe274f08	-0.16338742

conv3.bias f4 [32]
0	0xbd6cda8f	-0.05782562
1	0xbde9bc85	-0.1141291
2	0xbbde4088	-0.006782595
3	0xbcebea4e	-0.028798249
4	0xbbafd77d	-0.0053662644
5	0xbe8ffcfc	-0.281227
6	0xbda43ad2	-0.080190316
7	0xbe23d2a7	-0.15998326
8	0xbdaababb	-0.08336397
9	0xbc1cbf84	-0.009567145
10	0xbdd33b04	-0.10313991
11	0xbcfb7d42	-0.030699376
12	0xbbd4948d	-0.006487435
13	0xbd7c2359	-0.061557148
14	0xbd91f52a	-0.071268395
15	0xbc572da1	-0.013133437
16	0xbbec8ac5	-0.007218691
17	0x3cc1ac6c	0.023641787
18	0xbe639fd5	-0.2222894
19	0xbd7544de	-0.05988013
20	0xbdbc16fc	-0.091840714
21	0x3bb3abf0	0.005483143
22	0xbd9fd5f4	-0.0780448
23	0xbe308e27	-0.17241727
24	0xba00f0cf	-0.0004918696
25	0xbddc6aad	-0.10762534
26	0x3b8b59df	0.004252657
27	0xbbc406c6	-0.005982253
28	0xbbf7fbe4	-0.0075678695
29	0x3ccd2b23	0.025044983
30	0x3cde06de	0.027102884
31	0xbde69fef	-0.11260974

conv4.weight f4 [32, 32, 3, 3]
0	0x3e1bf2b8	0.15229309
1	0xbcaf1f1b	-0.021377137
2	0x3cf08dcc	0.029364489
3	0xbdefdcfb	-0.117120706
4	0xbdd1c9df	-0.10243582
5	0xbddd774f	-0.10813772
6	0xbcb7011a	-0.022339392
7	0xbc8dc755	-0.017306963
8	0xbe5e9373	-0.21735935
9	0xbd7c54fb	-0.06160448
10	0xbe2464b2	-0.16054037
11	0x3d8b2064	0.067932874
12	0xbd49ca97	-0.04926547
13	0x3d048a03	0.03235818
14	0xbd03706c	-0.032089636
15	0xbd6eba63	-0.05828322
16	0xbb8b8a4f	-0.004258431
17	0x3df9f421	0.12204767
18	0xbda8ef60	-0.08248782
19	0x3dbf7ede	0.0935037
20	0x3db961ae	0.09051834
21	0xbd77c868	-0.060493857
22	0xbe4b895f	-0.19876622
23	0x3d91f277	0.071263246
24	0x3da54c35	0.08071176
25	0x3dfb553b	0.12272116
26	0xbc5d7fce	-0.013519241
27	0x3e03aeb5	0.12859614
28	0xbd43661d	-0.047704805
29	0x3c91e795	0.017810622
30	0x3daf4a4c	0.08559093
31	0xbc4137c7	-0.0117930835
32	0xbda42fa1	-0.08016897
33	0xbd899cb2	-0.067193404
34	0xbd22bfdc	-0.039733753
35	0x3deba597	0.11506193
36	0x3df982b8	0.12183136
37	0xbe181752	-0.14852646
38	0xbc1ffb00	-0.009764433
39	0x3da64e4a	0.08120401
40	0xbdef44c6	-0.11683039
41	0x3dcb90ea	0.099397495
42	0x3e322416	0.17396578
43	0xbdc83d82	-0.09777357
44	0xbc8cfff9	-0.017211901
45	0x3e9489d2	0.290114
46	0x3ca2a1b0	0.01985249
47	0xbda3fa53	-0.0800673
48	0xbcf292ba	-0.02961098
49	0xbe01312b	-0.12616412
50	0x3cde101f	0.027107297
51	0xbd86c7d6	-0.065810844
52	0xbd9299cd	-0.071582414
53	0xbccb169d	-0.024791056
54	0x3e9497f9	0.29022196
55	0xbd02502d	-0.031814743
56	0xbdf9a643	-0.12189915
57	0xbdd1bb0b	-0.10240754
58	0xbd761cc4	-0.060086027
59	0xbddb8c83	-0.1072016
60	0xbce211af	-0.027596323
61	0x3e14ce15	0.14531739
62	0x3ddae609	0.10688407
63	0x3c9ccb54	0.019139923
64	0xbcc7fcee	-0.024412598
65	0x3e276ae1	0.16349365
66	0x3dc6a099	0.096986
67	0x3d9a0995	0.07521359
68	0x3d8ca892	0.0686809
69	0xbda7bae3	-0.08189943
70	0x3d7fbb89	0.062434707
71	0x3e233ee7	0.15941964
72	0xbd0123f8	-0.031528443
73	0xbd884aab	-0.06654867
74	0xbe20cd04	-0.15703207
75	0xbc832111	-0.016006978
76	0x3e56bfcf	0.20971607
77	0xbc03f5c2	-0.008054199
78	0xbe301657	-0.17196022
79	0xbdab563e	-0.08366059
80	0x3dccd507	0.10001569
81	0x3e14977b	0.1451091
82	0xbe80ae5f	-0.25133035
83	0xbc296f49	-0.010341474
84	0xbcf7171f	-0.030162392
85	0x3ea20692	0.31645638
86	0xbd83bf7a	-0.06433006
87	0xbd7f780d	-0.06237035
88	0xbd2952f0	-0.04133886
89	0x3e06fd25	0.13182504
90	0x3d616a21	0.055032853
91	0x3db9eb9e	0.090781435
92	0x3e220621	0.1582265
93	0x3c7e2f6b	0.015514235
94	0xbd550c1f	-0.052013513
95	0xbe17b795	-0.14816125
96	0x3d093c4f	0.03350478
97	0xbe6a5ac1	-0.22886182
98	0x3e2ff522	0.17183354
99	0xbda10b71	-0.078635104
100	0x3ddbe6eb	0.107374035
101	0xbcc055a3	-0.023478335
102	0x3e324b5c	0.1741156
103	0xbe3b6680	-0.1830082
104	0xbe5196da	-0.20467702
105	0x3e2e28e9	0.17007793
106	0x3d253c6e	0.040340833
107	0x3ba36a21	0.004987017
108	0xbd8e1905	-0.06938366
109	0xbd875494	-0.06607929
110	0x3e10b6f4	0.14132291
111	0x3df1a0cc	0.11798248
112	0xbdafaca6	-0.08577852
113	0x3e0fc655	0.14040501
114	0xbc66428c	-0.014053952
115	0x3c8cba27	0.017178608
116	0xbdab19cc	-0.0835453
117	0x3ea66f10	0.3250661
118	0xbe2a0b88	-0.16605961
119	0x3d17ce88	0.037062198
120	0xbdc2c853	-0.09510865
121	0xbe82bd5c	-0.25535095
122	0x3df3be07	0.11901479
123	0x3c886326	0.01664884
124	0xbcd91f3c	-0.026504152
125	0xbd8a357b	-0.06748482
126	0x3d523314	0.051318243
127	0xbd8bcab5	-0.06825773
128	0xbceaf9ec	-0.028683625
129	0xbd3bdb27	-0.045863297
130	0xbda30193	-0.07959285
131	0x3e21b4ea	0.1579167
132	0xbd0e88f5	-0.03479858
133	0x3e366e1c	0.17815441
134	0xbc574f42	-0.013141455
135	0x3dbe5a01	0.09294511
136	0xbc3db5c8	-0.011578985
137	0x3d0d6193	0.034516882
138	0xbe65215e	-0.2237601
139	0x3e3b3e9f	0.18285607
140	0xbe1bf721	-0.15230991
141	0xbe01356c	-0.12618035
142	0x3e1b1053	0.15142946
143	0xbe31f061	-0.17376854
144	0xbdfd4f0d	-0.12368593
145	0xbd893200	-0.0669899
146	0xbd9a960d	-0.07548151
147	0xbdc3d2e7	-0.09561711
148	0x3df824f7	0.121164255
149	0x3e169f03	0.14709096
150	0x3e0a02f1	0.13477685
151	0xbe9bf2e4	-0.30458748
152	0xbca2e4e6	-0.019884538
153	0xbe2c6256	-0.16834387
154	0x3e03164e	0.12801477
155	0xbd40bf31	-0.047057334
156	0xbe11c359	-0.14234675
157	0xbda6a2c3	-0.08136513
158	0x3d7d8901	0.061898235
159	0xbe469e97	-0.19396435
160	0xbdd1ddee	-0.10247408
161	0x3df429cb	0.11922034
162	0x3ba35cda	0.004985434
163	0xbd56d4f5	-0.052449185
164	0xbd8e8e9e	-0.06960796
165	0x3d9f9e20	0.07793832
166	0xbcca7ac7	-0.024716748
167	0xbe304351	-0.17213179
168	0xbcc00606	-0.023440372
169	0xbe24b34b	-0.1608402
170	0x3d9b1086	0.07571511
171	0x3cfb3059	0.030662702
172	0xbd929043	-0.07156422
173	0xbdcc9f5c	-0.09991333
174	0x3d8b560d	0.06803522
175	0x3ca8ed55	0.020620981
176	0xbde33695	-0.11094395
177	0x3e19cc0b	0.15019242
178	0xbe8ad470	-0.27115202
179	0x3d4edd4d	0.050504018
180	0x3d3c3c67	0.04595604
181	0x3e22426e	0.15845653
182	0x3e161112	0.1465495
183	0x3e738ce7	0.23784219
184	0xbdf7d8ad	-0.121018745
185	0xbe74baef	-0.23899435
186	0xbd8c2552	-0.06843056
187	0xbcd61346	-0.026132237
188	0x3c07ea63	0.008295628
189	0xbd68a579	-0.056798432
190	0xbdcbe896	-0.099564716
191	0xbd748c37	-0.05970403
192	0x3dc664ac	0.096871704
193	0xbd654a7a	-0.05597923
194	0xbae6b6b6	-0.001760206
195	0x3e9e4477	0.3091161
196	0x3e8ab72c	0.27092874
197	0xbe4243b7	-0.18971144
198	0xbb327065	-0.0027227637
199	0x3e841b6f	0.2580218
200	0xbe5159c8	-0.20444405
201	0xbe1f07c4	-0.15530306
202	0x3eaa2377	0.33230183
203	0xbd9bc1d9	-0.07605333
204	0x3d152f27	0.03642192
205	0xbdd0e7c7	-0.10200458
206	0x3c0823fb	0.00830936
207	0x3d91cbb3	0.07118931
208	0xbe4b7d90	-0.19872117
209	0xbe1373ef	-0.14399694
210	0x3ceb4595	0.028719703
211	0xbd6646e4	-0.05621995
212	0xbd74cbce	-0.059764676
213	0xbd9790da	-0.07400675
214	0x3c8ad3f0	0.016946763
215	0x3dfb722d	0.12277637
216	0x3d9e67f6	0.07734673
217	0x3bbf088e	0.005829877
218	0x3d4da3b4	0.050204948
219	0xbe6566ce	-0.22402498
220	0xbc12c73e	-0.008958636
221	0x3dcddfd4	0.100524575
222	0xbe03ca89	-0.1287023
223	0x3dac9902	0.084276214
224	0x3dba0649	0.0908323
225	0x3d0458f4	0.032311395
226	0xbe9cb531	-0.30606988
227	0x3e17aa98	0.1481117
228	0xbdb2ad41	-0.08724452
229	0xbca5c3b8	-0.020234928
230	0x3d819a48	0.06328255
231	0xbce099e7	-0.027417136
232	0x3ec07d83	0.37595758
233	0xbe841178	-0.25794578
234	0xbd81e8f5	-0.06343261
235	0xbcbe7152	-0.023247395
236	0x3e022042	0.12707618
237	0x3e66b07c	0.22528261
238	0x3e9ee924	0.31037247
239	0x3bcf8d58	0.006333988
240	0xbdd2eb44	-0.102987796
241	0xbe03dc3c	-0.12876981
242	0x3e64102b	0.22271793
243	0x3d94bb91	0.07262338
244	0xbe64c34d	-0.22340126
245	0x3dcfea6b	0.101521336
246	0xbdbc9e83	-0.09209921
247	0xbdd64f0e	-0.10464297
248	0x3e816957	0.2527568
249	0xbe1aaed0	-0.15105748
250	0x3de41a7a	0.111378625
251	0xbdc0668f	-0.093945615
252	0xbd32ce8f	-0.04365402
253	0xbc62f896	-0.013853213
254	0x3d9ff152	0.078097
255	0xbe6c070c	-0.23049563

conv4.bias f4 [32]
0	0xbe9c81e0	-0.30567837
1	0xbe1f2f25	-0.15545328
2	0xbd8438ff	-0.06456184
3	0xbde4aefc	-0.11166188
4	0xbefe58de	-0.49677175
5	0xbe95bac8	-0.29244065
6	0xbe502d56	-0.20329794
7	0xbe214a04	-0.15750891
8	0xbd8b87ad	-0.068129875
9	0xbe8664d6	-0.26248807
10	0xbddfb308	-0.109228194
11	0xbe5d868d	-0.21633358
12	0xbe80f71d	-0.25188532
13	0xbdddcbd5	-0.108298935
14	0xbe7b1254	-0.2451871
15	0xbe9b0d3b	-0.30283532
16	0xbe75c0b0	-0.23999286
17	0xbe5eb0e2	-0.21747163
18	0xbe721842	-0.23642066
19	0xbd946e20	-0.07247567
20	0xbd940245	-0.072269954
21	0xbde7cf87	-0.113188796
22	0xbe6218f9	-0.22079839
23	0xbe8abc5a	-0.27096826
24	0xbdc72007	-0.097229056
25	0xbe8ce63b	-0.27519402
26	0xbe85ec19	-0.2615669
27	0xbf020e1f	-0.508028
28	0xbdac97b8	-0.084273756
29	0xbce38074	-0.027771212
30	0xbdf69be1	-0.1204145
31	0xbead9608	-0.33903527

linear.weight f4 [32, 800]
0	0xbd4ee969	-0.050515566
1	0x3dcc7106	0.09982495
2	0xbd0b3ca6	-0.033993386
3	0xbd93ad5b	-0.07210799
4	0x3ba95c43	0.005168469
5	0xbe9b3548	-0.30314088
6	0x3be2284f	0.006901778
7	0x3b939770	0.0045041367
8	0x3c30557f	0.010762571
9	0x3d6d0fbf	0.057876345
10	0x3de3a9d8	0.111163795
11	0xbd27a5ad	-0.040929485
12	0xbdf39d46	-0.11895232
13	0xbb8f349c	-0.004370285
14	0x3dc91a91	0.0981952
15	0x3e2ea3a3	0.1705461
16	0x3e07d8ac	0.13266248
17	0xbcf0b5be	-0.029383536
18	0xbce9fe31	-0.02856359
19	0xbd9d1e6e	-0.076718196
20	0xbd0f44ef	-0.03497785
21	0xbcbd5324	-0.023110934
22	0xbd676906	-0.056496643
23	0xbd13a468	-0.036045462
24	0xbd0f0161	-0.034913424
25	0x3e40f723	0.18844275
26	0xbdaec941	-0.0853448
27	0x3d21a4c2	0.039463766
28	0xbd5657c9	-0.052329812
29	0x3d5f1233	0.054460716
30	0xbe959eaf	-0.29222628
31	0x3c8c3426	0.01711471
32	0xbd01d385	-0.03169586
33	0xbd80b6e3	-0.06284883
34	0x3e31ddf9	0.17369832
35	0x3e345e82	0.17614177
36	0x3c9eb41e	0.019372996
37	0xbdc3f5a4	-0.095683366
38	0xbcbc3477	-0.022974236
39	0x3ba8ffbd	0.0051574395
40	0x3d8281c2	0.063724056
41	0xbeb29279	-0.34877375
42	0xbd69385c	-0.056938514
43	0xbd41a6f6	-0.047278367
44	0x3e15c768	0.14626849
45	0xbdbe4a2c	-0.09291491
46	0xbc77e2ed	-0.015129787
47	0x3d34edec	0.044172212
48	0x3ccbed6c	0.024893485
49	0x3c3922d4	0.011299808
50	0xbe17e405	-0.14833076
51	0xbd878ba5	-0.06618432
52	0x3c8a2eb8	0.01686798
53	0xbca87318	-0.020562693
54	0x3ce3b287	0.02779509
55	0x3e6cd820	0.2312932
56	0xbc991e72	-0.018691275
57	0xbbf1b909	-0.0073767942
58	0x3d10ccf3	0.035351705
59	0xbd229ad2	-0.03969843
60	0x3cb8ec28	0.022573546
61	0x3d5f619c	0.054536447
62	0x3c426520	0.01186493
63	0xbc8215b1	-0.015879484
64	0xbc467449	-0.0121126855
65	0xbd03506a	-0.03205911
66	0xbbea8ea8	-0.007158119
67	0x3d4c51ac	0.049882576
68	0xbd0c7844	-0.03429438
69	0xbd9fa6b3	-0.07795467
70	0xbd935637	-0.071941786
71	0xbb07483e	-0.0020642425
72	0x3cb48ad7	0.02203886
73	0xbc3ca60f	-0.011514201
74	0x3d05fec6	0.032713674
75	0x3e3e5898	0.18588483
76	0xbd3e2d43	-0.046429884
77	0x3dc74c18	0.097313106
78	0x3bf9f536	0.0076281084
79	0xbe229363	-0.15876536
80	0xbe701e7f	-0.23449133
81	0x3d995250	0.07486403
82	0xbcfb64aa	-0.030687649
83	0xbdbba000	-0.09161377
84	0x3d88a7ef	0.06672656
85	0xbcdcdc12	-0.026960406
86	0xbc2de067	-0.010612584
87	0xbd0409d6	-0.032235943
88	0x3dc81a4a	0.09770639
89	0xbd404e71	-0.046949808
90	0x3df550af	0.1197828
91	0xbe0ac091	-0.13550021
92	0x3dd37c3e	0.10326432
93	0x3da8ea30	0.08247793
94	0x3d90abf0	0.070640445
95	0x3d348aad	0.044077564
96	0x3c2de543	0.010613742
97	0x3b3c4619	0.0028728305
98	0xbc5ae515	-0.0133602815
99	0xbcd63f1c	-0.02615314
100	0xbe908061	-0.28222945
101	0x3e482c8a	0.1954824
102	0xbd8d117e	-0.06888102
103	0x3cfe2837	0.031025035
104	0x3cefb0b4	0.029259063
105	0xbe80542f	-0.25064227
106	0x3e762dd3	0.24040918
107	0x3e0e5a34	0.13901597
108	0x3e00d931	0.12582852
109	0x3d336745	0.043799657
110	0xbe8bb424	-0.27285874
111	0x3eb8ffc2	0.36132628
112	0x3e1719cb	0.14755933
113	0x3d9ec362	0.0775211
114	0x3e2e7e41	0.1704035
115	0xbe935a8d	-0.28780022
116	0xbe88dc37	-0.2673051
117	0xbe725bbf	-0.23667811
118	0xbe744627	-0.23854886
119	0xbeb12320	-0.3459711
120	0xbe9db9eb	-0.30805907
121	0xbebafab9	-0.3651941
122	0xbea946c7	-0.3306181
123	0xbeb7181f	-0.3576059
124	0xbec27bbf	-0.37985036
125	0xbcf169d2	-0.029469404
126	0xbc8510ff	-0.016243456
127	0x3d15b48e	0.036549143
128	0xbd6d4882	-0.057930477
129	0x3dc29412	0.095008984
130	0xbc38993d	-0.011267004
131	0x3e6235b8	0.22090805
132	0x3cbb1a5c	0.022839718
133	0xbd2c4807	-0.042060878
134	0x3cda7175	0.026665429
135	0x3986a932	0.00025684532
136	0xbec4ba2d	-0.3842329
137	0x3cf94ed6	0.0304331
138	0x3d9bcc93	0.07607379
139	0x3dacfb71	0.08446396
140	0xbdda62b5	-0.10663358
141	0xbdabdb22	-0.08391406
142	0xbd86a62e	-0.06574665
143	0xbe2b5bca	-0.16734233
144	0xbdb9cfc9	-0.09072835
145	0xbd03010d	-0.031983424
146	0x3db571d7	0.08859604
147	0x3d56ade4	0.05241193
148	0x3d285b57	0.041102733
149	0x3dd07bb2	0.10179843
150	0xbe1ab2a7	-0.15107213
151	0x3d3ae793	0.045631003
152	0xbe16c41d	-0.14723249
153	0xbc6f7c42	-0.014617028
154	0x3e58bc0b	0.21165483
155	0x3e3237fe	0.17404172
156	0x3e16fe73	0.14745502
157	0xbe17ea2e	-0.14835426
158	0xbda9eea4	-0.0829747
159	0x3dea8ed3	0.11453023
160	0xbe2b1a25	-0.16709192
161	0x3dd05134	0.10171738
162	0xbd135591	-0.035970274
163	0xbd1e7163	-0.038682353
164	0xbd7e5d8b	-0.06210093
165	0xbd633207	-0.05546763
166	0x3ce47be2	0.027891103
167	0xbd3c74d9	-0.046009872
168	0x3d8b78f4	0.06810179
169	0xbd6d58c7	-0.057945993
170	0x3dc9530e	0.098302945
171	0xbca4fdbd	-0.020140523
172	0xbcab8879	-0.020939099
173	0xbd960405	-0.073249854
174	0xbd558746	-0.05213096
175	0x3e82b23c	0.25526607
176	0xbe3433b6	-0.17597851
177	0x3d443d71	0.047910158
178	0x3c8229b4	0.015889026
179	0xbd3cbec3	-0.046080362
180	0xbe729fa9	-0.23693718
181	0x3da648e1	0.08119369
182	0x3c4a3142	0.012340846
183	0xbbb7350f	-0.005591042
184	0x3c9433d5	0.018091122
185	0x3b058a89	0.0020376763
186	0xbc9a0038	-0.018798932
187	0xbd1d407c	-0.038391575
188	0x3b89e4f6	0.0042082025
189	0x3da8adb9	0.0823626
190	0xbd820f03	-0.063505195
191	0x3d684414	0.05670555
192	0x3d0a6a49	0.033792768
193	0x3c96783a	0.018367875
194	0xbe000dc1	-0.12505247
195	0xbc38058f	-0.011231794
196	0x3cda7c61	0.026670637
197	0xbacea37f	-0.0015765278
198	0xbbe4f474	-0.006987149
199	0x3cee6c89	0.029104488
200	0xbdb15c78	-0.08660215
201	0x3c86119f	0.016365824
202	0xbd17a8dd	-0.037026275
203	0x3d7ba47b	0.061436158
204	0x3cdc2417	0.026872678
205	0x3d703349	0.05864266
206	0x3c6abd7e	0.014327405
207	0xbd5066e8	-0.05087939
208	0xbd337871	-0.043816034
209	0x3ddc6255	0.10760943
210	0x3da6e53f	0.08149194
211	0x3b3b9aca	0.0028626197
212	0xbd5f9b30	-0.054591358
213	0xbc707f1c	-0.014678743
214	0x3e0edef9	0.13952245
215	0x3c0fd34f	0.008778407
216	0xbc190f94	-0.009342093
217	0x3dcce8ea	0.10005362
218	0xbd58dcc3	-0.05294491
219	0xbe091256	-0.13385901
220	0x3d52d43a	0.051471926
221	0xbd155148	-0.03645447
222	0xbb7b468b	-0.0038341607
223	0xbd278700	-0.04090023
224	0xbc01aede	-0.007915227
225	0x3d9c49cf	0.07631265
226	0x3df92994	0.121661335
227	0xbdfc7368	-0.123266995
228	0xbe052cb6	-0.13005337
229	0x3dc1bcb6	0.09459822
230	0xbe62cf87	-0.22149478
231	0x3c7c84ba	0.015412504
232	0xbd100f83	-0.035171043
233	0xbdef7155	-0.11691538
234	0xbcb9371b	-0.022609284
235	0x3d63835c	0.055545196
236	0x3e754ce8	0.23955119
237	0xbcfcaa5e	-0.030842956
238	0x3c3797d3	0.011205631
239	0xbc678551	-0.014130906
240	0x3dc51196	0.09622495
241	0xbe155955	-0.14584859
242	0xbda763a5	-0.081733026
243	0xbc9cddad	-0.019148672
244	0x3baaf8a9	0.005217631
245	0x3ccc3cef	0.0249314
246	0xbc379165	-0.011204098
247	0xbd0018a8	-0.031273514
248	0x3c49d93e	0.012319861
249	0xbc0ef148	-0.008724518
250	0xbcb33bad	-0.021879042
251	0xbdea68f2	-0.11445798
252	0x3c98f26e	0.018670287
253	0xbcc60ca6	-0.024175953
254	0x3d036856	0.032081924
255	0x3c88c828	0.016697004

linear.bias f4 [32]
0	0x3f04af46	0.51829946
1	0xbea11da8	-0.31467938
2	0xbecdf0ad	-0.40222684
3	0xbc8c8c6a	-0.017156798
4	0xbd0e3f60	-0.034728408
5	0x3da09923	0.078417085
6	0xbe51872f	-0.20461725
7	0x3dbcc77a	0.09217735
8	0x3c72c2fe	0.014816998
9	0xbd1f0832	-0.038826175
10	0xbbd1aa98	-0.00639851
11	0xbe861626	-0.26188773
12	0xbd80285f	-0.062577
13	0x3e24f41c	0.16108745
14	0xbe826aa2	-0.2547198
15	0x3da77d40	0.081781864
16	0xbd80f79c	-0.06297228
17	0x3e3d9be5	0.185165
18	0x3d257017	0.0403901
19	0xbf039c7e	-0.51410663
20	0x3d374617	0.044744577
21	0x3bb5d961	0.005549595
22	0x3bcf950a	0.0063349055
23	0xbdb9ee78	-0.090786874
24	0xbde28912	-0.110613
25	0x3d46aadf	0.0485028
26	0xbc3c94e2	-0.011510106
27	0x3e896291	0.26833013
28	0x3d2c07f4	0.041999772
29	0x3ceab2db	0.028649738
30	0xbe65fd0e	-0.22459814
31	0xbc997387	-0.018731846

critic_linear.weight f4 [1, 32]
0	0x3defba98	0.11705512
1	0xbab33d63	-0.0013674911
2	0xbdcd86f8	-0.10035509
3	0xbbcc38f9	-0.0062323776
4	0x3a56e295	0.00081972155
5	0x3bce4a8e	0.0062955087
6	0xbb2761fd	-0.0025540583
7	0x3aee4700	0.0018179119
8	0x3b382bac	0.0028102202
9	0x3ae78418	0.0017663268
10	0x3b0d8568	0.002159441
11	0xbbeb5fee	-0.0071830666
12	0xbad905ce	-0.0016557516
13	0xbc1d522e	-0.009602113
14	0xbaafb75c	-0.0013406086
15	0x3c26d519	0.010182642
16	0x3aa17159	0.0012317105
17	0x3ad34a0b	0.0016120089
18	0x3a9e4cf1	0.0012077374
19	0xbe20d4fe	-0.1570625
20	0x3c26c249	0.010178157
21	0xbbfe2d39	-0.007756856
22	0xbaa40638	-0.001251406
23	0xb9538c68	-0.00020174833
24	0x3c11beea	0.008895615
25	0x3c0eda45	0.008719032
26	0x3acb8da1	0.001552988
27	0x3c362724	0.01111773
28	0xbb43a7b1	-0.002985459
29	0x3add605b	0.0016889678
30	0x3b584f7d	0.0033006363
31	0x3adfd1fa	0.0017076128

actor_linear.weight f4 [6, 32]
0	0x3e6ce7df	0.23135327
1	0xbe570ebe	-0.21001717
2	0xbeb5e59e	-0.35526747
3	0x3c58b859	0.013227546
4	0x3c85507b	0.016273728
5	0x3ddfc1b9	0.109256215
6	0xbda1e45d	-0.07904885
7	0x3d8a1b5e	0.06743501
8	0x3ba4a26b	0.0050242445
9	0xbd530182	-0.05151511
10	0xbcfa91ff	-0.030587194
11	0xbde2212a	-0.11041482
12	0x3b2c92fa	0.0026332722
13	0x3e2eabd1	0.1705773
14	0xbe8df47f	-0.27725598
15	0x3e0cd186	0.13751802
16	0xbe22f04b	-0.15911977
17	0x3de8427b	0.11340805
18	0x3d23b9b6	0.03997203
19	0xbeb1d255	-0.34730783
20	0x3d1e3df8	0.038633317
21	0xbce4950e	-0.027903106
22	0x3b5d0c51	0.0033729265
23	0x3e012cf5	0.12614806
24	0xbc2777ef	-0.0102214655
25	0x3d60d86d	0.0548939
26	0x3e140589	0.14455236
27	0x3e58afb6	0.21160778
28	0x3c832bfc	0.016012184
29	0xbb83cd4e	-0.004022277
30	0xbe10dbd8	-0.14146364
31	0x3cf7b90d	0.030239606
32	0x3e96d620	0.2946024
33	0xbe7807e6	-0.24221763
34	0xbe982571	-0.29716066
35	0x3c4567ce	0.012048675
36	0x3c7729eb	0.015085678
37	0x3dd4a957	0.103838615
38	0xbdc7a211	-0.097477086
39	0x3d529bc2	0.051418073
40	0x3c50de94	0.012748379
41	0xbc9d3833	-0.019191837
42	0xba855f5c	-0.0010175514
43	0xbda0057b	-0.07813545
44	0x3d0faf49	0.035079274
45	0x3e55bdc6	0.20873174
46	0xbebaecab	-0.36508688
47	0x3e009e4a	0.12560382
48	0xbe1e3f9e	-0.15453956
49	0x3e087cc2	0.13328841
50	0x3d6cf3f1	0.05784983
51	0xbeb8b55f	-0.36075875
52	0x3d212c9b	0.03934918
53	0xbca883d7	-0.020570679
54	0x3b3a0f85	0.0028390598
55	0x3ddf6a76	0.10908978
56	0x3c4f27c8	0.012643762
57	0x3d74c567	0.05975857
58	0x3e2b4b37	0.16727911
59	0x3e7922f1	0.24329735
60	0x3c95270a	0.018207092
61	0xbc6e0e33	-0.014529753
62	0xbe164f84	-0.1467877
63	0x3bdf45ea	0.0068137543
64	0x3e575bf9	0.21031179
65	0xbe72c4c4	-0.23707873
66	0xbedbdf74	-0.4294392
67	0x3c535082	0.0128976125
68	0xbc3db099	-0.011577749
69	0x3de2de33	0.110775374
70	0xbde3b28c	-0.111180395
71	0x3d863417	0.06552904
72	0xbbd0e00c	-0.0063743647
73	0xbbc1c1b3	-0.0059129833
74	0x3caa71f9	0.0208063
75	0xbdca60c5	-0.098817386
76	0x3c967856	0.018367928
77	0x3e3a3d99	0.1818756
78	0xbe5ae368	-0.21375811
79	0x3de7aac5	0.113118686
80	0xbe397ca5	-0.18113954
81	0x3dce55f1	0.10074986
82	0x3d946d05	0.07247356
83	0xbe9d11d7	-0.30677673
84	0x3cbe95c9	0.023264783
85	0xbac61a80	-0.0015114099
86	0x3ca401f0	0.020020455
87	0x3d32827a	0.043581463
88	0x3c35a0d6	0.01108571
89	0x3d862cac	0.06551489
90	0x3d84e2f2	0.06488599
91	0x3e275f53	0.16344957
92	0x3ce8d360	0.028421104
93	0xbcff528e	-0.031167295
94	0xbe376e4d	-0.1791317
95	0xbcb2e8b0	-0.02183947
96	0x3e9b56f0	0.30339766
97	0xbe6a8f7e	-0.229063
98	0xbeba4c87	-0.3638651
99	0x3ca17bbd	0.019712323
100	0xbc433e4e	-0.01191671
101	0x3dc59de1	0.09649254
102	0xbd8ee6e8	-0.069776356
103	0x3d711718	0.058859915
104	0x3c665f1d	0.014060763
105	0xbc40248e	-0.011727465
106	0xbc5c0f46	-0.013431376
107	0xbe12bf3a	-0.1433076
108	0x3c9223f0	0.017839402
109	0x3e10deb5	0.14147456
110	0xbe442d9c	-0.19158024
111	0x3dfdb47c	0.1238794
112	0xbe210fa1	-0.15728618
113	0x3dccd838	0.10002178
114	0x3d25991e	0.040429227
115	0xbe6963af	-0.22791933
116	0x3d256ecf	0.04038888
117	0xbcab059d	-0.0208767
118	0x3c5f70f1	0.013637767
119	0x3e257536	0.16157994
120	0x3c563c89	0.013075956
121	0x3dbbc627	0.09168654
122	0x3e2db32f	0.16962884
123	0x3ea4d625	0.3219463
124	0x3c255ebf	0.01009339
125	0xbcb72263	-0.022355264
126	0xbe0b4da1	-0.13603832
127	0xbc95a554	-0.018267311
128	0x3ea5fe51	0.3242059
129	0xbe689b70	-0.22715545
130	0xbec28dca	-0.379988
131	0x3d4194c8	0.04726103
132	0xbcbe1322	-0.023202483
133	0x3db17ffb	0.086669885
134	0xbdc0818c	-0.09399709
135	0x3d8e69e3	0.0695379
136	0x3bacd461	0.005274341
137	0xbcf2c0e4	-0.029632993
138	0xbc435a3d	-0.01192337
139	0xbe4738fa	-0.19455329
140	0xbbedbc10	-0.007255085
141	0x3e3bfb90	0.18357682
142	0xbe87a356	-0.26491803
143	0x3dfd7334	0.12375489
144	0xbe241bc3	-0.16026215
145	0x3dc653ab	0.09683927
146	0x3d0cd296	0.034380518
147	0xbe9c13df	-0.3048391
148	0x3d05f5a2	0.032704957
149	0xbb499f0e	-0.003076497
150	0x3c7743fa	0.0150918905
151	0xbc8360e5	-0.016037414
152	0xbce75bfd	-0.028242106
153	0x3d9f8c6b	0.077904545
154	0x3daced8c	0.08443746
155	0x3e082179	0.13294019
156	0x3d2ce24b	0.042207997
157	0xbcaa9b24	-0.02082593
158	0xbe11594c	-0.1419422
159	0xbbae4462	-0.0053182105
160	0x3ebb9e13	0.3664404
161	0xbe7935d6	-0.24336943
162	0xbe54a48e	-0.20765898
163	0x3c8ebf4d	0.017425204
164	0xbba459e1	-0.005015597
165	0x3da0ea38	0.07857174
166	0xbd9d4e29	-0.076809235
167	0x3d93cfac	0.07217345
168	0x3bbee144	0.0058251936
169	0xbd294266	-0.041323088
170	0xbbfed141	-0.00777641
171	0xbdfff5a3	-0.12498023
172	0x3ca537f9	0.020168291
173	0x3e345b66	0.1761299
174	0xbe432458	-0.19056833
175	0x3de6cb3e	0.11269234
176	0xbe396dfd	-0.18108363
177	0x3dd9ba36	0.1063122
178	0x3d6b714f	0.057481106
179	0xbeadc4fe	-0.33939356
180	0x3ce38976	0.027775507
181	0x3c1f6e0b	0.009730826
182	0x38d5d201	0.00010195748
183	0x3dffe465	0.12494735
184	0xbb97134e	-0.0046104556
185	0x3dc4e7fb	0.09614559
186	0x3e35e388	0.17762578
187	0x3eb4404b	0.35205302
188	0x3cdaec6d	0.026724065
189	0xbd28b402	-0.041187294
190	0xbe0f6772	-0.14004305
191	0x3abe39f3	0.001451312

actor_linear.bias f4 [6]
0	0x3c1f31b4	0.00971644
1	0x3e9bb8ba	0.30414373
2	0x3e6eaaca	0.23307338
3	0x3e155b5a	0.14585629
4	0x3e4e1d62	0.20128396
5	0x3e8b4691	0.27202275
