spaceinvaders-v0-bottom-7fskip_latent32/model.26.tar (torch, 223035 bytes, 13 tensors)

conv1.weight f4 [32, 4, 3, 3]
000000 0d e8 fd bc 07 d8 ea bd ec 17 6c bd b0 1e 52 3d
       -0.03099444 -0.11466985 -0.05764 0.051298797
000010 23 0d 92 be bf bd 2f 3c 06 d8 c0 3d 46 55 78 3d
       -0.28525648 0.010726391 0.09416203 0.060628198
000020 2b 1a 56 3c 88 70 98 bd 50 29 a6 3d 37 1f 0e 3d
       0.013067762 -0.07443339 0.081133485 0.034697738
000030 ed 4d 16 3d 38 e5 82 3b 37 85 1e bd 58 c4 68 3d
       0.03669541 0.00399461 -0.038701262 0.056827873
000040 93 ac eb 3d 01 10 c6 3c e5 73 23 3d 2d 5e 5b 3d
       0.11507525 0.024177553 0.039905448 0.05355661
000050 da 64 10 bc 1d 36 a6 bd 2a f1 70 3b 34 af 46 bd
       -0.008813107 -0.0811579 0.0036764839 -0.04850693
000060 01 e6 66 3d 3f 37 06 3d ce 8f 01 3e d4 4b 13 3e
       0.056371693 0.03276753 0.12652513 0.14384395
000070 2a d1 8a be 07 8d de 3d 80 a9 9a 3d d5 ca 69 3e
       -0.27112705 0.108667426 0.07551861 0.2283128
000080 9b db 25 3e 07 82 8f be c8 5d 0d be 47 ec 21 be
       0.16197054 -0.2802889 -0.13805306 -0.15812789
000090 1b 99 23 3d ce 7e 6e bd 0e e2 0b 3e 03 64 9b bd
       0.039940935 -0.0582264 0.13660452 -0.07587435
0000a0 bb 0f a4 3d f2 ee 78 bb e4 36 29 3e ec 9b 3b bd
       0.08010813 -0.003798422 0.16524845 -0.045802996
0000b0 f6 16 d1 bd c0 bf 9d 3c d9 76 e5 bd c4 c5 b1 3c
       -0.102094576 0.019256473 -0.11204309 0.021700747
0000c0 28 ac 3b bd d2 f6 0a bb 17 6a b7 bd a8 8d 5b bd
       -0.045818478 -0.0021204245 -0.08955782 -0.05360189
0000d0 64 6c ca 3d 94 91 27 3c 24 2f c0 3d 2b 5f 1d 3e
       0.09883955 0.01022758 0.09383991 0.15368335
0000e0 e9 7b 93 3c 89 0f b4 bd 3d 8a 56 3d 11 cc b7 3d
       0.01800342 -0.087920256 0.052377928 0.089744695
0000f0 d0 9e 86 bd 9e a4 2c 3d 59 ca 48 3d 9c 47 9e 3e
       -0.0657326 0.04214918 0.0490211 0.3091401
000100 8f 35 6f be 48 cd a5 bd 35 c7 2e 3c ee c2 c7 bd
       -0.23360275 -0.08095795 0.010667612 -0.09753977
000110 8e 65 71 bd 6b af a5 be 26 83 41 3e bd e4 2a bd
       -0.05893474 -0.32360396 0.18897685 -0.041722048
000120 de 49 df 3d ab f6 52 bd dc e1 49 3e 4c c4 af bd
       0.10902761 -0.051504772 0.19715065 -0.085823625
000130 57 13 8f 3d fd 98 46 3e 82 48 6a be fe c7 fa bc
       0.06986111 0.19394298 -0.22879222 -0.030612942
000140 4a 3b a5 bd ec 4a 01 be 96 a6 d6 3c 9d 48 5f 3c
       -0.08067949 -0.12626237 0.026202481 0.013628152
000150 ed 15 6e bc ce 41 0a be 35 7c 7d bd 17 8c f8 3d
       -0.014531595 -0.13501665 -0.06188603 0.12136095
000160 dd 96 cf bd b3 7d 29 3e 77 87 c7 3d ad a0 b2 bc
       -0.10136197 0.16551857 0.09742635 -0.021805132
000170 3c 8d e7 3d 5e bb 8a 3c 42 60 07 be d0 15 03 bd
       0.11306235 0.016935047 -0.13220313 -0.032003224
000180 79 b9 08 3e c8 ab 00 3d 14 8e c7 bd ce 38 d9 bc
       0.13352002 0.031413823 -0.09743896 -0.026516344
000190 c6 1e 17 3e 15 07 29 be 7d 0a bf 3d eb 02 26 bd
       0.14757833 -0.16506608 0.09328172 -0.040530127
0001a0 d9 e4 52 be ac 81 ac bd dc ad 8f 3e b2 5b 1b 3d
       -0.20595111 -0.084231704 0.28062332 0.037929244
0001b0 fa af 23 3e d1 3b 8e 3d 83 74 07 3c d4 7b 26 3e
       0.15985098 0.06945003 0.008267525 0.16258174
0001c0 52 10 8a 3e 1e 69 a8 bd a0 17 08 3e de 35 94 3e
       0.26965576 -0.082231745 0.13290262 0.28947347
0001d0 99 bd a4 3d f1 26 8e 3d de 2e 53 be 75 d3 18 be
       0.080439754 0.06941021 -0.20623347 -0.14924414
0001e0 45 88 f4 bd 6f 11 ca bc 27 0a 22 3e b3 f4 4d bd
       -0.11940054 -0.024666516 0.15824185 -0.05028219
0001f0 b0 e9 8a 3d 81 2d 10 be 79 31 be bd 55 8c 1c bd
       0.067828536 -0.14079858 -0.0928678 -0.03821977
000200 f4 ce d3 3d 9f 1c 1f 3e 45 22 1a be 90 fd 02 3d
       0.103422076 0.15538262 -0.15052135 0.031980097
000210 6f 12 1c 3e 2f 39 e2 3d fc 43 6a 3d c7 04 83 3d
       0.15241407 0.11046063 0.05719374 0.063973956
000220 03 0e d8 3b b2 df fb 3d e7 82 2d be a3 53 de be
       0.006593467 0.12298526 -0.16944467 -0.43423185
000230 3d dd 14 be f6 dc d3 bc f8 40 43 be ed e1 12 bc
       -0.1453752 -0.025862198 -0.19067752 -0.008964998
000240 44 96 7e bd b7 6f bf bd 43 e5 50 3e 74 15 2d 3d
       -0.062155023 -0.0934748 0.20399956 0.042256787
000250 15 9c 70 3d 48 bf 6a 3c 15 09 e1 bc 8f 08 82 3e
       0.0587426 0.014327832 -0.027470151 0.25397155
000260 b5 69 b3 bd 84 07 ab bd 87 e0 34 be b8 62 d1 bd
       -0.087603964 -0.08351043 -0.17663775 -0.10223907
000270 bd a3 d9 bd 31 b9 21 bd 5c 5a 91 3c 27 c0 04 bd
       -0.10626934 -0.039483253 0.017743282 -0.032409813
000280 f8 01 34 bd 5b 51 f0 3a 7d de 82 bd df 12 83 3d
       -0.04394719 0.0018334793 -0.063900925 0.06400084
000290 4b b9 b3 bd 5a 0b 15 bd 16 4f c7 bd 80 ce bd bd
       -0.08775576 -0.03638778 -0.09731881 -0.092679024
0002a0 4e fd 8d bd 06 89 99 bd 03 bf f2 bd af 1a 2a 3e
       -0.0693308 -0.07496838 -0.11852839 0.16611741
0002b0 c0 e8 b4 3d 5d 69 5d bd 71 7c 07 3e 0d b8 54 3e
       0.08833456 -0.05405556 0.13231064 0.20773335
0002c0 5f 89 38 3e b9 af 01 3d 17 cf 30 be 90 e3 47 3e
       0.18021153 0.031661723 -0.17266499 0.19520402
0002d0 5c e5 06 be 6e 8b 1b be f8 52 6d be 6c 96 c9 bd
       -0.13173431 -0.15189907 -0.23176181 -0.09843144
0002e0 db d8 a8 be d3 42 8b bc ce 23 7f be 53 e9 9f be
       -0.32977948 -0.016999638 -0.24916002 -0.312327
0002f0 17 2b 21 be eb b2 61 bd a2 ef 5d 3d 28 6f 87 bd
       -0.15739094 -0.05510227 0.05418361 -0.06612998
000300 74 e8 bd bd 6a dd 8a bd 00 77 6a 3d e8 9c 01 be
       -0.092728525 -0.06780513 0.057242393 -0.12657511
000310 ec 71 25 3d e9 9a 00 3d 45 92 3b 3e 57 35 93 bd
       0.040391847 0.031397734 0.18317516 -0.07187908
000320 35 26 a6 3d d8 7f 15 be 5e ca da 3d 6c 72 c7 bd
       0.08112756 -0.1459955 0.1068313 -0.09738621
000330 bc 65 dc 3d 32 5b a7 3c 63 35 53 bd b6 89 f4 3d
       0.10761592 0.020429228 -0.051564585 0.11940329
000340 84 ea 4a 3e 06 ce 6a 3e af a9 a6 3c 2b 5d fa 3d
       0.19816023 0.22930154 0.020344583 0.12224802
000350 0d 35 a0 bd a5 2d 2e 3e ac 37 89 3e 40 0c 7d 3e
       -0.07822619 0.170096 0.26800287 0.24711704
000360 6c 25 88 3e 7f 52 05 bc f9 a1 dc 3c 93 bd 5a 3e
       0.2659105 -0.008137344 0.026932703 0.2136138
000370 07 98 39 bc 02 93 42 3e 5f aa 43 be cc b6 87 be
       -0.01132775 0.19001392 -0.1910796 -0.2650665
000380 88 06 4f 3d 4b e7 04 bd 32 40 e6 bc 50 ae 4a 3e
       0.050543338 -0.03244714 -0.028106783 0.19793057
000390 02 e6 d3 3d e5 ab 02 3e 22 57 93 3c 15 13 21 be
       0.10346605 0.12760885 0.017985884 -0.15729935
0003a0 ac b6 9a 3d 49 96 a3 bd a1 dc d6 3b bf 21 82 3d
       0.07554373 -0.07987649 0.0065570627 0.06354093
0003b0 8b 4d b7 bc 11 63 f2 3d ef 06 84 3d 03 71 67 bd
       -0.022375843 0.11835302 0.06446635 -0.05650426
0003c0 dd 55 07 be ed 1d c6 bc 02 4f 68 3d b0 61 c6 bd
       -0.13216348 -0.024184192 0.056715973 -0.09686601
0003d0 f7 03 87 be f7 73 ce bd 59 65 43 be 97 3a 60 be
       -0.26370212 -0.10080712 -0.1908163 -0.2189735
0003e0 a5 4c 05 be 6a fe 69 3e ac f8 9f 3e 5c 0a 3c 3c
       -0.13017519 0.22850958 0.3124441 0.011477079
0003f0 95 a0 d4 bd 00 e9 89 bd 4d e3 7a bd fc 78 7f be
       -0.10382191 -0.06733894 -0.061251927 -0.24948496

conv1.bias f4 [32]
000000 2d 69 c7 3b 75 1c eb ba 7c fb 03 3b 91 09 24 bc
       0.006085536 -0.0017937558 0.002013891 -0.010012046
000010 6a ee 2c 3b a7 28 e5 3b 97 16 52 bb b4 18 c2 bb
       0.0026387223 0.0069933715 -0.0032056922 -0.005923355
000020 09 3d 33 bb 8b 1a 33 3c 67 2b 6f 3c bb ad 04 bc
       -0.0027349612 0.010931621 0.01459775 -0.008098061
000030 f8 3b 02 bb 21 fc cf ba 72 64 a5 bb 39 ae b1 3d
       -0.001987217 -0.0015867987 -0.0050473744 0.086758085
000040 f9 9d 06 bb e2 9e 3e ba ba 28 55 3d 98 a4 83 3b
       -0.0020540936 -0.00072716 0.052040793 0.004017424
000050 28 13 8f 39 be c5 d3 ba a3 c4 18 3a 7a 66 45 ba
       0.00027289358 -0.0016156954 0.0005827641 -0.0007530224
000060 49 4d 65 39 e7 06 02 3c 13 c5 6c 3a d0 7d 3b bc
       0.00021867933 0.007936216 0.0009032052 -0.01144357
000070 dd 2b e5 bb 43 c4 63 bc a5 0b ea 3b b8 c1 e8 3b
       -0.0069937543 -0.013901773 0.0071425014 0.007103171

conv2.weight f4 [32, 32, 3, 3]
000000 29 a5 92 bd cd 17 74 bd 84 28 ff 3d bb ee 43 3e
       -0.07160408 -0.05959301 0.124588996 0.19134037
000010 62 41 8f 3e 39 94 11 be d4 8f 1d bd 89 fc eb bd
       0.2797957 -0.14216699 -0.038467243 -0.11522777
000020 22 ce 6e bc a1 06 73 bc 78 b0 3f be 4c 98 9d bc
       -0.014575513 -0.014833123 -0.18719661 -0.01923766
000030 db c9 8f 3d 92 62 1a 3e 08 bb 85 bc 81 b3 d1 3d
       0.07020923 0.15076664 -0.016324535 0.10239316
000040 12 e4 e8 ba fe ed b3 bc 55 c7 56 bc cc 18 45 be
       -0.0017768166 -0.02196407 -0.013109048 -0.1924774
000050 37 fd 78 bd c1 a5 1e bd ec f1 d7 bd e2 1f 25 3e
       -0.06078836 -0.038732294 -0.1054419 0.16125444
000060 8e 0e 2b 3d 8d 53 af 3c 6e b3 3b 3b 32 06 dd bc
       0.041761927 0.021402145 0.0028640884 -0.026980493
000070 2d 96 17 be 64 57 af bd da 1d e9 bd 60 b8 6c be
       -0.14803381 -0.0856159 -0.11382647 -0.23117208
000080 d9 29 23 bd dc 9c ff 3c 98 da 14 3c 04 b2 42 bb
       -0.03983483 0.031202726 0.00908532 -0.0029708156
000090 fc 5c 67 bc ae 2f 26 3d df 92 2c 3d 3f 28 28 3e
       -0.01412129 0.040572815 0.042132255 0.16421603
0000a0 22 5c f2 3d f2 e2 d1 bc 30 bb 38 be 10 b0 89 be
       0.11833979 -0.025620911 -0.18040156 -0.26892138
0000b0 ca 64 40 3c 37 f5 17 3e 63 e4 88 3b 71 9d 25 be
       0.01174278 0.14839636 0.0041776164 -0.1617334
0000c0 59 0d 77 bc e2 25 e8 bd 27 fc 8e bd aa 5c d3 bd
       -0.015078866 -0.113353506 -0.06981688 -0.10320409
0000d0 6d d0 d7 3c b1 60 c6 3c f2 24 7a 3d 90 3b e0 bc
       0.026344502 0.024216028 0.06107039 -0.027372152
0000e0 79 8a 9f bd 77 ef 0b be 86 1c fd 3c 74 13 ef 3d
       -0.077900834 -0.13665567 0.03089739 0.11673632
0000f0 7c 8d 93 3c 02 e7 d5 3b c7 64 a1 bd b4 cf 84 bd
       0.018011801 0.0065277824 -0.0788055 -0.06484929
000100 19 b3 17 bd ce 26 9d bd 8a 12 c8 3d 6d 25 78 3d
       -0.037036035 -0.07673417 0.09769161 0.060582567
000110 96 2f 1a be a7 14 d9 bc 61 da b5 bd 6a 09 4b 3e
       -0.15057215 -0.026499106 -0.08879543 0.1982781
000120 c1 10 a0 bd 87 f4 35 3e 35 78 2b 3e 56 27 01 3e
       -0.078156956 0.17769061 0.16745074 0.12612662
000130 f9 f4 73 3d 09 88 e0 bb 3c df 16 be 98 18 58 be
       0.059559796 -0.006852154 -0.14733595 -0.21103132
000140 66 97 4c 3d 85 04 d4 3d 3b 1b a6 3c c4 33 cf bc
       0.049949072 0.103524245 0.020276656 -0.025293238
000150 9e c3 0b bd 99 23 bb 3d 8c 64 3c bd 13 7c 29 be
       -0.034122102 0.09137649 -0.045994326 -0.16551237
000160 2e 10 bd 3d bd ca f8 3d 01 d6 a0 bd 28 7a ee bc
       0.09231602 0.12148044 -0.07853318 -0.029110983
000170 41 7a e2 bb 15 41 f9 3d e8 58 9f 3e 37 6f a2 bd
       -0.0069115465 0.121706165 0.31122518 -0.07931369
000180 31 fe b7 bd 00 b4 03 3c d3 80 55 bd 9d 5b a6 3d
       -0.0898403 0.008038521 -0.05212481 0.081229426
000190 2b 6d ef bc d4 55 bb bc f1 b9 02 3e 21 5d 6b bc
       -0.02922686 -0.022868074 0.12766244 -0.014365465
0001a0 57 b7 fa 3d db e2 66 3d 39 ad ce bd 6b 7a d8 bd
       0.122420006 0.05636869 -0.10091633 -0.105702244
0001b0 7e 50 5c bd 39 e9 9c 3d 68 7a 76 3d 1a 4a 8d 3e
       -0.0537877 0.07661671 0.06017533 0.27595598
0001c0 cd 18 07 3e 71 91 a6 3b 12 d8 bc bc 93 fd 78 be
       0.13193054 0.005083256 -0.02305225 -0.24315481
0001d0 d6 cc b4 bc 84 48 8d bd 5f a0 b4 3d b5 ab 37 3e
       -0.02207033 -0.06898597 0.08819651 0.17936595
0001e0 a7 fa df 3d 1c 10 73 3d 47 ae a0 bc 7e aa af 3d
       0.1093648 0.059341535 -0.019614352 0.08577441
0001f0 9d 33 d2 bd fc 72 26 3c 5c 3d 09 bd 6d 7d 88 bd
       -0.10263751 0.01015925 -0.033505782 -0.06664548
000200 dd 6b 04 be a6 83 90 3b 09 86 91 bc 5c cb 0a 3d
       -0.12931772 0.004410225 -0.017764108 0.033885345
000210 c0 9e a6 bc 77 ed fe bc cf 60 26 bd f0 8b a1 bc
       -0.02033937 -0.031119091 -0.040619668 -0.019720048
000220 c2 88 9d bd b2 48 91 bd 6a ec fd 3b e7 e6 da 3d
       -0.076921 -0.07093944 0.00774913 0.106885724
000230 fc c5 ee 3d 3a 72 90 3c 23 2b 8d bd 0d 79 7f bd
       0.11658856 0.017632592 -0.06892993 -0.062371302
000240 14 a8 6b bc 3b b7 b8 bd e8 8e bd bd d8 c6 84 3d
       -0.014383335 -0.090193234 -0.09255773 0.06483239
000250 94 ab c3 3c 39 dd c1 bc 47 d9 a3 3d f9 ef 1f 3d
       0.023885526 -0.023665057 0.08000427 0.039047215
000260 92 b5 6e 3d c2 76 e6 bd be f1 ae 3d 79 53 99 3d
       0.058278628 -0.1125312 0.085422024 0.07486624
000270 18 ca 2c 3c 07 20 22 3e 82 27 2d 3c bb 95 7d 3c
       0.01054623 0.1583253 0.010568501 0.015477593
000280 4d a9 95 bd e9 17 f5 bd ba 31 fd 3b cb 44 03 bd
       -0.07307682 -0.11967451 0.007726875 -0.032048028
000290 b0 8b 22 bd 93 06 3f bb 2a 8d 9f 3d 30 37 03 3e
       -0.039683998 -0.0029148206 0.07790597 0.12814021
0002a0 55 60 6b bd c9 dc a9 bd 27 72 1d 3d 27 fb b3 3d
       -0.057464916 -0.082940646 0.038438942 0.08788138
0002b0 9e e2 4d bc 8f d6 03 ba 0b 9a 90 3d e3 0e a5 bc
       -0.012566237 -0.0005029225 0.07060631 -0.0201487
0002c0 af 43 df 3d c3 c1 b5 bd 77 b6 04 be 11 3e 45 3d
       0.109015815 -0.08874848 -0.1296023 0.048154894
0002d0 97 98 aa 3c b8 74 62 bd ab d7 f4 3c 24 b9 e0 3d
       0.020824714 -0.055287093 0.029887995 0.10972813
0002e0 d3 b6 2b 3e fd 28 0a 3c 3e 7d 24 3c 4a 81 f4 bc
       0.1676896 0.008432624 0.010039626 -0.029846806
0002f0 90 cb b8 bd 3d df cd 3d 48 bf 02 3d fb d6 0e bd
       -0.090232015 0.10052345 0.0319207 -0.03487299
000300 3e ac c8 bd 9c eb 79 bd 45 fd e8 3c 0a 5b b4 3d
       -0.097984776 -0.06101571 0.02844108 0.08806427
000310 af 2a c0 3b 52 04 c5 ba 5a ea 5d bd 9b e5 a1 bc
       0.0058644633 -0.0015031195 -0.054178573 -0.019762805
000320 c3 1c aa 3d 46 00 c4 ba 95 0d 0f bd 71 5f 89 bc
       0.08306267 -0.0014953695 -0.034925062 -0.016769143
000330 f2 c4 81 38 60 0b 27 bc 0f 89 1b 3c 98 77 d0 bd
       6.187883e-05 -0.010195583 0.0094931265 -0.10179061
000340 53 aa 3c bd 89 2f 1c 3e 5d 87 11 be bb f0 09 bc
       -0.04606087 0.15252508 -0.14211793 -0.008419211
000350 9e a9 ca bd 10 20 81 3d 00 08 a7 3d 71 be 31 bd
       -0.09895633 0.063049436 0.08155823 -0.04339451
000360 8a a4 28 3d 62 45 9f 3d 7c 32 90 3d 62 7d 32 bd
       0.04117254 0.077769056 0.07040879 -0.043576606
000370 b2 b6 dd bd be fc ed bd d3 d2 34 3d f0 2f 17 be
       -0.10825862 -0.11620472 0.04414637 -0.1476438
000380 cb 7a 21 be 11 09 af 3d d6 60 3e 3d 8c 3b 3e bc
       -0.15769498 0.08546651 0.04647907 -0.011610877
000390 93 f8 6c 3c d7 c0 de bd 2a 55 b3 bd 8c d7 2e be
       0.014463562 -0.10876625 -0.08756478 -0.17074412
0003a0 e1 78 0b be 2f b1 ad 3d c3 12 be 3c da ff 0a bd
       -0.1362033 0.08481061 0.023202306 -0.033935405
0003b0 68 ff a0 bc 8b d0 01 bb 65 0f 02 3d 46 77 5f be
       -0.019653037 -0.001980814 0.031752963 -0.21822843
0003c0 a2 52 41 be eb 6e 0c 3e 52 12 a4 3d 91 5f 5b 3e
       -0.18879178 0.13714187 0.08011307 0.21423174
0003d0 de 60 46 be 8c 3d 04 be 1d 39 b4 bd 0b fb 55 be
       -0.1937289 -0.12914103 -0.08799956 -0.20896547
0003e0 96 54 9e bd b1 06 d5 3d e4 53 10 3e cb 63 bf 3d
       -0.07730977 0.10401667 0.14094502 0.09345206
0003f0 24 66 3b 3d 6f 7a 05 3e bf f5 18 bc 3d 99 90 be
       0.045751706 0.13034986 -0.009335934 -0.28241912

conv2.bias f4 [32]
000000 a6 4d d8 bc 64 ab 81 bc a9 3c d8 bb a1 66 84 bc
       -0.026404213 -0.015828796 -0.006599028 -0.016162219
000010 a1 5f af bc b4 50 36 3a 2c 59 87 bc 2d 8f 2a b9
       -0.021407904 0.0006954775 -0.016522013 -0.000162658
000020 44 0f 21 bb a8 82 de bc 0f 74 e7 3a 32 79 2c bc
       -0.002457575 -0.027161911 0.001765849 -0.010526942
000030 2a 00 66 3b c3 1d ba bb 18 07 18 bb b0 b6 f1 3b
       0.0035095313 -0.0056798174 -0.0023197588 0.0073765144
000040 76 df 16 3b 5c 7b 00 3c ac cc c4 ba 12 b0 8b 3b
       0.0023021377 0.007841911 -0.001501461 0.0042629326
000050 40 2e 03 bb 9a 9c d1 ba 58 84 53 3b 6f f8 8b 3b
       -0.002001658 -0.0015992105 0.0032274928 0.004271559
000060 7e af 4d 3c 8f 61 27 3c 66 df 13 bc 09 89 b1 bc
       0.012554048 0.010216131 -0.00902543 -0.021671789
000070 37 02 5d 3b e3 5a 93 bb 1a cf 17 3c f3 69 67 3a
       0.0033723244 -0.0044969185 0.009265685 0.00088277383

conv3.weight f4 [32, 32, 3, 3]
000000 7f cb 5e bd c3 3a ae 3c b8 8b 82 bd 07 a3 16 3e
       -0.054393288 0.021268254 -0.063743055 0.14710627
000010 50 54 bc 3d e6 28 24 3e 44 af 8b bc 7b c0 fe bb
       0.09195769 0.16031227 -0.017051347 -0.0077744103
000020 5d 9e 99 bc c2 4e c5 3d 23 0b b6 bd 62 bf d0 bc
       -0.018752271 0.096341625 -0.08888843 -0.025481883
000030 86 52 2a be aa 2f 14 bd 75 c5 44 3d 9c b9 06 3e
       -0.16633043 -0.03617827 0.048039872 0.13156742
000040 32 40 8e bc d0 61 74 bc 2d 92 5c 3d 10 5c 41 bd
       -0.017364595 -0.014915898 0.05385034 -0.04720694
000050 4b 1c 63 3d ad 5b b5 bc 67 7d cf bd bc ca 49 3b
       0.055446904 -0.022138441 -0.101313405 0.0030791005
000060 b2 87 1b 3e 86 e6 2d 3d 44 d2 2c 3c df 36 f6 bb
       0.15188482 0.042456172 0.010548178 -0.0075138654
000070 f1 8c b2 bc f9 14 5b bd 3c 0b 4e bd 1c fa 10 3c
       -0.021795722 -0.053486798 -0.050303683 0.008848693
000080 07 6b 00 be cb d9 c0 3d 19 59 05 bd f1 f0 e6 3d
       -0.12540828 0.09416541 -0.032555673 0.11276425
000090 c1 d1 b7 bb fd 2a a4 3c f5 b1 fe bd d2 70 d2 3d
       -0.0056097214 0.02004003 -0.12436286 0.10275425
0000a0 61 e0 79 3d c6 71 2c 3b fb 3e 02 3d 2c e0 62 3d
       0.061005 0.0026312931 0.031798344 0.05538957
0000b0 87 34 14 be 2e 48 1f bc 49 21 db bc 4a 37 0b be
       -0.14473163 -0.009721799 -0.02674927 -0.1359531
0000c0 31 16 00 3e 31 de ee 3d cf 7f 0e bb 2e ac 51 bd
       0.12508465 0.116634734 -0.002174366 -0.051189594
0000d0 d7 45 6f bd ef e5 80 3c 0b 57 1d bd 78 9b 4e bd
       -0.058416214 0.01573464 -0.03841309 -0.050441235
0000e0 26 1c 00 bd d3 91 c1 bc a3 1f f4 3c 68 61 f3 3d
       -0.031276844 -0.023629105 0.029800242 0.11883813
0000f0 9b a3 bf bd 54 bf b6 3c 2d b4 b6 3d a3 1b 3d bd
       -0.09357377 0.02230803 0.089210846 -0.046168935
000100 d1 a2 de bd 8f 32 9f 3c 8f 11 58 3e f3 6e c4 bd
       -0.108708985 0.019433288 0.21100448 -0.095914744
000110 bd 30 9f 3b 3f 3c 51 bd a8 9d 9c bc 8a 4d b8 3d
       0.004858105 -0.051082846 -0.019118145 0.089991644
000120 1a 2e e1 bc 42 5f 95 bd 0a 5d e2 bb 8c 35 b0 bd
       -0.027487803 -0.072935596 -0.006908064 -0.08603963
000130 6a 77 1e bd de f8 2f 3b f0 93 62 3d 58 31 98 3d
       -0.0386881 0.0026851217 0.055316865 0.074312866
000140 97 8b 7c bd ac 4f 99 3c f3 84 4d bd ac 32 d3 bd
       -0.06165656 0.018714748 -0.05017562 -0.10312399
000150 39 9f c6 bd 1a 23 fd 3c 67 b0 37 bd bd 0e a6 3d
       -0.09698338 0.030900527 -0.044845965 0.0810828
000160 cb 52 a1 3b 71 87 84 bd 02 7d 0a 3c 74 8e a5 bc
       0.0049232 -0.06471146 0.008452656 -0.020209529
000170 9a 53 6a 3d 36 eb 43 3e 79 13 96 3d 76 19 df bc
       0.057208635 0.19132695 0.07327933 -0.02723382
000180 c6 05 17 bd a1 c3 b8 bd 91 cc bb bd b8 42 23 3c
       -0.03687074 -0.09021688 -0.09169877 0.009964637
000190 4f d2 61 3d b7 7f 60 3d 0b 91 a2 3d 0b 28 01 3d
       0.055132207 0.0548093 0.07937821 0.03153233
0001a0 d2 30 fe bb c2 ef 93 3c 41 45 dc 3d 7c 37 82 bd
       -0.0077572847 0.018058661 0.10755397 -0.06358239
0001b0 87 18 bb 3c 6b 41 a8 3c e9 68 4b 3d 5a 7b c9 bd
       0.022838844 0.020539006 0.049660597 -0.098379806
0001c0 4c dd a6 bd 6a be 87 bd f7 05 ea bc 58 fb 9b 3c
       -0.08147678 -0.066281155 -0.028567297 0.019040748
0001d0 bb 0c 1e bd a2 87 10 3d b8 e0 0e bd 10 b6 e9 3c
       -0.03858636 0.0352856 -0.034882277 0.028529197
0001e0 14 96 be bc 12 5d 02 bd 95 22 d9 bd ff 7e c9 3d
       -0.023264922 -0.03182704 -0.10602299 0.09838676
0001f0 89 79 99 bd 00 d8 f3 3d d7 58 94 3d 70 22 c3 3d
       -0.07493884 0.11906433 0.07243507 0.09528053
000200 c6 d1 b2 bd 31 85 56 3c 29 6a a9 3d 86 e0 3b bc
       -0.08731417 0.013093279 0.082722016 -0.011467105
000210 82 19 d8 3d b2 96 b6 3d ee 69 37 3d 1b fc ea 3c
       0.1055174 0.089154616 0.044778757 0.028684666
000220 a3 4c d7 bd 3a 1b 43 bd d3 21 b7 bd d7 ee cf bc
       -0.10512664 -0.047633387 -0.08941998 -0.025382442
000230 17 d8 f5 3d 6d 69 f4 3c 50 ed 86 bc 8c f9 76 bd
       0.120041065 0.029835427 -0.016470581 -0.06029658
000240 72 4b ec 3c 54 0e bc bd 1d c8 6c 3d 14 50 b2 bd
       0.028844569 -0.091824204 0.05780803 -0.0870668
000250 15 fd 2c 3d 30 ab 8d bd a0 e3 8e 3d 65 5d c1 bd
       0.042233545 -0.06917417 0.0697701 -0.09441642
000260 6f b5 5e bd c2 aa 1f be ed f8 8d bd 24 36 70 3d
       -0.054372247 -0.15592483 -0.069322444 0.058645383
000270 b2 2c 5d bc 9c de f4 bc da 3d 58 3d a5 16 c4 bd
       -0.013499426 -0.029891305 0.05279336 -0.095746316
000280 ba e8 93 3d 68 a3 1e bd a5 0c bc bc 9e cd b1 bc
       0.072221234 -0.038730055 -0.022955248 -0.021704491
000290 2e aa 3b 3d 6b c8 31 3d 1d 4d e3 bd 7e 98 ed 3c
       0.045816593 0.043404024 -0.110986926 0.029003378
0002a0 18 49 40 bd 44 60 2a 3a 9c c6 ae bd 68 c7 76 bc
       -0.046944708 0.000649933 -0.085339755 -0.015062191
0002b0 ee 8e 80 3d 0e f3 68 3d 77 91 95 3c d0 77 8d bd
       0.06277262 0.05687242 0.01825784 -0.06907618
0002c0 62 52 9c 3c a7 29 f4 bd 38 7b c3 bd 42 d1 a4 3c
       0.019082252 -0.11922007 -0.095449865 0.020119313
0002d0 9a 5e 0c bd b0 19 82 3b d9 05 de bd 55 d0 6f 3d
       -0.034269907 0.0039703473 -0.10840959 0.05854829
0002e0 aa 31 fc 3c 99 47 93 bc 15 6e 4a 3b 0a 21 8a bb
       0.0307854 -0.017978476 0.0030888368 -0.0042153643
0002f0 b8 94 a5 bb bd de 2b 3b f6 f6 75 bc e6 3d c9 3d
       -0.005053129 0.0026225292 -0.015012493 0.09826259
000300 e6 2c 4c bd a4 c5 fb bd 74 fc 90 bc 0c 5f 9e bc
       -0.049847506 -0.12293556 -0.017698504 -0.019332431
000310 39 15 d4 bc e8 b8 d2 3d f3 37 78 bc 7a 5a c0 bc
       -0.025889026 0.10289174 -0.015150058 -0.023480643
000320 6d 0e bf bd 1e ba 1d bc 10 5b 9d 3c 35 8a 81 3d
       -0.093289234 -0.009626893 0.019208461 0.06325189
000330 f8 7c 96 bd fb cd 7f 3d 93 91 92 3d f0 d7 98 bc
       -0.07348055 0.062452298 0.07156672 -0.018657655
000340 eb cb f3 bb 9c 32 01 be e4 3d 99 3d 9a a8 c5 bd
       -0.0074400804 -0.12616962 0.07482508 -0.09651299
000350 7a b9 86 3c 89 07 27 bd ae e6 d2 bd 45 04 ab 3b
       0.016445864 -0.04077867 -0.10297905 0.005219015
000360 4c cf 41 bd 3d 67 7a 3d 1c ad 02 3e 2a f2 6a bc
       -0.047316834 0.061133612 0.12761348 -0.014339963
000370 41 8e 0e 3d 72 e2 3b 3d d5 7a a0 bd 35 55 f5 bc
       0.034803633 0.045870252 -0.07835928 -0.029947856
000380 1b ab d2 3d 05 a0 88 bb 9b 23 6b 3b ef 4b 4d 3d
       0.10286542 -0.0041694664 0.0035879377 0.050121244
000390 7d ed d0 bd ee 62 a1 bd 2e 6d 06 3d 9e 11 9c 3d
       -0.10201547 -0.078801975 0.032818966 0.07620548
0003a0 38 e4 2b 3b 63 05 c1 bd 1f 30 85 bd 24 0f af 3d
       0.0026228558 -0.094248556 -0.06503319 0.0854781
0003b0 9c 84 81 3d 6f 1d db 3d 16 b5 b2 3c af ee 0f bd
       0.06324121 0.106989734 0.021814864 -0.035139736
0003c0 46 bd 2a 3c 45 6e 9d 3c 86 b8 7a bd 73 d7 19 bd
       0.010421103 0.01921762 -0.06121113 -0.037558984
0003d0 93 47 44 bd f8 a5 4f 3d 9a e0 ef 3d ec 76 b1 3a
       -0.04791982 0.05069539 0.11712761 0.001353947
0003e0 ef bd 8c bd 4e 85 24 bd 17 18 c6 bd 50 66 63 bc
       -0.068721645 -0.04016619 -0.096725635 -0.013879374
0003f0 f2 81 77 bd 70 c6 04 bd c6 c5 80 3e 61 30 4b bd
       -0.06042666 -0.032415807 0.2515089 -0.049606685

conv3.bias f4 [32]
000000 17 16 a3 3d 5c 6a 68 bd 1e 4a 3e bd 52 48 ae 3c
       0.07963198 -0.056742057 -0.046457402 0.02127472
000010 5c 2f b8 3b f5 b9 fb bd 76 b5 ce bc c2 17 0f be
       0.00562088 -0.12291328 -0.025233012 -0.13973907
000020 5c b5 38 bd c8 11 7a 3b 33 40 ad bc 12 9a b6 bc
       -0.045094833 0.003815757 -0.021148777 -0.022290263
000030 0f f4 80 3b 51 a6 86 bc e2 0e b1 3b 06 70 57 bb
       0.003935344 -0.016436728 0.0054033855 -0.0032873168
000040 20 71 c8 3d 23 9a b2 bc 67 4f eb bd 84 c4 1b bd
       0.09787202 -0.021802014 -0.11489754 -0.03802921
000050 29 d6 81 bc 20 b2 10 3c d9 b0 51 bb 7b 33 19 bd
       -0.01584919 0.008831531 -0.0031996279 -0.03740261
000060 f6 b5 d7 bb de b7 07 be dc e9 dc 3c b9 95 94 3c
       -0.0065829707 -0.13253734 0.026966982 0.0181378
000070 6e 6b 8b bb 7f 82 fd 3d 7a d0 86 3c f3 34 1a bc
       -0.00425475 0.12378406 0.016456831 -0.009412038

conv4.weight f4 [32, 32, 3, 3]
000000 ba ea d4 bc bd 0d 38 3d 55 60 8e 3d c6 c7 a5 bc
       -0.025990833 0.044934977 0.069519676 -0.020236861
000010 36 1e 74 bd 41 45 e7 bd 37 71 f9 3a 97 50 af 3d
       -0.059599124 -0.11292506 0.0019030933 0.08560293
000020 07 77 64 bd 3d b8 c7 bc 44 6a be bd b0 cf 37 3d
       -0.055777576 -0.024379844 -0.09297612 0.0448758
000030 ad ee 94 3c b1 db 28 3c bc 6f a5 bd 80 6b c7 bd
       0.018180216 0.010306285 -0.08077952 -0.09737301
000040 3a 26 c1 3d c6 d5 cf bc 0a 88 d3 bd ed 03 d2 bb
       0.09431119 -0.02537049 -0.10328682 -0.0064091594
000050 e3 9d 14 3e 5e 83 08 3d 05 9f 38 be 90 7a dc 3d
       0.14513354 0.033328407 -0.18029411 0.107655644
000060 84 99 28 bc 79 48 90 3e e5 61 14 bd 53 83 19 3e
       -0.010290507 0.28180292 -0.036226172 0.14991502
000070 78 91 97 3c cf 4e f2 bd 22 a1 0a bd 02 32 e7 3c
       0.018501982 -0.11831438 -0.033845074 0.028222088
000080 df 35 62 bd 45 f3 7f bd 0b 9d 1b 3c a9 32 db 3d
       -0.055227157 -0.06248786 0.009497891 0.10703022
000090 1a c1 fa bc ec b4 d0 3c 23 33 e5 3d 3d d4 3c 3a
       -0.030609656 0.025476895 0.11191394 0.0007203257
0000a0 0c 6d 28 bc 17 04 b5 bc 9f 5c c5 bd 12 34 eb bd
       -0.010279905 -0.022096677 -0.09636807 -0.11484541
0000b0 5d 5c b8 bd 71 5d a2 3d db d7 ae 3d 90 45 07 be
       -0.09001992 0.07927979 0.08537265 -0.1321013
0000c0 11 20 9e 3d 6d b8 29 be f6 eb cb bd 74 5f 30 3d
       0.0772096 -0.16574259 -0.09957115 0.04305978
0000d0 cb ee f7 bd 4a 03 23 bd bb e9 f3 3d 8c 77 3e 3d
       -0.12106093 -0.03979806 0.11909815 0.046500728
0000e0 e5 78 7d bd 0a 83 28 bd 87 12 96 bd 9e ec 21 be
       -0.061882872 -0.041140594 -0.073277526 -0.15812919
0000f0 f6 a2 14 be a9 46 c8 3c 86 83 3a 3d 70 d7 36 bd
       -0.1451529 0.024447756 0.045535587 -0.04463905
000100 66 20 65 3c 1b 79 a2 3d d5 23 c4 3c ef d2 55 3e
       0.013984775 0.07933255 0.023942867 0.20881246
000110 45 6b 17 3d 83 84 29 bd 3e ff 70 bd 3d 8b 71 3d
       0.036967535 -0.04138614 -0.058837168 0.05897068
000120 7c c6 17 3c eb 5b 23 be 2a 4b 83 bd db b5 b6 3d
       0.009263631 -0.15953033 -0.06410821 0.08921405
000130 ed 80 12 3b a8 eb ad 3c 79 16 c8 3a 18 bb 8a bd
       0.0022354678 0.021230534 0.0015265486 -0.067739666
000140 f9 c9 e6 3d e4 97 3e 3c 89 41 e7 bd 52 a6 51 3d
       0.11268992 0.011632893 -0.11291797 0.051184006
000150 e3 8d 4a 3d b6 81 86 3d 8c 21 83 bd e7 6b 31 bd
       0.04945172 0.06567709 -0.06402883 -0.043315794
000160 8d 0a ab bc 9f 44 46 3d 3b 7d 11 3d b6 ad 3c bd
       -0.020879054 0.048405286 0.03551982 -0.0460641
000170 c7 06 ff 3d cc 89 66 3d e5 5b 9c bc 85 7b ff bc
       0.124524646 0.056283757 -0.019086787 -0.031186828
000180 e3 f6 1d bd 9b 5b 72 bd dd 05 6c 3d ff 39 4e bd
       -0.038565528 -0.059169393 0.05762278 -0.050348278
000190 47 7b 26 3e cc f3 df bc 14 a8 a6 bd d8 b9 2b bc
       0.16257964 -0.027337931 -0.08137527 -0.01048132
0001a0 1c a2 b7 bc 11 4c f4 3d e5 76 30 3e 29 bd a3 bd
       -0.022416167 0.11928571 0.17232855 -0.07995064
0001b0 2f c3 5d bd 6e 5d 30 be b9 f3 30 3d 96 f8 a4 3d
       -0.05414122 -0.1722314 0.043201182 0.080552265
0001c0 c3 36 67 bd c9 7d ba 3d f6 4f aa 3c db fa bc bd
       -0.05644871 0.09106023 0.020790081 -0.092275344
0001d0 8d fa 42 bd 7f b0 fc 3d 1e f0 41 bc 3a cc 89 bd
       -0.047602225 0.123383515 -0.011837034 -0.06728406
0001e0 85 ee 84 bc aa 61 aa bd f2 2d 7b 3d 54 94 e1 3c
       -0.016227016 -0.08319409 0.061323114 0.027536549
0001f0 cf e3 53 bd 1f b8 b2 bd 6a 53 95 3c 37 db 03 bd
       -0.051730927 -0.087265246 0.018228251 -0.03219148
000200 54 7b 0b bd 8e f3 82 bd 0a cf 27 bd 9e dd 19 3e
       -0.03405316 -0.063941106 -0.040968932 0.15025946
000210 a9 f2 e0 3c 59 9a 19 bd 85 5e 26 bc b8 c9 31 3d
       0.02745946 -0.037500713 -0.010154371 0.043405265
000220 03 c1 d9 3d 5d 14 9d bd 9f 8e 1a bc 8c 15 8f bd
       0.10632517 -0.076698996 -0.009433418 -0.069865316
000230 ee 8e a7 bd 24 30 13 bd 6d a1 e6 3c 0e 6c 14 be
       -0.081815585 -0.035934582 0.028153146 -0.14494345
000240 03 d6 73 bd 4c 98 0f 3e 8b 3f c9 3c 9f 7a 4a 3d
       -0.05953027 0.1402294 0.024566432 0.049433347
000250 87 86 13 3d b2 f0 6d bc ab c3 ea bc 24 62 82 bd
       0.036016967 -0.014522718 -0.028657755 -0.06366375
000260 6c 86 9f bc d2 b3 37 be c5 52 8f 3d 1b 1f a5 bd
       -0.019473277 -0.1793969 0.06998209 -0.080625735
000270 20 14 91 bd e3 e7 38 3e 77 85 20 bd ea 06 fe bc
       -0.07083917 0.18057208 -0.039189782 -0.031009156
000280 03 e3 e5 bc 1b 1a 1d 3e d5 21 58 bd d3 f4 9f bc
       -0.02806235 0.1534199 -0.05276664 -0.019525921
000290 eb ab 10 bd 22 bf 8b 3d e3 d3 42 3e dd 12 5e bd
       -0.035320204 0.06823565 0.19026141 -0.05421721
0002a0 4f c5 1e bc a8 09 2a be 14 5f 46 3c b2 a1 cb 3b
       -0.009690597 -0.16605246 0.012107629 0.006214344
0002b0 0d 95 7b bd ff 9b a9 bc 1e be 4c 3d c7 f7 84 bd
       -0.061421443 -0.020704268 0.049985997 -0.06492572
0002c0 f7 44 1d bc 06 d9 9b bd a8 99 ec 3b 83 d4 d7 3d
       -0.009598962 -0.07609753 0.0072204657 0.1053858
0002d0 ba 98 90 3d 57 8d 2e bd dd 29 98 bc aa b2 dd 3d
       0.0706038 -0.04261526 -0.01857465 0.10825093
0002e0 b9 a3 29 bd be e6 0d bd 9b 89 18 be b0 b0 35 bc
       -0.041415904 -0.03464388 -0.14896242 -0.011089489
0002f0 57 3b 00 3d ab 42 8a bd 17 bc 5f 3d e0 67 2c bc
       0.03130659 -0.06750997 0.054622736 -0.010522813
000300 16 19 d4 37 12 e3 cd bd ea 5a b9 bb 02 40 13 3d
       2.5284051e-05 -0.10053076 -0.0056565898 0.035949714
000310 94 9e a7 3d d9 60 e2 bd 82 a3 10 be 5d c2 7c 3e
       0.08184543 -0.110536285 -0.14124873 0.24683519
000320 d9 9d ba bd 2f 56 97 3d 4d 1d ba 3d f2 38 55 3d
       -0.09112138 0.07389485 0.0908762 0.05205626
000330 2b 19 fd 3d 14 e5 4a bc 5c ae e2 3c ff e8 42 3d
       0.12358316 -0.012383718 0.027671032 0.047585484
000340 8b 1a 1c bd cd 34 6d bc c3 db 0f be bd 0d ea 3d
       -0.03811125 -0.014477921 -0.14048676 0.114284016
000350 50 1e 56 bc ba 1a dd bc 87 6e dc bb 4c f7 aa 3b
       -0.0130687505 -0.026990283 -0.006727043 0.0052174684
000360 96 7d 58 3d 18 67 94 bd ee 57 69 3b 8d 6f 06 be
       0.052854143 -0.07246226 0.0035605389 -0.13128491
000370 8e 19 04 3d c3 b7 fc 3d 51 6f c6 bd 5f a5 6e 3d
       0.032250933 0.12339737 -0.09689201 0.05826318
000380 fc e2 c2 3c 44 83 ce bd a7 c1 45 be fc b9 fe 3d
       0.023789875 -0.10083631 -0.19312154 0.124378175
000390 ca 6c 58 bc 3e 44 5c bd 1a 0f 63 3d 48 f0 9b 3c
       -0.013209531 -0.05377602 0.055434324 0.019035473
0003a0 e5 56 75 3e 70 09 3d be 69 1a 9a bd 7a d5 cc bd
       0.23958929 -0.18460631 -0.075245686 -0.10001655
0003b0 24 03 ea 3c 6b 74 ca bd 38 ee b5 3d 97 07 e4 b9
       0.02856595 -0.09885486 0.08883327 -0.00043493204
0003c0 94 9a c5 3c b0 9e 42 bb f0 cf 96 bc 37 5b 7a 3d
       0.02412156 -0.0029696636 -0.0184097 0.061122146
0003d0 d3 d0 0c 3d f5 50 d1 bc 9b bc 4a bd d0 fc 2f bd
       0.034378838 -0.025551299 -0.049496274 -0.04296571
0003e0 5b dc ca 3d fd 87 11 be 08 e3 38 3d 73 55 ca bc
       0.09905311 -0.14212032 0.04513839 -0.024698948
0003f0 92 c7 00 3d ba 15 dd bd 75 e0 20 3d 45 83 1b bd
       0.031440325 -0.1079516 0.03927656 -0.037966985

conv4.bias f4 [32]
000000 05 2b 08 bd 3e c2 85 bb bd 30 66 bd 4b c0 c4 bc
       -0.03324415 -0.0040819934 -0.056198824 -0.024017474
000010 25 f6 2b be 38 a0 24 bd 68 8f 80 bd c1 86 95 bb
       -0.16793115 -0.04019186 -0.062773526 -0.004563183
000020 9b 56 f8 bc 80 c4 1e bd 79 e5 8f bd 27 54 33 bd
       -0.030314734 -0.038761616 -0.0702619 -0.043781426
000030 ca 20 28 bd f6 ec db bc f6 74 ba bd 6b 1a d2 bd
       -0.041046895 -0.02684639 -0.0910434 -0.10258945
000040 97 66 45 bd 09 c1 71 bd c8 15 52 bc 66 2b 2c bd
       -0.04819354 -0.059021983 -0.012822576 -0.042033575
000050 8f 33 a9 bc 0f 50 92 3c 35 9b 9a 3d 40 0d d2 bd
       -0.020654468 0.01786044 0.07549135 -0.102564335
000060 8c fe 53 bd 8a 93 13 be bb 7a b1 bd a4 11 a0 be
       -0.051756427 -0.1441175 -0.08665987 -0.3126346
000070 b7 a5 35 3b 30 5c 82 bb 4d aa be 3b 2a 47 2d bd
       0.0027717182 -0.0039782748 0.0058186413 -0.042304195

linear.weight f4 [32, 800]
000000 a0 61 5c 3d 42 75 d1 3d 60 4e e2 bb 73 f9 46 bd
       0.05380404 0.10227443 -0.0069063157 -0.048577737
000010 fb 7f a8 bc bd 55 68 be 10 7a 02 3d 5c 64 22 bd
       -0.020568838 -0.22688957 0.03185469 -0.03964649
000020 c7 93 a4 bc 80 c0 d9 3d 63 b6 11 bd 0e 37 36 bd
       -0.020089997 0.106324196 -0.03557433 -0.044486098
000030 4c c7 ff bc b8 cd 33 bd a8 49 0a bd d2 07 de 3d
       -0.031222962 -0.04389736 -0.03376165 0.10841335
000040 88 fe 64 3d dc 01 ab 3b d9 09 07 3b 4e 17 23 bd
       0.055906802 0.0052187275 0.0020605235 -0.039817147
000050 4b 5f eb 3d 56 9a 63 b9 93 a3 09 bd ff 82 57 bc
       0.11492785 -0.00021705902 -0.033603262 -0.0131537905
000060 08 d7 44 bc 91 9d 8a 3d 12 89 85 bd 34 ed 2e 3d
       -0.012014158 0.06768335 -0.06520285 0.042706683
000070 ee 91 51 3c 8c 21 2c 3d fb 56 47 be 43 17 75 3d
       0.01279114 0.04202418 -0.19466774 0.059836637
000080 97 f9 84 bc 36 c5 51 bd d2 b0 8b 3d 1a 0b 87 3d
       -0.016232295 -0.051213466 0.06820835 0.06593914
000090 3d 3d 18 3c ac c3 4c bd 0a 56 3e 3d e9 18 b6 b9
       0.009291944 -0.049991295 0.046468772 -0.00034732305
0000a0 25 a1 42 bc df e4 4a be 63 81 a6 bc 99 4e 2a bd
       -0.01187924 -0.1981387 -0.020325368 -0.041578863
0000b0 47 bc ea 3d 2d af 27 bd b5 17 9a bc 21 dc 25 3d
       0.11461692 -0.040938545 -0.018810133 0.040493134
0000c0 3c 2e ae 3c d7 34 fb 3b 88 b8 17 be 28 93 c6 3c
       0.02126228 0.007666211 -0.14816487 0.024240091
0000d0 1b 21 fa bc 46 5d 7c 3c 89 ef c7 bc c8 29 a4 3d
       -0.030533364 0.0154030975 -0.024406211 0.08015782
0000e0 f8 2d 58 bd c8 5d 80 bc aa a0 a5 3c d2 2f f8 bb
       -0.052778214 -0.015669718 0.020218212 -0.00757406
0000f0 ab 4d 71 bc 98 99 aa 3b 12 a4 04 bb 63 49 80 bc
       -0.01472799 0.005206298 -0.0020239395 -0.015659994
000100 7b 4f 82 bc 6b 9b 8a bc 6e 39 a4 3d 25 08 2b 39
       -0.01590704 -0.016919812 0.08018766 0.00016310865
000110 c1 17 0f 3b 74 5b 08 bd b3 6d af 3d 3c 9b b5 bc
       0.0021834227 -0.03329034 0.08565845 -0.022168748
000120 b1 1f fd 3a e9 86 01 bd 80 88 4e 3c a1 dd d4 3d
       0.0019311813 -0.0316228 0.012605786 0.10393835
000130 6e 9b 82 bd 1e 4c 9c 3d da e3 98 3c 2b b6 4b bd
       -0.06377302 0.07631706 0.018663336 -0.049734276
000140 c0 4e b8 bd f5 53 32 3d d5 0e 9c bc b8 31 32 bd
       -0.08999395 0.0435371 -0.019050041 -0.043504447
000150 d0 e4 05 bc d5 61 27 3c 7e c3 fd bc 76 ef 9b 3c
       -0.008172229 0.010216196 -0.030977007 0.019035082
000160 25 cd 02 3d f5 d8 1b 3d 21 48 82 3d 38 92 d9 bd
       0.031933922 0.038048703 0.06361414 -0.10623592
000170 95 3b 68 3d 65 ad 08 3d ce 81 c5 3c ba 78 f7 bc
       0.056697447 0.033368487 0.024109747 -0.030208934
000180 0a 03 2e 3d 92 4e 0e 3d af 9e 97 3c 98 54 bb 3b
       0.042483367 0.0347429 0.018508283 0.0057168715
000190 c0 34 c6 bd ef 7b 7a 3d f6 93 7e bd 54 09 03 bd
       -0.0967803 0.06115335 -0.062152825 -0.031991318
0001a0 71 29 25 bc f6 75 92 bd 18 18 22 3e 75 07 8d 3d
       -0.010080681 -0.071514055 0.15829504 0.06886188
0001b0 e0 e0 4f 3d 56 cc b8 3c 99 8c da bd f3 bb e6 3d
       0.050751567 0.022558372 -0.10671348 0.11266317
0001c0 18 f1 a6 3d e8 9b 6c 3c 62 b3 52 3d 52 72 c0 bd
       0.08151454 0.014441468 0.051440604 -0.09396805
0001d0 d7 61 94 bd ad 6b ac bd d2 42 da bd fb 85 0b be
       -0.07245224 -0.08418975 -0.10657276 -0.13625328
0001e0 7c be e6 bd 62 7b 12 be 8f 23 de bd 14 b6 0a be
       -0.11266801 -0.1430488 -0.10846626 -0.1354602
0001f0 64 7c 21 be f2 47 40 3d 8a 75 1f bd 2d 31 72 3d
       -0.15770108 0.046943612 -0.038930453 0.05912893
000200 86 4b de bc d8 5a f7 3a 11 14 5b 3c 91 ca f6 3d
       -0.027135622 0.0018871678 0.013371483 0.12050355
000210 eb 67 29 3d b1 d7 2c bd 7d 83 42 bc 9b d9 a0 3c
       0.04135887 -0.042197887 -0.01187217 0.019635012
000220 de 2c f2 bd 6f b5 a2 bc 3c 5d 8c 3c 29 a8 c0 3d
       -0.11824964 -0.019861905 0.017134301 0.09407074
000230 ca e6 b4 bc 89 2d 0c bc 2f bc c0 bc 35 df 91 bd
       -0.022082705 -0.008555778 -0.023527233 -0.071226515
000240 44 3c 02 be cc f5 b5 bc c4 04 89 3d a7 b4 fb 3c
       -0.12718302 -0.022211932 0.06690362 0.03072579
000250 97 0b 9f 3c 87 0d a4 3d 46 92 09 be f9 45 9d 3d
       0.019414706 0.08010393 -0.13434705 0.07679362
000260 1a 49 eb bc f7 98 c0 3c f5 eb eb 3c ff 17 53 bc
       -0.028721381 0.02351044 0.028799037 -0.012884139
000270 e3 ae 7d 3d 19 70 a3 bd 27 87 2c bd aa be 5c 3d
       0.061934363 -0.07980365 -0.04212108 0.05389277
000280 89 8b 12 be 2d 0f 9b 3d 79 0e 8e bc 75 cf 46 bd
       -0.14311041 0.07571254 -0.017340885 -0.04853769
000290 fd 99 42 3c e6 ad 96 3d 99 86 8f bb 03 1a 6b bd
       0.011877534 0.07357387 -0.004380059 -0.057397854
0002a0 32 79 a0 bc 7c ad a3 bc 14 3a 1c 3e 56 71 15 bc
       -0.01958904 -0.019980185 0.1525653 -0.00912126
0002b0 12 88 22 bc 13 e4 7e bd e8 66 28 bd 39 bb 11 3e
       -0.009920137 -0.062229227 -0.041113764 0.14231576
0002c0 93 38 07 be 03 45 37 3d f2 cf 90 3c 58 9a 4f bd
       -0.13205175 0.04474355 0.017677281 -0.050684303
0002d0 5e 58 59 be 37 48 18 3c ce 11 06 bd 6e 01 ba 3a
       -0.21225116 0.009294561 -0.032731824 0.00141911
0002e0 19 b5 ff bb f9 b1 02 3d 55 fb db bb 39 3d 65 b8
       -0.007803571 0.03190801 -0.0067133107 -5.4654873e-05
0002f0 82 30 1c 3c c5 02 83 3d c8 33 7d bc c2 f9 39 3d
       0.00953305 0.063970126 -0.01545424 0.045404203
000300 bf 5d b7 3b 7e 27 67 3d 3c 13 e2 bd 9a c1 8e bc
       0.005595892 0.056434147 -0.11038825 -0.0174263
000310 38 b0 36 3d 70 ff 85 3c c6 52 33 3c 45 a6 40 3d
       0.04460165 0.016357154 0.010945028 0.047033567
000320 d5 de cb bc bd 30 53 3d c2 58 fb bc c3 ad 5d bc
       -0.024886528 0.051560152 -0.030681971 -0.013530198
000330 7c ac 2e 3c a9 3f bb 3d f2 b4 15 bc 8a e8 07 3d
       0.010661241 0.091430016 -0.009137379 0.03318075
000340 97 43 56 bd d0 a8 0c 3d e1 2f 9e bc 02 31 01 3d
       -0.052310552 0.03434068 -0.01930994 0.031540878
000350 2f fc 10 bd c6 ac 5e bc 15 72 62 bc 31 27 c8 bc
       -0.03539675 -0.013590997 -0.013821145 -0.02443275
000360 3c ff 6f bd 76 fa e7 3c 1a 8e 70 3c c2 8e f0 ba
       -0.05859302 0.028317671 0.014682317 -0.0018353092
000370 c5 21 1b 3d ca e1 0c bd 95 6c e8 ba d7 17 1f bd
       0.037874002 -0.034395017 -0.0017732555 -0.038841095
000380 70 c4 bc bb 41 33 54 3d a0 cf 47 3d 1c 4b 7f bc
       -0.005760722 0.051806692 0.04878199 -0.015581872
000390 01 f8 b8 bd 29 1a 78 3d 9e 04 83 be 29 7a 44 bc
       -0.09031678 0.060571823 -0.2558946 -0.011992016
0003a0 55 14 68 bc 5f 29 c9 bc 10 48 94 bd eb 40 e7 3c
       -0.014165004 -0.02455586 -0.07240307 0.028229197
0003b0 01 4a 8a 3d c6 ea a2 bb b6 e8 51 3d 03 67 ff bb
       0.067523964 -0.004971835 0.05124732 -0.0077942624
0003c0 2d 39 da 3d 1e 92 09 be 7a 11 83 bd c7 c5 0a bd
       0.10655437 -0.13434646 -0.06399818 -0.03388002
0003d0 98 3a a2 bc 7d 6c 15 3d 3e 26 86 3c de 08 72 bb
       -0.01980333 0.036480416 0.016375657 -0.0036931555
0003e0 cd 6a 23 3d 75 75 9a 3c b4 39 52 bd 41 22 9a bc
       0.039896775 0.018854836 -0.05132456 -0.018815162
0003f0 65 32 b5 bb db 1e c2 3c 00 86 32 3d 28 c6 98 bb
       -0.005529689 0.023696354 0.043584824 -0.004662294

linear.bias f4 [32]
000000 26 6b 87 3e ca 71 53 be 38 c7 55 be 10 98 bb bc
       0.26448935 -0.20648876 -0.20876777 -0.022899657
000010 f3 92 67 bc fc 89 9b 3d 33 f7 53 be 41 a7 99 3d
       -0.0141341565 0.07594678 -0.20699768 0.07502604
000020 94 50 bc 3a 7c 03 35 bd ba 42 4d bb 73 ad 67 be
       0.0014367276 -0.044192776 -0.003132029 -0.2262476
000030 15 18 2e bd 8b be 34 3e 37 33 3f be e0 7b 93 3d
       -0.042503435 0.17650811 -0.1867188 0.07201362
000040 ae 54 82 bd 3c eb 38 3e d9 19 2e 3d 6b 9f 7a be
       -0.063638076 0.18058485 0.04250512 -0.24474876
000050 70 e5 48 3d 7d db c0 ba 1e e3 aa 3c f3 eb 07 bd
       0.049046934 -0.001471385 0.020860251 -0.033184003
000060 24 74 99 bd 29 a5 29 3d 2b 21 76 3c 31 b4 53 3e
       -0.07492855 0.041417275 0.015022556 0.20674206
000070 a1 e6 55 3c f2 d1 53 3c 0e e0 71 be 00 ff 3f bc
       0.0130554745 0.012928473 -0.23620626 -0.011718512

critic_linear.weight f4 [1, 32]
000000 45 2d 0a 3e 7d b9 0c be 1f e1 26 be f6 a2 4d 3b
       0.13493831 -0.13742633 -0.16296814 0.003137765
000010 93 01 00 bb 27 84 96 3b 2c 4f 78 bd e8 25 6b 3b
       -0.0019532188 0.0045933905 -0.06062238 0.0035880748
000020 8a 18 cb b8 7f ff b0 bb c9 d3 fa ba 41 17 a8 bd
       -9.684365e-05 -0.0054015513 -0.0019136603 -0.0820756
000030 31 ac f7 ba 1f b1 8d 3d 29 f2 e1 bd a3 5d 63 3b
       -0.0018895922 0.06918549 -0.110325165 0.0034693263
000040 ae 1f 52 bc cb 34 c2 3d 3f eb b5 39 06 51 22 be
       -0.012824936 0.09482726 0.00034698282 -0.1585122
000050 f4 9b 8b 3a 49 56 c3 bb e6 96 a3 3b d1 ee 9d ba
       0.0010651336 -0.0059612137 0.0049923537 -0.0012049322
000060 4b 26 52 bb c2 71 76 bb ee 3c cd 3a 0a 75 d8 3d
       -0.0032066281 -0.0037604426 0.0015658417 0.105691984
000070 e1 bc 0e bb 45 ec ae bb cd 4f bb bd de cc 2b 3b
       -0.002178006 -0.005338224 -0.0914608 0.002621464

actor_linear.weight f4 [6, 32]
000000 a9 64 a7 3d ff 32 88 bb d0 6b 5c be 19 10 bc ba
       0.08173496 -0.00415647 -0.21525502 -0.0014348059
000010 37 59 a0 3a 88 d1 d3 3d d7 b3 ac bd 53 14 84 3d
       0.0012233619 0.10342699 -0.08432739 0.06449189
000020 d1 ce 04 bc 2d be 26 3c 1b 85 9e 3c 04 b1 5c bd
       -0.0081059495 0.010177177 0.019350579 -0.053879753
000030 49 63 5b 3c 29 ac 60 3e e6 3c 42 be a1 e3 f1 3d
       0.013390371 0.21940674 -0.18968543 0.11810995
000040 94 b5 bf bd aa 50 b0 39 c5 2f 83 3d 37 9e 50 be
       -0.09360805 0.00033629435 0.06405596 -0.20372854
000050 62 f1 f7 3c 95 51 55 3c a5 27 02 bc bc 95 c8 3d
       0.030266467 0.013019939 -0.007944022 0.097941846
000060 e0 4f dd 3a 03 88 b3 3d 69 76 c2 3d 18 44 3c 3a
       0.0016884767 0.087661766 0.09495241 0.00071817776
000070 3a 97 8a ba 18 74 dd bc 7b e4 da bc 2a cc 08 bd
       -0.0010573633 -0.027032897 -0.026720276 -0.03339783
000080 63 ac da 3d 38 c8 c3 bd 50 b7 91 bd 7b ce 11 3d
       0.106774114 -0.09559673 -0.07115042 0.035597306
000090 0d 70 9c bb 12 79 b3 3d f2 fb 44 bc 32 4a 82 3d
       -0.0047740997 0.08763327 -0.012022959 0.06361808
0000a0 b4 27 ad bb 08 a5 14 bd 89 c0 f1 bb b1 da 71 3c
       -0.005284274 -0.0362902 -0.0073776883 0.014761613
0000b0 5a cb 24 bc 7e 35 4b 3e 96 69 6a be b1 5a 19 3e
       -0.010058248 0.19844624 -0.2289184 0.14976002
0000c0 70 e4 17 be 7f bb 93 3c 2d d9 24 3d 7f 6b 12 be
       -0.14833236 0.018033741 0.040246177 -0.14298819
0000d0 6b 25 40 3d 5d 3f ba bc f1 17 36 bc e9 fd c0 3d
       0.046910685 -0.022735292 -0.0111141065 0.094234295
0000e0 02 ce 16 bc 0e 23 91 3d 78 e1 13 3e 6e 4f 40 3e
       -0.0092043895 0.07086764 0.14441478 0.187803
0000f0 2a a3 ac 3c e8 80 32 bd f3 a6 08 be b1 d4 09 bd
       0.021073896 -0.043579966 -0.13344936 -0.033650104
000100 8f 3d 94 3d ec d6 ca bd 9a 35 8a be 83 1a a7 3c
       0.07238304 -0.09904274 -0.2699402 0.020398384
000110 44 86 14 bd 2e b3 b5 3d 88 63 e7 bd 27 7d 95 3d
       -0.03626086 0.088720664 -0.11298281 0.072992615
000120 14 53 ab bd 01 41 0b bb 18 21 1d 3d 22 a8 27 bd
       -0.08365455 -0.0021248462 0.03836164 -0.04093183
000130 bf 7c 14 bd 3d 9e f7 3d 40 ba 52 bd 26 e4 c5 3d
       -0.03625178 0.120907284 -0.051447153 0.096626565
000140 d4 76 73 bd b9 7f ec 3d a3 1f 8b 3d 67 76 14 be
       -0.059439495 0.11547799 0.067931436 -0.14498292
000150 9f a8 c7 3c 48 10 ae bc e1 66 86 3c e4 d2 62 bd
       0.024372397 -0.021247998 0.016406478 -0.055376902
000160 1e 38 28 bd ec 49 b8 3d 08 3e ca bd 04 56 e1 bd
       -0.041069143 0.089984745 -0.09875113 -0.11002734
000170 1f 92 b5 ba 09 3a 04 bc ca 75 9b bd c8 ad cb bc
       -0.0013852752 -0.008070477 -0.07590826 -0.024863139
000180 1e 0c d8 3d ae dc 42 bd 1e ce 35 be 9b ab 5d 3d
       0.10549186 -0.047573738 -0.17754409 0.054118734
000190 97 d2 bf bb 9b 2f 1c 3e ee 6d a4 3d 14 67 cd 3d
       -0.0058539617 0.15252535 0.0802878 0.10029426
0001a0 a8 33 02 3d 61 b1 88 bc e4 6a f5 3c 2c 62 4f bd
       0.031787544 -0.016686143 0.029958196 -0.050630733
0001b0 7a 94 c7 3d 6d 79 1f 3e 53 41 83 bd 84 ff 62 3d
       0.097451165 0.15573664 -0.06408944 0.05541946
0001c0 e3 2b 01 be 53 00 12 3d 96 a7 f7 3d 1a 60 64 bd
       -0.12614398 0.03564484 0.12092511 -0.055755712
0001d0 54 c7 00 bd 10 70 56 bd ef 17 c5 3c bb aa 11 3e
       -0.031440094 -0.052352965 0.024059264 0.14225285
0001e0 45 56 9c 3d 0b e8 77 3d 7d 95 01 3e 98 28 20 3e
       0.07633642 0.060524028 0.12654682 0.15640485
0001f0 cf 82 bd 3d b4 9f 16 3d b5 a8 31 bd 95 63 28 3d
       0.092534654 0.0367734 -0.043373782 0.041110594
000200 8e c8 1b 3e 50 7b ac bd 11 01 84 be 0b 8b e7 3c
       0.15213224 -0.084219575 -0.25782064 0.028264543
000210 29 b9 59 bd 6a 55 b5 3d 2e 4a 1b be b9 f2 c4 3d
       -0.053155098 0.08854182 -0.15165016 0.09616608
000220 3d 55 87 bd f6 2e 52 bc 6f dc 87 3c 1d 0a 2e be
       -0.06608055 -0.012828579 0.016584603 -0.16996045
000230 d3 0a aa bd ca 14 99 3c 04 6c 1e be 99 73 c5 3d
       -0.08302846 0.01868667 -0.15470892 0.09641189
000240 5d 7e 4c be a7 b6 8f 3c 30 d1 4e 3d a6 c9 24 be
       -0.19970079 0.01754315 0.050492465 -0.16092548
000250 e2 f3 9c 3c 41 cf 8c bc b5 0f b2 3b 18 ed 05 bd
       0.019159261 -0.01718867 0.0054340013 -0.032696813
000260 24 82 cf bd 24 06 c6 3b 5f e4 bb ba 30 de 33 bd
       -0.10132244 0.0060432125 -0.0014335028 -0.043913066
000270 46 98 d0 3b d8 33 be bc 92 c0 d8 bd 34 5b 81 bc
       0.0063658087 -0.02321808 -0.10583605 -0.01579056
000280 38 93 4a 3e 99 04 56 bd 10 12 e4 bc 48 c6 0f ba
       0.19782722 -0.05225048 -0.027840644 -0.00054845633
000290 d2 1b bc ba 8b 8f 97 3d 6f 33 ec 3c 12 87 2a 3d
       -0.0014351553 0.074004255 0.02883312 0.04163272
0002a0 15 ed ca 3c 65 ac 9f bc 96 1b 35 bc 0d 86 c7 bd
       0.024771253 -0.019491384 -0.01105394 -0.09742365
0002b0 7e f3 5c 3d bc 43 18 3e cb 80 da bc 1d 7c 1f 3e
       0.05394315 0.14869589 -0.026672741 0.15574689
0002c0 70 36 56 be 4d e2 07 3e b7 eb 8d 3c c0 98 2d be
       -0.20919204 0.1326992 0.017324312 -0.16952801
0002d0 21 48 13 3d 9d 9e c5 bc d6 75 e3 bb 05 81 2b 3e
       0.03595746 -0.024123484 -0.0069415374 0.16748436
0002e0 46 76 72 3d ee db ee 3d 01 3c 77 3e 4d a3 8b 3e
       0.059194826 0.11663042 0.24143983 0.27273026
0002f0 d5 64 94 bb 79 53 93 bc 72 86 9f bd c6 97 a5 bc
       -0.0045286217 -0.017984139 -0.07789315 -0.020213973

actor_linear.bias f4 [6]
000000 33 0c 53 bd 92 9f 82 3d 3f 08 53 3e 97 ac 72 3d
       -0.051525306 0.06378092 0.20608614 0.059246626
000010 e4 37 ff 3c 7f 92 f5 3d
       0.03115458 0.119908325
